data/20240122/output_net_32000.pth (torch, 38764 bytes, 8 tensors)

layers.0.weight f4 [64, 5]
000000 42 84 92 be fd 13 a7 be 7d 6e 62 bd e4 a2 73 be
       -0.2861653 -0.32632437 -0.05528115 -0.23792607
000010 f2 bd b6 3e e9 a6 72 3d e9 18 0b be b2 95 31 be
       0.35691792 0.05924121 -0.13583721 -0.1734226
000020 a8 ed 8a 3e a7 2c 18 be c4 95 6b be 99 78 6f 3e
       0.27134442 -0.14860784 -0.2300635 0.23385848
000030 a4 86 93 be 74 7b 9c 3e 7e c9 6a 3f f9 96 a4 bc
       -0.2881366 0.30562937 0.917137 -0.02009152
000040 f2 46 92 be c5 5a c7 bd 4a 8a 46 3e 0c 24 bc bd
       -0.28569752 -0.0973411 0.1938869 -0.09186563
000050 1f 49 ca 3d d4 c1 49 3e ea 38 a3 be aa e4 23 be
       0.09877228 0.19702846 -0.3187936 -0.16005197
000060 e8 63 28 bd 2f fa 97 3c 26 27 80 be a8 57 f5 3d
       -0.041110903 0.018551914 -0.25029868 0.1197961
000070 f6 a6 6f be 07 b1 43 be a4 e3 27 3e d3 1f 9d 3d
       -0.23403534 -0.191105 0.16395432 0.076720856
000080 4b fc 89 3d 97 64 0e be 45 f2 a0 3d 2d 91 08 be
       0.06737574 -0.1390556 0.07858709 -0.1333663
000090 48 83 e9 b9 65 b4 01 3e 25 e0 0d 3e 6b c0 0d be
       -0.00044539035 0.12666471 0.13855036 -0.13842933
0000a0 93 74 95 3e ab 41 96 3e 56 af 13 3d 89 84 81 3c
       0.29190502 0.29346976 0.036055885 0.015810268
0000b0 72 6b 88 3d 7f 4b 80 be 83 f9 72 be 05 95 0b be
       0.066611186 -0.250576 -0.23727994 -0.13631065
0000c0 e4 c8 1b bd 29 50 32 3e 8c a4 8a be 41 7a a8 3e
       -0.03803338 0.17413391 -0.27078664 0.32905772
0000d0 8b a2 8a 3e 20 8b 94 3e 17 91 eb bd 6b 87 7a be
       0.27077135 0.29012394 -0.11502283 -0.2446572
0000e0 9a 03 ad be f1 c2 99 be 3b 30 2d 3e f4 8d e6 bd
       -0.3379181 -0.3003154 0.1691293 -0.11257544
0000f0 70 1c f1 3d e6 96 db 3d 9a 1a e0 3d 71 18 0b bd
       0.11773002 0.10722141 0.10942574 -0.033958856
000100 b4 77 d6 3e 8d fd aa be 6c 79 94 be 85 05 27 3e
       0.418882 -0.3339657 -0.28998888 0.163107
000110 75 89 6a 3c 26 9e df bd fa 11 92 3d 3f 19 3e be
       0.014314999 -0.10918836 0.07132335 -0.18564318
000120 95 73 a8 be 1b ce 80 3e 6e 73 60 bd ff 5b 24 3e
       -0.32900682 0.25157246 -0.054797582 0.16050719
000130 4f 2f ee bd 74 0f 7f be e3 e4 77 be 34 0d 27 3e
       -0.11630117 -0.24908239 -0.24208407 0.1631363
000140 c6 a2 bf bc 42 04 43 be 99 3b 97 be b5 b6 81 bd
       -0.023393046 -0.19044593 -0.29537657 -0.06333677
000150 31 01 87 be 10 04 1f be 62 ba 8f bd da bc 0c 3e
       -0.26368096 -0.15528893 -0.070179716 0.13743916
000160 0d 12 4f 3e 5d 04 7d be 66 7c 1c 3e b3 de e4 3d
       0.2022173 -0.24708696 0.15281829 0.11175289
000170 d1 71 72 be a1 21 d4 bc 1b 17 0d 3e b6 f7 32 3e
       -0.2367623 -0.025894942 0.13778345 0.17477307
000180 79 45 eb 3c a6 15 38 3e 9f c3 29 bd 71 88 5c be
       0.02871965 0.17977008 -0.041446324 -0.21536423
000190 c4 b2 62 3e 3a bf 3e be 7e f1 a1 be cc 22 79 be
       0.22138506 -0.18627635 -0.31629556 -0.2432968
0001a0 b9 b3 3b 3e e5 fd 93 be ca b4 c7 bc 58 3e 96 bc
       0.18330278 -0.28904644 -0.0243782 -0.018340275
0001b0 91 34 a8 be 85 a8 60 3d c8 3f 1a be 03 1f 20 bc
       -0.32852605 0.054848213 -0.15063393 -0.009773019
0001c0 d8 f4 96 be 5b b8 98 3e 0a df c2 3d 09 a2 c4 3e
       -0.29483676 0.29828152 0.095151976 0.38404873
0001d0 35 ce 70 be a3 d4 45 be 1d c1 65 3d e6 53 70 3e
       -0.23516162 -0.19319396 0.05609237 0.23469505
0001e0 57 22 63 3e 23 3a a5 be b4 ff 51 be 98 5f 97 be
       0.22181068 -0.32270917 -0.20507699 -0.2956512
0001f0 b4 9c da bd 04 91 8e be 9b 6e a2 3e d3 73 c8 bd
       -0.1067442 -0.27845013 0.3172501 -0.09787717
000200 d5 c2 61 3e 35 3e 92 3c 86 5c 96 3e bc ff 8a 3e
       0.22046979 0.017851928 0.29367465 0.27148235
000210 0e 20 38 be b9 7e ca 3c 30 f7 23 bd bc ec 64 3e
       -0.17980978 0.02471863 -0.04003066 0.22355932
000220 45 b7 99 3e 9e 3d 04 be 2b 0d 74 3b 0c 37 8c 3e
       0.30022636 -0.1291413 0.0037239294 0.27385747
000230 7f b0 19 bd ca 14 35 bd 58 e1 99 be 41 ff 29 be
       -0.037521835 -0.04420928 -0.30054736 -0.16601278
000240 a4 4a e0 bd e4 26 4e 3e bb 21 e4 3b d5 e1 84 be
       -0.109517366 0.20132023 0.006962029 -0.25953546
000250 01 0b 27 3e 82 b2 2b be 3e 6e 37 3d 41 03 ab bd
       0.16312791 -0.16767314 0.04478287 -0.0835023
000260 b6 2d a6 3e ee e2 7c 3c dd f9 63 3d 68 8f a6 be
       0.3245675 0.015434964 0.05565821 -0.32531285
000270 9a 89 84 be 40 76 90 3e 11 d5 03 be b3 e4 8e be
       -0.25886232 0.28215218 -0.12874247 -0.2790886
000280 6b 70 da bd b3 62 75 3e 59 f6 4f be 2c ba 13 3d
       -0.10665973 0.23963432 -0.20308818 0.03606622
000290 01 f1 b4 3d a0 14 8b be 35 a1 6a bd 6e b7 af bd
       0.0883503 -0.27164173 -0.057282645 -0.08579908
0002a0 6e 0c 4b be f3 c2 37 be 3c 8f 66 3e 52 66 8a 3e
       -0.1982896 -0.17945461 0.22515577 0.2703119
0002b0 c4 58 7d be 8f 8c 8f 3e 8b 17 4e 3d 7f 38 8e be
       -0.24740893 0.28036925 0.05031542 -0.27777478
0002c0 a3 d3 f3 3d 13 aa 0c 3d 69 67 9a be f7 0d 64 3e
       0.11905601 0.034341883 -0.3015702 0.22270952
0002d0 1c 3b 1c 3e 9a a6 2e be 28 f2 81 3e ad 07 02 be
       0.15256923 -0.17055741 0.25380063 -0.1269824
0002e0 31 03 0a 3d e2 c2 b9 be bc a9 f1 3d 67 35 6d be
       0.03369445 -0.36281496 0.117999524 -0.23164903
0002f0 3e 78 a1 3e cc 99 8b 3e 81 59 31 be 9d 5e 9f 3a
       0.3153705 0.27265775 -0.173193 0.0012158934
000300 33 f4 00 be e1 82 64 bd ae 1c 4d 3e 7a 2b 98 3e
       -0.12593155 -0.05578888 0.20030472 0.2972067
000310 b8 ce 98 3d db ba c3 bc d3 b3 0a be 1c 28 84 bd
       0.074613035 -0.02389281 -0.1354516 -0.06452963
000320 38 9d 84 3e 03 0f 0d bd d6 bb 79 3e c2 86 66 3c
       0.25901198 -0.034438144 0.2438806 0.014070215
000330 2a ff 7c be 95 91 82 3e 07 07 91 bd 54 7c 8d be
       -0.24706712 0.25501695 -0.070814185 -0.27633917
000340 c5 fe 96 be 00 f9 49 3d 14 80 8a 3e 89 2b b4 3e
       -0.2949125 0.04930973 0.2705084 0.35189465
000350 38 cd 97 be 3d ad 23 be 60 93 7a be 54 f8 5b be
       -0.29648757 -0.15984054 -0.24470282 -0.21481448
000360 af 1f b6 3d 0f e9 17 be 30 16 2d be aa 0e 8b 3c
       0.08892762 -0.14834999 -0.16902995 0.016974766
000370 c9 c8 24 3e 0c 50 8d 3e c5 8d 8e be cd c9 9f 3c
       0.16092218 0.27600133 -0.27842537 0.019505406
000380 5b cc 1b be 46 39 80 be f9 1f af 3e 24 83 fe bd
       -0.15214674 -0.25043696 0.3420408 -0.12427357
000390 fc 37 0c 3e 7e 02 51 3e 60 4a 54 be 5b 8f 76 bd
       0.13693231 0.20411107 -0.20731497 -0.06019531
0003a0 45 97 56 be 29 d5 0d bd 8e 9d 61 be a3 5c 7d 3e
       -0.20956142 -0.034627113 -0.22032759 0.2474237
0003b0 5d c9 0e 3e 96 5e 5b 3e 8b d0 a8 bd fa ce a9 3d
       0.13944001 0.214228 -0.082429014 0.08291431
0003c0 c2 68 82 3e 2f 1a 4d be 40 bf ed bd 54 33 17 be
       0.2547055 -0.2002952 -0.11608744 -0.14765674
0003d0 b2 85 08 be 63 57 bd be 11 bb bc be 5a 59 fc 3d
       -0.1333225 -0.36980733 -0.3686147 0.1232173
0003e0 0b db 87 be d1 e8 56 be 9a bc 82 be 4a 20 23 bd
       -0.26534304 -0.2098725 -0.25534517 -0.039825715
0003f0 82 2e 80 3d 92 71 68 be 47 73 d9 3d 91 29 28 3e
       0.06258871 -0.22699574 0.106176905 0.16422106

layers.0.bias f4 [64]
000000 98 5a 07 bd 9e 41 a1 3a 36 a6 0e 3e 64 8e 1a 3c
       -0.03304538 0.0012302881 0.13930592 0.009433363
000010 bc 48 1a 3d f0 5a 3b 3c d8 4a 94 bc 5f ca b5 bc
       0.03766702 0.011435255 -0.018102095 -0.022191225
000020 fb 78 bf 39 52 af 6a 3d 05 0f 16 3d a9 7d 8a 3d
       0.00036520496 0.057296105 0.036635417 0.06762249
000030 6c 12 4b bd d1 bf 6a bd 3e ac ae 3c 73 b9 1a 3c
       -0.049578115 -0.057311837 0.021322366 0.009443629
000040 4f 4b 23 bc ef b2 7b 3c 91 03 11 bb 92 0e 58 bb
       -0.009966685 0.015362485 -0.002212737 -0.003296767
000050 1e ba d3 3d 3f 0b ae bd 59 f6 14 3c 6d 71 12 3b
       0.103382334 -0.08498239 0.009091937 0.002234544
000060 7a 4e 90 3a 2f db 1b 3c 25 c5 fd 3c ab 1c 10 bc
       0.0011009716 0.009512707 0.030977795 -0.0087958975
000070 74 16 88 3c 4e 01 12 3b 7a 6e 8a 3a 99 a5 ce bc
       0.016612269 0.002227861 0.0010561489 -0.025225447
000080 2c 72 66 3c a4 18 b4 3a d0 41 60 3c 4d 18 94 bd
       0.014065307 0.0013740254 0.013687566 -0.072311975
000090 76 30 ab bb 46 f7 2d 3d ec c6 25 3d e3 0c 59 3d
       -0.005224283 0.042472146 0.04047291 0.052990805
0000a0 78 01 4c 3c 93 12 ae bc 8a fb 4a 3d 8d 27 b2 39
       0.012451522 -0.021249091 0.049556293 0.00033980273
0000b0 60 5c 68 3b f0 0a 69 3d 3d 2b 72 bc d8 76 15 bc
       0.003545545 0.056895196 -0.014780817 -0.009122573
0000c0 24 4e f2 ba c6 d8 5b bd 69 d8 ba bc 4d 43 d8 bc
       -0.0018486422 -0.053673528 -0.02280827 -0.026399279
0000d0 de 80 14 bc 9a 8e 46 bb 11 b7 23 bd 60 b0 98 bc
       -0.009063927 -0.00302974 -0.039969508 -0.01863879
0000e0 6c b6 54 bc 06 77 11 bc 47 7e 11 bd f8 b9 ca 3c
       -0.012982946 -0.008878475 -0.035520818 0.02474688
0000f0 93 58 86 bc a2 d8 74 3c 44 26 f8 3c 32 64 9d 3d
       -0.016399657 0.014944227 0.030291684 0.07685126

layers.2.weight f4 [64, 64]
000000 79 a2 eb bc e3 ae 45 be 0e ce 96 3c 6f 1d 0b 3e
       -0.028763996 -0.19304995 0.018408801 0.13585447
000010 cb 03 c1 3d 28 e2 0e 3e e3 c3 15 3d 7d 7b 00 3e
       0.094245516 0.1395346 0.036563765 0.12547107
000020 bc cd 8b bc 99 bb 0d be e8 a5 6e 3c 77 c0 49 bc
       -0.017065875 -0.13841094 0.014565922 -0.012313954
000030 a1 fc 97 bd c4 55 eb bd 57 c1 1c be 57 5d 27 3e
       -0.07421232 -0.11490968 -0.15308128 0.163442
000040 df a3 4a 3e 8e 76 7c 3d 6a f9 88 be 6c af 7b ba
       0.19789074 0.0616365 -0.26752788 -0.000960103
000050 5a 88 31 be f6 94 96 3d 8e 6c 0e 3e df 72 2b 3d
       -0.1733717 0.07352631 0.13908598 0.041857596
000060 8f b7 11 bd 54 ca fb 3d 5f ac 23 be 9f ab ff bd
       -0.035575446 0.122944504 -0.15983723 -0.12483906
000070 3e e7 41 be bc d8 3a 3e 0c 17 ec bd f5 c4 f5 3d
       -0.18935868 0.1824674 -0.11527833 0.12000457
000080 07 07 c4 bd fd b7 b4 bb ac bf 77 be 8e be 9b 3d
       -0.09571653 -0.005515097 -0.24194211 0.07604705
000090 68 ad db 3d bb f7 40 be 59 e6 2a bd 4c 9b 90 3d
       0.10726434 -0.18844502 -0.041723583 0.070608705
0000a0 64 9d 45 3e 80 53 41 3e 96 93 8c bc 98 ac 41 3e
       0.19298321 0.18879509 -0.017160218 0.18913496
0000b0 78 b4 3d be 4d b4 43 bd f3 9f 05 bc 16 da 4c be
       -0.18525875 -0.04777937 -0.008155811 -0.20005068
0000c0 c9 c7 35 3e 1e 62 bd 3d 21 6e d6 3d df 01 af bd
       0.17751993 0.0924723 0.10470224 -0.08545279
0000d0 b5 6c c0 3d 53 0f 20 3e fd b9 9b bd 96 7b 3a bc
       0.09395734 0.15630846 -0.07603834 -0.011382004
0000e0 68 ad 33 3e 59 a9 3d be 8b f2 e2 3d 89 5f d1 bc
       0.17546618 -0.18521632 0.11081418 -0.02555825
0000f0 24 6b aa 3d 01 24 11 be 2c 1b 7f ba d5 f0 23 3e
       0.08321217 -0.1417389 -0.0009731527 0.16009839
000100 7f ec d6 bd 2c 16 88 bd c0 c8 30 be 4a 72 1f 3e
       -0.10494327 -0.06644854 -0.1726408 0.15570942
000110 b0 5f fb bd c9 88 37 3e 65 b4 92 bc 67 43 6e 3e
       -0.1227411 0.17923273 -0.017908284 0.232679
000120 98 1f 0c be e4 f6 63 3e 6b 6a 2e 3c db 72 d9 bd
       -0.13683927 0.2226215 0.010645489 -0.1061761
000130 5f be dd be cb 01 f6 3d c0 58 2c 3e 92 1c d6 3b
       -0.43309304 0.12012061 0.1683073 0.0065341676
000140 19 25 72 3d e4 e1 3d 3d 08 28 57 bd 80 70 a8 bd
       0.05911741 0.046358004 -0.05252841 -0.08224583
000150 5f 00 4f 3e 4c 51 19 3e de 6d 09 3e 2a 4e 3e be
       0.20214985 0.14972419 0.13420817 -0.18584505
000160 6c a6 34 3e aa f7 04 be ab 46 ce bc 7a c7 d3 bd
       0.1764161 -0.12985101 -0.025180181 -0.103407815
000170 15 ff 03 3e 0d 79 09 be eb b5 15 3d ef 0d 82 bd
       0.12890275 -0.13425083 0.036550444 -0.06350314
000180 76 4c 37 be b0 ba 4f 3d 43 9a fe ba 1a 26 68 be
       -0.17900261 0.05071515 -0.0019424636 -0.22670785
000190 ce a0 39 bd c4 0e 48 be 54 89 f9 3d 7c 2d 1c be
       -0.04531937 -0.19536883 0.121843964 -0.15251726
0001a0 38 c0 38 3e 3d 69 0a be 0c 6c 0b be 52 94 13 3d
       0.18042076 -0.13516708 -0.13615435 0.03603012
0001b0 2d c3 01 3e 03 73 58 be ef d0 c8 3e ae eb 49 be
       0.1267211 -0.21137623 0.39221904 -0.19718811
0001c0 9b 28 8c bd 87 88 c0 3c 7c 9b 36 3d e6 e5 65 be
       -0.068436824 0.023502601 0.044581875 -0.2245098
0001d0 40 32 3f be 12 f4 4f be 1a d1 0a be 0e ff 30 be
       -0.18671513 -0.20307949 -0.13556328 -0.17284796
0001e0 88 42 4f 3e c7 54 28 be 21 04 8a be c4 fd 0f bd
       0.20240223 -0.1643859 -0.26956275 -0.03515412
0001f0 54 a5 88 3e 7c 52 c4 3e fb 93 70 be f2 e8 a9 3c
       0.26688635 0.3834418 -0.2349395 0.02074096
000200 92 8b 00 be 60 d4 22 3e 0a 37 92 3c 84 63 91 3e
       -0.12553242 0.15901327 0.01784851 0.28396237
000210 1d 8f 80 be 11 95 20 be 16 87 1f 3c 16 7e 04 3e
       -0.25109187 -0.15681864 0.009736797 0.12938723
000220 c5 ec 8d be 1b 32 b1 3d b1 40 2a be ba e5 23 3e
       -0.27719703 0.08652135 -0.1662624 0.16005602
000230 17 8d 40 be b8 4f 59 3e 62 bf bd 3d 64 c8 3d be
       -0.18803822 0.21221817 0.09265019 -0.18533474
000240 39 0a 96 bd d3 cf ef bd 77 74 6e be d2 cb a7 bd
       -0.073261686 -0.11709561 -0.23286615 -0.081931725
000250 2a 39 1e 3e 5d eb 31 3d 73 0f 7f 3d 38 de 03 3d
       0.15451494 0.04343735 0.062270593 0.032194346
000260 20 a7 ad bd 5c 56 82 bd 66 51 21 be a5 3f 60 be
       -0.08479142 -0.06364128 -0.15753707 -0.21899278
000270 dc 2d 67 be 4f 92 17 3e 6a a6 48 bd 80 b0 6c be
       -0.22576088 0.14801906 -0.04898683 -0.23114204
000280 ad 3c 79 bd 94 fd 30 be 74 2b 6f 3e 11 e1 24 3d
       -0.06084888 -0.17284232 0.2335642 0.040253703
000290 b3 a3 e6 bd bc 11 0f be 92 e1 3a 3e 32 a9 94 be
       -0.11261692 -0.13971609 0.18250111 -0.29035336
0002a0 83 e4 03 3d 6f da c0 bd 75 db b0 be 19 c9 2b be
       0.032200348 -0.09416663 -0.34542432 -0.16775931
0002b0 e1 f7 cb bd 8f b9 11 3e 94 94 21 be 50 29 d8 bd
       -0.099593885 0.14230941 -0.15779334 -0.10554755
0002c0 a2 ba 26 3e 78 45 aa 3c 7d 96 80 3c e3 be a1 bc
       0.16282132 0.020785078 0.015696758 -0.019744342
0002d0 c6 1c 1a be 8c a1 78 bd aa b2 6e bd 8f 90 12 be
       -0.15050039 -0.060700938 -0.058275856 -0.14312957
0002e0 a4 9d 06 be 50 bb 25 3e 6d 89 36 3d a8 ac cf bd
       -0.13146073 0.16184735 0.044564653 -0.101403534
0002f0 f7 b6 04 bd 28 bc c6 3d 2b 7b ac bc 83 e8 1e bd
       -0.03240105 0.09703857 -0.021054825 -0.03879596
000300 36 a8 34 be 88 52 ae 3c da 15 18 3e 47 5f 62 be
       -0.17642292 0.021279588 0.14852086 -0.22106658
000310 1a b1 23 be e6 b1 06 be b7 68 0d 3e be 39 4d 3e
       -0.15985528 -0.131538 0.13809477 0.20041558
000320 ba 0a 57 3e 7f c4 ad bc bb 1d ac bd af 3c b5 3d
       0.21000186 -0.02121186 -0.08404108 0.08849465
000330 fb 50 e2 3c 83 ce 40 3d 72 96 b6 bd e8 bf 85 3d
       0.027626505 0.047071945 -0.08915414 0.06530744
000340 e0 60 5b be f0 61 26 3e 7e bb 28 3e da 9e 5d be
       -0.21423674 0.16248298 0.16477773 -0.21642628
000350 b1 39 5b be 59 f2 3f bb 27 93 07 3d 5c 4d f8 bd
       -0.21408726 -0.0029288738 0.03309932 -0.1212413
000360 67 78 32 be b8 80 26 bd b4 a8 47 3e 4e 21 f6 bd
       -0.17428742 -0.0406501 0.19497949 -0.12018071
000370 f3 9c e2 bd 9d cc 3b 3e 5c 80 0e 3e 27 1a 2f 3e
       -0.11065092 0.18339773 0.13916153 0.1709982
000380 27 51 cb bc b2 27 e1 3d 7d 25 94 bc b6 62 29 3e
       -0.02481897 0.109938994 -0.018084282 0.16541561
000390 07 55 76 bd 62 b3 25 3e 2c 37 20 3e 7d 6e 9d bd
       -0.060139682 0.1618171 0.15646046 -0.076870896
0003a0 17 c2 11 3e 3f e9 29 be 1b fe ef 3d cc 70 81 3c
       0.14234196 -0.16592883 0.11718389 0.015800856
0003b0 bc 1f 47 3d ad 23 2f 3e 1f 68 5b be cc fb 98 3d
       0.04861425 0.17103453 -0.21426438 0.074699014
0003c0 ff 94 90 bd c7 be f4 bd f8 92 2d 3d 4b ed c2 3c
       -0.07059669 -0.119504504 0.04237649 0.02379479
0003d0 3d 35 30 be 93 64 0b be 23 e9 70 bc 1a b0 5d 3e
       -0.17207809 -0.13612585 -0.014704022 0.21649209
0003e0 80 1d 17 bd 3f a6 4c 3e 43 a3 3f be 2a c1 66 be
       -0.036893368 0.19985293 -0.18714623 -0.22534624
0003f0 78 a7 e3 bc a8 a5 ab 3c 85 32 52 3e fe 7c 11 3c
       -0.027789816 0.020953014 0.20527084 0.008879898

layers.2.bias f4 [64]
000000 6c 8a c8 bc 1a 46 c1 bc b0 67 18 3d 49 99 97 3a
       -0.024480067 -0.023592997 0.03720826 0.0011566068
000010 63 ac 60 3d 5e a8 56 3d 2a 4c 11 3c 3e 57 1b 3d
       0.0548519 0.05240666 0.008868257 0.037924998
000020 43 9c 9a 3c 9f 69 80 3b 12 63 f5 3b ff bb 3b bb
       0.01887334 0.003918841 0.0074886167 -0.002864599
000030 9b a5 7b bb 9c 05 0f bd 35 67 d7 3b 8b 0f 10 3b
       -0.003839827 -0.03491746 0.0065735825 0.002198192
000040 d2 37 43 ba 1e a7 0b bd dc 9b 26 bc 6f 9d 58 3c
       -0.00074469775 -0.034094922 -0.010168996 0.013221129
000050 8f a2 f6 3b 76 b4 a7 bc 14 b1 68 bc 35 f1 9e bb
       0.0075267027 -0.020471793 -0.014202375 -0.0048505315
000060 d3 61 c5 bd 3d e8 39 3d 60 25 1a bc 33 0a f4 bb
       -0.09637799 0.045387495 -0.009408325 -0.007447505
000070 5a 31 c1 ba 07 89 31 3b 82 05 a4 bd dd 9b ef 3b
       -0.0014739439 0.0027089731 -0.08008863 0.0073122815
000080 bb 43 0a bc 7c d4 c2 bb 41 88 e3 3b ed b0 61 bd
       -0.008439 -0.0059457403 0.006943733 -0.05510037
000090 4a f6 17 3d e6 3b 66 3c f6 41 b5 ba 13 84 ca 3a
       0.037100114 0.014052367 -0.0013828862 0.0015450738
0000a0 23 de aa be 68 8b 33 3c 5c b6 2e bb 37 4c 5f bb
       -0.33372602 0.01095853 -0.0026658988 -0.0034072527
0000b0 6e 6b 9d bb 85 45 f4 bc 7f 8a 86 3c ca d6 07 bc
       -0.0048040664 -0.029818306 0.016423462 -0.008290956
0000c0 66 cb d6 3d 35 a9 a3 bc 51 cd 44 bc f3 28 93 bc
       0.10488014 -0.019978145 -0.012011842 -0.017963862
0000d0 8d fd d4 bc 7d 6a 97 3d e7 23 cd 3c 66 ab 13 bc
       -0.025999809 0.07393358 0.025041534 -0.009013033
0000e0 7c ea 45 3d 51 06 82 bc 20 3a 37 bc f5 40 d3 3a
       0.048319325 -0.015872153 -0.011183292 0.0016117381
0000f0 b1 53 7f 3c d8 59 41 bb 84 77 8c 3c ae 44 0b 3b
       0.015583918 -0.0029503014 0.017146833 0.0021250653

layers.4.weight f4 [64, 64]
000000 9c bc 3d be 9c a5 51 3d 45 91 26 3e 54 60 33 3c
       -0.1852898 0.051183328 0.16266353 0.010948259
000010 6e 41 f4 3c 9b 77 70 bd c8 13 07 3d 25 24 26 3e
       0.029816356 -0.058707815 0.03297785 0.16224726
000020 56 e3 36 bc 74 cf 84 bd 9d 20 9e bd f2 2e 50 be
       -0.0111626 -0.06484881 -0.07721064 -0.20330408
000030 34 5a 1b be 1c 5e 14 be 87 28 1f bd 86 fd 3e be
       -0.15171129 -0.14489025 -0.03885701 -0.18651399
000040 b1 c5 4d 3e f1 5e b8 bd 02 ca 1e 3d d3 a7 4e bd
       0.20094945 -0.09002484 0.03876687 -0.05045302
000050 24 6e d6 3c 1a f4 90 bc 30 8b b4 bc c8 87 2a 3e
       0.026175566 -0.017694522 -0.022039026 0.16653359
000060 0a 28 46 3d 72 0c 47 be be 33 d9 3c 29 21 e6 bd
       0.048378028 -0.19438341 0.02651393 -0.112367935
000070 94 19 54 bd 88 fe 04 3e 61 bf 1e be 58 b0 80 be
       -0.051782206 0.12987721 -0.15502693 -0.2513454
000080 22 85 c8 bd 27 6a cf 3d 8f 5b 2b 3e 8e c9 86 3b
       -0.09791018 0.10127669 0.16734146 0.0041133827
000090 42 d8 5f be 8d 96 7e 3d 1a 57 81 be 7d 2e 23 be
       -0.2185984 0.062155295 -0.25261766 -0.15935703
0000a0 8c 98 6b 3e ef 30 31 be 30 25 68 3e c1 5b 83 3d
       0.23007411 -0.17303823 0.22670436 0.06413985
0000b0 78 e6 82 3e ef d2 39 3c fd 4a 7d 3e 43 47 dd bd
       0.2556646 0.011341794 0.24735637 -0.10804608
0000c0 4c 18 1d be ef 0d 17 be 73 1b b8 3d 1e b2 07 be
       -0.153413 -0.14751409 0.089896105 -0.1325154
0000d0 68 54 6a 3e a3 cd e9 bc 5f 24 70 3e bb 20 21 bc
       0.22883761 -0.028540438 0.23451374 -0.009834464
0000e0 13 15 19 3e 6f 13 69 bd 1a 91 c1 bd e8 23 3a be
       0.14949445 -0.0569033 -0.09451504 -0.1817776
0000f0 47 51 04 3e d0 47 00 3e 3c 06 00 3e 66 40 29 be
       0.1292163 0.12527394 0.12502378 -0.16528472
000100 05 fe 88 3d 87 5b 9f 3d c5 8c ba 3d f6 89 09 3e
       0.066890754 0.07781129 0.09108881 0.13431534
000110 1f 6f 72 bd 5a 8f 5a be 5c 4c 5d be 9b 97 19 3d
       -0.059188005 -0.21343747 -0.2161116 0.037498098
000120 4d e5 a7 bd 83 fb 5f 3e 26 6c d3 bc aa 6d 16 bd
       -0.081980325 0.21873288 -0.025808405 -0.036725678
000130 a9 31 47 be 95 7e e7 3c f8 cb 81 3d d3 39 31 be
       -0.19452538 0.028258601 0.06337732 -0.17307214
000140 f0 1c 98 3d c9 6c ba 3d 9e 99 06 bb 73 7d 17 be
       0.074273944 0.0910278 -0.002053834 -0.14793949
000150 ff 46 30 3e 2e 5f 7a 3c 56 d8 74 3d 90 37 06 be
       0.17214583 0.015281482 0.059776627 -0.13107133
000160 fb 71 c9 bd bb 44 21 3d 91 d5 06 3d d8 64 9c 3c
       -0.09836193 0.039372187 0.032918517 0.019091055
000170 16 ce 80 bc 11 49 8a bd 9c 1c 0c bd 6a b2 6f bd
       -0.01572327 -0.067522176 -0.03420697 -0.05851976
000180 85 50 f4 3d 47 34 45 3d 7d a6 50 be 27 b8 59 3e
       0.119294204 0.04814556 -0.2037601 0.21261655
000190 d5 21 70 bd 68 63 3c be 96 7c 92 3e a6 e4 3b bd
       -0.058626015 -0.18397295 0.28610677 -0.045872353
0001a0 ad eb 1a 3e 47 56 6c 3e d5 f9 01 3e a8 33 39 be
       0.15128966 0.23079787 0.1269296 -0.18086112
0001b0 4a db 5c bd e1 05 44 3c 86 9d 68 3e 00 de ee 3d
       -0.053920068 0.011964292 0.2271634 0.11663437
0001c0 da 2f 92 3d 95 19 37 3d 40 b6 f2 3d 6e 19 d7 bd
       0.07138033 0.04470213 0.11851168 -0.10502897
0001d0 6c 58 07 3e 14 cf fa 3d c3 13 f2 3d c2 93 38 bd
       0.13217324 0.12246528 0.118201755 -0.045062788
0001e0 c4 71 27 be 16 d6 df 3d 8c f3 95 3c 91 e5 0c be
       -0.16351992 0.109295055 0.018304609 -0.13759448
0001f0 b1 7b 3d bc 0a c3 37 be dd a5 1a be 95 d4 5b 3d
       -0.011565135 -0.17945495 -0.15102334 0.05366953
000200 e8 3a fb 3c 90 68 02 3e 42 a4 eb bd 7d 12 02 bd
       0.030667737 0.127352 -0.11505939 -0.031755913
000210 62 07 2a 3d f2 af 5c bd 2b c6 d2 3d 2a fe 16 3e
       0.041510947 -0.053878732 0.10291704 0.14745393
000220 72 55 84 3d 90 58 b0 3c 81 64 9a bd 79 78 ba bc
       0.0646161 0.021526605 -0.07538701 -0.022762524
000230 11 de e2 3d f2 fb b6 3c e9 18 b6 bd 64 57 89 3d
       0.11077512 0.022336934 -0.0889147 0.067061216
000240 ae 0d d7 3c c4 8c 5e be 90 7e b1 3d 76 64 43 bd
       0.02625164 -0.21733385 0.08666718 -0.04770323
000250 f9 d5 f5 bc 48 4d 1a be 37 ae 63 3d 1d 15 05 3e
       -0.030009257 -0.15068543 0.055586066 0.12996335
000260 ef d9 2e be fa a9 b9 3d 0e ba 91 bd 3a 1d be bd
       -0.17075323 0.090656236 -0.07115565 -0.09282918
000270 14 72 94 3d 57 56 18 be b2 03 60 3c 41 22 31 3a
       0.07248321 -0.14876686 0.013672756 0.00067571184
000280 80 e7 26 3e 7e 99 09 3b 62 b0 5d 3e 5c 45 1c bd
       0.16299248 0.002099603 0.21649316 -0.038152084
000290 0a 2f 32 be f7 21 ab bc 14 77 08 bd 17 ad 4b 3d
       -0.17400756 -0.02089022 -0.033316687 0.04972562
0002a0 7f 49 a6 3d 92 9e 94 3d 3d 5c 0c 3e 23 05 bc 3c
       0.08119487 0.072568074 0.13707061 0.022951668
0002b0 32 1c 55 3d 41 bd 13 3d 44 e2 16 bb 4b 78 06 be
       0.052028842 0.03606916 -0.0023023048 -0.13131826
0002c0 83 a0 12 be 32 34 f9 3d e2 ea 3b 3d 16 1d af 3d
       -0.14319043 0.121681586 0.0458783 0.085504696
0002d0 64 f4 82 bd ed 9c bf bd 4d f5 0f be 3a 1e b5 3d
       -0.0639427 -0.09356103 -0.14058419 0.08843656
0002e0 38 8d 74 bd be d5 47 bd fb 1e e2 3d 44 92 ae 3d
       -0.05970499 -0.048787825 0.11041065 0.08523992
0002f0 93 3b 0b bd c3 da 5f 3e 2a 28 83 bd 84 42 74 bd
       -0.03399236 0.21860795 -0.06404145 -0.059633747
000300 3e 4e 35 3c d7 fe 93 bd 2b 92 c5 bd c4 7d 26 3e
       0.011066018 -0.07226341 -0.0964702 0.16258913
000310 c8 7d 0c be 21 ad 12 be 5b 40 ec 3d 9a b1 be 3d
       -0.13719857 -0.14323856 0.11535712 0.093112186
000320 16 14 ae 3d 60 23 d0 3d 9d 72 20 bc 11 18 34 3e
       0.08499925 0.10162997 -0.009792951 0.17587306
000330 f6 77 e0 bd bf f6 91 3d f6 5d a7 bd 0f 46 c2 3d
       -0.10960381 0.07127141 -0.081722185 0.09486019
000340 8f b0 04 be 05 f7 13 bd 5a 90 8a bd 24 b4 61 3e
       -0.12957977 -0.036124248 -0.06765814 0.22041374
000350 25 70 29 3e 8d 11 26 3e 52 ca ed 3d f7 86 99 bd
       0.16546686 0.16217633 0.11610855 -0.074964456
000360 d4 ce 4a 3c ce 55 ff 3c 7c 70 fb bd df 6c 2c be
       0.012378413 0.031168845 -0.12277314 -0.16838406
000370 a3 56 a5 3c 06 31 ea bb c4 62 66 3e 65 c4 2c 3c
       0.020182913 -0.0071469573 0.22498614 0.010544871
000380 9b 9b cc 3d 3f f3 d2 bd a9 e2 30 be 42 f7 39 3e
       0.09990617 -0.10300302 -0.17273964 0.18160728
000390 90 7d 5b bd 50 7e 0c be e0 40 4e bd 64 d6 09 be
       -0.053586543 -0.1372006 -0.05035484 -0.1346069
0003a0 0c 29 36 3e fd 0e 9f bd 12 f3 5c be 4f f3 eb bd
       0.17789096 -0.07766531 -0.21577099 -0.11521017
0003b0 fa 5c 8f bd b4 d2 f1 bd de 6e 4e 3e 3f d7 46 3e
       -0.07000156 -0.118077666 0.2015948 0.19418047
0003c0 b0 80 13 3d b0 0c 1c 3e 85 45 b3 3d 80 f4 15 3e
       0.036011398 0.15239215 0.08753494 0.1464405
0003d0 f0 a9 9b bd 95 f7 27 3e 4b 3c 0d be 88 74 99 3d
       -0.076007724 0.16403039 -0.13792531 0.0749293
0003e0 35 51 73 3e 48 12 15 3d c7 23 cd bc c8 a8 36 be
       0.23761447 0.036394387 -0.025041474 -0.17837822
0003f0 a5 cd 94 38 4b f9 1b be d4 f5 7f bd 4b df d0 bd
       7.095494e-05 -0.15231816 -0.0624903 -0.1019884

layers.4.bias f4 [64]
000000 fe 81 b0 3b 43 9c 3f bb 24 a1 2e bb da 42 20 bc
       0.00538659 -0.0029237426 -0.002664634 -0.009781564
000010 f2 39 d6 3c 61 24 4c 3d 92 e3 2d 3c 00 26 6e 3c
       0.026150677 0.04983938 0.010613339 0.014535427
000020 2c 56 9b bc 5a c3 7e bc 4a 57 a7 bc 45 01 c4 ba
       -0.018961988 -0.015549505 -0.020427365 -0.0014953992
000030 cc ed c0 3b b2 3e 65 3b f2 ab 17 bb da 32 27 bc
       0.0058877226 0.0034979996 -0.002314326 -0.010204995
000040 08 2b 6a 3c 4b 89 38 bc b0 a8 87 3c b6 7e b3 bc
       0.014292486 -0.011263202 0.016559929 -0.021911006
000050 5c 6b fa bb 06 45 02 bd df e6 8e 3c c3 70 93 ba
       -0.0076421928 -0.031804107 0.017444072 -0.0011248816
000060 9e cf 46 bc 7a f9 8c bb a2 82 3c 3c 6d f3 0c bc
       -0.012134461 -0.004302201 0.011505755 -0.008602959
000070 c6 c1 05 bc 5f ba a8 bb 37 88 e0 3c 10 01 30 3c
       -0.008163875 -0.0051491703 0.027408702 0.010742441
000080 04 11 aa 3c 4c 63 3a bc 71 54 73 3b 28 82 63 3c
       0.020760067 -0.011376213 0.0037129188 0.013886012
000090 d0 6a 44 bc 43 55 a1 bc a4 cf 6a 3c bb 06 80 3c
       -0.011988357 -0.019693976 0.014331732 0.01562821
0000a0 e4 7a 0b bc ac 7d 94 3b d6 e0 c5 bc 49 ea d4 bb
       -0.008513186 0.004531583 -0.024155062 -0.0064976555
0000b0 c9 9e 80 bc 5e 18 cf 3d 69 ff 51 bb da f7 4e 3b
       -0.015700715 0.101120695 -0.0032043105 0.0031580837
0000c0 40 b5 40 bc 48 3f 37 3c a5 61 bb 3b f5 e7 95 bc
       -0.011761963 0.011184521 0.0057184272 -0.018299082
0000d0 88 46 81 bb ed df 15 bc 39 fb 04 3d 42 a4 b7 3b
       -0.0039451756 -0.009147626 0.032466147 0.005604298
0000e0 5f e8 30 bc 3e dd 03 bc bc 19 98 bb 71 7f 77 3c
       -0.010797589 -0.008048354 -0.0046417397 0.015106068
0000f0 d9 14 91 bc 6c 7e d9 3a b5 47 90 3c e7 45 5f bc
       -0.017710136 0.0016593463 0.017612318 -0.013627506

layers.6.weight f4 [2, 64]
000000 ff 82 8c bc 5b 43 9b 3e 4d c2 4f be 66 db 07 be
       -0.017152308 0.30324826 -0.20288964 -0.13267288
000010 32 b2 66 3d 12 af d6 3c 76 f7 85 3e 62 c4 9b 3d
       0.056322284 0.026206527 0.2616536 0.076058164
000020 a3 86 8d be 83 f8 e4 bd c7 e2 69 bd 7e bc cf bd
       -0.27641782 -0.11180212 -0.057101037 -0.10143374
000030 3b 0f 70 3d 14 55 32 3e 72 6b d2 3c 1f d7 3e be
       0.058608275 0.17415267 0.025686 -0.1863675
000040 a6 af 84 3e bd b5 0b be 06 7b 3c be a3 00 f6 bd
       0.2591526 -0.13643546 -0.18406305 -0.1201184
000050 17 bc a1 be 06 2f a0 bd 86 24 13 be e8 16 0d be
       -0.31588814 -0.07821469 -0.14369401 -0.1377827
000060 40 29 38 be 6d a8 18 3e 18 e3 da 3d f2 f9 9f be
       -0.17984486 0.14908 0.10687846 -0.3124538
000070 2c 8f 11 be 6a 42 a8 be af fe 5b 3e 23 79 a0 3d
       -0.14214772 -0.3286317 0.21483873 0.07835605
000080 b5 4f 90 3d 39 70 9e be f8 56 94 3e ec ec 52 3e
       0.07046453 -0.30944994 0.28972602 0.20598191
000090 89 a7 4a be 63 2f 82 bd 98 88 e2 3d a6 5c 7a 3d
       -0.19790472 -0.063566945 0.110612094 0.061123513
0000a0 8d ea 1a 3e 6b 68 52 be 0b c3 aa 3e 83 4c 89 3e
       0.15128537 -0.20547645 0.3335193 0.26816186
0000b0 3d 7b 3a be 73 24 a0 bd 20 57 99 be f1 80 8b be
       -0.18211074 -0.07819452 -0.29949284 -0.27246812
0000c0 5f ed 31 be b3 e8 a6 3e 28 59 2c 3e f9 b0 ab bd
       -0.17375706 0.3259941 0.16830885 -0.08383364
0000d0 3f 62 22 3e 54 5f 2e be 07 19 0e 3e 1c 12 82 3e
       0.1585779 -0.17028552 0.13876735 0.2540444
0000e0 51 10 f0 3d 7d f3 4f be 32 50 e8 bd a1 c0 7a 3e
       0.11721862 -0.20307727 -0.11343421 0.24487545
0000f0 3f 92 97 be 43 6a 4a 3e 6a 47 d1 3d 31 d4 05 be
       -0.29603764 0.19767098 0.10218699 -0.13069226
000100 ad 8d b3 3e 5b 9e 0f 3e 2d f4 69 be 51 55 33 3e
       0.35069028 0.14025252 -0.22847052 0.17513014
000110 cb ab 9b be 44 a2 2f be 4c 36 cc bd 3c dd 05 3e
       -0.30404505 -0.17151743 -0.09971294 0.13072675
000120 91 20 9b 3e 3d b8 a8 3e f1 59 8e 3e 77 bd 80 be
       0.30298284 0.32953063 0.27802995 -0.2514455
000130 56 ce f2 3d 3d 48 8d be fd 7b 26 bd 66 9c 67 bc
       0.11855762 -0.27594176 -0.04064559 -0.014136409
000140 85 31 53 be 2b 87 92 3e 71 25 a4 be 86 27 0c be
       -0.20624359 0.2861875 -0.32059816 -0.13686952
000150 f7 6f e7 3d ee b0 72 3d 42 71 90 be da 4a b0 bd
       0.113006525 0.059250765 -0.2821141 -0.08608027
000160 eb 5e 6a be 5d f6 29 3e 01 b6 81 be 73 37 d9 3d
       -0.22887771 0.16597886 -0.2533417 0.10606279
000170 9f 08 ec bd 1c 31 65 be 90 ee b1 be d6 45 87 bc
       -0.11525082 -0.22382015 -0.3475232 -0.016512793
000180 c1 18 c8 be 10 1c 46 3d 96 2e 1b be 67 e6 ab be
       -0.39081386 0.048366606 -0.1515449 -0.3357422
000190 d1 a3 10 be 24 3b 0c 3e 53 3d f9 bd 4c 51 ea bd
       -0.14124991 0.13694435 -0.121699 -0.114412874
0001a0 18 c7 ba 3d d9 db a2 be 95 f9 7c bc a6 24 28 be
       0.09120005 -0.31808355 -0.015440364 -0.1642023
0001b0 a0 2e 12 3e 19 48 b9 3e 29 5d b9 be ba 29 d6 be
       0.14275599 0.3618782 -0.36203888 -0.4182871
0001c0 46 b6 80 3d 03 22 5c be 0d 4d 6c bd ba 41 bd 3e
       0.06284766 -0.2149735 -0.05769067 0.36964208
0001d0 23 84 be 3e 54 8b 2e be 5f 92 b2 be 54 1e 5a 3e
       0.37210187 -0.17045337 -0.34877297 0.21300632
0001e0 93 c4 aa 3d 0a b7 59 3d e2 cb 5f be f8 60 39 be
       0.08338275 0.053153075 -0.21855119 -0.18103397
0001f0 7f 99 5b 3e 9c f8 c2 3e 15 e2 d0 bd 0f 2a 04 3e
       0.21445273 0.380803 -0.10199372 0.12906669

layers.6.bias f4 [2]
000000 83 db 49 3c b0 ef ad bc
       0.012320402 -0.021232456
