data/20240122/output_net_24000.pth (torch, 38764 bytes, 8 tensors)

layers.0.weight f4 [64, 5]
-0.27629814 -0.32634547 -0.044337448 -0.2347209 0.3432984 0.05819918 -0.13863711 -0.17377202
0.27041727 -0.15357174 -0.20534721 0.2352362 -0.30655512 0.30160993 0.81755716 -0.020822415
-0.28120825 -0.09960577 0.19329317 -0.095109016 0.10300097 0.18817858 -0.3203348 -0.15638417
-0.02404563 0.016877698 -0.2399213 0.12639715 -0.23468502 -0.19688784 0.163977 0.07340594
0.06919349 -0.13808647 0.08587942 -0.13424599 0.0017063033 0.12870954 0.13824248 -0.14064571
0.29034832 0.287052 0.033989526 0.013148753 0.06705381 -0.24321589 -0.22429496 -0.13322291
-0.03622901 0.14026974 -0.25179085 0.3203921 0.267015 0.2873142 -0.116662756 -0.23020104
-0.3330849 -0.303821 0.17111441 -0.13586524 0.13814707 0.09458133 0.10598923 -0.03537195
0.39085034 -0.32536328 -0.2807029 0.16047072 0.018410662 -0.115989365 0.08041816 -0.18230379
-0.3107491 0.25157997 -0.061476506 0.15870748 -0.11435769 -0.24869749 -0.24007042 0.16533853
-0.007866154 -0.18726078 -0.28274676 -0.057766993 -0.22931492 -0.14514421 -0.067736976 0.14627707
0.2015927 -0.25894943 0.15385813 0.1111258 -0.23367739 -0.023717687 0.13927548 0.175186
0.03023803 0.18296565 -0.04303296 -0.21747428 0.22271344 -0.18344489 -0.31383032 -0.23940603
0.16828997 -0.27315834 -0.024522988 -0.018319573 -0.32495445 0.051521204 -0.14460357 -0.008053236
-0.2843368 0.29799113 0.1023285 0.38191617 -0.24133463 -0.19163042 0.055051543 0.22087374
0.2054217 -0.31907657 -0.20325029 -0.2948208 -0.10658908 -0.27253634 0.30846652 -0.09323619
0.21712288 0.018932313 0.28876817 0.2640258 -0.18518764 0.02381694 -0.03819824 0.22591184
0.29823792 -0.1282247 0.0048966724 0.27771044 -0.03284357 -0.042134885 -0.29761696 -0.16484119
-0.105390236 0.19699696 0.0068924995 -0.26133513 0.16354135 -0.16157739 0.03516398 -0.07011751
0.31392407 0.012427232 0.042611834 -0.32464373 -0.25538453 0.28585875 -0.12846854 -0.2779832
-0.10747628 0.23435871 -0.20730369 0.0361782 0.09115429 -0.26643908 -0.05627042 -0.08428784
-0.19561031 -0.17294087 0.22600143 0.2698172 -0.2470663 0.2795805 0.05389105 -0.27643123
0.11871594 0.03575329 -0.29764462 0.2359145 0.13139991 -0.16500992 0.25123808 -0.13040778
0.038225185 -0.35637236 0.11267195 -0.22225189 0.31299275 0.25429592 -0.16313732 -0.0017921388
-0.12430626 -0.054318927 0.18781628 0.29964486 0.07297114 -0.023300966 -0.13446768 -0.0619159
0.25024843 -0.027467262 0.24125025 0.015793707 -0.23246679 0.2603313 -0.07098612 -0.27425852
-0.29380417 0.049161263 0.2775302 0.3420865 -0.28998277 -0.15939471 -0.24262154 -0.20667173
0.087816566 -0.14687309 -0.16636956 0.017304493 0.16083482 0.27315587 -0.27742377 0.019587016
-0.15587437 -0.24285564 0.33249116 -0.12670554 0.13527532 0.21001785 -0.19821389 -0.04567031
-0.1998847 -0.028594458 -0.21148077 0.24247473 0.13737544 0.21372767 -0.083654515 0.086929314
0.2516946 -0.19281447 -0.11593888 -0.14675361 -0.14196321 -0.36842382 -0.35475573 0.12497939
-0.26069003 -0.18413222 -0.24833769 -0.03873501 0.06772303 -0.22195499 0.1200864 0.17362064
00000000: f376 8dbe c116 a7be 2f9b 35bd ad5a 70be
00000010: cfc4 af3e 4362 6e3d e3f6 0dbe 4bf1 31be
00000020: 2274 8a3e e941 1dbe 8a46 52be c2e1 703e
00000030: cbf4 9cbe 9e6c 9a3e 6d4b 513f c593 aabc
00000040: 87fa 8fbe 1cfe cbbd a5ee 453e 84c8 c2bd
00000050: 2cf2 d23d e3b1 403e ec02 a4be 2c23 20be
00000060: 57fb c4bc 1943 8a3c eead 75be 416e 013e
00000070: 4551 70be f79c 49be 96e9 273e da55 963d
00000080: 51b5 8d3d 8a66 0dbe 8de1 af3d c877 09be
00000090: 0aa6 df3a 6fcc 033e 708f 0d3e 6e05 10be
000000a0: 89a8 943e 7bf8 923e 9a38 0b3d de6d 573c
000000b0: 8253 893d 960d 79be 94ad 65be 966b 08be
000000c0: df64 14bd dfa2 0f3e bbea 80be 6f0a a43e
000000d0: 31b6 883e d91a 933e e2ec eebd d2b9 6bbe
000000e0: 1b8a aabe 6d8e 9bbe 9e38 2f3e 4220 0bbe
000000f0: 6d76 0d3e dbb3 c13d e210 d93d 2ee2 10bd
00000100: 891d c83e 0496 a6be 4ab8 8fbe 7052 243e
00000110: f5d1 963c d58b edbd 47b2 a43d d8ad 3abe
00000120: 821a 9fbe 17cf 803e cace 7bbd 3784 223e
00000130: 5d34 eabd 8eaa 7ebe 05d5 75be 814e 293e
00000140: 0be1 00bc 4ac1 3fbe 2fc4 90be 159d 6cbd
00000150: 88d1 6abe afa0 14be afb9 8abd a8c9 153e
00000160: 516e 4e3e 0595 84be fc8c 1d3e ec95 e33d
00000170: 2049 6fbe 984b c2bc 3b9e 0e3e f563 333e
00000180: bfb5 f73c 595b 3b3e 5443 30bd 94b1 5ebe
00000190: fe0e 643e fad8 3bbe 5eae a0be db26 75be
000001a0: 3554 2c3e 69db 8bbe 6fe4 c8bc ee12 96bc
000001b0: 6e60 a6be e607 533d f512 14be b8f1 03bc
000001c0: 9894 91be 4b92 983e 9b91 d13d 848a c33e
000001d0: 6d20 77be c43a 44be ba7d 613d ba2c 623e
000001e0: 115a 523e 015e a3be d820 50be c0f2 96be
000001f0: 604b dabd e289 8bbe 53ef 9d3e 9ef2 bebd
00000200: 7655 5e3e f017 9b3c 6cd9 933e 642e 873e
00000210: d4a1 3dbe be1b c33c c275 1cbd 6f55 673e
00000220: a4b2 983e 564d 03be 4474 a03b 1030 8e3e
00000230: fb86 06bd a195 2cbd 4061 98be 21cc 28be
00000240: d6d6 d7bd 92b9 493e 7ada e13b b8cd 85be
00000250: 6277 273e 8b74 25be 1b08 103d c599 8fbd
00000260: a8ba a03e 979b 4b3c bf89 2e3d b437 a6be
00000270: c3c1 82be 145c 923e 428d 03be d053 8ebe
00000280: 861c dcbd bbfb 6f3e 6b47 54be 982f 143d
00000290: 1aaf ba3d b46a 88be d07b 66bd 1a9f acbd
000002a0: 124e 48be 6917 31be eb6c 673e 7b25 8a3e
000002b0: f3fe 7cbe 2d25 8f3e ddbc 5c3d 6588 8dbe
000002c0: 5821 f33d 0b72 123d e064 98be 9293 713e
000002d0: b38d 063e 5cf8 28be 47a2 803e 9e89 05be
000002e0: 0392 1c3d 7076 b6be 8dc0 e63d 0096 63be
000002f0: 9640 a03e 1333 823e 780d 27be 33e6 eaba
00000300: 4894 febd 867d 5ebd e952 403e 0d6b 993e
00000310: e571 953d abe1 bebc e5b1 09be 879b 7dbd
00000320: 9020 803e 0603 e1bc 4e0a 773e ce61 813c
00000330: c60b 6ebe 254a 853e 2c61 91bd 9d6b 8cbe
00000340: 806d 96be 525d 493d 7018 8e3e f625 af3e
00000350: 9f78 94be 5e38 23be c871 78be c1a1 53be
00000360: 2cd9 b33d e665 16be c85c 2abe 27c2 8d3c
00000370: e2b1 243e 16db 8b3e 7d0a 8ebe f374 a03c
00000380: 889d 1fbe 26af 78be 483c aa3e 19bf 01be
00000390: 9d85 0a3e eb0e 573e 95f8 4abe ca10 3bbd
000003a0: 93ae 4cbe ed3e eabc 6a8e 58be 4c4b 783e
000003b0: 26ac 0c3e 6ddb 5a3e 0f53 abbd ff07 b23d
000003c0: 1dde 803e 2871 45be 5d71 edbd 9446 16be
000003d0: ce5e 11be 0ca2 bcbe 8ba2 b5be 32f5 ff3d
000003e0: 2a79 85be 288d 3cbe 3c4c 7ebe 9aa8 1ebd
000003f0: 5fb2 8a3d 2b48 63be dcef f53d 9cc9 313e

layers.0.bias f4 [64]
-0.03135177 0.00058786885 0.1339297 0.0064214873 0.0354236 0.008893396 -0.017910633 -0.021511717
5.5756947e-05 0.05126614 0.03454435 0.065712504 -0.04645992 -0.05516007 0.020459535 0.008963049
-0.013407271 0.0147219505 -0.0028375732 -0.0032570013 0.1016012 -0.08051022 0.0102262795 -0.0018899082
0.00081709446 0.011800507 0.027989503 -0.0093889795 0.015345883 0.0027189797 0.0020132475 -0.02422513
0.013853035 0.002716077 0.01283134 -0.07009388 -0.0094116125 0.041702684 0.039635595 0.051045552
0.010824829 -0.021120097 0.0474807 0.0006389131 0.0023113177 0.056504276 -0.015149774 -0.0070054033
-0.0029184248 -0.049392145 -0.021835484 -0.026404677 -0.009575414 -0.0021576919 -0.03754685 -0.01509979
-0.012634491 -0.0078141205 -0.031241713 0.028311636 -0.014041826 0.012421574 0.030484583 0.06668873
00000000: b76a 00bd 361b 1a3a de24 093e 576b d23b
00000010: 5618 113d 9bb5 113c 52b9 92bc 5739 b0bc
00000020: 91dc 6938 72fc 513d 607e 0d3d 4794 863d
00000030: c24c 3ebd 87ef 61bd c19a a73c c1d9 123c
00000040: 2caa 5bbc 5634 713c 94f6 39bb 6a73 55bb
00000050: 4a14 d03d 8be2 a4bd 208c 273c ccb6 f7ba
00000060: 4832 563a ea56 413c 3e4a e53c 3cd4 19bc
00000070: 4c6d 7b3c e930 323b b0f0 033b c873 c6bc
00000080: d7f7 623c 3600 323b 8a3a 523c 618d 8fbd
00000090: 2a33 1abc 6fd0 2a3d ef58 223d 2415 513d
000000a0: a05a 313c 0e04 adbc 1f7b 423d bb7c 273a
000000b0: 7a79 173b 0771 673d c236 78bc 958d e5bb
000000c0: 0b43 3fbb 6b4f 4abd 54e0 b2bc 9f4e d8bc
000000d0: 32e2 1cbc 1068 0dbb baca 19bd 1c65 77bc
000000e0: e500 4fbc cc06 00bc 9fee ffbc ceed e73c
000000f0: b00f 66bc dc83 4b3c ceba f93c 1a94 883d

layers.2.weight f4 [64, 64]
-0.030753318 -0.19325812 0.021532377 0.13400394 0.10291676 0.13732646 0.036587887 0.124978766
-0.009536888 -0.14091255 0.016156867 -0.0149171855 -0.0699414 -0.11838167 -0.1536157 0.16272563
0.19074702 0.060904417 -0.26231837 -0.0019159204 -0.17518532 0.0722802 0.13938421 0.03893436
-0.03769921 0.124778375 -0.15676059 -0.119320415 -0.19125994 0.18284853 -0.116557546 0.117282026
-0.09296947 -0.008014881 -0.24003631 0.07580777 0.10596297 -0.18748379 -0.03965961 0.06994808
0.19244246 0.18781163 -0.01114569 0.19001985 -0.18209292 -0.04528736 -0.012949957 -0.19830666
0.17515624 0.08992232 0.103837326 -0.08515398 0.09309109 0.15716472 -0.073643744 -0.013611868
0.17172109 -0.18335558 0.116164975 -0.020236474 0.08191093 -0.15266466 -0.0010527321 0.16035816
-0.10898593 -0.07486738 -0.15921281 0.13495748 -0.12930301 0.17137809 -0.011382844 0.23628081
-0.109864905 0.2056194 0.020936782 -0.123495385 -0.37349722 0.11063482 0.15875323 -0.0030885849
0.018546583 0.041806612 -0.0486087 -0.08488579 0.17503123 0.14864616 0.1342303 -0.20946847
0.1643593 -0.12228757 -0.020265114 -0.084001645 0.105966024 -0.14299273 0.04344442 -0.069246665
-0.17128944 0.04187885 0.0007563719 -0.22238576 -0.04702541 -0.1895659 0.12601906 -0.1546031
0.17414664 -0.14280102 -0.14098112 0.034901183 0.12730639 -0.20076375 0.359635 -0.18306895
-0.081889674 0.017565234 0.045705482 -0.21925226 -0.18420027 -0.20028152 -0.11319709 -0.16727667
0.18252204 -0.14097391 -0.23165528 -0.032095376 0.2689798 0.32898808 -0.23144823 0.015543779
-0.1209827 0.15902366 0.013779719 0.28117213 -0.23143256 -0.15617734 0.00860546 0.12327134
-0.28098992 0.100618444 -0.16779073 0.16612563 -0.20222783 0.21472768 0.09476566 -0.17934841
-0.05471144 -0.12096805 -0.22988991 -0.087210104 0.1636415 0.04732776 0.06371833 0.025221253
-0.08259556 -0.060399543 -0.15848249 -0.2212084 -0.20538543 0.14961307 -0.06682364 -0.22907719
-0.055417012 -0.16723497 0.23271388 0.044482175 -0.11825203 -0.13966675 0.20044397 -0.29591024
0.013101807 -0.088541634 -0.33525014 -0.15501353 -0.09439785 0.14347701 -0.13961725 -0.119972564
0.16443229 0.023081971 0.018906236 -0.021582687 -0.15137598 -0.053144556 -0.056979906 -0.15481059
-0.12535353 0.12665318 0.04544365 -0.11331704 -0.04460469 0.09243978 -0.017167324 -0.040951196
-0.17715004 0.021618016 0.14552648 -0.21975026 -0.16398826 -0.12822303 0.13782735 0.2038934
0.20154819 -0.022304343 -0.08454974 0.08787807 0.01699654 0.05353205 -0.08958993 0.064178094
-0.20148054 0.16633499 0.15828113 -0.21342525 -0.2165903 -0.0030310955 0.031110086 -0.12837002
-0.17156565 -0.042814128 0.19100335 -0.12992239 -0.10625095 0.18340242 0.14030325 0.17499104
-0.02746027 0.113009766 -0.020240817 0.16395582 -0.058494423 0.15913795 0.15334298 -0.07645442
0.14587991 -0.16622567 0.11259553 0.015066642 0.04674818 0.16821454 -0.20945604 0.07507013
-0.06818194 -0.11638432 0.042544823 0.024661545 -0.1709568 -0.13898551 -0.015572866 0.21605153
-0.030256195 0.20092583 -0.19379096 -0.21990798 -0.023676686 0.034505274 0.20481923 0.009065217
00000000: 62ee fbbc 75e5 45be ab64 b03c 5438 093e
00000010: 06c6 d23d 4f9f 0c3e 2edd 153d def4 ff3d
00000020: 9c40 1cbc 614b 10be 685b 843c 3667 74bc
00000030: 703d 8fbd 1772 f2bd 6f4d 1dbe 8ca1 263e
00000040: 3053 433e e976 793d 984e 86be 9f1f fbba
00000050: c863 33be a407 943d bcba 0e3e a379 1f3d
00000060: 7d6a 1abd ce8b ff3d d985 20be 435e f4bd
00000070: a5d9 43be a53c 3b3e b9b5 eebd 8f31 f03d
00000080: c766 bebd d950 03bc 14cc 75be 1b41 9b3d
00000090: 1d03 d93d c0fb 3fbe 1d72 22bd f040 8f3d
000000a0: a30f 453e b151 403e 6a9c 36bc 9094 423e
000000b0: 9176 3abe 3d7f 39bd 0e2c 54bc e710 4bbe
000000c0: 285c 333e 3129 b83d aaa8 d43d 3665 aebd
000000d0: 8ba6 be3d caef 203e 88d2 96bd 5004 5fbc
000000e0: a7d7 2f3e 91c1 3bbe e7e7 ed3d f6c6 a5bc
000000f0: ebc0 a73d 2054 1cbe d4fb 89ba ee34 243e
00000100: 0434 dfbd 1254 99bd af08 23be 4b32 0a3e
00000110: 0268 04be bd7d 2f3e 1c7f 3abc 99f3 713e
00000120: da00 e1bd e48d 523e 9d83 ab3c 26eb fcbd
00000130: 073b bfbe 8294 e23d 3590 223e db69 4abb
00000140: 01ef 973c 693d 2b3d eb19 47bd 9ad8 adbd
00000150: 633b 333e b336 183e ab73 093e e77e 56be
00000160: ce4d 283e e871 fabd 0603 a6bc 0e09 acbd
00000170: b704 d93d b06c 12be c7f2 313d 32d1 8dbd
00000180: 8066 2fbe 2889 2b3d 4247 463a 18b9 63be
00000190: b79d 40bd 901d 42be 240b 013e 4650 1ebe
000001a0: 7f53 323e 6e3a 12be 5b5d 10be 8bf4 0e3d
000001b0: 9b5c 023e 0395 4dbe 1422 b83e 6d76 3bbe
000001c0: c6b5 a7bd f7e4 8f3c ac35 3b3d aa83 60be
000001d0: ff9e 3cbe 9916 4dbe e0d3 e7bd 934a 2bbe
000001e0: 0fe7 3a3e 775b 10be 0b37 6dbe 7176 03bd
000001f0: b8b7 893e 2071 a83e c400 6dbe 56ab 7e3c
00000200: c7c5 f7bd 19d7 223e 55c4 613c cbf5 8f3e
00000210: a8fc 6cbe f4ec 1fbe eafd 0c3c af75 fc3d
00000220: e9dd 8fbe 0b11 ce3d 55d1 2bbe d61c 2a3e
00000230: d014 4fbe 93e1 5b3e 8014 c23d 1ca7 37be
00000240: 1a19 60bd 19be f7bd 4368 6bbe 369b b2bd
00000250: a391 273e c1da 413d c17e 823d cd9c ce3c
00000260: dc27 a9bd 8365 77bd 3c49 22be 7484 62be
00000270: 8f50 52be 2b34 193e d5da 88bd 3693 6abe
00000280: f3fc 62bd a53f 2bbe 8c4c 6e3e f132 363d
00000290: 1f2e f2bd cd04 0fbe 2f41 4d3e 8c81 97be
000002a0: f6a8 563c 5155 b5bd e8a5 abbe debb 1ebe
000002b0: a953 c1bd a3eb 123e d3f7 0ebe 2db4 f5bd
000002c0: f060 283e 6716 bd3c 40e1 9a3c 2dce b0bc
000002d0: 4e02 1bbe 1bae 59bd c363 69bd ab86 1ebe
000002e0: ad5c 00be 5fb1 013e 1f23 3a3d c412 e8bd
000002f0: 68b3 36bd 1151 bd3d 7da2 8cbc 71bc 27bd
00000300: d266 35be 4418 b13c e504 153e 3606 61be
00000310: 8aec 27be e64c 03be 9d22 0d3e 6ec9 503e
00000320: a662 4e3e 99b7 b6bc 6a28 adbd 6bf9 b33d
00000330: 543c 8b3c 6c44 5b3d ed7a b7bd ce6f 833d
00000340: ea50 4ebe b853 2a3e 7314 223e 268c 5abe
00000350: d9c9 5dbe 58a5 46bb 94da fe3c 6e73 03be
00000360: e8ae 2fbe de5d 2fbd 6296 433e 600a 05be
00000370: 199a d9bd d8cd 3b3e a8ab 0f3e da30 333e
00000380: 5cf4 e0bc aa71 e73d 12d0 a5bc 09e4 273e
00000390: d997 6fbd 0ff5 223e f105 1d3e 2394 9cbd
000003a0: 8b61 153e 1037 2abe 7c98 e63d 14da 763c
000003b0: 057b 3f3d 6f40 2c3e a57b 56be 5ebe 993d
000003c0: f9a2 8bbd e75a eebd 7b43 2e3d 0207 ca3c
000003d0: 4d0f 2fbe 3852 0ebe 5625 7fbc 9d3c 5d3e
000003e0: d7db f7bc 80bf 4d3e 2371 46be 8f2f 61be
000003f0: 9cf5 c1bc 6755 0d3d 22bc 513e 4786 143c

layers.2.bias f4 [64]
-0.023758715 -0.024560967 0.034305803 0.0010028707 0.052383106 0.04789118 0.005148987 0.03675356
0.018848503 0.004678795 0.0057631517 -0.0034238508 -0.0038029812 -0.032483656 0.0062356973 0.0033448865
-0.0007665761 -0.034177806 -0.011501786 0.013748529 0.006748033 -0.012998735 -0.01559166 -0.007800497
-0.09087541 0.039949078 -0.008662436 -0.0080006365 -0.0022943611 0.0030160928 -0.06960356 0.0067297486
-0.008058364 -0.0052337786 0.0055241366 -0.04858248 0.033108745 0.015158669 -0.0019047937 0.0046255537
-0.28853163 0.010320352 -0.004608387 -0.0019967647 -0.005915892 -0.023451623 0.016899006 -0.0077293217
0.10047652 -0.018361706 -0.010029124 -0.01707837 -0.02447757 0.0709564 0.02447293 -0.01058634
0.04502312 -0.016275192 -0.010263261 0.0017174517 0.019084066 -0.0040279166 0.015686508 0.0023812354
00000000: a3a1 c2bc 1534 c9bc 3e84 0c3d c272 833a
00000010: ab8f 563d 8b29 443d d5b8 a83b e78a 163d
00000020: 2d68 9a3c 9450 993b d2d8 bc3b af62 60bb
00000030: 703b 79bb 950d 05bd d254 cc3b e235 5b3b
00000040: 0df4 48ba 07fe 0bbd fd71 3cbc 8341 613c
00000050: 9b1e dd3b a5f8 54bc 2974 7fbc 509b ffbb
00000060: e31c babd a5a1 233d e4ec 0dbc 1a15 03bc
00000070: fe5c 16bb a4a9 453b 508c 8ebd 3985 dc3b
00000080: 3a07 04bc 1e80 abbb d103 b53b 6cfe 46bd
00000090: 099d 073d 115c 783c 45aa f9ba f591 973b
000000a0: 6bba 93be b216 293c f401 97bb 27dc 02bb
000000b0: 19da c1bb 9e1d c0bc c96f 8a3c 4046 fdbb
000000c0: a2c6 cd3d 4a6b 96bc 3251 24bc f0e7 8bbc
000000d0: 2f85 c8bc 9751 913d 747b c83c 5472 2dbc
000000e0: 2a6a 383d 8d53 85bc 3d27 28bc 1e1c e13a
000000f0: 3056 9c3c 9dfc 83bb fe80 803c 800e 1c3b

layers.4.weight f4 [64, 64]
-0.18488048 0.054811154 0.16689272 0.007942777 0.029449495 -0.05883883 0.03200293 0.1603936
-0.013471406 -0.06323972 -0.07379364 -0.20930575 -0.14442879 -0.14403088 -0.036726527 -0.18732116
0.20195925 -0.091954365 0.042840555 -0.05316483 0.027410213 -0.017117843 -0.02912455 0.16477253
0.048733592 -0.19553794 0.026080526 -0.101732306 -0.050989006 0.13165234 -0.14901054 -0.23629875
-0.092356466 0.10228575 0.16592732 0.002185336 -0.21987109 0.063967265 -0.2445051 -0.16011764
0.23049988 -0.17565928 0.2209303 0.06427673 0.2504706 0.01251124 0.21937801 -0.12277393
-0.15138389 -0.14757676 0.08907638 -0.14688107 0.23007652 -0.028020002 0.22282848 0.00089283835
0.14506084 -0.058168963 -0.09480574 -0.17813201 0.12628625 0.11744958 0.12881002 -0.1634081
0.06669283 0.07677816 0.091824576 0.13627476 -0.060074355 -0.21356118 -0.21844621 0.037213042
-0.08125696 0.21992078 -0.028951325 -0.036161136 -0.19701341 0.027223345 0.06766283 -0.17210281
0.07446777 0.091921136 -0.004161781 -0.1460312 0.16834179 0.014125917 0.060653176 -0.12785001
-0.09872753 0.036121916 0.0316229 0.015292497 -0.00999255 -0.06752962 -0.032535303 -0.062723584
0.118383184 0.050285306 -0.19940014 0.21521685 -0.056104757 -0.18580388 0.27406642 -0.04581089
0.15289934 0.22743921 0.1217072 -0.1818116 -0.0525451 0.0106759835 0.22171453 0.11957264
0.07525061 0.045231543 0.120386876 -0.10188352 0.13266101 0.12349163 0.12063974 -0.046990145
-0.16014883 0.10871218 0.021233667 -0.1388372 -0.009640098 -0.17722236 -0.15214363 0.052348744
0.03146017 0.13937205 -0.115386985 -0.03338296 0.041384663 -0.05396343 0.10422864 0.14787701
0.06519104 0.021070985 -0.07320231 -0.023651537 0.110455565 0.022585714 -0.083161265 0.06680201
0.025687411 -0.21808384 0.08770607 -0.049292002 -0.028674537 -0.15287906 0.05666186 0.13008401
-0.17091818 0.09173991 -0.0708343 -0.09290357 0.06914576 -0.14982045 0.012930978 -0.0014826547
0.1598422 0.0027410458 0.21469547 -0.039473277 -0.17482649 -0.023471288 -0.02923074 0.048435103
0.07965634 0.070614405 0.13818274 0.022443842 0.052392066 0.03664367 0.003075733 -0.12793429
-0.14562969 0.12188928 0.045152653 0.087521665 -0.061458807 -0.09363747 -0.14158694 0.08623809
-0.060518052 -0.048436943 0.11218151 0.08567088 -0.03495169 0.21811162 -0.06468757 -0.059492137
0.011963536 -0.073123895 -0.097758 0.16078559 -0.1347905 -0.1424653 0.11475284 0.091857366
0.08251071 0.10029593 -0.0048498134 0.17964482 -0.107098006 0.07305416 -0.0809222 0.09245694
-0.12984598 -0.038312286 -0.063911684 0.21687396 0.1651611 0.16281143 0.11824419 -0.08333532
0.012927048 0.031576395 -0.11991807 -0.16177203 0.017734122 -0.0076303766 0.2253032 0.021525668
0.10187646 -0.10693581 -0.17759436 0.17531091 -0.05655809 -0.13487495 -0.05159283 -0.13524653
0.17661776 -0.073980235 -0.20793492 -0.11449416 -0.07085586 -0.11477316 0.20318413 0.19176549
0.036550716 0.15250497 0.08373871 0.13996774 -0.07714148 0.16186067 -0.14251442 0.07670495
0.2330985 0.037299756 -0.027524771 -0.17595808 -0.0017101107 -0.15025333 -0.06536732 -0.09986113
00000000: 4f51 3dbe a981 603d ede5 2a3e 6c22 023c
00000010: 1140 f13c fc00 71bd 8115 033d 383e 243e
00000020: 2cb7 5cbc d483 81bd 1f21 97bd 3f54 56be
00000030: 24e5 13be d57c 13be 8e6e 16bd 1ed1 3fbe
00000040: 68ce 4e3e 9252 bcbd 9479 2f3d 5dc3 59bd
00000050: 628b e03c b83a 8cbc 9c96 eebc 21ba 283e
00000060: e09c 473d 193b 48be d4a6 d53c 0759 d0bd
00000070: d9d9 50bd dfcf 063e 3896 18be 4df8 71be
00000080: 6325 bdbd 317b d13d dae8 293e db37 0f3b
00000090: e325 61be 4501 833d 8c5f 7abe e1f5 23be
000000a0: 2908 6c3e 07e0 33be 8d3b 623e 85a3 833d
000000b0: af3d 803e f2fb 4c3c a1a4 603e e670 fbbd
000000c0: 6104 1bbe 5d1e 17be ad6d b63d fe67 16be
000000d0: 2e99 6b3e 348a e5bc 262d 643e 5e0d 6a3a
000000e0: d48a 143e 9442 6ebd 8329 c2bd 3d68 36be
000000f0: 2f51 013e 6889 f03d c6e6 033e 7454 27be
00000100: 4096 883d de3d 9d3d 860e bc3d 9c8b 0b3e
00000110: 8710 76bd c8af 5abe 5db0 5fbe b46c 183d
00000120: 0d6a a6bd ea32 613e 542b edbc b31d 14bd
00000130: e2bd 49be 7e03 df3c cf92 8a3d b83b 30be
00000140: 8f82 983d 2641 bc3d 8d5f 88bb 3489 15be
00000150: ca61 2c3e 6470 673c 776f 783d 1deb 02be
00000160: a931 cabd 93f4 133d 0487 013d 628d 7a3c
00000170: cbb7 23bc f84c 8abd bd43 05bd 3975 80bd
00000180: e272 f23d f7f7 4d3d 8d2f 4cbe ce61 5c3e
00000190: 1ace 65bd 5f43 3ebe 6f52 8c3e 33a4 3bbd
000001a0: a591 1c3e d3e5 683e a041 f93d d22c 3abe
000001b0: 8839 57bd 52ea 2e3c 2209 633e 80e2 f43d
000001c0: fe1c 9a3d b644 393d 658d f63d 4fa8 d0bd
000001d0: 4ad8 073e 2ee9 fc3d f811 f73d bd78 40bd
000001e0: 0efe 23be 7ea4 de3d 3af2 ad3c 572b 0ebe
000001f0: 80f1 1dbc c779 35be 8acb 1bbe a36b 563d
00000200: 61dc 003d 8cb7 0e3e 0350 ecbd 92bc 08bd
00000210: f782 293d c208 5dbd d375 d53d 126d 173e
00000220: e182 853d 0f9d ac3c 18eb 95bd dec0 c1bc
00000230: 8736 e23d ad05 b93c 7450 aabd 7ecf 883d
00000240: 686e d23c 5f51 5fbe 3d9f b33d 69e6 49bd
00000250: dde6 eabc 548c 1cbe 4416 683d be34 053e
00000260: 2d05 2fbe 22e2 bb3d 9311 91bd 3a44 bebd
00000270: 4b9c 8d3d 886a 19be 74dc 533c a355 c2ba
00000280: acad 233e 1ea3 333b 21d9 5b3e bbae 21bd
00000290: b705 33be dc46 c0bc 4e75 efbc e363 463d
000002a0: dd22 a33d 499e 903d c77f 0d3e 26dc b73c
000002b0: 1099 563d ac17 163d 3d92 493b 3501 03be
000002c0: f31f 15be 16a1 f93d fdf1 383d 8f3e b33d
000002d0: 3bbc 7bbd 00c5 bfbd 2bfc 10be 999d b03d
000002e0: c7e1 77bd d165 46bd 6bbf e53d 3774 af3d
000002f0: 8129 0fbd a758 5f3e eb7a 84bd 07ae 73bd
00000300: b502 443c fbc1 95bd 5935 c8bd faa4 243e
00000310: 8506 0abe 6ce2 11be 8903 eb3d b71f bc3d
00000320: 60fb a83d f467 cd3d 2feb 9ebb d0f4 373e
00000330: 3356 dbbd 6b9d 953d 8aba a5bd 105a bd3d
00000340: 58f6 04be 58ed 1cbd 21e4 82bd 3514 5e3e
00000350: fe1f 293e 0ab8 263e 032a f23d b5ab aabd
00000360: f8cb 533c 4056 013d 9b97 f5bd 91a7 25be
00000370: 2647 913c 3d08 fabb e2b5 663e 9956 b03c
00000380: 9ba4 d03d 2901 dbbd 4cdb 35be b484 333e
00000390: 75a9 67bd a91c 0abe 0153 53bd 117e 0abe
000003a0: 49db 343e f382 97bd e4ec 54be ea7b eabd
000003b0: e11c 91bd 310e ebbd 800f 503e 2c5e 443e
000003c0: 34b6 153d 432a 1c3e 337f ab3d b453 0f3e
000003d0: 5afc 9dbd cebe 253e 4def 11be 7c17 9d3d
000003e0: 60b1 6e3e a1c7 183d a17b e1bc 5b2e 34be
000003f0: cb25 e0ba 02dc 19be 4ddf 85bd fe83 ccbd

layers.4.bias f4 [64]
0.0058513354 -0.002028509 -0.002980883 -0.00840592 0.025950206 0.04779076 0.00952483 0.016162006
-0.0171779 -0.01439171 -0.019287707 -0.0012345405 0.005399681 0.0035634749 -0.008219183 -0.009721482
0.014028555 -0.01195539 0.009907238 -0.020703614 -0.008587056 -0.02612029 0.015866166 -0.0009832832
-0.011331201 -0.00432701 0.0117646735 -0.0073058275 -0.008187522 -0.0055526374 0.027687538 0.010802184
0.020192351 -0.01051576 0.004900515 0.013430179 -0.011185608 -0.017670812 0.013623659 0.013899367
-0.010279901 0.0032329308 -0.020218221 9.5102616e-05 -0.015488969 0.062427722 -0.0027224047 0.0032480997
-0.011136664 0.010697415 0.0048822127 -0.0168479 -0.0030914473 -0.00908476 0.02852289 0.0059273136
-0.011942932 -0.007541053 -0.004418299 0.015769212 -0.017062029 0.0008546965 0.016088841 -0.013935632
00000000: 8fbc bf3b bcf0 04bb eb5a 43bb fcb8 09bc
00000010: 8795 d43c 3ec0 433d 080e 1c3c 2f66 843c
00000020: abb8 8cbc 35cb 6bbc 4101 9ebc 4ed0 a1ba
00000030: cfef b03b 3089 693b c1a9 06bc da46 1fbc
00000040: 06d8 653c 8ae0 43bc f851 223c a09a a9bc
00000050: b9b0 0cbc 38fa d5bc c3f9 813c 82e1 80ba
00000060: 80a6 39bc 97c9 8dbb 9ec0 403c b965 efbb
00000070: f524 06bc e6f2 b5bb fad0 e23c a5fb 303c
00000080: 6e6a a53c 4b4a 2cbc 8094 a03b 410a 5c3c
00000090: d743 37bc 61c2 90bc c435 5f3c 2cba 633c
000000a0: 086d 28bc 94df 533b afa0 a5bc d471 c738
000000b0: 72c5 7dbc 36b4 7f3d 5f6a 32bb 12de 543b
000000c0: 8e76 36bc 3644 2f3c f8fa 9f3b 9b04 8abc
000000d0: e199 4abb 3fd8 14bc d6a8 e93c e939 c23b
000000e0: 4aac 43bc f01a f7bb 61c7 90bb 6f2e 813c
000000f0: abc5 8bbc b60d 603a bfcc 833c 4752 64bc

layers.6.weight f4 [2, 64]
-0.014731017 0.30409008 -0.20261298 -0.121765494 0.057565376 0.025514474 0.26124427 0.07505577
-0.27587157 -0.11211689 -0.05454784 -0.101938084 0.059781823 0.17576267 0.025383646 -0.18408789
0.25366154 -0.13510954 -0.18303196 -0.11974077 -0.31399712 -0.07406742 -0.14270021 -0.14263165
-0.17965744 0.14853981 0.10523242 -0.30905604 -0.1429521 -0.31855658 0.21315199 0.076001845
0.070604704 -0.30993637 0.28394416 0.20318572 -0.1982596 -0.061546907 0.110022925 0.060056992
0.14831565 -0.20388491 0.33522618 0.268525 -0.18156892 -0.08365689 -0.29885343 -0.26507944
-0.17238888 0.3211253 0.16439569 -0.08316721 0.15002285 -0.16933809 0.13811499 0.25202483
0.117178805 -0.20477621 -0.111948356 0.24532267 -0.29587802 0.19170935 0.10267722 -0.13681129
0.3016704 0.1417911 -0.23524967 0.15782288 -0.26995122 -0.17108335 -0.09952239 0.12851802
0.3006076 0.32973164 0.27035746 -0.2520706 0.13063386 -0.26876816 -0.039890744 -0.020996764
-0.19708534 0.27694577 -0.32033756 -0.13637853 0.11702254 0.05691674 -0.2741114 -0.089359865
-0.22701705 0.16753653 -0.24752986 0.1091402 -0.108753905 -0.23260434 -0.34624925 -0.018376237
-0.38307604 0.04659016 -0.17083395 -0.3204332 -0.13983229 0.1337487 -0.12138157 -0.110798776
0.10338158 -0.3208361 -0.013939636 -0.15829015 0.14449999 0.3580007 -0.35604638 -0.389304
0.06421984 -0.2126382 -0.058935545 0.3560233 0.37126365 -0.16950038 -0.34699637 0.23423153
0.06788233 0.050500203 -0.1911358 -0.18072759 0.21526518 0.36856675 -0.09876236 0.12534423
00000000: 5d5a 71bc b2b1 9b3e c779 4fbe 3060 f9bd
00000010: acc9 6b3d bb03 d13c cfc1 853e d7b6 993d
00000020: 0a3f 8dbe 8a9d e5bd 8e6d 5fbd eac4 d0bd
00000030: c9dd 743d 21fb 333e 5df1 cf3c 8981 3cbe
00000040: eddf 813e 285a 0abe bb6c 3bbe a63a f5bd
00000050: 3bc4 a0be a9b0 97bd 0120 12be 080e 12be
00000060: 1ff8 37be d21a 183e 1884 d73d 983c 9ebe
00000070: 0962 12be d919 a3be 8444 5a3e dba6 9b3d
00000080: 3399 903d fbaf 9ebe 2161 913e eb0f 503e
00000090: 9104 4bbe 9c18 7cbd b353 e13d 52fe 753d
000000a0: 0fe0 173e 35c7 50be c4a2 ab3e 1c7c 893e
000000b0: 34ed 39be 4e54 abbd 5103 99be 7eb8 87be
000000c0: b686 30be 896a a43e 5857 283e 9253 aabd
000000d0: 979f 193e f766 2dbe 046e 0d3e 6609 813e
000000e0: 71fb ef3d dbb0 51be 2e45 e5bd de35 7b3e
000000f0: 537d 97be 754f 443e 6f48 d23d 4218 0cbe
00000100: 8b74 9a3e b031 113e 4ae5 70be 529c 213e
00000110: 0c37 8abe 7930 2fbe 65d2 cbbd 3a9a 033e
00000120: 3de9 993e 96d2 a83e 4b6c 8a3e 660f 81be
00000130: e2c4 053e fb9b 89be 7a64 23bd 6801 acbc
00000140: bdd0 49be d6cb 8d3e 4903 a4be d0a6 0bbe
00000150: 83a9 ef3d 8721 693d 5458 8cbe 4e02 b7bd
00000160: 2877 68be b28e 2b3e 7878 7dbe e684 df3d
00000170: 5eba debd d52f 6ebe 9547 b1be c389 96bc
00000180: 8b22 c4be 53d5 3e3d 18ef 2ebe d20f a4be
00000190: 3230 0fbe 6bf5 083e e796 f8bd 78ea e2bd
000001a0: b9b9 d33d a144 a4be 1263 64bc d016 22be
000001b0: cef7 133e de4b b73e b64b b6be db52 c7be
000001c0: b185 833d d4bd 59be 6666 71bd b048 b63e
000001d0: 4516 be3e 8291 2dbe 82a9 b1be 64da 6f3e
000001e0: e405 8b3d 4dd9 4e3d 1ab9 43be a710 39be
000001f0: 7a6e 5c3e c8b4 bc3e ec43 cabd 3d5a 003e

layers.6.bias f4 [2]
0.011988877 -0.019251388
00000000: ff6c 443c 16b5 9dbc
