data/20240122/output_net_12000.pth (torch, 38764 bytes, 8 tensors)

layers.0.weight f4 [64, 5]
0	0xbe8ea7fd	-0.2786254
1	0xbea3ce7d	-0.31993476
2	0xbce5cb6c	-0.0280511
3	0xbe68033f	-0.22657488
4	0x3e9f4521	0.3110743
5	0x3d691674	0.05690618
6	0xbe0fac9f	-0.14030693
7	0xbe3151b6	-0.17316326
8	0x3e89b775	0.2689778
9	0xbe1ff38e	-0.15620252
10	0xbe31af90	-0.17352128
11	0x3e7b08cf	0.24515079
12	0xbead2449	-0.33816746
13	0x3e92a9ac	0.28645074
14	0x3ef1cbef	0.472259
15	0xbcbccb7a	-0.023046244
16	0xbe8a8ddd	-0.27061358
17	0xbdd5a43a	-0.10431714
18	0x3e44bb9d	0.19212194
19	0xbdde2aaa	-0.10847981
20	0x3dbe9b6e	0.093069896
21	0x3e2a99ea	0.16660276
22	0xbea2c54e	-0.31791157
23	0xbe18970e	-0.14901373
24	0x3c44a8bc	0.01200312
25	0x3c91449e	0.017732915
26	0xbe63eff5	-0.22259505
27	0x3e0ad1d6	0.13556609
28	0xbe754931	-0.23953702
29	0xbe66f943	-0.22556023
30	0x3e2b07e0	0.16702223
31	0x3d7e363e	0.062063448
32	0x3d961695	0.07328526
33	0xbe0c742d	-0.13716193
34	0x3dd6b211	0.10483182
35	0xbe07269d	-0.13198324
36	0x3bf70501	0.0075384383
37	0x3e055b4d	0.1302311
38	0x3e0c10a9	0.1367823
39	0xbe14eaee	-0.14542744
40	0x3e954b98	0.29159236
41	0x3e8a7252	0.27040344
42	0x3ce79659	0.028269934
43	0x3c0788f5	0.008272399
44	0x3db0396d	0.08604703
45	0xbe7dcdde	-0.24785563
46	0xbe1736ae	-0.14766952
47	0xbdfacfc4	-0.122466594
48	0xbd41f680	-0.04735422
49	0x3d78f257	0.06077799
50	0xbe749644	-0.23885447
51	0x3e994dd1	0.29942182
52	0x3e820d5f	0.25400826
53	0x3e9091c4	0.2823621
54	0xbdf31b30	-0.1187042
55	0xbe570ed2	-0.21001747
56	0xbea068f4	-0.31330073
57	0xbe9a09c1	-0.30085567
58	0x3e2cd1e4	0.16876942
59	0xbe5389d3	-0.20658045
60	0x3e2c07e5	0.16799887
61	0x3d697bba	0.05700276
62	0x3da50adf	0.08058714
63	0xbd08d717	-0.03340825
64	0x3eac57f2	0.33660847
65	0xbe9e5097	-0.3092086
66	0xbe828d9b	-0.2549866
67	0x3e1d875e	0.1538367
68	0x3c5c3bf5	0.013442029
69	0xbe0d40db	-0.13794272
70	0x3d848b8b	0.06471928
71	0xbe28b4c9	-0.16475214
72	0xbe891d2c	-0.2678007
73	0x3e809474	0.2511326
74	0xbd656aa6	-0.05600991
75	0x3e21586e	0.1575639
76	0xbdf0932a	-0.11746819
77	0xbe7e3d91	-0.24828173
78	0xbe74058a	-0.23830238
79	0x3e2b494d	0.16727181
80	0xbcaf4f35	-0.021400074
81	0xbe36eef4	-0.17864591
82	0xbe957c67	-0.29196474
83	0xbd49d11a	-0.04927168
84	0xbe2598ad	-0.16171522
85	0xbe0b8fa1	-0.13629009
86	0xbd638ab6	-0.055552207
87	0x3e1b240c	0.1515047
88	0x3e4e0686	0.20119676
89	0xbe905542	-0.28190047
90	0x3e1cb202	0.1530228
91	0x3dda76b2	0.106671706
92	0xbe66f88d	-0.22555752
93	0xbcacfe5d	-0.021117384
94	0x3e18cabd	0.14921089
95	0x3e354bd0	0.17704701
96	0x3d16ce5b	0.03681789
97	0x3e448dff	0.19194792
98	0xbd435490	-0.047688067
99	0xbe68b576	-0.22725472
100	0x3e5c0c45	0.21489055
101	0xbe31e01e	-0.1737065
102	0xbe9de2ae	-0.30837005
103	0xbe6a712b	-0.22894733
104	0x3e0ea78c	0.13931102
105	0xbe670eea	-0.22564283
106	0xbd0f0210	-0.034914076
107	0xbab9ae65	-0.0014166354
108	0xbea3f2c5	-0.32021156
109	0x3d8b0021	0.06787134
110	0xbe0b3fee	-0.13598606
111	0xbbddff7e	-0.006774842
112	0xbe87da97	-0.26533958
113	0x3e970d9f	0.2950258
114	0x3de1f99b	0.110339366
115	0x3eba4c06	0.36386126
116	0xbe83b02e	-0.25720352
117	0xbe2e8164	-0.17041546
118	0x3d547c69	0.05187646
119	0x3e5b260b	0.21401231
120	0x3e41bf6b	0.18920676
121	0xbe9d7c3a	-0.3075884
122	0xbe4cc74a	-0.19997898
123	0xbe983f2c	-0.29735696
124	0xbdd34113	-0.10315146
125	0xbe83a927	-0.2571499
126	0x3e956ae7	0.29183123
127	0xbdb5be7e	-0.08874224
128	0x3e5611bf	0.20905207
129	0x3d140e71	0.036146585
130	0x3e8fdf1b	0.28099903
131	0x3e77a3d7	0.24183594
132	0xbe44d606	-0.19222268
133	0x3cc78ed5	0.0243601
134	0xbd07e0c3	-0.033173334
135	0x3e69d870	0.2283647
136	0x3e93058e	0.28715175
137	0xbdff9937	-0.12480395
138	0x3be9104d	0.007112539
139	0x3e9448e9	0.28961876
140	0xbd11ad55	-0.035565693
141	0xbd0d459d	-0.034490217
142	0xbe970941	-0.29499248
143	0xbe26d403	-0.16291814
144	0xbdbec3f7	-0.09314721
145	0x3e4375de	0.19087932
146	0x3c273635	0.010205795
147	0xbe87a886	-0.2649576
148	0x3e265891	0.16244723
149	0xbe10cc46	-0.14140424
150	0x3c87a98b	0.016560337
151	0xbd6f90f9	-0.058487866
152	0x3e90913e	0.2823581
153	0x3c8305a1	0.015993895
154	0xbd8334d6	-0.06406562
155	0xbea37b52	-0.31930023
156	0xbe7f31cd	-0.24921341
157	0x3e958af8	0.29207587
158	0xbe03fd71	-0.12889649
159	0xbe8f28db	-0.27960858
160	0xbdd9c7cd	-0.10633812
161	0x3e650f9e	0.22369239
162	0xbe534aae	-0.20633957
163	0x3d19b76b	0.037528437
164	0x3dbb5877	0.09147733
165	0xbe841ae8	-0.25801778
166	0xbd685ad1	-0.056727234
167	0xbda8a17c	-0.08233926
168	0xbe4429fa	-0.19156638
169	0xbe2bab4e	-0.16764566
170	0x3e67f40b	0.22651689
171	0x3e873402	0.26406866
172	0xbe778664	-0.2417236
173	0x3e8fee8c	0.28111684
174	0x3d6f3bee	0.058406763
175	0xbe84d73f	-0.2594547
176	0x3df2088e	0.11818038
177	0x3d227e0b	0.039670985
178	0xbe92a6bb	-0.2864283
179	0x3e81afbe	0.25329393
180	0x3e07f33b	0.13276379
181	0xbe325849	-0.1741649
182	0x3e775a12	0.24155453
183	0xbe116309	-0.14197935
184	0x3d7243ab	0.059146564
185	0xbeb726a5	-0.3577167
186	0x3dda222f	0.10651051
187	0xbe59147c	-0.2119922
188	0x3e9dc3fb	0.30813584
189	0x3e5c4808	0.21511853
190	0xbe223c90	-0.15843415
191	0xbba8e343	-0.005154045
192	0xbe03e657	-0.12880836
193	0xbd60e416	-0.05490502
194	0x3e3a4a4d	0.18192406
195	0x3e99122f	0.29896685
196	0x3d849762	0.064741865
197	0xbc9b0e87	-0.018927826
198	0xbe05c3c2	-0.13062957
199	0xbd781479	-0.0605664
200	0x3e81defe	0.25365442
201	0xbd0dbfc8	-0.034606725
202	0x3e5ff770	0.21871734
203	0x3c998ddc	0.018744402
204	0xbe7a62f0	-0.24451804
205	0x3e81b57c	0.25333774
206	0xbd8f0fba	-0.069854215
207	0xbe8a10a3	-0.26965818
208	0xbe954817	-0.29156563
209	0x3d4faf5a	0.050704338
210	0x3e91eaec	0.28499544
211	0x3ea209d5	0.31648126
212	0xbe8b3859	-0.27191427
213	0xbe217e96	-0.15770945
214	0xbe702f0b	-0.23455445
215	0xbe4b1dac	-0.19835538
216	0x3da45d67	0.080256276
217	0xbe138b89	-0.14408697
218	0xbe280d64	-0.16411358
219	0x3b6f280b	0.0036492373
220	0x3e223bb3	0.15843086
221	0x3e863cba	0.26218206
222	0xbe8b9073	-0.27258644
223	0x3caade25	0.02085788
224	0xbe1dc3d4	-0.15406734
225	0xbe6d621a	-0.23181954
226	0x3e9f7994	0.31147444
227	0xbe0aea84	-0.13566023
228	0x3e0904d6	0.13380751
229	0x3e67fb83	0.22654538
230	0xbe5869d8	-0.21134126
231	0xbc6c4c5c	-0.014422502
232	0xbe447608	-0.1918565
233	0xbcba5943	-0.022747641
234	0xbe5ae92c	-0.2137801
235	0x3e72ee4c	0.23723716
236	0x3e05c6dd	0.13064142
237	0x3e548a5d	0.20755906
238	0xbdadcc72	-0.084862605
239	0x3db85acb	0.090016924
240	0x3e80e6e2	0.2517615
241	0xbe2c092d	-0.16800375
242	0xbdd9eeac	-0.10641226
243	0xbe19e248	-0.15027726
244	0xbe3121fe	-0.17298123
245	0xbebaa48c	-0.36453664
246	0xbea13df7	-0.31492588
247	0x3e05cb91	0.13065936
248	0xbe85c3ca	-0.26125938
249	0xbdfe170f	-0.12406742
250	0xbe7a8822	-0.24465993
251	0xbd4fbaf8	-0.050715417
252	0x3d84a445	0.064766444
253	0xbe599671	-0.21248795
254	0x3de9ec88	0.11422068
255	0x3e30e9c1	0.1727667

layers.0.bias f4 [64]
0	0xbccf38b5	-0.025295595
1	0x393c05c0	0.00017931219
2	0x3df07f34	0.11743012
3	0x3b6587ce	0.0035023573
4	0x3d03f7d2	0.03221876
5	0x3b46ec56	0.003035327
6	0xbc7dd6e7	-0.015493131
7	0xbca16712	-0.019702468
8	0xbb55a2eb	-0.0032598327
9	0x3d12a9b9	0.03580639
10	0x3cf26d5f	0.029593168
11	0x3d764b3f	0.060130354
12	0xbd3f9f66	-0.046782874
13	0xbd621291	-0.055193488
14	0x3ca1469d	0.019686991
15	0x3bf70cca	0.0075393664
16	0xbc5398b5	-0.012914826
17	0x3c6825fb	0.0141692115
18	0xbb6cb78c	-0.0036120145
19	0xbb87f41b	-0.0041489727
20	0x3dd10327	0.102056794
21	0xbda1919d	-0.07889102
22	0x3c54dd6c	0.012992244
23	0xbbaef68c	-0.0053394493
24	0x3b2493cd	0.002511251
25	0x3c818e76	0.015815001
26	0x3ccc057d	0.02490496
27	0xbc3b2fde	-0.011424987
28	0x3c656afd	0.014002559
29	0x3ba99958	0.0051757507
30	0x3b855666	0.0040691374
31	0xbcb4903b	-0.02204143
32	0x3c4bd5a6	0.0124410745
33	0x3b861cb4	0.004092777
34	0x3c34eef9	0.011043304
35	0xbd8522ff	-0.065008156
36	0xbc8356dd	-0.01603263
37	0x3d23528b	0.03987364
38	0x3d1ff99c	0.039056405
39	0x3d4b3f03	0.04962064
40	0x3c4d4c55	0.012530406
41	0xbc9ffa0e	-0.019528415
42	0x3d27e109	0.040986095
43	0x3a5ac006	0.0008344654
44	0x3a7eeb25	0.00097243703
45	0x3d6f516e	0.058427267
46	0xbc952819	-0.018207597
47	0xbb909bc3	-0.0044130995
48	0xbba33639	-0.004980829
49	0xbd255f56	-0.040374123
50	0xbc837461	-0.016046705
51	0xbce15ab0	-0.027509063
52	0xbc12a072	-0.008949386
53	0xba5984a6	-0.0008297659
54	0xbd08a4f8	-0.03336045
55	0xbc5642be	-0.013077436
56	0xbc4d7149	-0.012539216
57	0xbbc3abb7	-0.0059713977
58	0xbc6c9d91	-0.014441864
59	0x3ca6f17b	0.020378819
60	0xbc946242	-0.01811326
61	0x3c310bf3	0.010806072
62	0x3ceca463	0.02888698
63	0x3d5654b4	0.052326873

layers.2.weight f4 [64, 64]
0	0xbd0203a7	-0.031741764
1	0xbe4a5c33	-0.19761734
2	0x3cde8b24	0.027165957
3	0x3e004a9e	0.12528464
4	0x3e104937	0.14090429
5	0x3e0a15d7	0.13484894
6	0x3d222402	0.03958512
7	0x3ded91ed	0.11600099
8	0x3c36970c	0.011144411
9	0xbe12a510	-0.14320779
10	0x3c77947b	0.015111084
11	0xbcaa119e	-0.020760354
12	0xbd76c3d2	-0.060245343
13	0xbe074a28	-0.13211882
14	0xbe20bbac	-0.15696591
15	0x3e2ac9c4	0.1667853
16	0x3e3864b9	0.18007173
17	0x3d5adf54	0.05343564
18	0xbe7c5698	-0.24642408
19	0xbb617516	-0.0034402064
20	0xbe2bb62f	-0.16768716
21	0x3d951518	0.07279414
22	0x3e0db78d	0.1383955
23	0x3d096219	0.03354082
24	0xbd1bda09	-0.03804973
25	0x3e01ed51	0.12688185
26	0xbe164db2	-0.14678076
27	0xbdd72cad	-0.10506568
28	0xbe3f6122	-0.18689397
29	0x3e3a09de	0.18167827
30	0xbdfa7ea7	-0.12231188
31	0x3de2c1a4	0.1107209
32	0xbdb29222	-0.08719279
33	0xbc18f1c6	-0.009334987
34	0xbe7327f1	-0.23745705
35	0x3da13ca4	0.078728944
36	0x3dd460b5	0.10370008
37	0xbe3f6b5c	-0.18693298
38	0xbd07286d	-0.032997537
39	0x3d990401	0.07471467
40	0x3e422048	0.18957627
41	0x3e435bbb	0.19077961
42	0x3cd3505c	0.025795154
43	0x3e4c7d87	0.1996976
44	0xbe321be2	-0.17393449
45	0xbd273101	-0.04081822
46	0xbc964fb2	-0.018348549
47	0xbe471030	-0.19439769
48	0x3e31d993	0.17368154
49	0x3daf8373	0.08569994
50	0x3dd73b58	0.10509366
51	0xbda85b06	-0.08220486
52	0x3dbf454c	0.09339389
53	0x3e2874f6	0.16450867
54	0xbd8b32a6	-0.0679677
55	0xbca5111c	-0.02014976
56	0x3e29af38	0.16570747
57	0xbe3d0266	-0.18457946
58	0x3e002bb6	0.12516674
59	0xbca28517	-0.019838853
60	0x3d96d477	0.07364743
61	0xbe365a34	-0.17807847
62	0x3b887765	0.0041646236
63	0x3e21fa76	0.158182
64	0xbdd61a71	-0.10454262
65	0xbdd8e481	-0.10590459
66	0xbe109e69	-0.14122929
67	0x3d7a4c35	0.061107833
68	0xbda39070	-0.07986534
69	0x3e1fd370	0.15608001
70	0x3ccdc7ef	0.02511975
71	0x3e313975	0.17307074
72	0xbcdfa22a	-0.027299006
73	0x3e22cd06	0.15898523
74	0x3cdbf362	0.026849452
75	0xbe3d681a	-0.18496743
76	0xbe4416ef	-0.19149373
77	0x3d88b495	0.06675068
78	0x3e0a2342	0.13490012
79	0x3c0f77ef	0.008756622
80	0xbd97b2fc	-0.074071854
81	0xbd0a451e	-0.03375732
82	0xbbd181ea	-0.006393661
83	0xbdba21ba	-0.09088464
84	0x3e39e0e1	0.1815219
85	0x3e1d0684	0.15334517
86	0x3e01c78b	0.12673776
87	0xbe444dfc	-0.19170374
88	0x3e17b9af	0.14816926
89	0xbdead15f	-0.114657156
90	0x3b90e63c	0.0044219773
91	0xbc680d00	-0.014163256
92	0x3d9bb563	0.07602956
93	0xbe232566	-0.15932235
94	0x3d415f11	0.047209803
95	0xbdc53ff4	-0.09631339
96	0xbe1e17cd	-0.15438767
97	0x3cb076d3	0.021541035
98	0x3c0cb565	0.00858817
99	0xbe4e86f0	-0.20168662
100	0xbd31f8aa	-0.043450035
101	0xbe40e119	-0.18835868
102	0x3e142a39	0.14469232
103	0xbe04dc8f	-0.12974761
104	0x3e239f66	0.15978774
105	0xbe0c2e15	-0.13689454
106	0xbd9d82e5	-0.07690982
107	0x3d3b2b8e	0.045695834
108	0x3e0b3e12	0.13597897
109	0xbe3a37f6	-0.1818541
110	0x3e89800d	0.26855507
111	0xbe079024	-0.13238579
112	0xbdcfd17c	-0.10147378
113	0x3b3c65ce	0.0028747204
114	0x3d58a619	0.052892778
115	0xbe46e06a	-0.19421545
116	0xbe34af67	-0.17645036
117	0xbe103de5	-0.14086111
118	0xbdad2ad0	-0.084554315
119	0xbe23201c	-0.15930218
120	0x3e09d862	0.1346145
121	0xbdd9572b	-0.10612329
122	0xbe1ae07e	-0.151247
123	0xbcf1705e	-0.029472526
124	0x3e54b1c1	0.20770933
125	0x3e368bb2	0.17826727
126	0xbe48f6b5	-0.19625361
127	0x3aaff7b8	0.0013425266
128	0xbdfb48eb	-0.122697674
129	0x3e1c2a26	0.15250453
130	0x3c120a71	0.008913622
131	0x3e80b58f	0.25138518
132	0xbe3264f7	-0.17421328
133	0xbe22181d	-0.15829511
134	0x3cb82896	0.02248029
135	0x3dcbaf90	0.09945595
136	0xbe87f048	-0.26550508
137	0x3d997741	0.07493449
138	0xbe2e8e9b	-0.17046587
139	0x3e1b1417	0.15144382
140	0xbe5e6e26	-0.21721706
141	0x3e51d04f	0.2048962
142	0x3dbb8c66	0.09157638
143	0xbe286de2	-0.16448167
144	0xbcd2d0bf	-0.025734304
145	0xbe0ef619	-0.13961066
146	0xbe5ab790	-0.21359086
147	0xbda2a64f	-0.07941877
148	0x3e465ad5	0.19370587
149	0x3d5c639d	0.053805936
150	0x3d7a256e	0.061070852
151	0x3bc9d661	0.006159589
152	0xbd9f838a	-0.07788761
153	0xbd4d8fd0	-0.05018598
154	0xbe13e1e0	-0.14441633
155	0xbe56ac6f	-0.20964216
156	0xbe26acac	-0.16276807
157	0x3e20c9b8	0.1570195
158	0xbdc5ebd3	-0.096641205
159	0xbe6f337f	-0.23359488
160	0xbd1761d0	-0.036958516
161	0xbe207f86	-0.15673646
162	0x3e7173e4	0.23579365
163	0x3d54b50d	0.051930476
164	0xbe05f120	-0.13080263
165	0xbe0fb2cf	-0.14033054
166	0x3e50eb01	0.20402147
167	0xbe6c0b0f	-0.23051094
168	0x3b399fa8	0.0028323922
169	0xbd864d63	-0.06557729
170	0xbe8719ce	-0.26386875
171	0xbe045012	-0.1292117
172	0xbd86cdf6	-0.06582253
173	0x3e1aa819	0.15103187
174	0xbddcf92a	-0.10789712
175	0xbddf8c9f	-0.10915493
176	0x3e30f247	0.17279921
177	0x3cb977c7	0.022640122
178	0x3cadef3b	0.021232238
179	0xbc71af5c	-0.014751282
180	0xbe1d8676	-0.15383324
181	0xbce18870	-0.027530879
182	0xbd7d3e22	-0.061826833
183	0xbe486509	-0.19569792
184	0xbdf446d8	-0.11927575
185	0x3dd3fc2b	0.103508316
186	0x3d026023	0.031829964
187	0xbdfb0849	-0.1225744
188	0xbda897f5	-0.082321085
189	0x3d84db64	0.06487158
190	0x3beb3033	0.0071773767
191	0xbd3bd3ec	-0.0458564
192	0xbe36a108	-0.17834866
193	0x3cc8bbdd	0.024503643
194	0x3e10861d	0.1411366
195	0xbe5b74d8	-0.21431291
196	0xbe268b9d	-0.16264196
197	0xbdfc4f9f	-0.12319874
198	0x3e0cfc64	0.13768154
199	0x3e4ff560	0.20308447
200	0x3e44bb8a	0.19212165
201	0xbcb8f54d	-0.022577906
202	0xbdb77d9f	-0.08959507
203	0x3db8c0c7	0.09021144
204	0x3b91fae6	0.0044549583
205	0x3d6bba38	0.05755064
206	0xbdb2af7b	-0.087248765
207	0x3d891d2c	0.06695017
208	0xbe338fa5	-0.17535265
209	0x3e2d7ed1	0.16942908
210	0x3e1eaeca	0.15496364
211	0xbe565493	-0.209307
212	0xbe51d74c	-0.20492285
213	0xbba75a35	-0.005107189
214	0x3ceb0a58	0.028691456
215	0xbde1aff6	-0.1101989
216	0xbe27c8f1	-0.16385247
217	0xbd431ba9	-0.0476338
218	0x3e427534	0.18990022
219	0xbe10ab15	-0.14127763
220	0xbdc89765	-0.09794501
221	0x3e3fbba0	0.18723917
222	0x3e0f2c98	0.13981855
223	0x3e3572d8	0.1771959
224	0xbd020b4a	-0.031749047
225	0x3de98202	0.1140175
226	0xbcb42590	-0.021990567
227	0x3e226b8b	0.15861337
228	0xbd6805b9	-0.056646083
229	0x3e1e4197	0.15454708
230	0x3e17b440	0.14814854
231	0xbd918c56	-0.07106845
232	0x3e1b295c	0.15152496
233	0xbe26415a	-0.16235867
234	0x3dfdafba	0.12387033
235	0x3c0b47f2	0.00850104
236	0x3d41339c	0.04716836
237	0x3e26a4f4	0.16273862
238	0xbe5148f2	-0.20437983
239	0x3d988bd8	0.07448548
240	0xbd7834db	-0.060597282
241	0xbde970f7	-0.113984995
242	0x3d2361dd	0.03988825
243	0x3ccea6d9	0.025226044
244	0xbe2f787b	-0.17135803
245	0xbe11e02f	-0.14245676
246	0xbce1c51d	-0.027559811
247	0x3e5a516f	0.21320127
248	0xbcaa5570	-0.020792693
249	0x3e48b9af	0.19602083
250	0xbe5f4bd0	-0.21806264
251	0xbe5939bc	-0.2121343
252	0xbcb12ae9	-0.021626906
253	0x3d9f1cb7	0.07769149
254	0x3e516e66	0.2045227
255	0x3c4bc236	0.01243644

layers.2.bias f4 [64]
0	0xbca44f0a	-0.02005722
1	0xbcf5d755	-0.030009905
2	0x3cf7c070	0.030243129
3	0x3b142c82	0.0022609537
4	0x3d47d172	0.048783727
5	0x3d2ba659	0.04190669
6	0x3bbbcfa2	0.005731539
7	0x3cd0bd5c	0.025480919
8	0x3c9109c8	0.01770486
9	0x3bb90c87	0.0056472453
10	0x3b5eeaf6	0.003401456
11	0xbb66a638	-0.003519429
12	0xbb6f2bb1	-0.0036494548
13	0xbceb5e2c	-0.028731428
14	0x3b8810cd	0.0041523934
15	0x3b470e9f	0.0030373705
16	0xbb36f76d	-0.0027918473
17	0xbd0405cd	-0.032232095
18	0xbbfcba0b	-0.0077126077
19	0x3c5c9b25	0.013464724
20	0x3bd5ff45	0.0065306746
21	0xba225289	-0.0006192108
22	0xbc913c4d	-0.017728949
23	0xbc5ec6c9	-0.013597199
24	0xbdad456d	-0.084605075
25	0x3d1c0f4c	0.038100526
26	0xbc0d7763	-0.008634421
27	0xbbebc8f0	-0.0071955845
28	0xbc36f39e	-0.011166481
29	0x3b1602e1	0.00228899
30	0xbd6ae4ac	-0.057346985
31	0x3bb11fd5	0.005405406
32	0xbc091747	-0.008367366
33	0xbb214cc4	-0.0024612406
34	0xba328c31	-0.0006811051
35	0xbd43f48e	-0.047840647
36	0x3cc9d315	0.024636785
37	0x3c5b9fcc	0.013404798
38	0xbb411a7b	-0.0029465246
39	0x3b40ab11	0.0029398839
40	0xbe027981	-0.12741663
41	0x3c02e3d1	0.007988886
42	0xbbcff172	-0.006345921
43	0x399663eb	0.00028684674
44	0xbbacc84c	-0.0052729007
45	0xbc9118f4	-0.017712094
46	0x3c6f160f	0.0145926615
47	0xbbdbc650	-0.0067069903
48	0x3da41633	0.08012047
49	0xbc8e6f64	-0.0173871
50	0xbbba074a	-0.0056771385
51	0xbc4df9c8	-0.0125717595
52	0xbc9ec76e	-0.019382205
53	0x3d83f38b	0.064429365
54	0x3ceb80ba	0.028747905
55	0xbc25d6d3	-0.010122019
56	0x3d4bc9ef	0.049753126
57	0xbc820eb6	-0.015876155
58	0xbc021405	-0.007939343
59	0x3a460859	0.00075543445
60	0x3c50fe4e	0.012755943
61	0xbbab573f	-0.0052289064
62	0x3c890e34	0.016730405
63	0x3b13c511	0.002254788

layers.4.weight f4 [64, 64]
0	0xbe3e7d0a	-0.18602386
1	0x3d83588c	0.06413373
2	0x3e3915f5	0.18074782
3	0x3bc5bb77	0.0060343104
4	0x3d208ebe	0.03919863
5	0xbd5b8403	-0.053592693
6	0x3d03b12b	0.032151382
7	0x3e270fa1	0.16314556
8	0xbc5df462	-0.013547035
9	0xbd69f151	-0.057114903
10	0xbd90eaa2	-0.07076003
11	0xbe5d3c69	-0.21605076
12	0xbe0b9df2	-0.1363447
13	0xbe159de7	-0.14611016
14	0xbd0118fc	-0.031517968
15	0xbe42de1c	-0.1903004
16	0x3e4d9831	0.20077588
17	0xbdc24016	-0.0948488
18	0x3d3396a1	0.043844823
19	0xbd688c55	-0.056774456
20	0x3cfa7a0d	0.030575776
21	0xbc7e8ca3	-0.01553646
22	0xbd3f7d57	-0.046750393
23	0x3e262edb	0.16228811
24	0x3d36dc54	0.044643715
25	0xbe40ad67	-0.18816148
26	0x3cc4c68d	0.024020458
27	0xbdbcfdc8	-0.092280924
28	0xbd59c56a	-0.053166784
29	0x3dfff5ec	0.12498078
30	0xbe1771f3	-0.14789562
31	0xbe493313	-0.1964839
32	0xbdb4b91d	-0.0882437
33	0x3de291c9	0.110629626
34	0x3e2ded17	0.16984974
35	0xbc2f49ea	-0.010698775
36	0xbe5cdffb	-0.21569817
37	0x3d8bd3f9	0.0682754
38	0xbe799891	-0.24374606
39	0xbe229b3d	-0.15879531
40	0x3e68e55d	0.22743745
41	0xbe320104	-0.173832
42	0x3e5c1f71	0.21496369
43	0x3d8ce0c5	0.06878809
44	0x3e7bdce4	0.24595982
45	0x3c0ba212	0.008522527
46	0x3e35d280	0.1775608
47	0xbdecd39e	-0.115638
48	0xbe1a2d20	-0.15056276
49	0xbe19d98a	-0.15024391
50	0x3db7b890	0.089707494
51	0xbe21dc8d	-0.1580679
52	0x3e679a9c	0.22617573
53	0xbcd41441	-0.025888564
54	0x3e62cad2	0.22147682
55	0x3c95bb42	0.018277768
56	0x3e12ef50	0.14349103
57	0xbd82698a	-0.06367786
58	0xbdc7c6e7	-0.097547345
59	0xbe305e92	-0.17223576
60	0x3df9a32e	0.12189327
61	0x3dd3f54d	0.10349522
62	0x3e0cfcfd	0.13768382
63	0xbe2530a4	-0.16131836
64	0x3d854b02	0.06508447
65	0x3d818436	0.06324045
66	0x3dc11aa3	0.09428909
67	0x3e0ee883	0.13955884
68	0xbd6ac3e2	-0.057315715
69	0xbe594b18	-0.21220052
70	0xbe5d8168	-0.21631396
71	0x3d1b555f	0.037923213
72	0xbd9f6fde	-0.07785009
73	0x3e6290f6	0.2212561
74	0xbd05232f	-0.032504257
75	0xbd02b9f7	-0.03191563
76	0xbe49ae32	-0.19695356
77	0x3cd1e098	0.02561979
78	0x3d6fe44a	0.058567323
79	0xbe309e59	-0.17247905
80	0x3d97d6ab	0.074139915
81	0x3dc00a02	0.09376909
82	0xbbd8b342	-0.006613166
83	0xbe124ce1	-0.1428714
84	0x3e2fd5b3	0.17171364
85	0x3c7e69e3	0.015528175
86	0x3d79c51f	0.060979005
87	0xbe047b34	-0.12937623
88	0xbdca42a3	-0.09875991
89	0x3d1b349d	0.037891973
90	0x3cee0678	0.029055819
91	0x3c3d51ce	0.011555148
92	0xbc51132d	-0.0127609195
93	0xbd8a750b	-0.067606054
94	0xbd03c784	-0.032172695
95	0xbd80a6fa	-0.06281848
96	0x3df2b20f	0.11850368
97	0x3d4be84a	0.049782075
98	0xbe492c5e	-0.19645831
99	0x3e5c8c22	0.21537831
100	0xbd5b8d3e	-0.053601496
101	0xbe3b6372	-0.18299654
102	0x3e84be76	0.2592656
103	0xbd323e4c	-0.043516442
104	0x3e1edfa7	0.15515004
105	0x3e682ec5	0.22674091
106	0x3df517bb	0.11967417
107	0xbe3894ed	-0.1802556
108	0xbd50cb03	-0.050974857
109	0x3bc122e9	0.005894054
110	0x3e5896da	0.21151295
111	0x3df2c8bf	0.118546955
112	0x3da6ec14	0.08150497
113	0x3d350fad	0.044204403
114	0x3dfc3140	0.12314081
115	0xbdcdff53	-0.10058465
116	0x3e041364	0.12898022
117	0x3dffc8c8	0.12489468
118	0x3e053190	0.13007188
119	0xbd44b902	-0.048028
120	0xbe20c4af	-0.15700029
121	0x3ddbf644	0.10740331
122	0x3ca58530	0.02020511
123	0xbe0f9df4	-0.14025098
124	0xbbe245cf	-0.0069052945
125	0xbe351459	-0.17683543
126	0xbe19599e	-0.14975592
127	0x3d4cf0fc	0.050034508
128	0x3d04ee0c	0.03245358
129	0x3e10067d	0.14064975
130	0xbdf35f3f	-0.11883401
131	0xbd11dd83	-0.03561164
132	0x3d1e07ff	0.038581844
133	0xbd650c9a	-0.05592022
134	0x3dd5ee2c	0.10445818
135	0x3e179678	0.14803493
136	0x3d868f13	0.06570258
137	0x3ca11007	0.019660963
138	0xbd91ceb5	-0.07119504
139	0xbcd761c0	-0.026291728
140	0x3ddc4ae1	0.107564695
141	0x3cbdd4f4	0.023172833
142	0xbda6ef47	-0.08151107
143	0x3d8a244c	0.06745204
144	0x3cd10bf2	0.025518391
145	0xbe6025d2	-0.21889427
146	0x3db54be5	0.08852366
147	0xbd517da0	-0.051145196
148	0xbce0eeeb	-0.027457675
149	0xbe1fa0ff	-0.15588759
150	0x3d746403	0.05966569
151	0x3e093ac4	0.13401324
152	0xbe3058e4	-0.17221409
153	0x3db43485	0.0879908
154	0xbd8f8119	-0.07007045
155	0xbdbea320	-0.093084574
156	0x3d8e5e70	0.06951606
157	0xbe18eec6	-0.14934835
158	0x3c492107	0.012275941
159	0xbbd747f5	-0.0065698572
160	0x3e215ee7	0.15758859
161	0x3b91df9d	0.0044517056
162	0x3e5a9090	0.21344209
163	0xbd1aabbd	-0.03776144
164	0xbe34721d	-0.17621656
165	0xbce8931e	-0.028390463
166	0xbc845b81	-0.016156914
167	0x3d401ff0	0.046905458
168	0x3d9f9e11	0.07793821
169	0x3d93a2b3	0.07208767
170	0x3e0dbca5	0.13841493
171	0x3ca60018	0.020263717
172	0x3d571cd1	0.052517716
173	0x3d1c87ee	0.03821557
174	0x3ac79d5f	0.0015229395
175	0xbe015387	-0.1262952
176	0xbe1657c4	-0.14681917
177	0x3dfbc57e	0.12293528
178	0x3d307184	0.043077007
179	0x3db770cc	0.08957061
180	0xbd6aec3e	-0.057354204
181	0xbdc0d10e	-0.09414874
182	0xbe162aa2	-0.146647
183	0x3daaf605	0.08347706
184	0xbd782b44	-0.060588136
185	0xbd40ae85	-0.047041435
186	0x3dea0c37	0.11428111
187	0x3daebae1	0.08531738
188	0xbd10162b	-0.03517739
189	0x3e60a387	0.2193738
190	0xbd8541b2	-0.06506671
191	0xbd7118a7	-0.0588614
192	0x3c65671c	0.014001634
193	0xbd6850a8	-0.056717545
194	0xbdc88a8a	-0.09792049
195	0x3e214830	0.15750194
196	0xbe026f9e	-0.12737891
197	0xbe0ec076	-0.13940606
198	0x3dea4751	0.11439384
199	0x3dbaece8	0.091272175
200	0x3da58f78	0.08084005
201	0x3dcdc325	0.100469865
202	0x3b256e60	0.002524279
203	0x3e3cee19	0.18450202
204	0xbdd3c4d9	-0.1034028
205	0x3d980a58	0.07423848
206	0xbd8be2e1	-0.06830383
207	0x3db919eb	0.090381466
208	0xbe06462b	-0.13112704
209	0xbd2ff854	-0.042961434
210	0xbd7203ec	-0.05908577
211	0x3e576f7b	0.2103862
212	0x3e2708fc	0.16312021
213	0x3e24add1	0.1608193
214	0x3df6d2ef	0.12051951
215	0xbdbb5747	-0.09147506
216	0x3c4cb5b6	0.012494495
217	0x3d151dce	0.036405377
218	0xbdf1b474	-0.11801997
219	0xbe1ef6df	-0.15523861
220	0x3c545578	0.01295983
221	0xbc3e5f9a	-0.011619473
222	0x3e61864c	0.22023886
223	0x3d0797c6	0.033103727
224	0x3dd3f400	0.10349274
225	0xbddf150f	-0.108926885
226	0xbe39a232	-0.18128279
227	0x3e27fe74	0.1640566
228	0xbd6ed056	-0.058304153
229	0xbe090f71	-0.13384797
230	0xbd700066	-0.05859413
231	0xbe0c73ed	-0.13716097
232	0x3e30b1e2	0.17255357
233	0xbd972574	-0.073801905
234	0xbe506317	-0.203503
235	0xbde545c4	-0.11194947
236	0xbd946eec	-0.07247719
237	0xbde2de7e	-0.11077593
238	0x3e4c8f35	0.19976504
239	0x3e45d8e2	0.19321015
240	0x3d226b55	0.03965314
241	0x3e1c7e3a	0.15282527
242	0x3da2886b	0.07936176
243	0x3e083175	0.13300116
244	0xbda153f8	-0.07877344
245	0x3e241671	0.16024186
246	0xbe2142f3	-0.15748195
247	0x3da1c012	0.07897963
248	0x3e699bff	0.22813414
249	0x3d1711e0	0.03688228
250	0xbcee48a4	-0.029087372
251	0xbe2e98cf	-0.1705048
252	0xbbb9748c	-0.0056596454
253	0xbe18d497	-0.14924847
254	0xbd8dc02c	-0.069214195
255	0xbdc55fa4	-0.096373826

layers.4.bias f4 [64]
0	0x3c6f2737	0.014596752
1	0xba3356a4	-0.00068412186
2	0xbb9a75cc	-0.0047137495
3	0xbb96451e	-0.004585876
4	0x3cc35d93	0.02384833
5	0x3d25c1f3	0.040468168
6	0x3bf0a49e	0.0073438426
7	0x3c8e2dcd	0.017355824
8	0xbc511bff	-0.012763022
9	0xbc3c664e	-0.011499001
10	0xbc8a27c1	-0.01686466
11	0xbb8366ea	-0.004010071
12	0x3c00e4ed	0.00786708
13	0x3b56ad92	0.0032757265
14	0xbbcf06d7	-0.006317954
15	0xbc13688d	-0.008997095
16	0x3c5904e8	0.013245799
17	0xbc45b2a3	-0.012066516
18	0x3b2bba6a	0.002620364
19	0xbca8f422	-0.020624224
20	0xbc1ef939	-0.009702974
21	0xbc4320cb	-0.011909674
22	0x3c44a263	0.012001607
23	0xbb2403c1	-0.0025026652
24	0xbc47e099	-0.012199544
25	0xbb4f1642	-0.003159896
26	0x3c438253	0.011932927
27	0xbbafe7a0	-0.005368188
28	0xbc0e7268	-0.008694269
29	0xbbe4586a	-0.0069685476
30	0x3cd0e258	0.025498554
31	0x3c32d786	0.010915643
32	0x3c8c847c	0.017153017
33	0xbc1b2949	-0.009470292
34	0x3bc3b0ef	0.00597202
35	0x3c408d1c	0.011752393
36	0xbc310ecd	-0.010806751
37	0xbc5eb800	-0.013593674
38	0x3c475bb2	0.012167858
39	0x3c32ca69	0.010912516
40	0xbc2fdcea	-0.010733822
41	0xb985dbf8	-0.00025531626
42	0xbc869ce4	-0.016432233
43	0xb9bd3500	-0.00036088377
44	0xbc57a59d	-0.013162044
45	0x3cfa9399	0.030587958
46	0xbb565cd4	-0.0032709138
47	0x3a7007f8	0.0009156461
48	0xbc2984b0	-0.010346577
49	0x3c295c60	0.010336965
50	0x3b922b85	0.0044607543
51	0xbc3e3ffa	-0.011611933
52	0x3a00e51c	0.00049169525
53	0xbc1ea263	-0.009682271
54	0x3c6b8570	0.014375076
55	0x3be8db21	0.0071062003
56	0xbc2ac057	-0.010421834
57	0xbbfac236	-0.0076525463
58	0xbbbbd4c3	-0.0057321503
59	0x3c73b00f	0.014873519
60	0xbc6b4651	-0.014360026
61	0x3ae1d2bf	0.0017228945
62	0x3c653d18	0.013991617
63	0xbc44be62	-0.012008281

layers.6.weight f4 [2, 64]
0	0xbc178272	-0.009247409
1	0x3e9bfba2	0.30465418
2	0xbe51d8d4	-0.2049287
3	0xbdc7f2a2	-0.097630754
4	0x3d6f3f11	0.058409754
5	0x3cc99609	0.024607675
6	0x3e8492e6	0.25893325
7	0x3d996e15	0.074916996
8	0xbe8cc2d8	-0.27492404
9	0xbde61a6a	-0.11235507
10	0xbd4bc056	-0.049743973
11	0xbdd27f25	-0.10278157
12	0x3d73e43a	0.059543826
13	0x3e3481fb	0.17627709
14	0x3cc85d6d	0.024458611
15	0xbe38461b	-0.17995493
16	0x3e7a3a4a	0.24436298
17	0xbe0911a5	-0.13385637
18	0xbe340bc9	-0.1758262
19	0xbdefc11c	-0.117067546
20	0xbe9f5275	-0.31117597
21	0xbd8874bc	-0.0666289
22	0xbe0dd283	-0.13849835
23	0xbe12ce15	-0.14336427
24	0xbe37c9c8	-0.17948067
25	0x3e19b066	0.15008697
26	0x3dd26f1d	0.102750994
27	0xbe9b1d2e	-0.302957
28	0xbe128939	-0.14310159
29	0xbe9bc2a0	-0.30421925
30	0x3e595673	0.21224384
31	0x3d9b527b	0.07584091
32	0x3d923610	0.07139218
33	0xbe9e8fab	-0.30968985
34	0x3e8cc187	0.274914
35	0x3e4e52e6	0.2014881
36	0xbe4ac4c7	-0.19801627
37	0xbd7527f2	-0.059852548
38	0x3ddd8b95	0.10817639
39	0x3d6ea8d1	0.058266465
40	0x3e11f27f	0.14252661
41	0xbe4c433d	-0.19947524
42	0x3eaaae9a	0.33336335
43	0x3e897cb7	0.26852962
44	0xbe37e036	-0.17956623
45	0xbdc682d8	-0.09692925
46	0xbe96ef90	-0.29479647
47	0xbe85a864	-0.26105034
48	0xbe2d3e6b	-0.16918342
49	0x3ea5c47f	0.32376477
50	0x3e284b44	0.16434962
51	0xbda3e831	-0.08003271
52	0x3e0717ad	0.13192625
53	0xbe2c5119	-0.16827811
54	0x3e0bd0ec	0.13653916
55	0x3e7b501c	0.24542278
56	0x3de40e9a	0.111355975
57	0xbe551f10	-0.2081263
58	0xbde473bf	-0.11154889
59	0x3e7319a2	0.23740247
60	0xbe97cea3	-0.2964984
61	0x3e38d544	0.18050104
62	0x3dd584dd	0.10425732
63	0xbe0f2e4e	-0.13982508
64	0x3e8d04da	0.27542764
65	0x3e1052c7	0.14094077
66	0xbe713b6c	-0.23557824
67	0x3dd92de9	0.1060446
68	0xbe5bc9f0	-0.21463752
69	0xbe2d5225	-0.16925867
70	0xbdd2856e	-0.10279356
71	0x3e010cb5	0.12602504
72	0x3e98a59c	0.2981385
73	0x3ea828be	0.32843584
74	0x3e81cbf6	0.25350922
75	0xbe7faa28	-0.24967253
76	0x3e101de9	0.1407391
77	0xbe80bbdb	-0.25143322
78	0xbd192e99	-0.037397955
79	0xbce6f6d9	-0.028193878
80	0xbe405be3	-0.18785052
81	0x3e8ae57b	0.27128205
82	0xbe9c61fa	-0.305435
83	0xbdfb71ee	-0.1227759
84	0x3df21f62	0.11822392
85	0x3c1eb1bb	0.009685929
86	0xbe858644	-0.26079
87	0xbdc714ba	-0.0972075
88	0xbe643a73	-0.22287922
89	0x3e2962fd	0.16541667
90	0xbe6c2224	-0.23059899
91	0x3ddffdfa	0.10937114
92	0xbdc99523	-0.09842899
93	0xbe831e3b	-0.25609002
94	0xbeb21fcb	-0.3478988
95	0xbc9d026f	-0.0191662
96	0xbeb9dc0d	-0.36300698
97	0x3d422a72	0.04740376
98	0xbe27a15d	-0.16370149
99	0xbe995d91	-0.29954198
100	0xbe0b3b29	-0.13596787
101	0x3e034d2c	0.12822407
102	0xbdf03ea2	-0.11730696
103	0xbdc97fe6	-0.09838848
104	0x3e0cf977	0.13767038
105	0xbe9ec299	-0.3100784
106	0xbb80f968	-0.0039359815
107	0xbe19878b	-0.14993112
108	0x3e0e1906	0.13876733
109	0x3eb08bf6	0.34481782
110	0xbeb102bc	-0.345724
111	0xbeaa2891	-0.33234075
112	0x3d8600ce	0.06543122
113	0xbe5282da	-0.20557728
114	0xbd933d97	-0.07189482
115	0x3ea58877	0.32330677
116	0x3ec16e07	0.37779257
117	0xbe2c2b1b	-0.16813318
118	0xbeac96ea	-0.33708888
119	0x3e93f046	0.28894252
120	0x3db00d69	0.08596308
121	0x3d5d04f0	0.053959787
122	0xbe35d5c5	-0.17757328
123	0xbe44b0c9	-0.19208063
124	0x3e5dd506	0.21663293
125	0x3eb54e15	0.35411134
126	0xbdc77b9f	-0.09740376
127	0x3e0941dd	0.13404031

layers.6.bias f4 [2]
0	0x3c3b0e2a	0.011416951
1	0xbc3ba3bf	-0.011452614
