data/20240122/output_net_4000.pth (torch, 38752 bytes, 8 tensors)

layers.0.weight f4 [64, 5]
000000 4f fa 88 be db 36 9d be 41 35 a2 bc 3a f8 64 be
       -0.2675347 -0.30705914 -0.019800784 -0.22360316
000010 de 19 92 3e fe 35 4f 3d fb c4 10 be 5c 5f 2f be
       0.2853536 0.0505886 -0.14137642 -0.1712622
000020 d9 25 89 3e 8f d5 1c be 81 2b 2a be 6f 08 57 3e
       0.26786688 -0.15315841 -0.16618158 0.20999311
000030 d4 47 6d be 52 c9 81 3e 54 79 5f 3e 4b 6a 0d bd
       -0.23171932 0.25348908 0.21823627 -0.034525197
000040 de c5 88 be cb e4 e3 bd eb 01 45 3e fb de ed bd
       -0.2671346 -0.11127623 0.19239013 -0.11614796
000050 50 cf 96 3d c4 84 1d 3e cc f5 a1 be 96 3d 11 be
       0.073637605 0.15382677 -0.3163284 -0.1418365
000060 82 ea 13 3d 94 be ff 3c 72 f8 66 be d4 e7 14 3e
       0.036112316 0.031218804 -0.22555712 0.1454156
000070 32 b3 79 be 25 a0 92 be fd 68 31 3e f4 a6 52 3d
       -0.24384764 -0.28637806 0.17325206 0.05142875
000080 e9 46 9f 3d 04 48 0b be 69 c0 f0 3d c9 57 ff bd
       0.07777197 -0.1360169 0.11755449 -0.124679156
000090 ab 2b 66 3c a7 fa 03 3e 7e 90 0a 3e ee 5c 15 be
       0.014048497 0.12888585 0.13531682 -0.14586231
0000a0 dd 90 91 3e a9 26 80 3e cf a7 f6 3c 43 2b dc 3b
       0.28430834 0.25029495 0.030109314 0.0067190244
0000b0 06 75 fd 3d f5 fe 74 be 1f 29 c3 bd f1 33 da bd
       0.12375836 -0.23925383 -0.095293276 -0.10654438
0000c0 c9 e4 50 bd 54 6f e0 bc cf 17 71 be a2 a2 94 3e
       -0.050999437 -0.027396835 -0.23544239 0.2903033
0000d0 5c bc 74 3e 64 40 90 3e 04 3b d5 bd 10 59 45 be
       0.23899978 0.28174126 -0.10411647 -0.19272256
0000e0 f3 dd 94 be aa 97 97 be 76 d3 2a 3e 22 4a 88 be
       -0.29075584 -0.29607898 0.16682228 -0.2661906
0000f0 05 95 47 3e d7 11 fd 3b 98 b5 80 3d 84 47 21 bd
       0.1949044 0.007723074 0.06284636 -0.039374843
000100 55 5c 96 3e 7c 2b 84 be 36 b0 8c be 7b 9e 17 3e
       0.2936732 -0.25814426 -0.27478188 0.14806549
000110 08 8c 10 3c 1b 0e 82 be 70 c4 31 3d 05 ff 1a be
       0.008822449 -0.25401387 0.043400228 -0.15136345
000120 26 a5 79 be 9e 0a 7d 3e 64 fa 65 bd 15 63 1e 3e
       -0.24379405 0.24711081 -0.056146994 0.15467484
000130 8a 48 fb bd 59 ab 7f be 10 6d 72 be 2e 8e 34 3e
       -0.12269695 -0.24967708 -0.23674417 0.17632362
000140 e1 1d 96 bc 3e 41 2c be ee c5 9d be 8d f8 46 bd
       -0.018324794 -0.16821763 -0.3081507 -0.04857688
000150 fb 3f de bd 6b 23 17 be d8 35 2c bd 36 f5 1a 3e
       -0.10852047 -0.14759605 -0.042043537 0.15132603
000160 81 22 4e 3e c8 d3 9a be c5 3c 1a 3e 5e 08 cd 3d
       0.2013035 -0.302397 0.15062244 0.100113615
000170 84 2d 61 be ef 7c a3 bc d2 99 1f 3e 56 7e 39 3e
       -0.21990019 -0.019957034 0.15586022 0.181146
000180 71 3a 1d 3d 40 ca 4c 3e dd e9 56 bd 62 0d 77 be
       0.038385812 0.19999027 -0.052469123 -0.24126199
000190 27 e9 52 3e f0 99 49 be b3 73 8e be a6 7d 61 be
       0.20596753 -0.19687629 -0.27822646 -0.22020587
0001a0 52 0f 08 3e cd f6 41 be d4 42 55 bd 0e 52 bc 3c
       0.13287094 -0.18941803 -0.052065685 0.022988345
0001b0 1c 85 a3 be 83 4f 77 3d ac ae 14 be 8b c7 65 bc
       -0.31937492 0.060378563 -0.14519757 -0.0140246255
0001c0 a8 75 81 be 0a bc 95 3e 41 d2 dc 3d 3d 47 a3 3e
       -0.25285077 0.29245025 0.1078229 0.31890288
0001d0 38 12 91 be 2a 15 11 be 5a 17 46 3d 70 ff 6c 3e
       -0.28334212 -0.1416823 0.048362114 0.23144317
0001e0 ef 62 41 3e b4 73 9e be b8 e9 4c be f9 cd 97 be
       0.18885396 -0.3094765 -0.20011032 -0.29649332
0001f0 98 3f c8 bd 2f 18 80 be 37 6b 9a 3e dd d7 bf bd
       -0.097777545 -0.2501845 0.30159923 -0.093673445
000200 c8 33 51 3e d0 92 81 3d 0e da 84 3e 6b a1 68 3e
       0.20429909 0.063268304 0.25947613 0.22717826
000210 ef 41 46 be fc 89 ea 3c 10 15 04 bc b6 91 6a 3e
       -0.19361089 0.02863025 -0.008061662 0.22907147
000220 e9 2c 8c 3e 38 94 01 be ae 06 14 3c 5e ab 9d 3e
       0.27378014 -0.12654197 0.009034796 0.30794805
000230 f2 d8 31 bd 9e ea e1 bc 82 cd 97 be d7 2b 26 be
       -0.043419786 -0.027577695 -0.29648978 -0.16227661
000240 f8 6e ad bd e6 80 39 3e b5 c2 d5 3b c5 d7 85 be
       -0.08468431 0.18115577 0.006523455 -0.26141182
000250 2c fb 23 3e 07 c0 fe bd 6a e4 34 3d c7 d5 5b bd
       0.16013783 -0.1243897 0.044163145 -0.05367067
000260 02 56 67 3e 49 7e b1 3c 57 69 cc bd 4d cf 9a be
       0.22591403 0.021666663 -0.099810295 -0.30236283
000270 6d 7e 79 be c5 7e 96 3e ea cc 06 be 78 3d 94 be
       -0.24364634 0.29393592 -0.13164106 -0.28953147
000280 55 ac e5 bd 29 7c 61 3e 9e 30 52 be 88 52 1d 3d
       -0.1121451 0.2202002 -0.20526358 0.038408786
000290 f9 1a bc 3d 49 7b 7c be ce f6 4c bd e8 3d ad bd
       0.09184832 -0.24656405 -0.05004006 -0.08459073
0002a0 d3 1e 40 be f0 d8 27 be 8f 69 61 3e 7d 17 83 3e
       -0.18761759 -0.16391349 0.22012924 0.25603858
0002b0 14 2b 77 be e9 10 91 3e a5 1b 7a 3d cf 90 81 be
       -0.24137527 0.28333214 0.06106152 -0.25305793
0002c0 34 32 26 3e af 98 ec 3c fa 56 8c be 6a 7c 95 3e
       0.16230088 0.028881399 -0.27410108 0.29196483
0002d0 66 82 21 3e c4 ef 49 be af 2f 60 3e 9c 80 12 be
       0.157724 -0.1972037 0.2189319 -0.14306873
0002e0 a4 64 c7 3d 98 1a af be 3b f5 f1 3d 89 39 50 be
       0.097359926 -0.34199977 0.11814352 -0.20334448
0002f0 94 0f 9a 3e 61 6e 45 3e 7e 50 1a be 74 7a e0 bb
       0.3009001 0.19280387 -0.15069768 -0.006850535
000300 01 c5 02 be 8c 4f 6a bd 25 8a 49 3e d5 b8 8f 3e
       -0.12770464 -0.057204768 0.19681604 0.28070703
000310 52 e3 5e 3d 62 85 22 bc e7 54 04 be 74 cd 70 bd
       0.05441601 -0.009919496 -0.12923013 -0.058789685
000320 2e 8d 80 3e 79 55 8e bd cb eb 47 3e 59 9a a6 3c
       0.25107712 -0.06949896 0.19523542 0.02033727
000330 46 ac 7c be 1e 76 7a 3e ee 32 96 bd ff a5 87 be
       -0.24675092 0.2445912 -0.07333933 -0.26493832
000340 b7 e6 94 be 9b 8a 8a 3d 12 b9 85 3e 21 2b 99 3e
       -0.2908227 0.06764718 0.2611776 0.29915717
000350 c2 6a 83 be b9 e6 25 be be 4e 70 be 35 6a 45 be
       -0.25667387 -0.16201295 -0.23467538 -0.19278796
000360 33 94 ab 3d 88 7c 11 be 0c 07 28 be ac 99 1f bc
       0.08377876 -0.14207661 -0.16408938 -0.009741228
000370 98 a7 1e 3e 5e 68 81 3e 13 10 87 be 40 35 a8 3c
       0.1549362 0.25274938 -0.2637945 0.020533204
000380 af 7c 16 be 3f cb 74 be b5 01 a2 3e ea e7 17 be
       -0.14696 -0.23905657 0.31641927 -0.14834562
000390 27 25 07 3e 4a 2a 86 3e db 94 35 be 9d 19 d2 3c
       0.13197766 0.2620414 -0.17732565 0.025646979
0003a0 ab 22 54 be 98 2b 83 bc ce d7 62 be 1b 35 7c 3e
       -0.2071635 -0.016011998 -0.22152635 0.24629633
0003b0 81 6c 02 3e 48 3c 54 3e 3c 75 af bd 40 e9 b4 3d
       0.12736703 0.2072612 -0.085672826 0.088335514
0003c0 0b 5a 83 3e 87 b8 27 be df 9c b4 bd ad 3a 1e be
       0.25654635 -0.16378985 -0.08818983 -0.1545207
0003d0 95 ed 55 be 86 ae b4 be 94 a0 92 be 18 04 11 3e
       -0.20891412 -0.352894 -0.28638136 0.14161718
0003e0 4a 52 85 be 46 a6 fc bd ea 6c 67 be 5d 3d 5c bd
       -0.26039344 -0.12336402 -0.22600141 -0.053769458
0003f0 6a 16 3d 3d 65 87 57 be 28 cd de 3d 02 b3 07 3e
       0.046163954 -0.21047743 0.10878974 0.1325188

layers.0.bias f4 [64]
000000 8c 05 b1 bc 85 bb b5 b9 5b 21 bb 3d 77 3c c3 3b
       -0.02160909 -0.00034662723 0.091372214 0.0059581357
000010 d2 ed 05 3d c6 04 27 3b 1e 65 45 bc 02 44 92 bc
       0.032697506 0.0025485023 -0.012048034 -0.017854694
000020 44 eb 70 bb 91 48 1f 3d eb 5b fe 3c fd 15 65 3d
       -0.0036761323 0.038887564 0.03104969 0.055929173
000030 ea 31 2d bd b6 f3 17 bd 66 fd 91 3c 98 fc de 3b
       -0.04228393 -0.037097655 0.017821025 0.006805014
000040 b8 fc a1 bb 31 73 60 3c af e3 87 ba c5 fc ac bb
       -0.0049434565 0.013699339 -0.0010367538 -0.005279156
000050 7e 7b a6 3d 5c 38 a4 bd 09 f0 7a 3c 80 f4 96 bb
       0.08129023 -0.08018562 0.015316018 -0.0046067834
000060 65 7d eb 3b 1a a0 94 3c 55 e0 be 3c cb db 34 bc
       0.007186579 0.018142749 0.02330033 -0.011038731
000070 e7 56 65 3c c2 7b be 3b cc 7c 5a bb 72 f3 b4 bc
       0.01399777 0.005813093 -0.0033338545 -0.02208874
000080 70 d4 3f 3c 37 dc c8 3b 76 a3 11 3c 4d ac 61 bd
       0.011708364 0.0061297673 0.00888907 -0.05509596
000090 01 4c 29 bc db 9c 17 3d 54 68 0f 3d 4b 40 3f 3d
       -0.010333062 0.037014823 0.035011604 0.046692174
0000a0 8f 9a 71 3c ee a5 92 bc 68 d6 f0 3c f6 38 c3 3a
       0.014746322 -0.017901387 0.029399112 0.0014894295
0000b0 a0 7a ee b9 52 23 53 3d c6 07 60 bc 75 58 6c bb
       -0.0004548626 0.051547356 -0.013673728 -0.0036063467
0000c0 63 b7 3e bb 84 6d 0d bd 94 8f 30 bc e7 1e df bc
       -0.0029101006 -0.03452827 -0.010776419 -0.027236415
0000d0 77 3e 0f bc 71 1b ee b9 64 77 f3 bc d9 3e 71 bc
       -0.00874292 -0.00045415343 -0.029720016 -0.014724457
0000e0 4d 38 25 bc ea 9b a5 bb aa db e5 bb 58 e4 43 b9
       -0.010084224 -0.005053987 -0.0070147114 -0.00018681714
0000f0 ff 66 88 bc 54 d8 4c 3c 8a 45 d4 3c 79 57 5b 3d
       -0.016650675 0.0125027485 0.025912065 0.053550217

layers.2.weight f4 [64, 64]
000000 46 58 11 bd 9c ab 4e be fb cc e0 3c f1 aa ec 3d
       -0.035484575 -0.20182651 0.027441492 0.11556042
000010 ed 0b 1f 3e ab 58 08 3e 14 f8 3a 3d 9e cb dc 3d
       0.15531893 0.13315074 0.045646742 0.107810244
000020 6d 75 1b 3d 3c b1 1d be fc ae 77 3c 67 49 00 bd
       0.037953783 -0.15399641 0.015117403 -0.031320002
000030 8a e0 49 bd 61 2a 19 be 83 1e 24 be 0c af 2c 3e
       -0.049286403 -0.14957573 -0.16027264 0.1686365
000040 95 40 2a 3e 02 7f 3d 3d f2 8e 6c be b9 16 1e ba
       0.16626199 0.046263702 -0.23101404 -0.00060306076
000050 1e 42 27 be 05 2f 92 3d f8 51 0a 3e 38 7a 1a 3d
       -0.16333815 0.071378745 0.13507831 0.037714213
000060 0d 4f 1f bd 95 7e 01 3e a0 4e 09 be 7e 80 af bd
       -0.038893748 0.12645943 -0.134089 -0.0856943
000070 d4 26 43 be 4e 15 3a 3e 94 6b ff bd 45 73 d3 3d
       -0.1905778 0.1817219 -0.12471691 0.1032472
000080 dd 90 ad bd 7f 43 88 bc 29 10 70 be 91 63 a4 3d
       -0.08474896 -0.016633747 -0.23443665 0.08026803
000090 53 30 d6 3d da 98 43 be a1 00 09 bd 17 5a ac 3d
       0.10458436 -0.19101277 -0.033447865 0.08415621
0000a0 9d c7 44 3e 81 84 45 3e 30 73 52 3d ba 88 49 3e
       0.19216771 0.19288827 0.051379383 0.19681063
0000b0 f8 85 2a be 66 9f 22 bd 6e 65 00 bd 70 6a 3d be
       -0.16652668 -0.039702795 -0.03134673 -0.18497634
0000c0 f5 16 32 3e d8 20 a4 3d 5d c3 d2 3d 79 ca 9d bd
       0.1739157 0.08014077 0.10291169 -0.07704634
0000d0 f6 22 c0 3d 86 e7 2d 3e 99 a9 89 bd a0 66 c4 bc
       0.09381668 0.1698285 -0.06721801 -0.023974717
0000e0 27 42 1e 3e 99 79 37 be 26 ed fd 3d 74 d3 4f bc
       0.15454923 -0.1791748 0.12398748 -0.012684692
0000f0 aa 3f 8e 3d 27 4c 49 be 52 68 1d 3c 77 89 21 3e
       0.06945737 -0.19657956 0.009607391 0.15775095
000100 34 99 e5 bd 41 60 c9 bd 9f e3 03 be f8 56 6c 3d
       -0.11210862 -0.09832812 -0.128798 0.057700127
000110 74 af 8f bd 46 8c 11 3e 73 7e f4 3c 4c b7 1e 3e
       -0.07015887 0.14213666 0.029845452 0.1549961
000120 76 53 c1 3b d8 00 09 3e 05 10 1c 3d 45 db 3d be
       0.005899842 0.13379228 0.038101215 -0.18540676
000130 7f 31 2a be db 01 18 3d e1 89 15 3e 5a c6 1a 3b
       -0.16620444 0.037111145 0.14603378 0.0023616762
000140 42 6b dd bd a0 44 42 bd d4 d3 b9 3c b0 c9 c3 bd
       -0.108114734 -0.047428727 0.022684015 -0.09559953
000150 b2 e4 4d 3e 44 49 0f 3e 4a 9b 09 3e 63 fb 10 be
       0.20106772 0.13992792 0.13438144 -0.14158396
000160 00 76 0b 3e 62 55 dd bd 98 14 e7 3c 82 52 8c 3c
       0.13619232 -0.10807301 0.028208062 0.017129187
000170 75 dd 48 3d f6 15 13 be b1 4a 26 3d 20 7a f8 bd
       0.049039323 -0.14363846 0.040598575 -0.121326685
000180 16 39 16 be 09 05 52 bb bd 06 b8 3c 99 16 5e be
       -0.14670214 -0.0032046458 0.02246415 -0.21688308
000190 a4 fb 44 bd 3b da 3b be 6f 3c 18 3e 6b 6f e7 bd
       -0.048091546 -0.18344967 0.14866804 -0.11300548
0001a0 6a b9 29 3e 7a 2b 16 be 8d 89 8c bd b4 fc b7 3c
       0.16574636 -0.14665022 -0.06862173 0.022459365
0001b0 44 f0 19 3e 14 4c 31 be e2 55 67 3e 31 f2 f2 bd
       0.1503306 -0.17314178 0.22591355 -0.118626006
0001c0 a5 d2 de bd 20 6d 54 bc 9e a1 1c 3d d5 10 4c be
       -0.10880021 -0.012965471 0.038240068 -0.19928296
0001d0 ea 12 41 be 1b dc 09 be 45 0c fe bd bc 8c 2b be
       -0.18854871 -0.1346287 -0.12404684 -0.16752905
0001e0 48 8f d4 3d 95 08 ce bd a8 53 38 be 80 28 89 bb
       0.10378891 -0.10060231 -0.18000662 -0.004185736
0001f0 e2 f0 53 3e 09 ca 2f 3e d4 98 47 be 18 50 9d 3c
       0.20697358 0.17166914 -0.19491893 0.01920323
000200 47 a4 05 be d1 4a 17 3e 9f 73 e1 3a 52 f3 67 3e
       -0.13050948 0.14774634 0.0017200595 0.22651413
000210 08 8e 15 be b9 af 1e be 9a 33 e5 3c 68 4a d3 3d
       -0.14604962 -0.1549672 0.027978707 0.10316926
000220 59 c0 83 be 13 0c 82 3d fe 67 26 be 7e 32 13 3e
       -0.25732687 0.06349959 -0.16250607 0.1437473
000230 bd b8 72 be ca 4d 54 3e ce ae af 3d c3 7e 2f be
       -0.23703285 0.20732799 0.08578263 -0.171382
000240 e2 71 29 bc 24 b8 08 be 47 18 56 be 6f 65 98 bd
       -0.010342093 -0.13351494 -0.20907699 -0.07441222
000250 fe 32 38 3e d2 4c 6d 3d 95 12 64 3d 47 4c 80 bc
       0.17988202 0.05793459 0.055681784 -0.015661372
000260 b1 3e a1 bd d3 bb 34 bd 4b 9e 09 be 3a 28 5b be
       -0.078732856 -0.044124436 -0.1343929 -0.21402064
000270 95 98 0a be f2 de 29 3e 54 ad df bd d6 e7 69 be
       -0.13534768 0.16588953 -0.109217316 -0.22842345
000280 24 63 cc bc 69 36 17 be 9b 38 70 3e 35 64 62 3d
       -0.024949618 -0.1476685 0.23459093 0.055271346
000290 db d9 12 be e1 0a 13 be 12 05 51 3e 6e 18 50 be
       -0.14340918 -0.14359619 0.2041209 -0.20321819
0002a0 9c a2 00 bc f8 56 7f bd 91 d4 52 be ec e1 dd bd
       -0.007851269 -0.0623388 -0.205889 -0.10834107
0002b0 06 79 25 bd ea 66 19 3e 0b 17 9e bd f7 3c d6 bd
       -0.04039862 0.14980665 -0.07719239 -0.10460847
0002c0 ff 50 36 3e 71 28 df 3c 34 d6 a2 3c d7 48 07 bc
       0.17804335 0.027240964 0.01987753 -0.0082571125
0002d0 da 67 1f be 08 17 ad bc af 0e 9d bd 94 88 6c be
       -0.1556696 -0.021129146 -0.07668816 -0.23098975
0002e0 1e 12 e9 bd 00 9a c6 3d e3 92 44 3c 15 e2 03 be
       -0.11380409 0.09697342 0.011997911 -0.12879212
0002f0 6a 56 bd bd eb a3 39 3d 71 2f 95 3c 82 82 4c bd
       -0.09244998 0.04532234 0.018211098 -0.04992915
000300 7b 53 32 be 3e e4 b4 3c 35 a6 0d 3e 8e f6 5f be
       -0.17414658 0.02208149 0.13832934 -0.21871397
000310 b3 87 12 be ef 33 f8 bd af e3 13 3e c3 82 40 3e
       -0.14309578 -0.121192805 0.14442323 0.18799882
000320 30 69 50 3e 78 fd f0 bc 25 fc c6 bd 91 54 ae 3d
       0.20352626 -0.029417738 -0.097160615 0.085122235
000330 b8 3e 5e 3c e7 2b 4c 3d 3d bb b5 bd 77 a9 9d 3d
       0.013564758 0.049846556 -0.088736035 0.076983385
000340 85 81 2d be a9 9f 21 3e d1 5b 2d 3e 67 c5 53 be
       -0.16943939 0.15783562 0.16929556 -0.20680772
000350 93 ef 3c be 62 9c 3b bb 2c bf c5 3c f7 e6 b8 bd
       -0.18450765 -0.0028627147 0.02413901 -0.09028428
000360 b4 e6 20 be 24 c5 59 bd 4d b9 46 3e 7a 2b 06 be
       -0.15713006 -0.053166524 0.19406624 -0.13102522
000370 c4 25 ba bd f2 4f 40 3e 67 50 0a 3e bf 3c 32 3e
       -0.090892345 0.18780497 0.13507234 0.17405985
000380 dd 97 04 bd 49 54 e6 3d b7 2d c0 bc 7c 98 24 3e
       -0.03237139 0.11246545 -0.023459299 0.16073793
000390 7f 1b 5b bd 78 4a 16 3e e2 1c 18 3e 3e 3c 78 bd
       -0.05349302 0.14676845 0.14854768 -0.060604326
0003a0 13 60 1e 3e 57 8c 1d be 61 b9 17 3e d6 81 00 3c
       0.15466337 -0.15385567 0.1481681 0.007843455
0003b0 7e 7d 51 3d 5c d5 22 3e a7 13 59 be fb 7a a7 3d
       0.05114507 0.15901703 -0.21198903 0.081777535
0003c0 52 a8 5e bd c1 44 e5 bd bb cb 29 3d e3 dd f8 3c
       -0.05435974 -0.111947544 0.04145406 0.030379241
0003d0 ac 4a 2e be fb 02 08 be 57 15 fd bc 30 2c 57 3e
       -0.17020673 -0.13282387 -0.030893965 0.2101295
0003e0 6c a8 b7 bc 8f 75 44 3e f4 05 66 be 48 bb 57 be
       -0.022419177 0.1918547 -0.22463208 -0.21067536
0003f0 31 a5 0e bd d9 98 9e 3d a0 7f 58 3e b4 52 41 3c
       -0.034825508 0.07743997 0.21142435 0.011799503

layers.2.bias f4 [64]
000000 52 28 7a bc c7 1f 15 bc ef 25 be 3c aa cc 0b 3b
       -0.015268402 -0.009101815 0.023211448 0.0021331706
000010 e3 be 0b 3d ec cf 25 3d 58 1c 75 3c ca 09 a6 3c
       0.03411759 0.040481493 0.014960371 0.02026834
000020 09 03 7e 3c 82 2b a2 3b d6 2a 9c 3b 98 a5 7c ba
       0.015503653 0.004949034 0.0047658486 -0.00096377125
000030 57 b2 26 bb 02 34 c5 bc f0 89 30 3b fa b2 e5 3a
       -0.0025435889 -0.02407265 0.0026937686 0.0017524653
000040 e2 14 aa bb fa cd df bc 9e fa 09 39 68 88 aa 3b
       -0.0051904777 -0.027319897 0.000131587 0.005204249
000050 c9 c3 ee 3b 4d 81 ce 38 b8 e3 5a bc 8b 71 a3 bc
       0.007286523 9.8469296e-05 -0.013359956 -0.019951602
000060 54 12 82 bd 9b ff 43 3d 4f 21 2f bc bd 3e af bb
       -0.06351152 0.047851186 -0.010689094 -0.005348055
000070 51 6a 9f bc bb 3e d8 3b c2 bb 44 bd 4c eb a8 3b
       -0.019459875 0.006599275 -0.048030622 0.0051550027
000080 53 bc 06 bc 26 98 d6 3a 7f f9 1d bc b4 ef 24 bc
       -0.008223611 0.0016372248 -0.009642004 -0.010066915
000090 ff 29 79 3c f8 86 2b 3c 3d 83 91 bb d5 8d ae bb
       0.015207767 0.010469191 -0.0044406937 -0.0053269663
0000a0 1b f4 fd bd ee dc b3 3b 98 c3 8b bb a2 9f bc 3a
       -0.12400075 0.0054889834 -0.00426526 0.0014390836
0000b0 2a c7 a8 bb 61 bb a8 bc 3d 7d 47 3c d0 3a bb bb
       -0.0051506953 -0.020597162 0.012175855 -0.005713798
0000c0 8e f4 5d 3d c5 be 98 bc b6 4b f5 ba bb eb e7 bb
       0.054188304 -0.018645654 -0.001871458 -0.007077662
0000d0 47 04 9d bc 56 c8 6c 3d de 0f 00 3d ee 57 1c ba
       -0.019167079 0.057808243 0.031265132 -0.000596403
0000e0 a8 ff 70 3d 9e c3 4b bc a2 f5 f9 bb 59 9c aa 3a
       0.058837563 -0.0124367755 -0.0076281587 0.0013016566
0000f0 ad c8 a2 3a ce e3 b3 bb 01 ed b2 3c b1 16 80 3a
       0.0012419425 -0.005489803 0.021841528 0.0009772388

layers.4.weight f4 [64, 64]
000000 6c c2 42 be 92 b4 3a 3d df 33 3d 3e e5 12 06 3c
       -0.19019479 0.04558236 0.18476819 0.008183216
000010 ec ca 36 3d 5e 1c 55 bd d8 5d e9 3c 75 2d 2b 3e
       0.044627115 -0.052029006 0.028487131 0.16716559
000020 4a 0f 78 bc 69 a4 43 bd 49 a3 95 bd 7b bf 5e be
       -0.015140364 -0.047764216 -0.07306535 -0.21752732
000030 07 99 18 be 84 28 18 be 9d 84 14 bd 25 25 47 be
       -0.14902125 -0.14859205 -0.036259282 -0.19447763
000040 5b 35 4a 3e 52 bb ae bd 79 20 97 3c e9 69 5a bd
       0.19746916 -0.08531822 0.018448101 -0.05332366
000050 4a 2f b9 3c 07 9b 57 bc 0f 81 8b bd 4e 06 28 3e
       0.022605557 -0.01315952 -0.06811725 0.16408655
000060 6e bb db 3c 78 d7 40 be e8 45 ca 3c 35 ae d0 bd
       0.026822772 -0.18832195 0.024691537 -0.10189477
000070 10 ee 2b bd 83 3c fa 3d 59 ed 16 be 87 1f 47 be
       -0.04197508 0.12218573 -0.14738978 -0.1944562
000080 8c 7a 91 bd 58 d3 f4 3d f3 31 2f 3e c5 df 4c bc
       -0.07103452 0.11954373 0.17108898 -0.012504523
000090 0a 8a 55 be ad fa 84 3d 53 78 80 be 73 fe 23 be
       -0.20853439 0.06493125 -0.250918 -0.16015033
0000a0 8c fe 65 3e f8 5f 30 be 44 d7 58 3e 90 56 8c 3d
       0.22460383 -0.17224109 0.21175867 0.06852448
0000b0 7d e9 7d 3e 3d 8c 1e 3c c2 c8 44 3e 57 c6 c1 bd
       0.247961 0.00967699 0.19217208 -0.094616584
0000c0 0e 7e 16 be 88 84 1b be e3 dd bb 3d d6 eb 1f be
       -0.14696524 -0.15187275 0.09173181 -0.15617308
0000d0 1f cd 65 3e 42 2a de bc 16 15 70 3e cc b1 0f 3d
       0.22441529 -0.02711976 0.23445544 0.03508167
0000e0 7b b5 20 3e 3e 08 86 bd f8 4f bd bd b1 22 3c be
       0.1569423 -0.06544541 -0.092437685 -0.18372609
0000f0 c7 1f 14 3e 9e 12 d6 3d 9d fc 0b 3e 66 46 2a be
       0.14465247 0.1045277 0.13670583 -0.16628417
000100 55 34 83 3d 26 6a 38 3d 69 ef c5 3d 39 f2 11 3e
       0.06406466 0.045023106 0.096648045 0.14252557
000110 62 d9 63 bd 39 02 58 be 7c 4c 5a be b5 99 1e 3d
       -0.055627234 -0.21094598 -0.21318239 0.038720805
000120 ba e9 99 bd 55 ca 62 3e 74 85 1b bd 46 50 cd bc
       -0.07515283 0.22147496 -0.037969068 -0.025062691
000130 b8 6c 48 be 0f 4c ce 3c 4e d0 62 3d 3b c6 31 be
       -0.19572723 0.025182752 0.055374436 -0.17360775
000140 fc 78 96 3d 4f 59 c6 3d fa 44 ee bb cb 35 0f be
       0.07347295 0.09685003 -0.0072714062 -0.13985364
000150 09 6f 34 3e f5 01 8e 3c 87 45 7d 3d 55 07 07 be
       0.17620482 0.017334918 0.061833885 -0.1318639
000160 92 95 cc bd 8d e6 1e 3d 75 b7 e7 3c cf cb 0e 3c
       -0.09989466 0.03879409 0.028285721 0.008715584
000170 cc 41 77 bc 6e e7 89 bd ea 6a 05 bd d1 73 7a bd
       -0.015091371 -0.06733595 -0.032572664 -0.061145607
000180 5c 5f f7 3d 00 70 42 3d 3b 0c 49 be a6 39 5a 3e
       0.12078735 0.047470093 -0.19633572 0.21311054
000190 35 ca 57 bd 66 0a 35 be c4 06 76 3e d0 ce 25 bd
       -0.052683074 -0.17679748 0.24026018 -0.040480435
0001a0 66 71 1d 3e ad c9 6a 3e 36 6f fa 3d b1 0b 36 be
       0.1537529 0.22928496 0.12228243 -0.17777897
0001b0 2b 47 4c bd e8 46 75 3b 9b 92 5f 3e ef 54 ea 3d
       -0.04987256 0.0037426297 0.2183327 0.11441981
0001c0 cf 21 9e 3d 06 8b 33 3d 35 33 ff 3d 76 2c cd bd
       0.07721292 0.043833755 0.12460939 -0.10018246
0001d0 c0 67 01 3e 85 2b 01 3e ce 09 07 3e 50 2e 4a bd
       0.12637234 0.12614258 0.13187334 -0.049360573
0001e0 fb a9 1e be fb 8c db 3d b4 45 8f 3c 35 00 10 be
       -0.1549453 0.10720249 0.017489292 -0.14062579
0001f0 21 be d8 b9 fd b5 33 be 12 9f 1b be 4d c1 44 3d
       -0.00041340388 -0.17549892 -0.151974 0.04803591
000200 cf 61 05 3d a8 13 11 3e 48 83 fa bd 95 0c 16 bd
       0.03256398 0.14167655 -0.12232071 -0.036633093
000210 7b ca 0c 3d 21 4f 6f bd 32 06 d1 3d c4 5c 17 3e
       0.034372788 -0.058425073 0.1020626 0.14781481
000220 0c c3 84 3d 03 2f 9a 3c 87 da 91 bd 54 56 fc bc
       0.06482515 0.018821245 -0.07121759 -0.030802883
000230 b3 0b cf 3d f7 93 c4 3c 4b ce af bd 10 21 8a 3d
       0.10109653 0.023996336 -0.08584269 0.067445874
000240 8d 0b d8 3c 97 d8 5e be 42 2c b5 3d 35 5f 52 bd
       0.026372695 -0.2176231 0.08846332 -0.051360328
000250 d2 87 de bc b3 c7 22 be ee 9a 89 3d 27 f0 0f 3e
       -0.027164374 -0.15896492 0.067190036 0.14056455
000260 5c b6 2f be 4e 06 ac 3d f7 53 8d bd b1 8b b9 bd
       -0.17159408 0.0839964 -0.06900781 -0.09059847
000270 2b 77 97 3d 48 54 18 be 08 ea 8e 3c 96 59 12 bc
       0.07395776 -0.14875901 0.01744558 -0.008932492
000280 a6 e4 1a 3e ef ed e0 3b 4d 33 59 3e df b1 08 bd
       0.15126285 0.0068643014 0.21210976 -0.033372756
000290 6c 3c 37 be 3e e0 12 bd dd be 29 3b 4c 47 42 3d
       -0.17894143 -0.035858385 0.0025901117 0.047431275
0002a0 f9 94 a4 3d fe ce 9a 3d c5 f9 0d 3e b6 51 87 3c
       0.08036227 0.07559012 0.13864811 0.016518455
0002b0 7c 5d 5c 3d 3e f3 1c 3d 21 bb ff bb 53 b2 f6 bd
       0.05380009 0.03831791 -0.00780429 -0.120457314
0002c0 5b bb 15 be d4 0c fc 3d c2 38 29 3d 19 62 be 3d
       -0.14622252 0.12307134 0.041313894 0.092960544
0002d0 f3 88 53 bd 09 53 c4 bd 4f 46 17 be 68 b7 9f 3d
       -0.051644277 -0.0958615 -0.14772914 0.07798654
0002e0 4c a0 7f bd dd 55 3d bd 9e ef e9 3d 2c 33 a9 3d
       -0.06240873 -0.046224464 0.114226565 0.082617134
0002f0 8c ba 0a bd be 3f 5f 3e ea 47 77 bd 52 09 6d bd
       -0.03386931 0.2180166 -0.060371317 -0.057870217
000300 d5 d3 55 3c e7 ca 73 bd 2d 64 cb bd f4 4e 21 3e
       0.013050993 -0.059519675 -0.099312164 0.15752774
000310 ab 2f fb bd 7d 28 0d be cb 45 e8 3d 40 89 be 3d
       -0.12264951 -0.13784976 0.11341437 0.09303522
000320 4b 10 a6 3d ad 4f d3 3d 38 62 e6 3b 6f 51 3f 3e
       0.081085764 0.10317931 0.0070307516 0.18683408
000330 f2 6f db bd 03 d8 95 3d 70 fc 89 bd 39 a7 b4 3d
       -0.10714711 0.073165916 -0.06737602 0.08820958
000340 21 41 08 be b6 c3 2f bd cf 51 85 bd 21 55 55 3e
       -0.13306095 -0.042911254 -0.065097444 0.20833255
000350 ec 54 23 3e f2 0c 24 3e a7 c5 fd 3d 45 0c c1 bd
       0.15950364 0.16020563 0.12391215 -0.09426168
000360 9e 42 f9 3b 6a 1c 1b 3d 2b 18 f1 bd aa 15 1e be
       0.0076068183 0.037868895 -0.11772188 -0.15437952
000370 b8 87 80 3c 74 f3 7e bc 83 fa 5e 3e 76 11 0f 3d
       0.015689716 -0.015560973 0.2177525 0.03492876
000380 d0 5c d5 3d 47 54 de bd a2 8c 3b be 96 30 26 3e
       0.10418093 -0.108559184 -0.18315366 0.16229472
000390 fb bc 6d bd 20 9e 0d be 0f bb 6e bd b5 e5 0c be
       -0.058041554 -0.13829851 -0.05828386 -0.13759501
0003a0 c9 2e 2f 3e 56 96 93 bd 4d 14 51 be cd e4 e4 bd
       0.17107691 -0.07206409 -0.204179 -0.11176453
0003b0 6a 5c 92 bd 11 56 e0 bd 2c 62 4e 3e d8 24 4c 3e
       -0.07146533 -0.10953916 0.20154637 0.1993593
0003c0 29 84 4a 3d d5 7e 1b 3e 04 4d 9f 3d a9 2b 06 3e
       0.049442444 0.15185101 0.077783614 0.13102593
0003d0 67 51 a3 bd ac f2 22 3e 9b 36 1f be ca 36 9d 3d
       -0.07974511 0.15912884 -0.15548174 0.07676466
0003e0 64 5f 6a 3e 34 d5 11 3d 57 13 e9 bc 42 2f 31 be
       0.22887951 0.035603717 -0.028451605 -0.17303184
0003f0 51 c8 42 bb 3a 29 16 be 6e d0 8e bd d5 65 c5 bd
       -0.0029721449 -0.14664164 -0.069733486 -0.096385635

layers.4.bias f4 [64]
000000 c6 3c c2 3c 61 b8 97 ba d0 f7 b9 bb 5b 6f 1f ba
       0.02371062 -0.0011575335 -0.0056752935 -0.0006081962
000010 b3 94 95 3c 5f ca f7 3c 76 86 da 3b 1b 3a 76 3c
       0.018259382 0.030247865 0.006668861 0.015028502
000020 9e f3 15 bc f5 43 d6 bb 21 65 66 bc fc 58 df bb
       -0.009152321 -0.006538863 -0.014062197 -0.0068160277
000030 ce 68 20 3c 6a 45 db 3a d7 fe 13 3b 27 99 00 bc
       0.009790612 0.0016729061 0.0022582316 -0.007849014
000040 7e da 2c 3c 99 4d 22 bc e1 dd 8d 3a b2 b9 ad bc
       0.0105501395 -0.009906196 0.0010823571 -0.02120671
000050 e7 ef 34 bc b1 de 0b bc a4 c7 28 3c 30 4a 05 bb
       -0.011043525 -0.0085369805 0.010301504 -0.0020338409
000060 2c a4 34 bc 35 b6 53 bb 1d 22 2d 3c 8c 4c 80 bb
       -0.01102547 -0.0032304649 0.010567215 -0.003915375
000070 4c 0e 12 bc 40 a1 f0 bb d1 96 8a 3c 4e 41 20 3c
       -0.008914541 -0.0073434412 0.016917618 0.009781195
000080 4f fd 45 3c 26 7a 0c bc 98 6f 4c 3b d0 88 26 3c
       0.012084319 -0.008574044 0.0031194445 0.010164455
000090 e9 ca 21 bc 1c 2a 24 bc bd 29 2a 3c ed 7e 11 3c
       -0.009875038 -0.010019805 0.010385928 0.008880359
0000a0 f2 47 1c bc e7 27 0b bb 86 e3 b8 bc af 3f c8 bb
       -0.0095386375 -0.00212335 -0.02256943 -0.0061111073
0000b0 90 a5 31 bc 9f a7 98 3c c1 d9 91 bb 7a 0e b2 ba
       -0.010842696 0.018634615 -0.004451007 -0.0013584637
0000c0 bb 6a 17 bc 80 93 11 3c 19 c0 8b 3b f7 a2 bd bb
       -0.009241755 0.008885264 0.004264843 -0.005787249
0000d0 9c 35 86 3b 67 ed 12 bc a0 66 24 3b 30 5e 09 3c
       0.004095746 -0.008967734 0.0025085583 0.008384272
0000e0 98 d2 7e bc ae 1f f5 bb 1d 6e d7 bb aa bf b9 3b
       -0.015553139 -0.007480583 -0.006574406 0.0056686
0000f0 6d a1 3b bc 0f 87 5c 3b 31 9f 3e 3c 4f bb 20 bc
       -0.011452061 0.0033649837 0.011634634 -0.009810283

layers.6.weight f4 [2, 64]
000000 7e fa b0 bb 5f c5 9a 3e a3 fe 50 be 6a 6f c1 bd
       -0.0054009547 0.30228707 -0.20409636 -0.09445079
000010 18 bb 59 3d f0 54 c3 3c c2 50 83 3e c4 af 9a 3d
       0.053156942 0.023844212 0.2564755 0.07553056
000020 de 00 8d be a4 4d e9 bd 81 76 37 bd 2c 48 d2 bd
       -0.27539724 -0.11391762 -0.04479075 -0.10267672
000030 c4 da 62 3d 9f 89 34 3e c4 a5 c1 3c 71 a0 33 be
       0.055384412 0.17630623 0.023638614 -0.17541672
000040 ab cb 76 3e da 9f 08 be fe 36 31 be 39 c9 ea bd
       0.2410113 -0.13342229 -0.17306134 -0.114641614
000050 0a 5a 9f be 4e 3e 84 bd 1b c6 0b be d2 37 0e be
       -0.31123382 -0.06457196 -0.1364979 -0.13888481
000060 6f 9d 38 be f9 9a 11 3e 18 10 c9 3d cd 4f 98 be
       -0.18028806 0.14219274 0.09817523 -0.29748383
000070 0b 48 10 be 21 3d 8e be 58 ed 59 3e 52 16 a2 3d
       -0.14089982 -0.27781013 0.21281946 0.079144135
000080 d0 f5 72 3d 26 a4 9c be 47 69 8b 3e a1 f6 4d 3e
       0.059316456 -0.30593985 0.27228758 0.20113613
000090 47 d7 4b be 68 1a 6f bd e2 f8 d9 3d ec ac 82 3d
       -0.1990634 -0.058374792 0.10643174 0.063806385
0000a0 1a 09 0e 3e 2b b1 47 be b3 bd a9 3e 44 12 89 3e
       0.1387066 -0.19501178 0.33152542 0.26771748
0000b0 2a f4 36 be 6c f7 d0 bd 46 65 95 be 9b b1 85 be
       -0.17866579 -0.10203442 -0.29178828 -0.26112065
0000c0 8b 87 2a be 27 1c a0 3e f3 30 18 3e 04 89 98 bd
       -0.16653268 0.3127148 0.14862423 -0.07448009
0000d0 44 61 f3 3d 97 27 2d be a5 5a 05 3e 03 08 6e 3e
       0.11883786 -0.16909634 0.1302286 0.23245244
0000e0 13 9c d5 3d a8 7d 48 be 7e 41 e1 bd 36 05 68 3e
       0.104301594 -0.19579184 -0.1099882 0.22658238
0000f0 28 ab 97 be 18 79 3b 3e 81 a0 d6 3d bd 44 10 be
       -0.2962277 0.18307912 0.104798324 -0.14088722
000100 6a 79 8a 3e 94 fa 10 3e 24 ce 71 be 0e 8b c2 3d
       0.27045757 0.14158088 -0.23613793 0.09499179
000110 d4 c1 51 be f3 fe 20 be 74 c1 cb bd 91 be ff 3d
       -0.20484096 -0.15722255 -0.09949008 0.124875195
000120 c7 ec 96 3e 2b 43 a7 3e 06 49 7b 3e 73 99 81 be
       0.29477522 0.32668433 0.24539575 -0.25312385
000130 07 f5 1b 3e 90 51 7c be cd d8 1b bd 75 07 84 bc
       0.1523019 -0.24640489 -0.038048554 -0.016116837
000140 75 f5 29 be da 00 8b 3e 83 9f 92 be 96 0a d6 bd
       -0.1659754 0.27149087 -0.28637323 -0.10451238
000150 9a ef e4 3d 65 8f 69 bc ea 08 7e be 51 f0 c6 bd
       0.11178513 -0.014255379 -0.24808088 -0.097138055
000160 9a 46 66 be 32 42 17 3e 40 76 59 be f7 68 e4 3d
       -0.2248787 0.14771345 -0.21236515 0.11152833
000170 44 e7 af bd 18 13 53 be f4 4d af be a1 00 a9 bc
       -0.08589032 -0.20612752 -0.3423916 -0.020630183
000180 80 f5 ae be 34 92 50 3d b0 92 3d be 0d 1e 98 be
       -0.34171677 0.05092068 -0.18512988 -0.29710427
000190 ea 6e 0c be 9b c2 02 3e 0e 0a eb bd 39 54 ba bd
       -0.13714185 0.12769549 -0.11476527 -0.090980954
0001a0 55 32 1b 3e b7 12 a0 be 01 d8 c5 ba bf 0d 1c be
       0.15155919 -0.31264278 -0.0015094281 -0.15239619
0001b0 83 e0 09 3e 87 bf a5 3e 8d 96 ae be 68 c8 9f be
       0.1346455 0.32372686 -0.34099236 -0.31207585
0001c0 58 22 7e 3d 1b fa 52 be d9 b6 39 bd 8a 40 95 3e
       0.06204447 -0.2060322 -0.045340393 0.29150802
0001d0 61 87 b1 3e f1 38 2c be db d4 a8 be 9e f7 9e 3e
       0.34673598 -0.16818596 -0.32974896 0.31048292
0001e0 84 f0 f1 3d ee 1c 83 3d 44 f8 27 be 6e 56 48 be
       0.11813453 0.06402002 -0.164033 -0.1956422
0001f0 8c 5c 5a 3e 6a 46 9e 3e 85 41 cb bd 80 a9 0b 3e
       0.21324366 0.30913097 -0.09924606 0.13638878

layers.6.bias f4 [2]
000000 d8 f2 28 3c 12 ee 39 bb
       0.010311805 -0.002837066
