data/20240122/output_net_12000.pth (torch, 38764 bytes, 8 tensors)

layers.0.weight f4 [64, 5]
000000 56 38 22 3d d4 29 15 3e 4f 72 41 3e 52 17 27 3e
       0.039604507 0.14566737 0.18891262 0.1631749
000010 cf 32 36 3e ed e4 39 3e 87 d9 2b 3e df 80 8a bd
       0.1779282 0.18153735 0.16782199 -0.067628615
000020 a0 75 b7 3d 1d 70 d9 bd 2d b9 fc bd 2e 79 7e be
       0.08957982 -0.10617087 -0.12340007 -0.24850914
000030 a0 e0 fe 3c 5e c3 dd 3d 22 8a 4b be f0 38 92 3e
       0.031112969 0.10828279 -0.19876912 0.28559065
000040 e6 e4 48 3d 6e 45 90 3e 71 c0 98 be 95 c4 4b 3e
       0.04904642 0.2817797 -0.2983432 0.19899209
000050 bd a5 7f 3d aa a7 8a be 87 8c ee 3d 4b b4 9d be
       0.06241392 -0.27081043 0.11647897 -0.30801615
000060 e2 4e 86 3e 15 d8 40 be 28 d8 45 be 3b 7f 3f 3e
       0.26232058 -0.18832429 -0.19320738 0.18700878
000070 a5 79 6d bd 16 f7 f4 bc 1a dc 91 3e be 5f 18 be
       -0.057977337 -0.029902976 0.28488237 -0.14880273
000080 4b c1 21 bd f8 80 fe 3d 1d c3 8a be 84 57 10 be
       -0.03949098 0.124269426 -0.27101985 -0.14095885
000090 1d 0d 46 3e af 03 a5 3d 05 7c 50 be b5 6a c9 3d
       0.1934094 0.08057343 -0.2035981 0.09834806
0000a0 86 a1 d4 3e 30 e5 3a 3e f6 e4 25 be e9 3c 3d 3d
       0.41529483 0.1825149 -0.16200623 0.046200667
0000b0 97 17 94 3e 22 1d 59 3e b6 e9 2c be 67 df b0 be
       0.28924248 0.2120252 -0.16886029 -0.34545442
0000c0 95 33 a1 3d 7b 56 97 3d 45 33 84 bd 80 c4 cf bc
       0.078711666 0.07389542 -0.064550914 -0.025362253
0000d0 56 e7 6a be b4 d9 1a bd f8 01 80 be a6 8d 8c be
       -0.2293981 -0.037805274 -0.25001502 -0.2745182
0000e0 a1 b6 e9 bd fe 83 ae 3d b7 fe 8f 3d cf 7d 78 3e
       -0.11411787 0.08521269 0.07031005 0.24266742
0000f0 7e bb 40 be 56 57 5a bd 87 c4 4d 3e 86 3a 0a 3e
       -0.18821523 -0.053305946 0.200945 0.13498887
000100 f7 ef 4a 3d c1 74 2f 3e 18 57 95 3e da 2f be 3b
       0.049545255 0.17134382 0.2916801 0.005804044
000110 f0 a4 1f be d7 dd 36 3e 0a c7 46 3d e1 ab 39 3d
       -0.15590262 0.17858063 0.048529662 0.045329932
000120 3a 12 70 be 17 46 ee 3d 38 5b 20 bd 0f c4 a4 3d
       -0.23444453 0.11634462 -0.039149493 0.08045208
000130 c5 7d 95 3d 3c 19 6d bd 30 33 02 3e 93 69 a7 be
       0.07299379 -0.057885394 0.12714839 -0.32697734
000140 bf ba 8d be 77 38 ac bd 9e 19 80 3e e1 a9 c7 3d
       -0.27681538 -0.08409207 0.25019544 0.09749199
000150 10 5f bf bd 21 1e 8c be ea d5 83 be f8 05 b3 3e
       -0.093443036 -0.27366737 -0.2574914 0.3496549
000160 45 80 a6 3d 04 d9 b6 3d ab a0 d7 3d 82 42 4f 3e
       0.08129934 0.08928111 0.10528692 0.20240214
000170 bb eb 49 be 80 92 ab 3d 08 4f 79 3e 40 87 2e be
       -0.1971883 0.08377552 0.24346554 -0.17043781
000180 97 66 26 be 6c 7f 8d be 54 1a 95 3e 70 35 48 bc
       -0.16250072 -0.27636278 0.2912165 -0.012219772
000190 79 f9 38 3d 70 fc 3f be 94 b2 82 be 8e 43 8c be
       0.04515979 -0.18748641 -0.2552687 -0.2739529
0001a0 c7 92 84 3e 50 59 43 be 3f 27 27 be 91 f1 57 3e
       0.25893232 -0.19077039 -0.16323565 0.21088244
0001b0 22 1f 87 be a7 a2 d2 bd fc bf c2 be ba 57 d3 3c
       -0.2639094 -0.1028493 -0.38037097 0.025798667
0001c0 4c 6c a6 bd 71 63 2b bd b9 80 a7 3b bf c0 4f 3c
       -0.08126125 -0.04184288 0.0051117805 0.012680232
0001d0 13 64 6a be 93 4e 61 3e 3a a1 29 bb 55 ba 55 be
       -0.22889738 0.2200263 -0.0025883452 -0.20871861
0001e0 61 76 82 be ae 2f 20 be bb a9 16 be 06 ad c3 3d
       -0.2548094 -0.15643188 -0.14713185 0.09554486
0001f0 73 b0 e4 3d 4f d6 d2 3d 71 41 8e 3e 4f bd b3 bd
       0.111664675 0.10294782 0.27784303 -0.08776342
000200 03 ab 21 3e 90 75 17 3e ab 70 49 3e d8 6b c0 3d
       0.15787892 0.1479094 0.19671886 0.093955696
000210 f7 06 b2 3d 2f 18 55 3d 14 6c b6 bd 50 90 75 3e
       0.08692735 0.052025016 -0.08907333 0.23980832
000220 03 4b 87 be c0 13 34 3e 57 f0 53 3e 4b 0b 1a 3d
       -0.26424417 0.17585659 0.20697151 0.037608426
000230 92 7d a3 3d bd 7f 29 3d e9 6d c2 3e 6a ed 71 be
       0.07982935 0.041381586 0.3797448 -0.23625723
000240 ce 2e 66 3e 8a 79 ab bd 81 29 3a be e5 a2 a9 3d
       0.22478792 -0.08372791 -0.18179895 0.08283023
000250 b1 92 91 be 62 d0 a4 3e 38 1e e1 bd d4 45 e2 bc
       -0.2843223 0.32190233 -0.10992092 -0.027621187
000260 0e fc 94 3c 53 7d 9e be 80 ad e2 3c 65 34 2d be
       0.018186595 -0.3095499 0.027670622 -0.16914518
000270 34 91 3f be 68 a0 9b bc 19 3b 07 be 84 fa 56 be
       -0.18707734 -0.018997386 -0.13206138 -0.20994002
000280 27 9b 12 3e 90 33 0e be 8a 58 6d bd 9d 6a a1 bd
       0.14316998 -0.13886857 -0.057945766 -0.07881663
000290 49 81 24 be 6b 0d 80 bd f9 1a de bd 98 f7 66 3e
       -0.16064943 -0.06252559 -0.108449884 0.22555387
0002a0 43 22 25 be 6c 19 5e bd f5 08 ab be 5e ea 3f 3e
       -0.16126351 -0.054223463 -0.3340527 0.18741748
0002b0 fa 27 3b 3d 62 53 33 be 23 2a a8 3e 6c ae ef 3c
       0.04569242 -0.17512277 0.32844648 0.029257976
0002c0 89 f4 93 3e 98 74 43 3e 37 97 9e 3e 29 76 80 be
       0.28897503 0.19087446 0.30974743 -0.2509015
0002d0 8f 15 5f 3e 9a 14 85 be 79 be 8c bb 71 02 d3 bd
       0.21785568 -0.2599228 -0.004295167 -0.103032
0002e0 35 57 27 be 3f e1 53 3e 83 8b 5a 3e 29 9a 52 3d
       -0.1634186 0.20691393 0.21342282 0.05141655
0002f0 e4 e0 c4 bd 38 3d d5 3d 69 67 9a 3e d3 35 bf bd
       -0.09613207 0.10412067 0.3015702 -0.09336438
000300 a3 af d5 bc f7 a2 0b be 1f a3 99 3d cc f1 a3 be
       -0.026084727 -0.13636385 0.07501816 -0.32020414
000310 1a ab 75 be 7e 05 60 be 78 17 11 be ea 60 5d be
       -0.23991051 -0.21877095 -0.14169109 -0.21619001
000320 49 32 82 3d cc 1a 96 bb 4e 16 80 3e 8d e3 47 be
       0.063572474 -0.004580831 0.25017017 -0.19520397
000330 b8 4e a0 3d bd 99 7d be 86 df 79 3e 3e 25 ad 3e
       0.078275144 -0.24765678 0.24401674 0.33817476
000340 a2 56 7f be 24 6c 85 be 47 b2 8a 3e ba a0 e3 3d
       -0.24935392 -0.26059067 0.2708914 0.111146405
000350 3d 68 a7 bd 7d 07 2b 3e e2 e8 81 bd c3 3a 8a 3e
       -0.08174179 0.16702075 -0.06343247 0.26997957
000360 e2 50 81 be 01 37 63 3e 87 5c 9c bc 85 33 3a be
       -0.2525702 0.22188951 -0.01908709 -0.18183716
000370 f4 a0 a5 3e f8 b4 04 3d 17 76 db bd e6 d8 dd 3d
       0.3234936 0.032399148 -0.10715883 0.10832386
000380 a7 5e 07 be 4e f3 d8 bd cc b9 84 be 69 fe 9b 3d
       -0.13219701 -0.10593282 -0.25923002 0.07616884
000390 9c c8 31 3c 75 22 46 bd e7 7d 9b 3c 50 0f 2b be
       0.010851052 -0.048372705 0.018980933 -0.1670506
0003a0 f0 1e 16 be 01 f5 6b be 8c b7 b2 bc 5d 56 8a be
       -0.14660239 -0.2304268 -0.021816038 -0.27019015
0003b0 57 f8 8e 3c d5 01 b1 3e 8c e7 46 3e 05 9f 76 3e
       0.017452402 0.3457171 0.19424266 0.24084099
0003c0 6b 4c 65 3c e0 cb 23 3e 87 f2 38 be 9c 9d 5c be
       0.01399527 0.15995741 -0.18061267 -0.21544498
0003d0 3b 43 1c bd 16 e8 15 3e 5b ea 44 3e 59 60 8f 3e
       -0.038150053 0.14639315 0.19230025 0.28003195
0003e0 dc c3 2c bd d1 b0 87 3e 6d 10 4b be d2 c8 65 be
       -0.042178974 0.26502088 -0.19830485 -0.22439888
0003f0 15 cf 09 be d2 96 73 bd 12 bc 17 3d fd 4d 86 be
       -0.13457902 -0.059470005 0.037044592 -0.26231375

layers.0.bias f4 [64]
000000 22 5b 8d bc d3 59 77 3c 22 fe 38 bd b3 7a 6b bd
       -0.01725537 0.015097099 -0.045164235 -0.057490062
000010 26 1f bf bc 35 b9 34 bc 3b 24 62 3b bb 3c da bc
       -0.023330282 -0.011030485 0.0034506458 -0.026640287
000020 c3 75 b3 3d 4d 26 72 3c f2 cb aa 3c d7 65 97 bb
       0.08762696 0.014779639 0.020849202 -0.0046202946
000030 8f a5 c1 3c 1c d2 d2 bc 80 e2 16 3d b9 23 6e 3d
       0.023638515 -0.025734954 0.0368371 0.058139537
000040 a1 e1 bb bc d5 a6 dc bc e1 8c 5e 3c b2 e4 bd 3b
       -0.022934737 -0.02693502 0.013583393 0.005795085
000050 f3 aa 3e bc b0 eb b2 bc 95 57 17 3d 1b ba ed bc
       -0.011637437 -0.0218409 0.03694876 -0.029019406
000060 9c 4d b6 3c 2a 79 d3 bb f0 cf 89 bc a3 ba f0 bc
       0.022253804 -0.006453653 -0.016822785 -0.02938587
000070 66 25 e1 bc 11 12 81 bd ee f8 b0 bc 57 e0 e6 bb
       -0.027483653 -0.06302274 -0.021603074 -0.0070457864
000080 77 02 b8 bb ad 94 94 bc ce 29 30 bd aa fa 51 ba
       -0.005615528 -0.0181373 -0.043008618 -0.0008010069
000090 98 73 8e bc f3 b5 b9 3b e2 6d 1a bb a2 b2 80 3c
       -0.017389104 0.005667442 -0.002356403 0.015710179
0000a0 72 b8 e4 bd 92 50 b8 bb c7 32 80 3c 33 e3 d0 ba
       -0.11167993 -0.005624839 0.015649213 -0.0015936851
0000b0 4e 39 af 3c bd de f6 bc 50 31 2f 3d 3e b4 0e bd
       0.02138963 -0.030135507 0.042771637 -0.03483986
0000c0 33 37 d8 bb 07 65 28 bd df 11 6c 3c a2 43 80 bc
       -0.006598377 -0.041111972 0.014408558 -0.01565725
0000d0 34 36 a3 b9 08 5f 23 3c ce ad ab bb 58 2b ad 3c
       -0.00031130167 0.009971388 -0.005239225 0.021138832
0000e0 6c 7f 71 bc c7 04 22 bd 23 44 b1 bc ac 63 56 3d
       -0.014739852 -0.039555337 -0.021638935 0.05234115
0000f0 f5 b2 a2 bd 10 eb 71 bd 98 09 ef 3d 5d 50 4a ba
       -0.079442896 -0.059062064 0.11671752 -0.00077176635

layers.2.weight f4 [64, 64]
000000 2b f4 2f 3d 8a 45 3f be 77 f7 1d 3e 04 14 62 3e
       0.042957466 -0.18678871 0.15426432 0.22077948
000010 3e 7a 71 3d 2d 58 34 be d5 8e 76 be ef 0f 06 3d
       0.05895447 -0.17611761 -0.24077924 0.03273004
000020 98 49 2d 3d 35 08 9e bc 7f c1 16 3e f3 5c 6a 3e
       0.042306513 -0.019291023 0.1472225 0.2288702
000030 c6 95 17 bd 78 19 77 3e d1 2c 2a be cf 69 14 3e
       -0.03700807 0.2413081 -0.16618659 0.14493488
000040 85 f1 43 3e 0a 22 81 3d 3c 44 82 bd 20 0a a7 3b
       0.19135101 0.063053206 -0.06360671 0.0050976425
000050 b9 2e e3 bd a5 2f 52 3e 68 17 3c be 33 54 76 be
       -0.11092896 0.20525987 -0.18368304 -0.24055557
000060 66 12 42 3e 5a ef fd 3d 22 3d da bc 27 da 05 3e
       0.18952331 0.12399168 -0.026640479 0.130715
000070 42 36 0d 3e 52 77 64 3e 8e c8 f4 bd 7e 0a f1 bd
       0.13790229 0.22311142 -0.11952315 -0.11769579
000080 cc cb 6b bd 91 22 71 bd 58 4f c3 bd ea 6e 22 bd
       -0.057567403 -0.058870856 -0.09536618 -0.039656557
000090 f2 6c 15 bc dc b4 ea bc 50 ff cd 3d 69 2f 41 be
       -0.009120213 -0.028650694 0.100584626 -0.18865742
0000a0 23 ec 15 3e a2 cc 2f 3e 33 60 37 3e 75 60 0c bd
       0.1464086 0.17167905 0.17907791 -0.034271676
0000b0 66 ae fc 3d 21 f9 24 3e 13 0d 1b be 38 da a9 3c
       0.12337951 0.1611066 -0.15141706 0.020733938
0000c0 ba b5 a2 bd e7 1e 4d bd f6 f3 12 be ed a1 50 bd
       -0.07944818 -0.0500783 -0.14350876 -0.050935674
0000d0 cb 99 0c be b9 a8 36 3e ee 0f da 3d 42 29 15 bd
       -0.13730542 0.178378 0.106475696 -0.0364163
0000e0 e5 72 f6 ba cc d3 6e be bd 0b 41 be a8 3d b2 3d
       -0.0018802552 -0.23322982 -0.18852134 0.08703166
0000f0 04 4e 6a bd c5 5e 9e 3d 53 b1 1f be 0b 33 78 3d
       -0.057203308 0.077329196 -0.15594988 0.060595553
000100 f0 cf 20 3e 43 a1 93 bd fa 0a bf 3d fb 73 8b bd
       0.15704322 -0.072084926 0.093282655 -0.06809231
000110 d2 70 ce bd d2 69 2a be 88 d5 08 bb 37 09 de bd
       -0.100801125 -0.1664193 -0.0020879228 -0.10841601
000120 89 7c 87 3d 93 6e 10 3e 69 61 bd bd 1e 86 cb bd
       0.0661555 0.1410468 -0.09247095 -0.0993769
000130 ab b1 bc bd 68 73 38 3e 97 f2 27 be 23 a7 9b bd
       -0.09213575 0.18012774 -0.16401134 -0.07600238
000140 c5 77 22 3d ed 50 7c 3e a6 6b 48 be ef 5b 5e bd
       0.039665002 0.24640246 -0.19572315 -0.054286893
000150 0b 37 59 be 73 49 0e be 5c 25 e6 3c 88 be 84 bd
       -0.21212403 -0.13895206 0.028093986 -0.064816535
000160 82 4e f2 39 31 06 3d 3e 5b 78 69 be 80 88 52 3d
       0.0004621633 0.18459393 -0.22799818 0.051399708
000170 a1 87 30 3e 34 24 d7 bd ff 65 68 bc 73 0e 33 be
       0.17239238 -0.10504952 -0.014184474 -0.1748598
000180 c5 43 92 bd 3e 48 1b 3e 2f f7 9f 3d ee b5 05 bd
       -0.07141832 0.15164277 0.078108184 -0.032644205
000190 67 9f 50 3c 6f e5 e7 3d 57 ff 9c 3d 6a 22 99 3d
       0.012733317 0.11323058 0.0766589 0.07477267
0001a0 02 10 10 3d 22 61 bc bd a7 94 0d 3e 07 8e 38 3d
       0.035171516 -0.09198214 0.13826238 0.045057323
0001b0 f1 a0 58 be 8b df f9 bc cf 8d e3 bd 9e b8 09 3e
       -0.21155144 -0.030502101 -0.11111032 0.13449332
0001c0 88 15 64 be d4 b8 29 3d 8b e8 a6 bc 37 ba 5d bd
       -0.22273839 0.04143603 -0.020374557 -0.054132666
0001d0 5b a5 df bd cd 0d b4 bb cb 3e c1 3d 48 fe 3e bd
       -0.10920211 -0.0054948092 0.09435805 -0.04662922
0001e0 1e f2 e0 bc 33 36 21 3e 63 14 34 be 2f 13 8f bd
       -0.0274592 0.15743332 -0.17585902 -0.06986081
0001f0 be da 58 3e 33 fe 24 3e 44 97 68 be 16 0e 40 3e
       0.21177194 0.16112594 -0.22713953 0.18755373
000200 d2 f5 89 bd 5f df 07 be c5 35 47 be ab ba 26 be
       -0.0673634 -0.13268803 -0.19454105 -0.16282146
000210 60 33 6c 3e c0 b0 0f 3b 80 b3 02 be 5e bb 12 3e
       0.23066473 0.002192542 -0.12763786 0.14329287
000220 7c af 96 3d 3c 3e 23 be 34 98 80 3d 99 41 06 3e
       0.0735769 -0.1594171 0.062790304 0.13110961
000230 46 5e 4c be 7b 41 0f be f4 b6 61 be 8f ba 6b b9
       -0.19957837 -0.13989823 -0.22042447 -0.00022480845
000240 a8 f5 14 be 2d 58 2d be d2 fd 05 bb 40 32 66 bd
       -0.14546835 -0.16928168 -0.0020445478 -0.056200266
000250 26 0e 65 bd f5 0b 2d 3d de 0b ab 3d 9e ec 67 3e
       -0.055921696 0.04224773 0.08351873 0.22648856
000260 7a 51 b4 3a 6c e7 02 3d 4d e6 46 3e bf 49 04 3e
       0.0013757192 0.031958982 0.1942379 0.12918757
000270 9d e1 24 be b5 08 c7 3d 3f dd f4 bd 94 65 03 bd
       -0.1610169 0.097184576 -0.11956262 -0.032079294
000280 d7 e2 8e 3d 4f 2a 67 3e 0d 1a 27 3e 1f dc 5b bd
       0.0697686 0.22574733 0.16318531 -0.05367672
000290 21 b9 01 bd 36 7d 1b be 92 7f a0 3d 70 ab d7 3d
       -0.031670693 -0.15184483 0.07836832 0.10530746
0002a0 f8 4e 19 3e 2a aa 8f 3d 15 a9 0e be 3f 0a 81 3e
       0.1497153 0.07014878 -0.13931687 0.2520313
0002b0 77 ad ec bd 4d c8 a5 3d c7 c6 fb 3d 10 d6 5f 3d
       -0.11556523 0.08094845 0.12293773 0.054647505
0002c0 24 a2 80 bd e4 25 9e 3d 7d 73 06 3e 0c fc 2b 3e
       -0.06280926 0.07722071 0.13129993 0.16795367
0002d0 02 6d 49 be fe e2 f0 bd cc 81 e0 bd 85 45 24 be
       -0.1967049 -0.11762045 -0.10962257 -0.16042145
0002e0 cd 2f f8 bd 3b 9c eb 3d 27 6b 2e 3e 17 87 1d 3d
       -0.12118492 0.11504408 0.17033063 0.03845891
0002f0 83 4b ce 3d c7 0a 2e be af 2a 15 3d 54 60 2c 3e
       0.100729965 -0.16996299 0.03641766 0.16833621
000300 97 7f f4 3d a7 80 58 be 2f a3 b3 bd 21 ce 35 be
       0.11938398 -0.21142827 -0.08771359 -0.17754413
000310 77 f4 3a 3e ed 44 18 bd 50 36 da 3d 49 6e 20 be
       0.18257318 -0.037175108 0.106548905 -0.1566707
000320 48 78 21 3e 47 df b4 3a 66 32 b7 bd c2 c3 0e be
       0.1576854 0.0013799452 -0.089451596 -0.13941863
000330 c2 f4 8a bc 2f c3 64 3e 56 9c 59 be 6a a4 63 be
       -0.016962413 0.22340082 -0.21251044 -0.22230688
000340 6a ba 3c bb 5e 10 07 3d 55 7b bd bd 1b c3 81 3d
       -0.0028797635 0.032974593 -0.09252039 0.063360415
000350 76 cf 1f be 94 d7 2b bd 1b 64 01 3d 00 58 1a bd
       -0.15606484 -0.04195364 0.03158961 -0.03768158
000360 6a 88 27 be 77 71 3a 3e 24 0c 17 be e3 2d 3b 3a
       -0.16360632 0.18207346 -0.14750725 0.00071403215
000370 86 3c 93 bb 6c 43 01 3d 1a a2 55 3e c0 ee 01 3e
       -0.004493299 0.03155844 0.20862618 0.12688732
000380 e9 bb 63 3d 82 8f e8 3d be 56 3f 3e a0 fa 4b bd
       0.055599127 0.11355497 0.18685433 -0.04979956
000390 21 d8 6c 3b 9b ec 72 3e f5 a9 7f bd f2 56 37 be
       0.0036139565 0.2372307 -0.062417943 -0.17904261
0003a0 27 25 08 3d 9d 67 26 3e 57 c4 57 be 24 ba 61 bd
       0.033238556 0.16250463 -0.21070991 -0.05510916
0003b0 75 3e e9 3c 6c 6d 36 3e 04 b9 2c be 16 03 94 3c
       0.028472165 0.17815179 -0.16867453 0.018067878
0003c0 8b 2c f7 bd 29 fb 1c be 87 a2 53 3e 97 99 2b 3d
       -0.12069043 -0.15330185 0.20667468 0.04189452
0003d0 88 d0 27 3e e2 b5 09 3e 76 f7 c1 bd 8c 08 75 3d
       0.16388142 0.13448289 -0.094710276 0.059822604
0003e0 8a 4b 14 be 5c 81 5f 3a 0b 2d c4 3d f9 a2 8c 39
       -0.14481941 0.0008526051 0.09578904 0.00026824305
0003f0 65 3c e3 bd 57 03 24 be 9c 7a 11 be db d8 58 bd
       -0.11095504 -0.16016899 -0.14206928 -0.052941184

layers.2.bias f4 [64]
000000 5d ac ef bb 95 4c cc bc 18 88 34 bc cc f7 49 bc
       -0.0073142485 -0.02493886 -0.011018775 -0.012327146
000010 3e 3f d2 3c b6 ce f9 bc 36 3f 34 3c 66 3f b2 bb
       0.025664922 -0.030494075 0.011001399 -0.0054396866
000020 74 96 17 bc cd 73 f4 3c 5d 15 7a bc b2 f5 2c 3d
       -0.009252179 0.029840374 -0.015263882 0.0422265
000030 6d ef 3b 3b d1 74 12 3c 6b 94 24 3c 28 cd 06 bd
       0.0028676644 0.008938984 0.010045151 -0.032910496
000040 b5 22 87 3c 07 f9 d1 bc 0b 8b f3 3a 64 19 8c 3c
       0.016496042 -0.02563144 0.0018580867 0.017101951
000050 21 d2 a7 3b 4c da d1 bc b5 76 f1 3a bd fe f8 3b
       0.005121485 -0.025616787 0.0018422218 0.0075987265
000060 f9 33 ab bb 4e e6 cd 3c b1 10 86 3c dc 67 db 3b
       -0.0052247015 0.025134232 0.016365381 0.0066957306
000070 d2 67 cb 3a 7c 74 70 3d 7d ca c4 3b 52 ea ab bc
       0.0015518612 0.05870484 0.006005584 -0.020985756
000080 df ce 9f 3d 3f d7 de bb ed 6c 0d bd e4 ba 2e 3d
       0.078031294 -0.0068005617 -0.034527708 0.0426587
000090 40 c3 f1 3a a8 b6 6b bc 1d 13 a9 39 37 6c 02 3c
       0.001844503 -0.01438681 0.00032248432 0.007960371
0000a0 f6 b5 33 3b 1e a5 02 bd d8 df ad bb be 23 72 bc
       0.002742169 -0.03189575 -0.0053062253 -0.014779029
0000b0 2c 77 9b 3b 44 c5 78 bb 91 1e 9f 3b 29 a7 1d bc
       0.004744431 -0.0037959376 0.0048559387 -0.009622374
0000c0 16 32 a8 bb 95 78 18 3c b5 5c 7d 3c 9e e7 18 3d
       -0.005132924 0.009306093 0.015463998 0.037330262
0000d0 ce b0 6b bb 0a 30 3b bc 4e 68 e2 3b ac 35 57 bb
       -0.0035963538 -0.011425028 0.0069094067 -0.0032838387
0000e0 7f 3e 47 3b 25 b8 32 ba a7 87 ef 3c 42 1e dc 3c
       0.003040224 -0.0006817601 0.029239489 0.026869897
0000f0 26 88 87 3a 99 0a 8d bc 8c 67 b4 bc b2 bb ba bc
       0.0010340258 -0.017216967 -0.022022031 -0.022794578

layers.4.weight f4 [64, 64]
000000 ad 23 71 3d 16 91 19 be 53 4a d9 bc de 9a 13 3e
       0.058871914 -0.14996752 -0.026524698 0.14414546
000010 70 49 e4 bd 5d 05 21 be 79 1e 61 3e 5f 5e 20 be
       -0.111468196 -0.15724702 0.2198428 -0.15661
000020 c9 0c 3a be c7 ca 90 bd e1 78 ab 3d 5a 74 9e bd
       -0.1816894 -0.07069927 0.08372665 -0.07737036
000030 cc dd 15 bd 7c a4 21 3e 81 d9 be 3d 68 6b 2e bc
       -0.036588475 0.15785402 0.09318829 -0.010645725
000040 b7 8c 67 bc c5 bf 53 3e 38 ed f8 bd 4a 73 ec 3b
       -0.01413267 0.20678623 -0.12154621 0.007215892
000050 8a fd 18 bd 74 8d 00 be 38 89 f6 bd cc 27 63 3d
       -0.03735117 -0.1255396 -0.12037891 0.055457875
000060 ce fc da bd cd 4c 7e 3d 3e 67 15 be 51 bb 27 3e
       -0.1069275 0.06208496 -0.14590165 0.1638005
000070 d8 d8 19 3e 68 b5 4e bd 81 3b 3f be 58 dc 07 be
       0.15024126 -0.05046597 -0.18675043 -0.13267648
000080 c1 26 f3 bd 57 4b 71 bd 2f 66 d2 3d 0e 50 18 3e
       -0.11872626 -0.05890974 0.10273396 0.14874288
000090 39 32 51 3e 2e 4f a2 3d 43 8e 1c be 82 85 21 bd
       0.20429315 0.079252586 -0.15288644 -0.039433964
0000a0 68 53 5c 3e 70 48 48 3d 60 3e 51 be 38 3c ca bd
       0.21516192 0.048897207 -0.2043395 -0.09874767
0000b0 b1 ac c8 bd a2 58 76 bd 6d 89 3b 3e e5 29 92 bc
       -0.09798563 -0.06014312 0.18314143 -0.017842242
0000c0 a7 97 06 3e 99 8f 55 be aa 13 3f 3e 5b 5c 51 be
       0.13143788 -0.2085556 0.18659845 -0.20445387
0000d0 84 93 28 3e 9b 82 65 be c8 aa 0f 3d c4 93 a0 bd
       0.16462523 -0.22413103 0.03507498 -0.07840684
0000e0 68 46 7f 3c 52 43 32 be 48 33 d2 3d 48 d2 23 be
       0.015580751 -0.17408493 0.10263687 -0.15998185
0000f0 ff 71 91 3d af d5 47 3e c7 51 ce bd a2 03 6c 3c
       0.07101821 0.19515108 -0.100741915 0.014405163
000100 f7 fb 88 3c a5 cc 0f be 59 10 02 3e 26 7a 26 be
       0.016721709 -0.1404291 0.12701549 -0.16257533
000110 05 df 5d 3d 82 ad b9 3c e3 8b 8c bd 61 5a ce 3d
       0.054167766 0.022665743 -0.06862619 0.10075832
000120 5b 17 ad bd eb 18 96 3d 6b a6 12 3d 33 8f 43 be
       -0.0845172 0.073289715 0.03580324 -0.19097595
000130 b8 01 64 be 3d b8 43 be ec 49 1d be 5f 9c 61 be
       -0.2226628 -0.1911325 -0.1536023 -0.22032307
000140 b8 c8 96 bd 0c db 55 3e 40 55 05 3e 18 3d 5f 3e
       -0.07362503 0.20884341 0.13020802 0.21800649
000150 fd a8 3b be 61 de e3 3c c6 7d c5 bc 8c c1 18 bd
       -0.18326183 0.027816 -0.024107825 -0.037293956
000160 e9 00 dc bd d9 9a 9c 3d 16 2b 2f be bf 97 93 3b
       -0.10742361 0.07646722 -0.1710628 0.0045041735
000170 52 f0 07 bd df 6b 40 be 2f ab 24 be 93 c8 cb bd
       -0.03318817 -0.1879115 -0.16080926 -0.09950366
000180 d2 30 91 3d 9e 3d 0f be 9c d3 ef 3d 42 a8 90 bc
       0.0708939 -0.13988349 0.11710283 -0.017658357
000190 e9 d7 8d bc d5 81 8d 3c 01 57 01 3e 35 97 4e be
       -0.017314868 0.017273823 0.12630846 -0.20174868
0001a0 e3 f5 34 bc 97 32 b5 bb c2 28 a5 bd 7f a4 ea 3c
       -0.011044952 -0.0055297124 -0.080644146 0.028642891
0001b0 4f f2 45 be 55 2a b5 3d ed 96 87 bd e6 45 4a 3c
       -0.19330715 0.08845965 -0.06620584 0.012345767
0001c0 8b 2d 7a 3c 19 f0 05 be c7 05 ba bd 26 c6 a0 bd
       0.015269647 -0.13079871 -0.09083133 -0.07850294
0001d0 11 88 d9 bd 57 b3 8c bd a7 1d 36 be 25 30 23 be
       -0.10621656 -0.06870144 -0.17784749 -0.15936334
0001e0 bb 9e df 3d 60 b3 69 3d 8b 2a a2 3d a4 ad 07 3d
       0.10918947 0.05705583 0.07918271 0.03312458
0001f0 18 c6 1c 3e 32 ae b0 3d ea 6c 39 be a3 48 7c bd
       0.15309942 0.08626975 -0.18107954 -0.06159271
000200 d6 57 06 3e 5c b9 66 bd e8 9d ba bd d7 22 2b 3e
       0.13119444 -0.056329116 -0.091121495 0.16712509
000210 2d 7a 2c bd 85 49 42 be 58 2d 9e bd 14 9d 09 3e
       -0.042108703 -0.18973358 -0.077234924 0.13438827
000220 be e7 57 3e 56 5c fc bd e8 18 65 3d ef 46 7c bd
       0.21084496 -0.12322299 0.055931956 -0.061591085
000230 85 1f 43 be 83 cb d4 bd 24 c8 34 be d2 fb c2 3b
       -0.19054992 -0.10390379 -0.17654473 0.0059504295
000240 61 d7 12 bd cc 68 f3 bc 2c 74 38 3e 32 38 ee bd
       -0.035849933 -0.029713057 0.18013066 -0.11631812
000250 10 97 81 bd 83 d5 9a 3c b2 0f b0 3d 51 30 d9 bc
       -0.06327641 0.018900638 0.08596744 -0.026512297
000260 03 02 c3 3d fe f4 78 3d 42 7f f6 bd 09 49 1a 3e
       0.09521868 0.060780518 -0.12035991 0.15066923
000270 a0 cb 0c 3c 6a 21 25 be 76 70 91 bd 95 20 1d 3d
       0.00859347 -0.16126028 -0.07101528 0.03836115
000280 31 d0 3d 3e 6c 00 76 3d 9e 8e 59 be fd 0f 0a 3e
       0.1853645 0.060058996 -0.2124581 0.13482662
000290 5d 5a 48 3e 91 50 2f 3e ee d0 46 be db 65 46 be
       0.19565721 0.17120577 -0.19415638 -0.19374792
0002a0 9d 02 01 bd bc f4 56 3e 38 ea 37 3a 25 94 52 bd
       -0.031496633 0.20991796 0.00070157973 -0.051410813
0002b0 3a 8e 23 3e 53 47 24 be 9a f1 8b 3c a4 69 35 3e
       0.15972224 -0.16042833 0.017082978 0.1771608
0002c0 c7 7b ea bd a6 80 0d 3e 3a 9a 01 3d ca 44 27 3e
       -0.1144939 0.13818607 0.031641223 0.16334835
0002d0 ac c2 6a bd 0f 94 d3 bd d9 3d 15 be c2 40 a2 3c
       -0.05731456 -0.10330974 -0.14574374 0.01980627
0002e0 b6 5a 22 3e 99 10 3e 3e 12 82 ff bd 4d 90 09 be
       0.15854916 0.18561019 -0.12475981 -0.13433953
0002f0 bd d8 08 3e d2 15 18 3d 83 21 17 bd b4 3c 20 be
       0.13363929 0.037130184 -0.036897194 -0.15648156
000300 28 9d 29 bd 77 14 8a be f3 c4 0b 3e d0 0e e8 ba
       -0.04140964 -0.26968738 0.13649349 -0.001770461
000310 25 19 4d be f5 96 18 be 61 ab 11 be 2a 76 a7 be
       -0.20029123 -0.14901336 -0.14225532 -0.3270734
000320 8b 62 38 3e 26 ba 2e be 53 8e 48 be c9 3b 1b 3e
       0.18006341 -0.17063197 -0.19585542 0.15159525
000330 59 1f 73 3c 68 66 7a be 40 b1 0a 3e 59 4c c3 bd
       0.014839017 -0.24453127 0.13544178 -0.095360465
000340 80 c0 88 3e 6c 4a 17 be 92 be cd 3d 14 46 4f bc
       0.26709366 -0.14774483 0.10046114 -0.012650985
000350 32 7f 80 bd 00 07 70 3e 7b f8 85 bd 68 f1 25 3e
       -0.062742606 0.2344017 -0.065415345 0.1620537
000360 0e 22 04 be 7c 9c db bd d4 ad 1f 3d c2 5c 48 be
       -0.12903616 -0.107232064 0.038984135 -0.19566634
000370 d3 ae f3 bd fa d1 60 3e d9 4d 86 be 8d 39 80 3e
       -0.118985794 0.219551 -0.26231268 0.25043908
000380 1e 10 49 bc b2 d2 88 3e 35 cf 95 3e 23 7e 6a be
       -0.012271909 0.26723248 0.2925965 -0.2289968
000390 f7 6d 6f be 26 37 83 3e 15 20 3b be ea f0 fc 3d
       -0.23381792 0.25628012 -0.18273957 0.12350638
0003a0 29 4c 87 be 1d 06 5d 3e 30 b5 f6 3d 43 85 de be
       -0.26425293 0.21584363 0.120462775 -0.43461046
0003b0 31 9e 0a be e1 79 b5 3e 36 aa b6 be 73 75 42 3e
       -0.13536908 0.3544455 -0.35676736 0.18990116
0003c0 b1 ae 78 3e 79 84 25 3e 8f d0 0c 3e 87 2f 84 be
       0.2428539 0.16163816 0.13751434 -0.2581751
0003d0 fa 33 04 3e ad 20 c6 3e d5 78 02 be 3e 53 b8 be
       0.12910452 0.38696805 -0.12741406 -0.3600101
0003e0 38 4a 32 3e 16 91 6f bd 56 3a 06 be ce 4e 67 be
       0.17411125 -0.058487974 -0.13108191 -0.22588655
0003f0 06 f0 0b be e1 b8 e7 bd c7 13 33 3e 8c 09 e6 3d
       -0.1366578 -0.1131456 0.17488013 0.1123229

layers.4.bias f4 [64]
000000 d6 05 b5 3b d8 43 02 3b a2 12 42 bb 60 75 66 bd
       0.0055243773 0.0019876864 -0.0029613157 -0.05626428
000010 8e d5 cc 3b 93 3c 0c 3d 8c ee fa 3b b0 d3 70 bb
       0.0062510436 0.034237456 0.0076578315 -0.003674727
000020 c1 0b ab bb 25 08 ac bb ad e7 3f 3c c0 a9 2e 3c
       -0.005219907 -0.0052499943 0.011712951 0.010660589
000030 4f f2 b1 3b 7d 20 13 3c 27 99 ee 3b 6c fc d6 3b
       0.0054304968 0.008979914 0.007281441 0.0065608528
000040 08 93 30 bc b5 f5 a7 3b 38 ba 51 3c 36 8f 8c 3b
       -0.0107772425 0.005125726 0.012800746 0.004289533
000050 7d 19 4f 3c cd ca dd ba 3f 12 b4 3b ef c2 00 3c
       0.012640354 -0.0016921401 0.005495339 0.007858976
000060 7d 68 ec bb 77 0f b7 3a ba 06 54 3c 0c d5 f8 bc
       -0.0072146044 0.0013966401 0.012941057 -0.030375026
000070 b3 39 2f 3b 79 c1 36 bc 58 2e 80 bc 82 f5 5e 3c
       0.0026737272 -0.011154526 -0.015647098 0.013608338
000080 d5 b0 78 3c a4 f4 1e 3c a1 40 8b 3c fc e7 26 bc
       0.015178879 0.009701882 0.01699859 -0.010187145
000090 04 3e 6a 3b b9 9a 88 bb f6 24 26 bb 5a 21 16 bc
       0.003574253 -0.004168835 -0.002535162 -0.009163225
0000a0 31 9d cb 3b 8c 29 01 bc 8b 01 36 3c a1 dc a7 3b
       0.006213807 -0.007883441 0.011108766 0.0051227366
0000b0 6a 1c 13 3d d6 50 32 3b 9b 62 0c bc a2 1e bd 3b
       0.03591577 0.0027208827 -0.008568431 0.005771474
0000c0 b8 be 04 bc 73 b1 28 bb e2 15 4e 3d af ad fd 3a
       -0.0081021115 -0.0025740534 0.050313838 0.001935413
0000d0 45 a8 af bb ce 86 70 ba 8d 91 c1 3b 43 a5 3a bc
       -0.0053606355 -0.0009175361 0.0059072436 -0.0113919405
0000e0 c2 e3 30 bc 78 4b 5e 3c 7a ce a8 bb b5 e7 96 bc
       -0.010796489 0.013567798 -0.005151567 -0.018421033
0000f0 ff 4e f7 bb 96 15 b5 bb 53 28 e9 3b 83 77 d9 3b
       -0.007547259 -0.005526255 0.0071154027 0.0066365614

layers.6.weight f4 [2, 64]
000000 02 a8 8f 3d 34 e0 6a 3e 9b d8 e0 bd d5 b9 09 3e
       0.07014467 0.22937089 -0.10978814 0.13449796
000010 d7 9f 93 3e 64 a1 36 bd 89 37 93 3d 1a 02 90 be
       0.28832886 -0.044587508 0.07188327 -0.28126603
000020 1d 79 7f 3e ce b4 f9 bd a4 33 83 3e 76 bd fa bd
       0.24948545 -0.12192689 0.25625336 -0.12243168
000030 61 c9 62 3e 7e 9c 10 3e ed b6 32 3e 93 bc 3f 3e
       0.22147132 0.14122197 0.17452593 0.18724279
000040 fb f2 0c bd 68 c4 77 3e f6 00 1f 3e f2 bf 1b 3e
       -0.03441141 0.24196017 0.1552771 0.1520994
000050 5b 0a 1b 3e d1 8b 82 3e 63 d6 75 3d 6e 55 82 be
       0.15140669 0.25497296 0.06001891 -0.25455803
000060 6f b2 a2 be c2 48 d3 3d 1d 51 82 be 50 4e 94 3e
       -0.3177676 0.10316612 -0.2545251 0.28965998
000070 5a 65 47 3e c8 e3 82 bd 49 bf 02 be 0e 46 51 3c
       0.19472256 -0.06391102 -0.12768282 0.01277305
000080 70 29 3d 3e c3 fb 22 3e 9b 7f f0 3c 2c f7 65 be
       0.18472838 0.15916352 0.029357722 -0.2245757
000090 29 6f ac bd 79 a0 83 bd 35 a5 f2 bd bd 30 16 be
       -0.084196396 -0.06427092 -0.11847917 -0.1466703
0000a0 4a 4b 94 3e ca fa 83 be 69 46 bc 3d 5d 92 97 bd
       0.2896369 -0.25777274 0.09193117 -0.074009635
0000b0 bf 05 cf bc 07 d5 74 3e 5f fc 9f be c6 70 d7 3d
       -0.025271295 0.23909388 -0.3124723 0.10519557
0000c0 a5 6c 11 3e 34 62 07 bd 24 84 9c bc a2 dd 38 3e
       0.14201601 -0.03305264 -0.019105978 0.18053296
0000d0 1b 58 ff 3c ec 63 48 be f8 38 85 3e 90 82 3b be
       0.031169942 -0.19569367 0.26020026 -0.18311524
0000e0 0c 83 65 3e dd 79 6f 3e 18 08 98 be e2 e4 a9 be
       0.22413272 0.23386331 -0.29693675 -0.33182436
0000f0 4f 8d 36 be de 2a 74 be 9a 77 84 3e e9 07 9e 3e
       -0.17827342 -0.23844478 0.258725 0.3086541
000100 ee 0a 8c 3e 95 fd fb 3d fb ac 68 be ed a4 a1 be
       0.2735209 0.12304226 -0.22722237 -0.3157114
000110 ed db 85 3e c3 60 c0 3d c7 b9 93 3b 8a 30 bd bd
       0.26144353 0.09393456 0.0045082304 -0.09237774
000120 b1 c5 a0 be 1b a3 a8 be 11 c4 88 be 2b 37 76 3e
       -0.31400827 -0.3293694 -0.26712087 0.24044482
000130 11 66 fb 3d ad 71 39 3e 73 d9 8c 3e a6 02 82 3d
       0.12275327 0.1810977 0.2750965 0.063481614
000140 67 0e 61 3d bd 9d fe 3d a1 8a 84 bd c7 f9 42 be
       0.054945376 0.1243243 -0.06471754 -0.19040595
000150 7a fb 9a be 8e e9 5a be 7f 6b 9f 3e 9e fc 99 be
       -0.30269986 -0.21378157 0.311367 -0.30075544
000160 64 6e ef bc 9a c5 49 3e d3 79 66 be 76 32 b2 bc
       -0.029227443 0.19704285 -0.2250741 -0.021752577
000170 ba 33 50 3e 24 52 ae bd e5 13 82 3e 89 ac 90 be
       0.20332232 -0.08511761 0.25405803 -0.28256634
000180 07 54 3d be 27 49 5b 3e 05 f5 37 be 45 b5 25 3e
       -0.18489085 0.21414624 -0.17964561 0.1618243
000190 02 87 88 be e2 09 a0 be bc 5a 0b be 2c 1e c2 3d
       -0.26665503 -0.3125754 -0.13608831 0.09478411
0001a0 70 ab 66 3e 93 2e 96 bd d0 18 d9 be 6b d2 18 be
       0.22526336 -0.07333102 -0.42401743 -0.14924018
0001b0 a9 01 34 3e 04 bb 51 3e d3 57 be 3d 3b d9 c9 3d
       0.17578758 0.20481497 0.09294095 0.098558865
0001c0 40 8c 5f 3e 40 c5 0a be 80 16 97 be 37 dc 41 3e
       0.21830845 -0.13551807 -0.29509354 0.18931662
0001d0 64 97 90 3e 03 4b 83 bd 1d ea 9e 3e 86 2c a8 3e
       0.28240502 -0.06410792 0.3103799 0.3284647
0001e0 1b 7c 8a 3e 48 67 74 be 9e cd d2 bd 09 e0 a5 3e
       0.2704781 -0.23867524 -0.102931246 0.32397488
0001f0 9b 33 a3 3c 4e 8b 0c be cb 5c 39 be d7 1c 09 be
       0.019922068 -0.13725016 -0.18101804 -0.13389908

layers.6.bias f4 [2]
000000 e1 ad fb 3b ca 7d 10 bc
       0.00768064 -0.008819053
