data/20240122/output_net_20000.pth (torch, 38764 bytes, 8 tensors)

layers.0.weight f4 [64, 5]
0	0xbe8dde37	-0.277086
1	0xbea6df3c	-0.3259219
2	0xbd1d2976	-0.03836962
3	0xbe6dd0f9	-0.23224248
4	0x3eab9f23	0.3351985
5	0x3d71007f	0.058838364
6	0xbe0f3fb7	-0.13989149
7	0xbe31b098	-0.17352521
8	0x3e8a267e	0.26982492
9	0xbe1f2f2d	-0.1554534
10	0xbe46d3f2	-0.19416788
11	0x3e7c1038	0.24615562
12	0xbeae0eb9	-0.33995607
13	0x3e98d21a	0.29847795
14	0x3f3bcba5	0.7335761
15	0xbca80a43	-0.020512706
16	0xbe8e1f49	-0.27758244
17	0xbdcc612a	-0.0997947
18	0x3e455189	0.19269384
19	0xbdc92327	-0.09821158
20	0x3dcfc47e	0.101449
21	0x3e3a5706	0.1819726
22	0xbea3eea8	-0.32018018
23	0xbe1d8e18	-0.15386236
24	0xbc5e78d4	-0.013578612
25	0x3c823684	0.015895136
26	0xbe6d7198	-0.23187864
27	0x3e04c1fa	0.12964621
28	0xbe7177dd	-0.2358088
29	0xbe4cfd23	-0.20018439
30	0x3e2919f7	0.16513811
31	0x3d9077fe	0.07054137
32	0x3d8f1fa0	0.06988454
33	0xbe0cbfff	-0.13745116
34	0x3dbb261f	0.091381304
35	0xbe08bb69	-0.13352741
36	0x3b451b86	0.003007622
37	0x3e04aecc	0.12957305
38	0x3e0d3ae9	0.13792004
39	0xbe111c08	-0.1417085
40	0x3e94e2fc	0.29079425
41	0x3e90edf0	0.28306532
42	0x3d03a26c	0.03213732
43	0x3c3fd9e7	0.011709667
44	0x3d8a7798	0.06761092
45	0xbe7972a6	-0.24360141
46	0xbe54befd	-0.20775981
47	0xbe0758e6	-0.13217506
48	0xbd20c5ec	-0.039251253
49	0x3df5f4cf	0.12009584
50	0xbe7a2903	-0.24429707
51	0x3e9ffcfd	0.31247702
52	0x3e870aee	0.26375526
53	0x3e92563f	0.28581426
54	0xbdf214ea	-0.11820395
55	0xbe63eb38	-0.22257698
56	0xbea81313	-0.32827052
57	0xbe9c1877	-0.30487415
58	0x3e2ee9d7	0.1708139
59	0xbe219a63	-0.1578155
60	0x3e13f116	0.14447436
61	0x3dad453f	0.08460473
62	0x3dcae758	0.099074066
63	0xbd07d8d7	-0.03316578
64	0x3ebeb897	0.37250206
65	0xbea3d477	-0.31998035
66	0xbe8bb724	-0.27288163
67	0x3e212853	0.15738039
68	0x3c9c0d6d	0.01904937
69	0xbdf34f2c	-0.11880335
70	0x3da0aadf	0.07845091
71	0xbe35fe52	-0.17772797
72	0xbe98f76c	-0.29876268
73	0x3e80cb7c	0.25155246
74	0xbd74d9da	-0.059778072
75	0x3e2189a0	0.15775156
76	0xbde9c5ac	-0.11414656
77	0xbe7e7e15	-0.24852784
78	0xbe74fb76	-0.2392405
79	0x3e298b98	0.16557157
80	0xbc1e944d	-0.009678912
81	0xbe3adf92	-0.18249348
82	0xbe90ed77	-0.2830617
83	0xbd5cb63a	-0.053884722
84	0xbe511d4f	-0.20421337
85	0xbe10be7a	-0.14135161
86	0xbd84d2dc	-0.06485531
87	0x3e18fa96	0.14939341
88	0x3e4e43e2	0.20143083
89	0xbe882244	-0.26588643
90	0x3e1d5709	0.15365233
91	0x3de1f091	0.110322125
92	0xbe6cd7a7	-0.2312914
93	0xbcb8a528	-0.02253969
94	0x3e10ebff	0.14152525
95	0x3e346b7e	0.1761913
96	0x3d045eee	0.032317095
97	0x3e3d883d	0.18509002
98	0xbd3537f7	-0.044242825
99	0xbe6043cb	-0.21900861
100	0x3e6096b7	0.21932493
101	0xbe389612	-0.18025997
102	0xbea03ec7	-0.31297895
103	0xbe7258d4	-0.23666698
104	0x3e225c78	0.15855587
105	0xbe83d1cf	-0.2574601
106	0xbcd5d8d8	-0.026104376
107	0xbc676a51	-0.014124469
108	0xbea571b3	-0.32313308
109	0x3d629869	0.05532113
110	0xbe119604	-0.14217383
111	0xbbe12907	-0.006871346
112	0xbe8e4e88	-0.2779429
113	0x3e9842e1	0.29738525
114	0x3dd964aa	0.10614903
115	0x3ec35267	0.38148805
116	0xbe7bcb61	-0.24589302
117	0xbe3f0ced	-0.18657275
118	0x3d5d2bb7	0.053996768
119	0x3e5b8d43	0.21440606
120	0x3e4af62a	0.19820467
121	0xbea153de	-0.31509298
122	0xbe50be31	-0.20385052
123	0xbe971e09	-0.29515103
124	0xbddb68c1	-0.107133396
125	0xbe886470	-0.26639128
126	0x3e99af3d	0.3001651
127	0xbdb8d85d	-0.09025643
128	0x3e5c6289	0.21521963
129	0x3caff03e	0.021476861
130	0x3e9259a6	0.2858402
131	0x3e84308a	0.25818282
132	0xbe3fdf99	-0.1873764
133	0x3cbf3fe3	0.023345893
134	0xbd21fb24	-0.039546147
135	0x3e67f316	0.22651324
136	0x3e973ee1	0.2954016
137	0xbe02c455	-0.12770207
138	0x3bbf5a83	0.0058396473
139	0x3e8f249a	0.27957612
140	0xbd0627c4	-0.032752767
141	0xbd22a99c	-0.039712533
142	0xbe97b6f9	-0.29631785
143	0xbe281517	-0.16414295
144	0xbdce9516	-0.1008703
145	0x3e482423	0.19545035
146	0x3c0231cb	0.007946442
147	0xbe86800d	-0.2626957
148	0x3e276d47	0.1635028
149	0xbe2019d2	-0.1563485
150	0x3cf8e908	0.030384555
151	0xbd7fb001	-0.06242371
152	0x3e9d0ca1	0.30673698
153	0x3c45416d	0.0120395245
154	0x3c77c68f	0.015123024
155	0xbea596aa	-0.3234151
156	0xbe81f5c4	-0.25382817
157	0x3e93a31f	0.2883539
158	0xbe035bf4	-0.12828046
159	0xbe8dfeef	-0.2773356
160	0xbddc7116	-0.10763757
161	0x3e6ba2ab	0.23011272
162	0xbe55cbf9	-0.2087859
163	0x3d13fcf7	0.036129918
164	0x3db93619	0.090435214
165	0xbe86e6b1	-0.2634788
166	0xbd66f537	-0.0563862
167	0xbdab2b1e	-0.08357833
168	0xbe46e0fc	-0.19421762
169	0xbe2e08f8	-0.16995609
170	0x3e68ad15	0.22722276
171	0x3e898dca	0.2686599
172	0xbe7b5d6e	-0.2454736
173	0x3e8f3968	0.27973485
174	0x3d622ee3	0.055220496
175	0xbe8be6c0	-0.27324486
176	0x3dedd5d1	0.11613048
177	0x3d16df13	0.036833834
178	0xbe96b96f	-0.2943835
179	0x3e77bc7b	0.24192993
180	0x3e018417	0.12648045
181	0xbe27e13f	-0.16394518
182	0x3e7eb143	0.24872307
183	0xbe08b8cd	-0.13351746
184	0x3d277987	0.040887382
185	0xbeb67b2f	-0.35640857
186	0x3ddeeae4	0.108846456
187	0xbe5ffe7c	-0.21874422
188	0x3e9f9dd6	0.31175107
189	0x3e78aa00	0.242836
190	0xbe23543c	-0.15950102
191	0xbb82b66c	-0.0039890315
192	0xbdffd863	-0.12492444
193	0xbd5def0d	-0.054183055
194	0x3e3af432	0.18257216
195	0x3e9949b6	0.2993905
196	0x3d9314c9	0.07181699
197	0xbcb3e3ee	-0.021959271
198	0xbe0887c5	-0.13333042
199	0xbd75c90d	-0.06000619
200	0x3e7daacc	0.24772185
201	0xbcc961e7	-0.024582816
202	0x3e73fde4	0.2382732
203	0x3c8aaf8f	0.016929416
204	0xbe6b5b58	-0.22984064
205	0x3e8567f8	0.26055884
206	0xbd91309d	-0.070893504
207	0xbe8bc67d	-0.27299872
208	0xbe96063f	-0.2930164
209	0x3d46f37d	0.048572052
210	0x3e8fcecc	0.2808746
211	0x3eab7305	0.3348619
212	0xbe918f16	-0.28429478
213	0xbe225b47	-0.15855132
214	0xbe776ac0	-0.24161816
215	0xbe5096e4	-0.2037006
216	0x3dae97c2	0.08525039
217	0xbe15ab4b	-0.14616124
218	0xbe293132	-0.16522673
219	0x3c725f72	0.014793264
220	0x3e2423de	0.16029307
221	0x3e8a770c	0.2704395
222	0xbe8d7cf9	-0.2763441
223	0x3ca2931b	0.019845536
224	0xbe21bc81	-0.15794565
225	0xbe72dd92	-0.23717335
226	0x3ea5a4dc	0.3235234
227	0xbe02f549	-0.12788881
228	0x3e09a5b3	0.13442115
229	0x3e5a2cf9	0.21306218
230	0xbe4cf1eb	-0.2001416
231	0xbd0fd87f	-0.035118576
232	0xbe48fb6b	-0.19627158
233	0xbcd12280	-0.025529146
234	0xbe54f6dd	-0.20797296
235	0x3e759a97	0.23984753
236	0x3e0aa90e	0.13541052
237	0x3e58fea8	0.21190894
238	0xbdaba44a	-0.08380945
239	0x3db45278	0.08804792
240	0x3e80ed17	0.25180885
241	0xbe3cc476	-0.18434319
242	0xbde9bdfd	-0.114131905
243	0xbe16dad3	-0.14731912
244	0xbe18536b	-0.14875571
245	0xbebb9532	-0.36637264
246	0xbeb0b0de	-0.3450994
247	0x3e018f70	0.12652373
248	0xbe84fba9	-0.2597325
249	0xbe270c16	-0.16313204
250	0xbe7dc007	-0.24780284
251	0xbd266b24	-0.04062952
252	0x3d8c81c8	0.06860691
253	0xbe5fde37	-0.21862112
254	0x3dfa29b7	0.12214988
255	0x3e306475	0.17225821

layers.0.bias f4 [64]
0	0xbcf2fb04	-0.02966071
1	0x3987c5dd	0.00025896626
2	0x3e03c8f9	0.12869634
3	0x3b94e4dc	0.0045438837
4	0x3d0f3142	0.034959085
5	0x3be58659	0.007004541
6	0xbc8c0a7c	-0.017094843
7	0xbcad4b95	-0.021154204
8	0xb957ca18	-0.00020579284
9	0x3d342f3b	0.043990355
10	0x3d06fb4a	0.03295449
11	0x3d82bc19	0.06383533
12	0xbd3536c5	-0.044241685
13	0xbd645b73	-0.055751275
14	0x3ca19ca6	0.019728016
15	0x3c0dc8e8	0.008653857
16	0xbc6364d7	-0.013879023
17	0x3c6c8fde	0.0144385975
18	0xbb567ad2	-0.0032727015
19	0xbb58c463	-0.003307604
20	0x3dd08465	0.10181502
21	0xbda21528	-0.079141915
22	0x3c304243	0.0107579855
23	0xbb82ea73	-0.0039952337
24	0x3a9e2287	0.0012064733
25	0x3c519989	0.012792953
26	0x3cdc9eea	0.026931245
27	0xbc222817	-0.0098972535
28	0x3c734b20	0.014849454
29	0x3b587bc6	0.003303276
30	0x3b517b5f	0.0031964404
31	0xbcbfd209	-0.023415582
32	0x3c5ed9ab	0.013601701
33	0x3b566b2d	0.003271769
34	0x3c483f96	0.012222191
35	0xbd8d72fb	-0.069066964
36	0xbc3f9dfa	-0.011695379
37	0x3d287e7f	0.04113626
38	0x3d2112af	0.03932446
39	0x3d4f201a	0.050567724
40	0x3c37cfe1	0.011218996
41	0xbca91451	-0.02063957
42	0x3d3f3597	0.046681967
43	0x3a2f2045	0.0006680529
44	0x3b0558b4	0.002034706
45	0x3d6846bb	0.05670808
46	0xbc7e67ff	-0.015527724
47	0xbbb21041	-0.0054340665
48	0xbb816f38	-0.003950026
49	0xbd3f05dd	-0.04663645
50	0xbca2ef5b	-0.019889524
51	0xbcd686c9	-0.026187317
52	0xbc1ae517	-0.009454033
53	0xbad04086	-0.001588837
54	0xbd13ebcb	-0.03611354
55	0xbc61699f	-0.013758092
56	0xbc4f0913	-0.012636441
57	0xbbe94f55	-0.007120053
58	0xbce253a4	-0.027627774
59	0x3ce826d5	0.028338829
60	0xbc81c17a	-0.015839327
61	0x3c3563c0	0.011071146
62	0x3cf8ea2f	0.030385105
63	0x3d7d3bc8	0.06182459

layers.2.weight f4 [64, 64]
0	0xbd00aa93	-0.031412672
1	0xbe46b4c2	-0.19404891
2	0x3cc1d88b	0.023662826
3	0x3e072355	0.13197072
4	0x3deb3058	0.1148383
5	0x3e0b6841	0.13613988
6	0x3d187cf1	0.03722853
7	0x3dfb7570	0.12278259
8	0xbb3e04f1	-0.0028994645
9	0xbe11c2ba	-0.14234439
10	0x3c84c690	0.016207963
11	0xbc88632d	-0.016648853
12	0xbd87cbda	-0.066306785
13	0xbdfaa13a	-0.12237783
14	0xbe1df059	-0.15423717
15	0x3e277a98	0.1635536
16	0x3e3f62ab	0.18689983
17	0x3d71dd4f	0.059048947
18	0xbe839be1	-0.25704864
19	0xbb2bcdfb	-0.0026215303
20	0xbe31ffae	-0.1738269
21	0x3d938183	0.07202437
22	0x3e0ed075	0.13946708
23	0x3d2015e1	0.039083365
24	0xbd1cc8ec	-0.03827755
25	0x3e00a448	0.12562668
26	0xbe1d6a6a	-0.15372625
27	0xbdeae3ab	-0.114692055
28	0xbe437d4b	-0.19090764
29	0x3e3b3c75	0.18284781
30	0xbdf1fdf6	-0.11816017
31	0x3deb80cb	0.11499175
32	0xbdba864e	-0.09107648
33	0xbc165393	-0.009175199
34	0xbe749ed8	-0.23888719
35	0x3d9c3fb7	0.0762934
36	0x3dd74c50	0.10512602
37	0xbe3f7b5f	-0.18699406
38	0xbd1a71fd	-0.037706364
39	0x3d9116b0	0.070844054
40	0x3e444058	0.1916517
41	0x3e40c590	0.18825364
42	0xbad15bf0	-0.0015972834
43	0x3e44894b	0.19192998
44	0xbe37d13e	-0.17950913
45	0xbd334436	-0.043766223
46	0xbc820bd2	-0.015874777
47	0xbe49bde8	-0.1970135
48	0x3e32895e	0.17435214
49	0x3db4c20b	0.08826073
50	0x3dd4886d	0.10377584
51	0xbdad4bfd	-0.08461759
52	0x3dbe0678	0.092785776
53	0x3e22c4f3	0.15895443
54	0xbd93f146	-0.07223754
55	0xbc7eaa27	-0.015543497
56	0x3e2d85e2	0.16945603
57	0xbe3bc3cb	-0.18336408
58	0x3df450c2	0.11929466
59	0xbc960797	-0.018314166
60	0x3da368c4	0.07978967
61	0xbe241207	-0.16022502
62	0xb88417b1	-6.298663e-05
63	0x3e23f0bc	0.16009802
64	0xbde07d2c	-0.10961375
65	0xbdab8937	-0.08375781
66	0xbe1b58df	-0.1517062
67	0x3de7dfb4	0.11321965
68	0xbde7f6eb	-0.11326393
69	0x3e296dc5	0.1654578
70	0xbae8a2b6	-0.0017748687
71	0x3e66728b	0.22504632
72	0xbda32f59	-0.07968015
73	0x3e40bd03	0.18822102
74	0x3cc773a5	0.024347136
75	0xbe11e28a	-0.14246574
76	0xbe9f62cf	-0.31130072
77	0x3dc4a49e	0.09601711
78	0x3e1a934d	0.15095253
79	0xbb22a054	-0.0024814801
80	0xbc4db5a8	-0.012555517
81	0x3ccd9fd0	0.025100619
82	0xbd0ed3f4	-0.034870103
83	0xbdb2c4c5	-0.08728937
84	0x3e2d250b	0.16908662
85	0x3e18c109	0.14917387
86	0x3e07e229	0.13269867
87	0xbe58c491	-0.21168734
88	0x3e2196e1	0.15780212
89	0xbdf2c825	-0.11854581
90	0xbc3c0b46	-0.011477297
91	0xbd78c960	-0.06073892
92	0x3dbf8816	0.09352128
93	0xbe1827fe	-0.14859006
94	0x3d3c8a1f	0.04603016
95	0xbd9fa4c5	-0.07795099
96	0xbe28cb6d	-0.16483851
97	0x3d0b2a89	0.03397611
98	0x3b8349c6	0.004006597
99	0xbe5d76b5	-0.21627314
100	0xbd40ba29	-0.047052536
101	0xbe4055a5	-0.18782671
102	0x3e063f62	0.13110116
103	0xbe19df39	-0.15026559
104	0x3e2ce74e	0.1688511
105	0xbe122da1	-0.14275219
106	0xbdf638dc	-0.12022564
107	0x3d1a97d3	0.037742447
108	0x3e0652e2	0.13117555
109	0xbe466a22	-0.19376424
110	0x3ea771f7	0.32704136
111	0xbe2bc739	-0.16775216
112	0xbdb74819	-0.089492984
113	0x3c3fa0cd	0.011696053
114	0x3d41c034	0.04730244
115	0xbe595755	-0.21224721
116	0xbe3ab003	-0.18231206
117	0xbe3f78c2	-0.18698409
118	0xbdcb6b12	-0.099325314
119	0xbe28eed1	-0.16497351
120	0x3e29fc25	0.16600092
121	0xbe01d2a3	-0.12678008
122	0xbe4b3ab8	-0.19846618
123	0xbd018df8	-0.031629533
124	0x3e8299e9	0.2550805
125	0x3e903b71	0.2817035
126	0xbe64be4a	-0.22338215
127	0x3c3075b3	0.010770249
128	0xbdf4945a	-0.11942358
129	0x3e201d10	0.15636086
130	0x3c2e3a4f	0.010634019
131	0x3e8be79f	0.2732515
132	0xbe5cd6d3	-0.21566324
133	0xbe1e765a	-0.15474835
134	0x3c62eccb	0.013850401
135	0x3decdbe9	0.11565382
136	0xbe8eebbe	-0.27914232
137	0x3dbde410	0.09272015
138	0xbe2ef385	-0.17085083
139	0x3e255ec8	0.16149437
140	0xbe544fe7	-0.20733605
141	0x3e5b0b8a	0.2139112
142	0x3dbee03a	0.093201116
143	0xbe319541	-0.17342092
144	0xbd34d748	-0.04415062
145	0xbe01ca90	-0.12674928
146	0xbe689434	-0.22712785
147	0xbda76a1f	-0.08174538
148	0x3e31f27a	0.17377654
149	0x3d4f0778	0.050544232
150	0x3d7aa119	0.06118879
151	0x3ca187c9	0.019718068
152	0xbda18e02	-0.07888414
153	0xbd75702e	-0.059921436
154	0xbe208f80	-0.15679741
155	0xbe6147c1	-0.22000028
156	0xbe4513ec	-0.19245881
157	0x3e19dbd0	0.15025258
158	0xbd996fb0	-0.07492006
159	0xbe6a5517	-0.22884022
160	0xbd58739c	-0.05284463
161	0xbe26ff95	-0.16308434
162	0x3e6daebf	0.23211192
163	0x3d42e3e4	0.047580615
164	0xbdf4d52e	-0.11954723
165	0xbe11d16d	-0.14240046
166	0x3e4b4e6a	0.19854131
167	0xbe8e64c6	-0.2781126
168	0x3c592de8	0.013255574
169	0xbda4f4e1	-0.080545194
170	0xbea36863	-0.31915578
171	0xbe16febf	-0.14745615
172	0xbdb6095e	-0.088885054
173	0x3e12d53e	0.14339158
174	0xbe05cb70	-0.13065886
175	0xbdee09b6	-0.11622946
176	0x3e2d9fe7	0.16955529
177	0x3cc67ea5	0.02423031
178	0x3cacc560	0.02109021
179	0xbc95f6ae	-0.018306103
180	0xbe1a2a90	-0.15055299
181	0xbd3afe52	-0.045652695
182	0xbd694fd8	-0.05696091
183	0xbe27fb97	-0.16404568
184	0xbdf91c81	-0.1216364
185	0x3df244a3	0.11829498
186	0x3d2d5945	0.042321462
187	0xbdef8792	-0.1169578
188	0xbd6151f4	-0.055009797
189	0x3db39f50	0.08770621
190	0xbc1d3022	-0.009593995
191	0xbd32044e	-0.043461137
192	0xbe367b2a	-0.17820421
193	0x3cb8c455	0.022554556
194	0x3e1312c8	0.14362633
195	0xbe5f4359	-0.21803035
196	0xbe2a2703	-0.16616444
197	0xbe017172	-0.12640932
198	0x3e0ce441	0.13758947
199	0x3e51fb53	0.20506029
200	0x3e4b3198	0.19843137
201	0xbcc01cc9	-0.023451226
202	0xbdaf181c	-0.085495204
203	0x3db4cb09	0.088277884
204	0x3c39b36c	0.011334281
205	0x3d64f722	0.055899747
206	0xbdb65b11	-0.08904088
207	0x3d833412	0.06406416
208	0xbe46c639	-0.19411553
209	0x3e2c74f8	0.16841495
210	0x3e1f4b10	0.15555978
211	0xbe589620	-0.21151018
212	0xbe5cafb8	-0.21551406
213	0xbb7c3dc9	-0.0038488975
214	0x3cf7cb11	0.030248197
215	0xbe01ca19	-0.1267475
216	0xbe2d85b5	-0.16945536
217	0xbd3550ba	-0.04426644
218	0x3e429045	0.19000347
219	0xbe0a13d1	-0.13484122
220	0xbdd5f72e	-0.104475364
221	0x3e3cd408	0.18440259
222	0x3e101a32	0.14072493
223	0x3e34cec7	0.17657004
224	0xbceed21a	-0.029152919
225	0x3de83d90	0.11339867
226	0xbcac5a3c	-0.02103912
227	0x3e260617	0.1621326
228	0xbd6c86cc	-0.05774574
229	0x3e21693e	0.15762803
230	0x3e1a5a1a	0.15073434
231	0xbd99ded4	-0.07513204
232	0x3e1805a3	0.148459
233	0xbe29b9bd	-0.1657476
234	0x3de87ac5	0.113515414
235	0x3c4a3149	0.012340852
236	0x3d3e46f9	0.046454404
237	0x3e2a4f5e	0.16631839
238	0xbe549fab	-0.20764033
239	0x3d99db47	0.07512527
240	0xbd8731e1	-0.066013105
241	0xbdec1744	-0.11527875
242	0x3d2a70d6	0.041611515
243	0x3ccb1ad8	0.024793074
244	0xbe2efdb7	-0.17088972
245	0xbe1050ac	-0.14093274
246	0xbc96fb60	-0.018430412
247	0x3e5c78c2	0.2153044
248	0xbcdd1e52	-0.026991997
249	0x3e4db98a	0.20090309
250	0xbe4e445b	-0.20143263
251	0xbe5c8dbd	-0.21538444
252	0xbcb053c9	-0.021524327
253	0x3d441bd5	0.047878105
254	0x3e513858	0.2043165
255	0x3c242495	0.010018487

layers.2.bias f4 [64]
0	0xbcbc296d	-0.022968972
1	0xbcdf84a4	-0.027284928
2	0x3d014657	0.031561222
3	0x3aaa5dce	0.0012997927
4	0x3d54b6d1	0.05193216
5	0x3d3ba9bc	0.04581617
6	0x3b8ff9fd	0.0043938146
7	0x3d08173d	0.033225287
8	0x3c99f3c3	0.018792992
9	0x3ba642ad	0.0050738663
10	0x3ba2f1dc	0.0049726795
11	0xbb6e6b87	-0.003638001
12	0xbb76a2f5	-0.003763375
13	0xbd013b72	-0.031550832
14	0x3bb86360	0.005627081
15	0x3b630246	0.0034638806
16	0xba945255	-0.0011316041
17	0xbd0c3243	-0.03422762
18	0xbc4108bb	-0.011781867
19	0x3c62f8c4	0.013853256
20	0x3bda75ec	0.0066668894
21	0xbc123a08	-0.008924969
22	0xbc863c10	-0.016386062
23	0xbc2351f2	-0.009968268
24	0xbdb515a5	-0.08842019
25	0x3d1bb703	0.03801633
26	0xbc0b5171	-0.008503304
27	0xbc026c47	-0.007960386
28	0xbb4cd695	-0.003125583
29	0x3b2d86f9	0.0026478155
30	0xbd83f482	-0.064431205
31	0x3bcfe716	0.0063446863
32	0xbc044114	-0.008072156
33	0xbb96c1cb	-0.0046007386
34	0x3b6bc2df	0.0035974307
35	0xbd4f45e4	-0.050603762
36	0x3cfda1ea	0.030960996
37	0x3c7220c7	0.014778323
38	0xbb0d9c40	-0.0021608025
39	0x3ba8716f	0.0051404755
40	0xbe646fdf	-0.223083
41	0x3c1f1afe	0.009711025
42	0xbbb85be4	-0.0056261886
43	0xba9e5710	-0.001208039
44	0xbbc24eec	-0.0059298184
45	0xbcaaf909	-0.020870702
46	0x3c88ba1e	0.01669031
47	0xbbf1dabb	-0.007380811
48	0x3dc77b04	0.0974026
49	0xbc910ed4	-0.017707266
50	0xbc14692c	-0.009058278
51	0xbc837932	-0.016049001
52	0xbcba3ac5	-0.022733102
53	0x3d8cd14d	0.068758585
54	0x3cd0f184	0.025505789
55	0xbc385dba	-0.011252815
56	0x3d36de8f	0.044645842
57	0xbc879181	-0.016548874
58	0xbc187a3b	-0.009306486
59	0x3acae481	0.0015479476
60	0x3c9b23cb	0.018937966
61	0xbb97e58a	-0.0046355175
62	0x3c802da8	0.01564677
63	0x3b2686b0	0.002540987

layers.4.weight f4 [64, 64]
0	0xbe3d86bd	-0.1850843
1	0x3d738e08	0.059461623
2	0x3e2f2545	0.17104061
3	0x3be38651	0.006943502
4	0x3cfeacd4	0.03108827
5	0xbd6ee544	-0.058324113
6	0x3d024d33	0.031811904
7	0x3e241c4c	0.1602642
8	0xbc6a1ba0	-0.014288813
9	0xbd7ffe2e	-0.062498264
10	0xbd97cfb2	-0.074126616
11	0xbe5a44d4	-0.21315318
12	0xbe1133bd	-0.14179893
13	0xbe137f25	-0.1440397
14	0xbd1503d1	-0.036380593
15	0xbe4069a0	-0.18790293
16	0x3e4fa8e7	0.20279275
17	0xbdbe2f36	-0.092863485
18	0x3d3ce127	0.04611316
19	0xbd5e29c9	-0.05423907
20	0x3cea8fde	0.028633054
21	0xbc87b887	-0.016567482
22	0xbd0e3403	-0.03471757
23	0x3e28eeb8	0.16497314
24	0x3d48af64	0.04899539
25	0xbe46d75d	-0.19418092
26	0x3cd03112	0.025414024
27	0xbdc5e1fd	-0.096622445
28	0xbd52a95a	-0.051431037
29	0x3e07885f	0.13235615
30	0xbe162042	-0.14660743
31	0xbe632d27	-0.22185193
32	0xbdbc05d5	-0.091808
33	0x3dd73333	0.10507812
34	0x3e2a7e7e	0.16649815
35	0xba9c9fd0	-0.0011949483
36	0xbe612a09	-0.21988691
37	0x3d879d5e	0.06621812
38	0xbe762e95	-0.24041207
39	0xbe238312	-0.15967968
40	0x3e6b3b3d	0.22971816
41	0xbe335fa6	-0.17516956
42	0x3e616729	0.22012009
43	0x3d853f7b	0.065062486
44	0x3e7dae5e	0.24773547
45	0x3c452b11	0.012034194
46	0x3e4db35d	0.20087953
47	0xbe0190a9	-0.1265284
48	0xbe1973a4	-0.1498552
49	0xbe17b949	-0.14816774
50	0x3db539fe	0.08848952
51	0xbe1a774a	-0.15084568
52	0x3e6af3c1	0.22944547
53	0xbcded3eb	-0.02720066
54	0x3e627694	0.22115546
55	0x3bd8bba6	0.0066141663
56	0x3e138e82	0.14409831
57	0xbd73346d	-0.05937617
58	0xbdc5b974	-0.09654513
59	0xbe343bdd	-0.17600961
60	0x3e00424b	0.12525289
61	0x3de22457	0.110420875
62	0x3e07d3ff	0.13264464
63	0xbe261698	-0.16219556
64	0x3d8788a7	0.06617861
65	0x3d931e06	0.07183461
66	0x3dbd64fe	0.09247778
67	0x3e0ccc0d	0.13749714
68	0xbd76632a	-0.060153164
69	0xbe5a9807	-0.21347056
70	0xbe5fedab	-0.21868007
71	0x3d18b434	0.03728123
72	0xbda5400d	-0.08068857
73	0x3e61ceb7	0.22051512
74	0xbcfa51a0	-0.0305565
75	0xbd104e5b	-0.035230976
76	0xbe4ac629	-0.19802155
77	0x3cdadf40	0.026717782
78	0x3d865736	0.06559603
79	0xbe303cb1	-0.17210652
80	0x3d988598	0.07447356
81	0x3dbdfc36	0.09276621
82	0xbbacb882	-0.0052710185
83	0xbe14485c	-0.14480728
84	0x3e2bfc28	0.16795409
85	0x3c69e308	0.01427532
86	0x3d798958	0.060921997
87	0xbe0281bd	-0.12744804
88	0xbdca5954	-0.09880319
89	0x3d0fc36a	0.03509847
90	0x3cfe5d2b	0.031050285
91	0x3c630169	0.013855317
92	0xbc18ef23	-0.009334358
93	0xbd8a5a12	-0.06755461
94	0xbd028502	-0.031865127
95	0xbd8374ba	-0.06418748
96	0x3df1add9	0.11800737
97	0x3d50dedd	0.05099379
98	0xbe4ad0a1	-0.19806148
99	0x3e5dca73	0.2165926
100	0xbd614bb6	-0.055003844
101	0xbe3e4adf	-0.18583249
102	0x3e891eaf	0.26781222
103	0xbd393905	-0.045220394
104	0x3e1dd40f	0.15412925
105	0x3e68bc8a	0.22728172
106	0x3df6d3c0	0.12052107
107	0xbe3a386b	-0.18185584
108	0xbd542cd4	-0.051800564
109	0x3c1bce35	0.009509613
110	0x3e5efde7	0.21776544
111	0x3df6bb13	0.120474
112	0x3d9d9828	0.07695037
113	0x3d3856e5	0.045004744
114	0x3df88227	0.121341996
115	0xbdce5157	-0.10074108
116	0x3e075de1	0.13219406
117	0x3dfdde0f	0.1239587
118	0x3df9d534	0.121988684
119	0xbd435320	-0.047686696
120	0xbe2298d8	-0.15878618
121	0x3dddd0e7	0.108308606
122	0x3cafcae1	0.021459045
123	0xbe0ef345	-0.13959987
124	0xbc092af8	-0.008372061
125	0xbe34e8a9	-0.17666878
126	0xbe1bcb41	-0.15214254
127	0x3d53713e	0.051621668
128	0x3d030cf6	0.031994782
129	0x3e0faacb	0.14029996
130	0xbdee2973	-0.116289996
131	0xbd0cc011	-0.034362856
132	0x3d277c8b	0.040890258
133	0xbd5f1141	-0.054459814
134	0x3dd5d00a	0.10440071
135	0x3e17765d	0.14791246
136	0x3d860fd3	0.06545987
137	0x3ca860e2	0.02055401
138	0xbd936860	-0.07197642
139	0xbcc77133	-0.02434597
140	0x3de18544	0.110117465
141	0x3cbafaf1	0.022824736
142	0xbda5d8c7	-0.080979876
143	0x3d891ed0	0.0669533
144	0x3cd17f5d	0.025573427
145	0xbe5fe053	-0.21862917
146	0x3db45b0e	0.0880643
147	0xbd4e1505	-0.050313015
148	0xbce65445	-0.028116355
149	0xbe1dafc4	-0.1539908
150	0x3d6bb657	0.05754694
151	0x3e05ed6e	0.13078853
152	0xbe2f573d	-0.17123123
153	0x3dbaa41b	0.09113332
154	0xbd908863	-0.07057264
155	0xbdbe6daf	-0.09298264
156	0x3d8cfc77	0.06884091
157	0xbe1983a8	-0.14991629
158	0x3c4e1d01	0.012580157
159	0xbb38deec	-0.0028209044
160	0x3e22b5e2	0.15889695
161	0x3b3d9d6a	0.0028932937
162	0x3e5b3573	0.21407108
163	0xbd22268a	-0.039587535
164	0xbe339612	-0.17537716
165	0xbccd635f	-0.025071798
166	0xbccfe6b7	-0.025378568
167	0x3d436576	0.047704183
168	0x3da1e7f8	0.07905573
169	0x3d8fda95	0.07024113
170	0x3e0dd266	0.13849792
171	0x3cb2bcb8	0.021818504
172	0x3d564d90	0.052320063
173	0x3d1880e7	0.037232306
174	0x3ba12917	0.0049182284
175	0xbe01eac3	-0.1268721
176	0xbe160e99	-0.14654006
177	0x3dfa9e04	0.1223717
178	0x3d35f54e	0.044423394
179	0x3db490b5	0.08816663
180	0xbd75fa87	-0.060053375
181	0xbdc031ff	-0.09384536
182	0xbe117078	-0.1420306
183	0x3daedea8	0.08538562
184	0xbd791a65	-0.060816187
185	0xbd443752	-0.04790432
186	0x3de7d6c4	0.1132026
187	0x3dafa4c1	0.08576346
188	0xbd10fb30	-0.0353958
189	0x3e5fd36b	0.21857993
190	0xbd856d07	-0.06514936
191	0xbd72c321	-0.05926812
192	0x3c506468	0.012719251
193	0xbd8c3aa1	-0.0684712
194	0xbdc8b66d	-0.0980042
195	0x3e237aa1	0.15964748
196	0xbe085954	-0.13315326
197	0xbe117921	-0.14206363
198	0x3de9b991	0.11412347
199	0x3dbad105	0.091218986
200	0x3da6b301	0.08139611
201	0x3dcc0798	0.09962386
202	0xbb44c2c0	-0.0030023307
203	0x3e38aefe	0.18035504
204	0xbdd9bbfb	-0.106315576
205	0x3d972998	0.0738098
206	0xbda1c32a	-0.07898553
207	0x3dbc8cae	0.0920652
208	0xbe04abc9	-0.12956156
209	0xbd22d2a5	-0.039751668
210	0xbd7bc13f	-0.06146359
211	0x3e5c0a5e	0.2148833
212	0x3e28613f	0.16443346
213	0x3e261e18	0.16222417
214	0x3df2bee2	0.11852814
215	0xbdae0647	-0.08497291
216	0x3c5aae5e	0.013347236
217	0x3d0473e5	0.03233709
218	0xbdf3a9b4	-0.11897603
219	0xbe22ceda	-0.1589922
220	0x3c8b3873	0.01699469
221	0xbbf4b33c	-0.0074676555
222	0x3e667966	0.22507247
223	0x3cd6e3f5	0.026231745
224	0x3dd112c7	0.102086596
225	0xbddc667a	-0.10761733
226	0xbe37645f	-0.17909382
227	0x3e2f645b	0.17128126
228	0xbd6c0402	-0.05762101
229	0xbe0965cc	-0.13417739
230	0xbd54233a	-0.051791407
231	0xbe0b2644	-0.13588816
232	0x3e33ca54	0.17557651
233	0xbd95d581	-0.07316113
234	0xbe51f5ff	-0.20503996
235	0xbde9bdc0	-0.11413145
236	0xbd92da54	-0.07170549
237	0xbde7b610	-0.113140225
238	0x3e4ea087	0.20178424
239	0x3e44e106	0.19226465
240	0x3d18908c	0.037247226
241	0x3e1c7ed9	0.15282764
242	0x3da79f89	0.08184726
243	0x3e0d402c	0.13794011
244	0xbd9e4d3f	-0.07729577
245	0x3e250a79	0.16117276
246	0xbe144e76	-0.14483055
247	0x3d9eb26a	0.077488735
248	0x3e6d0803	0.23147587
249	0x3d1a237e	0.037631504
250	0xbce954b2	-0.028482769
251	0xbe3295f7	-0.1744002
252	0xbb229046	-0.0024805232
253	0xbe1a645f	-0.15077351
254	0xbd87011b	-0.06592008
255	0xbdc9b7bc	-0.09849498

layers.4.bias f4 [64]
0	0x3bf5c3e0	0.0075001568
1	0xbabe4ba7	-0.0014518396
2	0xbb688374	-0.0035478743
3	0xbbf26dd4	-0.0073983464
4	0x3cd9575a	0.02653091
5	0x3d3c036a	0.045901693
6	0x3c0ec439	0.008713775
7	0x3c885d1a	0.016645957
8	0xbc8207ef	-0.015872924
9	0xbc5f92f8	-0.01364588
10	0xbc95c293	-0.018281257
11	0xbaea9d5d	-0.0017899681
12	0x3bc22656	0.00592498
13	0x3b538c0e	0.0032279524
14	0xbc271a99	-0.0101992125
15	0xbc1cb0dd	-0.009563652
16	0x3c651815	0.013982792
17	0xbc4637bb	-0.012098248
18	0x3bf71c50	0.007541217
19	0xbca8b444	-0.02059377
20	0xbc0cec46	-0.008601254
21	0xbcb4b0b0	-0.022056907
22	0x3c6c9f66	0.0144423
23	0xbab52b98	-0.0013822196
24	0xbc3b5df9	-0.011435979
25	0xbb8229a2	-0.003972248
26	0x3c43332a	0.011914054
27	0xbbe0dc85	-0.0068622255
28	0xbc099543	-0.008397403
29	0xbbc71e56	-0.0060766144
30	0x3ce80133	0.028320884
31	0x3c330caa	0.010928312
32	0x3ca0507f	0.019569634
33	0xbc2763cf	-0.010216667
34	0x3bb793ec	0.0056023505
35	0x3c551614	0.013005752
36	0xbc3595f7	-0.011083118
37	0xbc85c1de	-0.016327795
38	0x3c580bdd	0.013186422
39	0x3c55f803	0.013059619
40	0xbc2d6cfa	-0.010585064
41	0x3b0df7d4	0.002166261
42	0xbc93a0bd	-0.018020982
43	0x3ad9bdbd	0.0016612333
44	0xbc738178	-0.014862411
45	0x3d46495e	0.048409812
46	0xbb354ab7	-0.0027662942
47	0x3b32e03b	0.0027294296
48	0xbc32cffa	-0.010913843
49	0x3c2c12e0	0.010502547
50	0x3b93725e	0.0044997176
51	0xbc7e3187	-0.015514738
52	0xbb0c81f4	-0.0021439763
53	0xbc197afe	-0.0093677025
54	0x3cc9f0b6	0.024650913
55	0x3bcd6aec	0.0062688496
56	0xbc3c61b9	-0.011497908
57	0xbbf467bc	-0.007458655
58	0xbb9b3753	-0.00473682
59	0x3c856d46	0.016287457
60	0xbc858e80	-0.0163033
61	0x3a1c9f0a	0.00059746264
62	0x3c79f8cf	0.0152570745
63	0xbc5f4526	-0.013627326

layers.6.weight f4 [2, 64]
0	0xbc5251d9	-0.012836897
1	0x3e9bfdd2	0.30467087
2	0xbe4ffd77	-0.20311533
3	0xbde8b56b	-0.11362728
4	0x3d6cca78	0.057810277
5	0x3cce39e5	0.02517409
6	0x3e852d22	0.26010996
7	0x3d991bf0	0.07476032
8	0xbe8d1601	-0.2755585
9	0xbde63788	-0.112410605
10	0xbd5a736b	-0.053332727
11	0xbdd15a1e	-0.102222666
12	0x3d785059	0.0606235
13	0x3e353a20	0.17697954
14	0x3ccd911f	0.025093613
15	0xbe3b28ba	-0.18277255
16	0x3e8020bc	0.25024974
17	0xbe09cd2a	-0.1345717
18	0xbe38e260	-0.18055105
19	0xbdf47a78	-0.119374216
20	0xbea0559f	-0.31315324
21	0xbd93466e	-0.07191168
22	0xbe11c698	-0.14235914
23	0xbe14278c	-0.14468211
24	0xbe37fd89	-0.1796781
25	0x3e187046	0.14886579
26	0x3dd5d647	0.10441261
27	0xbe9d35fd	-0.30705252
28	0xbe12975c	-0.14315552
29	0xbe9f720e	-0.31141704
30	0x3e59c1e0	0.21265364
31	0x3d9a62a0	0.075383425
32	0x3d917f02	0.07104303
33	0xbe9ecf0b	-0.31017336
34	0x3e8f88ff	0.28034207
35	0x3e4ec808	0.20193493
36	0xbe4b2ff6	-0.19842514
37	0xbd789663	-0.060690295
38	0x3de037a1	0.1094811
39	0x3d72368c	0.05913405
40	0x3e16069c	0.14650959
41	0xbe4f98b3	-0.20273094
42	0x3eab9a5a	0.33516198
43	0x3e89a2a2	0.2688189
44	0xbe3a2ef0	-0.18181968
45	0xbdb40051	-0.08789123
46	0xbe988620	-0.2978983
47	0xbe86e284	-0.26344693
48	0xbe2fb2bb	-0.17158024
49	0x3ea46e00	0.32115173
50	0x3e27d022	0.1638799
51	0xbda91a36	-0.082569525
52	0x3e14cdac	0.14531583
53	0xbe2cfee6	-0.16894111
54	0x3e0d5ca8	0.13804877
55	0x3e806ce1	0.25083068
56	0x3dedfa01	0.1161995
57	0xbe527035	-0.20550616
58	0xbde471f0	-0.11154544
59	0x3e7a6fbc	0.24456686
60	0xbe979bcd	-0.29611054
61	0x3e40bda4	0.18822342
62	0x3dd2f4e4	0.103006154
63	0xbe0d8a43	-0.13822274
64	0x3e934d4a	0.28769904
65	0x3e11a41f	0.14222763
66	0xbe732901	-0.2374611
67	0x3e130c51	0.14360167
68	0xbe7b3ce6	-0.2453495
69	0xbe303b56	-0.17210135
70	0xbdcad343	-0.09903576
71	0x3e02d9e9	0.12778439
72	0x3e9949d4	0.2993914
73	0x3ea8c982	0.32966238
74	0x3e881499	0.26578215
75	0xbe814d66	-0.25254363
76	0x3e09a198	0.1344055
77	0xbe864f6b	-0.26232466
78	0xbd206d93	-0.039166998
79	0xbcc31d35	-0.023817638
80	0xbe462adc	-0.19352287
81	0x3e8c126c	0.27357805
82	0xbea27fe9	-0.31738213
83	0xbe092ba0	-0.13395548
84	0x3df4ff52	0.11962761
85	0x3d4f1ade	0.050562732
86	0xbe8934d1	-0.26798108
87	0xbdbe2d6a	-0.09286006
88	0xbe66d19a	-0.22540894
89	0x3e2c16b8	0.16805542
90	0xbe78680d	-0.24258442
91	0x3de18d06	0.11013226
92	0xbdd83bd8	-0.10558289
93	0xbe780191	-0.24219348
94	0xbeb13533	-0.346109
95	0xbca4eb72	-0.0201318
96	0xbec12141	-0.37720683
97	0x3d3c5749	0.04598168
98	0xbe30ff15	-0.17284806
99	0xbe9ecf27	-0.3101742
100	0xbe0dc6a7	-0.13845311
101	0x3e066128	0.13123
102	0xbdf68801	-0.120376594
103	0xbdd9442c	-0.10608706
104	0x3de87677	0.113507204
105	0xbea35f2f	-0.31908557
106	0xbc6d8534	-0.01449709
107	0xbe1e8547	-0.15480529
108	0x3e16db94	0.147322
109	0x3eb5f2ff	0.35536954
110	0xbeb46b44	-0.35238087
111	0xbec1210c	-0.37720525
112	0x3d85362a	0.065044716
113	0xbe57e711	-0.21084239
114	0xbd83c322	-0.06433703
115	0x3eb16d42	0.3465367
116	0x3ebde2c4	0.3708707
117	0xbe2d597c	-0.16928667
118	0xbeb07b28	-0.3446896
119	0x3e7e45d5	0.24831326
120	0x3d881b5d	0.06645844
121	0x3d4a21e1	0.049348716
122	0xbe39b8a0	-0.18136835
123	0xbe3ae17e	-0.18250081
124	0x3e5cc5a7	0.21559773
125	0x3eba0485	0.36331573
126	0xbdc699b7	-0.096972875
127	0x3dfea1f8	0.12433237

layers.6.bias f4 [2]
0	0x3c42db7a	0.011893148
1	0xbc8d9d5f	-0.017286954
