data/20240122/output_net_8000.pth (torch, 38752 bytes, 8 tensors)

layers.0.weight f4 [64, 5]
-0.27562827 -0.31453702 -0.023482291 -0.22469334 0.29609135 0.0546765 -0.1400586 -0.17342225
0.26855814 -0.15502778 -0.1701334 0.23137273 -0.30977207 0.27211237 0.32817572 -0.026392061
-0.2678841 -0.10788774 0.19214918 -0.11388209 0.08737468 0.15877037 -0.3188484 -0.14586632
0.02460001 0.020739578 -0.2232445 0.13985719 -0.242337 -0.25179362 0.16685943 0.056600153
0.07529392 -0.13712506 0.11277576 -0.13100423 0.010928555 0.13050969 0.13602658 -0.14658336
0.28930846 0.26055747 0.026516018 0.006790356 0.108150534 -0.2479637 -0.11691381 -0.11603119
-0.04984841 0.013709428 -0.24156226 0.29505914 0.2471584 0.28016433 -0.11389057 -0.2058049
-0.30209756 -0.29902694 0.16755605 -0.23662598 0.18218702 0.030780667 0.07115429 -0.03971581
0.31433514 -0.30052957 -0.25432706 0.15879627 0.00912441 -0.17308715 0.06047281 -0.15684554
-0.25415877 0.24957474 -0.05623041 0.15701246 -0.12056559 -0.24824649 -0.23785436 0.17078568
-0.021685807 -0.17819631 -0.3005416 -0.049692728 -0.14130658 -0.13861543 -0.049295947 0.15188298
0.20092037 -0.29213217 0.15304464 0.1033923 -0.2229488 -0.020556873 0.15234426 0.17654477
0.038501497 0.19577213 -0.050212175 -0.23324485 0.21739148 -0.1753221 -0.30196673 -0.22330843
0.13327727 -0.21634462 -0.043821763 0.006935196 -0.31898716 0.07029969 -0.13328037 -0.008975559
-0.26030886 0.2939982 0.11012093 0.34343734 -0.266461 -0.15807432 0.050432988 0.21942618
0.18610588 -0.30698252 -0.19812347 -0.2979023 -0.098586425 -0.2543609 0.29526794 -0.09086539
0.20593181 0.048181616 0.27633086 0.23332597 -0.19568963 0.026377516 -0.021431461 0.22842894
0.2810779 -0.12465446 0.007956789 0.29874688 -0.038793426 -0.03136245 -0.2956693 -0.16267711
-0.089685604 0.18684934 0.009411932 -0.26553735 0.16140155 -0.13189757 0.0129742175 -0.058509238
0.26409242 0.020052856 -0.08995203 -0.31582114 -0.2459812 0.29313007 -0.12994538 -0.2824222
-0.10631415 0.22180639 -0.20517081 0.038535737 0.091986164 -0.2553243 -0.054830514 -0.08265349
-0.1897035 -0.16694523 0.2236231 0.26074252 -0.24128193 0.28260788 0.060950484 -0.25571188
0.1330021 0.037948973 -0.28059107 0.2673922 0.13918589 -0.18444085 0.2336783 -0.14422573
0.08102917 -0.35438687 0.110508904 -0.20933841 0.3043271 0.20109469 -0.15828598 -0.004775854
-0.12944344 -0.055855587 0.18659358 0.2990848 0.059387498 -0.017444348 -0.12963368 -0.061943576
0.25609386 -0.049424544 0.20958094 0.019366594 -0.25227273 0.24963017 -0.07056451 -0.2671019
-0.29100123 0.0564226 0.28276283 0.30693796 -0.2668235 -0.1587956 -0.23222676 -0.19527313
0.08035463 -0.14258082 -0.16401847 -0.004414384 0.15788855 0.25701538 -0.2699856 0.021183332
-0.15009847 -0.23214848 0.31167123 -0.1419816 0.13418598 0.23904055 -0.20794101 0.0009123071
-0.19424151 -0.020987337 -0.21914777 0.23892508 0.1279366 0.20659192 -0.08572997 0.09084101
0.25102377 -0.16287024 -0.101333894 -0.15254086 -0.18850559 -0.36348188 -0.2961957 0.13352257
-0.26202545 -0.11507846 -0.23938087 -0.05711493 0.059057448 -0.21092407 0.10662647 0.1736276
00000000: 261f 8dbe ff0a a1be ef5d c0bc 0316 66be
00000010: 4999 973e 77f4 5f3d 866b 0fbe 9a95 31be
00000020: 7480 893e 9abf 1ebe 7337 2ebe f9ec 6c3e
00000030: 729a 9ebe 5052 8b3e a606 a83e 2a34 d8bc
00000040: 1b28 89be 3ff4 dcbd c1c2 443e 033b e9bd
00000050: 7ff1 b23d b394 223e 1940 a3be fb5d 15be
00000060: f685 c93c 0ce6 a93c 359a 64be b936 0f3e
00000070: 3127 78be 18eb 80be 33dd 2a3e 90d5 673d
00000080: b333 9a3d 836a 0cbe faf6 e63d f925 06be
00000090: af0d 333c 55a4 053e 8d4a 0b3e f319 16be
000000a0: 3d20 943e ca67 853e 1f38 d93c a281 de3b
000000b0: 077e dd3d 32ea 7dbe 8270 efbd c3a1 edbd
000000c0: d92d 4cbd 829d 603c 195c 77be fe11 973e
000000d0: 1717 7d3e b371 8f3e 763f e9bd 85be 52be
000000e0: 88ac 9abe 0f1a 99be d093 2b3e 154e 72be
000000f0: 3c8f 3a3e bd27 fc3c 57b9 913d 0cad 22bd
00000100: 89f0 a03e 03df 99be 2837 82be 7d9b 223e
00000110: 8d7e 153c c23d 31be 56b2 773d 1e9c 20be
00000120: 1921 82be 8590 7f3e dc51 66bd e0c7 203e
00000130: 18eb f6bd 5434 7ebe 1890 73be 71e2 2e3e
00000140: 6fa6 b1bc 1879 36be 97e0 99be 9a8a 4bbd
00000150: acb2 10be 34f1 0dbe 8cea 49bd 3687 1b3e
00000160: 12be 4d3e 5992 95be bcb7 1c3e 58bf d33d
00000170: b14c 64be e366 a8bc 2200 1c3e 27c8 343e
00000180: bfb3 1d3d 7d78 483e 48ab 4dbd bdd7 6ebe
00000190: df9b 5e3e a387 33be 629b 9abe f7aa 64be
000001a0: d679 083e 7289 5dbe 737e 33bd a440 e33b
000001b0: 4952 a3be 49f9 8f3d a67a 08be 390e 13bc
000001c0: 3447 85be ef86 963e 1587 e13d 05d7 af3e
000001d0: 946d 88be 3cde 21be d292 4e3d 42b1 603e
000001e0: 8a92 3e3e d02c 9dbe e1e0 4abe a686 98be
000001f0: aee7 c9bd 983b 82be 5c2d 973e a217 babd
00000200: cadf 523e 165a 453d 3d7b 8d3e 01ed 6e3e
00000210: dd62 48be a915 d83c 0891 afbc 47e9 693e
00000220: 71e9 8f3e d64a ffbd 315d 023c 5af5 983e
00000230: dbe5 1ebd ea75 00bd f761 97be d494 26be
00000240: 16ad b7bd 6f55 3f3e 8134 1a3c 83f4 87be
00000250: 7346 253e 2810 07be d091 543c 62a7 6fbd
00000260: 1f37 873e e345 a43c c538 b8bd 4fb3 a1be
00000270: 7fe2 7bbe 2515 963e 6710 05be a599 90be
00000280: 3cbb d9bd 3721 633e 4c18 52be a6d7 1d3d
00000290: 3e63 bc3d deb9 82be f695 60bd 3c46 a9bd
000002a0: a241 42be b1f3 2abe 74fd 643e 0b80 853e
000002b0: 9c12 77be fbb1 903e 37a7 793d abec 82be
000002c0: b431 083e 6270 1b3d a2a9 8fbe a1e7 883e
000002d0: bf86 0e3e 10de 3cbe 5d49 6f3e e9af 13be
000002e0: 9ff2 a53d 3272 b5be 7e52 e23d cf5c 56be
000002f0: c3d0 9b3e c4eb 4d3e b815 22be c47e 9cbb
00000300: d28c 04be d4c8 64bd 6312 3f3e a521 993e
00000310: 4e40 733d 73e7 8ebc b1be 04be 8cb8 7dbd
00000320: bc1e 833e 6471 4abd 639c 563e b1a6 9e3c
00000330: e429 81be 0d9f 7f3e 2084 90bd 95c1 88be
00000340: 1dfe 94be 621b 673d 4ac6 903e f926 9d3e
00000350: 179d 88be 509b 22be dacc 6dbe aef5 47be
00000360: f890 a43d b500 12be 75f4 27be 89a6 90bb
00000370: 89ad 213e 8597 833e 8d3b 8abe ab88 ad3c
00000380: 6ab3 19be 55b8 6dbe 5f93 9f3e a063 11be
00000390: 0d68 093e 0cc7 743e 7dee 54be e527 6f3a
000003a0: 3fe7 46be a3ed abbc 4668 60be c7a8 743e
000003b0: d001 033e d58c 533e 3293 afbd da0a ba3d
000003c0: 3086 803e 75c7 26be 2588 cfbd ac33 1cbe
000003d0: 9c07 41be 4c1a babe f6a6 97be 24ba 083e
000003e0: 3328 86be 41ae ebbd 4220 75be 58f1 69bd
000003f0: 39e6 713d 7bfc 57be fb5e da3d 6fcb 313e

layers.0.bias f4 [64]
-0.02340229 0.00045350485 0.111865945 0.004379685 0.031181015 0.0014607096 -0.0148322545 -0.018728057
-0.0047076256 0.037720583 0.028263958 0.058798347 -0.051910143 -0.051352058 0.019895295 0.006628733
-0.0117658805 0.014086622 -0.0026201464 -0.0048987004 0.09843997 -0.08076011 0.014783961 -0.005603741
0.003648988 0.01777686 0.024259722 -0.011683195 0.013308901 0.005703617 -0.0006476946 -0.021919347
0.0126185855 0.004690471 0.010557947 -0.061206114 -0.01588147 0.03899058 0.037865598 0.048630916
0.0121622905 -0.019159794 0.035886142 0.0011346523 0.00073609327 0.057644673 -0.01760326 -0.0047829016
-0.004243747 -0.03728275 -0.015319399 -0.028428841 -0.008757815 -0.00067057856 -0.032533478 -0.014853434
-0.01185678 -0.0056651323 -0.010343298 0.015194501 -0.015852112 0.011622607 0.027530685 0.049031924
00000000: 29b6 bfbc 64c4 ed39 f919 e53d 7683 8f3b
00000010: 546f ff3c 4875 bf3a fc02 73bc 956b 99bc
00000020: 6d42 9abb e680 1a3d d189 e73c 89d6 703d
00000030: bb9f 54bd 8956 52bd 75fb a23c d835 d93b
00000040: aec5 40bc 93cb 663c c3b6 2bbb 4785 a0bb
00000050: e59a c93d 8e65 a5bd 6d38 723c 969f b7bb
00000060: dc23 6f3b c7a0 913c 53bc c63c df6a 3fbc
00000070: 940d 5a3c 68e5 ba3b 0cca 29ba 3490 b3bc
00000080: 2fbe 4e3c 86b2 993b 3dfb 2c3c 43b3 7abd
00000090: db19 82bc 96b4 1f3d f518 1b3d 3631 473d
000000a0: 5844 473c 00f5 9cbc 59fd 123d 9db8 943a
000000b0: 62f6 403a d21c 6c3d b634 90bc e3b9 9cbb
000000c0: 210f 8bbb ccb5 18bd 37fe 7abc 9ae3 e8bc
000000d0: f07c 0fbc c4c9 2fba d341 05bd d15b 73bc
000000e0: f142 42bc 93a2 b9bb f076 29bc 5bf2 783c
000000f0: 4adc 81bc bf6c 3e3c 0888 e13c b3d5 483d

layers.2.weight f4 [64, 64]
-0.03298772 -0.19993322 0.027484838 0.120875604 0.14531721 0.13455868 0.04170336 0.11314365
0.019790111 -0.14574653 0.015049783 -0.024605863 -0.056810286 -0.13839509 -0.15898204 0.1674478
0.17465301 0.0508918 -0.24214196 -0.002326299 -0.16637059 0.072730154 0.13681704 0.030515114
-0.038174156 0.12701946 -0.14238118 -0.0986614 -0.18788223 0.18083999 -0.12292596 0.10841518
-0.086020894 -0.011012063 -0.2367843 0.079520226 0.10377903 -0.18824175 -0.032851934 0.077914305
0.19028854 0.19175974 0.037281685 0.19993581 -0.17140424 -0.039984293 -0.021650318 -0.19145043
0.1735911 0.08399359 0.10499634 -0.079895884 0.09416529 0.16653475 -0.0657659 -0.021668406
0.16208123 -0.18247303 0.12624921 -0.018004017 0.07222915 -0.18675555 0.0066262833 0.1571821
-0.10375213 -0.10858443 -0.13530001 0.050309528 -0.0780045 0.14976147 0.029520355 0.1598773
-0.015233752 0.15341401 0.03450509 -0.1908507 -0.17287707 0.056900322 0.13461715 0.0044062515
-0.09674199 -0.047824543 0.0007461475 -0.09485921 0.18934965 0.15060188 0.12878309 -0.17796768
0.14001113 -0.109793685 0.009174608 -0.0006368446 0.06095904 -0.15935895 0.04664451 -0.10484888
-0.15001065 0.013959982 0.012276012 -0.20220138 -0.044401463 -0.18446903 0.15218145 -0.12665232
0.15620819 -0.14373215 -0.080751844 0.041033152 0.13589649 -0.17502029 0.2516285 -0.12492853
-0.110259496 -0.0019127527 0.051458847 -0.1937443 -0.17761853 -0.13119505 -0.08934697 -0.15684348
0.119960114 -0.099905826 -0.1451214 -0.022166044 0.20527709 0.14803545 -0.19179517 0.0038975999
-0.12840211 0.15249307 0.009065224 0.24121904 -0.1540044 -0.16042261 0.021608006 0.098391466
-0.25913298 0.069986545 -0.16507223 0.15174444 -0.23038119 0.20196442 0.09173802 -0.16651754
-0.014455403 -0.13909894 -0.20805377 -0.08133673 0.19326995 0.05326248 0.0626297 -0.0038304606
-0.08009179 -0.042653475 -0.13696064 -0.20787336 -0.14604409 0.16324 -0.10826426 -0.23427738
-0.026258541 -0.15392247 0.2380713 0.05203819 -0.14088781 -0.13691053 0.20983914 -0.21577781
-0.0063694273 -0.06397224 -0.23249228 -0.11878773 -0.05065129 0.15561438 -0.091101274 -0.111597076
0.17184862 0.021681689 0.01878111 -0.015851513 -0.15733966 -0.02218846 -0.06863379 -0.21700995
-0.118000425 0.094026975 0.02324325 -0.12514663 -0.09155726 0.052491117 0.012012572 -0.04549369
-0.17545685 0.023798708 0.13960838 -0.21473755 -0.15672465 -0.121312276 0.13935295 0.19781537
0.19099084 -0.021660795 -0.093353234 0.08987407 0.0056034764 0.05678936 -0.0876094 0.071297534
-0.16951263 0.16569777 0.15827385 -0.20888321 -0.19512819 -0.0038314452 0.0268159 -0.102724195
-0.16001785 -0.0501442 0.18990368 -0.14090937 -0.093317114 0.18734594 0.13813621 0.17672628
-0.032500315 0.11546654 -0.023306882 0.1592095 -0.05544054 0.15163806 0.14917232 -0.06821063
0.1517984 -0.15863515 0.13084275 0.009747641 0.04754315 0.16079423 -0.20439337 0.075338565
-0.057592373 -0.11236405 0.041195005 0.026937889 -0.17060867 -0.13926993 -0.029940112 0.21254212
-0.01830091 0.19283035 -0.22036712 -0.21396163 -0.026580002 0.0822237 0.20692174 0.012213037
00000000: 221e 07bd 4bbb 4cbe e227 e13c a18d f73d
00000010: 09ce 143e c0c9 093e 24d1 2a3d dcb7 e73d
00000020: df1e a23c 943e 15be 5d93 763c 3c92 c9bc
00000030: e7b1 68bd 71b7 0dbe 30cc 22be 7077 2b3e
00000040: 3dd8 323e ec73 503d 10f4 77be d274 18bb
00000050: 0d5d 2abe 8cf3 943d c419 0c3e d5fa f93c
00000060: 815c 1cbd 6411 023e 5fcc 11be fd0e cabd
00000070: 3364 40be 1e2e 393e 9bc0 fbbd c708 de3d
00000080: b92b b0bd f16b 34bc 9577 72be 80db a23d
00000090: 1a8a d43d 72c2 40be c08f 06bd 8991 9f3d
000000a0: 00db 423e aa5c 443e aeb4 183d f9bb 4c3e
000000b0: 9884 2fbe 92c6 23bd 025c b1bc 950b 44be
000000c0: dec1 313e d504 ac3d 5208 d73d 74a0 a3bd
000000d0: bbd9 c03d 1688 2a3e 46b0 86bd f181 b1bc
000000e0: 9ff8 253e 36da 3abe 7947 013e 297d 93bc
000000f0: e0ec 933d d93c 3fbe 4b21 d93b 58f4 203e
00000100: ff7b d4bd 8361 debd 168c 0abe 5d11 4e3d
00000110: d3c0 9fbd 125b 193e acd4 f13c e0b6 233e
00000120: fd96 79bc 9018 1d3e 3655 0d3d 5e6e 43be
00000130: b006 31be 5010 693d 14d9 093e 5162 903b
00000140: aa20 c6bd abe3 43bd 1c99 433a 8c45 c2bd
00000150: e0e4 413e 6137 1a3e b7df 033e 293d 36be
00000160: 145f 0f3e 83db e0bd 1851 163c ebf1 26ba
00000170: 30b0 793d fe2e 23be 500e 3f3d 02bb d6bd
00000180: 649c 19be 69b8 643c 5421 493c e10d 4fbe
00000190: 4fde 35bd 73e5 3cbe 74d5 1b3e 25b1 01be
000001a0: 0af5 1f3e 852e 13be 3961 a5bd 6112 283d
000001b0: 7328 0b3e 8538 33be 73d5 803e 87da ffbd
000001c0: bbcf e1bd 55b5 faba 83c6 523d e864 46be
000001d0: a2e1 35be ff57 06be 8bfb b6bd 949b 20be
000001e0: a6ad f53d 6d9b ccbd b49a 14be 9095 b5bc
000001f0: 2834 523e 9b96 173e f465 44be e06e 7f3b
00000200: d87b 03be 2527 1c3e 4e86 143c 2002 773e
00000210: 54b3 1dbe d345 24be 4603 b13c 7781 c93d
00000220: 14ad 84be 1b55 8f3d b208 29be e562 1b3e
00000230: 0ce9 6bbe c3cf 4e3e 25e1 bb3d 9383 2abe
00000240: 5bd6 6cbc f46f 0ebe 0c0c 55be df93 a6bd
00000250: 8fe8 453e c229 5a3d 0044 803d 7708 7bbb
00000260: 2a07 a4bd 69b5 2ebd 693f 0cbe c1dc 54be
00000270: 958c 15be 6328 273e a7b9 ddbd 69e6 6fbe
00000280: 271c d7bc da9d 1dbe f6c8 733e ff25 553d
00000290: e544 10be 4632 0cbe 12e0 563e dcf4 5cbe
000002a0: a1b6 d0bb e103 83bd 7512 6ebe fb46 f3bd
000002b0: ba77 4fbd 6059 1f3e 4e93 babd 028d e4bd
000002c0: 16f9 2f3e cc9d b13c d8da 993c 08db 81bc
000002d0: a61d 21be 93c4 b5bc df8f 8cbd db37 5ebe
000002e0: 35aa f1bd 3791 c03d a168 be3c 7026 00be
000002f0: 5f82 bbbd ed00 573d 61d0 443c 9757 3abd
00000300: f6aa 33be 82f5 c23c 80f5 0e3e 29e4 5bbe
00000310: 6d7c 20be 9272 f8bd 8ab2 0e3e 1d90 4a3e
00000320: 1a93 433e fb71 b1bc fb2f bfbd e50f b83d
00000330: 5e9d b73b f69b 683d 8f6c b3bd 7104 923d
00000340: b894 2dbe adac 293e 8a12 223e 7be5 55be
00000350: afcf 47be fc18 7bbb 05ad db3c 1061 d2bd
00000360: b8db 23be 0164 4dbd 1c76 423e 8c4a 10be
00000370: 0b1d bfbd 9dd7 3f3e 9473 0d3e bcf7 343e
00000380: 0d1f 05bd b979 ec3d 13ee bebc d107 233e
00000390: 9f15 63bd 0247 1b3e a1c0 183e 04b2 8bbd
000003a0: 0a71 1b3e 4171 22be a4fb 053e 92b4 1f3c
000003b0: 9bbc 423d 3ea7 243e 7f4c 51be 1b4b 9a3d
000003c0: fbe5 6bbd 1f1f e6bd 18bc 283d d9ac dc3c
000003d0: 0ab4 2ebe c79c 0ebe f744 f5bc a4a4 593e
000003e0: caeb 95bc 5275 453e eba7 61be c218 5bbe
000003f0: 4ebe d9bc e664 a83d 4be3 533e 3119 483c

layers.2.bias f4 [64]
-0.018167047 -0.022433734 0.031795993 0.0021330186 0.04385397 0.040819764 0.0079062395 0.024216272
0.016627906 0.005664865 0.0032772727 -0.002937564 -0.0034191192 -0.027022297 0.003463603 0.002721982
-0.004314332 -0.029486539 -0.005361519 0.010547994 0.006328604 0.0023086648 -0.017674752 -0.015392723
-0.07834872 0.038935546 -0.00899711 -0.0063831937 -0.017894546 0.0034486472 -0.055867497 0.005040319
-0.008510326 -0.00058677257 -0.0030643765 -0.03292795 0.020289587 0.012205102 -0.0036617517 0.0004634263
-0.12716407 0.0068369126 -0.0061345478 0.0009838135 -0.004891089 -0.017441358 0.012899126 -0.005981139
0.07354863 -0.017837172 -0.0029876311 -0.010418916 -0.018745998 0.06334236 0.030222075 -0.008339249
0.05513708 -0.014782631 -0.00792071 0.00052894116 0.0076854173 -0.005650914 0.01764426 0.0014285274
00000000: 0fd3 94bc f3c6 b7bc 843c 023d 1dca 0b3b
00000010: 38a0 333d a032 273d 2c89 013c 3461 c63c
00000020: 3f37 883c 55a0 b93b 83c7 563b 2584 40bb
00000030: 4d13 60bb dd5d ddbc 9efd 623b 4863 323b
00000040: 3d5f 8dbb c18d f1bc aeaf afbb 7ed1 2c3c
00000050: 2e60 cf3b f84c 173b a4ca 90bc c231 7cbc
00000060: 4b75 a0bd e17a 1f3d 9d68 13bc 1c2a d1bb
00000070: 9597 92bc b302 623b 51d5 64bd 4329 a53b
00000080: e56e 0bbc a4d1 19ba b5d3 48bb 75df 06bd
00000090: 5936 a63c e8f7 473c 00fa 6fbb 06f8 f239
000000a0: 4c37 02be 2e08 e03b 5104 c9bb 4ef3 803a
000000b0: 6e45 a0bb 2ee1 8ebc db56 533c 6efd c3bb
000000c0: aaa0 963d 431f 92bc 22cc 43bb 1ab4 2abc
000000d0: 3591 99bc a4b9 813d 4994 f73c 58a1 08bc
000000e0: 6bd7 613d d932 72bc dec5 01bc a4a8 0a3a
000000f0: f4d5 fb3b 4d2b b9bb b28a 903c 6d3d bb3a

layers.4.weight f4 [64, 64]
-0.1868246 0.06268969 0.1832644 0.006087934 0.042093094 -0.05225229 0.030975994 0.16471863
-0.013463154 -0.052370705 -0.06902494 -0.21751878 -0.13861132 -0.14705075 -0.02979043 -0.19144146
0.19930291 -0.093347125 0.034752853 -0.057329096 0.028562574 -0.015862394 -0.058375698 0.16246125
0.037794456 -0.18757944 0.024229655 -0.09542623 -0.04982416 0.12016183 -0.14905177 -0.19690666
-0.08055309 0.11486268 0.173136 -0.012406439 -0.21174096 0.06601946 -0.24986497 -0.16006723
0.2248289 -0.1747051 0.21120925 0.068993956 0.24593869 0.007505255 0.17746322 -0.10576621
-0.15130065 -0.15048884 0.09124486 -0.16083968 0.22608894 -0.026342126 0.2247673 0.026776442
0.14624801 -0.06533849 -0.094233066 -0.17329629 0.12483583 0.10449792 0.13749176 -0.16228998
0.06445067 0.058306303 0.095745966 0.14096197 -0.056005914 -0.21127118 -0.21473636 0.038467396
-0.07619461 0.22168204 -0.034264192 -0.029790299 -0.19614738 0.024978176 0.057249367 -0.17296459
0.07369158 0.0947493 -0.0069760187 -0.14178744 0.1738481 0.016096635 0.061217047 -0.13068129
-0.09899151 0.03871113 0.028052503 0.010196344 -0.014227429 -0.067737974 -0.032431934 -0.06212405
0.11904877 0.048765283 -0.19585471 0.21421668 -0.052868124 -0.18054293 0.25234976 -0.042222098
0.15427509 0.22654781 0.11992118 -0.17893232 -0.050418567 0.004107064 0.21234882 0.11707837
0.08130172 0.04381568 0.12423489 -0.10042941 0.12759486 0.12568499 0.13177954 -0.048317846
-0.15609446 0.10689988 0.019248871 -0.140403 -0.005676698 -0.17674343 -0.1498036 0.0489232
0.0326884 0.14186625 -0.12033955 -0.03629088 0.03714125 -0.056972753 0.103822835 0.14789106
0.06537961 0.019141069 -0.071042724 -0.0277503 0.10521049 0.02352257 -0.08331406 0.06780984
0.025811752 -0.21870455 0.08871425 -0.051267862 -0.027141219 -0.15678173 0.061241202 0.13666391
-0.17240249 0.0863619 -0.069595166 -0.092486866 0.07052827 -0.14888865 0.013306276 -0.008256553
0.155736 0.0059269313 0.21315382 -0.03625669 -0.17694485 -0.031214688 -0.009673906 0.046475668
0.0789661 0.073266745 0.13839632 0.01886721 0.05289648 0.038625874 -0.0013633533 -0.124557234
-0.14532858 0.123111665 0.04227605 0.09109595 -0.055607736 -0.09459299 -0.14790893 0.08166913
-0.06085813 -0.0465786 0.11463952 0.08464816 -0.03454675 0.2190705 -0.063823216 -0.058362924
0.013957854 -0.051975757 -0.098167 0.15705061 -0.12412642 -0.13796954 0.114837185 0.09205405
0.08141512 0.10207576 0.005586728 0.18611786 -0.10327527 0.07372487 -0.06497492 0.08927668
-0.13249773 -0.04404238 -0.060551796 0.20857741 0.16246682 0.1605057 0.120641164 -0.0945452
0.010276054 0.038475394 -0.11794119 -0.15466614 0.011684544 -0.015019223 0.2168606 0.033892814
0.10461718 -0.10892373 -0.18156916 0.16197386 -0.05770314 -0.13507082 -0.06142217 -0.13784224
0.17104745 -0.07409159 -0.20426533 -0.111052215 -0.0722345 -0.11025166 0.19981681 0.1943338
0.04406267 0.15238735 0.078804426 0.1307931 -0.07984872 0.16002525 -0.15908225 0.07913843
0.22762434 0.035842042 -0.028642727 -0.16974552 -0.0079914015 -0.14768662 -0.070377946 -0.09605139
00000000: f34e 3fbe 7463 803d aaa9 3b3e 4b7d c73b
00000010: cf69 2c3d 7f06 56bd 5ec1 fd3c 00ac 283e
00000020: 9094 5cbc aa82 56bd f35c 8dbd 3ebd 5ebe
00000030: 20f0 0dbe 7994 16be 0f0b f4bc 3b09 44be
00000040: 1016 4c3e c72c bfbd 0259 0e3d ead1 6abd
00000050: 0ffc e93c daf1 81bc 5b1b 6fbd 3e5c 263e
00000060: 5cce 1a3d d314 40be 457d c63c d46e c3bd
00000070: 6b14 4cbd 6817 f63d 07a1 18be e6a1 49be
00000080: 05f9 a4bd 203d eb3d 904a 313e 6044 4bbc
00000090: 9fd2 58be 3635 873d 9adc 7fbe aae8 23be
000000a0: 8c39 663e e5e5 32be 3d47 583e b44c 8d3d
000000b0: 5ad7 7b3e a4ee f53b ebb8 353e f49b d8bd
000000c0: 8fee 1abe bf19 1abe 96de ba3d 28b3 24be
000000d0: dc83 673e 71cb d7bc 6629 663e 455a db3c
000000e0: 0ac2 153e 30d0 85bd 44fd c0bd 9574 31be
000000f0: eda9 ff3d 0103 d63d a4ca 0c3e 582f 26be
00000100: b6fe 833d 97d2 6e3d 7616 c43d 5658 103e
00000110: 7566 65bd 7957 58be d9e3 5bbe fd8f 1d3d
00000120: eb0b 9cbd 9e00 633e 9c58 0cbd c90a f4bc
00000130: dcda 48be 089f cc3c 507e 6a3d a11d 31be
00000140: 9ceb 963d ec0b c23d 1697 e4bb ba30 11be
00000150: 3c05 323e 17dd 833c babe 7a3d 51d1 05be
00000160: 10bc cabd 908f 1e3d 5dce e53c 910e 273c
00000170: 2a1a 69bc 35ba 8abd 59d7 04bd ca75 7ebd
00000180: d7cf f33d 1bbe 473d 238e 48be 9e5b 5b3e
00000190: 3f8c 58bd 3fe0 38be fd33 813e 14f1 2cbd
000001a0: 4afa 1d3e 26fc 673e 3c99 f53d 093a 37be
000001b0: b383 4ebd 8d94 863b f871 593e c9c6 ef3d
000001c0: 8481 a63d 1278 333d dd6e fe3d efad cdbd
000001d0: 3aa8 023e 91b3 003e 37f1 063e efe8 45bd
000001e0: 3ad7 1fbe 53ee da3d cfaf 9d3c cec5 0fbe
000001f0: 9803 babb 3bfc 34be 1d66 19be b263 483d
00000200: 46e4 053d 6345 113e 9574 f6bd bfa5 14bd
00000210: 6c21 183d 435c 69bd 11a1 d43d c170 173e
00000220: bfe5 853d bbcd 9c3c d97e 91bd 9954 e3bc
00000230: 9978 d73d 68b2 c03c 90a0 aabd e3df 8a3d
00000240: 2b73 d33c 16f4 5fbe d1af b53d 40fe 51bd
00000250: 4357 debc 648b 20be 0ed8 7a3d a0f1 0b3e
00000260: 478a 30be 82de b03d e987 8ebd c169 bdbd
00000270: 2071 903d 4476 18be 9102 5a3c 7e46 07bc
00000280: 4279 1f3e b436 c23b ff44 5a3e e581 14bd
00000290: 0831 35be f2b5 ffbc 4d7f 1ebc 455d 3e3d
000002a0: fbb8 a13d e00c 963d c4b7 0d3e 688f 9a3c
000002b0: fba9 583d 2a36 1e3d 8cb2 b2ba dd17 ffbd
000002c0: 04d1 14be f821 fc3d a729 2d3d 8390 ba3d
000002d0: f0c4 63bd f8b9 c1bd 7075 17be 2542 a73d
000002e0: 6046 79bd 34c9 3ebd 20c8 ea3d 045c ad3d
000002f0: e580 0dbd 0454 603e bfb5 82bd f60d 6fbd
00000300: 7caf 643c 88e4 54bd c80b c9bd e0d1 203e
00000310: fe35 febd e347 0dbe c22f eb3d d586 bc3d
00000320: f8bc a63d 190d d13d df10 b73b ae95 3e3e
00000330: fc81 d3bd 11fd 963d 9211 85bd b1d6 b63d
00000340: 7cad 07be c865 34bd 2905 78bd 5195 553e
00000350: b45d 263e 9b5b 243e b712 f73d eaa0 c1bd
00000360: e55c 283c 6098 1d3d 278b f1bd cd60 1ebe
00000370: 8870 3f3c 3013 76bc b510 5e3e 31d3 0a3d
00000380: 8841 d63d 6813 dfbd 44ed 39be 7adc 253e
00000390: 215a 6cbd 0150 0abe d095 7bbd 8426 0dbe
000003a0: 1027 2f3e 55bd 97bd ee2a 51be 586f e3bd
000003b0: aeef 93bd 9fcb e1bd c79c 4c3e 71ff 463e
000003c0: 0f7b 343d 6e0b 1c3e 3764 a13d a0ee 053e
000003d0: ba87 a3bd a9dd 233e 75e6 22be 5413 a23d
000003e0: 5b16 693e 1bcf 123d 27a4 eabc c5d1 2dbe
000003f0: 5eee 02bc 293b 17be 5022 90bd 97b6 c4bd

layers.4.bias f4 [64]
0.018297963 -0.0005663793 -0.0051846053 -0.002689299 0.021145286 0.03693459 0.0068902117 0.016775673
-0.011346835 -0.009700406 -0.016286012 -0.005251745 0.008469795 0.003455797 -0.0019959481 -0.008566976
0.012248451 -0.0116301365 0.00030618755 -0.020685077 -0.011026433 -0.008496924 0.011555139 -0.002745331
-0.012233111 -0.0029997185 0.011814158 -0.0046489816 -0.0087742815 -0.0071602776 0.021791058 0.010693758
0.015265648 -0.009078486 0.0052964236 0.011045883 -0.010409643 -0.012122385 0.011380473 0.009864682
-0.011566486 -0.001261112 -0.017870238 -0.0029499985 -0.012628626 0.026639411 -0.0038085105 -0.00024263914
-0.009964778 0.010146912 0.0047917115 -0.009235014 0.0019013532 -0.009228649 0.0076722987 0.007536461
-0.014142849 -0.0078411065 -0.006152133 0.012020307 -0.013200293 0.0025645785 0.0134265395 -0.011136981
00000000: 9ce5 953c 1279 14ba 9fe3 a9bb f33e 30bb
00000010: e138 ad3c ba48 173d 49c7 e13b 236d 893c
00000020: 13e8 39bc 74ee 1ebc 3e6a 85bc d516 acbb
00000030: e5c4 0a3c a77a 623b 74ce 02bb 805c 0cbc
00000040: baad 483c 548c 3ebc cc87 a039 c073 a9bc
00000050: 36a8 34bc af36 0bbc c451 3d3c 03eb 33bb
00000060: 636d 48bc ed96 44bb 2c90 413c 7c56 98bb
00000070: 01c2 0fbc c3a0 eabb 2983 b23c df34 2f3c
00000080: c51c 7a3c eebd 14bc 9f8d ad3b cbf9 343c
00000090: 358d 2abc f89c 46bc 2a75 3a3c 7a9f 213c
000000a0: 5c81 3dbc e64b a5ba 9b64 92bc c354 41bb
000000b0: 4ce8 4ebc e53a da3c 3498 79bb f36c 7eb9
000000c0: 4f43 23bc 3c3f 263c ca03 9d3b 754e 17bc
000000d0: d436 f93a c233 17bc e867 fb3b 6bf4 f63b
000000e0: 68b7 67bc fc77 00bc d597 c9bb d2f0 443c
000000f0: 0b46 58bc 7d12 283b fdfa 5b3c e277 36bc

layers.6.weight f4 [2, 64]
-0.0075404453 0.30379662 -0.20527716 -0.094806775 0.057239264 0.02458262 0.25823084 0.0751848
-0.27486962 -0.11247063 -0.047814146 -0.10268885 0.057562914 0.17539237 0.024161346 -0.17757101
0.24256684 -0.13351242 -0.17495432 -0.11633822 -0.31083328 -0.065337144 -0.13766658 -0.13827491
-0.17958453 0.14912806 0.10138581 -0.30096188 -0.1420318 -0.29577586 0.21218279 0.076598406
0.06951338 -0.30835715 0.27486238 0.20185255 -0.1975928 -0.05966376 0.10712676 0.05890936
0.14106444 -0.19751458 0.33208323 0.26773685 -0.17897576 -0.10058029 -0.2932378 -0.26094753
-0.16741131 0.32413736 0.16035971 -0.07803979 0.12551722 -0.1683588 0.13377425 0.24142027
0.10802468 -0.20720655 -0.11165581 0.23199093 -0.29651433 0.17898308 0.10493535 -0.13964967
0.2717357 0.14077187 -0.23386443 0.092792995 -0.2115829 -0.16228765 -0.10359854 0.12565015
0.2969492 0.32766065 0.24665025 -0.24902411 0.14594848 -0.24863055 -0.03801637 -0.024737613
-0.17820263 0.27237675 -0.29886234 -0.11417165 0.115029864 -0.009602455 -0.25794542 -0.09528417
-0.2226495 0.15946896 -0.22170001 0.10863129 -0.092698984 -0.23166436 -0.3464961 -0.019708328
-0.35689917 0.049414694 -0.16936626 -0.29907748 -0.13627708 0.1274571 -0.11527415 -0.09476927
0.14604673 -0.3102635 0.0048048166 -0.14931351 0.13401076 0.33474255 -0.3420529 -0.32055676
0.063384555 -0.20247689 -0.06414048 0.3075719 0.3729769 -0.16879274 -0.33326298 0.30643755
0.10145451 0.059715707 -0.17257817 -0.19708346 0.21596421 0.33925238 -0.0989736 0.13971968
00000000: d715 f7bb 3b8b 9b3e 2d34 52be 0e2a c2bd
00000010: b873 6a3d 7e61 c93c d536 843e 7dfa 993d
00000020: b6bb 8cbe 0057 e6bd c4d8 43bd 884e d2bd
00000030: 17c7 6b3d 0f9a 333e 04ee c53c 2dd5 35be
00000040: 7163 783e 7bb7 08be 3a27 33be bc42 eebd
00000050: 8a25 9fbe 7bcf 85bd 78f8 0cbe f097 0dbe
00000060: 02e5 37be 07b5 183e 5da3 cf3d ad17 9abe
00000070: c970 11be ef6f 97be 7246 593e a0df 9c3d
00000080: 085d 8e3d fde0 9dbe c3ba 8c3e 6fb2 4e3e
00000090: c455 4abe fd61 74bd 4665 db3d f14a 713d
000000a0: 3273 103e 4341 4abe d006 aa3e ce14 893e
000000b0: 6c45 37be 0afd cdbd 4423 96be ea9a 85be
000000c0: df6d 2bbe 55f5 a53e 5635 243e 53d3 9fbd
000000d0: 9687 003e 4066 2cbe 1efc 083e e036 773e
000000e0: 0b3c dd3d f42d 54be cdab e4bd 088f 6d3e
000000f0: bad0 97be 5747 373e 58e8 d63d 5300 0fbe
00000100: f120 8b3e 8026 103e 287a 6fbe 410a be3d
00000110: 30a9 58be bc2e 26be 792b d4bd 6faa 003e
00000120: ba09 983e 23c3 a73e e291 7c3e 2d00 7fbe
00000130: 8573 153e 0299 7ebe 0eb7 1bbd 89a6 cabc
00000140: c07a 36be f774 8b3e 7c04 99be d3d2 e9bd
00000150: c794 eb3d 9e53 1dbc 6c11 84be 5924 c3bd
00000160: 3bfe 63be d54b 233e 5405 63be 157a de3d
00000170: f7d8 bdbd 6c39 6dbe f067 b1be 5c73 a1bc
00000180: 7dbb b6be 1067 4a3d 596e 2dbe af20 99be
00000190: 388c 0bbe 1d84 023e db14 ecbd 6416 c2bd
000001a0: 468d 153e dcda 9ebe b971 9d3b a4e5 18be
000001b0: 1e3a 093e 6063 ab3e 8f21 afbe 0420 a4be
000001c0: c3cf 813d 1a56 4fbe 155c 83bd 107a 9d3e
000001d0: d4f6 be3e 01d8 2cbe 72a1 aabe 62e5 9c3e
000001e0: 62c7 cf3d 7598 743d 55b8 30be 3fd0 49be
000001f0: b925 5d3e 7db2 ad3e acb2 cabd ad12 0f3e

layers.6.bias f4 [2]
0.01100145 -0.008292047
00000000: 6d3f 343c 5edb 07bc
