data/20240122/output_net_4000.pth (torch, 38752 bytes, 8 tensors)

layers.0.weight f4 [64, 5]
00000000: f902 423d d213 ef3d 7081 3c3e dd3d 1c3e
00000010: fa7f 213e 1027 283e 54dd 293e 681b 84bd
00000020: 1c8c a53d c30e 02be a70b c6bd b7b5 0bbe
00000030: 9395 573d ced2 b13d 2c30 9bbe 7e1d 903e
00000040: 6cc6 db3c fda2 843e c8a7 94be 58fa 893e
00000050: c20c 7b3d 413b 87be f286 f13d 3840 9dbe
00000060: e248 823e da10 47be 340e 39be 5887 373e
00000070: 511f 64bd dba9 ecbc 60e7 903e ab0d 22be
00000080: 84b8 25bd 5bab f73d 8fef 8cbe 51f3 eabd
00000090: 0ada 483e 6d03 823d fefe 4bbe 8b6b 9e3d
000000a0: ee67 c83e 4ee9 153e b7dd 2fbe ef1b 813d
000000b0: cae2 7d3e ae15 593e 3642 2abe 90ff a2be
000000c0: 1a4d a13d ab50 8b3d c32a adbd ab26 2ebc
000000d0: 7e0d 64be 907d 0ebd b2d0 88be 38a6 8dbe
000000e0: 2919 e4bd fc5a a73d 549f 9a3d 2ddd 7d3e
000000f0: b263 2cbe b1d3 10bd ea48 4b3e 8877 ff3d
00000100: c4a4 463c b9b7 2e3e c95b 8b3e 8450 cf3b
00000110: 542b 1fbe e1e6 703e 8a97 5d3d 3229 2c3d
00000120: b819 6dbe b227 ec3d 52b5 2ebd d371 bb3d
00000130: a18d 953d c7d3 22bd 9e06 fc3d 0d8e afbe
00000140: ed5e 85be 75d7 a1bd 2fc3 743e 081d c93d
00000150: 2645 e2bd be23 86be 6b1e 7ebe 0d6d b43e
00000160: 680b a33d 99aa 9f3d 0561 c93d 17a9 4c3e
00000170: 0c6a 53be 3eb6 a43d ce18 903e 90e5 46be
00000180: 721b 21be ee78 89be 29a5 953e ffcf 1cbc
00000190: ed04 803d 990e 45be 4317 71be c3a3 89be
000001a0: 1173 853e 3f27 1cbe 6e31 1abe ecb0 5d3e
000001b0: 6e37 84be 09ec 09be 9878 a4be 0bd6 2f3d
000001c0: 115b 9dbd a171 35bd d53a 9fbc f567 c73b
000001d0: 0e8c 5cbe 9620 643e 9f0f 53bb 3c7d 80be
000001e0: 059f 70be d8c2 23be dc1f 21be cacc bb3d
000001f0: 53c0 aa3d c5a0 8d3d 554c 873e 3ab0 13be
00000200: 7592 283e 3b00 5e3e 2da0 453e c3fa be3d
00000210: bb2a b93d c2a4 5a3d 3b6b a7bd c9ed 4d3e
00000220: 9f2d 59be c026 383e ec0a 453e ca08 51be
00000230: 7f0c a63d 654e 0c3d 5232 a83e 578e 6fbe
00000240: 37fe 4a3e 62bb 1dbd 3a8a 45be 7ca1 b53d
00000250: cc8d 8bbe 1c47 a53e 1085 d6bd 709f c3bc
00000260: f888 c03c 5432 9ebe aadd 543c 05e2 25be
00000270: cfd4 3bbe 6a08 4ebc d447 07be 3e8c 66be
00000280: 0b11 173e 2ec9 13be 588e 61bd fd93 a3bd
00000290: 5b67 33be 5ff2 84bd 589c d2bd 4435 5f3e
000002a0: 35c0 23be f886 cebd ed4f a0be 1845 3f3e
000002b0: 9b38 3f3d da29 2cbe 96c0 a83e 1ed4 ff3b
000002c0: e591 933e 272c 423e 807b 9c3e 7326 79be
000002d0: f1b1 683e 0b4c 84be 2975 d2bb d8d7 cebd
000002e0: d457 7fbe 1ba9 4b3e 608d 4f3e bdac 2c3d
000002f0: 2acc c4bd 0667 fe3d 7311 903e 09a7 cfbd
00000300: b005 86bc cb05 10be 3a6b ae3d b7b2 a4be
00000310: d428 6bbe 99b7 53be daef 11be bdcd 5cbe
00000320: 80d9 0c3d 8e49 adbb 2885 783e 3228 46be
00000330: 18ca a53d d7c0 78be 62bf 7f3e ea55 af3e
00000340: 8c01 7fbe a5ce 83be 0bce 8c3e b9fb ce3d
00000350: 0337 a5bd e882 293e dacc 30bd 2e47 833e
00000360: 0fa8 7cbe dc51 613e 7fcf 96bc 5284 2fbe
00000370: 3c94 9a3e 82c1 0b3d bbd7 debd 3a6c d43d
00000380: 801d 1bbe 1bb1 b6bd 6af1 7ebe 6471 9a3d
00000390: 5c17 423c 71d1 77bd dd53 ea3c f93f 27be
000003a0: 7c41 03be 964b 6ebe c410 7cbc 627f 91be
000003b0: f172 c83c d06b a63e 963c 443e bd39 693e
000003c0: b5a0 b53c fe05 253e e0c0 37be 96ec 5abe
000003d0: 0098 0bbd c4ef 023e 4b83 4a3e 0dd7 883e
000003e0: 6a17 39bd c5cc 903e ff8e 61be 2119 4ebe
000003f0: 26a2 f0bd cc8e 85bd 8117 c3bb 4e50 8abe
0.047366116 0.11673702 0.18408751 0.15257974 0.15771475 0.16421151 0.16588336 -0.0645054
0.08083364 -0.12700944 -0.09670191 -0.13643537 0.05263288 0.08682786 -0.3031019 0.281475
0.026828013 0.259056 -0.29034257 0.2694881 0.061291464 -0.26412395 0.11793317 -0.30713058
0.2544623 -0.19440022 -0.18071824 0.17922723 -0.05569393 -0.028889587 0.28301525 -0.15825526
-0.04045917 0.1209323 -0.2752652 -0.1147219 0.19614425 0.0634831 -0.1992149 0.07735356
0.39141792 0.1463978 -0.17174421 0.06304156 0.24793544 0.21199676 -0.1662682 -0.31835604
0.07876034 0.068024956 -0.08455422 -0.010629336 -0.22270772 -0.034787714 -0.26721722 -0.27665877
-0.111376114 0.08171651 0.07549921 0.24791403 -0.16834906 -0.035358135 0.19852033 0.12473971
0.012124244 0.17062272 0.27218464 0.006326737 -0.15543872 0.23525573 0.054099597 0.042031474
-0.23154342 0.11531009 -0.04265339 0.091525696 0.07302404 -0.039752748 0.1230595 -0.34288064
-0.26048985 -0.07902423 0.23902582 0.098199904 -0.11048345 -0.26199144 -0.24816291 0.3523945
0.0796116 0.07796211 0.09832958 0.19986378 -0.20645922 0.080425724 0.28143924 -0.19423509
-0.15733126 -0.26850075 0.2922757 -0.0095710745 0.062509395 -0.1924385 -0.2354403 -0.26882753
0.2606435 -0.15249346 -0.15057918 0.21649522 -0.2582354 -0.13468947 -0.32123256 0.042928737
-0.07683385 -0.044297818 -0.019437233 0.0060853907 -0.21537802 0.22278056 -0.0032205356 -0.25095546
-0.23498161 -0.15992296 -0.1573481 0.0916992 0.08337464 0.0691543 0.26425424 -0.14422694
0.16462119 0.21679775 0.19299383 0.09325173 0.09041353 0.05337978 -0.081747495 0.20110239
-0.2120881 0.17983532 0.19242448 -0.20413509 0.08107852 0.03425445 0.3285089 -0.23394142
0.19823538 -0.03850878 -0.1929101 0.08868691 -0.2725662 0.32280815 -0.104745984 -0.023879737
0.023502812 -0.30897772 0.012992302 -0.16199501 -0.18342899 -0.012575248 -0.13210994 -0.22514436
0.14752595 -0.14432213 -0.05506739 -0.07987211 -0.17519896 -0.06491541 -0.102837265 0.21797663
-0.1599129 -0.10084337 -0.3131098 0.18678701 0.046684843 -0.1681284 0.3295943 0.0078072688
0.28822246 0.18962155 0.30562973 -0.24331073 0.2272413 -0.25839266 -0.006422658 -0.10099763
-0.24935848 0.19888727 0.20268774 0.042156924 -0.09609254 0.12421994 0.28138313 -0.10139281
-0.016360134 -0.1406471 0.085165456 -0.321676 -0.22964793 -0.20675506 -0.14251652 -0.21562858
0.03438711 -0.0052883094 0.24269545 -0.19351271 0.08095187 -0.24292313 0.2497535 0.34245235
-0.24902934 -0.25743595 0.27500948 0.10106606 -0.08067133 0.16553843 -0.04316411 0.25640243
-0.24673484 0.22003883 -0.018409489 -0.1714032 0.3019122 0.03412009 -0.10880991 0.10372205
-0.15147972 -0.08920499 -0.2489678 0.07541159 0.01184639 -0.060502473 0.028604442 -0.16332997
-0.12817949 -0.23271021 -0.015384857 -0.28417498 0.02446887 0.3250413 0.19163737 0.22775932
0.022171358 0.16115567 -0.1794467 -0.21379313 -0.034080505 0.12786776 0.19776647 0.2672657
-0.045188345 0.28281227 -0.22027205 -0.20126773 -0.11749677 -0.06521377 -0.0059537296 -0.27014393

layers.0.bias f4 [64]
00000000: d002 d2bc 00bf b03b 68c1 88bc 4185 3ebd
00000010: 1537 9cbc 6be3 c7bb a67a f33a f0f2 c3bc
00000020: 936e 833d 8472 893c 3440 a13c 9b2c 4fbb
00000030: cd02 ba3c 77b9 a4bc 26fb 033d 3ee5 033d
00000040: c300 a6bc 8910 d7bc 6e43 c33b 062b c13b
00000050: a296 61bc d5a2 f3bb 26b8 333d 7417 c7bc
00000060: b175 bf3c 4484 94bb 63c6 88bc 4b8e 9dbc
00000070: 6ab8 e9bc 3e7f 4fbd f9e7 b1bc 08ba c7bb
00000080: b312 f4bb 928c 3ebc a007 1abd 9473 8dbb
00000090: 191d 86bc 851d 713b 1362 893b 939c 923c
000000a0: 3cf1 bbbd 1414 debb 96b3 483c a8c1 d7ba
000000b0: db3b d13c 894b c1bc 29c5 1f3d 6bdc 11bd
000000c0: 7e20 a6bb dba2 04bd 2437 363c 6613 33bc
000000d0: 3131 7aba 60bd a93b 8f92 36bb fd34 4d3c
000000e0: 6dab 79bc 4c1a 09bd a595 adbc 8451 733d
000000f0: 1ee6 8cbd 0189 51bd e0a0 993d 39be 6b3b
-0.025636107 0.0053938627 -0.016693786 -0.0465138 -0.019069234 -0.0061001084 0.0018575981 -0.023919553
0.06417575 0.016778238 0.019683935 -0.003161228 0.022706414 -0.020107968 0.032221936 0.032201044
-0.020264035 -0.026253002 0.005958966 0.0058950214 -0.013768824 -0.0074351826 0.04387679 -0.024303176
0.02337155 -0.004532369 -0.01669616 -0.01923289 -0.028530318 -0.050658457 -0.021717058 -0.0060951747
-0.007448518 -0.011630194 -0.037604928 -0.0043167565 -0.016371297 0.0036791277 0.0041925996 0.017896926
-0.09176871 -0.006777296 0.012249848 -0.0016460912 0.025541237 -0.023595588 0.039006386 -0.035610598
-0.0050697913 -0.032381874 0.011121545 -0.010929918 -0.0009544073 0.005180046 -0.0027858352 0.01252484
-0.015238625 -0.033472344 -0.02118952 0.05940391 -0.06879829 -0.051156048 0.075013876 0.0035971536

layers.2.weight f4 [64, 64]
00000000: 3eca 1c3d 8d99 40be 8979 3c3e e9e4 603e
00000010: 8804 743d 9632 32be 8004 70be a448 ff3c
00000020: 1ff1 323d 7b65 adbc 8446 1e3e f3a4 6b3e
00000030: 39eb 0fbd 2a1b 6f3e 2f6f 2bbe d9aa 153e
00000040: 73da 4b3e ece5 843d 39cc 85bd 3c06 dc3b
00000050: 47e0 e1bd 9ce2 513e 48a5 3dbe 0eee 72be
00000060: aa05 443e d59a fb3d 20a7 d3bc ebb1 113e
00000070: 95a6 0d3e c02e 643e 8900 f5bd e8a3 ebbd
00000080: eb40 61bd 4918 6cbd f1dc cabd 98ef 27bd
00000090: 039c 0ebc 7fe3 1abd c62a cd3d 6cb3 3ebe
000000a0: c405 163e afac 303e b724 383e c7a6 fcbc
000000b0: 1eb0 003e 9803 2b3e ec69 18be e6b9 a83c
000000c0: bd28 a8bd e22c 6bbd 410a 0fbe c55a 43bd
000000d0: 6680 0ebe 7411 3a3e c0d7 da3d 541d 0ebd
000000e0: 04df d739 86f6 69be 8125 41be fea2 ac3d
000000f0: 3bf6 7bbd 6052 9e3d d5f1 1fbe 17c5 7d3d
00000100: 4edc 173e f661 9bbd 00fe cc3d 464e 5dbd
00000110: 292f bcbd ab23 25be b6fd a03b 684d ddbd
00000120: 48c3 823d aeb2 0c3e cdde b5bd ff83 fdbd
00000130: 2146 debd 3696 353e 8ac0 2fbe f715 9ebd
00000140: 7b6e ff3c d6e1 793e 529b 52be 7dac 8bbd
00000150: fa23 50be 9689 07be 74db a73c 147f 46bd
00000160: d14f b9bc e165 333e c968 68be 6745 6f3d
00000170: ab94 3c3e efbf cdbd ab66 23bc ee00 2dbe
00000180: 5abd 52bd 795e 243e b0c8 983d 462d 25bd
00000190: 66fc 063d 3f65 e93d 9dae e03d 0c56 9e3d
000001a0: 7347 303d 48df acbd 2abb 0a3e 65e4 b13d
000001b0: bd1a 59be 6737 b8bc ecf8 ccbd ba69 de3d
000001c0: 695c 5fbe ccc8 1f3d bef2 8dbc 1aed 52bd
000001d0: ffc8 d0bd 2c1c 483b 8808 643d eb03 abbc
000001e0: 1c4e afbd 2e80 3e3e 9279 21be cbaf cabd
000001f0: f6b7 553e b202 293e 2ac8 42be bc3e 4b3e
00000200: 59ba 87bd 3ef4 04be a8d4 3cbe 4b82 28be
00000210: 1bd8 683e e473 d53a 7b7a f8bd 5651 123e
00000220: 158b 8f3d 1587 27be 192a 973d ce16 ff3d
00000230: dee7 49be ecf9 0fbe 68f2 5fbe 79db b13b
00000240: f560 05be bf19 30be 028a 5fbb d8c3 68bd
00000250: 23b9 7bbd 88f8 2a3d 83ed b73d 1ae6 683e
00000260: d617 07ba b36b 043d 7f84 4a3e 2536 053e
00000270: da2f 27be 52ad bf3d 949c f8bd e0c3 02bd
00000280: c885 8c3d 3049 663e b108 203e 54cb 47bd
00000290: 5c54 04bd ecff 1bbe c46d 983d ad19 da3d
000002a0: 4e67 173e 5976 963d c1f6 0dbe bcfe 803e
000002b0: 0a02 ecbd 330e a03d 589e f63d 8f0c 5a3d
000002c0: 3d3c 81bd ee64 9c3d 204a 033e ffa3 2d3e
000002d0: 5ce5 45be fa09 f4bd 7cc1 e8bd 7f65 29be
000002e0: f8ba fbbd 7b4e ef3d df74 373e f588 393d
000002f0: 3983 da3d 5ef7 2dbe 4bfa 233d b7d9 2b3e
00000300: 2d0c f63d ebf2 5abe 3643 b1bd 5ec7 35be
00000310: 5c15 3b3e 3edf 0fbd 49b2 d13d f34b 20be
00000320: ef93 1e3e c1aa 43b9 fc82 bbbd bbcd 09be
00000330: 0eb4 6ebc ea0d 643e a2d1 59be 32df 64be
00000340: aabb 053c 9a9e 163d 08bb bfbd 158d 803d
00000350: 570f 20be 49fd 27bd c6a6 173d e85d 18bd
00000360: 3731 26be 5795 393e c70a 1dbe 812a 54ba
00000370: eeee 97bb 1f4b 023d fa7d 553e f196 023e
00000380: f397 5d3d 657e e93d 3c46 403e 72b4 4bbd
00000390: c050 593b 5a35 703e 56eb 82bd db70 35be
000003a0: be89 073d 5a96 273e d8f2 59be b67b 62bd
000003b0: 4b69 c73c afaa 373e 6508 2dbe e34d a53c
000003c0: 4d4f f9bd a835 1cbe d603 573e f79f 3c3d
000003d0: 215b 283e 511c 093e 332f bdbd 045d 723d
000003e0: 31ef 11be 44af 6eba 625d c43d 09c5 e73a
000003f0: 2e43 ddbd 0968 23be a81b 10be 7e51 56bd
0.03827881 -0.18808575 0.18405737 0.21962322 0.059574634 -0.1740211 -0.23439217 0.031162567
0.043686982 -0.021166554 0.15456587 0.23012142 -0.035136435 0.23350206 -0.16741632 0.14615954
0.1990755 0.064891666 -0.06533093 0.0067146104 -0.11029106 0.20496601 -0.18520081 -0.23723623
0.19142786 0.12285391 -0.025836527 0.14228027 0.13833077 0.22283459 -0.11962993 -0.11505872
-0.05499355 -0.057640348 -0.099054225 -0.04099998 -0.008704188 -0.037814613 0.10017924 -0.18623132
0.14650637 0.17253374 0.17982756 -0.030841244 0.12567183 0.1670059 -0.14884156 0.020596456
-0.08210895 -0.05741585 -0.13968755 -0.047693986 -0.13916168 0.1817072 0.10685682 -0.03469594
0.00041174155 -0.22847947 -0.18861963 0.08429526 -0.06151412 0.077305555 -0.15619595 0.061955538
0.14830133 -0.07587044 0.10009384 -0.054029725 -0.091886826 -0.16126888 0.004913057 -0.1080578
0.06384903 0.13740036 -0.088803865 -0.12378692 -0.1085322 0.17733082 -0.17163292 -0.07719033
0.03118061 0.24402556 -0.20567062 -0.06820009 -0.20326224 -0.13236079 0.020490386 -0.048461035
-0.022621067 0.17519332 -0.22696222 0.058415797 0.18416087 -0.10046374 -0.009973208 -0.16894886
-0.05145011 0.16051663 0.07460153 -0.04032638 0.03295555 0.11396264 0.10970805 0.07731256
0.04303689 -0.08441025 0.1354796 0.08686141 -0.21201606 -0.022487355 -0.100084156 0.108600095
-0.21812595 0.039009854 -0.017327663 -0.05149565 -0.10194587 0.003053437 0.0556722 -0.020875892
-0.0855982 0.18603584 -0.15769032 -0.09896811 0.20870957 0.16504934 -0.19021669 0.1984815
-0.0662734 -0.12983796 -0.18440497 -0.16455953 0.22738688 0.0016285148 -0.12132736 0.1428884
0.0700895 -0.16360123 0.07381076 0.124555215 -0.19717357 -0.14060181 -0.21869814 0.0054277745
-0.13025267 -0.17197321 -0.0034109359 -0.056827396 -0.061455857 0.041740924 0.08980849 0.22744027
-0.0005153393 0.032329272 0.19777106 0.13008936 -0.16326848 0.0935923 -0.1213924 -0.031925082
0.06861454 0.22488856 0.15628316 -0.048777893 -0.032307014 -0.15234345 0.07442811 0.106494285
0.14785501 0.07346792 -0.1386366 0.25194347 -0.115238264 0.07815208 0.120419204 0.053234633
-0.06310318 0.07636438 0.12821245 0.16957091 -0.19325775 -0.119159654 -0.11365029 -0.16542624
-0.12291521 0.11684891 0.17915677 0.045296628 0.1066956 -0.16988894 0.04003362 0.1678227
0.12014041 -0.21381728 -0.086553976 -0.17751834 0.18269867 -0.03512501 0.10239083 -0.15653972
0.1548612 -0.0001866026 -0.09155843 -0.13457386 -0.014569296 0.22270933 -0.21271375 -0.22350767
0.008162418 0.036772348 -0.09361845 0.06276909 -0.15630852 -0.041013036 0.037024282 -0.03719893
-0.16229711 0.18123375 -0.15336142 -0.0008093492 -0.004636637 0.031809922 0.20848837 0.12752892
0.05409999 0.11401061 0.18776792 -0.049732633 0.0033159703 0.23457852 -0.06392543 -0.17718832
0.033090346 0.16365948 -0.21284044 -0.05529376 0.0243422 0.17936204 -0.16897734 0.02017874
-0.121733285 -0.15254843 0.20997557 0.046050992 0.16441013 0.13389708 -0.09237518 0.059170738
-0.142514 -0.0009105096 0.09588124 0.0017682622 -0.10803829 -0.15957655 -0.1407305 -0.05232381

layers.2.bias f4 [64]
00000000: 044a c2bb 49ac d6bc 4965 10bc 1207 43bc
00000010: ad24 173c 690f 03bd 1d7f 353c 7bd5 63bb
00000020: bc72 09bc 0335 5a3c 084f 8abc 234b 053d
00000030: 8ed0 9f3a bb87 e2b9 9556 1038 62d8 d6bc
00000040: 9a1d 4f3c bb7e efbc 7c73 983b ccd3 9c3c
00000050: 17c3 f23a b8ec 7bbc c69e ecb9 d00d f53b
00000060: fc97 91bb 287f f93c e476 8a3c fe23 933b
00000070: 1e4f 5e3a 1e19 883d 15b6 ae3b 6dbf 94bc
00000080: 8bb4 8d3d b3eb f7bb 8555 d2bc 01cc d63c
00000090: 2365 4b39 4f9d 83bc db93 d43a d42a d33b
000000a0: 9ac8 5cb9 ee1c e2bc e031 6ebb a889 77bc
000000b0: b8ff 6e3b f1dd edb9 5a19 e93b b861 cfbc
000000c0: ec63 20bb baa8 2b3c 24e7 8b3c a828 033d
000000d0: 6fac 2e3b 8012 46bc 2a63 133c bc87 8fbb
000000e0: 1530 04bc 96ae c9bb 82d0 0d3d fb24 883c
000000f0: f979 90bb da03 78bc 3f76 9abc d2fb 6abc
-0.0059292335 -0.026205199 -0.008813211 -0.011903541 0.009225053 -0.03199712 0.011077669 -0.0034764695
-0.008389171 0.013318303 -0.016883388 0.03254236 0.0012192891 -0.00043207206 3.441291e-05 -0.026226226
0.012641335 -0.029235234 0.0046524387 0.019143961 0.0018521276 -0.015376262 -0.00045131723 0.007478453
-0.004443167 0.03045614 0.016902395 0.0044903746 0.00084804173 0.06645416 0.0053317645 -0.018157685
0.069192015 -0.0075659393 -0.025675545 0.026220324 0.00019397265 -0.016066222 0.0016218381 0.0064443145
-0.00021055565 -0.027601685 -0.0036345646 -0.015108503 0.0036468338 -0.00045369522 0.007113618 -0.02531515
-0.002447362 0.010477239 0.01707799 0.032021195 0.0026653071 -0.012089372 0.0089958105 -0.0043801945
-0.008068104 -0.0061548455 0.034622677 0.016619196 -0.0044090715 -0.015137637 -0.018855212 -0.014342265

layers.4.weight f4 [64, 64]
00000000: 796e 763d fed4 1cbe 86c8 c6bc fb20 143e
00000010: f4b0 e2bd ff41 1bbe 76e0 603e 504c 2dbe
00000020: 88d3 41be 4b16 87bd b21c ab3d 0653 a1bd
00000030: 44b7 ebbc e5dc 233e 6857 bc3d 32bb 30bc
00000040: 121b 63bc 64e5 573e a18b fdbd 2ad2 413c
00000050: 81ad 1fbd f636 01be a7d5 f4bd dfdb 6c3d
00000060: 8902 dcbd 29f8 6e3d 4efd 14be 82f8 243e
00000070: 350b 183e e111 80bd 470b 41be d4b9 0dbe
00000080: d139 f1bd 2316 6bbd 7f18 d53d 1500 173e
00000090: 1440 523e c1d7 ab3d 0605 1fbe 5dbd 21bd
000000a0: 48bc 5f3e 05bf 4a3d 0e26 51be 270d ccbd
000000b0: 6987 c6bd 4088 5bbd 27e7 3b3e 94fc 83bc
000000c0: 45df 083e 5ced 53be 5f5f 3e3e 4815 51be
000000d0: 0ad5 283e 965a 64be 3ffe 043d 8bbe a4bd
000000e0: 63d4 a03c 8367 2abe dca3 c93d d4bd 23be
000000f0: 8c0d 983d b824 493e 0f72 d1bd 2d4b 8f3c
00000100: 089f 5c3c 05c4 10be 809b 013e f2f1 25be
00000110: da25 613d a8f1 813c 0967 8bbd 5350 d33d
00000120: c127 98bd c4d7 af3d c264 033d ede1 43be
00000130: aa31 5ebe 1ac7 41be 0a4b 0fbe 19aa 5ebe
00000140: b7e9 a7bd 8f72 4f3e 98b0 0c3e 5fc0 5f3e
00000150: 40e0 33be 3662 c53c 9667 10bd 16b0 14bd
00000160: 732e e3bd fd3e 983d 0c09 2fbe a10e 553b
00000170: 3583 47bd cac5 53be 7d95 29be a66f dbbd
00000180: f8d4 873d 105a 0bbe 3a0f ef3d ed1a 86bc
00000190: 7b7b 7fbc 8798 9a3c a64a f53d d195 4dbe
000001a0: fcf7 38bc 96fa e6bb 1230 a4bd ff21 d83c
000001b0: b022 45be 2406 bc3d 6975 87bd 048e 463c
000001c0: f6ad 7d3c f5de 04be 5fbf b9bd 8493 9fbd
000001d0: cf3c d7bd 389a 8abd 01fe 30be 40ea 24be
000001e0: 2b2b e23d e675 333d b08e 8e3d 401f 103d
000001f0: f51f 1a3e 8f11 b03d 07af 42be 13c3 7ebd
00000200: 2822 043e 5bd9 6abd 3572 bebd 63c9 2a3e
00000210: e2ea 31bd e116 49be 01c3 9cbd 6339 173e
00000220: b5c6 613e 7e6f 04be 9ad7 673d b71b 78bd
00000230: 7f79 48be f525 d8bd f939 38be 1464 0f3c
00000240: d73f 1fbd bdf5 12bd 4286 3b3e a4c6 f6bd
00000250: 045e 72bd 421c 993c e5c8 aa3d aadb e9bc
00000260: 35a1 c63d 1c34 853d acc6 f7bd f6d1 1c3e
00000270: aa05 243c f982 1abe 7c57 8ebd ff0d 413d
00000280: 2ab8 413e cc62 723d 3dab 59be 6886 0a3e
00000290: 4f4b 473e 33d7 2a3e c1c5 43be fc56 44be
000002a0: be26 0bbd d059 573e 018a 1c39 f4d0 45bd
000002b0: ba94 223e 4d40 2bbe 74e8 8a3c 372a 343e
000002c0: 1b4b eebd 6845 0d3e 53e7 033d a400 273e
000002d0: 2ea5 6ebd 1c4d d5bd d523 14be 7edf b63c
000002e0: 2085 1f3e 5317 333e cd59 f8bd 59e0 09be
000002f0: 8b09 073e 4437 133d 64a9 0fbd ea10 23be
00000300: 00d5 1ebc e808 6abe 6de3 bf3d 902b c03b
00000310: 99fa 2ebe 9d65 0fbe 6598 e7bd 0eb5 4abe
00000320: ac72 623e 36d4 03be 1a00 5fbe 980b 423e
00000330: 0194 a0bc 045d 5abe a5f7 01bd e89c 143d
00000340: 0d5b 3c3e a760 43be a4f6 023e 8f3f 2dbd
00000350: 1365 aabc e4d7 3a3e 90eb bcbd d793 f93d
00000360: a354 09be 7107 8e3c e362 483d aa0e e0bd
00000370: ec7d f8bd 6a55 003e 33c8 49be 3591 1e3e
00000380: 11db 283d 8305 763e 30ce 713e edf8 58be
00000390: dc78 51be bd71 123e a51a 58be be30 cf3d
000003a0: 3047 4ebe 54df 383e 7e13 c63d 43ea 7cbe
000003b0: afd7 f1bd 19ab 543e 238d 8fbe 359f 143e
000003c0: c4cb 653e 53a8 bf3d d274 263e e89e 67be
000003d0: b1d4 db3d 5da5 8f3e 0a9c d6bd 0b9c 67be
000003e0: 313f bf3d 243e a0bd d8b8 92bd 5e5c f8bd
000003f0: 49bd 08be 4178 28be 02cd 143e d771 9b3d
0.06016395 -0.15315625 -0.024265539 0.14465706 -0.110689074 -0.15161894 0.21960625 -0.16923642
-0.18928349 -0.06596049 0.083550826 -0.078771636 -0.028773911 0.16002233 0.09196359 -0.010786818
-0.0138614345 0.210836 -0.12380148 0.011829892 -0.038983826 -0.12618622 -0.119548135 0.057826873
-0.10742671 0.058342133 -0.14549753 0.16110423 0.14848025 -0.0625341 -0.18851958 -0.13840419
-0.11778606 -0.057394158 0.10405063 0.14746125 0.20532256 0.08390761 -0.1552926 -0.03948723
0.21849167 0.049498577 -0.20424673 -0.09963446 -0.09693796 -0.053596735 0.18349896 -0.01611165
0.1336642 -0.20696014 0.18591069 -0.20418274 0.16487518 -0.22300181 0.03246903 -0.08044156
0.019632524 -0.16641049 0.09845707 -0.15990382 0.07424459 0.19642913 -0.10226833 0.017491901
0.01346565 -0.14137276 0.12656975 -0.16205576 0.05496774 0.015862301 -0.06806762 0.10318055
-0.074294575 0.08586076 0.032078512 -0.19129153 -0.21698633 -0.18923607 -0.13993469 -0.21744575
-0.081988744 0.20258544 0.1373924 0.21850727 -0.17566013 0.024094682 -0.035255037 -0.03630074
-0.11092844 0.07433889 -0.17093295 0.003250994 -0.048709113 -0.2068092 -0.16560932 -0.107146546
0.066324174 -0.13608575 0.11672826 -0.016370261 -0.015593405 0.018871559 0.11977129 -0.20076682
-0.011289593 -0.007048915 -0.08016981 0.026383398 -0.19251513 0.09180859 -0.06614191 0.01211882
0.01548337 -0.12975676 -0.09069704 -0.07791808 -0.10509645 -0.06767696 -0.17284395 -0.16104984
0.1104339 0.04381361 0.06960809 0.035186052 0.15051253 0.08597099 -0.1901208 -0.062197756
0.12903655 -0.057336193 -0.09299127 0.16678385 -0.043436892 -0.19637634 -0.076543815 0.14767985
0.22048457 -0.12933156 0.056602098 -0.060573306 -0.19577597 -0.10554115 -0.17990865 0.008751888
-0.03887924 -0.035878886 0.18312934 -0.120496064 -0.05917169 0.018690232 0.08339099 -0.028547127
0.096987166 0.0650408 -0.120984405 0.15314469 0.010011116 -0.15089025 -0.0695028 0.04713249
0.1891791 0.05917625 -0.21256728 0.13527834 0.19462322 0.16683654 -0.19118406 -0.19173807
-0.033972494 0.21030354 0.0001492873 -0.048294976 0.15877047 -0.16723748 0.016956545 0.17594229
-0.11635419 0.13796008 0.03220303 0.16308838 -0.058262996 -0.10415098 -0.14466794 0.022323366
0.15578127 0.17489366 -0.12126503 -0.13464488 0.13187234 0.035941377 -0.035073653 -0.15924421
-0.009694338 -0.2285496 0.0936955 0.005864568 -0.17087783 -0.14003606 -0.11308364 -0.1979563
0.22114056 -0.12873921 -0.21777382 0.18949735 -0.019601824 -0.21324545 -0.031730313 0.03628245
0.18394108 -0.19079839 0.12789398 -0.042296942 -0.020800149 0.18246418 -0.092246175 0.12186401
-0.13411193 0.017337533 0.04892243 -0.10940297 -0.12133393 0.12532583 -0.19705276 0.1548508
0.041224543 0.2402554 0.2361381 -0.21188708 -0.2045626 0.143012 -0.21103914 0.10116719
-0.20144343 0.18053943 0.096716866 -0.24698739 -0.118087165 0.20768394 -0.28037366 0.14513858
0.22441012 0.09358277 0.16255501 -0.22619212 0.10733927 0.2805585 -0.10478981 -0.2261812
0.09338225 -0.078243524 -0.071641624 -0.12126993 -0.13353457 -0.16452123 0.1453133 0.075900726

layers.4.bias f4 [64]
00000000: 924a 0b3c be42 1c3b 21ca b1bb 48f5 fabc
00000010: 1a93 f53b f511 f63c 96c3 de3b 7ae3 5dbb
00000020: 9c18 22bc 3a29 dfba ffb8 123c 7080 a03c
00000030: e628 bf3b deae 263c 4a83 fa3b 27e7 6b3b
00000040: dc41 c5bb eefb c73b 6ba1 103c 9ef8 8ebb
00000050: 39b9 053c 69af 18bc 0c37 603c d946 f63b
00000060: 6361 f0bb b07d 823b 66e7 0f3c e7b7 e4bc
00000070: c889 393b a4bf 58bc bd9c 26bc b640 4cba
00000080: 121c 4b3c 7b37 653c 7c8b 103c 3ca8 f7bb
00000090: 9aba 78b9 89f5 8cbc 35da a2bb 873d e4bb
000000a0: 0ecd ce3b 96c8 f0bb 13b6 6a3b 193d 053b
000000b0: 4e28 cf3c f293 813b 7433 e2bb 9b65 f23b
000000c0: abc7 07bc 1d30 b7bb a59f 013d e4c1 fd3a
000000d0: 6535 1d3b d36d 1fba 9930 f63b c860 02bc
000000e0: f86d 3abc 88b8 1f3c 9900 a8bb ef1f 7ebc
000000f0: e255 cebb 148a b6bb e051 9b3b d1df a43b
0.008501666 0.0023843492 -0.005425707 -0.030634537 0.0074943425 0.03003786 0.006798218 -0.003385751
-0.009893563 -0.0017025836 0.008955239 0.019592494 0.005833733 0.0101735275 0.0076450454 0.0035995932
-0.006019814 0.0061030304 0.008827548 -0.0043631336 0.008161836 -0.009319165 0.013684999 0.00751577
-0.007335828 0.0039822683 0.008783197 -0.027919723 0.0028310884 -0.013229284 -0.010169205 -0.0007791625
0.012396829 0.013990278 0.008822318 -0.007557897 -0.00023720638 -0.017206924 -0.00496986 -0.0069653424
0.0063110655 -0.0073481305 0.003581409 0.0020330606 0.025287773 0.003954404 -0.0069031063 0.007397366
-0.008287351 -0.0055904523 0.03164639 0.0019360152 0.0023988124 -0.0006081734 0.0075131175 -0.007957645
-0.011378758 0.0097485855 -0.0051270244 -0.015510543 -0.006296859 -0.0055706594 0.004739985 0.005031564

layers.6.weight f4 [2, 64]
00000000: 441f 983d 6801 6b3e 6508 e3bd 8d9f 133e
00000010: d63f 903e f108 33bd eca9 b33d 1a86 8fbe
00000020: d2d4 813e 4cdd fbbd 167a 823e e010 ebbd
00000030: a091 643e 399e 103e 879d 283e 1b9e 3d3e
00000040: 90f1 19bd 0633 743e 6779 1e3e f464 163e
00000050: 1331 203e f177 823e 6781 6f3d 4cb5 82be
00000060: e613 9ebe e2ad d33d e890 82be 0115 933e
00000070: 281b 443e 0258 76bd ef72 09be a7ce 193c
00000080: 660d 3d3e a206 1c3e 9ee8 d63c 88bb 63be
00000090: 971b dbbd 7598 84bd 4659 d6bd 0cad 15be
000000a0: 92ad 933e 4cbf 7abe 00a5 703d 2fb1 96bd
000000b0: 510b cbbc 4440 723e 956e a0be 1136 d13d
000000c0: 8664 0c3e c2fa 01bd e81f a1bc d658 383e
000000d0: 3d9f f93c 60c2 45be 3272 873e e7d0 45be
000000e0: d5d6 5c3e b871 6f3e 429e 97be 6fcf 9bbe
000000f0: 9485 35be f68f 7fbe e80e 843e 1674 993e
00000100: 7ee8 8b3e a338 fd3d 8d2e 76be 0b41 94be
00000110: 934c 873e 14ce c13d bef0 813c 7225 b8bd
00000120: a3bb 9fbe 2757 a4be 7723 87be 3c19 683e
00000130: 0f50 db3d d65c 383e 5949 893e 584f 893d
00000140: 24b1 633d bde8 043e 53fe 87bd 27ff 4ebe
00000150: 6e6f 95be 1f8e 53be 729c 9b3e 9858 9cbe
00000160: 8895 4abd c571 463e 3530 64be d062 adb8
00000170: a5c8 4e3e 1d29 a5bd 3c3d 743e d13c 87be
00000180: 004b 39be ecf9 673e 2545 34be 97c7 223e
00000190: 90be 79be fa99 9ebe 18de 1bbe 624a c03d
000001a0: 3850 683e 32cb 9cbd 3777 a8be 9c90 1ebe
000001b0: 70d7 343e e686 533e ba5f ba3d 5f24 c33d
000001c0: 4616 6e3e 6708 0bbe a680 96be 7c56 3d3e
000001d0: 149f 8b3e 634d 96bd 2ee3 8f3e 67ee 923e
000001e0: a863 8f3e 4ff8 73be 0061 ccbd fdac 9d3e
000001f0: 4588 8e3c 9580 a8bd b5c7 31be 1ddc eabd
0.074278384 0.22949755 -0.110855855 0.14416333 0.28173703 -0.0437097 0.087726444 -0.28032
0.25357682 -0.122980684 0.2548377 -0.11477828 0.22321177 0.14122857 0.16466342 0.18517344
-0.037583888 0.23847589 0.15475999 0.14686948 0.1564372 0.25482133 0.058473017 -0.25528944
-0.30874556 0.103359 -0.2550118 0.28726962 0.19150984 -0.060142525 -0.1342275 0.009387649
0.18462142 0.15236905 0.026233967 -0.22239506 -0.10698622 -0.06474391 -0.10466246 -0.14616793
0.2884336 -0.24487036 0.058751106 -0.07358014 -0.02478567 0.23657328 -0.31334367 0.102153905
0.13710222 -0.031733282 -0.019668534 0.18002638 0.030471439 -0.1931243 0.26454312 -0.19317971
0.21566327 0.23383224 -0.2961293 -0.30431697 -0.17726737 -0.2495726 0.25792623 0.2997138
0.27325815 0.12364318 -0.24041195 -0.28955874 0.2642561 0.094631344 0.015861865 -0.08991517
-0.31197843 -0.32097742 -0.26394245 0.22665876 0.10708629 0.18004164 0.26813772 0.06704587
0.055588856 0.12979408 -0.06640305 -0.2021452 -0.29186577 -0.20659684 0.30392796 -0.30536342
-0.04945901 0.19379337 -0.22284015 -8.267688e-05 0.20193727 -0.08064482 0.23851484 -0.26413587
-0.18095016 0.22653931 -0.17604502 0.1589645 -0.243891 -0.3097685 -0.15221441 0.093891874
0.22686851 -0.07655944 -0.32903454 -0.15484852 0.17660308 0.20656928 0.0910029 0.095284216
0.23250684 -0.13577424 -0.29395026 0.18490022 0.27269804 -0.07338979 0.28103012 0.28697512
0.2800572 -0.23825191 -0.09979439 0.30796042 0.017398963 -0.0822765 -0.17361338 -0.114677645

layers.6.bias f4 [2]
00000000: a3a9 da3b 6455 933a
0.0066730543 0.0011240658
