data/20240122/output_net_28000.pth (torch, 38764 bytes, 8 tensors)

layers.0.weight f4 [64, 5]
00000000: ed11 8fbe fa05 a7be a219 4cbd 4904 72be
00000010: ff25 b33e 87b4 6e3d 5083 0cbe cbe0 31be
00000020: c9bb 8a3e cfdc 1abe da07 5fbe 22f8 6d3e
00000030: b0a1 94be 3080 9b3e a972 603f debe a8bc
00000040: e362 91be 936f cabd b457 463e 70ce bebd
00000050: 8dd7 d03d e6af 453e 70bb a3be b674 22be
00000060: 7cde 07bd 7485 933c aa2f 7cbe fdf3 fb3d
00000070: ffc0 6fbe d2d0 46be 28d9 273e 994d 9a3d
00000080: 1f5f 8c3d 78fc 0dbe 0c42 a73d 6342 09be
00000090: 33eb 103a 0cc4 023e 6bbb 0d3e 9908 0fbe
000000a0: 2ed1 943e c0b2 943e 5b98 103d 7c36 6e3c
000000b0: 9ad2 893d 7a43 7bbe a768 6ebe 68ac 09be
000000c0: 9faa 14bd f576 223e 5aba 85be d3ca a63e
000000d0: 99db 893e 35e8 933e 8b49 ecbd d909 73be
000000e0: aedb abbe f5a2 9abe 8a50 2e3e a27d f6bd
000000f0: ed39 033e 8276 d13d 0bfd de3d 3982 10bd
00000100: e449 d03e 281d a9be 9571 92be a24c 263e
00000110: 471a 863c 0b85 e7bd 9811 9e3d 2008 3dbe
00000120: 111e a4be 2bc2 803e a887 74bd b48b 233e
00000130: 7939 ecbd 9bcf 7ebe e0d7 76be 5a50 283e
00000140: 0442 54bc 8294 42be 699c 92be 9de1 7bbd
00000150: ef0a 80be e478 19be 8705 8ebd 0855 113e
00000160: 9ba8 4e3e ca56 81be 6b1b 1d3e 6d5c e43d
00000170: 5310 71be 4d56 ccbc 2e55 0d3e 57da 323e
00000180: 399f ee3c d2a3 393e 1896 2cbd 5892 5dbe
00000190: 7591 643e 62ce 3dbe ef3c a1be 939b 77be
000001a0: c1e8 343e c422 91be bb89 c5bc c19f 9cbc
000001b0: 2657 a7be 86d1 553d 2fe4 16be f2c0 14bc
000001c0: 6386 94be c5a9 983e 8ab5 c93d ff9d c33e
000001d0: 7744 73be cffd 45be d4b3 643d a39a 693e
000001e0: 30d2 5a3e e0b5 a4be c36c 50be b931 97be
000001f0: cfea d9bd 5864 8dbe 8ac8 a03e fc42 c3bd
00000200: 8419 603e 647b 943c fb3b 953e 1a54 893e
00000210: 54f2 3abe fe88 c73c ea8a 1cbd 462c 663e
00000220: 9764 993e 0d98 03be a123 863b 443d 8d3e
00000230: fa39 0dbd 3b58 32bd 8210 99be 567d 29be
00000240: 8fb1 ddbd c5ed 4b3e af23 dd3b 6732 85be
00000250: b040 273e 9e1b 29be 83ac 203d f777 9fbd
00000260: e463 a33e c0b8 613c b742 593d c17f a6be
00000270: 699a 83be 2443 913e cac7 03be 26cb 8ebe
00000280: 685f dbbd c549 733e bffb 51be 9fe3 143d
00000290: 095c b83d 67ce 89be 4081 68bd ef39 aebd
000002a0: b2c6 49be fbba 34be 458d 663e 5954 8a3e
000002b0: 738a 7dbe 0e3d 8f3e b031 553d 3310 8ebe
000002c0: b5b3 f43d c63a 103d 9889 99be 9b42 6a3e
000002d0: ac12 103e 5413 2cbe 9c6d 813e 1969 03be
000002e0: 682a 143d 7897 b7be a62c ed3d 52b6 67be
000002f0: 0bdf a03e bd47 873e 14e1 2bbe 95ea 2837
00000300: 2891 ffbd 6e05 61bd 1eca 463e f2d8 983e
00000310: fb2d 973d 70b1 c4bc 8a5f 0abe 35cf 81bd
00000320: a520 823e 9940 00bd 4c0e 783e c633 723c
00000330: 2991 74be 1605 843e a9f9 90bd b606 8dbe
00000340: d4bf 96be c7c0 4a3d a421 8c3e 2201 b23e
00000350: 978d 96be b2b4 23be 185d 79be 0293 57be
00000360: b6ed b53d 1e0b 17be c8b1 2bbe ef3b 8f3c
00000370: ede6 243e 67c3 8c3e 404f 8ebe 8a59 9f3c
00000380: 897e 1dbe 74f5 7cbe 584e ad3e d907 00be
00000390: 036c 0b3e 1a20 543e ac45 4ebe 1002 5ebd
000003a0: 7f54 51be 1961 04bd 15b5 5dbe 9c1e 7b3e
000003b0: 090d 0e3e 1c88 5b3e 0b68 aabd 4f89 ae3d
000003c0: fc4d 813e 79b3 4abe 1d86 eebd a890 16be
000003d0: 3765 0cbe 6946 bdbe ad5d b9be 6d22 fd3d
000003e0: 6f96 86be 20c7 4cbe d447 80be 8178 1ebd
000003f0: ffbe 863d 4f30 66be 542d e93d f2e1 2d3e
-0.27943364 -0.32621747 -0.049829133 -0.23634447 0.34989926 0.058277633 -0.13721967 -0.17370908
0.27096394 -0.15123294 -0.21780339 0.23239186 -0.29029608 0.30371237 0.8767496 -0.020598825
-0.28395757 -0.09884562 0.19369394 -0.093167186 0.10197363 0.19305381 -0.3197894 -0.15864834
-0.033171162 0.018007971 -0.24627557 0.123023964 -0.23413466 -0.19415596 0.16391432 0.07534332
0.068540804 -0.1386584 0.08166894 -0.13404231 0.00055282115 0.12770098 0.13841026 -0.13968123
0.2906584 0.29042625 0.035301547 0.014539357 0.06729622 -0.24537459 -0.23282109 -0.13444674
-0.03629553 0.15865691 -0.26118737 0.32576618 0.26925352 0.28888097 -0.11537465 -0.23734225
-0.3356604 -0.3020245 0.1702291 -0.12035681 0.12815066 0.10227682 0.10888108 -0.03528044
0.40681374 -0.33030057 -0.2860228 0.1624017 0.016369952 -0.11304673 0.077181995 -0.1846013
-0.3205419 0.25148138 -0.059699684 0.15971261 -0.115343995 -0.24883883 -0.24105787 0.16436902
-0.0129551925 -0.19001964 -0.28634956 -0.06149446 -0.25008342 -0.14987522 -0.06934648 0.14192593
0.20181505 -0.25261527 0.1534249 0.11150441 -0.23541383 -0.024943495 0.13802025 0.17466103
0.029128658 0.18128899 -0.042135328 -0.21637857 0.22321112 -0.1853576 -0.314918 -0.2418044
0.17666914 -0.28346837 -0.024113527 -0.019119145 -0.32683676 0.05220177 -0.14735483 -0.009079205
-0.2900878 0.29817024 0.09849079 0.3820648 -0.23756586 -0.19335102 0.05583556 0.22812895
0.21369243 -0.3217001 -0.2035399 -0.29530123 -0.10640489 -0.2761562 0.31403 -0.09534261
0.21884733 0.018125243 0.29147324 0.26821977 -0.18256503 0.024357315 -0.038218416 0.22477826
0.29959556 -0.12850972 0.0040936028 0.27585804 -0.03447912 -0.043541174 -0.29895407 -0.16551718
-0.10824882 0.1991492 0.0067486386 -0.26015016 0.1633327 -0.16514441 0.03922702 -0.07786553
0.31912148 0.013776958 0.05304214 -0.32519343 -0.25703743 0.28371537 -0.12869182 -0.27889365
-0.10711557 0.2375861 -0.2050619 0.03634989 0.09001929 -0.26915285 -0.056763887 -0.08507144
-0.19704702 -0.17649452 0.22514828 0.27017477 -0.24759845 0.2797627 0.05204934 -0.27746734
0.11948339 0.0352123 -0.29987788 0.2287697 0.14069623 -0.16804248 0.25278938 -0.1283306
0.036173254 -0.3585775 0.11580782 -0.22628143 0.31420168 0.2642192 -0.16785079 1.0068198e-05
-0.12478858 -0.05493682 0.19413039 0.29853016 0.07381817 -0.02401039 -0.13513008 -0.0633835
0.2541553 -0.031311605 0.24224204 0.014782852 -0.23883499 0.2578513 -0.07078869 -0.27544183
-0.29443228 0.049500253 0.27369416 0.3476649 -0.294049 -0.15986899 -0.24351919 -0.21052173
0.088832304 -0.14750335 -0.16767037 0.017484633 0.16103716 0.2749283 -0.27794838 0.019451875
-0.153803 -0.24703008 0.33848834 -0.12502994 0.13615422 0.20715371 -0.20143765 -0.054201186
-0.20442389 -0.032319162 -0.21651109 0.24523395 0.1387216 0.2143864 -0.08320626 0.08522283
0.2525481 -0.19795026 -0.11646674 -0.1470362 -0.13710485 -0.3696778 -0.3620428 0.12360082
-0.26286647 -0.19997835 -0.250548 -0.03868914 0.06579398 -0.22479366 0.11385599 0.16980723

layers.0.bias f4 [64]
00000000: 486b 04bd 3954 6e3a 3d28 0c3e 114e 043c
00000010: 2758 133d 18f1 293c 3730 95bc 3bdc b2bc
00000020: cf54 7238 92ae 633d 0247 123d 2f7a 893d
00000030: 5362 46bd ac06 64bd e930 ae3c e6dd 163c
00000040: 1097 42bc 1467 773c 1691 2cbb 96b9 53bb
00000050: c8c4 d03d ea7d a9bd 9498 213c ba23 1e39
00000060: 041e 4f3a a9a1 2e3c 8851 ef3c c014 17bc
00000070: 93cb 823c 130e 253b 695b b33a bd05 cbbc
00000080: d17e 663c 8220 0f3b 3641 593c 725a 91bd
00000090: 2040 f3bb 92a9 2c3d 2905 243d 25d5 533d
000000a0: d743 353c 20ae aebc 037a 453d 0a48 053a
000000b0: 236d 303b 4f12 683d 4026 75bc 5327 07bc
000000c0: 4acc 0fbb 6da9 52bd f00c b9bc af40 dabc
000000d0: 6993 1bbc 8ab7 2abb 35dc 1ebd 7812 8abc
000000e0: cf29 51bc 25d0 08bc 9af7 08bd 24a4 d93c
000000f0: e123 60bc 1c2a 633c 555f f93c d4d9 923d
-0.032328874 0.00090915296 0.13687225 0.008075253 0.03597274 0.010372423 -0.018211467 -0.02183353
5.777628e-05 0.055586405 0.03571225 0.06712758 -0.048433613 -0.055670425 0.021263557 0.009208178
-0.011876836 0.015100259 -0.0026331595 -0.0032306663 0.10193783 -0.08275969 0.009863038 0.00015081363
0.0007900896 0.01065866 0.029213682 -0.009221256 0.015966212 0.002518539 0.0013683859 -0.02478301
0.014068321 0.0021839445 0.013260176 -0.07097329 -0.007423416 0.042153902 0.040043984 0.051716942
0.011063538 -0.021323264 0.048212063 0.0005084282 0.002692052 0.056658085 -0.014962733 -0.008249122
-0.0021941834 -0.05143111 -0.022589177 -0.026642172 -0.009495595 -0.002604934 -0.038784225 -0.01685451
-0.012766316 -0.008350407 -0.033439256 0.026567526 -0.013680429 0.01386502 0.030440966 0.07170454

layers.2.weight f4 [64, 64]
00000000: 9542 f3bc 71ae 45be 1e8a a23c 6666 0a3e
00000010: 8556 c83d f9d5 0d3e c717 153d b28b 003e
00000020: b193 6cbc a385 0ebe b849 7d3c 85ab 5bbc
00000030: 95f3 94bd 67d8 edbd 0df4 1cbe 20d8 263e
00000040: 4b70 473e f829 7c3d 13ea 87be baec c0ba
00000050: c99d 32be 1347 953d 5190 0e3e 98b3 233d
00000060: 231b 16bd 5fa3 fd3d e078 22be 9c23 fbbd
00000070: fbb3 42be a411 3b3e 5053 edbd bc71 f33d
00000080: 5b63 c1bd ebcf d5bb 5cdc 76be 845b 9b3d
00000090: bd67 da3d 9a81 40be 4f84 26bd 8775 8f3d
000000a0: 0c4c 453e 1bae 403e 519c 75bc a436 423e
000000b0: 4a4a 3cbe 21d8 3ebd ce7c 22bc 5736 4cbe
000000c0: e689 343e b61a bb3d b48d d53d 11dd aebd
000000d0: 9f86 bf3d 9e4a 203e 556e 99bd aa83 4bbc
000000e0: 5010 323e 36ee 3cbe 5520 e83d 7325 bfbc
000000f0: 7c47 a93d ec29 16be 7a7a 97ba 5426 243e
00000100: ed50 dabd 1f5e 8fbd 3f8b 2abe 723a 173e
00000110: bcd4 04be 9189 343e e30f 81bc afe1 713e
00000120: 83f5 02be 553c 5e3e b53b 7d3c fcfc e5bd
00000130: e4be d2be 6caf f13d 07fc 273e 0aaa bc3a
00000140: 364c 2d3d f3d2 3d3d b615 5bbd a345 aabd
00000150: 941f 413e 7706 193e ab85 093e 45f8 4abe
00000160: c050 2f3e c79c 01be f0b3 c9bc d574 c7bd
00000170: 6485 f33d 0800 0ebe b8be 233d d240 84bd
00000180: cf5d 34be 0658 433d ea7b c7ba d35b 66be
00000190: 2598 3cbd c328 45be 49a2 fc3d cae4 1dbe
000001a0: 7e2a 363e ba82 0ebe 9a63 12be f921 113d
000001b0: 0dbc 003e 34e2 53be bcea c23e 3ccd 44be
000001c0: c312 98bd 3442 b23c 9300 3a3d 4df6 63be
000001d0: 35aa 3dbe 9e48 50be 4f21 00be 27c2 2dbe
000001e0: 105a 473e 6bfc 1dbe 074f 82be 3929 0bbd
000001f0: 1e60 8a3e 0f70 b93e be97 6fbe fd1c 963c
00000200: 5494 fcbd 6a68 233e c0a5 863c 2351 913e
00000210: 0966 78be d8bb 20be 5cd5 023c 8e08 023e
00000220: 7717 8fbe 4e7b c83d 6067 2abe a875 283e
00000230: 9389 47be d8c2 5a3e 5e04 c13d 5756 3bbe
00000240: 3fba 84bd bd5a f2bd 0d0d 6dbe b46a b1bd
00000250: 692f 223e 21a8 373d 9eb0 823d f618 f13c
00000260: 6900 adbd e17a 7cbd 2e11 22be 2387 61be
00000270: 1947 5dbe 106a 183e fb4a 6cbd cba0 6bbe
00000280: 7c1c 6dbd b7b1 2ebe b3f3 6e3e 60da 2b3d
00000290: d64d edbd 0335 0ebe 7aff 473e 4c03 98be
000002a0: 58fb a13c 4f7f bdbd 0c74 afbe 6792 25be
000002b0: 72ee c7bd 50cd 123e 3596 18be 68ae eabd
000002c0: d651 263e 23da b13c 6c07 8b3c 876a b0bc
000002d0: cbef 1abe 32e1 6bbd 8ba4 6bbd 2e89 17be
000002e0: c914 04be 3f63 123e 2442 3c3d c8db dcbd
000002f0: 41e2 1bbd 9249 c13d 80dc a5bc 994a 21bd
00000300: e9ca 34be fcd6 ad3c 99c1 163e 3501 62be
00000310: 91a9 25be b10f 05be 4957 0d3e 6500 4f3e
00000320: 827a 523e 9853 b0bc 6c66 acbd 5a35 b43d
00000330: 39dc b83c 7d8c 4e3d 9070 b7bd 228c 843d
00000340: e812 55be 5d37 283e 485d 253e df3e 5cbe
00000350: 18dc 5cbe 50b8 36bb d151 033d f693 00be
00000360: fb3e 31be 2eaa 2abd 226a 453e 58e6 ffbd
00000370: fca4 ddbd 448b 3b3e e11c 0f3e b32b 313e
00000380: 3d2b d5bc e0e1 e43d 2d3c 9dbc 13f2 283e
00000390: 2be2 72bd 295e 243e e6ff 1e3e 8f62 9dbd
000003a0: a847 133e fa29 2abe 63e0 e93d de72 843c
000003b0: 1aa0 423d f8d8 2d3e f2f5 58be b378 993d
000003c0: 5f8c 8ebd b174 f1bd 7a01 2f3d cc66 c73c
000003d0: b884 2fbe 94a3 0cbe a6cc 6fbc fca1 5d3e
000003e0: fabd 09bd 3539 4d3e e3f7 41be bcaa 64be
000003f0: 5bfd d3bc f221 d53c 581b 523e dac9 0f3c
-0.029694835 -0.19304825 0.01984125 0.13515624 0.09782127 0.13851155 0.03639963 0.1255329
-0.014439509 -0.13918166 0.01545947 -0.013407593 -0.07273022 -0.11613541 -0.15327473 0.16293383
0.1947643 0.061563462 -0.26545772 -0.0014718988 -0.17443003 0.07288947 0.1392224 0.039966196
-0.036646973 0.12384676 -0.15866423 -0.12262651 -0.1901397 0.18268448 -0.11588156 0.118869275
-0.09442779 -0.00652503 -0.24107498 0.075858146 0.10664318 -0.18799439 -0.040653523 0.070048384
0.19267291 0.18816416 -0.014990882 0.18966156 -0.18387714 -0.046592835 -0.009917451 -0.19942604
0.17630729 0.09135954 0.10427418 -0.08538259 0.09351849 0.15653464 -0.07491747 -0.012421528
0.17389035 -0.18450245 0.11334292 -0.023333287 0.08265588 -0.1466443 -0.0011556887 0.16030246
-0.106599666 -0.07000374 -0.1665468 0.14768389 -0.12971777 0.17630602 -0.015754646 0.23621248
-0.12788968 0.21702702 0.01545613 -0.112298936 -0.41161263 0.11801037 0.16404735 0.0014393937
0.04230901 0.046343755 -0.053487502 -0.083140634 0.18859702 0.14943872 0.13429897 -0.1982127
0.17120647 -0.12657462 -0.024621934 -0.09739081 0.118906766 -0.138672 0.039976805 -0.06457676
-0.1761391 0.047691368 -0.0015219424 -0.22495966 -0.046043534 -0.1925383 0.12335641 -0.15419307
0.17789647 -0.13917056 -0.14295807 0.03543279 0.12571736 -0.20691758 0.38069713 -0.19218916
-0.074254535 0.021760084 0.045410704 -0.22261925 -0.1852196 -0.20340201 -0.12512706 -0.16968594
0.1946795 -0.15428321 -0.25450918 -0.03397486 0.27026457 0.36218306 -0.23397729 0.01832437
-0.12332979 0.159578 0.016436458 0.28382215 -0.24257673 -0.15696657 0.007985439 0.12698576
-0.2794759 0.097891435 -0.16640997 0.16451132 -0.19486074 0.2136339 0.09424661 -0.18294655
-0.06480836 -0.11833713 -0.2314951 -0.0866293 0.15838398 0.044838075 0.06381343 0.029430848
-0.08447344 -0.061640624 -0.15826866 -0.22024207 -0.21609153 0.1488421 -0.057688694 -0.23010556
-0.057888493 -0.1705998 0.23335151 0.041956306 -0.11587112 -0.1388741 0.1953105 -0.29690015
0.01977317 -0.09252798 -0.34268224 -0.1616913 -0.09762277 0.14336133 -0.1490105 -0.114590466
0.16242155 0.021710461 0.016971312 -0.021535171 -0.15130536 -0.05758781 -0.057529967 -0.14798424
-0.12898554 0.14295672 0.045961514 -0.107841074 -0.03805757 0.094378605 -0.020246744 -0.039377782
-0.17655529 0.021220677 0.14722289 -0.22070773 -0.16177966 -0.12994267 0.13802828 0.20214994
0.20554546 -0.021524236 -0.08417973 0.087992385 0.022565948 0.05042695 -0.089570165 0.06472041
-0.20807993 0.1642737 0.16148865 -0.21508358 -0.21568334 -0.0027880855 0.032060448 -0.12556443
-0.17309181 -0.041666202 0.19278768 -0.124951065 -0.10822484 0.18314844 0.1397586 0.17301826
-0.026021594 0.11175895 -0.019193733 0.16498594 -0.05929772 0.16051544 0.15527305 -0.07684814
0.14382803 -0.16617575 0.114197515 0.016168054 0.047515966 0.16977298 -0.2118757 0.07493725
-0.069603674 -0.11789835 0.042726018 0.02434101 -0.17140472 -0.13734275 -0.014636194 0.21643823
-0.03362844 0.20041354 -0.18942218 -0.22330755 -0.025877645 0.026017163 0.20518243 0.0087761525

layers.2.bias f4 [64]
00000000: 38cb c4bc 6807 c2bc db45 153d 0375 893a
00000010: ac74 593d c9be 4c3d fb0c e03b 7066 1c3d
00000020: 086e 9a3c 8c7d 8b3b 25d9 d43b 42e4 4abb
00000030: ccbc 7abb 2039 09bd a07a d53b 4d8d 423b
00000040: 6b27 1aba 2c58 0bbd a0d0 2ebc 9864 5f3c
00000050: 70e1 e63b a396 8abc e097 73bc fd81 babb
00000060: 926e c0bd 67b5 2d3d 1e82 13bc 2e96 01bc
00000070: 242f 0dbb b908 473b 072c 98bd 8ae5 e43b
00000080: 180d 06bc 7d2b b9bb 023f e73b 182c 56bd
00000090: eebc 0f3d 32f8 713c 4cc4 deba 0973 513b
000000a0: b2a4 a5be b62a 2e3c edd5 62bb 516e 32bb
000000b0: c906 b5bb 1f61 d7bc e5cc 893c 4d9b 04bc
000000c0: e63b cf3d a446 9cbc 69bd 32bc aa35 90bc
000000d0: 5300 d1bc 5dbb 943d 1992 c73c 6390 20bc
000000e0: b6ed 3d3d 2448 83bc b963 32bc fbf9 e23a
000000f0: 7dfd 8f3c 781b 5fbb 51eb 833c 2583 153b
-0.024022684 -0.023685172 0.036443572 0.0010487143 0.053089783 0.049986634 0.006837485 0.03818363
0.018851295 0.0042569097 0.006495612 -0.0030958806 -0.0038259504 -0.033501744 0.006514862 0.0029686273
-0.00058805075 -0.034019634 -0.010669857 0.013634823 0.007045917 -0.016917532 -0.014867753 -0.0056917653
-0.093960896 0.042409327 -0.00900319 -0.007909341 -0.002154299 0.003037019 -0.074302725 0.006985371
-0.008181833 -0.005650936 0.0070570717 -0.052288145 0.035092287 0.014768647 -0.0016995757 0.0031959435
-0.32352215 0.0106303 -0.0034612373 -0.0027226398 -0.0055244905 -0.026291428 0.016821334 -0.008093667
0.101188466 -0.019076653 -0.010909417 -0.017603714 -0.02551285 0.07262299 0.024361657 -0.0098000495
0.046369277 -0.01602561 -0.010888034 0.0017316932 0.017576927 -0.0034043472 0.016103419 0.0022813764

layers.4.weight f4 [64, 64]
00000000: 0274 3dbe 6ef5 563d 0e17 283e 7f33 183c
00000010: 660d f23c 02b7 70bd e146 053d bb3b 253e
00000020: 264d 47bc 3b82 83bd e82a 98bd ffe9 52be
00000030: b34b 16be a2e7 13be 6714 1abd 5f3f 3fbe
00000040: 1712 4e3e 5acf babd 99a1 253d 39f1 54bd
00000050: aeae db3c ad9b 8ebc 4852 cbbc 4920 293e
00000060: 6a66 463d 369d 47be c514 d83c 9012 dbbd
00000070: be37 52bd 24d0 053e f0e0 1bbe ae52 7abe
00000080: 0646 c0bd aefc cc3d ad05 2a3e 232b 6b3b
00000090: c5af 60be 856c 803d 7bf3 7ebe b7ca 23be
000000a0: 6405 6c3e 2c31 33be b4aa 643e e462 833d
000000b0: a69f 813e 0c1e 453c fb3d 713e 4e5d efbd
000000c0: 569f 1cbe 16f8 16be c623 b73d 0cc6 10be
000000d0: 73ee 6a3e a30e e9bc 29dc 693e a3bf 97bb
000000e0: 3556 163e 74f0 6abd 2421 c1bd 365b 38be
000000f0: 5aaa 023e adb9 fa3d 0f91 013e 4c5e 28be
00000100: b62c 893d 50a0 a03d 1f03 bb3d 405e 0a3e
00000110: c4b3 73bd 7bab 5abe 7f96 5ebe e3c5 183d
00000120: fef7 a6bd 5c7c 603e 43fa debc 3477 16bd
00000130: 963a 48be ac4d e33c 95fa 863d ba75 30be
00000140: fc73 983d f1da ba3d 5f92 47bb e79c 16be
00000150: 1825 2e3e dcdb 6c3c db50 763d e61b 04be
00000160: 30cc c9bd 9510 1c3d 15b1 033d ae7b 8b3c
00000170: b1e2 4bbc 5f1f 8abd dccd 08bd 5e2d 78bd
00000180: 24a8 f33d c84a 493d 970f 4ebe c0cd 5a3e
00000190: f805 6bbd 1293 3dbe 05b4 8f3e a2de 3cbd
000001a0: 2272 1b3e 20e0 693e 9c81 fd3d 29cb 39be
000001b0: 9b92 5abd 1453 3a3c 3716 663e 6496 f13d
000001c0: 391f 973d bf01 393d 3992 f43d f9f9 d3bd
000001d0: adbc 073e ddd4 fb3d 6163 f53d 976a 3cbd
000001e0: aea3 25be 2c65 df3d 79f4 a43c de6f 0dbe
000001f0: 466a 31bc 8e98 36be d3e8 1abe 3253 593d
00000200: d1bd fd3c 46c8 093e 448a ebbd 4b0a 05bd
00000210: bde8 293d a711 5cbd 6368 d43d 8639 173e
00000220: 5fc9 843d 0d15 b03c 4263 98bd cb7a bcbc
00000230: 294d e23d d8ab b73c e38b aebd 75ac 883d
00000240: 4fdf d33c 5ad3 5ebe a19e b23d 6926 46bd
00000250: d9f9 f0bc bb61 1bbe aa9a 653d 93b8 043e
00000260: b2e1 2ebe 6bf9 ba3d 6469 91bd 011a bebd
00000270: 4635 903d d409 19be 2c4c 593c ade7 a9b9
00000280: 911b 253e 5c4a 253b 4fa3 5c3e 079e 1fbd
00000290: 858c 32be 152e b4bc b2ee 02bd 9d77 493d
000002a0: 60ad a43d eee6 923d 490d 0d3e 7e69 bb3c
000002b0: d76a 563d 0ccc 143d c254 d939 ac9b 04be
000002c0: 72fa 13be 9708 f93d c006 3b3d d648 b13d
000002d0: a97c 80bd f88e bfbd 9be9 10be fcb2 b23d
000002e0: 4c28 76bd 23c6 47bd 33a0 e33d 5218 af3d
000002f0: 00fd 0cbd 847d 5f3e 664a 84bd 0147 74bd
00000300: 93d7 3b3c 9d3b 96bd e51c c7bd 1d93 253e
00000310: 7c3d 0bbe b33a 12be 6ade eb3d c06f bd3d
00000320: a974 ab3d e4b5 ce3d d315 e2bb af64 363e
00000330: fe23 ddbd 52f3 933d 2e53 a6bd 0b61 bf3d
00000340: 4a05 05be 7666 18bd 28fa 86bd 49d3 5f3e
00000350: 9278 293e 259e 263e c2a4 f03d 6ac8 a3bd
00000360: 6d2e 4f3c e523 003d e12a f8bd e8c8 28be
00000370: 53cc 983c 371f f8bb 407f 663e d069 853c
00000380: 3a49 cf3d 381d d8bd d1c3 33be 39fe 363e
00000390: b54f 62bd 5135 0bbe eb84 53bd aa1b 0abe
000003a0: 2ea4 353e 2316 9bbd ecbb 58be 5111 ebbd
000003b0: 4f00 90bd 4167 eebd 43e4 4f3e 35f8 443e
000003c0: a734 133d 7107 1c3e 265c af3d 801a 123e
000003d0: cb42 9dbd 4ab2 263e 1307 10be 6651 9b3d
000003e0: 65b4 703e 792f 173d 989a d7bc 7e63 35be
000003f0: c61e 6bba 2c51 1abe d1e5 83bd 49d4 cebd
-0.18501285 0.052480154 0.16415045 0.009289621 0.029547404 -0.05876828 0.0325383 0.16136067
-0.01216439 -0.06421324 -0.07430059 -0.20597075 -0.14677314 -0.1444383 -0.037617113 -0.18676518
0.20124088 -0.091215804 0.040437315 -0.05198786 0.026816692 -0.017408216 -0.024819508 0.16516222
0.048437513 -0.19493565 0.026377091 -0.106969 -0.05132269 0.1306768 -0.15222526 -0.24445602
-0.09388356 0.10009132 0.16603728 0.0035883866 -0.21942051 0.062706985 -0.24897568 -0.15995298
0.23048931 -0.17499226 0.22330743 0.06415346 0.25317115 0.0120310895 0.235588 -0.11687718
-0.15295157 -0.14743075 0.0894237 -0.14138049 0.22942524 -0.028449362 0.2283789 -0.004630999
0.14681323 -0.05735822 -0.09430149 -0.18003544 0.12760296 0.12242446 0.12652992 -0.16442221
0.06697981 0.07843077 0.09131455 0.13512516 -0.05949761 -0.21354477 -0.21737097 0.037298094
-0.081527695 0.2192244 -0.027218943 -0.036734775 -0.19553599 0.027746998 0.065907635 -0.17232409
0.07443997 0.09123791 -0.0030452234 -0.14708291 0.17006338 0.014456715 0.060135704 -0.12901267
-0.09853399 0.03810175 0.0321513 0.017026749 -0.012444184 -0.06744265 -0.033399448 -0.06059014
0.11897305 0.049143583 -0.20123135 0.2136755 -0.05737874 -0.18513134 0.28067032 -0.046110757
0.15180257 0.22839403 0.12378237 -0.18143906 -0.05336247 0.011372346 0.22469412 0.11796263
0.07379002 0.04516768 0.11941952 -0.10350413 0.13255568 0.1229646 0.11981846 -0.04600009
-0.1617572 0.10907969 0.020136105 -0.13812205 -0.01082856 -0.17831632 -0.15127878 0.053057857
0.0309743 0.13455305 -0.115009815 -0.03248052 0.041481722 -0.053727772 0.10371473 0.14768037
0.06483721 0.021494413 -0.07440807 -0.023007771 0.110498734 0.022420809 -0.08522775 0.066735186
0.025863318 -0.21760312 0.08721662 -0.048376475 -0.029416012 -0.15174 0.056055702 0.12961034
-0.17078283 0.09129604 -0.0710018 -0.092823036 0.07041411 -0.14945155 0.01326279 -0.00032406804
0.16123797 0.0025221324 0.21546672 -0.038969066 -0.17436416 -0.02199463 -0.03196592 0.049186338
0.08040881 0.071729526 0.13774599 0.022877451 0.052347984 0.036327407 0.00041452615 -0.12950009
-0.14451006 0.121598415 0.045660734 0.086564705 -0.06273777 -0.09353441 -0.14151613 0.08725545
-0.060097024 -0.048772942 0.1111454 0.085495606 -0.034420967 0.21825224 -0.06459503 -0.059638027
0.011464971 -0.07335589 -0.09722308 0.161694 -0.13597673 -0.14280204 0.115170315 0.0924983
0.083718605 0.10093287 -0.0068995743 0.17811845 -0.107978806 0.07224144 -0.08121334 0.09344681
-0.12990299 -0.03720709 -0.06590682 0.21857943 0.165499 0.16271265 0.11750175 -0.0799721
0.012645346 0.03128423 -0.121175535 -0.1648289 0.018652117 -0.0075720805 0.2250948 0.016285807
0.10121389 -0.10552448 -0.17555167 0.17870416 -0.055251796 -0.13594557 -0.051640432 -0.13487116
0.17738411 -0.075725816 -0.21165437 -0.11477912 -0.07031309 -0.11640788 0.20301919 0.19235308
0.035938885 0.15237214 0.08562498 0.14267921 -0.076787554 0.1627895 -0.14065199 0.07583885
0.23506315 0.036910508 -0.026318833 -0.17713735 -0.0008969124 -0.15070027 -0.064403184 -0.10099084

layers.4.bias f4 [64]
00000000: 0804 b43b 468c 27bb 738c 2ebb 6908 17bc
00000010: 63ad d03c 78b0 483d d8e0 253c a824 7a3c
00000020: cc28 94bc 075c 75bc d416 a4bc 73dc 9fba
00000030: 6f24 b13b aaca 673b 0608 aabb 9e2d 22bc
00000040: 19b5 663c f6e9 3ebc e900 543c c9eb acbc
00000050: 6eac 07bc 4a24 efbc 28b8 893c b93a 6eba
00000060: 4445 3ebc 4b03 91bb b52d 3d3c 3453 ffbb
00000070: 395d 04bc 7676 aabb d24b df3c 3a20 2f3c
00000080: 87fd a73c e403 32bc d709 8b3b 7ed3 5f3c
00000090: dfde 3bbc 0f94 99bc 2724 643c d694 703c
000000a0: 9820 1dbc fc56 833b c0f4 b5bc 52c2 4bbb
000000b0: d288 80bc 8747 a73d 3336 39bb a9ec 5d3b
000000c0: ee3f 3abc 8eea 323c 9d5b ae3b 27a9 90bc
000000d0: 4041 70bb f12c 13bc 70b1 fb3c fc56 ba3b
000000e0: d450 3fbc c21e fcbb c046 90bb cfe0 793c
000000f0: 799b 8ebc 2459 b23a 8706 8a3c f0ef 62bc
0.0054936446 -0.0025565787 -0.0026634007 -0.009218314 0.025473302 0.04899642 0.010124408 0.015267529
-0.01808586 -0.014975554 -0.020030417 -0.0012196436 0.0054059546 0.00353686 -0.0051889447 -0.009898571
0.014081263 -0.01165246 0.01293967 -0.021108525 -0.008280857 -0.029192109 0.016811445 -0.000908773
-0.011613194 -0.0044254414 0.011546542 -0.007791901 -0.008078867 -0.00520211 0.027257834 0.010688836
0.020506633 -0.010865185 0.0042431164 0.0136612635 -0.011466711 -0.018747358 0.013924635 0.014683923
-0.0095902905 0.004008172 -0.022211432 -0.0031091166 -0.015690241 0.0816794 -0.0028261065 0.0033862984
-0.011367781 0.01092018 0.0053209797 -0.017658783 -0.0036659986 -0.008982883 0.030724257 0.005686639
-0.011676986 -0.0076940963 -0.0044029653 0.015251352 -0.01740812 0.0013606888 0.016848816 -0.013851151

layers.6.weight f4 [2, 64]
00000000: 2735 86bc ee6b 9b3e 1790 4fbe 8e16 03be
00000010: fb6d 693d ebfc d33c 5815 863e 15aa 9a3d
00000020: ba65 8dbe 2bef e4bd 9c94 64bd ba45 d0bd
00000030: 8fed 713d 29c0 323e 1999 d13c 8da4 3dbe
00000040: 987a 833e b6f4 0abe 1099 3cbe 1a62 f5bd
00000050: 3939 a1be 201a 9cbd c872 12be b899 0fbe
00000060: dbfe 37be fd0c 183e 5235 d93d 4d24 9fbe
00000070: d709 12be 39be a5be 9618 5b3e 4fad 9d3d
00000080: 861f 903d 868e 9ebe 1613 933e 9889 513e
00000090: d8e3 4abe 7020 80bd 7914 e23d 06d3 783d
000000a0: 2067 193e a1d4 51be 8243 ab3e b559 893e
000000b0: c68f 39be 0fba a4bd a547 99be a3ec 88be
000000c0: 1946 31be 3434 a53e 5d38 2a3e da50 abbd
000000d0: 57d4 1d3e 03da 2dbe 17a4 0d3e 1690 813e
000000e0: 5156 f03d 1ada 50be 7108 e6bd c128 7b3e
000000f0: f479 97be bf72 473e 5bc8 d13d 73ae 09be
00000100: dbc3 a63e b04f 103e 44fc 6cbe a2db 2b3e
00000110: 6021 94be 33eb 2ebe 5061 cdbd dd7a 043e
00000120: b491 9a3e faba a83e 238b 8c3e 44ba 80be
00000130: 5de5 fe3d e1ec 8bbe 874a 24bd 67fc 8fbc
00000140: 0517 4fbe 321d 903e 6523 a4be 8de9 0cbe
00000150: 13dd e93d 34c6 703d 9dbc 8ebe 7083 b2bd
00000160: d8a2 69be 4bc2 2a3e 1d75 80be a735 dc3d
00000170: bae0 e5bd 4fdb 68be c2a4 b1be 5c6b 8abc
00000180: 8759 c6be 4904 433d bf08 24be 3b92 a8be
00000190: 4526 10be 7afd 0a3e f304 f9bd 765f e8bd
000001a0: 3c1b c53d 7dc9 a3be 324f 67bc 37bf 25be
000001b0: d8e2 113e 385f b83e 65c3 b7be cba3 cebe
000001c0: 9027 823d be24 5bbe edf6 68bd 512f ba3e
000001d0: 944a be3e 3605 2ebe f938 b2be 0978 633e
000001e0: ef91 9a3d 4316 553d 5547 52be f236 39be
000001f0: 400a 5c3e 67de bf3e 5623 cebd 673d 023e
-0.016382767 0.3035578 -0.2026981 -0.12801573 0.05698965 0.025877437 0.2618816 0.07551972
-0.27616674 -0.1117843 -0.055805787 -0.10169549 0.059064444 0.17456116 0.025585698 -0.18519802
0.2567947 -0.13569912 -0.18417764 -0.11981602 -0.3148897 -0.076221704 -0.14301598 -0.14023483
-0.17968313 0.14848705 0.10605873 -0.31082383 -0.14261566 -0.3237169 0.21396098 0.076990716
0.070372626 -0.30968112 0.287255 0.20462644 -0.19813478 -0.06256187 0.11039061 0.060748123
0.14980745 -0.20491268 0.33449942 0.26826254 -0.18121251 -0.080433 -0.29937473 -0.2674304
-0.17311896 0.3226639 0.16623063 -0.083650306 0.15413032 -0.16977696 0.13832127 0.2530524
0.117352135 -0.20395699 -0.11232079 0.24527265 -0.2958523 0.19477366 0.10243293 -0.13445453
0.325713 0.14092898 -0.23143107 0.16783002 -0.28931713 -0.17081909 -0.100283265 0.12937494
0.30189288 0.32955152 0.27449903 -0.2514211 0.12446091 -0.27329162 -0.040110137 -0.01757641
-0.20223625 0.28147274 -0.32058254 -0.13760968 0.1141912 0.05878277 -0.27878276 -0.08716476
-0.22816026 0.1667568 -0.2508935 0.10752421 -0.11224504 -0.2273991 -0.34696013 -0.016896896
-0.3874018 0.04761151 -0.16018961 -0.32924065 -0.14077099 0.13573256 -0.12159147 -0.11346333
0.09624335 -0.3198966 -0.014118003 -0.16186224 0.1424669 0.36010146 -0.35891262 -0.4035934
0.06355202 -0.21400735 -0.05687611 0.36364225 0.37166274 -0.16994175 -0.34809092 0.22213759
0.07547366 0.052023184 -0.20535024 -0.18087366 0.21488285 0.37474367 -0.100653335 0.12718736

layers.6.bias f4 [2]
00000000: 9807 463c a560 a7bc
0.012086771 -0.020431826
