data/20240122/state_net_4000.pth (torch, 90538 bytes, 14 tensors)

layers.0.weight f4 [64, 5]
000000 74 f2 5a 3c b0 01 30 bd eb 6f 6c 3c cf cc 4f be
       0.013363469 -0.04297036 0.01443098 -0.20292972
000010 9a 79 8f 3e e8 e2 60 bd b6 e9 7d 3e 3c 8c 17 3e
       0.28022462 -0.054903895 0.24796185 0.14799589
000020 03 2a 6d be a5 a7 6a bd 70 74 92 3e cb 6a fa bd
       -0.23160557 -0.057288785 0.2860446 -0.122274004
000030 13 06 7d be e5 c3 54 3e b7 f8 23 be ac 62 80 be
       -0.24709348 0.20777853 -0.16012846 -0.2507528
000040 a5 0a 05 3d 53 fe 22 3e ec df 39 3e 6d 89 04 3c
       0.032480855 0.1591733 0.18151826 0.0080894055
000050 cd 8a 06 be dd d0 f1 3c 10 ad 9a 3d 06 8a eb bd
       -0.13138886 0.02951854 0.0755254 -0.11500935
000060 c1 9e c1 3d 58 41 00 3d c7 be 4a 3e 1d 74 c2 3c
       0.09454108 0.031312317 0.19799338 0.023737008
000070 0f e1 8d 3e 98 a1 b9 bd c4 0d c3 bd 7a 10 40 bd
       0.2771077 -0.09064025 -0.0952411 -0.046890713
000080 12 be 13 be 76 5a ee 3c 91 0b bd 3d 16 60 8a 3e
       -0.14427975 0.02909587 0.09230722 0.27026433
000090 39 ba 94 3e 58 73 31 bc d8 48 09 be 7c d1 a4 be
       0.29048327 -0.010830723 -0.13406694 -0.32191074
0000a0 9c b6 25 be f0 57 24 3e fe c4 9b be 19 2e 9d bd
       -0.16182941 0.1604917 -0.3042373 -0.07674808
0000b0 f3 3d a0 3e 0f f2 e1 3d 5f 42 84 bd 8b 02 47 be
       0.31297264 0.11032497 -0.06457972 -0.19434564
0000c0 e6 cf 86 3e 45 38 10 3e 59 c7 27 be 83 88 cb bd
       0.2633049 0.14083965 -0.16384639 -0.09938147
0000d0 67 b5 92 3e 84 36 81 be 23 2f c0 3d 64 4b 4f bd
       0.28654024 -0.25236905 0.093839906 -0.050609007
0000e0 bc 6f 52 3e d6 1a 86 3e ac d7 ad bd d3 49 91 3e
       0.20550436 0.2619235 -0.08488402 0.28376636
0000f0 c0 f1 53 bd d7 f6 62 bd 0d 24 1a 3e 51 1c 6f be
       -0.051744223 -0.055411186 0.15052815 -0.23350646
000100 da 2f ae 3d bf d2 f0 bd 76 4b 72 3c 4e 15 f0 3b
       0.08505221 -0.117589466 0.014788499 0.0073267585
000110 10 c1 1e 3e 7b 36 2a be f2 30 c7 3d e7 7d e5 bd
       0.15503335 -0.16622345 0.097261325 -0.112056546
000120 b2 3c a1 3b 9b 3d 7a 3e dd bb 50 3e 98 7e 11 bd
       0.0049205655 0.24437563 0.20384164 -0.03552112
000130 70 98 6d be 17 78 8d 3e 1e 6a 14 3e b4 07 38 bd
       -0.23202682 0.27630684 0.14493605 -0.04492922
000140 a8 7d 08 be a9 97 64 bd ba 60 b1 3d 0c f6 fb bc
       -0.13329184 -0.055808697 0.08661027 -0.030756973
000150 33 b0 86 3e 12 ca 9f 3e 16 f5 eb 3d 37 6c 51 be
       0.26306304 0.31208855 0.11521356 -0.20451437
000160 2c 52 67 3e 81 14 f1 3d bd 30 9a be 80 9d 6b 3e
       0.2258994 0.11771489 -0.3011531 0.230093
000170 92 cc 1b 3d 75 9d 24 be e1 ab 6c 3e e7 8d 5a be
       0.03803689 -0.1607569 0.23112442 -0.21343194
000180 0d 3e 59 3e 84 55 00 be 76 d2 d8 bd 97 55 4b be
       0.21215077 -0.12532622 -0.10587017 -0.19856869
000190 9e 5e 2b bd 55 ec 81 be c4 7e 31 be 9a 50 b7 3d
       -0.04183828 -0.2537562 -0.17333513 0.089509204
0001a0 f7 95 b9 3c d9 71 19 be 1b 4a 25 bd a7 6a f1 bc
       0.022654517 -0.14984836 -0.040353876 -0.029469801
0001b0 e3 02 65 3e 1a c9 85 3e ef 7c 1f 3a 4a 6b 89 b9
       0.22364382 0.2612999 0.0006083985 -0.00026210613
0001c0 49 92 ee 3d a0 a2 16 3e 36 57 36 3e 43 88 84 3e
       0.116489954 0.14710474 0.17806706 0.2588521
0001d0 9f 4f 00 3e cc 4c 95 3d d7 9c 82 3e e1 20 b6 3c
       0.12530373 0.072900385 0.25510284 0.022232475
0001e0 80 75 7e 3e b3 ba fe 3d 75 3b ae bd 7b 02 61 3e
       0.2484951 0.12437954 -0.08507434 0.21973602
0001f0 1c 38 1a be 4b bb 44 be 0f 0d cf 3d cb 43 1b 3e
       -0.15060467 -0.19212072 0.101099126 0.1516258
000200 a1 0a 68 3e af 29 44 3e ae cf 50 be 46 be 5a be
       0.22660305 0.19156526 -0.20391724 -0.21361646
000210 43 61 1b 3e da f8 6f be ca b1 ea bd 01 3a 21 3e
       0.15173821 -0.23434773 -0.11459692 0.15744783
000220 55 df 8e be cb d0 39 bd 65 79 0b bc ec 9f 8e be
       -0.27904764 -0.045365136 -0.008512829 -0.27856386
000230 7b 96 a4 bc 03 a6 a0 3e b1 47 83 bd 3f 1a c8 3d
       -0.020091286 0.31376657 -0.064101584 0.09770631
000240 55 e0 5b be eb 04 70 3e 16 d5 b1 bd 39 58 91 bd
       -0.21472295 0.23439376 -0.08683221 -0.07096905
000250 33 17 f1 bc e5 d9 82 3e 03 53 7c be a7 9d 1b be
       -0.029430008 0.25556865 -0.24641041 -0.15196858
000260 d4 28 32 be f5 8b 96 3e 8a 38 16 be 26 10 93 bd
       -0.17398387 0.29403654 -0.14670005 -0.071808144
000270 7b 80 2f be 20 24 e6 bd 92 7c 93 3d 45 f6 f4 3d
       -0.17138855 -0.11237359 0.07201494 0.11961035
000280 f3 ce 88 3e 2c 15 83 bd 36 6e 32 3e 86 16 41 3e
       0.2672039 -0.064005226 0.17424855 0.18856248
000290 10 d8 88 be 5f cf 86 3e 48 a4 80 3e 8f d2 9f 3d
       -0.26727343 0.26330087 0.25125337 0.07803833
0002a0 23 e8 8a be 00 9d 09 be e9 74 93 bd d1 52 37 3e
       -0.2713023 -0.13438797 -0.07200033 0.17902686
0002b0 72 3b 94 3e 3c 0a 4c be 63 2c 3e be be 04 38 bc
       0.28951603 -0.19925779 -0.1857162 -0.011231599
0002c0 f2 2a 3c 3e 66 43 3d 3e a2 3c 33 be 5b 1e 0c be
       0.18375757 0.18482742 -0.17503598 -0.13683455
0002d0 9d 13 25 3e f1 a6 49 3d e9 40 23 be 11 e0 8e be
       0.16120763 0.049231473 -0.1594273 -0.27905324
0002e0 23 17 95 3d 56 e2 73 be 55 5b 16 3d f3 b9 48 3d
       0.072798036 -0.23816809 0.036708195 0.04900546
0002f0 a0 c2 ee bd 88 6d 80 be 04 db a7 bd 09 48 19 3e
       -0.116582155 -0.25083566 -0.08196071 0.14968885
000300 1e e8 3a 3e 11 f2 80 3e 68 63 ab 3e ff 78 23 3e
       0.18252608 0.25184682 0.33474278 0.15964125
000310 17 35 68 be 52 69 48 3e 32 5f 1a bd ca d5 8c 3e
       -0.22676502 0.19571427 -0.03768844 0.27506858
000320 ca 74 74 3e 48 7a 5f be 51 69 8e 3e e7 2d 8d be
       0.23872676 -0.2182399 0.27814725 -0.27574083
000330 af 1d 44 3e 4c f7 36 be d8 9b f8 3d 59 94 84 be
       0.19151948 -0.17867774 0.121391 -0.2589443
000340 ab f7 1a be e7 5b 89 bd 44 b6 0c 3c 29 73 93 bd
       -0.1513354 -0.06706982 0.008588377 -0.071996994
000350 41 c3 ef 3d 35 5d 8c be 56 ee 3e 3e 71 25 f8 3c
       0.117071636 -0.2741486 0.18645605 0.030291291
000360 f0 16 c7 3d c7 66 ce bc 98 ca 6a bd 6f 80 53 3e
       0.09721172 -0.025195492 -0.057322115 0.20654462
000370 9a a5 36 3e 92 ae f4 bc 50 10 3c bd 18 df 4a be
       0.1783661 -0.029868398 -0.045913994 -0.19811666
000380 c7 a8 42 be 0f 58 2d be 0c 67 f8 bd 83 15 0d be
       -0.19009696 -0.16928123 -0.1212903 -0.13777737
000390 fe 17 8f 3d 47 3b ac 3d 93 2f ea 3d 1f 9d 87 be
       0.06986998 0.08409744 0.11434855 -0.2648706
0003a0 3f ae 00 3e de d3 89 bd 68 1d cf 3d 73 5f c9 3d
       0.1256647 -0.067298636 0.10113031 0.098326586
0003b0 1c 10 64 be a7 d1 7f 3e da e0 c7 bc 70 24 51 be
       -0.2227177 0.2498232 -0.02439921 -0.20424056
0003c0 ef 14 75 be 3d 1b ed bc 7d 61 51 3d 82 86 44 bd
       -0.23933767 -0.028943652 0.051118363 -0.04797984
0003d0 62 c4 81 be 23 fd 97 3d 1e c7 7b bd 55 93 62 3e
       -0.2534514 0.07421329 -0.06146919 0.22126515
0003e0 74 b0 07 be 2c 78 aa 3d a0 1e 4c be ff cd bb bd
       -0.13250905 0.08323702 -0.19933558 -0.0917015
0003f0 06 6b ec 3d 38 b7 7c be 77 65 78 be 81 78 0f 3e
       0.115438506 -0.24679267 -0.24257456 0.14010812

layers.0.bias f4 [64]
000000 a8 24 0d bb 49 09 f4 3a 13 03 8a 3b 48 f5 49 bb
       -0.0021536741 0.001861849 0.0042117923 -0.0030816365
000010 a0 eb 95 3a 00 f6 b4 b9 31 c7 bd ba d8 6e b1 bc
       0.001143802 -0.0003451556 -0.0014478919 -0.0216593
000020 4c 77 b4 3c c1 13 20 bb 8b 13 35 3b 0c b0 34 bc
       0.022029541 -0.0024425837 0.0027630057 -0.011028301
000030 39 36 8a bc eb 48 0b 3b 51 62 e6 3a a9 2a 3a 3c
       -0.016871559 0.002125318 0.0017576908 0.01136271
000040 69 37 f5 b8 39 63 18 bc 91 ad fa bb 04 87 4f 3b
       -0.00011692831 -0.009301 -0.0076500853 0.003166617
000050 85 21 c2 3a 5e e6 e6 3c 4c 9f a4 3b 38 4e b4 bb
       0.0014811015 0.02818602 0.0050238725 -0.0055024885
000060 fa 6b 61 3b 7d f6 bb ba 54 ed 09 bb 8a 81 19 3b
       0.0034396634 -0.0014340427 -0.0021046 0.0023423159
000070 47 3d 31 b9 25 3d d1 ba 01 0d 38 3b 5d f2 41 3b
       -0.00016902863 -0.0015963657 0.0028083923 0.0029593923
000080 69 af 58 bb 88 75 96 3a de e3 63 bb 0f 92 60 3b
       -0.0033063537 0.0011479119 -0.003477327 0.0034266745
000090 06 e0 ff 3b 41 59 0c 3b 02 d4 c3 3b 74 0f bf 3b
       0.007808688 0.0021415504 0.005976201 0.0058306996
0000a0 0a 88 72 3a ff 49 47 b8 a8 a9 90 3b 51 93 09 3c
       0.0009251839 -4.751421e-05 0.004414756 0.008396939
0000b0 c2 15 bb bb b0 33 da b9 28 44 71 3c 05 20 ba bb
       -0.005709381 -0.0004161871 0.014725722 -0.0056800866
0000c0 eb a4 b6 ba 61 fc ec bb 27 5d 51 ba 76 be 8d 3b
       -0.0013934647 -0.0072322343 -0.0007986598 0.004325683
0000d0 c3 c1 e0 3b 4c 9e e0 3a ab 2f db ba 97 db 0f 3a
       0.0068590357 0.001713702 -0.001672258 0.00054877385
0000e0 b6 53 0f 3c 2e 8d cd 39 0e c1 27 3b 60 8b a3 b9
       0.008747986 0.00039205834 0.0025597247 -0.00031193625
0000f0 0a a5 3c 3b 27 7e 0a ba 97 79 94 3b 62 08 86 bb
       0.0028784894 -0.00052830804 0.004531096 -0.004090355

layers.2.weight f4 [64, 64]
000000 58 ce 54 3b b1 ed 05 be 0d eb aa 3d 1d 9d 72 3d
       0.0032471623 -0.13078953 0.08345614 0.059231866
000010 81 c1 b9 bd 3c 67 fd bc de 04 88 bc 7f cd ec 3d
       -0.09070111 -0.030933015 -0.016603883 0.11562633
000020 62 07 bf bd ad 7f 22 be 29 31 fd 3c 13 d6 8f 3b
       -0.0932758 -0.15869017 0.03090723 0.0043895333
000030 a9 2b 12 bd 08 1c 16 3e 50 38 24 bd b2 41 00 bd
       -0.03568617 0.1465913 -0.040092766 -0.031312652
000040 93 44 71 bd b2 9c 07 3c e0 88 ce bd 46 9e a4 bd
       -0.058903288 0.008277105 -0.100847006 -0.08038001
000050 de c3 af bd b3 d1 5d be 86 87 67 bb 56 15 87 3c
       -0.085822806 -0.21662025 -0.003532858 0.016489666
000060 0b 2f b9 3c fa 72 b9 bd 1a 35 99 3d 85 71 19 bd
       0.02260544 -0.09055133 0.074808314 -0.037461776
000070 d7 98 ff bd 1d e9 22 3d 1f f2 3d 3e f6 76 f6 3d
       -0.12480324 0.039773095 0.18549393 0.12034409
000080 ed cd ed 3d ff ea 2e 3e 67 9f ef bd 90 b2 8f bd
       0.11611543 0.17081831 -0.117003255 -0.0701648
000090 a9 3f f1 bd 96 3e 35 be 0b 39 b6 3c 76 50 59 3d
       -0.1177972 -0.17699656 0.022243997 0.05305525
0000a0 7a a1 3b 3e 47 94 0b 3e d4 a3 4f 3e 32 6d 08 be
       0.18323317 0.13630782 0.20277339 -0.13322905
0000b0 c1 81 0d 3e e7 51 d1 bd 62 a0 8f 3d 76 31 2a bd
       0.13819028 -0.102207 0.070130125 -0.041551076
0000c0 9d 90 03 be c6 6b ee bd e2 37 0e be 10 bf 09 be
       -0.12848134 -0.1164165 -0.13888505 -0.13451791
0000d0 7d b1 03 3d ff 10 16 be 04 dd a4 bd 58 01 f3 bd
       0.032151688 -0.14654921 -0.08049968 -0.11865491
0000e0 65 d8 34 bd 97 35 bf bc 15 cd 57 be 12 65 22 be
       -0.044151682 -0.023340983 -0.21074326 -0.15858868
0000f0 7d 92 cf 3d c9 19 0d 3e e3 c1 4d be 90 23 c9 3d
       0.10135362 0.13779368 -0.20093493 0.09821236
000100 3f c4 59 3e 6e 74 83 bd 35 67 03 be 58 6b 58 3e
       0.21266268 -0.064186916 -0.12832339 0.21134698
000110 79 60 33 be 48 2b 64 3c 52 e6 bc 3d 48 7a 00 3d
       -0.1751727 0.013926335 0.092236176 0.031366616
000120 43 0b 19 be df 81 b4 3d 52 26 45 3e cf 11 a5 bd
       -0.14945702 0.088138334 0.192529 -0.08060037
000130 1b c8 86 3c 64 73 03 3e af 49 37 3e 57 da 33 be
       0.01645284 0.12836987 0.17899202 -0.17563759
000140 c1 8d 03 3e 24 82 f3 bd 46 60 c5 3c 5b 35 39 3d
       0.12847044 -0.11890057 0.024093758 0.0452169
000150 0c 4c f7 bc 57 e7 6f bd a1 cf dc bd 18 0b e4 bd
       -0.03018763 -0.058570232 -0.107817896 -0.111349285
000160 63 32 e6 3b 07 cb a7 bc 9b 13 f2 bc b4 30 82 3d
       0.0070250495 -0.020482553 -0.029550364 0.06356946
000170 3e d7 81 3d 5d 85 ba bd 48 86 ec bd 86 37 56 be
       0.06339882 -0.09107468 -0.115490496 -0.20919618
000180 f2 d0 ac 3d e7 1d 84 3d 42 3c df bc a0 9b 2f be
       0.08438291 0.06451016 -0.027250413 -0.1714921
000190 e5 90 47 be 08 21 df bd 8d de 48 3e 12 be 10 3e
       -0.19488867 -0.10894972 0.19616146 0.14135006
0001a0 60 1d c6 3b 9b 96 f3 bd 17 20 0a ba 14 88 14 3e
       0.0060459822 -0.1189396 -0.0005269064 0.14505035
0001b0 79 bd 36 3e 8d 54 50 be 6d d2 5b be 39 a8 1a 3b
       0.17845716 -0.20344754 -0.2146699 0.0023598804
0001c0 ab 35 ba bc 96 3e 3b be 76 99 81 bd 55 4c b8 3d
       -0.022730669 -0.18285593 -0.063280985 0.08998934
0001d0 c3 88 fe bd 41 cf fe bd 15 86 33 3e 32 a9 b5 bb
       -0.12428429 -0.12441874 0.17531617 -0.0055438513
0001e0 d2 37 86 bd 8c 6e 9e 3d cf ef 41 3e 18 3b a9 3d
       -0.06553616 0.07735929 0.18939136 0.08263224
0001f0 ab 19 bf bd cb 02 52 3e 9e e4 5c bd a0 a0 1a 3e
       -0.09331068 0.20508878 -0.053928964 0.15100336
000200 06 2e e5 bb f8 db 3a 3e 0e 44 e5 bd f0 9a e9 3c
       -0.006994012 0.18247974 -0.11194621 0.028516263
000210 d5 cd 29 be 30 8c 11 be 63 e4 25 be e0 11 45 be
       -0.16582425 -0.14213634 -0.16200404 -0.192451
000220 00 ca 78 3d ac 22 fa bd 20 89 29 be dd 02 d0 bc
       0.060739517 -0.122136444 -0.16556215 -0.02539199
000230 e4 55 92 bd 10 a3 03 be 7b c7 13 3e ea d2 f6 3d
       -0.071452886 -0.12855172 0.14431565 0.120519474
000240 bb 90 5b 3e 9f e0 30 be 0c 7f c6 bd 90 af f6 bd
       0.21441929 -0.17273186 -0.09692201 -0.12045205
000250 57 6b a1 bc ef b4 f9 bd 2e 48 ae 3b 52 a8 b5 bd
       -0.019704504 -0.121927135 0.005318663 -0.08869995
000260 e4 7a 5c be a0 d1 a1 3d 68 5c 51 bc cd ca 08 3c
       -0.21531254 0.07901311 -0.012778379 0.008349133
000270 14 0c 42 be 86 ac 69 3d b6 37 45 be f7 c9 00 bd
       -0.1894992 0.057049297 -0.19259533 -0.03144261
000280 eb 41 46 be ee 96 d9 bd f7 d7 22 3e b9 a3 45 be
       -0.19361083 -0.10624491 0.15902697 -0.19300736
000290 6c 37 3c 3e 48 49 2e be 36 e3 99 bd ca cd 04 3c
       0.18380517 -0.17020142 -0.0751404 0.008105705
0002a0 a3 5a 3d be 28 42 34 be 7f 27 95 bd 62 54 9e bd
       -0.18491606 -0.17603362 -0.07282924 -0.077309385
0002b0 de 83 f5 3d 68 d5 c9 bd 30 3b 3b 3e 1f 4b ad bd
       0.11988042 -0.09855157 0.18284297 -0.08461594
0002c0 9e af 02 3b d5 d8 50 bb 28 48 93 3d 8d 0b 0e 3d
       0.0019941102 -0.0031867523 0.07191497 0.034678984
0002d0 8b 2b c6 bc 32 a7 59 3e 80 7d b6 3d 63 81 00 3e
       -0.024190685 0.21255186 0.08910656 0.12549357
0002e0 e9 e5 e5 3d 1d a5 46 bd f0 d4 e5 3d 50 ce 33 3d
       0.112254925 -0.048497308 0.11222255 0.043897927
0002f0 d1 a2 62 3d 9f c9 6d be c0 db 25 3d 1b 17 0d be
       0.055331055 -0.23221444 0.040492773 -0.13778345
000300 9d e2 ef bd 9e 92 e6 bd 75 11 0b be 8d d9 33 3e
       -0.11713145 -0.11258434 -0.13580878 0.17563458
000310 7e f7 d1 bd 12 f8 f7 bd 2a 57 e9 3c 2d ce 91 3c
       -0.102522835 -0.121078625 0.028483946 0.017798508
000320 3d b1 3a be f6 70 5a be c4 10 26 be 4d 9f 59 3e
       -0.18231674 -0.21332154 -0.16217333 0.21252175
000330 b5 03 0c be f4 df 5d bb c2 6e 2a 3d 81 36 cc 3d
       -0.13673289 -0.003385541 0.041609533 0.09971333
000340 0b 19 2b be 78 99 5b be 0c bb 1b 3e 67 00 da 3d
       -0.16708772 -0.21445262 0.15208071 0.10644608
000350 44 ef 15 3b 2f a6 e1 3d ed 1d 29 be c5 ab 02 bd
       0.002287821 0.11018025 -0.16515322 -0.031902093
000360 2f d7 db bd 2d 5f 11 be 9b a1 d5 3d f6 84 20 bd
       -0.107344024 -0.14196463 0.104312144 -0.0391893
000370 a8 7a 0b be 1e 86 4b be 09 09 3a be d6 10 a0 bc
       -0.13621008 -0.1987538 -0.18167509 -0.019539278
000380 ad a3 33 be f5 44 37 be ab 25 06 be 86 31 71 3c
       -0.17542906 -0.17897399 -0.13100307 0.01472128
000390 d0 f9 f1 3d 40 c1 cb bd 87 59 10 bd 51 9f 69 bd
       0.11815226 -0.09948969 -0.03524163 -0.0570367
0003a0 53 d9 d7 3c ff 64 8d bd 68 8d 86 3d b6 47 04 3e
       0.026348745 -0.06904029 0.0656994 0.1291798
0003b0 75 f7 96 3c 4c cb f9 3d ec fd 32 be d9 da 9f bd
       0.018428544 0.12196979 -0.17479676 -0.07805414
0003c0 65 d7 3c 3e ce cc 57 3e 40 8f 57 be ea 1c d6 3d
       0.18441541 0.2107422 -0.2105074 0.10454734
0003d0 48 19 8f 3c 65 9f 41 be b8 b7 22 be 6f 3b 6f be
       0.01746811 -0.1890846 -0.15890396 -0.23362516
0003e0 db 5c e4 3a 16 44 f3 3d ee 70 d1 3d 92 b8 1b be
       0.0017422693 0.11878221 0.10226618 -0.15207127
0003f0 a0 c8 32 3e c4 27 2c be 67 bc 58 3e 54 25 c0 bd
       0.17459345 -0.16812044 0.2116562 -0.0938212

layers.2.bias f4 [64]
000000 8c 91 d8 ba 6e 47 a3 ba b8 bf 4a 3c b2 48 8b ba
       -0.0016522869 -0.0012457201 0.012374811 -0.0010626523
000010 6e 66 3d bc da ca 20 bb ba 30 99 b8 61 b1 ab 39
       -0.011560066 -0.0024534971 -7.3046846e-05 0.0003274782
000020 c8 b3 0f ba ce 09 30 3a 8a 12 0b 3b 74 43 d6 3b
       -0.00054818066 0.0006715328 0.0021220767 0.0065388028
000030 e7 86 f1 ba 51 14 14 3c c5 d9 e4 ba 5b 27 ad 3b
       -0.0018427045 0.009038047 -0.001745992 0.0052842326
000040 4f 0d 73 39 7d df 82 39 1a 4b 51 bc fb 6f 37 bb
       0.00023179244 0.00024962044 -0.012774253 -0.002799033
000050 89 1e 16 bb fe 6d 87 b9 c8 27 0f bb 97 8e 25 bb
       -0.0022906384 -0.00025831157 -0.002184378 -0.0025261992
000060 5f 4b 12 bc 3d 27 7a 3b 26 7d 70 3b 35 58 cb 3a
       -0.008929103 0.003817036 0.0036695688 0.0015513959
000070 af 1a 2a ba ff 7f 77 b8 86 65 4f 3b 9a 8a c6 3a
       -0.00064889615 -5.9008595e-05 0.0031646206 0.0015147508
000080 92 19 15 3b 73 b1 a8 3a 16 cd d0 b9 aa c9 a8 bb
       0.0022750837 0.0012870267 -0.00039825652 -0.0051509934
000090 f8 84 bd 3a 04 e7 20 39 52 0d 48 bb ff c3 1a 3c
       0.0014459183 0.00015344849 -0.0030525518 0.009446143
0000a0 69 cd 46 3b cb ba 78 3a a8 57 8d 39 4e bd 68 3b
       0.0030334836 0.00094882835 0.00026958925 0.0035513225
0000b0 10 3b 10 bb 92 cd 04 bb 93 f5 28 bc ae f3 05 3b
       -0.002200786 -0.002026413 -0.010312456 0.0020439434
0000c0 e3 03 a0 3b d7 b3 03 bd eb 24 33 3b 70 a1 a7 bb
       0.004883276 -0.03215393 0.0027335237 -0.0051156804
0000d0 b2 96 8c 3b 82 e9 3f bb e0 49 a9 b9 14 41 4c ba
       0.004290425 -0.0029283469 -0.00032289233 -0.000779168
0000e0 87 94 07 3c 6e 5e 05 b7 3f 4f 0c 3b 10 2f 03 3b
       0.008275158 -7.949404e-06 0.002140954 0.0020017065
0000f0 68 5b ca ba 68 d2 bd 39 9a a6 58 bb 5a 2f 07 3c
       -0.0015438618 0.00036205654 -0.0033058287 0.008251036

layers.4.weight f4 [64, 64]
000000 b8 9a 59 3d 0f e5 10 3e 2f ed b2 bd 85 2a 4a be
       0.053126067 0.14149879 -0.087366454 -0.19742782
000010 9d 4d 07 be ef 77 09 be 22 d1 6a bd b0 46 5b 3d
       -0.13213201 -0.13424657 -0.05732835 0.05353421
000020 8e 09 7a bd 5d 6d 88 bd 6f c5 34 3d 75 d9 bb bd
       -0.06104427 -0.066614844 0.0441336 -0.09172336
000030 b0 68 22 3e e3 24 30 3e 10 fb 39 be f6 a2 2b 3e
       0.15860248 0.17201571 -0.18162179 0.16761383
000040 fe c4 40 bd 2e b8 21 3e 23 aa 40 3a 15 36 15 be
       -0.047062866 0.15792915 0.0007349571 -0.14571412
000050 c2 3c f2 3c 7e 39 2a bd c0 61 57 3e 37 ff 9f bd
       0.029569987 -0.041558735 0.21033382 -0.0781235
000060 8a 54 45 be 6d e0 7d bd 55 de d5 3d d8 28 90 3c
       -0.1927053 -0.061981607 0.10442797 0.0175976
000070 53 36 f3 bd c0 c5 92 3c 1e bd 06 3e 70 ad ac 3d
       -0.11875596 0.01791656 0.1315808 0.08431518
000080 ec a3 84 bd c2 9d 2d 3e 5f 12 03 be 11 fa 56 3e
       -0.06476578 0.16954711 -0.12799977 0.2099383
000090 50 a0 b9 3d 91 41 d2 3d db 89 54 3e ec 75 a9 3d
       0.0906378 0.10266412 0.20755713 0.08274445
0000a0 2a d7 71 3e 31 e9 37 3c 0f 9b 15 3e 14 fd 56 bd
       0.23617235 0.011225031 0.14609931 -0.052487448
0000b0 f1 6e 77 3c f7 c2 71 3d 87 89 b4 bd 08 c9 1a 3d
       0.015102134 0.059023824 -0.08815294 0.037789375
0000c0 7b 81 2f be b1 2c bc 3d 68 c4 1e 3e 77 8c 02 3e
       -0.17139237 0.09188212 0.1550461 0.12748896
0000d0 7d 1d 0c bd a4 ea aa 3c 17 21 4c be 06 2e 42 bd
       -0.03420781 0.020863838 -0.19934498 -0.047407173
0000e0 a2 a2 0b 3e f5 65 7c bc 3c 98 03 3e 68 a9 af 3d
       0.13636258 -0.015405168 0.12851042 0.085772336
0000f0 89 e3 47 bc 61 ec ae bd 57 58 21 be f2 69 43 3e
       -0.012200245 -0.085411794 -0.15756355 0.19083384
000100 08 84 02 3e ff 00 50 bd 86 32 29 be 8c 28 58 be
       0.12745678 -0.0507822 -0.1652318 -0.21109217
000110 fe 80 cc bd b4 24 ba bd 76 8d 65 3e 0c 2c 61 bd
       -0.09985541 -0.09089032 0.22417244 -0.054973647
000120 88 ba ef bc f8 93 15 3e d0 a5 db bd 50 55 14 3d
       -0.02926375 0.14607227 -0.107249856 0.036214173
000130 f1 b2 68 be 27 d3 57 bd 25 93 0d be da cb 3b 3d
       -0.2272451 -0.052691605 -0.13825662 0.045848705
000140 4d 0e 76 3d 2c 2b 0e be 2f 04 46 be a9 72 a8 bc
       0.060072232 -0.13883656 -0.19337533 -0.020562487
000150 80 c2 04 3e 95 75 a4 3d 01 38 74 3c 15 6a 53 be
       0.12964821 0.080302395 0.0149059305 -0.20645936
000160 be c6 38 be 71 02 55 3e 31 cd ac 3c 4e 68 84 3d
       -0.18044564 0.20801713 0.021093937 0.06465207
000170 e2 ec 04 be ef 05 3d be 55 a4 1a bd ae a5 0b 3e
       -0.12980989 -0.18459295 -0.037754375 0.1363742
000180 80 51 cd bd 7e 3c ae bd d2 82 f5 3d 54 a2 be 3c
       -0.100253105 -0.08507632 0.119878426 0.023270763
000190 ba a2 e1 bd d5 40 f4 bd 8e ff 9d be 1e ab 3d bd
       -0.11017366 -0.11926428 -0.30859035 -0.04630577
0001a0 dd 05 70 3c 6c 37 c9 3d e1 cc a6 3d 7f 83 b0 3c
       0.014649835 0.09825024 0.08144546 0.021547077
0001b0 7b 3c 11 bd 35 71 60 bd 13 b6 1f bd fc d0 95 bd
       -0.03545807 -0.054795463 -0.038992 -0.07315251
0001c0 df dc 1a 3e 28 ee dc bd 7e 05 a2 3d c8 da 2d be
       0.15123318 -0.10787612 0.07911204 -0.1697799
0001d0 4a b0 32 3e 85 62 1a bd da 6a 29 3e c9 b5 53 bd
       0.17450061 -0.03769161 0.16544667 -0.051687036
0001e0 2e b5 08 be 95 e3 07 be ce ec 07 3e 92 d8 e3 3c
       -0.13350365 -0.1327041 0.13273928 0.02781323
0001f0 f1 31 c1 3c b3 d3 a6 bd e3 b3 40 be 32 89 8e bd
       0.023583384 -0.08145847 -0.18818621 -0.06959762
000200 05 b4 b2 bc 1d 30 26 bd 8d a4 2d be 8e 84 dc 3c
       -0.021814356 -0.04057323 -0.16957302 0.026918676
000210 cd 51 65 3e c2 fd cb 3c 4c 37 da bd 94 cb 8f 3d
       0.22394486 0.024901275 -0.10655078 0.07021251
000220 44 16 36 be dc e1 6b be 6d 99 32 bd d5 66 74 be
       -0.17781931 -0.23035377 -0.04360335 -0.23867352
000230 bb c2 40 3e 9f 27 b6 bd 76 c2 95 3d 8a 61 5a 3e
       0.18824284 -0.08894276 0.07312481 0.2132627
000240 08 07 58 be e6 0b 75 3e 71 e5 43 3e 7b 10 1b be
       -0.21096432 0.2393032 0.19130494 -0.15143006
000250 67 74 e6 3d da f3 5b 3c b3 df 97 3d e0 d5 59 3e
       0.11252671 0.013424838 0.07415714 0.21272993
000260 c9 b1 91 bd 9c 9e aa 3d 02 2f 9a 3d f4 db 47 be
       -0.07113988 0.083310336 0.07528497 -0.19517499
000270 3c 2d fb 3d f9 84 8d 3e 1f 7f 50 be 89 2d 3b be
       0.12264487 0.27640513 -0.20360993 -0.18279089
000280 82 f8 01 be be 13 0a be ad a8 15 3e a1 ae ec 3d
       -0.12692454 -0.13484094 0.14615126 0.11556745
000290 42 32 0f be 2e 72 32 3e c7 0b 12 be d4 2a 49 be
       -0.13984016 0.17426369 -0.14262305 -0.19645244
0002a0 57 62 66 be bc 38 25 bc 51 ba bc 3d d2 3b 0a be
       -0.22498451 -0.010084327 0.092152245 -0.13499382
0002b0 55 f9 23 bc 48 21 2b 3e 13 7a 2d 3e 6d e4 70 3d
       -0.010008176 0.16711915 0.16941099 0.058811594
0002c0 a8 fa 88 bd 73 14 9e 3d 5a 42 4a 3e d6 26 36 3e
       -0.06688434 0.07718744 0.19751874 0.17788252
0002d0 c6 5e 9d 3d db 6f 23 be 9b d5 b1 3d 20 4a 4d be
       0.07684092 -0.15960638 0.0868332 -0.20047808
0002e0 c9 19 f6 bd 75 2e 03 3d 46 a6 3d 3e 30 ff 51 be
       -0.12016637 0.032026727 0.1852046 -0.20507503
0002f0 af 10 1d be 9e 0e 54 bd 38 3c 0a 3d 0c 2c 3f be
       -0.15338396 -0.051771753 0.033748835 -0.18669146
000300 f3 82 16 3e f3 d8 a5 bc 99 00 94 3d 72 ae a3 bc
       0.1469839 -0.020245051 0.072266765 -0.019980643
000310 c1 8c 60 3d 39 10 72 bd b2 47 46 be 6e 69 0c 3d
       0.054821733 -0.059097502 -0.19363287 0.034280233
000320 04 85 c0 3c 67 e3 94 3d 77 e1 4f 3e c5 72 83 3d
       0.023500927 0.07269936 0.20300852 0.06418375
000330 0e 7b b3 3d 1b 17 1f be 42 63 50 bd fd 77 4c 3e
       0.08763705 -0.15536158 -0.05087591 0.19967647
000340 b2 60 8d bb a1 be 09 3d 8c 6d e7 3c 29 50 19 be
       -0.0043145055 0.033629064 0.028250478 -0.14971985
000350 fd 5b 59 be 8b 73 16 be 57 36 88 3c 1e 14 4d 3e
       -0.21226497 -0.14692514 0.016627474 0.20027205
000360 9a 81 19 be 04 1e d3 3d ec c3 41 3e bf 7f d5 bd
       -0.14990845 0.103084594 0.18922395 -0.10424756
000370 cb 9f 15 be 14 53 23 be 38 41 d6 bd 02 7b 98 3c
       -0.14611737 -0.1594966 -0.10461658 0.018613342
000380 c4 71 39 be 19 2f cb 3d 86 3d 1b be ab e9 10 be
       -0.18109804 0.099210925 -0.15160188 -0.14151637
000390 4c 2b 02 3e 89 a8 88 3d 79 b8 18 3e cb b9 6a bd
       0.12711829 0.066727705 0.1491412 -0.057306092
0003a0 10 c6 69 be ae 5c 34 3d bc 5b 5e 3e db db 3e 3e
       -0.22829461 0.0440337 0.21714681 0.18638556
0003b0 10 2e 41 3e 99 8d 09 bd 38 64 67 bc 63 70 f2 3d
       0.18865228 -0.033582304 -0.014123015 0.11837842
0003c0 4e d9 fc bb 2b bc 00 bc 75 53 68 3c f8 03 29 3d
       -0.0077163344 -0.007857363 0.014180054 0.04126355
0003d0 60 2a f7 3d df 3d 29 3e 36 d7 16 3e 8e 83 32 be
       0.12068629 0.16527508 0.14730534 -0.17432997
0003e0 4a 79 07 be cf 20 21 bc 57 21 44 3e f1 5f 91 bd
       -0.13229862 -0.009834482 0.19153343 -0.070983775
0003f0 e8 6c d8 bc d8 2c e6 3c 36 93 d2 bd 15 e5 ee 3c
       -0.026419118 0.028097555 -0.102819845 0.02916197

layers.4.bias f4 [64]
000000 59 8d 86 3a 49 7f 86 3d 52 40 34 bc 84 79 40 ba
       0.0010265514 0.065672465 -0.011001663 -0.0007342326
000010 65 f5 96 bb 4a 63 dd bb e4 df 94 3a 3b 10 42 ba
       -0.00460689 -0.006756221 0.0011358229 -0.0007402931
000020 49 3b 5f 3b b1 f5 7b bc 04 77 aa 3a 19 c3 35 bb
       0.0034062436 -0.015378402 0.001300544 -0.0027734695
000030 be a8 81 3a ab c1 fd 39 f7 39 3d 3b 2d 68 51 3b
       0.0009892208 0.00048400214 0.002887366 0.0031952963
000040 18 65 83 ba a1 bc 21 ba 24 9e 4b bc 11 76 3b bc
       -0.0010024635 -0.00061697705 -0.01242784 -0.011441723
000050 83 1b 7f ba 5c a5 80 bb 19 00 f8 b9 d8 5f 18 b9
       -0.00097315776 -0.0039259624 -0.0004730232 -0.00014531554
000060 ce b9 99 3b e6 a1 2d ba ed 9f a1 39 4d 11 01 3b
       0.004691339 -0.0006623551 0.00030827467 0.001969415
000070 b1 0a 5e 3b 95 51 4e 3b fc bb 8c 3c 3c 58 07 ba
       0.0033880884 0.0031481732 0.017179482 -0.0005162989
000080 4e e7 e4 ba df 98 a1 bb 77 e2 91 bc 7a 7d 3b 3b
       -0.0017463954 -0.0049315537 -0.017808182 0.0028608725
000090 bd b9 5c 3c c8 b7 e7 3b 28 0c 05 bc f6 2e 7c 3a
       0.013472018 0.007071469 -0.008120574 0.0009620035
0000a0 9f e5 61 bb 91 98 ab 3a ab 18 9c bb 95 b7 c4 3a
       -0.003446914 0.0013091733 -0.004763683 0.0015008325
0000b0 a7 fc 58 bb 88 8e e8 b8 e5 06 67 3b 26 92 0a ba
       -0.0033109577 -0.000110891706 0.0035251912 -0.000528606
0000c0 25 07 7c 3a 07 9e a2 bb 75 66 1e 39 54 f4 1c ba
       0.0009614102 -0.004962686 0.00015106222 -0.00059873355
0000d0 9a a0 e2 ba 05 c4 5d ba f1 dc 0e 3c 48 30 05 3b
       -0.0017290295 -0.000845969 0.008719669 0.0020322967
0000e0 83 a7 b9 3b c0 3f 41 3b 1a e9 73 ba a4 46 c4 ba
       0.005665721 0.002948746 -0.0009304449 -0.0014974666
0000f0 ce 62 49 3b 51 c5 32 3a a2 f5 4b 3c ae a5 ab bc
       0.0030729058 0.00068195636 0.0124487 -0.020953026

layers.6.weight f4 [64, 64]
000000 4d 9c 55 be ef 67 46 3d f4 6c 4c be 29 fd 16 3e
       -0.20860405 0.048438963 -0.19963437 0.1474501
000010 69 dd 04 be 38 de a3 bd 40 03 34 be af ff d4 3d
       -0.12975086 -0.08001369 -0.17579365 0.1040033
000020 50 38 16 3e 1e 7c 8a 3d fa 51 27 3c 58 df 8e bd
       0.14669919 0.06761955 0.010212416 -0.06976193
000030 d8 07 78 bd 14 9e a8 3b 00 fc 47 3d 51 7b 49 3e
       -0.060554355 0.0051457975 0.04882431 0.19675948
000040 d0 d9 89 3d ba 05 77 bd f7 c8 44 be 47 7e 18 3e
       0.067309976 -0.060308196 -0.19217287 0.14891921
000050 ff eb c9 bd 64 01 49 bc c4 b7 58 be 75 d8 db bd
       -0.09859466 -0.012268398 -0.21163851 -0.10734645
000060 8a b6 b7 3d 6d bc 25 be f9 43 80 3d 2d 81 10 ba
       0.089703634 -0.1618516 0.06262965 -0.0005512413
000070 4f 6f 46 bb db e3 2c 3e 68 92 48 3e 82 b2 8f bd
       -0.0030278747 0.16883795 0.195871 -0.070164695
000080 c7 91 e4 3c 1f a3 41 3c 09 a8 32 be fd 84 34 bd
       0.027901543 0.011818676 -0.17446913 -0.04407214
000090 72 2f ca bd 62 a9 bc bd 1b 87 4e 3d e9 a8 1e 3e
       -0.09872331 -0.09211995 0.050421815 0.15494122
0000a0 55 85 fc bc 92 c0 3d bd 09 d8 c4 3c 4e b3 b9 3d
       -0.030825296 -0.046326227 0.024028795 0.09067403
0000b0 13 50 f0 3d 39 83 96 bc 18 b1 4b 3e f8 d7 59 be
       0.11734023 -0.018373119 0.19891775 -0.21273792
0000c0 04 74 03 be 32 16 9f 3d a4 f7 38 be ad 7e 0d bc
       -0.12837225 0.07767905 -0.18063217 -0.008636159
0000d0 73 ec 43 3e 1e 89 6a 3d ba d4 0b 3e 06 c6 13 3e
       0.19133167 0.05725967 0.13655367 0.14431009
0000e0 c7 6c 11 3d 70 c2 b3 3d 95 9b 18 3e 41 bd cd ba
       0.03550413 0.087773204 0.149031 -0.0015696661
0000f0 17 c5 55 3e 4a 97 04 3e cd 2c 81 3d 4d 33 26 be
       0.20875965 0.12948337 0.06307373 -0.16230507
000100 1a 9e 19 be 62 df bf bd a8 f7 26 3e db 91 4d 3e
       -0.15001717 -0.09368779 0.16305411 0.2007517
000110 e9 4f 76 3e 21 ef 87 3e 91 15 57 be e4 38 c6 bd
       0.24053921 0.26549628 -0.2100432 -0.0967882
000120 e4 52 13 3e 6e cc db bd 0f be a3 bd 4b f1 3e be
       0.14387089 -0.10732351 -0.07995235 -0.18646733
000130 76 13 f4 bc 8a 05 9e bd 77 20 32 3e 09 1f 23 bd
       -0.029794436 -0.077159 0.17395197 -0.03982452
000140 75 94 04 3d ed e4 1f be d8 80 6e 3e 65 a0 a3 bd
       0.032368142 -0.15614672 0.23291337 -0.07989577
000150 cb c2 48 3e f4 0b 03 3c d6 66 d3 3c dd f8 5f be
       0.19605558 0.007998455 0.025805872 -0.21872278
000160 72 14 1b be 50 6e 0d 3d 83 10 1b 3e 05 61 77 be
       -0.15144518 0.03452903 0.15143017 -0.24158104
000170 6d ac 2c 3d 8a 11 1b 3e 7e 1f 36 3e 16 f6 19 be
       0.042156626 0.1514341 0.17785451 -0.1503528
000180 05 29 2a 3e 2e 42 38 3e d3 fe 3d be 1a 41 6f be
       0.1661721 0.17993996 -0.18554239 -0.23364678
000190 82 93 27 be e8 45 1a 3e 00 ec ee bc 80 71 ae bd
       -0.16364864 0.1506573 -0.029165268 -0.08517742
0001a0 3c d1 95 bc 9c 4b 42 3e 51 b7 20 3e da 86 61 3e
       -0.018288247 0.18974155 0.1569493 0.22024098
0001b0 52 c1 44 3d 29 8e 48 bd 47 33 3d be 38 78 33 be
       0.048035927 -0.0489637 -0.18476592 -0.17526329
0001c0 0d 17 6b 3e 31 32 6c 3e 03 bd 09 be ed 76 48 bb
       0.22958012 0.23066022 -0.13451008 -0.0030588463
0001d0 a1 9e 24 3e 8a 98 a7 3d c3 0e e9 bd 5f cd c0 3d
       0.16076137 0.081833914 -0.11379769 0.094141714
0001e0 5a d2 29 3e ae 04 56 be e0 78 3a 3d f5 99 d1 3d
       0.16584149 -0.20900223 0.04552543 0.10234443
0001f0 c2 5c ce 3c f0 c4 ec bd b4 77 ef bd 8d d4 dc bd
       0.025190715 -0.11561 -0.116927534 -0.10782728
000200 04 cb ee bc 58 de fd bb 38 d9 4b be 23 db 27 bd
       -0.02914954 -0.0077474527 -0.19907081 -0.04098047
000210 0d df 29 bc fc cc 2a be 66 51 04 be bd e9 29 3e
       -0.010368121 -0.16679758 -0.12921676 0.1659307
000220 02 37 32 3e b0 12 a3 38 50 0c 00 be bb 33 5c 3e
       0.17403796 7.7759265e-05 -0.12504697 0.21504109
000230 d0 4d d0 bd e0 14 2f be 56 e4 32 3e 6b ec 6c bc
       -0.101710916 -0.17097807 0.17469916 -0.014460663
000240 ea 80 1c be 72 9e aa 3d b4 d5 a7 3d 7b 6f 7f 3c
       -0.15283552 0.08331002 0.081950575 0.015590544
000250 7d e4 47 be 13 0a ff bd 94 d2 14 be 42 82 72 3d
       -0.19520755 -0.124530934 -0.14533454 0.059206255
000260 fa 93 07 be 8c b1 86 3c 95 6b fa 3d fd 49 54 be
       -0.13240042 0.016442083 0.12227551 -0.2073135
000270 ab f2 4b bd cb 13 e4 bd 42 56 91 3d 12 b6 7e 3c
       -0.049791973 -0.11136588 0.070965305 0.015546339
000280 a4 ae 7a 3d 59 ee 60 3c 70 3b 6a 3e bd 37 a8 3c
       0.061201707 0.0137287015 0.22874236 0.02053439
000290 1b ba 32 3d 52 65 07 3e 50 77 85 3c 86 75 31 3d
       0.043634515 0.13222244 0.016292244 0.04332497
0002a0 46 91 6b bd 43 5f 65 bb f2 74 fa bd 0a 30 81 3d
       -0.05751159 -0.0034999407 -0.12229337 0.06307991
0002b0 e2 c7 08 3e 61 74 0a be 66 c6 59 3e ae 77 7f bd
       0.13357499 -0.13520958 0.21267089 -0.062369995
0002c0 79 fd 05 be c2 08 8c 3d 85 85 98 3c c2 bc e8 bd
       -0.13084973 0.06837608 0.018618355 -0.11364128
0002d0 42 c9 b9 3c 21 32 0f 3e e9 6d 02 be a0 59 ef 3d
       0.022678975 0.13983966 -0.1273724 0.116870165
0002e0 6d 9e 3e 3e ca 28 64 3e 97 80 93 bd d2 6d 19 be
       0.18615122 0.22281185 -0.07202261 -0.149833
0002f0 ad 8a a5 39 7a bb e5 3b b5 09 5a 3e 56 cf 12 3e
       0.00031574574 0.0070108743 0.21292765 0.14336905
000300 35 84 08 3e 0e 0d 5b 3e 2c 3b e0 3c ef ae a9 bb
       0.13331683 0.21391699 0.027371965 -0.0051783244
000310 7a dd 1e be 7d 26 6b bd 33 ce 73 bc 5e 29 3d be
       -0.15514174 -0.057409752 -0.014880705 -0.18472812
000320 df 01 a8 bc bd 4e ca 3d 2a fa 9a bd 00 e0 7f 3c
       -0.020508705 0.098782994 -0.07567246 0.015617371
000330 b9 c0 34 3e 36 b3 9d bc 02 28 e2 3d 57 4e 9c bd
       0.17651643 -0.019250493 0.11042787 -0.0763213
000340 9b 7a 16 be ae a3 62 3d 1a c5 fe bd 05 ee 1f be
       -0.14695208 0.05533188 -0.12439938 -0.15618141
000350 1b c3 0d 3e 72 82 22 3e de 32 09 3d 0b 11 34 3e
       0.13843958 0.15870073 0.033495776 0.17584626
000360 30 12 45 bd 88 7f c7 bc 6d 5a dd bc c8 33 91 3d
       -0.048113048 -0.024352804 -0.027020657 0.070899546
000370 93 d3 3d bd d9 8c f7 3d ca 67 22 be 0f b4 33 be
       -0.04634435 0.120874114 -0.15859905 -0.17549156
000380 78 a8 93 bd 85 b4 01 3e 1b 62 59 be 51 22 4a 3e
       -0.07209867 0.12666519 -0.2122883 0.19739653
000390 53 3b 55 be 0d ce b3 bc 98 c2 26 be 08 c7 2f 3e
       -0.20823412 -0.021948839 -0.16285169 0.17165768
0003a0 f8 a1 e6 bd 00 7b a1 bd 89 cf 2f 3e ec 95 5a be
       -0.11261362 -0.078847885 0.17169012 -0.21346253
0003b0 da 40 84 3d 15 01 41 3e c7 28 be bd b0 7d 55 bd
       0.06457682 0.18848069 -0.092851214 -0.052121818
0003c0 f0 52 96 3c db 22 28 be 42 08 23 bd c2 88 8b bc
       0.018350095 -0.16419546 -0.039802797 -0.017032985
0003d0 c7 36 34 be 52 e8 9d bd 53 de ce bb 0d 71 0f 3d
       -0.17599021 -0.07710327 -0.006313124 0.035019923
0003e0 83 01 d7 3d dc 99 13 3e 37 6c 0a be e9 0c 1f 3e
       0.10498335 0.14414161 -0.13517843 0.15532269
0003f0 16 55 53 be 2c 48 08 be 2f 4f 2d bd 3a 41 3d be
       -0.20637926 -0.13308781 -0.042311843 -0.18481913

layers.6.bias f4 [64]
000000 95 ed 4a 3a f5 16 54 bd 20 5b ad 3b 90 ca ca 3a
       0.0007741091 -0.051779706 0.005290404 0.0015471745
000010 04 45 d3 ba 89 2c 1c bb 09 12 93 bb 6e 75 0f bc
       -0.0016118591 -0.0023830256 -0.004488234 -0.008756025
000020 14 68 19 bc 14 63 d5 39 f0 53 a4 ba cc fb e0 3b
       -0.009363193 0.00040700345 -0.0012537222 0.006865954
000030 14 5a f6 3a 3e 90 c3 b9 bd 92 a9 b9 06 ae 26 bd
       0.0018795156 -0.00037300767 -0.0003234352 -0.040693305
000040 22 d6 5d 3a d1 e0 2b bb 9d c4 10 bb 61 4a 8a bb
       0.0008462389 -0.002622653 -0.0022089847 -0.0042202924
000050 89 b9 5d 39 b9 fb 68 bb 40 d8 ac 3b 12 e0 28 bb
       0.0002114532 -0.003555043 0.0052748024 -0.0025768322
000060 cf 63 ad 3b 3c 86 27 b9 30 7f 85 3a 78 43 0e 3b
       0.005291439 -0.00015976367 0.0010185 0.0021707695
000070 db d5 4e 3b 83 13 63 3a e7 a6 83 ba fb 50 cd 3b
       0.0031560573 0.000866227 -0.0010044248 0.006265757
000080 2e 69 6d 3a 6a be 80 ba f3 8a 0e 3b 88 c5 2d ba
       0.00090565055 -0.0009822373 0.00217503 -0.0006628861
000090 7b d5 df bb 68 f5 ca 3b 3d ff 5a bc 1c 31 17 bd
       -0.006830869 0.0061938055 -0.013366518 -0.03691207
0000a0 bf aa 09 3a 42 7e 52 bc 19 bd 87 39 47 c0 b2 3a
       0.00052515784 -0.012847485 0.00025890095 0.0013637625
0000b0 cb 14 09 3b 1f b2 52 39 dc de 80 bb 9c 3b 0a 39
       0.0020916935 0.00020093516 -0.003932817 0.00013182912
0000c0 3f 07 f8 3c a9 8f 4b 39 4c 3e 46 3a 0b 8b 79 ba
       0.030276893 0.00019413106 0.00075623835 -0.0009519315
0000d0 8f c5 93 3b 6c 41 04 3c 5f 94 07 3a 29 b2 82 3b
       0.004509635 0.008072238 0.00051719503 0.0039885235
0000e0 de 93 91 3a 07 f7 d5 b9 04 13 94 ba 1b bb c9 bb
       0.001110669 -0.00040810576 -0.0011297171 -0.006156338
0000f0 fc b7 cd 3b a4 a1 89 3b f9 d6 c2 3b b6 f8 28 3a
       0.006278036 0.0042001773 0.005946037 0.0006445752

layers.8.weight f4 [64, 64]
000000 62 43 9a bc a1 fa ee 3d 7c 11 1d be b8 32 1c 3e
       -0.018830959 0.116688974 -0.15338701 0.15253723
000010 94 ae be 3d f1 d6 bf 3d 90 3b 1d 3e a8 3e 55 3e
       0.09310642 0.09367169 0.15354753 0.20824683
000020 79 93 c6 bd ed c8 c8 bd 6f 2c 4e 3e a2 49 22 3e
       -0.09696097 -0.098039486 0.20134138 0.15848401
000030 50 2c f4 3d 03 4d 1c 3e 6a 9b ae bd 23 87 df bd
       0.119225144 0.15263753 -0.08525737 -0.10914447
000040 fe df db 3d 9d 59 53 be a0 d6 f6 3d 4f f7 30 be
       0.107360825 -0.20639654 0.12052655 -0.1728184
000050 30 36 e5 bd d3 71 ef 3d 71 9c a8 bd 9a f3 58 be
       -0.11191976 0.11691632 -0.08232964 -0.21186677
000060 9a 7f 09 3e dd 80 c3 bd 0e 87 ba bd d8 60 f3 3d
       0.13427582 -0.09546063 -0.09107791 0.11883706
000070 dd 1b 6a bd d9 14 58 be 96 b1 60 3c a7 86 13 be
       -0.05715548 -0.21101703 0.013714215 -0.14406835
000080 76 ab a1 bd 8b 4f 1f 3e b2 77 95 bc ac b1 19 bd
       -0.07894032 0.15557687 -0.018245552 -0.037522957
000090 c2 cb 83 bd 2e 28 4d be 15 19 48 be f6 00 a7 bd
       -0.06435348 -0.20034859 -0.19540818 -0.0815448
0000a0 2b 62 34 3e 57 58 65 3c 9b f4 36 3d 0b c3 52 be
       0.17615573 0.013998113 0.044666868 -0.20582215
0000b0 b0 f6 1e be f1 47 9e 3d 3a a6 1e 3e 82 1b 17 be
       -0.15523791 0.077285655 0.15493098 -0.14756587
0000c0 9a a3 75 3b b8 ee 03 bd ab 1a 4d bd c0 c2 2d be
       0.0037481547 -0.03221008 -0.05007426 -0.16968822
0000d0 c1 cf 3a be 4d aa 3b 3e 7e 4e 5e be b4 24 f4 3c
       -0.18243314 0.18326683 -0.2170963 0.029802658
0000e0 ae 8d df 3c 23 ce 95 3d 27 90 25 be 9f e9 30 3e
       0.027289238 0.07314708 -0.16168271 0.1727662
0000f0 49 08 45 bd 76 4e 24 3e 64 0c 0c be 8a 83 df 3d
       -0.048103604 0.16045555 -0.13676602 0.10913761
000100 e4 ad 0d bc b5 01 09 be 8b 9b d5 3d eb a5 39 3e
       -0.008647416 -0.13379557 0.10430058 0.18129699
000110 4c 4b 30 3e 5a a4 ee 3d f8 76 1e bd 58 c1 39 be
       0.17216223 0.11652441 -0.038687676 -0.18140161
000120 c6 ac c2 bd 1e 35 47 be 74 6c 1c 3d 15 b8 8c bd
       -0.0950561 -0.19453856 0.038189366 -0.06871048
000130 13 a4 29 3e 9e 21 4a be 0a 45 c2 3d 41 a8 c1 3d
       0.16566496 -0.19739386 0.094858244 0.0945592
000140 10 6a c1 bd f1 aa 4d be 7d 9a 40 3e 1e 14 0d be
       -0.09444058 -0.2008474 0.18808933 -0.13777205
000150 45 21 35 3e 1a 26 3b be 0f fa f8 bd a4 ff 41 3d
       0.17688473 -0.18276253 -0.1215707 0.04736294
000160 46 70 38 be a2 46 3e be 93 76 3e be 0c 31 2e 3e
       -0.18011579 -0.18581632 -0.1859992 0.17010897
000170 f4 a0 52 3e af cf 45 bd cc 8b fe bd 67 e8 b7 3d
       0.20569211 -0.048293766 -0.12429008 0.08979874
000180 07 4f d4 bd e3 a7 0f 3d 1e a2 18 3c 09 a8 b1 3d
       -0.10366636 0.03507222 0.0093159955 0.08674628
000190 70 a9 57 3e 32 68 a8 3d 4c 92 46 3e 2b 0d 38 3e
       0.21060729 0.08222999 0.19391745 0.17973773
0001a0 60 42 6e 3d 41 f5 34 be 63 55 c2 bd 0c 6c 92 3c
       0.05816877 -0.17671682 -0.094889425 0.017873786
0001b0 21 58 43 3d a0 64 b2 bd cf c1 9b 3c 71 67 04 3e
       0.04769147 -0.08710599 0.019013314 0.12930085
0001c0 16 eb 0a 3d db 58 cf bd 7e 9d 4c 3e ed 26 e0 3c
       0.0339156 -0.1012437 0.19981954 0.027362311
0001d0 72 81 d1 bd 00 cf d7 bd 12 0f 7e bd 1a f8 25 3e
       -0.10229768 -0.10537529 -0.06202609 0.16207924
0001e0 87 74 47 be 59 fb 48 be 10 06 06 3e 8a f3 2d 3e
       -0.19478045 -0.19627132 0.1308825 0.16987434
0001f0 b3 5d 0e be 5b dd a9 bd c5 08 06 3e e6 5b 74 3d
       -0.13902931 -0.08294173 0.13089283 0.059657954
000200 3c 2f 57 bc 4c d5 fe bd e7 5e 14 be 6f 77 19 3e
       -0.01313382 -0.12443027 -0.14489327 0.14986967
000210 d6 81 f7 bd e3 e2 2c 3d f0 bf 7a 3d ca fd 00 be
       -0.12085311 0.042208564 0.061218202 -0.12596813
000220 ba f5 ac bd fb ef a9 bc c4 d8 ba bd 94 bf 3a be
       -0.08445306 -0.020744314 -0.09123376 -0.18237144
000230 19 56 03 3d e1 74 14 bc 7d 00 0a be b7 ff 57 3c
       0.03206453 -0.009061069 -0.13476749 0.013183526
000240 6f 13 42 bd 68 00 f3 bd 6a 12 fb bd 24 f3 15 be
       -0.047381815 -0.11865312 -0.122593716 -0.14643532
000250 8a f7 db 3d 46 b4 e2 bc fa 45 d8 bd 2c ee a4 3d
       0.10740574 -0.027673852 -0.10560222 0.0805324
000260 2e b9 f7 3d 76 df 27 3e 8e 3c 2d 3e 39 65 a1 bd
       0.12095867 0.16393837 0.16917631 -0.07880635
000270 82 fd 2d be 3c d4 57 3d 51 3e 61 be 88 4d 48 bd
       -0.16991237 0.052692637 -0.21996428 -0.048902065
000280 dd 8f 2f 3e b6 a4 8f 3d 0d ac b4 3c 85 1b 75 3c
       0.17144723 0.07013838 0.022054696 0.014960174
000290 29 35 31 3e cf 14 2a 3e d8 59 01 bc 62 56 31 bd
       0.17305435 0.166095 -0.007894956 -0.04329527
0002a0 36 5f 28 3a 81 87 17 bd 7c e9 48 3e b7 3a 48 3e
       0.0006422879 -0.03699446 0.19620317 0.19553648
0002b0 f3 2c ef bd f1 a2 23 be 33 ff ee 3d 01 fd 7c 3d
       -0.11678495 -0.15980126 0.11669769 0.06176472
0002c0 0b a3 33 be f6 77 26 3b 59 c4 0d 3d 91 f0 04 bd
       -0.17542665 0.0025401092 0.03461108 -0.032455985
0002d0 49 87 e8 bd fb 97 29 3e ff c9 47 3d fd 3c 07 3e
       -0.113539286 0.16561882 0.048776623 0.13206859
0002e0 71 72 33 3e 0f 15 16 3e 28 05 bd bd 92 f8 88 bd
       0.17524125 0.1465647 -0.09229499 -0.06688036
0002f0 61 58 1f 3e bd 75 56 3d 19 ed 92 3d 49 7a 3a be
       0.15561058 0.052358378 0.07174129 -0.1821071
000300 2e 66 dd bd 19 fb a3 bd bd 10 2e be f4 bb 38 3e
       -0.10810505 -0.080068775 -0.16998573 0.18040448
000310 01 f0 0a be 76 df 64 3d 35 06 4b bd b4 15 c5 3d
       -0.13568117 0.05587717 -0.049566466 0.0962328
000320 d5 e0 27 3e 0a 9a 19 3e 02 ae ff bd 0a 9a 44 be
       0.1639436 0.15000167 -0.12484361 -0.19199386
000330 50 45 08 be ff 49 03 be 78 83 6b 3e 09 ca 05 3e
       -0.1330769 -0.12821196 0.2299937 0.13065352
000340 c3 c0 37 3e 54 b7 af 3c 9d 3e 67 3e fa f3 c2 3d
       0.17944627 0.021449722 0.22582479 0.09519191
000350 08 25 77 3d e2 05 25 be af 76 eb bd 99 84 28 3e
       0.06033805 -0.16115525 -0.114972465 0.16456832
000360 9a cd 88 bd 44 b2 36 3e 23 c7 14 3d 32 d2 49 be
       -0.066798404 0.1784144 0.036322724 -0.1970909
000370 e4 64 e6 bd 0c ca 75 3b 78 e0 64 3d 44 22 88 3d
       -0.11249712 0.0037504463 0.055878133 0.06647161
000380 1c 1b f7 bc 2b b4 4d 3e 25 a0 24 bc 3b f8 42 bd
       -0.030164294 0.2008826 -0.010047947 -0.047600012
000390 b2 45 96 bd b3 30 02 3e 72 4b 7a 3d 89 0f 9d 3b
       -0.07337512 0.1271389 0.061107107 0.0047931117
0003a0 b6 f1 7d bd 1a 19 d2 3c 98 d0 bc bd 1d 1e 2f 3e
       -0.06199809 0.025646735 -0.092194736 0.17101331
0003b0 00 3e 9e bd c3 92 52 3c 03 9b 43 be 3c 56 36 3d
       -0.07726669 0.0128523735 -0.19102101 0.044515833
0003c0 2e f1 9e bb 0a 92 14 3e 49 a2 1e bd a0 be cd 3d
       -0.004850528 0.14508834 -0.038728986 0.100461245
0003d0 6c 4e 4b be 75 b4 20 3c d4 4d 2e 3d c4 eb 56 be
       -0.19854134 0.009808649 0.04255469 -0.20988375
0003e0 81 df 71 bd 2c f4 b8 3c 7a 00 34 3e 92 a6 8d bd
       -0.05905104 0.022577368 0.17578307 -0.069165364
0003f0 7d 5e 29 3e 19 ee e9 bd 01 f3 1f 3e f4 21 ef 3d
       0.1653995 -0.11422367 0.15620042 0.11676398

layers.8.bias f4 [64]
000000 ee 14 90 b8 77 38 e8 3a c6 e8 85 3b a9 80 b4 bb
       -6.8703535e-05 0.0017717023 0.0040865866 -0.0055085015
000010 04 e2 6d ba 75 94 24 bb fe 5c 05 ba bf d0 16 ba
       -0.00090745115 -0.0025112901 -0.0005087404 -0.00057531515
000020 14 6e 7d 3a dd e7 18 3b 8f d7 5e 3b 33 c4 a3 b9
       0.0009667587 0.002333156 0.0034002995 -0.00031235963
000030 36 77 a6 3b 56 83 b8 ba 51 c4 59 bb 96 c0 c9 b7
       0.005080129 -0.0014077227 -0.0033228586 -2.4050747e-05
000040 1c 86 b0 b9 6c f1 2d ba 63 f5 62 ba 7e c9 7d bb
       -0.00033669255 -0.0006635401 -0.0008657781 -0.0038724835
000050 1c 4b 9e 3b b0 c5 32 ba 56 60 9b 3b dc 63 45 3a
       0.004830731 -0.0006819619 0.0047417087 0.0007529834
000060 5a f0 af ba 1f ef 30 ba 74 a7 b5 39 bc be 14 3c
       -0.0013423071 -0.0006749499 0.00034647773 0.009078678
000070 34 24 0c bb 98 61 a1 3a d6 96 d3 3b 92 4b 1e 3a
       -0.0021383883 0.001231241 0.00645719 0.00060384825
000080 d6 92 93 ba 95 8d 30 bc 93 c5 d9 39 2f ae 53 ba
       -0.001125897 -0.010775943 0.0004153667 -0.00080749666
000090 3c ab a5 b9 08 c8 5d bc fe 37 be 3b 40 6c 67 3a
       -0.00031598832 -0.013536461 0.0058050146 0.0008828081
0000a0 86 03 89 bb 23 84 99 3a 23 8c f3 b9 a7 3c b1 3a
       -0.004181328 0.0011712353 -0.00046452982 0.0013522104
0000b0 86 e0 af 3a 70 43 75 ba 21 99 3f bb 9a b4 91 3a
       0.0013418354 -0.0009356057 -0.002923556 0.0011116446
0000c0 f5 53 27 bb c7 78 95 3a 8e 57 cf ba 3e 9e 45 ba
       -0.002553222 0.0011403792 -0.001581894 -0.00075385335
0000d0 ae 59 d4 ba ea 6c b4 ba 7d 71 ed 3b 82 c8 80 bb
       -0.0016201043 -0.0013765369 0.007246195 -0.0039301524
0000e0 8e 48 51 3a a4 d3 ce 39 4a 2e a8 ba 9e ee 8d 38
       0.0007983529 0.00039449066 -0.0012831178 6.76785e-05
0000f0 86 ba 53 3a 1e fd 96 ba 38 68 7c 3b c4 23 c9 bb
       0.00080768054 -0.0011519527 0.0038514268 -0.006138297
