data/20240122/state_net_8000.pth (torch, 90538 bytes, 14 tensors)

layers.0.weight f4 [64, 5]
000000 58 2c 97 3c 9d c1 3d bd ee dd 2e 3d b3 c7 4c be
       0.018453762 -0.046327222 0.042692117 -0.19998054
000010 cc 88 8f 3e a3 78 5d bd d2 a8 7d 3e f8 ee 17 3e
       0.28034055 -0.054070126 0.24771431 0.14837253
000020 4c da 6c be 48 d7 70 bd 06 8e 93 3e cd c4 f8 bd
       -0.23130149 -0.05879906 0.28819293 -0.12146912
000030 93 d8 7e be 08 71 54 3e 7c c3 24 be 2e 11 86 be
       -0.24887304 0.20746243 -0.16090196 -0.26184982
000040 c5 12 08 3d 68 17 3a 3e ad 91 30 3e 66 47 1e bd
       0.033221025 0.18172991 0.17243071 -0.03864231
000050 ee 47 0a be 15 05 fa 3c 5c fe 98 3d dd 07 ea bd
       -0.13504001 0.030520001 0.0747039 -0.11427281
000060 1e 49 c5 3d 20 0c 01 3d 2b 76 4a 3e ba e5 c1 3c
       0.096330866 0.031505704 0.1977164 0.023669112
000070 2e b3 8d 3e 95 47 b5 bd 9a ae c3 bd 5c 9b 42 bd
       0.27675766 -0.08851544 -0.09554787 -0.047511443
000080 41 ca 12 be 43 14 ee 3c f3 1a bd 3d e4 06 8c 3e
       -0.14334966 0.029062396 0.09233656 0.27349007
000090 01 b6 98 3e 29 6a a3 bb cc 6c 0a be 0f e4 b8 be
       0.29826358 -0.0049870205 -0.13518065 -0.36111495
0000a0 e5 63 20 be 35 7e 26 3e b6 ee 9f be bf f5 9d bd
       -0.15663107 0.16259082 -0.3123681 -0.07712888
0000b0 29 45 a7 3e 7d 74 ec 3d 82 92 85 bd d5 ed 48 be
       0.32669953 0.11545656 -0.06522085 -0.19621976
0000c0 02 4f 86 3e ba 2e 0c 3e 1f 7f 29 be cf 0f cf bd
       0.26232153 0.136897 -0.16552399 -0.10110437
0000d0 10 6a 93 3e 42 56 81 be 50 b8 be 3d de 40 66 bd
       0.28791857 -0.25261122 0.093124986 -0.056214206
0000e0 d8 81 52 3e 5d 17 87 3e 0a 88 ad bd 02 21 92 3e
       0.20557344 0.26385012 -0.08473213 0.28540808
0000f0 dc 31 7e bd 0e 9c 65 bd 38 c5 43 3e fb 30 6b be
       -0.06205927 -0.05605703 0.19118202 -0.22967903
000100 48 c0 c4 3d 60 dc f1 bd 53 72 75 3c 99 d9 02 3c
       0.09606987 -0.11809611 0.01498087 0.00798645
000110 ec b3 1e 3e 71 44 2c be f6 0e c1 3d 5d 57 e6 bd
       0.15498322 -0.16822983 0.09426682 -0.11247132
000120 ba 37 d4 3b 1e 0a 7a 3e d7 84 4d 3e ec 05 23 bd
       0.0064763697 0.24417922 0.20070206 -0.03980057
000130 0f 5f 70 be 2b 33 90 3e d0 02 13 3e 54 40 4c bd
       -0.23473762 0.28164038 0.14356542 -0.049866036
000140 89 eb 06 be 6e 58 65 bd a2 a1 b1 3d e3 e5 f9 bc
       -0.13175787 -0.055992536 0.08673407 -0.030505126
000150 c8 44 87 3e 29 45 aa 3e a7 e1 e8 3d 7a df 59 be
       0.26419663 0.3325589 0.11371165 -0.21276656
000160 1f fd 61 3e 0f 7d 06 3e 6a a4 9c be 70 3e 6c 3e
       0.22069214 0.13133644 -0.30594188 0.23070693
000170 4c de 26 3d 8b f2 24 be 50 9a 69 3e 43 27 5d be
       0.040739343 -0.16108148 0.22812772 -0.21597008
000180 32 d5 5a 3e c7 a9 01 be e6 54 d9 bd 73 c1 4e be
       0.2137039 -0.12662421 -0.10611896 -0.20190983
000190 47 38 27 bd 47 0f 82 be fa 88 32 be 6b 11 b7 3d
       -0.040825155 -0.2540228 -0.17435065 0.08938869
0001a0 10 6d c4 3c 4c 35 1b be 2b 3f 6a bd 30 a8 d7 bc
       0.023977786 -0.1515705 -0.057189148 -0.026325315
0001b0 10 93 5e 3e a9 ec 81 3e 04 b2 ad ba c9 a7 c5 ba
       0.21735787 0.2537587 -0.0013251905 -0.0015079911
0001c0 44 02 ee 3d 7f b3 16 3e cc a4 37 3e 7b f6 89 3e
       0.11621526 0.1471691 0.17933959 0.26945862
0001d0 c2 c4 fe 3d e4 3b 9c 3d 05 e8 83 3e 1c 3f 8d 3c
       0.12439872 0.07628611 0.25762954 0.017242007
0001e0 28 1c 81 3e b4 59 fc 3d 34 61 b5 bd 05 01 61 3e
       0.25216794 0.12321797 -0.08856431 0.21973045
0001f0 72 6f 1d be 83 4c 49 be f8 53 cc 3d 37 c0 23 3e
       -0.15374544 -0.19658093 0.09976953 0.15991293
000200 ef 22 67 3e f1 67 43 3e f4 5c 5a be 48 3d 59 be
       0.2257192 0.19082619 -0.21324521 -0.21214783
000210 9b ec 13 3e 51 e6 6e be 74 41 05 be 8b 3b 24 3e
       0.14445727 -0.23330046 -0.1301325 0.16038339
000220 9b fa 8e be 29 16 40 bd b5 9d 04 bc 82 6a 8f be
       -0.27925572 -0.046896134 -0.008094241 -0.28010947
000230 8a f6 60 bc 6f 61 a4 3e 8d a4 8e bd 6b 4b c5 3d
       -0.0137306545 0.32105586 -0.06964979 0.096335255
000240 00 63 73 be 50 e8 73 3e 3b 52 b3 bd bc ed 91 bd
       -0.23768234 0.23819089 -0.087559186 -0.07125422
000250 f8 02 f1 bc 28 42 84 3e fc 62 7d be 3e c9 1b be
       -0.02942036 0.25831723 -0.24744791 -0.15213487
000260 d2 4e 32 be 36 78 96 3e 74 e4 17 be bc 39 8e bd
       -0.1741288 0.2938859 -0.14833242 -0.06944606
000270 a6 70 2f be d0 8e e7 bd 02 6a 93 3d 8c ea fc 3d
       -0.17132816 -0.11306536 0.07197954 0.12349424
000280 ea a1 88 3e 05 50 83 bd 14 28 31 3e 9e 04 41 3e
       0.2668603 -0.06411747 0.17300445 0.18849418
000290 19 fc 89 be f2 97 86 3e a9 c8 80 3e 3c df 9c 3d
       -0.26950148 0.262878 0.25153092 0.07659766
0002a0 9f b7 8a be 02 f5 09 be 19 e4 9f bd a1 62 38 3e
       -0.27093217 -0.1347237 -0.07807178 0.18006374
0002b0 c9 78 97 3e 77 51 4b be 3a 9a 41 be 2f 09 94 bc
       0.2958434 -0.19855295 -0.18906489 -0.018070785
0002c0 ee e6 43 3e c0 1a 32 3e 71 8f 37 be a7 aa 16 be
       0.19131061 0.17393017 -0.17925812 -0.14713536
0002d0 68 c0 22 3e 19 af 46 3d 07 19 26 be bb 41 8f be
       0.1589371 0.04850683 -0.16220485 -0.27979836
0002e0 0d 2e a1 3d 88 b4 74 be 04 dc 14 3d f5 81 47 3d
       0.078701116 -0.23896992 0.036342636 0.04870792
0002f0 96 e0 ef bd 0b 73 81 be 86 6d b0 bd 78 c8 18 3e
       -0.11712758 -0.25283083 -0.0861464 0.14920223
000300 de 6a 39 3e a1 57 80 3e a0 d7 af 3e cd 75 27 3e
       0.18107173 0.25066856 0.34344196 0.16353531
000310 e5 71 6a be 24 97 4c 3e 9b 08 1c bd 98 ab 93 3e
       -0.2289501 0.1997953 -0.038094144 0.28841853
000320 2a 3b 73 3e d4 d8 5f be c0 64 8e 3e 68 07 8d be
       0.23753038 -0.21860057 0.2781124 -0.27544713
000330 87 8e 45 3e ab cc 37 be 53 5f f8 3d 3e 08 85 be
       0.19292651 -0.17949168 0.12127557 -0.2598285
000340 31 9b 1b be 39 cf 88 bd a5 ba 3c 3c d0 96 96 bd
       -0.1519592 -0.066801496 0.011519109 -0.07352984
000350 ae 54 ee 3d d4 f9 8b be f8 24 42 3e 98 6d f6 3c
       0.11637245 -0.2733904 0.18959415 0.030081555
000360 e4 de c4 3d 6f 71 d9 bc 2d f8 69 bd 5b 48 5a 3e
       0.096128255 -0.026543347 -0.057121444 0.21316664
000370 88 de 36 3e db dc e6 bc d4 63 37 bd 07 d7 49 be
       0.17858326 -0.028181484 -0.044772938 -0.19710933
000380 33 c4 47 be 71 8f 2e be 25 3e fc bd e6 25 12 be
       -0.19508438 -0.17046906 -0.12316541 -0.1427227
000390 14 87 8b 3d 5d 94 c1 3d 84 30 e0 3d e0 a0 89 be
       0.068128735 0.09452126 0.109467536 -0.2688055
0003a0 2d e1 03 3e d0 6d 8d bd cc 57 d6 3d a5 21 c9 3d
       0.12878866 -0.06905711 0.10465965 0.0982087
0003b0 b3 ed 61 be 34 04 80 3e 25 1b c5 bc bd dc 56 be
       -0.22063331 0.25003207 -0.024060795 -0.20982642
0003c0 c0 8d 74 be e1 9a ef bc 61 eb 57 3d 24 73 43 bd
       -0.23882198 -0.029248657 0.05271471 -0.04771723
0003d0 11 9b 83 be 8f f5 93 3d 3f 19 7b bd e6 f9 60 3e
       -0.25704244 0.07224571 -0.061303373 0.21970329
0003e0 bc ae 09 be b0 64 b3 3d 91 02 44 be e6 92 b5 bd
       -0.13445562 0.08759439 -0.19141604 -0.08865909
0003f0 d2 22 eb 3d f2 b6 7b be d3 8e 7c be 63 5e 13 3e
       0.11481251 -0.24581507 -0.24663858 0.14391474

layers.0.bias f4 [64]
000000 e9 7d 47 bb 99 b6 e2 3a 1a 29 8f 3b 27 a7 3a ba
       -0.0030440039 0.001729685 0.0043689134 -0.00071202446
000010 6c f7 e6 3a 0e 2c 31 ba c9 74 d7 ba b6 67 17 bd
       0.0017621345 -0.0006758579 -0.0016438003 -0.03696414
000020 63 f5 dc 3c 1d 2a 3a bb 09 d5 1c 3b 7f 04 46 bc
       0.026972478 -0.002840645 0.002393069 -0.012086033
000030 ea 16 e2 bc 4a f3 4b 3b 49 31 11 3b 58 87 5b 3c
       -0.027598817 0.0031120353 0.002215462 0.013398968
000040 1b 06 63 39 9d 70 83 bc 72 36 0d bc 2d 22 84 3b
       0.00021650681 -0.01604491 -0.008618938 0.0040323944
000050 7b a4 db 3a d8 64 fd 3c 30 7b 97 3b 30 73 1f bc
       0.0016757393 0.030931875 0.0046228394 -0.009732053
000060 f5 a1 6a 3b 91 b6 c4 ba 12 55 97 3b b4 d2 2d 3b
       0.00358021 -0.0015008022 0.0046182955 0.0026523294
000070 53 4b 73 ba 2d 6b 1e bb 94 d7 8b 3b 0e 7b 84 3b
       -0.00092809385 -0.0024172768 0.0042676423 0.0040429896
000080 50 fb 91 bb 0c 63 a2 3a 69 03 95 bb 38 b5 9c 3b
       -0.0044550076 0.0012389137 -0.0045475257 0.004782345
000090 71 19 3f 3c 22 60 49 3b 93 87 ee 3b 44 77 9e 3b
       0.011663781 0.0030727466 0.0072793453 0.004835995
0000a0 e7 82 8e 3a 86 aa d3 39 c1 d1 97 3b 17 c0 05 3c
       0.0010872752 0.00040372106 0.004633159 0.008163474
0000b0 ac 9b e1 bb e7 66 a9 ba b4 6c 72 3c e2 ed ae bb
       -0.0068850126 -0.0012924344 0.014796425 -0.0053384164
0000c0 15 58 be ba d7 51 12 bc 2f 42 a5 b9 45 ad 8c 3b
       -0.00145221 -0.008930645 -0.00031520563 0.0042931163
0000d0 5d 19 62 3c 9b cf f5 3a b5 36 06 bb f8 35 64 3a
       0.013799992 0.0018753888 -0.0020479385 0.0008705552
0000e0 7c 00 0e 3c f3 59 43 b9 25 25 4f 3b 01 3b 6c ba
       0.008667108 -0.00018630158 0.0031607833 -0.0009011478
0000f0 9a 57 6c 3b 8d 39 27 bb 6f e6 94 3b b0 0d bd bb
       0.0036062957 -0.002551648 0.0045440714 -0.005769454

layers.2.weight f4 [64, 64]
000000 ed 0c 53 3b 49 28 06 be 6e e6 ab 3d 50 38 70 3d
       0.003220375 -0.13101305 0.0839356 0.058647454
000010 fb ab ba bd d3 58 fb bc 30 95 8b bc 51 57 ed 3d
       -0.09114834 -0.030682003 -0.017038912 0.1158892
000020 03 93 bf bd 5f 42 22 be 37 eb fb 3c aa c2 93 3b
       -0.09354212 -0.15845631 0.030751808 0.0045092897
000030 4e ae 12 bd 14 cb 15 3e 2e 91 22 bd a0 f5 ff bc
       -0.03581076 0.1462825 -0.039689235 -0.031245053
000040 d9 87 73 bd 3c d0 0e 3c fe ba d0 bd 2f b9 a7 bd
       -0.059455726 0.008716639 -0.10191916 -0.08189618
000050 14 50 b0 bd 3b bd 5d be ec 0f 52 bb 2a 11 8d 3c
       -0.08609024 -0.21654217 -0.0032052947 0.017220099
000060 ca 65 bd 3c b6 78 b9 bd 6e 8a 98 3d 8d 2a 18 bd
       0.023119826 -0.09056227 0.07448278 -0.037149955
000070 80 cc ff bd e4 5f 2b 3d 54 f3 3d 3e 72 e9 f5 3d
       -0.12490177 0.041839495 0.18549854 0.12007417
000080 a8 eb ef 3d 3c da 2e 3e 0c cc ef bd 78 e7 8f bd
       0.1171487 0.17075437 -0.11708841 -0.07026571
000090 36 f9 f0 bd 49 fa 35 be a1 25 b8 3c d0 9e 5b 3d
       -0.11766283 -0.17771257 0.02247888 0.053618252
0000a0 37 b3 3b 3e c9 6d 0a 3e 5c 87 4f 3e 7e 9b 07 be
       0.18330084 0.13518442 0.20266479 -0.1324291
0000b0 bb 8a 0d 3e ad 63 d2 bd 3a 4b 90 3d 5e 54 29 bd
       0.13822453 -0.10272918 0.07045598 -0.041340224
0000c0 ff 69 04 be 2f 19 ee bd 16 9a 0e be 9c c8 08 be
       -0.1293106 -0.11625897 -0.13925967 -0.13357776
0000d0 c6 27 04 3d bc c2 16 be 01 1f a5 bd 14 7f f0 bd
       0.032264493 -0.14722723 -0.08062554 -0.11742988
0000e0 3f 9c 33 bd 2d b4 bd bc a8 d3 57 be 17 8e 22 be
       -0.04385018 -0.023157204 -0.21076834 -0.15874515
0000f0 8e 25 cf 3d 8e 9b 0d 3e ba ff 4d be 15 d2 ca 3d
       0.10114585 0.1382887 -0.20117083 0.09903351
000100 a4 f3 58 3e ed da 83 bd d8 36 03 be 21 e8 59 3e
       0.21186692 -0.06438241 -0.1281389 0.21279956
000110 d4 00 34 be a2 85 70 3c 35 45 bb 3d c0 12 03 3d
       -0.17578441 0.014680298 0.091440596 0.032000303
000120 66 61 1a be 15 fa b4 3d 24 e9 44 3e 97 b9 a3 bd
       -0.15076217 0.08836762 0.19229561 -0.07994383
000130 a3 e6 84 3c f2 50 04 3e 5e fb 37 3e 55 83 30 be
       0.016223257 0.12921503 0.17966983 -0.17237599
000140 42 dc 02 3e 85 aa f2 bd 12 1a bd 3c 9d 76 30 3d
       0.12779334 -0.1184893 0.02308372 0.04308187
000150 49 00 fd bc ad 8d 6f bd 12 52 da bd 3a da e1 bd
       -0.030883925 -0.058484722 -0.10660185 -0.110279515
000160 61 7d fa 3b f3 73 a0 bc ff 7c f5 bc ed 94 81 3d
       0.007644341 -0.019586539 -0.02996683 0.063272335
000170 52 11 83 3d bc ec bc bd 5b d9 ec bd d4 cb 56 be
       0.06399788 -0.09224841 -0.11564895 -0.20976192
000180 0c ed b2 3d 4c 86 84 3d 72 3e de bc e1 95 2f be
       0.08736619 0.064709276 -0.027129386 -0.17147018
000190 7c 35 49 be 56 40 e0 bd a8 c3 49 3e 5e fc 10 3e
       -0.19649309 -0.10949771 0.19703543 0.1415877
0001a0 07 c4 c8 3b a8 6c fa bd 45 df 7d ba 33 82 12 3e
       0.006126884 -0.12227756 -0.0009684454 0.1430748
0001b0 1b 4d 36 3e 6a 0f 51 be a9 00 5c be 05 98 36 3b
       0.17802851 -0.20416036 -0.21484627 0.0027861607
0001c0 27 10 bd bc e1 2b 3b be b5 77 82 bd aa 4e af 3d
       -0.023078991 -0.18278457 -0.063704886 0.08559926
0001d0 a6 39 fe bd 23 3c 01 be 35 58 33 3e b7 b5 66 bb
       -0.12413339 -0.12620597 0.17514117 -0.0035203525
0001e0 62 c9 84 bd 13 a9 9e 3d 88 f8 41 3e ce 31 a9 3d
       -0.06483723 0.07747092 0.18942463 0.082614526
0001f0 03 1a c1 bd a2 19 53 3e 61 11 5f bd 74 32 19 3e
       -0.094287895 0.20615247 -0.054459933 0.14960653
000200 67 6f d0 bb 9e 62 3a 3e 18 23 e5 bd 12 89 eb 3c
       -0.0063609364 0.18201682 -0.11188334 0.028751884
000210 a9 28 29 be 97 13 12 be 50 4f 25 be 01 e3 48 be
       -0.16519417 -0.14265285 -0.16143537 -0.19617845
000220 8c d2 7e 3d 3c 35 fa bd 84 ff 28 be 26 a0 ca bc
       0.062212512 -0.12217185 -0.16503721 -0.024734568
000230 d1 2a 92 bd 20 3c 04 be 7a f0 13 3e 97 ba f6 3d
       -0.07137073 -0.12913561 0.14447203 0.12047308
000240 73 a5 5e 3e 97 eb 31 be 9a bb c8 bd cd 20 f9 bd
       0.21742801 -0.17375027 -0.09801407 -0.121644594
000250 21 d3 9a bc a5 4f f7 bd 24 e6 b6 3b 9b dc b7 bd
       -0.018899502 -0.12075738 0.005581634 -0.08977624
000260 a0 f0 5c be a8 c6 a2 3d 33 a7 44 bc c3 da 03 3c
       -0.21576166 0.07948047 -0.012002754 0.008047762
000270 9f 81 43 be a7 a0 6f 3d 15 f4 44 be e5 4c f7 bc
       -0.19092415 0.05850282 -0.19233735 -0.030188033
000280 4f da 47 be 5a 34 dc bd e7 b7 22 3e 70 fc 45 be
       -0.19516872 -0.10752173 0.15890466 -0.19334579
000290 0f de 3c 3e 6e bf 2d be c3 88 99 bd af a9 1f 3c
       0.18444084 -0.16967556 -0.07496788 0.009745046
0002a0 da d8 3c be 1b 48 33 be 2f 8c 94 bd 2d d0 97 bd
       -0.18442097 -0.17507975 -0.072533004 -0.07412753
0002b0 d1 f5 f3 3d 7a 0f c8 bd af 81 3c 3e f9 ae ad bd
       0.1191212 -0.09768577 0.18408845 -0.08480639
0002c0 35 dc 29 3b 9a 7d 35 bb 40 68 94 3d bd 90 13 3d
       0.0025918607 -0.0027693273 0.072464466 0.036026705
0002d0 ca b6 c1 bc 32 c6 5a 3e cf 39 b6 3d e4 78 01 3e
       -0.02364673 0.21364668 0.08897745 0.12643772
0002e0 5c 98 e5 3d 9c 0f 45 bd 90 c7 e3 3d d4 75 31 3d
       0.11210701 -0.04811059 0.11122048 0.04332526
0002f0 e3 36 65 3d 0d 2d 6f be bc b1 25 3d 31 9b 0d be
       0.055960547 -0.2335703 0.040452704 -0.13828732
000300 41 c7 ee bd 30 91 e2 bd 68 af 0e be 0a a3 36 3e
       -0.116590984 -0.110628486 -0.139341 0.17835632
000310 de 03 cb bd 8c 00 f8 bd fc 5d ed 3c f2 c1 89 3c
       -0.09912847 -0.12109479 0.02897548 0.016816113
000320 4b 6d 39 be 36 5e 5b be 20 4b 25 be 4a f3 5c 3e
       -0.18108098 -0.21422657 -0.16141939 0.21577182
000330 08 ac 0b be 51 9b 39 bb 4d 3a 24 3d ec d6 c9 3d
       -0.13639843 -0.0028321336 0.040094662 0.09855446
000340 fb 70 23 be 31 34 5d be be 4a 2b 3e 26 6d e9 3d
       -0.15961067 -0.2160194 0.1672773 0.113977715
000350 78 7e 8c 39 be ec e2 3d b0 3c 29 be 4e 1e 0c bd
       0.00026797107 0.11080311 -0.16527057 -0.03420859
000360 1e f0 df bd aa f3 0f be 99 9b d6 3d 76 e2 2f bd
       -0.109344706 -0.14057794 0.10478897 -0.04294058
000370 2b 68 0a be e1 6b 57 be 6c 9a 39 be f2 05 a6 bc
       -0.135163 -0.21037246 -0.18125314 -0.020266507
000380 a4 41 3b be 56 9d 37 be fc 11 05 be 36 ba 82 3c
       -0.18286759 -0.17931113 -0.12995142 0.015957933
000390 80 74 f1 3d fc e9 c4 bd ac ed 0c bd 41 52 70 bd
       0.11789799 -0.096149415 -0.03440635 -0.058672193
0003a0 ba 3d cf 3c fe f4 84 bd 83 1b 87 3d 0a 16 09 3e
       0.025297988 -0.06492041 0.06597044 0.13387313
0003b0 ea a2 8e 3c aa 08 fb 3d a1 7d 34 be 58 d6 a1 bd
       0.017411668 0.12257512 -0.17626049 -0.07902211
0003c0 39 88 40 3e d6 85 57 3e 3d d9 56 be a3 62 d8 3d
       0.18801965 0.21047148 -0.20981307 0.105656885
0003d0 83 94 94 3c 48 18 3e be 67 9b 23 be 3e d5 7a be
       0.018137222 -0.1856395 -0.1597725 -0.24495408
0003e0 4b 40 20 3b 46 5b ea 3d 24 c2 d0 3d 93 2d 1b be
       0.0024452384 0.1144319 0.101932794 -0.15154104
0003f0 64 d2 32 3e 95 64 2c be 70 80 59 3e 28 66 be bd
       0.1746307 -0.16835244 0.21240401 -0.092968285

layers.2.bias f4 [64]
000000 cf 4d c7 ba 85 e8 f8 ba 47 df 79 3c 81 ba 2f 3a
       -0.0015205684 -0.0018990195 0.015250987 0.00067035115
000010 8c 36 45 bc 93 57 23 bb 9e 6b ae b9 ac d4 a0 3a
       -0.012036931 -0.0024924024 -0.00033268047 0.0012270412
000020 ed 29 21 3b e7 48 08 3b 98 f4 26 3b 15 21 f4 3b
       0.002459164 0.0020795406 0.002547538 0.0074502327
000030 fa 4a 42 bb 01 e5 3c 3c 4e 16 04 bb f7 bd db 3b
       -0.002964674 0.011529208 -0.0020154896 0.006705995
000040 3c 85 0a 3a 6e 8b 7e b9 0c 57 7a bc 80 a8 90 bb
       0.00052841357 -0.00024275269 -0.015279543 -0.004414618
000050 6e 5a 2f bb e0 b2 c4 b9 e0 fd d4 ba b8 7a 41 bb
       -0.002675678 -0.00037517305 -0.0016249977 -0.002952261
000060 0a 88 01 bc 92 80 2b 3b 86 32 8e 3b aa 54 28 3b
       -0.007905969 0.0026169163 0.004339519 0.002568523
000070 0c db 71 ba 39 51 79 b9 28 fe 7c 3b ad b7 f8 3a
       -0.0009226061 -0.00023776748 0.0038603637 0.0018975638
000080 3c ec 96 37 14 a9 d3 3a bd 41 f2 38 d2 c5 cc bb
       1.7991399e-05 0.0016148412 0.00011551704 -0.006249168
000090 1e 07 83 3a 27 b1 81 b9 c9 6b 73 bb 72 43 36 3c
       0.0009996628 -0.00024736786 -0.0037143102 0.011124479
0000a0 f7 aa 4e 3b 84 e9 21 3b 64 84 31 3b 98 b1 68 3b
       0.0031535008 0.0024705837 0.0027086968 0.0035506245
0000b0 17 2d 30 bb 22 2a 17 bb b7 5c 6c bc ca 22 2f 3b
       -0.0026882344 -0.0023065885 -0.014426402 0.0026723617
0000c0 1b ee f7 3b 1d 4e 10 bd 54 78 ff 3b a9 19 b8 bb
       0.007566226 -0.035230745 0.0077963267 -0.0056182933
0000d0 c0 84 b9 3b 79 19 31 bb 27 5a da b9 ef dc 82 ba
       0.005661577 -0.002702324 -0.0004164737 -0.0009984056
0000e0 37 8b 21 3c f4 ff 99 b9 a6 61 55 3b 97 f4 81 3b
       0.009859852 -0.00029373134 0.0032559424 0.003965925
0000f0 f5 d0 01 bb e2 bf 35 3a 92 ee 65 bb bf 02 10 3c
       -0.0019808386 0.0006933195 -0.0035084826 0.008789717

layers.4.weight f4 [64, 64]
000000 df f6 5a 3d 58 9b 10 3e b2 2f b2 bd 58 08 4a be
       0.05345809 0.14121759 -0.087005034 -0.19729745
000010 44 1c 07 be c6 05 0b be 20 5a 64 bd 26 07 53 3d
       -0.13194376 -0.13576421 -0.055750012 0.05152049
000020 1c 4e 78 bd 5f 82 8e bd 67 e1 36 3d da 0d bd bd
       -0.060621366 -0.0695846 0.044648554 -0.092311576
000030 fe 8c 22 3e e5 bb 30 3e 57 4d 3e be 81 4a 2c 3e
       0.15874097 0.17259176 -0.1858419 0.16825296
000040 fc a6 44 bd fb 6b 29 3e 4f fb d3 3a 33 51 11 be
       -0.04801081 0.16545098 0.0016172918 -0.14191131
000050 04 88 e8 3c 00 07 31 bd fd 3c 57 3e cf 78 a1 bd
       0.02838517 -0.043219566 0.21019359 -0.078843705
000060 71 b5 45 be 89 26 7e bd 3b 9e d5 3d d8 57 8c 3c
       -0.19307496 -0.06204847 0.10430571 0.01713173
000070 0d c2 f3 bd 93 e1 ba 3c 32 eb 05 3e 44 a0 ad 3d
       -0.119022466 0.02281264 0.13078001 0.08477834
000080 c2 26 85 bd ba 25 2b 3e 9b bc 02 be d6 00 57 3e
       -0.06501533 0.1671361 -0.1276726 0.20996413
000090 28 1b ba 3d 9c 36 d6 3d 3a 78 55 3e 54 c0 a7 3d
       0.09087211 0.10459635 0.20846644 0.081909806
0000a0 86 f0 7a 3e ba fe 35 3c 00 4a 15 3e d8 b3 56 bd
       0.24505815 0.011108095 0.1457901 -0.052417606
0000b0 ae e3 6d 3c c4 dc 71 3d 0e 4d b3 bd 6a 2e 22 3d
       0.014519615 0.05904843 -0.087549314 0.039595045
0000c0 99 04 30 be a3 c0 bc 3d 75 89 20 3e e9 b5 02 3e
       -0.17189254 0.0921643 0.15677436 0.12764706
0000d0 62 85 0c bd e0 78 a4 3c 2d b6 4c be 8e 19 41 bd
       -0.03430689 0.020077169 -0.1999137 -0.04714351
0000e0 fa fe 0c 3e 29 17 86 bc 15 9e 03 3e 86 9c ae 3d
       0.13769141 -0.016368465 0.12853272 0.08525948
0000f0 48 69 40 bc b0 0c ae bd 79 86 22 be 1d 38 47 3e
       -0.011743851 -0.08498514 -0.1587161 0.19455
000100 c5 99 19 3e d9 6a 26 bd d0 61 34 be 03 8e 74 be
       0.15000065 -0.04062924 -0.17615438 -0.23882298
000110 15 f2 c3 bd b0 ab ef bd 37 9a 91 3e 01 ed 95 bd
       -0.09567658 -0.11702669 0.2843797 -0.073205955
000120 bd b1 95 bd 58 11 03 3e c4 31 df bd ff ad 77 3d
       -0.073092915 0.12799585 -0.10898164 0.06046867
000130 45 64 71 be 15 16 74 bc 86 44 0b be b9 56 0f 3d
       -0.23573406 -0.014897843 -0.13600358 0.034994815
000140 e1 41 29 3d 06 58 f1 bd 07 88 51 be c3 dc 62 bc
       0.041322593 -0.11784367 -0.20462047 -0.013846579
000150 75 07 15 3e 04 eb a7 3d 79 be cd 3c 05 eb 5e be
       0.14553626 0.081991225 0.025115239 -0.2176934
000160 d1 11 38 be 48 4e 5e 3e 8f cb 38 3d 44 2d 89 3d
       -0.17975546 0.2170955 0.045116004 0.06698087
000170 24 8f fe bd 45 7e 19 be de 4c 53 bd 2b 63 26 3e
       -0.12429646 -0.14989574 -0.05158698 0.16248767
000180 dc 12 f8 bd 6f 0e c0 bd 03 4a c0 3d dc a5 f6 3c
       -0.12112972 -0.09377753 0.093891166 0.030108385
000190 9c 0f 9d bd f3 77 00 be 4f 2b b5 be a0 66 dc bd
       -0.07668993 -0.12545757 -0.35384604 -0.10761762
0001a0 78 25 43 3d 1e ea cc 3d 84 e6 d2 3d 2c 40 12 3c
       0.047643155 0.10005592 0.102978736 0.008926433
0001b0 db c8 1e bd 1c d9 80 bd 9f 01 13 bd f4 c9 ec bd
       -0.03876577 -0.0629141 -0.035890218 -0.11561957
0001c0 38 25 00 3e 32 6d 22 be 5b d4 85 3d d2 01 54 be
       0.12514198 -0.15861967 0.06534644 -0.2070382
0001d0 30 73 4f 3e 12 bc 04 bd 3b 42 2d 3e 20 4b 8f bd
       0.20258784 -0.03240592 0.16919796 -0.06996751
0001e0 3b e4 09 be 27 14 f3 bd 8a f8 0a 3e cb a0 bd 3c
       -0.1346597 -0.11869078 0.13571373 0.023147961
0001f0 94 97 cd 3b 6d cd bc bd 37 02 77 be 0b e8 ed bd
       0.006274173 -0.09218869 -0.24121939 -0.11616524
000200 74 75 bf bc bc 1e 05 bd 37 4c 32 be 01 5c c5 3c
       -0.023371436 -0.032500014 -0.17411886 0.024091722
000210 8a 59 6f 3e ec 79 f7 3c 0e a5 d9 bd e2 db 84 3d
       0.23374 0.030209504 -0.10627185 0.06487252
000220 9a 9c 33 be df 94 76 be 33 37 57 bd 10 5e 83 be
       -0.17540208 -0.24080227 -0.052542876 -0.25657701
000230 48 2f 3c 3e 41 72 ae bd d1 7f ac 3d 70 6a 64 3e
       0.18377411 -0.08517886 0.084228165 0.22306228
000240 95 98 57 be e8 3a 7d 3e 40 e0 3f 3e ba 85 1b be
       -0.21054299 0.24729502 0.18737888 -0.15187731
000250 0d e7 e6 3d 18 32 89 3c da 55 a4 3d e9 2b 64 3e
       0.11274538 0.01674752 0.080241874 0.22282375
000260 22 e6 9c bd 50 7f ae 3d 14 db a3 3d 55 d5 51 be
       -0.07661082 0.08520377 0.0800077 -0.20491536
000270 12 9f 01 3e e5 fc 90 3e 4a 5d 49 be 5d a5 37 be
       0.12658337 0.28317943 -0.19664493 -0.17934175
000280 dd e3 07 be ad 24 02 be 28 42 0f 3e c2 4b fa 3d
       -0.13270517 -0.12709303 0.1399008 0.12221481
000290 11 4f 0f be df a2 30 3e cc 9b 11 be 90 ca 4c be
       -0.13995005 0.1724963 -0.14219588 -0.19999146
0002a0 9a ca 74 be e9 9a 87 bb 5d 1f c5 3d 3c 63 0b be
       -0.23905411 -0.00413834 0.09625123 -0.13612074
0002b0 0a 06 8f bb 55 72 24 3e 16 d8 2a 3e 65 3c 84 3d
       -0.0043647336 0.16059239 0.16683993 0.06456832
0002c0 99 ee 9e bd 28 03 a1 3d bd d2 49 3e 84 e2 33 3e
       -0.07760353 0.0786193 0.19709297 0.17566878
0002d0 66 b4 a5 3d f0 16 2a be 0c 89 b6 3d 29 b6 52 be
       0.08091049 -0.16610312 0.08912858 -0.20577301
0002e0 7c 00 00 be 8c d0 12 3d d6 3d 40 3e b9 14 51 be
       -0.12500185 0.035843417 0.18773589 -0.20418061
0002f0 42 b9 21 be 61 e9 5f bd af eb 0b 3d 78 70 42 be
       -0.15793326 -0.054665927 0.034160312 -0.18988216
000300 2c 2d 16 3e b5 94 aa bc e5 69 94 3d 1f 66 a4 bc
       0.14665669 -0.020822862 0.0724676 -0.020068226
000310 0c bb 5f 3d bd 4c 76 bd 4d a5 46 be af 8e 0c 3d
       0.05462174 -0.060131777 -0.19398995 0.03431576
000320 5d 38 c0 3c 81 da 94 3d 53 2e 50 3e 45 dd 82 3d
       0.023464376 0.07268239 0.20330171 0.0638986
000330 31 cc b2 3d f8 ee 1e be c4 23 50 bd 61 34 4c 3e
       0.08730353 -0.15520847 -0.05081536 0.19941856
000340 0b 74 86 bb 95 aa 08 3d ab 12 e9 3c ce 93 1a be
       -0.004103189 0.033365805 0.028451284 -0.15095446
000350 52 93 59 be 64 2c 16 be 87 56 87 3c f4 7f 4d 3e
       -0.21247604 -0.14665371 0.016520752 0.20068341
000360 22 bc 19 be 54 2c d3 3d 04 ae 41 3e 2e 9d d5 bd
       -0.15013173 0.10311189 0.18914038 -0.1043037
000370 be 74 15 be 38 25 23 be f1 31 d5 bd 2e 25 95 3c
       -0.14595315 -0.15932167 -0.10409916 0.018206205
000380 0c 52 39 be a5 2e cb 3d a1 9f 1b be 0f dc 10 be
       -0.18097705 0.09921006 -0.15197612 -0.14146446
000390 18 47 02 3e ed b0 88 3d 6b 30 19 3e 72 ae 68 bd
       0.12722433 0.06674371 0.14959876 -0.05680699
0003a0 a7 89 69 be 4e 78 34 3d 17 64 5e 3e 12 c0 3e 3e
       -0.22806416 0.044060044 0.21717869 0.18627957
0003b0 08 76 41 3e 24 3e 09 bd 67 7a 69 bc 1e 38 f3 3d
       0.18892682 -0.033506528 -0.014250374 0.11875938
0003c0 bf d9 02 bc 94 32 fe bb ec 92 6e 3c 22 8b 29 3d
       -0.007986485 -0.007757494 0.014561396 0.041392453
0003d0 fe d6 f6 3d a9 26 29 3e 65 30 17 3e 12 57 32 be
       0.12052725 0.16518654 0.14764555 -0.17416027
0003e0 29 75 07 be f7 45 24 bc 7c 31 44 3e 9f dc 90 bd
       -0.13228287 -0.010026447 0.19159502 -0.0707333
0003f0 cf da d8 bc 65 2c e6 3c e6 2e d2 bd f6 89 fb 3c
       -0.026471524 0.02809734 -0.102628514 0.030705433

layers.4.bias f4 [64]
000000 9b cb de 3a 28 82 c3 3d 2c 7a 64 bc 96 d1 0f ba
       0.0016997935 0.0954631 -0.013945144 -0.0005486248
000010 96 2b b8 bb ab a9 09 bc 7b b5 d6 3a fe d1 80 ba
       -0.00562043 -0.008402268 0.001638099 -0.0009828208
000020 36 13 b7 3b 1d 59 96 bc 8e bc e2 3a 31 ef 94 bb
       0.005587007 -0.01835304 0.0017298625 -0.0045451154
000030 68 60 a7 3a d9 4e 63 3a 1e 3c 5c 3b 85 f7 67 3b
       0.001276982 0.0008671112 0.0033605169 0.0035395336
000040 63 09 40 ba 4e d9 e9 38 c4 be 82 bc d7 c5 48 bc
       -0.00073256175 0.00011150782 -0.015960105 -0.0122542
000050 49 0c cc ba 66 72 6d bb b5 ac 4f ba 1c 85 c1 b9
       -0.0015567626 -0.0036231517 -0.00079221587 -0.00036911003
000060 a8 d2 c8 3b e9 a5 da b9 bf 4a 0a 39 e1 bd 73 3b
       0.006128628 -0.00041703813 0.0001318855 0.0037192034
000070 83 86 98 3b 7b 10 75 3b 99 3e 85 3c b8 a9 a7 b9
       0.004654707 0.0037393856 0.0162652 -0.00031979172
000080 83 ef 04 bb 2b b6 c6 bb 7a 63 94 bc 50 ce 7a 3c
       -0.0020284362 -0.0060641966 -0.01811384 0.015307978
000090 6a d4 55 3c 1d 1e 12 3c b5 14 1d bc be b2 bb 3a
       0.013051132 0.008918312 -0.0095874565 0.0014320237
0000a0 78 da 9c bb cf 67 d8 3a 1d 05 96 bb b0 f5 db 3a
       -0.0047867857 0.001651043 -0.0045782463 0.0016781595
0000b0 7e 54 7d bb 96 a7 72 39 b1 65 3c 3b 25 71 96 b9
       -0.0038655098 0.00023141349 0.0028747136 -0.0002869453
0000c0 3e 11 a1 3a 9e 4b d6 bb 36 ae 48 39 ac 72 0a ba
       0.0012288464 -0.006539776 0.00019138385 -0.00052813697
0000d0 67 7c e3 ba 62 db b4 ba 0c ce 1d 3c f1 ab 7b 38
       -0.00173558 -0.0013798291 0.009631645 6.0003196e-05
0000e0 cc 57 0b 3c 0f dd 73 3b 85 4a be ba 00 c6 ca ba
       0.008504819 0.0037210619 -0.0014518058 -0.0015470386
0000f0 e4 d5 d4 3a e7 f9 d6 39 bb 59 40 3c b5 3b b7 bc
       0.0016238061 0.00041003452 0.011740143 -0.022367338

layers.6.weight f4 [64, 64]
000000 88 d9 55 be 75 5d 46 3d d6 3e 4c be bc 49 17 3e
       -0.20883763 0.04842897 -0.19945845 0.14774221
000010 8a 1c 05 be 6f 9e a4 bd 4f 42 34 be 4f 61 d4 3d
       -0.12999168 -0.08038031 -0.1760342 0.10370123
000020 f2 6c 16 3e 57 68 8a 3d 3b 7e 24 3c 67 3c 90 bd
       0.14689997 0.067581825 0.010039861 -0.07042771
000030 68 37 78 bd 3d b3 a1 3b 0c c2 46 3d 10 c0 49 3e
       -0.060599715 0.004934697 0.0485249 0.19702172
000040 d4 3b 8a 3d 09 ba 75 bd 9d e2 44 be 51 33 18 3e
       0.067496926 -0.05999187 -0.19227071 0.14863326
000050 85 c6 c8 bd a0 f7 3e bc 78 30 58 be 4f 47 db bd
       -0.098034896 -0.011655718 -0.2111224 -0.107069604
000060 d3 9f b8 3d 99 f3 25 be 78 27 80 3d d9 97 8a 39
       0.09014859 -0.16206206 0.06257528 0.00026434546
000070 5f e6 3c bb fd 26 2d 3e cb dd 48 3e 76 0f 90 bd
       -0.0028823835 0.16909404 0.19615857 -0.07034199
000080 2c 98 e2 3c 9c 7d 2d 3c 71 82 32 be 46 d4 33 bd
       0.027660452 0.01058903 -0.17432572 -0.04390361
000090 ea a8 c9 bd 2a f4 bd bd ac 87 4f 3d d2 fd 1c 3e
       -0.09846671 -0.09275086 0.050666496 0.153312
0000a0 27 39 ff bc 8e d1 3c bd 33 e2 c2 3c 2a a9 b9 3d
       -0.031155182 -0.046098284 0.0237895 0.090654686
0000b0 66 7f f0 3d 97 1b 95 bc 1c 79 4b 3e 62 bd 58 be
       0.11743049 -0.018201632 0.19870418 -0.21165994
0000c0 4c 4b 03 be d2 1b 9f 3d 89 e1 37 be 17 8f 0d bc
       -0.12821692 0.07768978 -0.17957129 -0.008640072
0000d0 40 d3 43 3e 3d 2a 6c 3d 6f d3 0c 3e ea 7b 13 3e
       0.19123554 0.05765747 0.1375253 0.14402738
0000e0 18 c9 12 3d b3 9d b1 3d d1 39 19 3e 8d 13 52 ba
       0.03583631 0.08672657 0.14963461 -0.00080137776
0000f0 ed c5 54 3e db 91 04 3e bc 00 82 3d dd c7 26 be
       0.20778628 0.12946264 0.06347796 -0.1628718
000100 a3 96 10 be 4a c7 dc bd e1 34 27 3e 06 38 49 3e
       -0.14119963 -0.10780199 0.16328765 0.19650277
000110 03 81 86 3e de ac 90 3e b7 d1 59 be 06 f8 b4 bd
       0.26270303 0.28256887 -0.21271406 -0.08836369
000120 21 bf 0a 3e 58 d4 c3 bd c6 5b 9b bd fa 19 3e be
       0.13549472 -0.09561986 -0.07585864 -0.18564597
000130 64 70 2f bc 23 b5 86 bd 3e a5 3f 3e 64 12 24 bd
       -0.010707948 -0.06577518 0.18715379 -0.0400566
000140 e4 3d 0b 3d 56 cc 22 be 2c 75 79 3e 35 20 9e bd
       0.03399457 -0.1589826 0.24361104 -0.07720987
000150 bf 79 49 3e 95 85 27 bb f7 33 0d 3c f7 6c 71 be
       0.19675349 -0.0025561799 0.008618346 -0.23576723
000160 d8 fe 1e be 9b ad 27 3d 22 59 24 3e 99 0a 83 be
       -0.15526903 0.040937047 0.16049626 -0.25594023
000170 44 12 05 3d a9 48 16 3e 10 db 2c 3e c4 34 0e be
       0.032488123 0.14676155 0.1688044 -0.13887316
000180 cb 2b 32 3e fe 30 3d 3e 69 0f 46 be 5b da 7a be
       0.17399518 0.1847572 -0.19341816 -0.24497359
000190 4c ff 22 be a8 b0 1f 3e 0d a3 b9 bc 96 01 97 bd
       -0.159177 0.15594733 -0.022660756 -0.07373349
0001a0 9a 59 fc bb 5d 68 3b 3e 6c 00 24 3e 82 1b 66 3e
       -0.007701111 0.1830153 0.16015786 0.22471431
0001b0 65 16 84 3d 22 0d 81 bd 56 bc 3f be 7c 7c 35 be
       0.06449584 -0.06301333 -0.18724188 -0.17723268
0001c0 3c 65 67 3e e4 df 73 3e 81 0d fa bd 1a 3f 0c bb
       0.22597212 0.23815876 -0.12209607 -0.0021399916
0001d0 7b c6 24 3e 28 a7 a6 3d c8 63 e2 bd e1 8e 01 3e
       0.1609134 0.08137351 -0.11054188 0.1265216
0001e0 2e 25 21 3e df 5c 3e be 32 9e 3b 3d 24 e5 c9 3d
       0.15736839 -0.18590115 0.045805164 0.09858158
0001f0 d4 45 0f 3d 03 e9 ef bd 90 c3 ee bd c1 fe 5d bd
       0.034978703 -0.11714365 -0.11658394 -0.05419803
000200 68 92 ea bc 04 eb f7 bb 2e b6 4c be 9b 40 28 bd
       -0.028634265 -0.007565858 -0.19991371 -0.041077238
000210 64 07 35 bc 81 23 2a be 92 89 04 be 00 f6 2e 3e
       -0.011049125 -0.16615106 -0.12943104 0.17086029
000220 d8 14 31 3e 63 0c dd 3a 84 8b fd bd 0b 75 5e 3e
       0.17293108 0.0016864653 -0.12380126 0.21724336
000230 a7 04 ca bd 0b ab 2f be 83 3a 37 3e 53 cf 7b bc
       -0.098641686 -0.17155091 0.17893414 -0.015369254
000240 ce d4 1c be 1e 73 a7 3d a5 2b a8 3d b2 80 72 3c
       -0.15315554 0.08176254 0.082114495 0.014801191
000250 2f 21 44 be ac df 01 be 8c ab 15 be ed e6 65 3d
       -0.19153284 -0.1268298 -0.14616221 0.05612843
000260 37 ac 09 be 27 89 87 3c 01 44 fd 3d d0 52 57 be
       -0.13444601 0.016544892 0.12366486 -0.21027684
000270 76 88 4f bd 63 54 e4 bd 56 5f 91 3d ba a2 89 3c
       -0.05066725 -0.11148908 0.07098262 0.016801227
000280 e2 a3 79 3d cb 19 1c 3c 77 95 74 3e b0 e5 a4 3c
       0.060947306 0.009527634 0.23885141 0.020129055
000290 cb 66 40 3d 00 5a 0a 3e e1 a1 ad 3c 3f e0 32 3d
       0.04697303 0.13510895 0.021195354 0.04367089
0002a0 55 be 62 bd e7 c4 99 bb eb 86 fa bd 57 df 80 3d
       -0.055357296 -0.004692662 -0.12232765 0.06292599
0002b0 9d a8 08 3e 94 12 0a be 80 7d 5b 3e 34 6e 85 bd
       0.13345571 -0.1348365 0.21434593 -0.0651516
0002c0 4e b3 06 be 2f b3 8c 3d d3 b0 c4 3c bd 05 e8 bd
       -0.13154337 0.06870114 0.024010098 -0.113292195
0002d0 7c 4c b7 3c 95 5d 0f 3e 75 30 01 be 70 4d f1 3d
       0.022375338 0.14000542 -0.12616141 0.11782348
0002e0 97 20 3f 3e b5 1f 66 3e ea 5b 91 bd 1d 55 16 be
       0.18664776 0.22473033 -0.07097609 -0.14680906
0002f0 e1 79 6b 3b 7f d4 89 3b 21 d5 60 3e 32 99 15 3e
       0.00359308 0.0042062397 0.21956302 0.1460922
000300 8a 80 08 3e 4f fd 5a 3e 68 8d e1 3c 7b 17 a6 bb
       0.13330284 0.21385692 0.027533248 -0.005068717
000310 40 e7 1e be ff fc 6a bd 2a 4b 6e bc 97 35 3d be
       -0.15517902 -0.057370182 -0.014544288 -0.18477474
000320 40 84 a7 bc 07 bb ca 3d 5c ae 9a bd 5e c7 86 3c
       -0.020448804 0.09898954 -0.07552788 0.016452488
000330 6e dc 34 3e 27 4e 9d bc b0 54 e2 3d 9f 66 9c bd
       0.17662212 -0.019202305 0.11051309 -0.07636761
000340 42 a7 16 be fd 0a 62 3d 09 b0 fe bd 82 9d 1f be
       -0.14712241 0.05518626 -0.1243592 -0.15587428
000350 28 a3 0d 3e ac 8e 22 3e 85 13 0a 3d eb c8 33 3e
       0.1383177 0.15874738 0.03371002 0.17557113
000360 7a 27 47 bd 23 e4 c8 bc f8 56 df bc 5b b5 90 3d
       -0.048621632 -0.024522847 -0.02726315 0.07065841
000370 d1 dd 3e bd 89 69 f7 3d 3f 04 22 be 12 5f 33 be
       -0.04659826 0.12080676 -0.15821932 -0.17516735
000380 0c 55 93 bd 30 94 01 3e 19 6c 59 be 4b 2d 4a 3e
       -0.07193956 0.12654185 -0.21232642 0.1974384
000390 0f 74 55 be 24 d1 b2 bc 08 1c 27 be 00 77 2e 3e
       -0.20845054 -0.021828242 -0.16319287 0.17037582
0003a0 a7 4b e6 bd 09 e6 a1 bd dc a3 2f 3e 39 71 5a be
       -0.11244898 -0.07905204 0.17152351 -0.21332254
0003b0 4f f1 83 3d 7b cc 40 3e f7 3a be bd 85 32 53 bd
       0.0644251 0.18828003 -0.092885904 -0.05156185
0003c0 78 62 98 3c 29 13 28 be db be 27 bd e0 2c 89 bc
       0.018601641 -0.16413559 -0.0409535 -0.01674503
0003d0 8f 27 34 be a8 31 9e bd 64 f7 d8 bb 3b cc 0e 3d
       -0.17593215 -0.07724315 -0.006621288 0.034862738
0003e0 b1 c1 d6 3d 2c 02 13 3e 23 74 0a be fe 51 1e 3e
       0.104861625 0.14356297 -0.13520865 0.15460965
0003f0 b2 6e 53 be 4d 79 09 be 00 b1 2c bd dc 34 3d be
       -0.20647696 -0.13425179 -0.042160988 -0.18477196

layers.6.bias f4 [64]
000000 e7 a4 2e 3a a4 d4 a7 bd 69 27 8e 3b eb b4 cb 3a
       0.00066621456 -0.08194855 0.004338194 0.0015541589
000010 28 a2 fa ba 72 b7 7a ba 5e cb b6 bb d6 1e 13 bc
       -0.0019121813 -0.00095640786 -0.0055784425 -0.00897952
000020 04 3d 0f bc ad d8 cc 39 4e ca 46 ba 22 80 d5 3b
       -0.008742575 0.00039071348 -0.00075832463 0.0065155188
000030 c6 5b 05 3b 68 3f 20 ba a7 a1 fa b8 c3 d6 5d bd
       0.002034889 -0.0006112964 -0.00011951039 -0.05415989
000040 47 2f 47 3a 91 2b 52 3c 61 bb 38 bb 33 34 39 bb
       0.00075982924 0.01282777 -0.0028187858 -0.0028259873
000050 55 2a c9 39 d8 fa 9b bb 48 49 a6 3b 5f 83 16 bb
       0.00038369247 -0.0047601275 0.005074654 -0.0022966487
000060 33 d9 db 3b 2d f5 13 39 25 26 f4 3a 46 80 ff 3a
       0.006709242 0.00014110348 0.0018627091 0.0019493185
000070 5a 1c 16 3b f6 49 b1 3a 06 0d a9 ba a8 d2 b4 3b
       0.0022905082 0.001352607 -0.0012897558 0.0055182762
000080 a0 6e 4b 3a 23 20 96 ba 6e 47 17 3b 20 72 80 ba
       0.000776032 -0.0011453669 0.0023083347 -0.0009799637
000090 d8 8a 23 bc 42 12 dd 3b d9 d0 56 bc 48 bd 2a bd
       -0.009981833 0.0067465613 -0.013111317 -0.04168442
0000a0 1e 48 72 3a 7a 3f 88 bc 1f 0f 04 3a 31 62 98 3a
       0.00092423137 -0.01663183 0.00050376536 0.0011625943
0000b0 ee 5a 22 3b 35 c0 67 39 8c 82 91 bb 3b 53 ee 39
       0.0024773437 0.0002210148 -0.004440611 0.0004545691
0000c0 63 01 51 3d 1d 18 4c 39 b5 d0 74 38 7e 4a 34 ba
       0.051026713 0.00019463939 5.8368507e-05 -0.0006877555
0000d0 b7 83 a2 3b 29 15 0b 3c df 7a 60 3a 3a 78 29 3b
       0.0049595493 0.008488932 0.0008563231 0.0025859014
0000e0 e9 ab a8 3a de ee 68 b9 6c c9 4e ba eb 51 d9 bb
       0.0012868616 -0.00022214229 -0.00078882906 -0.00663208
0000f0 21 fb c4 3b 62 a5 72 3b 1a 0e b4 3c 84 ef d8 39
       0.006011382 0.0037024845 0.02197938 0.00041377184

layers.8.weight f4 [64, 64]
000000 51 21 93 bc 28 c7 f0 3d cf 5d 1d be 9e b2 1b 3e
       -0.017960222 0.11756736 -0.15367816 0.15204856
000010 77 6e bc 3d ba 9d c2 3d e5 8f 1d 3e e8 ae 55 3e
       0.09200757 0.0950274 0.15386923 0.20867503
000020 6f 98 c7 bd 17 54 ca bd 3a 7f 4f 3e 60 ce 20 3e
       -0.09745871 -0.0987932 0.20263377 0.15703726
000030 cf 5e f6 3d 6f 05 1f 3e cf 1c ae bd 24 0b d9 bd
       0.12029802 0.15529417 -0.085015886 -0.10597828
000040 c9 79 d8 3d 0b 2a 53 be 32 5b f7 3d bb ec 30 be
       0.10570104 -0.20621507 0.12077941 -0.17277806
000050 34 0d e3 bd 76 2b f1 3d b8 a5 a7 bd 46 60 59 be
       -0.11086503 0.11775868 -0.08185905 -0.21228132
000060 3d 88 0a 3e a5 be c9 bd 82 48 bc bd 1e c1 fa 3d
       0.13528533 -0.09850816 -0.09193517 0.122438654
000070 55 92 6b bd ed 6a 58 be ea e3 6e 3c 24 e0 13 be
       -0.0575126 -0.21134539 0.014580706 -0.14440972
000080 a1 54 a1 bd 7a 19 20 3e 5b 89 93 bc 66 ff 1d bd
       -0.0787747 0.15634719 -0.018009832 -0.038573645
000090 a0 5c 84 bd b1 15 4d be 5e 96 48 be 6f a4 a5 bd
       -0.06462979 -0.20027806 -0.1958861 -0.08088004
0000a0 b0 a7 34 3e 20 8c 64 3c fc db 33 3d 5c fe 52 be
       0.17642093 0.013949424 0.043910965 -0.20604843
0000b0 41 3a 20 be dd 74 a0 3d be 1c 1e 3e 0a 41 17 be
       -0.15647222 0.0783479 0.15440652 -0.14770904
0000c0 0b cc 20 3b 5a a0 14 bd 46 3a 4c bd 10 a6 2d be
       0.0024535682 -0.036285736 -0.04986026 -0.16957879
0000d0 de 2f 3b be 2d c6 3d 3e 42 29 60 be 3d a5 f7 3c
       -0.18279979 0.1853263 -0.21890739 0.030230159
0000e0 7e f3 e7 3c d9 be 90 3d e8 dc 24 be 00 af 30 3e
       0.028314348 0.07067651 -0.16099894 0.17254257
0000f0 1b 99 43 bd 6e 01 24 3e b9 dc 0b be e5 40 de 3d
       -0.047753435 0.1601617 -0.13658418 0.108522214
000100 f6 99 11 bc 5f f3 08 be a3 9a d5 3d 4d 4e 39 3e
       -0.008886805 -0.13374089 0.10429885 0.18096276
000110 ac 3c 30 3e 87 c1 ee 3d f4 a6 1d bd 83 aa 39 be
       0.17210644 0.11658006 -0.038489297 -0.18131451
000120 b9 bb c2 bd a0 13 47 be 1e f2 1c 3d aa 44 89 bd
       -0.095084615 -0.1944108 0.03831684 -0.0670255
000130 b7 ec 29 3e 1f 52 4a be 7f 93 bf 3d fc 8c c0 3d
       0.16594206 -0.19757889 0.093543045 0.09401891
000140 27 76 c0 bd 47 14 4e be 59 60 40 3e 59 ff 0c be
       -0.09397536 -0.20124923 0.18786754 -0.13769282
000150 d7 33 35 3e d6 df 3a be 29 21 f8 bd d9 ab 42 3d
       0.17695557 -0.18249449 -0.121157 0.047527168
000160 61 ce 38 be 4b 27 3e be 9f 28 3e be bb b4 2d 3e
       -0.18047477 -0.18569677 -0.18570183 0.16963474
000170 0f b3 52 3e 3f 00 43 bd 8e ac fe bd b3 b7 b8 3d
       0.20576118 -0.047607657 -0.12435256 0.09019413
000180 d6 09 d4 bd 8d f3 0f 3d 1e 60 18 3c 66 c2 b2 3d
       -0.103534386 0.035144377 0.00930026 0.08728485
000190 2a eb 57 3e ae d0 a8 3d dc 5b 46 3e 50 21 38 3e
       0.21085802 0.082429275 0.19370979 0.17981458
0001a0 fc 18 6f 3d 1f 04 35 be cb da c1 bd b8 f1 92 3c
       0.058373436 -0.17677353 -0.094655596 0.017937526
0001b0 74 f3 43 3d ce 31 b4 bd b8 99 9e 3c 98 46 04 3e
       0.047839597 -0.08798562 0.019360408 0.12917554
0001c0 af 06 0b 3d 40 a0 ce bd c7 9d 4c 3e c9 3f df 3c
       0.03394192 -0.10089159 0.19982062 0.027252095
0001d0 aa 6e d1 bd 40 ce d7 bd 14 f9 80 bd cc 35 26 3e
       -0.102261856 -0.10537386 -0.06297508 0.1623146
0001e0 75 3c 47 be b1 f9 49 be 12 08 06 3e 97 23 2e 3e
       -0.19456656 -0.19724156 0.13089016 0.17005764
0001f0 48 44 0d be 73 e4 a9 bd 78 ce 05 3e b8 2d 73 3d
       -0.13795578 -0.08295526 0.13067043 0.059369773
000200 02 75 24 bc b4 69 05 be 7a d0 14 be 13 ab 1a 3e
       -0.010037662 -0.13028604 -0.14532652 0.15104322
000210 1c c4 f5 bd 59 15 32 3d d3 da 77 3d 70 af 01 be
       -0.120002955 0.04347739 0.06051142 -0.1266458
000220 01 33 ac bd 59 ba a2 bc 64 71 bc bd c4 e1 3a be
       -0.08408166 -0.019864248 -0.09201315 -0.18250185
000230 2f 5e 08 3d 95 7e 17 bc c1 5f 0b be 50 b4 c7 3b
       0.033292945 -0.009246488 -0.13610746 0.006094493
000240 2b 37 4d bd e1 c3 f2 bd 00 76 fc bd fb ea 16 be
       -0.05010144 -0.11853767 -0.12327194 -0.14738075
000250 7d 0f dc 3d a2 e2 ec bc ec 61 d9 bd 9e 90 a5 3d
       0.10745142 -0.02891666 -0.1061438 0.08084224
000260 30 20 f8 3d 0e f6 2a 3e aa e1 2d 3e 5a 28 b0 bd
       0.12115514 0.16695425 0.16980615 -0.086014464
000270 32 73 2d be e3 94 52 3d 12 5f 62 be 9e 5b 47 bd
       -0.16938475 0.05141152 -0.22106579 -0.048671357
000280 85 16 2f 3e 33 2d 90 3d 8b bd b2 3c 25 52 77 3c
       0.17098434 0.07039871 0.021818897 0.015095268
000290 47 ee 31 3e 89 53 2b 3e d4 22 fc bb bf 61 36 bd
       0.17376052 0.16731085 -0.0076945815 -0.04452681
0002a0 4f 2c 28 39 33 4e 2a bd 9e df 45 3e 6f f5 48 3e
       0.00016038235 -0.041578483 0.19323584 0.19624875
0002b0 fc 68 ee bd 91 9d 21 be 8d e1 ee 3d 49 fd 7e 3d
       -0.11641118 -0.15782763 0.11664114 0.06225327
0002c0 d5 57 32 be 42 36 17 3c d4 18 10 3d cf c8 03 bd
       -0.17416318 0.009229245 0.035179928 -0.032173928
0002d0 d6 82 e6 bd 75 9e 28 3e 3a dc 63 3d d4 aa 06 3e
       -0.11255424 0.16466697 0.055629946 0.13151103
0002e0 3f 46 33 3e 16 fa 18 3e 26 eb bd bd cf 6e 8a bd
       0.17507266 0.1493915 -0.09273367 -0.06759416
0002f0 d7 ef 13 3e 16 b8 5b 3d 9e 2a 92 3d 36 ef 39 be
       0.1444696 0.053642355 0.07137035 -0.18157658
000300 1b a3 e2 bd 41 d7 a0 bd d7 62 2e be b8 18 39 3e
       -0.11066266 -0.078535564 -0.17029892 0.18075836
000310 f8 89 0a be 3a f1 61 3d 8e 1f 4c bd 4e 16 c5 3d
       -0.13529193 0.055161692 -0.04983478 0.09623395
000320 f5 be 28 3e c1 7e 19 3e b8 3b 00 be fd c7 46 be
       0.16479094 0.14989759 -0.12522781 -0.19412227
000330 3f 7f 09 be 76 1d 04 be 22 75 6e 3e 4f 6f 09 3e
       -0.13427447 -0.12901863 0.2328687 0.13421367
000340 93 fa 38 3e 5a cc b8 3c 9d 09 68 3e dc 41 c4 3d
       0.18064336 0.02255838 0.22659917 0.09582874
000350 c7 f3 75 3d 2c f0 24 be 7a 68 ec bd 25 55 28 3e
       0.060046937 -0.16107243 -0.11543365 0.1643873
000360 69 63 88 bd ea 3f 36 3e 4f 0a 11 3d 82 82 4d be
       -0.06659586 0.17797819 0.03541022 -0.20069316
000370 3c e6 e6 bd d8 97 7d 3b 06 c2 66 3d 19 82 86 3d
       -0.112743825 0.0038695242 0.05633738 0.06567783
000380 90 c0 f9 bc ef e6 4c 3e 8c 9b 21 bc bb cc 44 bd
       -0.030487329 0.20009969 -0.009863745 -0.04804681
000390 e0 db 97 bd c9 79 01 3e 03 12 7d 3d 71 4a ac 3b
       -0.07414985 0.12644114 0.061784755 0.0052578975
0003a0 e8 5f 7f bd 52 f6 dc 3c c9 96 bb bd 76 b3 2e 3e
       -0.062347323 0.026972923 -0.09159619 0.17060646
0003b0 07 7d 9d bd 3d 82 4f 3c 44 9f 43 be 83 9b 37 3d
       -0.07689863 0.012665329 -0.19103724 0.044826042
0003c0 11 11 ae bb 22 c4 13 3e 60 cf 20 bd 77 54 cd 3d
       -0.005312093 0.14430287 -0.03926027 0.10025876
0003d0 f7 c5 4b be cc e8 1e 3c ba 76 31 3d b8 71 57 be
       -0.19899736 0.009699058 0.043326117 -0.21039474
0003e0 14 e2 73 bd a4 a6 b6 3c 1d e2 33 3e 3c d6 8b bd
       -0.059541777 0.022296257 0.17566724 -0.06827971
0003f0 82 ee 2b 3e 0e 73 ea bd 8a 84 20 3e 80 3d f0 3d
       0.16790202 -0.11447726 0.1567556 0.1173048

layers.8.bias f4 [64]
000000 b7 83 a8 ba ce 63 ec 3a 95 38 b0 3b 20 47 a0 bb
       -0.0012856637 0.0018035115 0.005377839 -0.0048912913
000010 7f 90 88 ba db 76 fb ba be ca 0a ba 15 71 82 ba
       -0.001041904 -0.0019185202 -0.0005294493 -0.0009951914
000020 da 8b 6e 3a 20 14 15 3b e5 d4 34 3b a5 4f 0a ba
       0.0009099819 0.002274759 0.0027592715 -0.000527615
000030 94 a6 95 3b 77 91 c6 ba 33 7d 59 bb 11 81 3b b9
       0.004566977 -0.0015149553 -0.0033186197 -0.0001788179
000040 24 65 8d 36 06 db b6 b9 38 99 05 ba 74 01 bc bb
       4.213902e-06 -0.0003487693 -0.0005096379 -0.005737478
000050 c8 3d da 3a f1 6e 33 ba 53 87 af 3b 39 aa 95 3a
       0.0016650492 -0.00068448397 0.005356708 0.0011418528
000060 26 16 a1 ba 9d 28 7e b9 12 ad 82 ba 91 6a 1d 3c
       -0.0012289926 -0.00024238457 -0.0009969792 0.009607927
000070 fe 7e 09 bb 9b 3f b2 ba 3f 03 dd 3b 52 e1 b3 39
       -0.0020980234 -0.0013599278 0.0067447717 0.00034309417
000080 76 14 93 ba dd d5 1d bc 61 5a 22 3a 86 34 c1 38
       -0.0011221308 -0.0096335085 0.0006193277 9.2127404e-05
000090 92 e9 b0 b9 7f 4e 81 bc 61 7d b9 3b 42 36 36 3a
       -0.0003374336 -0.0157845 0.0056606983 0.0006950834
0000a0 9d 55 79 bb e3 ee bd 3a 67 92 fb b9 e8 84 2c 3b
       -0.0038045414 0.001449075 -0.0004798353 0.0026324335
0000b0 10 86 88 3a dc 89 96 ba 99 01 44 bb 9a 69 c1 3a
       0.001041593 -0.0011485177 -0.002990818 0.0014756203
0000c0 cd 69 31 bb 4a 1f 9e 3a f9 fe eb ba 7d 62 12 ba
       -0.0027071119 0.0012063768 -0.0018005065 -0.0005584134
0000d0 5f 39 d2 ba f9 77 c4 ba e2 4f f9 3b ff 14 6f bb
       -0.0016038826 -0.0014989368 0.0076083997 -0.003648102
0000e0 2a 0d 59 3a e0 2b 88 39 b3 0f 8f ba 38 5c 36 39
       0.00082798547 0.0002597263 -0.0010914713 0.00017391227
0000f0 d8 b7 66 3a 04 d2 ae ba 78 10 28 3b b6 5e d3 bb
       0.00088011986 -0.0013337736 0.0025644582 -0.0064504994
