data/20240122/state_net_20000.pth (torch, 90556 bytes, 14 tensors)

layers.0.weight f4 [64, 5]
00000000: b607 a93c e714 35bd 19b1 3b3d 312e 4abe
00000010: 9aac 8f3e 8d27 56bd 0648 7e3e 44e5 183e
00000020: c9d6 6bbe a57a 79bd 7882 953e 06b9 f6bd
00000030: 1901 80be 94f1 543e 37bb 24be 14f6 8abe
00000040: a2e4 023d 821b 433e 798f 2f3e ddb0 44bd
00000050: c414 0fbe 57dd ea3c 0542 973d 0a56 ebbd
00000060: 4f83 c53d 926c eb3c 5d8d 483e fa23 c53c
00000070: d26d 8d3e d369 b4bd bda6 c3bd 8468 44bd
00000080: 6a07 12be 673b ef3c 774b bd3d 4add 923e
00000090: 70d1 993e 1677 f7bb f9c6 08be 4d25 d5be
000000a0: 6205 19be fe29 253e fb90 a9be 4e8e a5bd
000000b0: 0400 ad3e 6ec4 013e 69cc 7fbd 2867 44be
000000c0: c47b 863e 0574 0d3e 96e8 29be faa7 cfbd
000000d0: 86e8 933e d18f 81be 7cf7 be3d cf6a 82bd
000000e0: 32ea 523e f04b 883e 96ce adbd 5a7e 933e
000000f0: 57aa a5bd 18aa 76bd 25b8 423e f9ed 68be
00000100: 5e1b cd3d 0c97 f3bd c745 763c 375b 2f3c
00000110: b08f 1e3e d47d 2dbe 2c14 be3d 1ece e4bd
00000120: 7b45 2a3c 7fb4 7a3e c9ab 4b3e c1e9 33bd
00000130: a82f 74be ac91 923e e796 113e c92b 71bd
00000140: ed35 08be 5224 68bd 5451 b03d d855 f6bc
00000150: 61ea 863e 2dc2 b73e 5879 e63d f34e 5fbe
00000160: 8025 613e f83c 083e 9931 9fbe 9c00 6b3e
00000170: 8339 323d 3abe 26be 26a3 663e 8bc0 5fbe
00000180: c09d 5b3e 27bd 02be 3f02 dbbd 4539 50be
00000190: ed62 21bd d243 82be 2beb 33be 05bf b53d
000001a0: 9d44 c93c 2c92 02be 766b e2bd e24a fcbc
000001b0: cdd6 443e 1cdf 5a3e bd79 54bb 11f2 59bb
000001c0: 9a53 f03d d06c 163e e781 383e 78e0 8d3e
000001d0: 45c1 fe3d d796 ac3d 2b15 863e 36d3 4e3c
000001e0: 3deb 843e 4e7b fc3d 2660 b9bd e641 613e
000001f0: 9e7f 21be 7b0b 4dbe a249 c03d 3044 2d3e
00000200: b1c0 623e 5103 3b3e b760 6ebe 82e7 4dbe
00000210: e26d 193e 9d42 69be 0771 06be f12b 293e
00000220: c2f0 8dbe 5dbe 41bd afdf cdbb 68c5 8ebe
00000230: 2c9e e93a 4bb0 a83e 4847 8ebd 5ec0 c93d
00000240: 2866 79be f193 773e 29f7 b5bd 77c7 92bd
00000250: 6fde edbc 7126 843e eae2 7dbe b44d 1cbe
00000260: e5c2 30be f32f 963e 829c 18be eb75 8dbd
00000270: fe5a 2fbe 5c4f e9bd 833e 943d 5806 033e
00000280: 1af8 883e ff1f 81bd 8b3d 303e 2cf6 413e
00000290: d89d 8abe 6f5b 863e bc11 813e 8c2e 9a3d
000002a0: 47b3 8abe 34b4 0abe 1a3b c1bd 6cef 3a3e
000002b0: 5330 a33e 75c1 4cbe f22d 3fbe cb2c c3bc
000002c0: da7d 473e f687 313e 3e54 3bbe 5d43 17be
000002d0: 5c5d 1d3e 2774 3a3d 01e7 29be 1e29 90be
000002e0: 8d77 a63d e70c 75be adf9 133d c146 483d
000002f0: 724f f2bd 593b 82be 5f53 bdbd bbef 173e
00000300: 16b7 3a3e 4e44 7f3e 867e b53e b779 2e3e
00000310: 44c4 69be 2427 4d3e faf7 16bd 0cc9 983e
00000320: b4eb 713e b901 60be 8ba1 8d3e 3a1d 8dbe
00000330: 09cb 463e 67cd 38be 7f1c fa3d f5cc 85be
00000340: f901 1cbe ee04 87bd 27a9 3e3c 16f8 95bd
00000350: 94d9 ee3d 5a2e 8bbe a7d7 443e 714a ec3c
00000360: 42cf be3d cd1b e4bc 707f 71bd 97c4 5f3e
00000370: 008e 393e 5afe babc c723 33bd 525d 47be
00000380: 607f 48be a1b5 34be 5ff4 00be 0f71 20be
00000390: 158d 7c3d 0a28 e33d c615 d03d 7fbd 89be
000003a0: e1c4 063e 1286 90bd 2ccb d93d db50 cd3d
000003b0: b8b1 5fbe a8db 7e3e ec77 c0bc 48ac 5bbe
000003c0: 318c 74be 1422 eabc 6aa1 5a3d 9a54 41bd
000003d0: ab4b 84be d761 913d c947 81bd 40ae 5f3e
000003e0: a9de 0bbe 01eb b63d 6bc7 3abe 050f a8bd
000003f0: 6b54 eb3d f22f 75be 3350 80be 9882 143e
0.02063356 -0.044209387 0.04582319 -0.19744183 0.28061372 -0.052283812 0.24832162 0.14931208
-0.23031153 -0.06090798 0.29201102 -0.12047009 -0.25000837 0.2079528 -0.16087042 -0.27140868
0.031956322 0.19053462 0.17144574 -0.048020232 -0.13972765 0.028669996 0.07385639 -0.1149102
0.09644186 0.028738294 0.19585176 0.024065007 0.2762285 -0.08809247 -0.09553287 -0.047951236
-0.1426064 0.02920313 0.092429094 0.28684455 0.300426 -0.007552038 -0.13357152 -0.4163002
-0.1494346 0.161293 -0.33118424 -0.08083783 0.33789074 0.12672588 -0.0624508 -0.19179976
0.262663 0.13813789 -0.1659263 -0.10139461 0.2888834 -0.25305036 0.09324548 -0.06368028
0.20597151 0.26620436 -0.08486669 0.28807336 -0.0808913 -0.060220808 0.19015558 -0.2274703
0.100149855 -0.11894044 0.015031285 0.0107029 0.154845 -0.16942531 0.09281191 -0.11172126
0.010392542 0.24482916 0.1988975 -0.043924097 -0.23846304 0.28626764 0.14217721 -0.058879647
-0.13301821 -0.056675263 0.08609262 -0.03007023 0.26350692 0.35890332 0.11253613 -0.2180746
0.21986961 0.13304508 -0.31092528 0.22949451 0.04351188 -0.16283503 0.22523174 -0.21850793
0.21446896 -0.12767468 -0.10693788 -0.20334347 -0.039400984 -0.25442368 -0.17570178 0.08874325
0.02456885 -0.12751073 -0.11055653 -0.030797426 0.19222565 0.21374172 -0.0032421194 -0.0033255855
0.11734696 0.14689946 0.18018304 0.2771032 0.12439207 0.08427208 0.26188025 0.012623599
0.25960723 0.12328206 -0.09051542 0.21997795 -0.15771338 -0.2002391 0.09389044 0.16920543
0.22143818 0.18262984 -0.23279081 -0.20107844 0.14983323 -0.22779317 -0.13129054 0.16520669
-0.27722746 -0.047300685 -0.0062827687 -0.27884984 0.0017823628 0.32947 -0.069471896 0.09851144
-0.24355376 0.24177529 -0.08885033 -0.07166951 -0.029036729 0.25810578 -0.24793592 -0.15264016
-0.17261846 0.29333457 -0.14903453 -0.06907257 -0.17124555 -0.1139209 0.07238486 0.12795389
0.26751786 -0.06304931 0.17210977 0.18941563 -0.2707355 0.26241633 0.25208843 0.07528409
-0.27089903 -0.13545305 -0.09435101 0.18255395 0.31872806 -0.19995673 -0.1866987 -0.02382507
0.19481602 0.17337021 -0.18293855 -0.14771791 0.15367645 0.045520928 -0.16592027 -0.2815637
0.08128271 -0.23930703 0.03612678 0.0488956 -0.11831559 -0.25435904 -0.092444174 0.14837544
0.18233904 0.249284 0.35448092 0.17038618 -0.22828776 0.20034462 -0.036857583 0.29840887
0.2362507 -0.21875657 0.2766231 -0.2756136 0.1941339 -0.18047105 0.122124664 -0.26132932
-0.15235128 -0.06592737 0.011637009 -0.07322709 0.116625935 -0.271838 0.1922289 0.02884409
0.09316875 -0.027845288 -0.058959424 0.21852337 0.18120575 -0.022826362 -0.04373529 -0.19469193
-0.1957984 -0.17647411 -0.1259322 -0.15668128 0.061657984 0.11091621 0.10160403 -0.26902387
0.13161041 -0.07056822 0.10634455 0.100251876 -0.21845138 0.2488848 -0.023494683 -0.21452439
-0.23881604 -0.028580703 0.053376593 -0.047199823 -0.2583898 0.070987396 -0.0631252 0.21843815
-0.13659157 0.08931542 -0.18240134 -0.0820599 0.11490711 -0.23944071 -0.25061187 0.14502943

layers.0.bias f4 [64]
00000000: 443e 61bb c594 1d3a a845 9b3b e0ce fbba
00000010: a30f 503b 446c acba 31e0 08bb 354b 87bd
00000020: a099 dc3c 72d1 d1b9 6136 293b 9282 3ebc
00000030: 4f5c 3cbd 07e5 b93b adf8 1b3b df14 833c
00000040: 1f2e 23ba ad5d acbc 2e00 21bc fbfc 803b
00000050: 1bcb 3c3b 51da 0b3d 70b4 2d3b 302b 71bc
00000060: 8226 8a3b 12f4 0cbb 95d1 7b3c 100d 803b
00000070: 6141 1b3a a7f9 7ebb 8bbf e83b 0bdf c53b
00000080: f4cf d2bb 2509 db3a 6e40 e3bb 21b5 c93b
00000090: fcf7 7d3c 74f7 7a3b c5b3 d53b 79c4 c43b
000000a0: d010 b03a 6572 bf3a 789e ca3b f062 f53b
000000b0: e642 25bc 8b04 2cbb 3897 6a3c da2a cdbb
000000c0: e19d 76ba e88b 54bc 88bb f53a 25d7 773b
000000d0: dc8d 143d 7d44 143a 10dd 1cbb 315f e33a
000000e0: 08f2 f43b 1a73 65ba 07a0 5b3b d6ab 7eb9
000000f0: cd0c 623b a935 9cbb c84f d23b 8088 0cbc
-0.0034369389 0.0006011243 0.0047385283 -0.0019211434 0.0031747601 -0.0013154824 -0.0020885582 -0.066061415
0.026928723 -0.00040019635 0.0025819766 -0.01162781 -0.04598647 0.005673054 0.0023799345 0.016001163
-0.0006224829 -0.021040762 -0.009826703 0.0039364076 0.0028807584 0.03414375 0.0026505254 -0.014719769
0.0042160163 -0.0021507782 0.0153697925 0.003907807 0.0005922523 -0.0038906129 0.007102912 0.0060385517
-0.0064334814 0.0016711099 -0.006935171 0.0061556255 0.015501019 0.0038294466 0.0065216743 0.0060048667
0.0013432745 0.0014606236 0.0061834417 0.007488601 -0.010086751 -0.0026247825 0.01431828 -0.006261212
-0.0009407681 -0.012972809 0.0018747905 0.0037817445 0.0362681 0.00056559575 -0.0023935474 0.0017347095
0.0074751414 -0.0008752808 0.0033512132 -0.00024287342 0.0034492493 -0.004767139 0.006418202 -0.008577466

layers.2.weight f4 [64, 64]
00000000: e25c 413b 5119 06be 53bd ac3d 596d 733d
00000010: 6a99 bbbd ad8d f4bc 9598 94bc 9fb6 ed3d
00000020: dd74 c0bd d3ff 21be d30b fa3c ba61 bf3b
00000030: be97 13bd 19d4 153e 91ab 1fbd c5fe f6bc
00000040: c93a 74bd 4e13 173c 029a d2bd 8664 acbd
00000050: 58a9 b3bd 8982 5dbe 3654 f0ba 5247 9a3c
00000060: 4f79 c43c 8bb6 b7bd ca60 973d 7a6c 1cbd
00000070: 77eb febd 6432 2f3d 9ad6 3d3e da91 f33d
00000080: 7edb f43d 68ef 2e3e b071 efbd fe77 8fbd
00000090: 1043 f2bd c1d8 36be f6dd c13c 35f0 5d3d
000000a0: 5d87 3b3e 3d8d 073e 4734 4f3e 5f38 06be
000000b0: 2c1a 0d3e c8eb d4bd 6756 903d b383 28bd
000000c0: 1b55 05be b59d edbd ec2f 0fbe 3057 09be
000000d0: e899 053d 7ba7 18be f867 a6bd b36e ecbd
000000e0: 4b4b 2ebd 33ac c4bc c7d4 57be 58c6 22be
000000f0: 2951 cd3d 4a27 0f3e 227e 4ebe 6542 cc3d
00000100: 9b64 573e 39f1 83bd 0428 03be a548 5e3e
00000110: f45e 35be 4050 883c 212c b73d 0236 063d
00000120: 39cd 1cbe 5aee b53d 188b 443e 54c2 9dbd
00000130: 7435 813c 3102 063e 73ad 393e 650f 2abe
00000140: a04f 013e 8027 f0bd 0e44 a23c c0d0 1a3d
00000150: 38aa 08bd 007f 6dbd 5f9b d3bd f6ae dabd
00000160: 42f0 1a3c 452a 8bbc f15c 00bd 9f07 7e3d
00000170: 4a42 863d 846c c2bd 9450 edbd f073 58be
00000180: 1a97 c53d 75cc 843d 67a6 d8bc d23d 2fbe
00000190: 2efc 4cbe 389c e3bd a146 4c3e 92bb 113e
000001a0: a501 c83b d2fc 05be c556 f6ba 3cdc 0f3e
000001b0: 8e0d 353e 2803 53be ad60 5cbe 7eba 643b
000001c0: ae44 c9bc 50df 3abe 05fc 84bd c568 a13d
000001d0: b9fd fcbd 7cc3 06be a344 323e 22da 433b
000001e0: a41e 80bd 3de6 9c3d 54d8 413e 64d0 a83d
000001f0: 6d2c c6bd 36a5 553e 326c 64bd 0395 173e
00000200: 205a d6bb bff8 3b3e 8fec e8bd 0f6e 173d
00000210: 2436 26be 08df 11be 8762 26be df04 4ebe
00000220: 38f5 7d3d f749 fdbd 9277 27be c0fb a9bc
00000230: b68a 90bd 086a 02be 83dd 123e 3663 013e
00000240: a548 643e 5321 35be 39a2 c2bd c4f6 efbd
00000250: a6f7 b2bc 756f f4bd d3e5 e33b 5d47 bbbd
00000260: d462 5ebe e96f a93d 5a45 21bc dfcd 753b
00000270: 64dd 43be db50 363d 99b3 43be 571c 01bd
00000280: b587 48be 29ed e0bd 63ad 243e 451d 44be
00000290: e3a7 393e 5280 29be 5a96 95bd a664 223c
000002a0: b284 3dbe cee0 33be 5743 94bd 02fa 9ebd
000002b0: b126 ef3d 8c81 c7bd 6db9 3c3e 6c8e acbd
000002c0: 89ed ff3b 4027 feba 7c60 983d 9726 e43c
000002d0: c392 b8bc 2c15 5b3e 6d8d b43d 5072 f93d
000002e0: 478d e73d cbb1 54bd 5dfe e03d 6da8 323d
000002f0: ffb4 623d aab8 6fbe cd01 293d 7ece 13be
00000300: 63c1 eabd 0992 debd 8f28 1bbe 841d 483e
00000310: cf27 b2bd a011 f8bd 88d8 093d 4c51 dc3b
00000320: eed7 35be 90d6 5cbe 730a 22be dfe1 683e
00000330: f92e 0abe fe03 463a 1e09 223d 1d14 d73d
00000340: f311 e0bd c2e2 63be c51f 653e 37b7 043e
00000350: 376a d1b7 e088 ec3d 5256 23be d1c7 2ebd
00000360: fe07 f2bd 6328 07be b049 dc3d 324a 62bd
00000370: 2bbb 0bbe 9669 80be a6c3 36be 34fa 84bc
00000380: afbe 5bbe 1cde 3cbe 82a4 03be 7671 853c
00000390: 386c e43d 247b b3bd b07b ebbc 7ab2 77bd
000003a0: a557 be3c 3623 68bd bb79 883d ede9 143e
000003b0: 0a04 343c ae19 043e c0f2 36be 411d a7bd
000003c0: 8326 4d3e abd2 563e 1b53 55be d93c b63d
000003d0: 8810 ac3c cd00 35be 9c6b 24be 6e29 89be
000003e0: accc d73b 98df da3d 7f2c c73d b867 19be
000003f0: c955 323e d9ad 32be 0d15 593e 9f9d cabd
0.0029504825 -0.13095595 0.08434548 0.059430454 -0.09160121 -0.029852713 -0.018139163 0.11607098
-0.0939729 -0.15820245 0.030523216 0.0058405073 -0.036033385 0.1463169 -0.038981978 -0.03015078
-0.059626374 0.009220911 -0.10283281 -0.08417611 -0.08772534 -0.21631826 -0.0018335644 0.018832836
0.023983626 -0.08970364 0.07391508 -0.03818939 -0.12447255 0.042772666 0.18538895 0.11893053
0.11955927 0.17083514 -0.11691606 -0.070053086 -0.118291974 -0.17856123 0.02366541 0.054184157
0.18313356 0.13237472 0.20234786 -0.13107441 0.13779515 -0.10396534 0.0704773 -0.041141223
-0.13020746 -0.11602346 -0.13983124 -0.13412166 0.03261748 -0.14907639 -0.08125299 -0.11544552
-0.042552274 -0.024007892 -0.21077262 -0.15895975 0.10025246 0.13979831 -0.20165303 0.09973601
0.21034472 -0.06442494 -0.12808233 0.21707399 -0.17712003 0.016639829 0.08943964 0.03276635
-0.15312661 0.088833526 0.19193685 -0.07703081 0.015772559 0.13086773 0.18132572 -0.16607435
0.12628031 -0.11726284 0.019807842 0.037796736 -0.03336546 -0.057982445 -0.10332369 -0.106779024
0.009456696 -0.01698793 -0.031338636 0.062018987 0.065556124 -0.09493354 -0.11587635 -0.21137977
0.09647961 0.064843096 -0.026446534 -0.17113426 -0.20018074 -0.11113781 0.19948818 0.14231709
0.0061037117 -0.13084725 -0.001879417 0.14048856 0.17680952 -0.20606673 -0.21521254 0.0034901197
-0.024568882 -0.1824925 -0.064933814 0.07881311 -0.12353081 -0.13160509 0.17408995 0.0029884656
-0.06255844 0.07661102 0.18930179 0.08242872 -0.09676442 0.20863804 -0.055767246 0.14802937
-0.0065415055 0.18356608 -0.11373245 0.036970194 -0.1623159 -0.14245236 -0.16248523 -0.20119046
0.062001437 -0.12367623 -0.16354206 -0.020749927 -0.07057707 -0.1273576 0.14342313 0.12635502
0.22293337 -0.17688493 -0.09503598 -0.11716989 -0.021846604 -0.11935321 0.0069548874 -0.09144471
-0.21717387 0.08273298 -0.009843195 0.0037506742 -0.19127423 0.044510704 -0.1911148 -0.031521168
-0.19583018 -0.10982735 0.16081767 -0.1915179 0.1813045 -0.16552857 -0.07304068 0.009911692
-0.1850765 -0.17566225 -0.072394066 -0.07762529 0.11677302 -0.09741506 0.1843011 -0.08425602
0.007810299 -0.001939036 0.07440278 0.027850432 -0.022530919 0.21394795 0.08816037 0.121800065
0.113062434 -0.05192737 0.10986016 0.043617655 0.055348393 -0.23410287 0.041261483 -0.1443424
-0.11462667 -0.10867698 -0.1515219 0.1954251 -0.08698999 -0.12112737 0.033653766 0.0067235585
-0.17758152 -0.21566224 -0.15824299 0.22742413 -0.13494481 0.00075536955 0.039559476 0.10501883
-0.109409235 -0.2225447 0.223754 0.12960516 -2.4964202e-05 0.11549544 -0.15950897 -0.04267103
-0.11817931 -0.13199 0.10756242 -0.05524654 -0.13645618 -0.25080556 -0.17848071 -0.016232587
-0.21459459 -0.18444103 -0.12855724 0.016289454 0.111534536 -0.087637216 -0.028745502 -0.060472943
0.023235152 -0.056674205 0.06663843 0.1454236 0.010987291 0.12900421 -0.1786604 -0.081598766
0.20034222 0.20978801 -0.20832483 0.088983245 0.021003976 -0.17676087 -0.16056675 -0.2678942
0.006585678 0.106871784 0.09725284 -0.14980972 0.17415537 -0.1744913 0.21199436 -0.09893345

layers.2.bias f4 [64]
00000000: 4dfe a4ba c1a5 f7ba 94a8 8a3c fd8c 6b3b
00000010: 644c 013d dff9 4bbb 7d8a aaba 7c3d 0c3a
00000020: ea80 b2bb 2b57 df3a 836d 243b 1348 193c
00000030: 9819 d7ba 5aac 813c b1e4 84ba eaea 803b
00000040: 2735 473a 6a53 baba 1f5b 84bc aca6 aebb
00000050: 5e12 5bbb 9560 b3ba dab7 abba 5cb9 34bb
00000060: c04c 18bc 1d9e d739 66bb bd3b ac2f 813b
00000070: 4641 c7ba 16be 89ba ef8e 9e3b 1a16 003b
00000080: 24f3 febb 4c43 583b 5371 993a dc0e fabb
00000090: 83d0 1e3a bab8 6cba 59ff b9bb 6795 5d3c
000000a0: 62e2 663b f242 e03b 4715 e13b ff83 873b
000000b0: f7d3 03bb 513a 25bb 0a8e a3bc 2035 4d3b
000000c0: 9434 0f3c a69c 30bd 3504 ae3c 738a d3bb
000000d0: 6ad8 c93b 63d3 0fbb 2a0f 94b9 220f ccba
000000e0: 643b 1a3c 9fc3 eeb9 d10a 3c3c b9df bf3b
000000f0: 4bb2 40bb daa1 c03a 5567 a8bb b906 d53b
-0.0012587995 -0.0018894003 0.016926087 0.003594219 0.031566992 -0.0031124277 -0.0013011243 0.0005349738
-0.0054474967 0.0017039528 0.0025089688 0.009355563 -0.0016410826 0.015829254 -0.0010138956 0.003934254
0.0007599168 -0.0014215533 -0.016156731 -0.0053299274 -0.0033427696 -0.00136854 -0.0013101057 -0.0027576303
-0.009295642 0.000411258 0.005790162 0.0039424505 -0.0015201948 -0.001050892 0.0048388164 0.0019544424
-0.0077804495 0.0032999096 0.0011706747 -0.007631166 0.00060582923 -0.0009030212 -0.0056761918 0.01352439
0.003523015 0.006843918 0.0068689915 0.004135608 -0.0020115355 -0.0025211761 -0.01996519 0.0031312183
0.008740563 -0.04311814 0.02124224 -0.0064557134 0.006159832 -0.0021946065 -0.00028240058 -0.0015568475
0.009413574 -0.00045540647 0.011477188 0.0058555272 -0.0029403146 0.0014696673 -0.0051392713 0.0065010455

layers.4.weight f4 [64, 64]
00000000: b938 593d d434 0f3e addd afbd 2326 49be
00000010: a25a 07be 1b96 0bbe 7158 62bd 4d38 533d
00000020: 69d9 74bd 3d81 91bd b4bf 393d 5604 bcbd
00000030: 5867 233e 8567 2f3e f229 44be c9db 2c3e
00000040: 8765 46bd dbc8 2d3e cedf 553b fa3a 0cbe
00000050: 9fbd db3c 3335 38bd dac0 563e a895 a3bd
00000060: 6588 45be 2efe 80bd e8f4 d33d c7c3 8f3c
00000070: 0534 f5bd fb2d d03c 99dd 043e 9607 ad3d
00000080: 0a18 85bd 5967 283e 0a6a 00be f409 563e
00000090: 9bb3 b73d fa62 dc3d 3a0e 573e 0834 a93d
000000a0: e54a 833e 9154 2c3c 958a 143e 6f36 53bd
000000b0: a852 593c 53f5 743d 5fa0 b3bd d159 283d
000000c0: 15a1 2ebe 4c8e be3d 33dc 233e 628d 033e
000000d0: b26a 0fbd 71c4 a13c 8f4d 4dbe bd36 3dbd
000000e0: 20c9 0f3e 0aca 94bc 2915 033e a39b ad3d
000000f0: 803f 2fbc 8a76 acbd 8446 21be ca25 4b3e
00000100: 3409 2b3e 4fc6 8bbc 3160 41be ef30 83be
00000110: 8525 c4bd 16d5 0cbe 5c58 a23e 8003 debd
00000120: 9f3c b8bd afaa c13d 7bbb d6bd c732 7e3d
00000130: b07e 77be de19 af3c d6b7 00be 73f5 fa3c
00000140: 7d43 e43c f148 91bd 6e33 55be 1ca2 0ebb
00000150: f8ac 1a3e 3fa8 a13d afc6 c33c 8650 63be
00000160: ae75 30be c68e 6d3e 47d3 493d bc8f 8a3d
00000170: 1285 03be 1d3f d1bd bfd6 73bd a09b 2e3e
00000180: 1383 f9bd 185c d1bd 0f96 843d 7a98 223d
00000190: ad2b 2cbd ee36 0dbe 5dd5 bdbe e837 1ebe
000001a0: 9f7d e23d 9a64 c53d 780f d93d ed45 e4bb
000001b0: 5cf0 1cbd 488f 81bd a3b6 d7bc 73b2 f7bd
000001c0: b40d db3d 6d83 31be 1b89 0d3d c0b0 5dbe
000001d0: b3fc 543e b08c dabc befd 273e 3edc 92bd
000001e0: e8b4 0bbe 8865 cdbd 6eec 083e db6a 8b3c
000001f0: 7686 9d3b 1f39 bbbd c43e 92be 5f51 01be
00000200: a0b7 9abc 7ec0 00bd a646 33be 3d8c b53c
00000210: 8ff6 733e 4b06 063d 3daf c7bd 296e 853d
00000220: 610d 33be 47bc 7cbe 654d 68bd 7301 84be
00000230: bd93 3a3e 7580 a4bd d03b ae3d 30cf 633e
00000240: 3091 5abe ccf7 823e dec0 3d3e 22f3 07be
00000250: 9747 e73d afcb 993c 7ff3 aa3d 6b47 653e
00000260: 2eb1 a4bd 27e1 a93d d201 ab3d 3ce3 54be
00000270: 0cd2 023e 6250 933e 3698 49be 52c9 31be
00000280: 03c5 0cbe c263 08be dfa7 073e 20bb fe3d
00000290: 0468 0dbe bb7f 323e 3b60 15be 1969 52be
000002a0: 8738 5fbe 0ac3 48bb f787 ce3d 3a85 0bbe
000002b0: 9b88 80bb 0ade 213e 9115 323e 73dd 783d
000002c0: 5af8 b0bd 0fdc 9b3d 1ed6 513e 2b3b 303e
000002d0: 4646 ae3d c7fc 2cbe e1d8 b53d 6d63 57be
000002e0: 5927 00be ad4e 153d 6409 3f3e 44c8 54be
000002f0: 21d4 24be e279 64bd 3310 dc3c 6f75 4dbe
00000300: 2ab5 163e 4d48 a4bc 4d76 943d b89f a6bc
00000310: 3d8c 5f3d 31bb 7dbd 23b2 46be 100d 083d
00000320: 4f09 bf3c 0fba 933d c62c 513e 98c9 813d
00000330: 2bec b13d 1309 1ebe fe1c 54bd 857e 4c3e
00000340: 6cd5 a3bb 00fd 0b3d 9352 ea3c 1bf8 18be
00000350: 094c 5abe cfb0 16be 3f20 853c de40 4d3e
00000360: 877a 19be 49db d43d 2897 413e e3b0 d5bd
00000370: 7fef 15be c153 22be f5fd d5bd bfa6 923c
00000380: d94e 39be ca57 c73d 7d2f 1cbe f9b7 10be
00000390: c850 033e 3fe9 883d f3c5 193e 7370 6abd
000003a0: 110c 68be f9f5 323d 815d 5e3e 94ec 3d3e
000003b0: 442e 413e 08be 08bd c894 5ebc 17e7 f53d
000003c0: c6e6 05bc 6a29 01bc d4a9 793c 276d 293d
000003d0: cd9f f63d da2b 293e 3d57 163e e60a 32be
000003e0: beff 05be 2765 29bc b604 443e df76 92bd
000003f0: dca4 d6bc b6ab e83c d4f2 d2bd 1496 0b3d
0.05303261 0.13984996 -0.08587203 -0.19643454 -0.13218167 -0.1363148 -0.055260126 0.051567364
-0.05977765 -0.07104728 0.045348838 -0.091805145 0.15957391 0.17129333 -0.19156626 0.16880716
-0.048436668 0.16971152 0.0032634619 -0.13694373 0.026823817 -0.04497261 0.20972005 -0.07987529
-0.19290312 -0.06298481 0.103494465 0.017549409 -0.119728126 0.02541255 0.12975158 0.084487125
-0.06498726 0.16445674 -0.1254045 0.20902234 0.08969804 0.10761066 0.21001521 0.08261877
0.25643077 0.010518209 0.1450599 -0.051565584 0.013264336 0.059804272 -0.08770823 0.04110128
-0.17053635 0.09304485 0.16001968 0.12846902 -0.035013862 0.01974699 -0.20049118 -0.04619478
0.14041567 -0.018162746 0.1280104 0.08476951 -0.010696292 -0.08421047 -0.15749556 0.19838634
0.1670273 -0.017062334 -0.1888435 -0.2562327 -0.09577469 -0.13753161 0.31708038 -0.10840511
-0.089959376 0.094563834 -0.10484978 0.062060144 -0.24169421 0.02137464 -0.12570128 0.030634617
0.027864212 -0.070939906 -0.208204 -0.0021764105 0.15105045 0.078934185 0.02389845 -0.22198686
-0.17232391 0.23198995 0.049273755 0.067656964 -0.12843731 -0.10217116 -0.05953097 0.17051554
-0.121832035 -0.102226436 0.06473934 0.039696194 -0.04203384 -0.13790485 -0.37076846 -0.15451014
0.110591166 0.09638329 0.105986536 -0.0069663436 -0.038315162 -0.06326157 -0.026332205 -0.12094583
0.10695973 -0.17335291 0.034554582 -0.21649456 0.20799522 -0.026678413 0.16405389 -0.07170914
-0.13643229 -0.10029131 0.13371441 0.017018726 0.0048072888 -0.09141754 -0.2856351 -0.12628697
-0.018886387 -0.031433575 -0.17507419 0.022161597 0.23824523 0.032720845 -0.09750221 0.06515152
-0.17485572 -0.24681197 -0.056714434 -0.25782356 0.1822042 -0.08032314 0.08507502 0.22247005
-0.21344447 0.2557968 0.18530604 -0.13276342 0.112929516 0.018773882 0.083472244 0.22390525
-0.08041607 0.082948975 0.083499566 -0.20789808 0.12775439 0.28772265 -0.1968697 -0.17361954
-0.13747029 -0.13319305 0.13247631 0.12438035 -0.1380921 0.17431538 -0.1458749 -0.20547904
-0.21798907 -0.003063383 0.10084527 -0.1362504 -0.0039225346 0.15807357 0.1739104 0.060758065
-0.08641119 0.07610332 0.20491835 0.17210071 0.08509497 -0.16893302 0.08879257 -0.21034022
-0.1251501 0.036451984 0.18655926 -0.2077952 -0.16096546 -0.0557803 0.026863193 -0.20064329
0.14717546 -0.020054007 0.072491266 -0.020339832 0.0545771 -0.061946098 -0.19403891 0.033215582
0.023319868 0.07213222 0.20427236 0.06337279 0.086876236 -0.15433149 -0.05178546 0.19970138
-0.004999807 0.034176826 0.028603828 -0.14938395 -0.21318068 -0.14715885 0.016250728 0.20044276
-0.14988147 0.10393388 0.18905318 -0.10434129 -0.14642142 -0.15852262 -0.10448829 0.017901776
-0.18096484 0.09733541 -0.1525249 -0.1413268 0.12823784 0.06685113 0.15016918 -0.057236146
-0.22660853 0.04369161 0.21715356 0.18547279 0.18865305 -0.033384353 -0.013585277 0.120069675
-0.008172696 -0.007883409 0.015238244 0.04136386 0.12042198 0.16520634 0.14681716 -0.1738697
-0.13085839 -0.010339058 0.19142422 -0.07151579 -0.026201658 0.02840219 -0.10300222 0.034078673

layers.4.bias f4 [64]
00000000: 2d5a 943a 2556 d93d f18c 44bc 28bf d239
00000010: 2197 d4bb 27ea 13bc da43 1e3b 55f1 f5ba
00000020: 3703 2b3c 46dd aabc d183 153b d2ae 15bc
00000030: 0dfc bb3a 62a4 453a 40ed 6f3b 4141 3c3b
00000040: 9d1f 8e39 e3cb c93a e09d 8dbc 3b1c 71bc
00000050: 822c 3abb bb4c 40bb 62fd 41ba e775 85ba
00000060: 1c7f 123c 0199 29ba a4f1 903a 1fea 113c
00000070: 274e ee3b eae1 193b 61b8 703c 44d0 01b7
00000080: aac7 21bb 09d7 e8bb eacf 9dbc 3a40 d73c
00000090: ab2d 423c 5339 223c d431 1ebc 4a25 5339
000000a0: 998d 8abb 18d4 1c3b 3261 83bb 4346 153b
000000b0: 8511 94bb 80ab 573a 1848 b43a 8ef3 363a
000000c0: 605a 003b b417 0dbc bde1 4d3a 06df 82b7
000000d0: f547 8bba 6314 11bb f07d 293c 9834 7fba
000000e0: 664e 553c 69e8 6c3b 19b8 c4ba 48a2 d8ba
000000f0: 63a2 d8ba c9bd c839 7a5e e43b a254 aabc
0.0011318378 0.10612134 -0.011996494 0.00040196744 -0.0064877425 -0.009027994 0.002414933 -0.0018763939
0.010437778 -0.020857465 0.0022814164 -0.009135919 0.0014342085 0.00075394486 0.0036609918 0.0028725418
0.00027107904 0.0015395846 -0.017287195 -0.014716203 -0.0028407876 -0.002934261 -0.00074001227 -0.0010182232
0.008941438 -0.0006469638 0.0011058343 0.0089059165 0.0072725 0.0023480603 0.014692397 -7.73749e-06
-0.002468566 -0.0071057123 -0.01926418 0.026275743 0.011851708 0.0099013625 -0.009655435 0.0002013642
-0.0042283055 0.0023930129 -0.0040093893 0.0022777475 -0.00451869 0.00082271546 0.0013754396 0.00069790415
0.0019585118 -0.008611608 0.0007853767 -1.5601061e-05 -0.0010626303 -0.0022137396 0.010344967 -0.0009735315
0.01301918 0.003614927 -0.0015008479 -0.0016527856 -0.0016527887 0.00038288374 0.0069692703 -0.02079231

layers.6.weight f4 [64, 64]
00000000: e0e2 55be 7a3a 463d c203 4cbe 32a8 173e
00000010: 3e41 05be 2cba a4bd e653 34be 90a5 d33d
00000020: 4a2f 163e e835 8a3d 7713 1f3c 9c31 91bd
00000030: 2d25 7abd 9050 923b efce 453d 3e78 493e
00000040: 8b0e 8b3d 15f3 72bd ff0c 45be caae 173e
00000050: 962a cabd bb0f 31bc 73ba 56be f54d dabd
00000060: 9ac6 b83d 3d3c 26be 0b01 803d 478d a13a
00000070: c549 33bb cc73 2d3e 0118 493e 0577 90bd
00000080: e34f dd3c 15f3 233c 102e 33be 5082 32bd
00000090: af9a c8bd 7164 bebd dcab 4f3d 3185 1b3e
000000a0: c438 01bd 0fec 39bd 9c07 c03c dba5 b93d
000000b0: 8255 f13d b3c1 92bc 88fb 4a3e 237e 57be
000000c0: 9f2f 03be b34d 9f3d dddb 35be 3ed5 0fbc
000000d0: 66b4 433e 3127 6f3d fe3d 0d3e 6af0 123e
000000e0: e1e4 143d a93a ae3d b87e 193e 334d 2d39
000000f0: 36c4 533e eb61 043e 3f02 833d 77d0 27be
00000100: 9751 09be 42cc e3bd a2b3 2a3e 3a30 493e
00000110: 415e 8c3e daf8 9b3e d188 5bbe 93d1 b1bd
00000120: bce4 033e 490d acbd 92a8 9bbd 962d 41be
00000130: 0cba a63a aef9 6cbd 5216 4a3e 4b87 21bd
00000140: e985 143d 4a50 24be 8101 7b3e 0fb4 9fbd
00000150: 45cb 473e e89a 71bc f894 6b3b 7c1f 6fbe
00000160: 6393 1fbe 8897 2e3d e8b9 283e 7edb 87be
00000170: ba6d f43c 0f9d 143e 4642 213e f5b9 04be
00000180: 0643 373e 7428 483e 1296 5bbe 76a0 7cbe
00000190: e137 20be 544c 213e 2f2c d1bb 00ab 9ebd
000001a0: ee65 36bb 9192 383e 0cd4 223e d521 6c3e
000001b0: 5dad 943d f689 88bd 836f 44be bc64 32be
000001c0: 3ec8 663e 39cc 713e 6fe2 e6bd a0b1 61bb
000001d0: 799b 233e 4df0 a53d 281f b9bd faf7 103e
000001e0: 8db5 1e3e 16f3 33be 2e0a 3b3d 4b0a ba3d
000001f0: 15fa 2b3d a9c8 ecbd e01e f2bd c444 17bd
00000200: 179e efbc 06dc ebbb 9e43 4ebe ed62 28bd
00000210: beba 4fbc 311e 2dbe e978 05be c355 323e
00000220: bb7b 313e 4e17 633b a101 f9bd 3b0e 5c3e
00000230: 5506 c5bd 84d1 32be 5ed1 363e 768d 5dbc
00000240: cb98 1cbe bf1c a53d 5cd8 a73d 6b16 663c
00000250: bd15 39be d336 01be 0156 15be 031f 4c3d
00000260: 251c 09be bf3b 8c3c 6d33 003e 74b7 59be
00000270: 3f5a 53bd 9ad5 e5bd 33cc 923d 3a8c 9a3c
00000280: 9f94 693d ded3 be3b 1b3e 813e c273 a73c
00000290: 68f6 533d 3afa 073e c688 cc3c 3dbf 3e3d
000002a0: a71b 58bd f299 8abb b0fd f7bd 4c38 7e3d
000002b0: 0efb 063e bca3 08be d683 5d3e d734 8bbd
000002c0: 9146 08be 7a20 8f3d eea6 ee3c e43d e8bd
000002d0: 6d82 b53c 6e74 103e 6a21 febd 5a10 f23d
000002e0: cd83 3f3e c453 663e 97eb 8abd 5857 11be
000002f0: 1b98 723b 37e7 8b3b fc55 633e 0862 183e
00000300: 9b61 083e 8adb 5a3e 42dc e13c dd52 a7bb
00000310: 1410 1fbe 7792 6abd 001f 69bc 9b18 3dbe
00000320: 35af a9bc 79b9 cd3d 1b2b 9abd adb3 873c
00000330: fd6a 353e 8228 98bc 3028 e53d 792d 9fbd
00000340: 8b7c 16be 9697 643d 08d8 fdbd a28c 1fbe
00000350: 4994 0a3e 71dd 223e 62bd 0a3d ade7 343e
00000360: c9b5 49bd cfd3 cabc 6e07 dfbc f2f6 903d
00000370: bfbe 41bd 1f1e f73d 26d9 21be fbfb 32be
00000380: 490a 93bd 156a 013e 1188 5fbe 7dfd 493e
00000390: ac5e 55be 0b57 b0bc 9ce2 26be f8ca 2b3e
000003a0: 3f64 e4bd 1ff7 a1bd 6ec3 2f3e f884 5abe
000003b0: 454f 843d dee9 403e 6b54 bfbd 4452 4ebd
000003c0: 4719 973c 39e2 27be ec92 29bd 81d9 88bc
000003d0: e9cc 33be 4138 9dbd 7f3f bdbb 2226 0e3d
000003e0: d284 d63d 02cb 123e b38d 0abe 9063 1d3e
000003f0: 58a4 53be 9974 0abe 7ab9 29bd 4d6f 3dbe
-0.20887327 0.04839561 -0.19923308 0.14810255 -0.13013169 -0.08043322 -0.1761013 0.10334313
0.14666477 0.06748563 0.009709231 -0.0708954 -0.06107061 0.00446517 0.04829305 0.19674775
0.06789883 -0.059313852 -0.19243239 0.1481277 -0.09871404 -0.010806973 -0.20969562 -0.106594004
0.09022255 -0.16233917 0.06250199 0.0012325429 -0.0027357202 0.16938704 0.19638063 -0.07053951
0.027015632 0.010006686 -0.1749804 -0.043581307 -0.097951286 -0.092965014 0.050701007 0.15187527
-0.031548277 -0.04539114 0.023441128 0.090648375 0.117838874 -0.017914629 0.19822514 -0.21044211
-0.12811135 0.07778492 -0.17759652 -0.008778868 0.19111785 0.058386985 0.1379318 0.14349523
0.03635109 0.08507282 0.14989746 0.00016527325 0.20680317 0.12927978 0.06396913 -0.16388117
-0.1341003 -0.111229435 0.16670087 0.19647303 0.2741566 0.30463296 -0.2143891 -0.08682551
0.12880224 -0.084009714 -0.076005116 -0.18865046 0.0012720241 -0.0578553 0.19735077 -0.039435666
0.03626052 -0.16046253 0.24512292 -0.07798015 0.19511135 -0.014746405 0.0035946947 -0.23351854
-0.15583567 0.04262498 0.16477168 -0.26534647 0.029837478 0.14513038 0.15747938 -0.12961562
0.17896661 0.19546682 -0.21443966 -0.24670586 -0.15646316 0.15751773 -0.006383441 -0.077474594
-0.002783175 0.1802466 0.15901202 0.23059781 0.07259629 -0.06666939 -0.19183163 -0.1742124
0.22537324 0.23613061 -0.112736575 -0.0034438148 0.15977277 0.08102474 -0.09039146 0.14157096
0.15498944 -0.17573199 0.045664005 0.090839945 0.041986544 -0.115617104 -0.11822295 -0.036930814
-0.029250188 -0.0071978597 -0.20142981 -0.041109968 -0.0126788 -0.16906048 -0.13034405 0.17415528
0.17332356 0.0034651342 -0.12158514 0.21489803 -0.09620348 -0.17462736 0.17853305 -0.013522496
-0.15292661 0.080621235 0.08195564 0.014043431 -0.18074699 -0.1261857 -0.14583589 0.049834263
-0.13389643 0.017118333 0.12519617 -0.21261388 -0.051599737 -0.11222382 0.07167854 0.018865693
0.0570265 0.0058235964 0.25242695 0.02044094 0.051748663 0.13279048 0.024967562 0.046569098
-0.052760746 -0.0042297775 -0.12108934 0.062065408 0.13181707 -0.1334371 0.21632323 -0.06797188
-0.13308169 0.06988616 0.029132333 -0.1133993 0.022156918 0.14106914 -0.12408717 0.11819525
0.18702622 0.22492892 -0.067832164 -0.14193475 0.0037016931 0.0042695063 0.22200769 0.14881146
0.13318484 0.2137281 0.027570847 -0.0051063136 -0.15533477 -0.057268586 -0.014228582 -0.18466417
-0.020713428 0.10045142 -0.07527753 0.016565168 0.17716594 -0.018574003 0.11189306 -0.07772345
-0.14695947 0.055808626 -0.1239472 -0.15580991 0.13533129 0.15904786 0.033872016 0.17666502
-0.04924563 -0.024759201 -0.027225222 0.07078351 -0.04730105 0.12066292 -0.15805492 -0.17478935
-0.07179696 0.12638123 -0.21829249 0.19725604 -0.20836896 -0.02152588 -0.16297382 0.16776645
-0.11151933 -0.07908463 0.17164394 -0.21339786 0.06460432 0.18839213 -0.09342273 -0.050371423
0.01844467 -0.16394891 -0.04139988 -0.016705276 -0.17558636 -0.07676745 -0.0057753916 0.034704335
0.10474552 0.14335254 -0.13530616 0.15370011 -0.20668161 -0.13521041 -0.04143665 -0.18499489

layers.6.bias f4 [64]
00000000: 7702 4939 a140 a8bd f0f1 1a3b 30a0 523a
00000010: fe93 20bb 876b 013b 5576 b7bb 46f6 ffbb
00000020: 7810 dbbb 9951 68b7 a180 143a f0d9 ad3b
00000030: 4dac 213b c6bb 42ba 775d 6e3a fdc8 60bd
00000040: 0a6a 8c39 7991 f03c 468a 60bb 9ace a1bb
00000050: 2f71 513a 7ed2 adbb e650 9a3b 805a d4ba
00000060: 267d fc3b 5d50 233a c77d 313b d1c0 fa3a
00000070: a02d f23a f554 623b a1bc 12bb 3338 813b
00000080: af40 69b9 e9ed 12ba 53d6 383b ab3a 8fba
00000090: e471 1dbc f0cb a33b 85c0 1dbc 0d9d 42bd
000000a0: afc7 013a 230f c0bc b4da 09b9 6086 b837
000000b0: 05b1 213b 2a5c 193a 0355 a5bb 31e0 9a3a
000000c0: d02f c93d 5fc5 413a 5eea 84ba dc0b e038
000000d0: ec6c af3b c83b e93b f9cc ac3a 08f1 29bb
000000e0: 7a69 e03a ef08 263a d177 aa36 6f1f 93bb
000000f0: 06a9 c83b 0a2c 2c3b 536c c33c fe88 f1b9
0.00019169772 -0.08215452 0.002364274 0.0008034734 -0.0024502273 0.001974793 -0.005598823 -0.0078113405
-0.006685313 -1.3847276e-05 0.0005664919 0.005305521 0.002466935 -0.0007428493 0.0009092907 -0.054879177
0.00026781886 0.029366242 -0.0034262105 -0.004937959 0.0007989583 -0.0053046336 0.004709351 -0.0016201288
0.0077053485 0.00062299316 0.0027083026 0.001913095 0.0018476732 0.0034535502 -0.0022390264 0.003943467
-0.00022244708 -0.00056049094 0.002820392 -0.0010927519 -0.009609673 0.0049986765 -0.00962842 -0.047513057
0.00049507146 -0.023444718 -0.00013146811 2.1997083e-05 0.0024672162 0.00058502203 -0.0050455346 0.0011816082
0.09823573 0.00073917763 -0.0010140648 0.00010683361 0.0053535607 0.007117722 0.0013183645 -0.002593102
0.0017121278 0.00063337287 5.0803433e-06 -0.004489831 0.006123665 0.0026271367 0.023855364 -0.0004606917

layers.8.weight f4 [64, 64]
00000000: e062 a9bc 2aa9 f03d 15a9 20be e9c3 1c3e
00000010: 6a80 bb3d 1be6 c53d 1963 1c3e 32ff 543e
00000020: ccf5 c5bd cbfc cbbd 8863 503e a789 1d3e
00000030: dc42 f73d b078 293e 997c a8bd 9949 cabd
00000040: a77e ce3d 989d 51be 05cf f43d 97ea 32be
00000050: 8dac e2bd c73a f23d 67fb a6bd d9cc 58be
00000060: 6ccc 0b3e b114 d6bd 0da9 bcbd 9538 ff3d
00000070: 5347 68bd 99d4 5bbe 7ef7 6b3c 2599 16be
00000080: 1cc4 a5bd 67ac 1f3e 4236 93bc 6a67 21bd
00000090: 1bb1 83bd cb03 4ebe f66e 48be 793c a6bd
000000a0: 6a14 333e 7dc5 453c 06b1 263d fccc 52be
000000b0: 7898 20be 3796 a93d 7a2d 1e3e e1e3 18be
000000c0: 3dd3 c53a f3d3 28bd 2bcc 51bd ef55 2cbe
000000d0: 1d1e 3abe 6e58 413e 29b0 5fbe a6ee e53c
000000e0: a5d8 063d 2c75 943d 5f18 25be 26d6 2e3e
000000f0: bad2 45bd 94b1 243e fda0 0cbe f182 df3d
00000100: 9138 5fbc 22a1 07be 0fa0 d63d bec0 383e
00000110: 384a 303e 40f1 ed3d bdc2 1bbd 20a3 39be
00000120: a324 c3bd e7a4 47be a12d 1d3d 379e 83bd
00000130: 9402 2a3e 6112 4cbe 9c52 ba3d 7de5 c03d
00000140: 55f5 c0bd 2d9a 4ebe c1c4 3f3e cab4 0cbe
00000150: 4ce1 343e a345 3abe 4373 f8bd 1ffb 433d
00000160: ac83 39be f0b3 3dbe c896 3dbe 86cc 2c3e
00000170: f8da 523e b605 3fbd 55b3 febd 38e7 b93d
00000180: 25c6 d3bd f61d 103d f411 173c a279 b43d
00000190: ac3f 583e af2e a93d 7512 463e d040 383e
000001a0: 8b21 703d e7fe 32be ecc5 bebd a953 933c
000001b0: 5178 453d e360 b7bd 256b 9f3c 8af3 033e
000001c0: bebb 093d cab1 ccbd 9dae 4c3e 5e50 e03c
000001d0: 4ddd d0bd d3fd d8bd 3659 83bd 2697 263e
000001e0: 91a8 47be f0ef 4abe ba2e 063e bf06 2e3e
000001f0: 2eae 0bbe aaa2 aabd 39b5 053e 99f3 713d
00000200: f428 783c 5f2a 0cbe bf12 16be cac1 1c3e
00000210: 5573 f3bd e067 423d 2987 6f3d 9523 03be
00000220: 80c0 aabd 461e 8ebc b56b bebd f6d7 39be
00000230: 6216 133d 287a d2bb a854 0fbe 3662 07bc
00000240: 1cee 68bd c83c f2bd 07f1 febd 31d2 17be
00000250: 7f82 dd3d acbb fcbc 7e6c dbbd 0ebd a73d
00000260: f2c9 f93d b9ef 2e3e d5f7 2e3e 566e c3bd
00000270: 4c38 2cbe 7578 4c3d ed73 63be 6e1c 47bd
00000280: 610b 2e3e e84f 933d ecbd ad3c a0ae 803c
00000290: 4a21 343e d4e0 2d3e de29 f6bb 19d0 3bbd
000002a0: 71a6 a6ba 1a25 4dbd 5a78 3c3e 4660 4b3e
000002b0: 4b9b eebd 6871 22be 653b ee3d 0035 813d
000002c0: db10 31be 8dee 663c 1851 193d 53c6 fcbc
000002d0: 8ff0 e4bd cecc 243e c696 803d c77d 053e
000002e0: 176e 323e a072 1c3e 74e4 bebd e0b5 8cbd
000002f0: c350 0b3e 1acd 663d 2dd4 903d 8920 39be
00000300: 77dc e1bd 6c4e a0bd c2dd 2ebe 80fb 393e
00000310: 5848 0abe 7fa4 613d 0a3b 4cbd 40f9 c43d
00000320: 2df8 293e a8c8 193e 7404 01be 4f70 48be
00000330: fafc 0abe 7f73 05be 08ad 703e 0966 093e
00000340: f715 3b3e 6af5 be3c cc12 693e 92cb c33d
00000350: 48ad 753d 867b 25be 5deb e9bd 442e 283e
00000360: 3025 88bd 1ca4 363e 3ee4 0e3d a161 51be
00000370: 5b63 e7bd 1444 943b 0fe0 683d c488 853d
00000380: 8e93 febc 2d4c 4c3e 5d30 21bc d4fe 45bd
00000390: d4fe 98bd c0fe 003e 76a0 803d 287b bb3b
000003a0: ca8f 7fbd 1fd0 db3c bf52 bcbd 98b8 2e3e
000003b0: ef1d 9dbd d261 4a3c c310 43be e0a0 383d
000003c0: c46e b8bb 6f2d 143e dfab 22bd 3419 cc3d
000003d0: 5fe9 4cbe 3ee7 1e3c 93f4 313d 11fa 57be
000003e0: e46f 79bd b997 b53c 4d6c 333e 6940 8abd
000003f0: 4ffa 293e 2727 e8bd 7d55 203e 5904 f13d
-0.02067703 0.117510155 -0.156895 0.15309109 0.091553524 0.0966303 0.15272178 0.20800474
-0.09666023 -0.09960326 0.20350468 0.15384541 0.12073299 0.16549945 -0.0822689 -0.09877319
0.10082751 -0.20470273 0.11953548 -0.17472301 -0.11068068 0.11827617 -0.0815342 -0.21171893
0.136522 -0.10453165 -0.092119314 0.12461964 -0.056708645 -0.21467818 0.014402268 -0.14706858
-0.080940455 0.1559311 -0.017970208 -0.039405264 -0.064302646 -0.20118634 -0.19573578 -0.08117003
0.17488256 0.012071011 0.040696166 -0.20586008 -0.15683162 0.08280604 0.15447035 -0.14930679
0.0015092861 -0.041217756 -0.0512201 -0.16829656 -0.1817555 0.1888139 -0.21844544 0.028067898
0.032921452 0.07248911 -0.16122578 0.17073879 -0.048296668 0.16083366 -0.13733287 0.10913647
-0.013624326 -0.13245061 0.104797475 0.18042275 0.17215812 0.116182804 -0.038027514 -0.18128633
-0.09528472 -0.19496499 0.038373593 -0.064266615 0.16602546 -0.19928886 0.09097788 0.094187714
-0.09421793 -0.20176001 0.187274 -0.1374084 0.17664069 -0.18190627 -0.121313594 0.04784691
-0.18116635 -0.18525672 -0.1851455 0.16874894 0.20591342 -0.046636306 -0.124365486 0.090773046
-0.103405274 0.035184823 0.009220589 0.08812262 0.21118039 0.08260857 0.19342978 0.17993474
0.05862574 -0.1748005 -0.09315094 0.017984228 0.048210446 -0.089540266 0.01946027 0.12885872
0.03362631 -0.09994848 0.19988485 0.027382072 -0.1019846 -0.10595288 -0.064135 0.16268596
-0.19497897 -0.19818091 0.13103762 0.16994761 -0.13640663 -0.08331807 0.13057412 0.059070203
0.015146483 -0.13688038 -0.14655589 0.153083 -0.11887232 0.047462344 0.05847851 -0.12806542
-0.08337498 -0.01734842 -0.09297887 -0.18148789 0.035910018 -0.0064232536 -0.13997138 -0.008263161
-0.056867704 -0.11827999 -0.12448316 -0.14826275 0.10815906 -0.030851208 -0.107140526 0.08190356
0.12196721 0.17083634 0.17086728 -0.09542529 -0.1681835 0.049919564 -0.22212191 -0.048611097
0.16996528 0.07192975 0.021208726 0.015708268 0.17590824 0.16980296 -0.007512315 -0.045852754
-0.0012714398 -0.05008421 0.18405285 0.19860944 -0.116507135 -0.15863574 0.11632422 0.06308937
-0.17291586 0.014094961 0.037430853 -0.030856287 -0.111786954 0.16093752 0.06278758 0.13036261
0.17424808 0.15278101 -0.09320918 -0.068706274 0.13605027 0.056347944 0.07071719 -0.18078817
-0.110283785 -0.07827458 -0.17076781 0.18162346 -0.1350416 0.055088516 -0.04986099 0.09617853
0.16598578 0.1501795 -0.12599355 -0.19574092 -0.13573065 -0.1303234 0.23503506 0.1341783
0.18270098 0.023310382 0.22761077 0.09560312 0.059979707 -0.16160402 -0.11421845 0.16423899
-0.06647718 0.1783604 0.034885637 -0.20447399 -0.112982474 0.004524717 0.056854304 0.065202266
-0.031076219 0.19950934 -0.009838191 -0.048338726 -0.074704796 0.1259718 0.062806055 0.0057214685
-0.062392987 0.026832638 -0.0919547 0.17062604 -0.07671725 0.012352424 -0.19049363 0.045075297
-0.0056284387 0.14470457 -0.03971469 0.099657446 -0.20010899 0.009698687 0.043446135 -0.21091487
-0.060897723 0.022167074 0.17521782 -0.067505665 0.16599391 -0.11335593 0.15657611 0.117684074

layers.8.bias f4 [64]
00000000: 0279 a3ba 54ca b53a 5d5f d03b fe13 6fbb
00000010: 42c1 d9ba 02dc 6cb8 6ca2 21b9 5121 e5ba
00000020: 5ee7 e939 b22a c03a 5bce bd3a e589 7fba
00000030: 075d 9f3b 3825 eaba 2a21 9eba c86c 043a
00000040: 3659 ba3a e448 293a c61b 273a dca7 f7bb
00000050: 2d28 cb39 0334 1db9 ecc4 9a3b 8912 f13a
00000060: 8701 83b9 4a2d da39 fb9b e038 450b 0e3c
00000070: 3aa5 d2ba 68ff d1bb 3735 cb3b cdc2 9cb9
00000080: 31f3 25ba 8852 c2bb 7bd2 813a 4bc6 ab3a
00000090: cdb7 c6b8 339b 8abc f774 a03b 3873 e438
000000a0: cce4 62bb 18fc a03a 7cee 3bba 35be 533b
000000b0: 2b46 bc39 fbdc bcba 86b7 3ebb 422e fe3a
000000c0: d45f 31bb 141c 5e3a 3ddb 15bb b8db 6338
000000d0: ac85 dbba 217c 08bb d645 d83b 3832 21bb
000000e0: 3209 b438 08da b3b9 a46d d3ba aea0 bf39
000000f0: 1026 a93a b9c7 ffba 4cb2 86ba 716b c4bb
-0.0012471976 0.0013869503 0.0063590244 -0.0036480422 -0.0016613381 -5.6471683e-05 -0.00015414663 -0.0017481243
0.00044613605 0.0014661162 0.0014481054 -0.0009748026 0.0048633846 -0.0017863875 -0.0012064327 0.000505161
0.0014217261 0.00064577 0.0006374683 -0.007557852 0.0003874911 -0.00014992063 0.004723182 0.0018392365
-0.00024987405 0.00041613943 0.00010710206 0.008669679 -0.001607097 -0.0064086206 0.006201412 -0.00029899777
-0.0006330489 -0.0059302486 0.0009904647 0.001310536 -9.475611e-05 -0.016919708 0.004896756 0.000108933484
-0.0034621237 0.0012282161 -0.0007169021 0.0032309417 0.00035910434 -0.0014409119 -0.0029101088 0.0019392448
-0.0027065175 0.0008472812 -0.0022866272 5.4325646e-05 -0.0016748211 -0.002082594 0.006600122 -0.0024596583
8.5847816e-05 -0.00034303986 -0.0016130698 0.00036550075 0.001290502 -0.0019514478 -0.0010276525 -0.0059942533

layers.10.weight f4 [64, 64]
00000000: 57eb 3fbe 6dc7 d0bd 8eb8 1b3d 76e4 373d
00000010: 7731 ebbd 12b4 cbbc 7be6 de3d 380c a9bd
00000020: adf8 2ebe 3112 32be f23c d9bd a727 e23d
00000030: a8d8 f23d 6a82 0c3e 92c1 863b f59b ffbd
00000040: 724e 043e f97b dabb e80b 14be e9f8 7dbc
00000050: 2569 47be de46 2bbb 41a8 633d a681 463d
00000060: 5179 38be 0d3a 53be 84dd 203c 72f3 82bd
00000070: ee28 463e d993 7e3c e9aa d0bd 3e0f 60bc
00000080: 3299 dfbc c0a9 fe3d 2021 14be 7141 21be
00000090: 09f5 50be 2af9 40be fe41 ebbd 30c8 4dbd
000000a0: 8619 2b3e accd 3abe cf46 c7bd f735 0dbe
000000b0: 0473 08be 63a0 35bd 1de5 a3bd eed8 5cbe
000000c0: 962a 5e3e c080 ea3d 4d20 f3bc 5922 22be
000000d0: 5023 9bbc 1d34 f8bd c6b1 6f3d 5d27 073e
000000e0: 7092 823c 2d64 3cbc aab5 2e3e efd6 f03d
000000f0: 1f79 51be 4fff 37be e859 4ebe 3628 55be
00000100: 3a39 7c3d 9b23 3b3d 3f59 b4bd 0fe3 cf3c
00000110: 695d ca3d a71b b93c 00d5 a4bd 3244 393e
00000120: 7fb4 243e bf29 a33d 2000 14bd 4442 40be
00000130: 0cce 1b3e c7f7 ef3d df10 7cbc 8c5c 3fbe
00000140: e78d 343e a6b5 873d e340 49be 9526 17bc
00000150: 758a e0bd f4ac 1ebd aff7 85bc 3c35 47be
00000160: a9a3 bbbc ac91 3abd 5467 953d fb49 a13c
00000170: 35b9 6b3d 0072 24be 0139 b2bc 024e dc3d
00000180: b0a8 12be ba4b 09be dbf3 49be 3012 96bd
00000190: 4feb 56be c72a abbc ec08 603c fad2 11bd
000001a0: 9c03 a3bd 2755 2ebe 3fe6 113e 349d be3c
000001b0: 6275 ddbd fad2 90bc a0e4 983c 6b20 39bc
000001c0: df83 35be 1334 163e e43a 8bbd 85ae 11be
000001d0: bfbc e63d e3db 763d 6b48 e93d 2b97 8b3d
000001e0: 0b84 0fbe 1f74 a33b 60c0 3dbe fc98 7d3c
000001f0: ee44 943c 9018 97bd 98cf 123e 7942 4bbe
00000200: a200 e23d dc38 61be 2688 0e3e 3ba8 253e
00000210: f9a5 a6bd c96f 0cbd 44ab ca3d 7f64 3fbe
00000220: 19f3 34be 7e0a 84bd c0a8 063e 53ea 2f3e
00000230: 961b 97bd a99d 4d3d c490 963d 5a05 5fbd
00000240: ffb3 1ebd b6ad f2bc 2fff 053e 1d46 c3bd
00000250: 0a4f 653a 92e1 d63d 5d75 6ebd bd15 443e
00000260: b047 413e 51dd 1bbc 8e18 c13d a4ab acbd
00000270: e0e0 1ebd d20f 1e3e c9ef 7a3d 9751 0fbe
00000280: 822f 72bd 362e cf3d 1281 27be 1627 1fbd
00000290: ea0b 7cbd 6a0d 223e 6419 4bbe 5c9e 043e
000002a0: 5348 123e 3a23 0f3d 70da b9bc dad4 383e
000002b0: f190 cebc eacc 343e b966 983d cebf e23c
000002c0: ccce ca3c a6ed 1e3d 07fe a73d 6624 1dbe
000002d0: a3c6 31bd 34d6 3a3e 2e23 2d3c 34d0 1cbe
000002e0: 6d32 e83d ea11 073c 2422 af3d 7277 15be
000002f0: 5f46 43be 2cf4 973d 9abc 35be e526 c03d
00000300: 0805 13be 814f f8bd 5740 2dbe dc9d 25be
00000310: 8f6a 403e 8413 aa3d 418c 3fbe 2995 f43c
00000320: e186 04be 81b1 193e f2d6 d8bc 7ce6 9cbd
00000330: 66af 13be 362c 493e 20dc 543e 5b09 b93c
00000340: 2aaa 183e 614a 4dbd a553 64be a837 f0bd
00000350: 5028 24be bb22 313e 934d 453e 4293 c73d
00000360: cee6 e83d 1d74 cf3d 7ba2 403e f395 193d
00000370: 5625 9ebd fa44 1cbe ecb2 3fbe 012a 2d3e
00000380: b658 1cbc 70d5 2e3d d0c7 533c e8cb acbd
00000390: 4096 5ebc c2a0 4e3e 837c 313e f1a0 213e
000003a0: 703a 44bd 786c 25be 4902 cebd e2c8 393e
000003b0: 3f22 a23d 0f42 9fbd 46bb 3a3d fae5 bb3d
000003c0: 1580 343e 912c 85bd 4262 593e c47d 53bd
000003d0: 7be5 aabd 5631 913c 3d07 2cbe 90aa 1e3e
000003e0: ef09 07be ea42 473e d9fc da3c 75fd 72bd
000003f0: 97f8 b5bd efb5 313d 2e06 e7bc bb6f 5e3e
-0.18742119 -0.101942874 0.038017802 0.04489561 -0.11484044 -0.024866138 0.108838044 -0.08254284
-0.1708705 -0.17389752 -0.106073275 0.11042719 0.1185773 0.13721624 0.004112431 -0.12480918
0.1292055 -0.0066676107 -0.14457667 -0.015501239 -0.19473703 -0.002613477 0.05558038 0.048463486
-0.18015029 -0.20627613 0.009818438 -0.0639409 0.19351551 0.015538179 -0.101888485 -0.013675509
-0.027294729 0.12434721 -0.14465761 -0.1574762 -0.20405973 -0.18845049 -0.114871964 -0.05023974
0.16708955 -0.1824252 -0.097303025 -0.13790117 -0.13325125 -0.04434241 -0.08002684 -0.21567127
0.21695933 0.11450338 -0.029678488 -0.15833415 -0.018937737 -0.12119315 0.058519147 0.1319861
0.015938967 -0.011498493 0.17061487 0.11759745 -0.2045636 -0.17968486 -0.20151484 -0.2081612
0.061578013 0.045688253 -0.08806085 0.025376825 0.09881098 0.022596193 -0.08048439 0.1809242
0.16084479 0.07966947 -0.03613293 -0.18775278 0.1521532 0.11717182 -0.015384882 -0.18687648
0.17632256 0.066264436 -0.19653659 -0.009225507 -0.109639086 -0.03873916 -0.016353456 -0.19453901
-0.022905188 -0.04554908 0.07295099 0.019688597 0.057549674 -0.16059113 -0.021755697 0.10757066
-0.14322162 -0.13407794 -0.1972193 -0.07327688 -0.209882 -0.020894421 0.013674002 -0.035601594
-0.07959673 -0.1702467 0.14247988 0.02326832 -0.108134046 -0.017678726 0.018663704 -0.011299233
-0.17726086 0.14668302 -0.06798342 -0.1422673 0.11266469 0.060268294 0.11390766 0.068159424
-0.14015214 0.004988208 -0.18530416 0.015478369 0.018099274 -0.07377732 0.14337003 -0.19849576
0.11035277 -0.21994346 0.13919124 0.16177456 -0.081371255 -0.034286294 0.098959476 -0.1869068
-0.1767086 -0.06447314 0.1315031 0.17179231 -0.073783085 0.050199185 0.073518306 -0.054448463
-0.038745876 -0.029623847 0.13085626 -0.095348574 0.00087474345 0.10492243 -0.058217395 0.19148917
0.18875003 -0.009513215 0.094285116 -0.08431175 -0.038788676 0.15435722 0.061263833 -0.13995968
-0.05912734 0.10116236 -0.1635783 -0.038855635 -0.0615348 0.1582543 -0.19833905 0.12951034
0.14285402 0.034945704 -0.022687167 0.18049946 -0.025215598 0.17656294 0.07441468 0.02767935
0.024756812 0.038800858 0.08202749 -0.15345916 -0.043402325 0.18245775 0.0105674695 -0.15313798
0.11337743 0.008244017 0.08551434 -0.14596346 -0.19069813 0.07419619 -0.17747727 0.093824185
-0.14357388 -0.12124539 -0.16919075 -0.161735 0.18790649 0.083045036 -0.18705846 0.029856281
-0.12942077 0.15009119 -0.026469681 -0.07661149 -0.14422378 0.19645771 0.20787096 0.022587469
0.14908662 -0.05011976 -0.22297533 -0.117293656 -0.16031003 0.17298405 0.19267873 0.09744884
0.113721475 0.10129569 0.18811981 0.03749652 -0.07721965 -0.15260687 -0.18720597 0.16910554
-0.009542635 0.04268402 0.012926057 -0.084373295 -0.013585627 0.20178512 0.17332654 0.1578405
-0.047907293 -0.16154659 -0.100590296 0.18143037 0.07916688 -0.077762716 0.045588754 0.09174724
0.17626984 -0.06502641 0.21228889 -0.05163361 -0.08344551 0.01772372 -0.16799636 0.15494752
-0.13187383 0.1945912 0.026731895 -0.059323747 -0.088853054 0.043386396 -0.028201189 0.2172231

layers.10.bias f4 [64]
00000000: e72b ceb9 6863 c9ba 2089 61ba b02e d3bb
00000010: f3fe 843b 6c24 863a f026 54bb d8c6 1039
00000020: e2e6 f739 869c 9dba 4ec3 6eba 1a4d ccba
00000030: 44fb 0fb9 8cef d439 0a87 a53a 55f7 543a
00000040: d978 cfb9 a697 2dba 9e31 6f3b c509 353a
00000050: 7573 a03b a222 f83a ad5c a6b9 b66f b83a
00000060: fa29 edba e13c 71bb 5372 d93a 23cb f238
00000070: 2a97 ae3a 0815 78b6 980c 13bb 7fc7 79bb
00000080: 3079 aa3b 18c8 adbb 487c 60bb de0e a93b
00000090: 6aa7 0838 aa58 deb9 1981 12b9 f785 183b
000000a0: cfa4 3eba fad6 aab9 3c2f 20bb da06 153b
000000b0: 41a1 963b 5f35 dd3b 190d 8eba cfac 8d3b
000000c0: de59 4c3b bc74 033a bca1 493b 1b95 9d3a
000000d0: 6b6d b8bb d5fb 643a 8b15 7b39 96e6 afba
000000e0: 1fba c0ba 28fd b1ba fd36 c2b9 f27a 4d39
000000f0: c340 8eb9 32ee 99ba 79c8 6e3a cb45 c13b
-0.00039324092 -0.0015364708 -0.0008603502 -0.0064447746 0.0040587126 0.0010234243 -0.0032371841 0.00013806985
0.00047283532 -0.0012024797 -0.0009108082 -0.0015586943 -0.00013731146 0.00040614267 0.0012628746 0.00081240135
-0.00039572155 -0.00066220236 0.003649808 0.0006906058 0.004896576 0.001893122 -0.00031731036 0.0014071378
-0.0018094175 -0.0036809968 0.0016589857 0.000115772964 0.0013320197 -3.6967122e-06 -0.0022437926 -0.0038113294
0.005202435 -0.005303394 -0.0034253765 0.005159243 3.2580843e-05 -0.000424092 -0.00013971738 0.0023273209
-0.0007272483 -0.00032585097 -0.0024442216 0.002273968 0.0045968597 0.006750747 -0.0010837644 0.004323579
0.0031181495 0.0005014648 0.0030766567 0.0012022586 -0.005628278 0.00087350357 0.0002394525 -0.001342016
-0.0014703906 -0.0013579475 -0.00037043533 0.00019596124 -0.00027132602 -0.0011743961 0.0009108852 0.0058982125
