data/20240122/state_net_32000.pth (torch, 90556 bytes, 14 tensors)

layers.0.weight f4 [64, 5]
0	0x3cae3367	0.021264745
1	0xbd2df56a	-0.042470373
2	0x3d3c86f6	0.046027146
3	0xbe49d8a9	-0.19711556
4	0x3e904d18	0.28183818
5	0xbd485ce2	-0.048916705
6	0x3e800dfc	0.2501067
7	0x3e20d9a5	0.15708025
8	0xbe6b71cc	-0.22992629
9	0xbd83d739	-0.06437535
10	0x3e976fb0	0.29577398
11	0xbdf53b22	-0.11974169
12	0xbe808039	-0.25097826
13	0x3e5573b6	0.20844921
14	0xbe24ee1c	-0.16106457
15	0xbe8ab734	-0.27092898
16	0x3d01395a	0.031548835
17	0x3e47c116	0.1950725
18	0x3e2f1ec2	0.17101577
19	0xbd44ba7f	-0.04802942
20	0xbe10ded3	-0.141475
21	0x3ce2718d	0.027642036
22	0x3d9a93a5	0.07547692
23	0xbdec7c04	-0.115470916
24	0x3dc377be	0.095443234
25	0x3cf885c1	0.030337216
26	0x3e470fcf	0.19439624
27	0x3cc406a8	0.023928955
28	0x3e8da6ac	0.27666223
29	0xbdb20326	-0.08692007
30	0xbdc38163	-0.09546163
31	0xbd46111a	-0.048356153
32	0xbe1179b6	-0.14206585
33	0x3cf0af8b	0.02938058
34	0x3dbda6c7	0.09260326
35	0x3e957a38	0.29194808
36	0x3e9903d6	0.2988574
37	0xbbcf1ca4	-0.006320553
38	0xbe0ae611	-0.13564326
39	0xbee2fc9a	-0.44333345
40	0xbe18d537	-0.14925085
41	0x3e23a4fa	0.15980902
42	0xbeb17710	-0.3466115
43	0xbdaab26e	-0.08334814
44	0x3eb12d87	0.34605047
45	0x3e0c1b23	0.13682227
46	0xbd6e5189	-0.058183227
47	0xbe3d7c02	-0.18504336
48	0x3e8784bf	0.26468465
49	0x3e0d5493	0.13801794
50	0xbe29b09b	-0.16571276
51	0xbdce14e3	-0.100625776
52	0x3e95cdce	0.2925858
53	0xbe8171e7	-0.25282213
54	0x3dbed8a1	0.093186624
55	0xbd8c18ed	-0.06840692
56	0x3e5307d3	0.20608453
57	0x3e89b6d4	0.268973
58	0xbdace065	-0.08441237
59	0x3e937cf7	0.28806278
60	0xbdb825ab	-0.089915596
61	0xbd77bbc3	-0.060481798
62	0x3e4a76cd	0.19771881
63	0xbe626014	-0.22106963
64	0x3dbd9fa0	0.09258962
65	0xbdf549d2	-0.11976971
66	0x3c69f5a9	0.014279761
67	0x3c550224	0.013000999
68	0x3e1edee8	0.1551472
69	0xbe2e00d2	-0.169925
70	0x3dbb9b98	0.091605365
71	0xbde2f0b4	-0.11081067
72	0x3c5cb46a	0.013470748
73	0x3e7b316d	0.24530573
74	0x3e4ba83f	0.198884
75	0xbd3305a8	-0.043706566
76	0xbe783a9c	-0.24241108
77	0x3e9551b9	0.29163912
78	0x3e120abd	0.14261909
79	0xbd81d98a	-0.063403204
80	0xbe09c0ea	-0.13452497
81	0xbd6beb2b	-0.05759732
82	0x3daf6b30	0.08565366
83	0xbcfbd6a8	-0.030742005
84	0x3e871f14	0.26390898
85	0x3ebc1b8d	0.3673977
86	0x3de2d0b8	0.11074966
87	0xbe659e79	-0.22423734
88	0x3e616c89	0.22014059
89	0x3e032a4a	0.12809101
90	0xbea0ff6f	-0.3144488
91	0x3e6a0382	0.228529
92	0x3d3f2ca9	0.04667345
93	0xbe2805ec	-0.16408509
94	0x3e631dd0	0.22179341
95	0xbe616f27	-0.22015058
96	0x3e5ce16a	0.21570364
97	0xbe02ecbe	-0.12785622
98	0xbddbd026	-0.107330605
99	0xbe4fd5df	-0.20296429
100	0xbd21d7f3	-0.039512586
101	0xbe824804	-0.2544557
102	0xbe366c71	-0.17814805
103	0x3db5311e	0.08847259
104	0x3ccb42e3	0.024812168
105	0xbe085bf7	-0.13316332
106	0xbe492c7a	-0.19645873
107	0xbd69f126	-0.057114743
108	0x3e395bab	0.18101375
109	0x3e461cd5	0.19346936
110	0xbb07d9bd	-0.0020729147
111	0xbb4845b6	-0.003055913
112	0x3df1f1de	0.11813711
113	0x3e176af7	0.14786898
114	0x3e3a47fc	0.18191522
115	0x3e910067	0.2832062
116	0x3e004671	0.12526871
117	0x3dc6930c	0.09696016
118	0x3e872a23	0.26399335
119	0x3ad842b8	0.0016499376
120	0x3e867b1c	0.262658
121	0x3dff0907	0.12452894
122	0xbdbe37bf	-0.092879765
123	0x3e61fa34	0.22068101
124	0xbe22612a	-0.15857378
125	0xbe5658ff	-0.20932387
126	0x3db15d11	0.08660329
127	0x3e30c54c	0.17262763
128	0x3e5f24e4	0.21791416
129	0x3e334d84	0.17510039
130	0xbe73f9b0	-0.23825717
131	0xbe424d28	-0.18974745
132	0x3e207dbc	0.15672964
133	0xbe6562cf	-0.22400974
134	0xbe011a7c	-0.12607759
135	0x3e2d3d09	0.16917814
136	0xbe8d2421	-0.27566627
137	0xbd41ed45	-0.04734542
138	0xbb9d46b2	-0.0047996873
139	0xbe8e9055	-0.27844492
140	0x3b715a2b	0.0036827426
141	0x3eaa11b1	0.33216622
142	0xbd90e9dc	-0.07075855
143	0x3dcc15bb	0.09965082
144	0xbe7c92bb	-0.24665348
145	0x3e7a4724	0.244412
146	0xbdb9fb60	-0.09081149
147	0xbd94ef41	-0.072721966
148	0xbcee13f8	-0.029062256
149	0x3e83e46b	0.25760207
150	0xbe7d4933	-0.24734955
151	0xbe1ccae8	-0.15311778
152	0xbe307ffa	-0.17236319
153	0x3e9654ad	0.29361477
154	0xbe175917	-0.14780079
155	0xbd8ceb27	-0.06880789
156	0xbe2eb0e6	-0.17059669
157	0xbdf09834	-0.117477804
158	0x3d940242	0.07226993
159	0x3e0917b1	0.13387944
160	0x3e8aa047	0.27075407
161	0xbd7ff61f	-0.06249058
162	0x3e31d938	0.17368019
163	0x3e4308f6	0.19046387
164	0xbe8c1935	-0.2736298
165	0x3e86a3e9	0.2629693
166	0x3e815e91	0.2526746
167	0x3d9ac9b8	0.07558006
168	0xbe8aa1f3	-0.27076682
169	0xbe0b4ef3	-0.13604335
170	0xbdd6177d	-0.10453699
171	0x3e404544	0.18776423
172	0x3eb5ae93	0.35484752
173	0xbe4d1c0e	-0.20030233
174	0xbe3e83ca	-0.18604961
175	0xbc8b5ca8	-0.017011955
176	0x3e481c59	0.19542064
177	0x3e370104	0.17871481
178	0xbe3a8a7d	-0.18216892
179	0xbe1941bf	-0.14966486
180	0x3e191600	0.14949799
181	0x3d38f811	0.04515845
182	0xbe3a2a86	-0.18180284
183	0xbe9078a4	-0.28217041
184	0x3dc1a16d	0.09454618
185	0xbe75718f	-0.239691
186	0x3d144602	0.036199577
187	0x3d4a1811	0.049339358
188	0xbdf3dac8	-0.119069636
189	0xbe8244d1	-0.25443128
190	0xbdbc6978	-0.09199804
191	0x3e1a6b37	0.15079962
192	0x3e3ecac2	0.18632033
193	0x3e7ae42a	0.245011
194	0x3ebed514	0.3727194
195	0x3e362d64	0.17790753
196	0xbe6a2380	-0.22865105
197	0x3e4f5709	0.20248045
198	0xbd139f24	-0.03604044
199	0x3e986a52	0.29768616
200	0x3e7144b4	0.23561364
201	0xbe5fbbba	-0.21848956
202	0x3e8d3cd3	0.27585468
203	0xbe8d359a	-0.27579957
204	0x3e47aa5b	0.19498579
205	0xbe3900ad	-0.18066664
206	0x3dfcea6b	0.12349399
207	0xbe86b16d	-0.2630724
208	0xbe1b5585	-0.15169342
209	0xbd83aa68	-0.06428987
210	0x3c74d1d4	0.014942605
211	0xbd91e9bc	-0.071246594
212	0x3df2d8c9	0.11857755
213	0xbe8aa874	-0.27081645
214	0x3e46bcc1	0.19407941
215	0x3cf3fb5f	0.029782949
216	0x3dbbbfbb	0.09167429
217	0xbcee0c8b	-0.029058715
218	0xbd73a4e1	-0.059483413
219	0x3e63920c	0.22223681
220	0x3e3b6720	0.18301058
221	0xbcad63be	-0.021165725
222	0xbd1c6bbf	-0.038188692
223	0xbe46c2bd	-0.19410224
224	0xbe4e22b4	-0.20130426
225	0xbe38e135	-0.1805466
226	0xbdf3736a	-0.11887248
227	0xbe4bdbc2	-0.1990805
228	0x3d74cab6	0.059763633
229	0x3e329d82	0.17442897
230	0x3dc84410	0.09778607
231	0xbe88c96e	-0.2671618
232	0x3e08a384	0.13343626
233	0xbd907e97	-0.07055395
234	0x3ddc58e3	0.10759141
235	0x3dd0494a	0.10170229
236	0xbe5fea6f	-0.21866773
237	0x3e7e8f09	0.24859251
238	0xbcc072a4	-0.023492165
239	0xbe5ed82e	-0.21762154
240	0xbe72feee	-0.2373006
241	0xbce92b7f	-0.028463123
242	0x3d62f9e4	0.055414096
243	0xbd403f61	-0.046935443
244	0xbe84cf9a	-0.25939637
245	0x3d91e594	0.07123867
246	0xbd880ae9	-0.06642706
247	0x3e61c7fb	0.22048943
248	0xbe0d6a42	-0.13810065
249	0x3db162a6	0.08661394
250	0xbe2f0401	-0.17091371
251	0xbd966fe0	-0.07345557
252	0x3df3e38f	0.11908638
253	0xbe71f5e8	-0.23628962
254	0xbe834409	-0.25637844
255	0x3e183ed6	0.1486772

layers.0.bias f4 [64]
0	0xbb317254	-0.0027076202
1	0x3adaeeb9	0.0016703225
2	0x3babce50	0.0052431
3	0xbb7d4830	-0.0038647763
4	0x3b5345ca	0.0032237642
5	0xbb13a72a	-0.0022530057
6	0xbaf54fcc	-0.0018715798
7	0xbd97c3a0	-0.074103594
8	0x3cc712cd	0.024300957
9	0x3ba1e75d	0.0049409107
10	0x3b6563f5	0.0035002206
11	0xbc507528	-0.012723245
12	0xbd40a873	-0.047035646
13	0x3bd40221	0.0064699803
14	0x3b58c83b	0.003307833
15	0x3c84b31e	0.016198691
16	0xbae37e63	-0.0017356392
17	0xbcb55343	-0.022134429
18	0xbc443227	-0.011974848
19	0x3b82998a	0.0039855884
20	0x3b6c118b	0.0036021199
21	0x3c9f1c1e	0.019422587
22	0x3b4afa0c	0.0030971793
23	0xbc4739ec	-0.012159806
24	0x3bd02b90	0.0063528493
25	0xbbc61a35	-0.0060456046
26	0x3cd5f45b	0.026117494
27	0x3bdd3be2	0.0067515234
28	0x3b0843f4	0.0020792456
29	0xbbb1de20	-0.0054280907
30	0x3c0387c3	0.008027974
31	0x3bd7452a	0.0065695243
32	0xbbb50b06	-0.0055249957
33	0x3b013ce8	0.001972014
34	0xbbb8f6b4	-0.0056446437
35	0x3bee2aaa	0.0072682695
36	0x3c8e12d0	0.017342955
37	0x3b83bbed	0.0040202052
38	0x3b77274f	0.0037712639
39	0x3bd1a7e2	0.006398187
40	0x3a83f4ae	0.0010067427
41	0x3b24c1a7	0.002513984
42	0x3c0aa023	0.008461031
43	0x3be8868f	0.0070961188
44	0xbc324c10	-0.0108823925
45	0xba0e6ab6	-0.0005432771
46	0x3c85c303	0.01632834
47	0xbc03f524	-0.008054052
48	0xba1f57e4	-0.00060784654
49	0xbc8413ff	-0.016122816
50	0x3c19246d	0.0093470635
51	0x3b7067c5	0.0036682945
52	0x3d3b2717	0.045691576
53	0x3aac2c86	0.0013135828
54	0xbb1d97fa	-0.0024046884
55	0x3b160e25	0.0022896614
56	0xbc35c8d2	-0.011095243
57	0xb925b73d	-0.00015803888
58	0x3b3d70a1	0.0028906243
59	0xba312e14	-0.00067588803
60	0x3c837eec	0.016051732
61	0xbbbb5780	-0.005717218
62	0x3bf1da18	0.007380735
63	0xbc27c940	-0.010240853

layers.2.weight f4 [64, 64]
0	0x3b6693ae	0.0035183239
1	0xbe053680	-0.13009071
2	0x3dac96a4	0.0842717
3	0x3d71f49d	0.059071172
4	0xbdbb674a	-0.0915056
5	0xbcf3efbb	-0.029777398
6	0xbca1ce4e	-0.019751694
7	0x3deff85f	0.11717295
8	0xbdc1f755	-0.09471003
9	0xbe223d68	-0.15843737
10	0x3cfb448c	0.030672334
11	0x3c00b4fb	0.007855649
12	0xbd12abd4	-0.0358084
13	0x3e14e964	0.14542156
14	0xbd1fe7e3	-0.039039504
15	0xbcf069e8	-0.029347375
16	0xbd741e20	-0.059599042
17	0x3c1a4ab9	0.009417229
18	0xbdd38e4e	-0.10329877
19	0xbdb12847	-0.086502604
20	0xbdb8a6f9	-0.090162225
21	0xbe5e5895	-0.21713479
22	0xba9402c6	-0.001129233
23	0x3ca2ab51	0.01985708
24	0x3cc70a83	0.024297005
25	0xbdb77219	-0.08957309
26	0x3d972306	0.07379727
27	0xbd1f339c	-0.038867578
28	0xbdfecd4b	-0.124415
29	0x3d36dcf1	0.0446443
30	0x3e3cd456	0.18440375
31	0x3defcafd	0.11708639
32	0x3df9c633	0.121960066
33	0x3e30161e	0.17195937
34	0xbdee7dad	-0.116450645
35	0xbd8daf49	-0.069181986
36	0xbdf1ae89	-0.11800868
37	0xbe376c5e	-0.17912433
38	0x3cc66141	0.024216296
39	0x3d6277cd	0.055290032
40	0x3e3beba2	0.18351606
41	0x3e04b4c4	0.12959582
42	0x3e4fa1fa	0.20276633
43	0xbe03c13a	-0.12866679
44	0x3e0d758c	0.13814372
45	0xbdd89d2b	-0.105768524
46	0x3d91416d	0.07092557
47	0xbd26a223	-0.04068197
48	0xbe064482	-0.13112071
49	0xbdec3294	-0.115330845
50	0xbe0f3d14	-0.13988143
51	0xbe0974a2	-0.13423398
52	0x3d049c2f	0.03237551
53	0xbe1a0a13	-0.15042906
54	0xbda97669	-0.08274538
55	0xbde86dce	-0.113490686
56	0xbd2ae64a	-0.041723527
57	0xbcd40de5	-0.025885532
58	0xbe56ff19	-0.2099575
59	0xbe23c768	-0.15994036
60	0x3dcd025c	0.10010216
61	0x3e119fb5	0.1422108
62	0xbe4e4413	-0.20143156
63	0x3dd1c71f	0.102430575
64	0x3e572ee8	0.21013987
65	0xbd7f8fd7	-0.062393036
66	0xbe058183	-0.13037686
67	0x3e6281ed	0.22119875
68	0xbe349e4f	-0.17638515
69	0x3c8bcf05	0.017066488
70	0x3dae94e4	0.085244924
71	0x3d0e2c4a	0.034710206
72	0xbe220d89	-0.15825476
73	0x3db2413a	0.08703847
74	0x3e46a6fc	0.19399637
75	0xbd9232de	-0.071386084
76	0x3c8f1ded	0.017470324
77	0x3e06a5d4	0.13149196
78	0x3e399e19	0.18126716
79	0xbe1f9091	-0.15582491
80	0x3e024fcd	0.12725754
81	0xbdf2f1f7	-0.118625574
82	0x3c416d46	0.011805838
83	0x3d01f2bd	0.031725634
84	0xbd1b947c	-0.037983403
85	0xbd73577d	-0.059409607
86	0xbdcf1ac0	-0.10112524
87	0xbdd3ba76	-0.10338299
88	0x3c1b6bf5	0.009486188
89	0xbc7e3acd	-0.015516949
90	0xbcf83dc7	-0.030302895
91	0x3d8186b7	0.06324523
92	0x3d852ce5	0.065027036
93	0xbdcd863d	-0.100353695
94	0xbdf11038	-0.117706716
95	0xbe5c30a2	-0.21502927
96	0x3dde28b5	0.10847608
97	0x3d87fdbd	0.066401936
98	0xbcbb6f24	-0.022880144
99	0xbe2c6bdf	-0.16838025
100	0xbe509f3f	-0.20373248
101	0xbde0ea49	-0.10982186
102	0x3e4d4520	0.200459
103	0x3e1492e5	0.14509161
104	0x3c057e5d	0.008147803
105	0xbe1096d9	-0.14120044
106	0xba817af2	-0.000987856
107	0x3e074651	0.13210417
108	0x3e358689	0.17727102
109	0xbe57230c	-0.21009463
110	0xbe5a658e	-0.21327803
111	0x3be0ab20	0.006856337
112	0xbcb3e44e	-0.02195945
113	0xbe384c3e	-0.17997834
114	0xbd8290a8	-0.06375247
115	0x3d87f582	0.06638624
116	0xbe000680	-0.1250248
117	0xbe0ee76f	-0.13955472
118	0x3e2f67d8	0.17129457
119	0x3c4664f0	0.012109026
120	0xbd7c46b2	-0.061590858
121	0x3d97332a	0.07382806
122	0x3e438703	0.19094472
123	0x3da4d9fc	0.0804939
124	0xbdc93289	-0.09824092
125	0x3e59c0eb	0.21264999
126	0xbd61e5ab	-0.05515067
127	0x3e153be2	0.14573625
128	0xbbabc310	-0.005241759
129	0x3e3d2ed4	0.18474895
130	0xbdeadbdc	-0.11467716
131	0x3d13afdf	0.036056396
132	0xbe241b08	-0.16025937
133	0xbe12a264	-0.1431976
134	0xbe25407e	-0.16137883
135	0xbe50af35	-0.20379336
136	0x3d854af0	0.06508434
137	0xbdfe8154	-0.12427011
138	0xbe27309a	-0.16327134
139	0xbc9f52f9	-0.019448744
140	0xbd8feed5	-0.070279755
141	0xbe037de4	-0.12840992
142	0x3e11638e	0.14198133
143	0x3dfd41b5	0.12366048
144	0x3e676ae6	0.22599372
145	0xbe3696c3	-0.17830949
146	0xbdb951ae	-0.09048782
147	0xbde45c89	-0.11150462
148	0xbcbba725	-0.02290685
149	0xbdf3fc6c	-0.1191338
150	0x3bbda2f4	0.005787248
151	0xbdc02f74	-0.09384051
152	0xbe5fb2ad	-0.21845503
153	0x3da94395	0.082648434
154	0xbc1159ec	-0.008871537
155	0xb9c30c0a	-0.00037202268
156	0xbe43fd99	-0.19139709
157	0x3d2dcae9	0.04242984
158	0xbe432477	-0.19056879
159	0xbd019f6a	-0.03164617
160	0xbe4fb4b0	-0.2028377
161	0xbde2a33f	-0.11066293
162	0x3e247141	0.16058828
163	0xbe4385c8	-0.19094002
164	0x3e3bc7b8	0.18337905
165	0xbe27a908	-0.16373074
166	0xbd956475	-0.07294551
167	0x3c0fb55d	0.008771268
168	0xbe3eb278	-0.18622768
169	0xbe2e22f8	-0.17005527
170	0xbd931467	-0.07181626
171	0xbd8e5cd2	-0.06951298
172	0x3dede1f7	0.11615365
173	0xbdc43944	-0.09581235
174	0x3e3bf32d	0.18354483
175	0xbdb02eb1	-0.08602656
176	0x3c1707d6	0.009218177
177	0xbb12e07a	-0.002241163
178	0x3d99f59e	0.07517551
179	0x3cf5b256	0.029992264
180	0xbcb0bc98	-0.021574304
181	0x3e5e5824	0.2171331
182	0x3db3e7d0	0.08784449
183	0x3ded0aba	0.115743116
184	0x3de7e4b1	0.11322916
185	0xbd61b07b	-0.055099946
186	0x3ddf9a67	0.10918122
187	0x3d338752	0.043830223
188	0x3d676582	0.05649329
189	0xbe714ba9	-0.23564018
190	0x3d2cfd93	0.042234015
191	0xbe11de88	-0.14245045
192	0xbdde4d99	-0.10854644
193	0xbdd5c1ad	-0.10437331
194	0xbe2f0b49	-0.17094149
195	0x3e5ef8df	0.21774624
196	0xbd958d7a	-0.07302375
197	0xbdf335f2	-0.118755236
198	0x3d128eec	0.035780832
199	0xbbedb7ca	-0.0072545754
200	0xbe36bd6b	-0.17845695
201	0xbe5e93ac	-0.2173602
202	0xbe1aa839	-0.15103234
203	0x3e917400	0.28408813
204	0xbe0500e6	-0.12988624
205	0x3b160dc8	0.0022896398
206	0x3d326f7c	0.04356335
207	0x3dfc349d	0.12314723
208	0xbd324dbf	-0.043531176
209	0xbe691ec4	-0.22765642
210	0x3e88cb2b	0.26717505
211	0x3e049711	0.12948252
212	0xbc9b1e07	-0.018935217
213	0x3dfa7069	0.12228472
214	0xbe14af19	-0.1451992
215	0xbd3164fe	-0.043309204
216	0xbe01ef0e	-0.12688848
217	0xbdedd8d6	-0.11613624
218	0x3ddd90fa	0.10818668
219	0xbdc013c8	-0.09378773
220	0xbe0f6582	-0.14003566
221	0xbe8f5072	-0.27991062
222	0xbe386686	-0.1800786
223	0xbc6a6a6d	-0.0143076
224	0xbe78a047	-0.24279891
225	0xbe429e41	-0.19005682
226	0xbdf8404c	-0.12121639
227	0x3c940398	0.01806812
228	0x3dd359a0	0.10319829
229	0xbdb31d6f	-0.087458484
230	0xbc88575b	-0.016643217
231	0xbd2a09dd	-0.041513313
232	0x3cc7579a	0.024333764
233	0xbd88642c	-0.06659731
234	0x3d8dc847	0.069229655
235	0x3e59cae0	0.21268797
236	0xb9a44856	-0.00031334412
237	0x3e089f31	0.13341977
238	0xbe38ecef	-0.18059133
239	0xbdae49d5	-0.08510176
240	0x3e4da308	0.20081723
241	0x3e5b8d47	0.21440612
242	0xbe573b74	-0.21018773
243	0x3d94bfc9	0.072631426
244	0x3cc888d6	0.024479311
245	0xbe35dc90	-0.17759919
246	0xbe340c1c	-0.17582744
247	0xbe8858a2	-0.2663012
248	0x3ca58962	0.02020711
249	0x3db8a4a0	0.09015775
250	0x3db87215	0.090061344
251	0xbe1ee766	-0.15517959
252	0x3e2ef614	0.17086059
253	0xbe2dc8e5	-0.16971166
254	0x3e554c07	0.20829783
255	0xbdc1b963	-0.09459188

layers.2.bias f4 [64]
0	0xbaa10a75	-0.0012286442
1	0xbb67411b	-0.0035286609
2	0x3c8f3ac3	0.017484074
3	0xba736ff3	-0.0009286396
4	0x3d56a8e0	0.052407146
5	0xbb60c672	-0.003429797
6	0xba9fad95	-0.0012182469
7	0x39e47c2c	0.00043580064
8	0xbbe7b4fb	-0.007071135
9	0x3bd535ca	0.0065066563
10	0x3b265b5f	0.0025384051
11	0x3c3604cc	0.011109542
12	0xba19bb8a	-0.00058644323
13	0x3c9d6292	0.019212041
14	0xbb9615ca	-0.004580234
15	0xba2e18b4	-0.00066412543
16	0x3aba9050	0.0014233682
17	0xbb2e5eb8	-0.002660675
18	0xbc89e974	-0.016834952
19	0xbb499c4f	-0.0030763333
20	0xbb60c6fb	-0.003429829
21	0xbaed9d71	-0.0018128586
22	0xba3864ef	-0.0007034083
23	0xbb6384df	-0.0034716649
24	0xbc31d790	-0.010854617
25	0x3b0428f2	0.0020166007
26	0x3bb78ee5	0.005601751
27	0x3bb173b7	0.0054154056
28	0xbae95773	-0.0017802551
29	0xbad8eff8	-0.0016551008
30	0x3baf1fb1	0.005344354
31	0x3b424350	0.0029642172
32	0xbc4d44f3	-0.012528646
33	0x3b84a9c1	0.0040485566
34	0x3af5548f	0.0018717217
35	0xbc0dd34d	-0.008656335
36	0x3af1c27a	0.0018444799
37	0xbadc532b	-0.0016809454
38	0xbc0cdcb1	-0.008597539
39	0x3c7cfd6a	0.015441278
40	0x3b81b857	0.0039587426
41	0x3bde918e	0.006792254
42	0x3b302688	0.0026878435
43	0x3b9952e6	0.0046790717
44	0xbada4ad0	-0.0016654376
45	0xbb5fb917	-0.0034137422
46	0xbca20992	-0.019779954
47	0x3b0d905a	0.0021600933
48	0x3c2cb36f	0.010540827
49	0xbd49967c	-0.04921578
50	0x3cbcc420	0.023042738
51	0xbbf53681	-0.007483304
52	0x3bc7dc65	0.006099271
53	0xbb20ab09	-0.0024516007
54	0xba1d67dd	-0.00060045515
55	0xbac5b94a	-0.0015085128
56	0x3c42c607	0.011888034
57	0x391cf23e	0.00014967562
58	0x3bc90891	0.0061350544
59	0x3bdde35a	0.006771487
60	0xbb861636	-0.004092003
61	0x3b0a0b4e	0.0021063867
62	0xbc26b32f	-0.010174557
63	0x3ba1d7db	0.004939062

layers.4.weight f4 [64, 64]
0	0x3d5a23f0	0.05325693
1	0x3e0e99ae	0.13925812
2	0xbdaee78e	-0.08540259
3	0xbe497381	-0.19672967
4	0xbe075ee6	-0.13219795
5	0xbe0c2fc4	-0.13690096
6	0xbd5dbfec	-0.05413811
7	0x3d552a80	0.052042484
8	0xbd760c09	-0.06007007
9	0xbd939397	-0.07205885
10	0x3d3a334b	0.045459073
11	0xbdbb2973	-0.09138765
12	0x3e239e88	0.15978444
13	0x3e2f5873	0.17123584
14	0xbe47cb38	-0.19511116
15	0x3e2d1960	0.16904211
16	0xbd477b08	-0.048701316
17	0x3e2e5df5	0.1702803
18	0x3b8619b6	0.0040924205
19	0xbe08e761	-0.13369514
20	0x3cd9310c	0.026512645
21	0xbd3ab12c	-0.04557912
22	0x3e56dd8f	0.20982955
23	0xbda461cc	-0.08026466
24	0xbe460682	-0.1933842
25	0xbd821d88	-0.06353289
26	0x3dd3d7aa	0.10343869
27	0x3c90d126	0.017677855
28	0xbdf54b3a	-0.11977239
29	0x3ce02e6c	0.027365886
30	0x3e044193	0.1291564
31	0x3dad7623	0.084697984
32	0xbd85ca01	-0.0653267
33	0x3e26eea7	0.16301976
34	0xbe00a532	-0.12563017
35	0x3e55ce29	0.20879425
36	0x3db77d24	0.089594156
37	0x3de0fba8	0.109854996
38	0x3e5748cc	0.21023864
39	0x3da7b972	0.08189668
40	0x3e87a495	0.26492754
41	0x3c29a0cc	0.010353278
42	0x3e14eb04	0.14542776
43	0xbd52697d	-0.051370133
44	0x3c52e942	0.012872996
45	0x3d7627ad	0.06009643
46	0xbdb3d4be	-0.08780812
47	0x3d2828b1	0.04105443
48	0xbe2e6529	-0.17030777
49	0x3dbdf47c	0.09275147
50	0x3e2483d4	0.16065913
51	0x3e037d29	0.12840714
52	0xbd0f7872	-0.035026975
53	0x3ca03703	0.019557482
54	0xbe4d496d	-0.20047541
55	0xbd3c7163	-0.04600657
56	0x3e1122e0	0.1417346
57	0xbc9c800b	-0.019104024
58	0x3e02f20f	0.1278765
59	0x3dad76b7	0.08469909
60	0xbc2bcf4e	-0.010486437
61	0xbdac2cc3	-0.08406975
62	0xbe223b87	-0.1584302
63	0x3e4b82e2	0.19874147
64	0x3e2b2bd5	0.1671594
65	0xbc9a9d2f	-0.01887378
66	0xbe455e7a	-0.19274321
67	0xbe85ab15	-0.26107088
68	0xbdbdbb4e	-0.09264241
69	0xbe0c5b84	-0.13706785
70	0x3ea6ea20	0.32600498
71	0xbde864a3	-0.1134732
72	0xbdc00782	-0.09376432
73	0x3dafc179	0.08581824
74	0xbdd9c5de	-0.10633443
75	0x3d72fd80	0.059323788
76	0xbe79ebb8	-0.24406326
77	0x3cdc701b	0.026908925
78	0xbe08bcf3	-0.13353328
79	0x3d1011fa	0.035173394
80	0x3ce5fb52	0.02807394
81	0xbd7990c2	-0.060929067
82	0xbe5645de	-0.2092509
83	0x3c340877	0.010988346
84	0x3e1c2a3a	0.15250483
85	0x3da23105	0.07919506
86	0x3cd56467	0.026048852
87	0xbe61d061	-0.22052146
88	0xbe339aa1	-0.17539455
89	0x3e69ce2f	0.22832559
90	0x3d55aeab	0.05216853
91	0x3d85550a	0.065103605
92	0xbe01ee37	-0.12688528
93	0xbdb7d656	-0.08976428
94	0xbd6d52ea	-0.0579404
95	0x3e330ba6	0.17484912
96	0xbdffaad2	-0.12483753
97	0xbdd71976	-0.10502903
98	0x3d6fb1e2	0.05851925
99	0x3d30a44a	0.04312543
100	0xbd28e127	-0.041230347
101	0xbe0c319b	-0.13690798
102	0xbec087bd	-0.3760356
103	0xbe238822	-0.159699
104	0x3e20aa72	0.1569002
105	0x3dcb072e	0.09913479
106	0x3de0d9df	0.109790556
107	0xbb9bfdc3	-0.0047604754
108	0xbd170e23	-0.036878716
109	0xbd86d636	-0.06583826
110	0xbcd849c7	-0.026402367
111	0xbdfba048	-0.122864306
112	0x3dd3e5fc	0.103466004
113	0xbe35399b	-0.17697756
114	0x3d0a4fb6	0.033767425
115	0xbe616d3f	-0.2201433
116	0x3e58681e	0.21133468
117	0xbcf3408b	-0.029693862
118	0x3e296ce1	0.1654544
119	0xbd9892ba	-0.07449861
120	0xbe0d491d	-0.13797422
121	0xbdcca32a	-0.099920586
122	0x3e0ad709	0.13558592
123	0x3c96266b	0.018328866
124	0x3b46d830	0.003034126
125	0xbdbe8c6b	-0.09304126
126	0xbe96329e	-0.29335493
127	0xbe01b86a	-0.12668005
128	0xbc637462	-0.013882728
129	0xbcf1e00e	-0.029525783
130	0xbe33b92d	-0.17551108
131	0x3cae4c12	0.021276508
132	0x3e73e960	0.23819494
133	0x3cfdbd28	0.030973986
134	0xbdbed572	-0.09318055
135	0x3d84b4d3	0.06479802
136	0xbe332928	-0.17496169
137	0xbe801d64	-0.25022423
138	0xbd6974a0	-0.056995988
139	0xbe832dc2	-0.25620848
140	0x3e3b077f	0.18264578
141	0xbd9f174b	-0.07768115
142	0x3db2344a	0.087013796
143	0x3e604023	0.21899466
144	0xbe5edb57	-0.21763359
145	0x3e8643e3	0.26223668
146	0x3e3ddeeb	0.18542068
147	0xbdf71c41	-0.12065936
148	0x3de657db	0.11247226
149	0x3c92ab14	0.017903842
150	0x3da9f63d	0.08298919
151	0x3e637fea	0.22216764
152	0xbda2af5c	-0.079436034
153	0x3dad9f54	0.08477655
154	0x3daba6a1	0.08381391
155	0xbe54828c	-0.20752925
156	0x3e011aa6	0.12607822
157	0x3e9492e4	0.2901832
158	0xbe4c441e	-0.1994786
159	0xbe2f8e3f	-0.17144106
160	0xbe0c81ee	-0.13721439
161	0xbe0f0cb7	-0.13969694
162	0x3e03848a	0.12843528
163	0x3dfee29c	0.12445566
164	0xbe09eeba	-0.13469973
165	0x3e34f973	0.17673282
166	0xbe17680c	-0.14785784
167	0xbe5756fc	-0.21029276
168	0xbe517ff6	-0.2045897
169	0xbb9c1ffa	-0.004764554
170	0x3dd1881d	0.1023104
171	0xbe0e9234	-0.1392296
172	0xbbaf0268	-0.005340863
173	0x3e22b748	0.15890229
174	0x3e38d90b	0.18051545
175	0x3d72ad3e	0.059247248
176	0xbdb950de	-0.09048627
177	0x3d9aefcf	0.07565271
178	0x3e54a042	0.20764259
179	0x3e2f0cc9	0.17094721
180	0x3db06a96	0.0861408
181	0xbe2bd277	-0.16779505
182	0x3db13a4c	0.08653697
183	0xbe582d9f	-0.21111153
184	0xbdfb88e4	-0.12281969
185	0x3d196ce1	0.03745735
186	0x3e3c5237	0.18390737
187	0xbe59783c	-0.21237272
188	0xbe24d6b6	-0.1609753
189	0xbd5ee734	-0.05441971
190	0x3cb12043	0.021621829
191	0xbe51f30e	-0.20502874
192	0x3e169c8e	0.14708158
193	0xbca67776	-0.020320635
194	0x3d9509a2	0.07277228
195	0xbca4f34b	-0.020135542
196	0x3d602b23	0.05472864
197	0xbd7e49c5	-0.06208207
198	0xbe4689b1	-0.19388463
199	0x3d08a622	0.03336156
200	0x3cc0721b	0.02349191
201	0x3d945617	0.07242983
202	0x3e51606c	0.20446938
203	0x3d816f39	0.06320042
204	0x3db24b2a	0.08705743
205	0xbe1e1a0d	-0.15439625
206	0xbd557a55	-0.052118618
207	0x3e4cf090	0.20013642
208	0xbba8110e	-0.005128986
209	0x3d0a6944	0.033791795
210	0x3ced601c	0.028976493
211	0xbe18e0bf	-0.14929484
212	0xbe5ab34c	-0.21357459
213	0xbe16e9b3	-0.14737587
214	0x3c856634	0.016284086
215	0x3e4d2eaf	0.2003734
216	0xbe19d2d3	-0.1502183
217	0x3dd495f6	0.10380165
218	0x3e418dd3	0.18901758
219	0xbdd58630	-0.10425985
220	0xbe15f552	-0.14644364
221	0xbe2218dc	-0.15829796
222	0xbdd622f6	-0.10455887
223	0x3c90adbb	0.017660966
224	0xbe399268	-0.18122256
225	0x3dc59d48	0.0964914
226	0xbe1c1dd4	-0.15245754
227	0xbe10eb09	-0.14152159
228	0x3e02f440	0.12788486
229	0x3d8b8801	0.0681305
230	0x3e1a3347	0.15058623
231	0xbd6a1f25	-0.057158608
232	0xbe672c0f	-0.22575401
233	0x3d32fd5b	0.04369865
234	0x3e5e7fda	0.21728459
235	0x3e3e0082	0.18554881
236	0x3e40c07f	0.18823431
237	0xbd08264f	-0.03323966
238	0xbc5f32ed	-0.0136229815
239	0x3df6d1c8	0.12051731
240	0xbc0295d4	-0.007970292
241	0xbbfd2407	-0.007725242
242	0x3c81ecaf	0.01585993
243	0x3d297938	0.04137537
244	0x3df69b2f	0.12041318
245	0x3e291628	0.16512358
246	0x3e165ebf	0.1468458
247	0xbe31ef08	-0.1737634
248	0xbe066f17	-0.13128315
249	0xbc3aca7d	-0.011400816
250	0x3e43c7d4	0.19119197
251	0xbd929f7b	-0.07159325
252	0xbcd4ec45	-0.025991568
253	0x3cea5597	0.028605266
254	0xbdd29a26	-0.10283308
255	0x3d0c2053	0.034210514

layers.4.bias f4 [64]
0	0x39509e7e	0.00019895469
1	0x3ddfa9ff	0.10921096
2	0xbc432dac	-0.0119127445
3	0x3941e174	0.00018489902
4	0xbbda1f1a	-0.0066565396
5	0xbc40d87f	-0.011770367
6	0x3b2ee239	0.0026685132
7	0xbb47852e	-0.0030444372
8	0x3c99a43e	0.018755075
9	0xbcb89991	-0.022534164
10	0x3b109e68	0.0022067074
11	0xbc418de8	-0.011813618
12	0x3a33da58	0.0006860844
13	0x39987197	0.0002907633
14	0x3b8c79fc	0.0042870026
15	0x3ad770b2	0.0016436784
16	0x39bd4906	0.00036103296
17	0x3adc8c66	0.001682651
18	0xbc5061ae	-0.012718601
19	0xbc72136d	-0.014775139
20	0xbb679b18	-0.0035340246
21	0xbac2d05c	-0.0014863121
22	0xbaab4509	-0.0013066839
23	0xbabba0ce	-0.0014314891
24	0x3c198386	0.009369737
25	0xba922b56	-0.0011151831
26	0x3a179c8f	0.0005783522
27	0x3c8c6538	0.017138109
28	0x3c025446	0.007954663
29	0xba2a287a	-0.0006491017
30	0x3c80bf39	0.015716182
31	0x3829765f	4.040298e-05
32	0xbb0b8a10	-0.0021292008
33	0xbbbf643a	-0.0058408054
34	0xbcb51b77	-0.022107823
35	0x3ce2ff68	0.027709678
36	0x3c3993c8	0.011326738
37	0x3bf8d4cd	0.007593727
38	0xbc108b53	-0.00882228
39	0x37ccfdad	2.4436822e-05
40	0xbb92b554	-0.0044771824
41	0x3aa96cb0	0.0012926068
42	0xbb8f161f	-0.0043666507
43	0x3b1b4fd4	0.0023698704
44	0xbb98b400	-0.0046601295
45	0x3a36dbf7	0.00069755263
46	0x3a5aa5af	0.0008340729
47	0x39f2f7ca	0.00046342454
48	0x3b16eb0f	0.002302829
49	0xbc2c497c	-0.010515567
50	0x3ab869f8	0.0014069667
51	0x390d1024	0.0001345282
52	0xba4164fd	-0.0007377414
53	0xbb1f49cf	-0.0024305468
54	0x3c3ddcc8	0.011588283
55	0x3a90641b	0.0011016162
56	0x3c514459	0.012772643
57	0x3b45add8	0.0030163433
58	0xbabbb371	-0.0014320445
59	0xbb110cd5	-0.0022132893
60	0x3b044d01	0.00201875
61	0x3937a6e9	0.00017514419
62	0xb99e24a4	-0.00030163408
63	0xbca4c23d	-0.020112151

layers.6.weight f4 [64, 64]
0	0xbe5587fa	-0.20852652
1	0x3d46dfde	0.04855334
2	0xbe4bd548	-0.19905579
3	0x3e17fb96	0.14842066
4	0xbe054b4a	-0.13017002
5	0xbda52971	-0.08064545
6	0xbe3481fa	-0.17627707
7	0x3dd35629	0.10319168
8	0x3e162c3f	0.14665316
9	0x3d88d073	0.066803835
10	0x3c16fde5	0.009215807
11	0xbd904731	-0.07044829
12	0xbd7b1a3d	-0.06130432
13	0x3b8532dc	0.004064901
14	0x3d456904	0.048195854
15	0x3e48cb68	0.19608843
16	0x3d8b6647	0.06806617
17	0xbd7128f9	-0.058876965
18	0xbe453fc3	-0.19262604
19	0x3e16d91e	0.14731261
20	0xbdcd1e45	-0.10015539
21	0xbc2d4ce3	-0.010577413
22	0xbe55f783	-0.208952
23	0xbddb1fda	-0.106994346
24	0x3db853e8	0.09000379
25	0xbe267ea6	-0.1625925
26	0x3d80976f	0.06278884
27	0x3b1a13f6	0.0023510433
28	0xbb27e5b6	-0.0025619096
29	0x3e2df75f	0.16988896
30	0x3e494664	0.19655758
31	0xbd91a9f0	-0.07112491
32	0x3cd74c85	0.026281605
33	0x3c24ad7f	0.01005113
34	0xbe3227c1	-0.17397977
35	0xbd317055	-0.04332002
36	0xbdc79370	-0.09744918
37	0xbdbd69db	-0.09248706
38	0x3d4e245a	0.050327636
39	0x3e1b6999	0.15177001
40	0xbd034b24	-0.03205408
41	0xbd37478a	-0.04474596
42	0x3cbd2251	0.023087652
43	0x3dba21ef	0.090885036
44	0x3df23168	0.1182583
45	0xbc904ed8	-0.01761572
46	0x3e4ab569	0.19795765
47	0xbe571824	-0.21005303
48	0xbe02d09e	-0.12774894
49	0x3d9f4677	0.07777112
50	0xbe341991	-0.17587878
51	0xbc101b5d	-0.008795586
52	0x3e438d0d	0.19096775
53	0x3d710782	0.05884505
54	0x3e0ce699	0.13759841
55	0x3e1268cb	0.14297788
56	0x3d1798f9	0.03701112
57	0x3dac645c	0.084175795
58	0x3e18ed34	0.14934236
59	0x3ad46726	0.0016205057
60	0x3e53bf46	0.20678434
61	0x3e04509d	0.12921377
62	0x3d8444c5	0.06458429
63	0xbe28f2e7	-0.1649891
64	0xbe060144	-0.1308642
65	0xbde77563	-0.113016866
66	0x3e2db611	0.16963984
67	0x3e49d8c5	0.19711597
68	0x3e8e8b0a	0.27840453
69	0x3e9ddf5f	0.3083448
70	0xbe5b2671	-0.21401383
71	0xbdb8c166	-0.09021263
72	0x3e02c076	0.1276873
73	0xbdab069e	-0.083508715
74	0xbd9f7be6	-0.077873036
75	0xbe3f7cc1	-0.18699934
76	0x3aa5f7dd	0.001266237
77	0xbd6b33af	-0.057422336
78	0x3e484fff	0.19561766
79	0xbd170195	-0.036866743
80	0x3d19069a	0.03735981
81	0xbe24ab31	-0.1608093
82	0x3e7b1080	0.24518013
83	0xbd9db933	-0.077013396
84	0x3e484ade	0.1955981
85	0xbc802a13	-0.015645063
86	0x3bcf0495	0.006317685
87	0xbe761fec	-0.24035615
88	0xbe20a0e0	-0.15686369
89	0x3d2ea65d	0.042639125
90	0x3e2899ac	0.16464871
91	0xbe89134e	-0.2677254
92	0x3d014892	0.03156335
93	0x3e157e1a	0.14598885
94	0x3e24f510	0.16109109
95	0xbe016698	-0.12636793
96	0x3e389ade	0.18027827
97	0x3e4ba8dc	0.19888633
98	0xbe63c342	-0.22242454
99	0xbe7caee4	-0.2467609
100	0xbe20549a	-0.15657273
101	0x3e208c89	0.1567861
102	0xbc02045c	-0.00793561
103	0xbd9d1990	-0.07670891
104	0xbbb8e542	-0.005642564
105	0x3e3841dd	0.17993875
106	0x3e1f24a1	0.15541317
107	0x3e6f731c	0.23383754
108	0x3d9b375c	0.07578918
109	0xbd8cfbf8	-0.06883997
110	0xbe4620b4	-0.19348413
111	0xbe2c78f7	-0.1684302
112	0x3e684df3	0.22685985
113	0x3e71970f	0.2359278
114	0xbde2de56	-0.110775635
115	0xbb47c87d	-0.003048449
116	0x3e22b9d6	0.15891203
117	0x3da3111c	0.07962248
118	0xbdc5a720	-0.09651017
119	0x3e148627	0.145043
120	0x3e1e8a46	0.15482435
121	0xbe3597dd	-0.17733712
122	0x3d30fcfd	0.04321002
123	0x3db46509	0.088083334
124	0x3d2696ea	0.040671267
125	0xbdf0aa23	-0.11751201
126	0xbdf74ed2	-0.12075581
127	0xbd07214c	-0.03299074
128	0xbcf55f1c	-0.029952578
129	0xbbe19bb8	-0.006885018
130	0xbe4f3185	-0.20233734
131	0xbd269913	-0.040673327
132	0xbc663edd	-0.014053074
133	0xbe2dbee1	-0.16967346
134	0xbe0688eb	-0.13138168
135	0x3e34135c	0.1758551
136	0x3e31af3d	0.17352004
137	0x3b88b0d5	0.0041714706
138	0xbdf73635	-0.12070886
139	0x3e56df52	0.20983627
140	0xbdc2b8d6	-0.09507911
141	0xbe34526b	-0.17609565
142	0x3e36c523	0.17848639
143	0xbc29cd27	-0.010363854
144	0xbe1c319b	-0.15253298
145	0x3da47623	0.08030345
146	0x3da66200	0.08124161
147	0x3c4b6470	0.012414083
148	0xbe37494b	-0.17899053
149	0xbe00b55f	-0.12569188
150	0xbe140ef1	-0.14458825
151	0x3d3fb703	0.046805393
152	0xbe06c484	-0.13160902
153	0x3c8d2991	0.017231734
154	0x3e01545b	0.12629835
155	0xbe584129	-0.21118607
156	0xbd545ba1	-0.051845197
157	0xbde6a8b5	-0.11262647
158	0x3d946581	0.07245923
159	0x3c9ae386	0.01890732
160	0x3d5b247f	0.053501602
161	0x3b8d9159	0.0043203053
162	0x3e868426	0.26272696
163	0x3caec52a	0.02133425
164	0x3d5de1cc	0.054170415
165	0x3e065683	0.13118939
166	0x3cd0387b	0.025417557
167	0x3d42ae52	0.047529526
168	0xbd50cf81	-0.05097914
169	0xbb31f895	-0.0027156223
170	0xbdf5c22a	-0.119999245
171	0x3d7b8d5a	0.0614141
172	0x3e05310f	0.13006996
173	0xbe0679e1	-0.1313243
174	0x3e5e4ce1	0.21709014
175	0xbd9030ec	-0.07040581
176	0xbe0966c1	-0.13418104
177	0x3d906787	0.07050996
178	0x3d053a85	0.03252651
179	0xbde95c41	-0.11394549
180	0x3cb504fe	0.022097107
181	0x3e10f6c9	0.14156641
182	0xbdfaed30	-0.12252271
183	0x3df0ede4	0.11764124
184	0x3e403fe7	0.18774377
185	0x3e66fbb9	0.22556962
186	0xbd86cd06	-0.06582074
187	0xbe0fa787	-0.1402875
188	0x3b5a636e	0.0033323425
189	0x3bf2dcf6	0.0074115945
190	0x3e646ee7	0.22307931
191	0x3e18ddb8	0.14928329
192	0x3e0889bf	0.13333796
193	0x3e5ab688	0.21358693
194	0x3ce100d5	0.027466217
195	0xbbb22c58	-0.005437415
196	0xbe1f5ae6	-0.15562019
197	0xbd6a693b	-0.05722926
198	0xbc5d89d6	-0.013521632
199	0xbe3cfb64	-0.18455273
200	0xbca9869c	-0.02069407
201	0x3dccbcd5	0.09996954
202	0xbd9a6fb8	-0.0754084
203	0x3c9000f6	0.017578583
204	0x3e35bf88	0.17748845
205	0xbc918232	-0.017762277
206	0x3de7ca69	0.113179035
207	0xbda441b0	-0.080203414
208	0xbe16e73f	-0.14736651
209	0x3d654908	0.05597785
210	0xbdfd1200	-0.12356949
211	0xbe1fc725	-0.15603311
212	0x3e03aec5	0.12859638
213	0x3e22e678	0.1590823
214	0x3d09f388	0.033679515
215	0x3e3633c7	0.17793189
216	0xbd4c03c3	-0.049808275
217	0xbccb54be	-0.024820682
218	0xbce1660e	-0.027514484
219	0x3d926cc4	0.07149652
220	0xbd428c95	-0.04749735
221	0x3df711d3	0.120639466
222	0xbe21fb5a	-0.1581854
223	0xbe336ae0	-0.17521238
224	0xbd930598	-0.07178801
225	0x3e01bce2	0.1266971
226	0xbe63e262	-0.22254327
227	0x3e49b233	0.19696884
228	0xbe56bf73	-0.2097147
229	0xbcaa7858	-0.020809337
230	0xbe275146	-0.16339597
231	0x3e2b2cf5	0.16716368
232	0xbde4783a	-0.11155744
233	0xbda179ce	-0.078845605
234	0x3e2fc976	0.17166695
235	0xbe5a9b7d	-0.21348377
236	0x3d848d9c	0.06472322
237	0x3e4127aa	0.18862787
238	0xbdbfb894	-0.09361377
239	0xbd4c2247	-0.049837377
240	0x3c97358b	0.018458148
241	0xbe279500	-0.16365433
242	0xbd299d0a	-0.04140953
243	0xbc845266	-0.016152572
244	0xbe333806	-0.1750184
245	0xbd9dc56f	-0.07703673
246	0xbbb671ad	-0.0055677504
247	0x3d0c4c7a	0.03425262
248	0x3dd69067	0.10476761
249	0x3e127a82	0.14304546
250	0xbe0c90d9	-0.1372713
251	0x3e1d6b7e	0.15373036
252	0xbe539b6f	-0.20664762
253	0xbe0b5331	-0.13605954
254	0xbd254f79	-0.040358994
255	0xbe3e98e4	-0.1861301

layers.6.bias f4 [64]
0	0x38bd5801	9.028614e-05
1	0xbda56027	-0.0807498
2	0x3a94d5c9	0.0011355217
3	0x3a01175a	0.0004924439
4	0xbb2bc1d9	-0.0026208072
5	0xbaf6c827	-0.0018827961
6	0xbbc5334f	-0.0060180794
7	0xbbd13cfb	-0.0063854433
8	0xbbb46b4b	-0.0055059544
9	0xb8268344	-3.9699735e-05
10	0x3ac26a68	0.0014832737
11	0x3baf712f	0.0053540687
12	0x3af604f8	0.0018769791
13	0xba41439a	-0.0007372439
14	0x3a95358b	0.0011383755
15	0xbd5db22f	-0.054125007
16	0x3a06982c	0.000513437
17	0x3ca07428	0.019586638
18	0xbb57799f	-0.0032878888
19	0x3c0f7c22	0.008757623
20	0x3a59a211	0.0008302043
21	0xbbd08003	-0.0063629164
22	0x3b9a462d	0.0047080726
23	0xba84e693	-0.0010139517
24	0x3c01f2d7	0.007931433
25	0x3a031df8	0.0005001719
26	0x3b22a850	0.002481956
27	0x3b191526	0.0023358553
28	0x3ab28ce1	0.0013622307
29	0x3b66d8a6	0.0035224347
30	0xbb1175b5	-0.0022195403
31	0x3b92dcb4	0.0044818763
32	0xba3e0921	-0.0007249285
33	0x39e729fc	0.00044091034
34	0x3b376e8b	0.0027989473
35	0xba3c56ce	-0.0007184566
36	0xbc1ecd36	-0.009692481
37	0x3bb36307	0.0054744515
38	0xbc25ab77	-0.010111681
39	0xbd52d02e	-0.051468067
40	0x399fe190	0.000304949
41	0xbcb56865	-0.022144506
42	0xba14f7f3	-0.0005682699
43	0xb9df05ed	-0.0004253829
44	0x3ad5280d	0.0016262546
45	0xb84d0816	-4.888334e-05
46	0xbbba2287	-0.0056803855
47	0x3add6ede	0.0016894003
48	0x3dd96610	0.1061517
49	0x3aa2beef	0.0012416522
50	0xbabc2062	-0.0014352913
51	0x39eae253	0.00044800583
52	0x3b841964	0.004031347
53	0x3bc8edf0	0.00613188
54	0x3ac900f9	0.0015335373
55	0xbbfac5a2	-0.007652954
56	0x3aeb54fc	0.0017954404
57	0x3a75da87	0.00093785714
58	0x39a05eec	0.000305883
59	0xbb603b44	-0.0034215013
60	0x3bd2009a	0.006408763
61	0x3b37b5ef	0.0028032025
62	0x3cc8ef5d	0.0245282
63	0xba84b46f	-0.0010124574

layers.8.weight f4 [64, 64]
0	0xbcd2b9f8	-0.025723442
1	0x3df2fa03	0.11864092
2	0xbe232bad	-0.1593463
3	0x3e1d98f0	0.15390372
4	0x3dbaaa23	0.09114482
5	0x3dc81d4e	0.097712144
6	0x3e1cebc0	0.15324306
7	0x3e55145e	0.2080855
8	0xbdc2d5ce	-0.09513436
9	0xbdcf69f4	-0.10127631
10	0x3e50bf1f	0.20385407
11	0x3e1b9697	0.15194164
12	0x3df69cb7	0.1204161
13	0x3e29cbb7	0.16581617
14	0xbda242c9	-0.079228945
15	0xbdc39e5d	-0.0955169
16	0x3dca3750	0.09873831
17	0xbe508e5a	-0.20366803
18	0x3df52d03	0.11971476
19	0xbe3449e0	-0.17606306
20	0xbddff9d6	-0.10936324
21	0x3df35d43	0.11883023
22	0xbda64df0	-0.08120334
23	0xbe595f9e	-0.21227881
24	0x3e0dab15	0.13834794
25	0xbdda29a9	-0.10652477
26	0xbdbe3108	-0.09286696
27	0x3dfc8a30	0.12331045
28	0xbd68238f	-0.056674536
29	0xbe5b5f17	-0.21422993
30	0x3c75be62	0.014999004
31	0xbe17651f	-0.14784668
32	0xbda7de8c	-0.08196744
33	0x3e1fb02d	0.1559455
34	0xbc8f8681	-0.017520191
35	0xbd208a70	-0.039194524
36	0xbd843271	-0.064549334
37	0xbe4e203f	-0.20129488
38	0xbe482da8	-0.19548666
39	0xbda54921	-0.08070589
40	0x3e328682	0.17434123
41	0x3c35b17e	0.011089681
42	0x3ccc4056	0.024933022
43	0xbe53b884	-0.20675856
44	0xbe22069c	-0.15822834
45	0x3da9d2c9	0.08292157
46	0x3e1e5c81	0.15464975
47	0xbe19cb71	-0.15019013
48	0x3ac54eb5	0.0015053364
49	0xbd299a56	-0.04140695
50	0xbd562b3d	-0.05228733
51	0xbe2ca613	-0.16860227
52	0xbe3a9701	-0.18221666
53	0x3e4299d4	0.19003993
54	0xbe5d0450	-0.21583676
55	0x3cdc2102	0.026871208
56	0x3d0bc278	0.034121007
57	0x3d94d9be	0.072680935
58	0xbe24a12a	-0.16077104
59	0x3e2ec071	0.17065598
60	0xbd4f599c	-0.050622568
61	0x3e265f01	0.16247179
62	0xbe0bea02	-0.13663486
63	0x3ddfe699	0.10932655
64	0xbc70a69f	-0.014688163
65	0xbe078b3c	-0.13236707
66	0x3dd69a0b	0.104786
67	0x3e38e763	0.18057017
68	0x3e300d5f	0.171926
69	0x3dee1693	0.116253994
70	0xbd1b85f9	-0.037969563
71	0xbe39b973	-0.1813715
72	0xbdc3e77c	-0.095656365
73	0xbe4801e6	-0.19531974
74	0x3d1e0919	0.038582895
75	0xbd83444b	-0.0640951
76	0x3e2a2d80	0.1661892
77	0xbe4c6311	-0.19959666
78	0x3db76937	0.08955615
79	0x3dc1c5ae	0.094615325
80	0xbdc36f3c	-0.09542701
81	0xbe4e7745	-0.20162685
82	0x3e3fc276	0.18726525
83	0xbe0d6924	-0.13809639
84	0x3e350004	0.17675787
85	0xbe3a517f	-0.18195151
86	0xbdf7b1b3	-0.1209444
87	0x3d44360a	0.0479031
88	0xbe396264	-0.1810394
89	0xbe3dc9f8	-0.18534076
90	0xbe3d43e1	-0.18482925
91	0x3e2e750d	0.17036839
92	0x3e52e18f	0.20593856
93	0xbd4209c8	-0.04737261
94	0xbdff140e	-0.12454997
95	0x3db9e01a	0.09075947
96	0xbdd3c6ed	-0.103406765
97	0x3d10b492	0.035328455
98	0x3c10d71f	0.008840351
99	0x3db45707	0.08805662
100	0x3e587f37	0.21142279
101	0x3da883ed	0.08228288
102	0x3e462773	0.19350986
103	0x3e37d2d8	0.17951524
104	0x3d700dac	0.05860679
105	0xbe320b0c	-0.17387027
106	0xbdbb989b	-0.091599666
107	0x3c99416f	0.018707959
108	0x3d45692d	0.048196007
109	0xbdb5e7af	-0.08882081
110	0x3c9f8f33	0.019477462
111	0x3e036575	0.12831672
112	0x3d0990a4	0.033585206
113	0xbdcca822	-0.09993006
114	0x3e4c633e	0.19959733
115	0x3ce73d64	0.028227516
116	0xbdd03613	-0.10166564
117	0xbdd8c798	-0.105849445
118	0xbd8531bc	-0.06503627
119	0x3e269789	0.16268744
120	0xbe468d25	-0.1938978
121	0xbe4bf679	-0.1991824
122	0x3e063a45	0.13108166
123	0x3e2d029f	0.16895531
124	0xbe0b9bca	-0.13633648
125	0xbdab1233	-0.083530806
126	0x3e055f8f	0.13024734
127	0x3d715787	0.058921363
128	0x3cd14bb7	0.025548799
129	0xbe0d35dd	-0.13790078
130	0xbe132466	-0.14369354
131	0x3e1c9ff0	0.15295386
132	0xbdf1d6e5	-0.11808566
133	0x3d421b02	0.047389038
134	0x3d749f77	0.05972239
135	0xbe04383c	-0.12912077
136	0xbdae3913	-0.0850698
137	0xbc90ba29	-0.017666893
138	0xbdbe7349	-0.09299333
139	0xbe37e905	-0.17959984
140	0x3d167187	0.03672936
141	0xbbf7ba8a	-0.007560079
142	0xbe13a872	-0.14419726
143	0xbc77d825	-0.0151272165
144	0xbd6a345c	-0.05717884
145	0xbdf1ff9f	-0.11816334
146	0xbe0039b9	-0.1252202
147	0xbe14d427	-0.14534055
148	0x3de07f81	0.109618194
149	0xbcfce43d	-0.030870551
150	0xbdde9bbf	-0.1086955
151	0x3da8c8ac	0.082414
152	0x3dfdde47	0.12395912
153	0x3e2fb23e	0.17157838
154	0x3e2ce6d7	0.16884933
155	0xbdbf6d7a	-0.09347053
156	0xbe2ae633	-0.16689377
157	0x3d4fa29e	0.050692193
158	0xbe63218c	-0.22180766
159	0xbd443b69	-0.04790822
160	0x3e2ee61a	0.17079964
161	0x3d944587	0.07239824
162	0x3cbcb52a	0.023035605
163	0x3c83181f	0.016002713
164	0x3e33c268	0.17554629
165	0x3e2cb6da	0.16866627
166	0xbbfe4112	-0.007759222
167	0xbd3c2d68	-0.04594174
168	0xba9ffc76	-0.0012205977
169	0xbd57e848	-0.052711755
170	0x3e31a2b0	0.17347217
171	0x3e4ce70f	0.20010017
172	0xbdef1fcf	-0.11675989
173	0xbe2448d8	-0.16043413
174	0x3de969bc	0.1139712
175	0x3d808e5b	0.06277152
176	0xbe31361c	-0.17305797
177	0x3c7c7975	0.015409817
178	0x3d1521ce	0.03640919
179	0xbcf9c193	-0.030487811
180	0xbde634b8	-0.11240524
181	0x3e23f332	0.1601074
182	0x3d8d5d91	0.06902612
183	0x3e05c5e7	0.13063775
184	0x3e31c985	0.1736203
185	0x3e1f1369	0.15534748
186	0xbdbedb7a	-0.093192056
187	0xbd85330b	-0.06503876
188	0x3e081b6c	0.1329171
189	0x3d631941	0.055444006
190	0x3d8f98b0	0.07011545
191	0xbe37bbf2	-0.17942789
192	0xbddecee1	-0.10879303
193	0xbda5365e	-0.0806701
194	0xbe2f9651	-0.17147185
195	0x3e3a33af	0.18183778
196	0xbe0aa439	-0.13539208
197	0x3d66cb83	0.056346428
198	0xbd5119e5	-0.051050086
199	0x3dc694e2	0.09696366
200	0x3e2adf5f	0.16686772
201	0x3e1ad035	0.15118487
202	0xbe0138af	-0.1261928
203	0xbe4a7d6a	-0.19774404
204	0xbe0b2241	-0.13587286
205	0xbe04b1b3	-0.12958412
206	0x3e719374	0.23591405
207	0x3e0a3c71	0.13499619
208	0x3e3d50f9	0.1848792
209	0x3ccd28d0	0.025043875
210	0x3e6ab275	0.22919638
211	0x3dc3c0c2	0.0955825
212	0x3d75bb2e	0.05999296
213	0xbe26664d	-0.16249962
214	0xbde8b181	-0.11361981
215	0x3e27b15d	0.16376252
216	0xbd87d02b	-0.06631502
217	0x3e36f9cf	0.17868732
218	0x3d0f7fb5	0.0350339
219	0xbe54fcb8	-0.2079953
220	0xbde93e5d	-0.11388848
221	0x3b52e235	0.0032178287
222	0x3d68a175	0.056794602
223	0x3d85c7db	0.0653226
224	0xbd00e390	-0.03146702
225	0x3e4ce2cb	0.2000839
226	0xbc28b3b3	-0.01029675
227	0xbd49e674	-0.049292043
228	0xbd99518f	-0.07486259
229	0x3e02f833	0.12789993
230	0x3d808158	0.0627467
231	0x3bbcffd4	0.005767802
232	0xbd7ee1ac	-0.062226936
233	0x3cefcd5f	0.029272733
234	0xbdc09831	-0.09404028
235	0x3e2dae2e	0.16960976
236	0xbd9e3881	-0.07725621
237	0x3c5cd4b8	0.0134784505
238	0xbe429f7d	-0.19006152
239	0x3d3f5e73	0.046720933
240	0xbbb21997	-0.0054351795
241	0x3e13bc0a	0.144272
242	0xbd1cd060	-0.03828466
243	0x3dc9c384	0.09851745
244	0xbe4cb7e1	-0.19992019
245	0x3c261b9c	0.0101384185
246	0x3d2b1953	0.041772198
247	0xbe582eeb	-0.21111648
248	0xbd7fe6e3	-0.06247605
249	0x3cace265	0.021104047
250	0x3e337fd7	0.17529236
251	0xbd8af909	-0.06785781
252	0x3e29d2ae	0.16584274
253	0xbde5b1cb	-0.11215552
254	0x3e20dc07	0.15708934
255	0x3def7efa	0.11694141

layers.8.bias f4 [64]
0	0xba67a842	-0.0008837023
1	0x3a873eaa	0.0010318358
2	0x3bdbc456	0.0067067547
3	0xbb40569d	-0.00293485
4	0xbb0cc12b	-0.0021477442
5	0x3a7eab87	0.00097148906
6	0xb94c0dce	-0.00019460099
7	0xbad423e1	-0.0016185009
8	0x39988e06	0.00029097515
9	0x3a65df44	0.0008768926
10	0x3a4ba0a1	0.0007767771
11	0xbaa08bed	-0.0012248732
12	0x3b992e5f	0.0046747173
13	0xbadc8db8	-0.0016826903
14	0x3a8fef0f	0.0010981279
15	0x3a8b80aa	0.0010643203
16	0x3af470e7	0.001864937
17	0x3a89ee46	0.0010523282
18	0x39bd64a1	0.00036123864
19	0xbbfc0543	-0.007691057
20	0xba018cca	-0.00049419387
21	0x395dbbae	0.00021146119
22	0x3b9bd024	0.004755037
23	0x3b20a014	0.0024509476
24	0x39f903be	0.0004749577
25	0x39b7b929	0.00035042435
26	0xbb4fea9c	-0.0031725531
27	0x3c0d3eaa	0.008620897
28	0xbab995ca	-0.001415902
29	0xbbf27c6d	-0.0074000866
30	0x3bbe783f	0.0058126743
31	0xba2c97e5	-0.00065839133
32	0xb919b97e	-0.00014660318
33	0xbb91fc13	-0.0044550984
34	0x3a98c429	0.001165514
35	0x3ac0d72a	0.0014712561
36	0xba247e9d	-0.00062749704
37	0xbc914017	-0.017730756
38	0x3b8d8b81	0.0043196087
39	0xb8fa6d9f	-0.000119413475
40	0xbb5bf7ef	-0.0033564528
41	0x3a2dbcaf	0.00066275423
42	0xba321da2	-0.0006794577
43	0x3b7e0248	0.0038758684
44	0xb9d46d3c	-0.00040517177
45	0xbab4f5bd	-0.0013806146
46	0xbb26870c	-0.0025410084
47	0x3b0ef10f	0.0021811163
48	0xbb25afd5	-0.0025281806
49	0x3a404fe1	0.00073361216
50	0xbb1eb366	-0.0024215817
51	0x3a0fb84d	0.000548248
52	0xbad020b2	-0.0015878885
53	0xbb126c81	-0.0022342505
54	0x3bb42531	0.0054975976
55	0xbae9c2f9	-0.0017834596
56	0xb9768cda	-0.0002351286
57	0xba3aa67a	-0.0007120144
58	0xbad4a119	-0.0016222327
59	0x39cda939	0.00039226728
60	0x3ac95888	0.0015361467
61	0xbb131315	-0.0022441794
62	0xbb971899	-0.0046110866
63	0xbbb8df59	-0.0056418595

layers.10.weight f4 [64, 64]
0	0xbe3ff067	-0.1874405
1	0xbdd13100	-0.10214424
2	0x3d1e55f8	0.038656205
3	0x3d35254d	0.044225026
4	0xbdeb9d20	-0.115045786
5	0xbcd84b46	-0.02640308
6	0x3ddf7811	0.10911573
7	0xbda89410	-0.08231366
8	0xbe2ef350	-0.17085004
9	0xbe334978	-0.17508495
10	0xbddd5db2	-0.108088866
11	0x3de02792	0.109450474
12	0x3df2ce18	0.118557155
13	0x3e0cb24e	0.13739893
14	0x3b8d927d	0.0043204413
15	0xbdffa9e7	-0.12483578
16	0x3e069fb5	0.13146861
17	0xbbd4e2cb	-0.0064967624
18	0xbe1478e8	-0.14499247
19	0xbc7a2ec9	-0.0152699435
20	0xbe476ba9	-0.19474663
21	0xbb229015	-0.0024805118
22	0x3d61191b	0.054955583
23	0x3d46b914	0.048516348
24	0xbe3750b8	-0.17901886
25	0xbe52f5f4	-0.20601636
26	0x3c26d7b0	0.01018326
27	0xbd83b8eb	-0.06431755
28	0x3e483b57	0.19553886
29	0x3c819943	0.015820151
30	0xbdd3c815	-0.10340897
31	0xbc65f8d1	-0.014036373
32	0xbcdd2a6c	-0.026997767
33	0x3e003041	0.12518407
34	0xbe1419b0	-0.14462924
35	0xbe2142b3	-0.157481
36	0xbe50c15d	-0.20386262
37	0xbe3f44d9	-0.18678607
38	0xbdeb67ad	-0.11494384
39	0xbd4c9a36	-0.049951755
40	0x3e2adb64	0.16685253
41	0xbe3aaea9	-0.1823069
42	0xbdc43da5	-0.0958207
43	0xbe0d745b	-0.13813917
44	0xbe084b72	-0.1331003
45	0xbd35c012	-0.044372626
46	0xbda443af	-0.08020722
47	0xbe5c6913	-0.21524458
48	0x3e5cca97	0.21561657
49	0x3deabcc7	0.11461788
50	0xbcf3a8c2	-0.029743556
51	0xbe23bf7a	-0.15991011
52	0xbc9a2fab	-0.018821558
53	0xbe013a01	-0.12619783
54	0x3d6f7237	0.058458533
55	0x3e06b05c	0.13153213
56	0x3c8106d1	0.01575032
57	0xbc591228	-0.013248958
58	0x3e2f8de2	0.17143968
59	0x3df07296	0.117406055
60	0xbe51ac43	-0.20475869
61	0xbe38c5a6	-0.18044147
62	0xbe4ef1a8	-0.20209372
63	0xbe54fafc	-0.20798868
64	0x3d7bba10	0.06145674
65	0x3d39bd85	0.045346756
66	0xbdb3e9cb	-0.08784827
67	0x3ccb6b63	0.02483148
68	0x3dca7d74	0.098872095
69	0x3cb48f6b	0.022041043
70	0xbda4b0a6	-0.080415055
71	0x3e39d4b5	0.18147548
72	0x3e24e87b	0.1610431
73	0x3d9ffd82	0.07812025
74	0xbd1e0b5e	-0.03858506
75	0xbe418ad9	-0.18900622
76	0x3e1b41c4	0.15161806
77	0x3defebac	0.11714873
78	0xbc7913d4	-0.015202481
79	0xbe3f9e63	-0.18712763
80	0x3e37fe3b	0.17968075
81	0x3d87d970	0.0663327
82	0xbe499aff	-0.19688033
83	0xbc166177	-0.009178511
84	0xbde0423c	-0.10950133
85	0xbd1dd032	-0.03852863
86	0xbc8e2167	-0.017349912
87	0xbe4770fd	-0.19476695
88	0xbcb7accc	-0.022421263
89	0xbd3a5da5	-0.045499463
90	0x3d95fbdc	0.07323429
91	0x3c9b150a	0.01893093
92	0x3d734e9b	0.059401136
93	0xbe24baa2	-0.1608682
94	0xbcc2e2e8	-0.023789838
95	0x3ddba0c7	0.10724025
96	0xbe122cbd	-0.14274879
97	0xbe08292e	-0.13296959
98	0xbe4a63b5	-0.19764598
99	0xbd96467a	-0.07337661
100	0xbe5688fc	-0.20950693
101	0xbc9f6650	-0.019457966
102	0x3c5fbf63	0.01365647
103	0xbd11dcd3	-0.035610985
104	0xbda41c5a	-0.0801322
105	0xbe2e7807	-0.17037974
106	0x3e134d5f	0.14384983
107	0x3cb9d869	0.0226862
108	0xbdddc068	-0.10827714
109	0xbc90938e	-0.017648485
110	0x3c99e2a3	0.018784827
111	0xbc375101	-0.011188746
112	0xbe36d174	-0.17853338
113	0x3e161709	0.14657225
114	0xbd8bdbe0	-0.06829047
115	0xbe13305c	-0.14373916
116	0x3de5c521	0.1121924
117	0x3d692315	0.056918222
118	0x3de9635b	0.11395904
119	0x3d8a8136	0.06762926
120	0xbe0fbd35	-0.1403702
121	0x3bc66d1a	0.0060554864
122	0xbe3d4452	-0.18483093
123	0x3c7be2d2	0.015373902
124	0x3c93dc96	0.01804952
125	0xbd984155	-0.07434336
126	0x3e11f7e2	0.14254716
127	0xbe4b06f4	-0.19826871
128	0x3de1c08e	0.11023055
129	0xbe6164b1	-0.22011067
130	0x3e0f35ef	0.13985418
131	0x3e256dbc	0.16155142
132	0xbda73681	-0.08164693
133	0xbd10a6c4	-0.03531529
134	0x3dcb2baa	0.09920438
135	0xbe3ecf0e	-0.18633673
136	0xbe34cf73	-0.1765726
137	0xbd8695ef	-0.06571566
138	0x3e063f73	0.13110141
139	0x3e2e48e1	0.17019989
140	0xbd97f930	-0.074205756
141	0x3d4cf6c7	0.050040033
142	0x3d96e3d3	0.07367673
143	0xbd5fd2c5	-0.054644365
144	0xbd15679a	-0.036475755
145	0xbcf2d53e	-0.029642697
146	0x3e059502	0.13045123
147	0xbdc2f411	-0.09519208
148	0x3a877229	0.0010333705
149	0x3dd70b20	0.10500169
150	0xbd719282	-0.05897761
151	0x3e43e772	0.19131258
152	0x3e424047	0.18969832
153	0xbc1f6ec3	-0.0097309975
154	0x3dc1b30a	0.09457977
155	0xbdae040d	-0.084968664
156	0xbd16b9be	-0.03679823
157	0x3e1ddbbc	0.15415853
158	0x3d72c205	0.059267063
159	0xbe0f6c08	-0.14006054
160	0xbd70ff5d	-0.058837283
161	0x3dcfbdba	0.10143609
162	0xbe27ac22	-0.16374257
163	0xbd1fb107	-0.038987186
164	0xbd7a2f26	-0.06108012
165	0x3e22799d	0.15866704
166	0xbe4acfc6	-0.19805822
167	0x3e0484f7	0.12941347
168	0x3e119fde	0.1422114
169	0x3d0ee84b	0.0348895
170	0xbcb043a4	-0.021516629
171	0x3e386e49	0.1801082
172	0xbcce6d90	-0.025198728
173	0x3e34e6e7	0.17666207
174	0x3d986beb	0.07442459
175	0x3cec5a0a	0.028851528
176	0x3caf0cc0	0.021368384
177	0x3d1e562f	0.03865641
178	0x3da76d56	0.08175151
179	0xbe1eaaa4	-0.15494782
180	0xbd2e2af5	-0.042521436
181	0x3e36844a	0.17823902
182	0x3c2ebd16	0.010665199
183	0xbe1d079c	-0.15334934
184	0x3de7a591	0.11310876
185	0x3bdb16ca	0.0066860663
186	0x3db0eef7	0.08639329
187	0xbe156eed	-0.14593096
188	0xbe415889	-0.1888143
189	0x3d961bf9	0.07329554
190	0xbe36f6f1	-0.17867638
191	0x3dc110c8	0.09427029
192	0xbe12c67a	-0.14333525
193	0xbdf98cdb	-0.12185069
194	0xbe2e27ac	-0.17007321
195	0xbe244af7	-0.16044222
196	0x3e40116c	0.18756646
197	0x3dae99ec	0.08525452
198	0xbe3f103a	-0.18658534
199	0x3cf7810a	0.030212898
200	0xbe049f49	-0.12951387
201	0x3e1a1785	0.15048034
202	0xbcd5ece3	-0.026113933
203	0xbd9dca56	-0.07704608
204	0xbe1480c5	-0.14502247
205	0x3e496617	0.1966785
206	0x3e54c28b	0.20777337
207	0x3cb756d8	0.022380278
208	0x3e19d5e7	0.15023004
209	0xbd4faf3f	-0.050704237
210	0xbe645d23	-0.22301154
211	0xbdf051d9	-0.11734361
212	0xbe2412b5	-0.16022761
213	0x3e310164	0.17285687
214	0x3e44ed8e	0.19231245
215	0x3dc6947c	0.0969629
216	0x3deabb56	0.11461513
217	0x3dced7d1	0.100997575
218	0x3e40d5fe	0.18831632
219	0x3d142b60	0.036174178
220	0xbd9cc5e8	-0.07654935
221	0xbe1c43fe	-0.15260312
222	0xbe415e22	-0.18883565
223	0x3e2d5397	0.16926418
224	0xbc20c159	-0.009811723
225	0x3d34e665	0.044165034
226	0x3c3dc5ef	0.011582836
227	0xbdacc125	-0.08435277
228	0xbc5d04bf	-0.013489901
229	0x3e52445e	0.20533893
230	0x3e311dec	0.1729657
231	0x3e217ae5	0.15769537
232	0xbd444d08	-0.047925025
233	0xbe25b08c	-0.16180629
234	0xbdcf5463	-0.10123517
235	0x3e3933a0	0.180861
236	0x3da20c49	0.079124995
237	0xbd9f0171	-0.07763947
238	0x3d3b3923	0.045708787
239	0x3dbb7a0d	0.09154139
240	0x3e344475	0.1760424
241	0xbd85501b	-0.065094195
242	0x3e599ab2	0.21250418
243	0xbd525518	-0.051350683
244	0xbda157c2	-0.078780666
245	0x3c98dc51	0.018659743
246	0xbe2be10b	-0.16785066
247	0x3e1ff81b	0.15621988
248	0xbe0760a0	-0.13220453
249	0x3e512b80	0.2042675
250	0x3cde3883	0.027126556
251	0xbd71e87d	-0.05905961
252	0xbdb4259d	-0.08796237
253	0x3d33a3f0	0.043857515
254	0xbceb174d	-0.028697634
255	0x3e5e3783	0.21700864
