data/20240122/state_net_24000.pth (torch, 90556 bytes, 14 tensors)

layers.0.weight f4 [64, 5]
0	0x3cab7b5f	0.020932851
1	0xbd31f95a	-0.04345069
2	0x3d3c14d9	0.04591832
3	0xbe49ff59	-0.19726314
4	0x3e8ff883	0.28119287
5	0xbd52f37b	-0.051501732
6	0x3e7f0992	0.24905995
7	0x3e1a14a2	0.15046933
8	0xbe6b85bd	-0.23000236
9	0xbd7ad114	-0.06123455
10	0x3e965690	0.29362917
11	0xbdf635b6	-0.12021963
12	0xbe80149e	-0.2501573
13	0x3e554229	0.2082602
14	0xbe24a77c	-0.16079515
15	0xbe8af4d7	-0.27139923
16	0x3d024bc3	0.031810533
17	0x3e44d60b	0.19222276
18	0x3e2f7edf	0.17138241
19	0xbd4601df	-0.04834163
20	0xbe1068a9	-0.14102425
21	0x3ce511c0	0.027962565
22	0x3d97cf6e	0.07412611
23	0xbdec0abf	-0.11525487
24	0x3dc4c7ef	0.09608447
25	0x3cef0f85	0.029182205
26	0x3e47e86f	0.1952226
27	0x3cc56896	0.024097722
28	0x3e8d7cba	0.2763422
29	0xbdb41d02	-0.08794595
30	0xbdc3925c	-0.095494
31	0xbd44f4bd	-0.048084963
32	0xbe11d959	-0.14243068
33	0x3cef6799	0.029224204
34	0x3dbd4f8b	0.09243687
35	0x3e94483c	0.2896136
36	0x3e997825	0.29974476
37	0xbbf8ca0e	-0.007592446
38	0xbe093748	-0.13399994
39	0xbeda5b09	-0.4264758
40	0xbe18cbac	-0.14921445
41	0x3e245767	0.16048966
42	0xbeac666a	-0.33671886
43	0xbda6c9ac	-0.081439346
44	0x3eae27d2	0.34014755
45	0x3e05f90b	0.13083284
46	0xbd7bde57	-0.061491337
47	0xbe412a73	-0.1886385
48	0x3e86bd0c	0.26316106
49	0x3e0c8e9b	0.13726275
50	0xbe29d2c8	-0.16584313
51	0xbdcf4ba0	-0.10121846
52	0x3e94798f	0.28998992
53	0xbe8195ee	-0.253097
54	0x3dbe868a	0.09303005
55	0xbd859b56	-0.065237686
56	0x3e52dcdc	0.20592064
57	0x3e88c54c	0.26713026
58	0xbdade07c	-0.084900826
59	0x3e93597d	0.28779212
60	0xbdaf0ee4	-0.08547762
61	0xbd7d42c2	-0.061831243
62	0x3e43b1db	0.19110815
63	0xbe683653	-0.22676973
64	0x3dc4f8df	0.09617781
65	0xbdf3fb4d	-0.11913166
66	0x3c73e3c0	0.014885843
67	0x3c3f0707	0.01165939
68	0x3e1e9809	0.15487684
69	0xbe2d90dc	-0.1694979
70	0x3dbdb860	0.09263682
71	0xbde3d8e0	-0.1112535
72	0x3c3ceb4b	0.011530708
73	0x3e7acf9b	0.24493258
74	0x3e4b8fdf	0.19879101
75	0xbd34f41c	-0.044178113
76	0xbe75506b	-0.23956458
77	0x3e935345	0.28774467
78	0x3e118be1	0.14213516
79	0xbd784981	-0.060616974
80	0xbe08e1f3	-0.13367443
81	0xbd696a88	-0.05698636
82	0x3dafe018	0.08587664
83	0xbcf7651a	-0.030199576
84	0x3e86d8f0	0.26337385
85	0x3eb9f219	0.36317518
86	0x3de48eb7	0.11160033
87	0xbe615603	-0.22005467
88	0x3e61a5bf	0.22035883
89	0x3e067979	0.13132276
90	0xbe9fe0a9	-0.3122609
91	0x3e6a83b2	0.229018
92	0x3d367b8c	0.044551417
93	0xbe275a56	-0.16343054
94	0x3e656770	0.2240274
95	0xbe606ba1	-0.21916057
96	0x3e5be1de	0.2147288
97	0xbe02ce01	-0.12773897
98	0xbddb5585	-0.10709671
99	0xbe502d49	-0.20329775
100	0xbd21003f	-0.039306875
101	0xbe82534b	-0.25454172
102	0xbe34953f	-0.17635058
103	0x3db57e9d	0.0886204
104	0x3cc9894f	0.024601607
105	0xbe046430	-0.12928843
106	0xbe0e2614	-0.13881713
107	0xbd182df1	-0.03715319
108	0x3e3ef44a	0.18647876
109	0x3e488e0d	0.19585438
110	0xbb4185a5	-0.0029529121
111	0xbb5c40a8	-0.0033607874
112	0x3df10fa1	0.11770559
113	0x3e16a4a7	0.14711247
114	0x3e392151	0.18079115
115	0x3e8f30e7	0.27966997
116	0x3dff6d38	0.12472004
117	0x3db654fb	0.089029275
118	0x3e86765c	0.26262176
119	0x3c241b89	0.0100163305
120	0x3e85b11b	0.26111683
121	0x3dfda472	0.12384881
122	0xbdba8f51	-0.09109367
123	0x3e61a3fd	0.22035213
124	0xbe218c7e	-0.1577625
125	0xbe5024f4	-0.20326596
126	0x3dbb2ffa	0.0914001
127	0x3e2dfc6e	0.16990826
128	0x3e6099da	0.2193369
129	0x3e37dabb	0.17954533
130	0xbe710322	-0.23536351
131	0xbe48eef7	-0.19622408
132	0x3e1d19a5	0.15341814
133	0xbe67e884	-0.22647291
134	0xbe0454eb	-0.12923019
135	0x3e2af111	0.16693522
136	0xbe8d8085	-0.27637115
137	0xbd408b53	-0.04700787
138	0xbbb8192e	-0.005618236
139	0xbe8e7ed1	-0.27831128
140	0x3b72792e	0.0036998498
141	0x3ea94f50	0.33068323
142	0xbd8e5016	-0.06948869
143	0x3dcb2392	0.09918894
144	0xbe7a94d5	-0.24470837
145	0x3e789ef7	0.2427939
146	0xbdb76fef	-0.089568965
147	0xbd936b08	-0.07198149
148	0xbced222a	-0.028946955
149	0x3e83f65f	0.25773904
150	0xbe7db80e	-0.24777243
151	0xbe1c7ed7	-0.1528276
152	0xbe307f9d	-0.1723618
153	0x3e96343e	0.29336733
154	0xbe184f90	-0.148741
155	0xbd8d62b8	-0.06903595
156	0xbe2f600b	-0.17126481
157	0xbdeb5874	-0.114914805
158	0x3d943f7b	0.072386704
159	0x3e04c080	0.12964058
160	0x3e897e83	0.26854333
161	0xbd8048d6	-0.06263892
162	0x3e30a8e7	0.17251931
163	0x3e426e3e	0.18987367
164	0xbe8aee99	-0.2713516
165	0x3e866159	0.26246145
166	0x3e81295c	0.25226867
167	0x3d9a42ce	0.07532273
168	0xbe8aaa77	-0.2708318
169	0xbe0aea64	-0.13565975
170	0xbdca40e8	-0.09875661
171	0x3e3c84e6	0.18410072
172	0x3eaa6867	0.33282778
173	0xbe4d7b73	-0.20066623
174	0xbe3edbde	-0.1863856
175	0xbcab841c	-0.020937018
176	0x3e47b716	0.19503435
177	0x3e34c53c	0.17653364
178	0xbe3b0474	-0.18263417
179	0xbe17cada	-0.14823475
180	0x3e1beeb5	0.15227778
181	0x3d36981e	0.044578664
182	0xbe2d6ab6	-0.16935238
183	0xbe90679f	-0.28204057
184	0x3da9dd3a	0.08294149
185	0xbe752f76	-0.23943886
186	0x3d14814c	0.03625612
187	0x3d48e2f0	0.04904455
188	0xbdf2d455	-0.11856905
189	0xbe8229de	-0.25422567
190	0xbdbe5d6a	-0.09295161
191	0x3e18ac38	0.14909446
192	0x3e3b6abc	0.18302435
193	0x3e7e4081	0.24829294
194	0x3eb81c12	0.35958916
195	0x3e314a32	0.1731346
196	0xbe69fc65	-0.22850187
197	0x3e4da41b	0.20082133
198	0xbd15a2e3	-0.036532294
199	0x3e98a365	0.2981216
200	0x3e71816f	0.23584531
201	0xbe600a22	-0.21878865
202	0x3e8d60bc	0.27612865
203	0xbe8d3271	-0.27577546
204	0x3e46fb9a	0.19431916
205	0xbe38ec09	-0.1805879
206	0x3dfb163a	0.12260099
207	0xbe861355	-0.26186624
208	0xbe1bcc33	-0.15214615
209	0xbd85b1b2	-0.06528033
210	0x3c4fa6e0	0.012674063
211	0xbd94bdad	-0.0726274
212	0x3df051fd	0.11734388
213	0xbe8af645	-0.27141014
214	0x3e456bdd	0.19279428
215	0x3cedd78f	0.02903345
216	0x3dbd1b0c	0.092336744
217	0xbce6d836	-0.02817927
218	0xbd729b15	-0.05922993
219	0x3e60ce5f	0.21953724
220	0x3e3af58e	0.18257734
221	0xbcb240bb	-0.021759382
222	0xbd2c0eb2	-0.042006202
223	0xbe46f395	-0.19428857
224	0xbe49ca92	-0.1970618
225	0xbe3623cd	-0.17787094
226	0xbe00aeae	-0.12566635
227	0xbe344ae0	-0.17606688
228	0x3d77c988	0.06049493
229	0x3dfac912	0.12245382
230	0x3dcc9c86	0.09990792
231	0xbe894c8b	-0.2681621
232	0x3e076947	0.13223754
233	0xbd90adac	-0.07064375
234	0x3ddb6241	0.107121
235	0x3dceb23e	0.10092591
236	0xbe5f75f7	-0.21822344
237	0x3e7e9b54	0.2486394
238	0xbcbf7817	-0.023372693
239	0xbe5c9301	-0.21540453
240	0xbe73d256	-0.23810706
241	0xbce870dc	-0.028374128
242	0x3d5d7c49	0.054073606
243	0xbd40d2d6	-0.04707607
244	0xbe846fde	-0.25866598
245	0x3d91409b	0.07092401
246	0xbd83aaed	-0.06429086
247	0x3e6020f3	0.21887569
248	0xbe0c70f5	-0.13714965
249	0x3db4ebaf	0.088340156
250	0xbe380d0d	-0.17973728
251	0xbda31a66	-0.079640195
252	0x3dedae3d	0.11605499
253	0xbe739140	-0.23785877
254	0xbe818eb3	-0.25304183
255	0x3e1505cd	0.14552994

layers.0.bias f4 [64]
0	0xbb505652	-0.0031789732
1	0x3a6f0c94	0.0009119001
2	0x3ba0abda	0.004903299
3	0xbb291c5b	-0.0025804255
4	0x3b4794bf	0.003045365
5	0xbad2aa74	-0.0016072528
6	0xbb043b53	-0.0020176962
7	0xbd8d4c44	-0.06899312
8	0x3cd51479	0.026010739
9	0x3a84cd7e	0.0010132042
10	0x3b378cc0	0.0028007478
11	0xbc439400	-0.011937141
12	0xbd421756	-0.047385536
13	0x3bc39afc	0.0059694033
14	0x3b3036b3	0.0026888072
15	0x3c83cd12	0.016088996
16	0xba74af87	-0.0009334017
17	0xbcb012dd	-0.02149337
18	0xbc2d5135	-0.010578443
19	0x3b7cc03e	0.0038566734
20	0x3b4a3bd1	0.0030858407
21	0x3cfe7089	0.03105952
22	0x3b2e1250	0.0026561208
23	0xbc666af2	-0.014063584
24	0x3b9f9576	0.004870112
25	0xbb66de6c	-0.0035227789
26	0x3c9903d5	0.018678585
27	0x3b9ff14b	0.0048810593
28	0x3a9f09f4	0.0012133704
29	0xbb8db811	-0.004324921
30	0x3bf3d081	0.007440627
31	0x3bcb2692	0.0061996663
32	0xbbc939f3	-0.0061409413
33	0x3ae929bb	0.0017788926
34	0xbbe2b865	-0.006918954
35	0x3bd79595	0.006579111
36	0x3c80d385	0.01572586
37	0x3b7d67bf	0.0038666574
38	0x3bbbaed1	0.005727627
39	0x3bccb17e	0.0062467447
40	0x3a9b7c49	0.0011862601
41	0x3ae249b6	0.0017264399
42	0x3be2f649	0.006926332
43	0x3bf15c92	0.0073657716
44	0xbc2714d0	-0.010197833
45	0xbb1d757d	-0.0024026327
46	0x3c744a72	0.014910327
47	0xbbdeaf01	-0.0067957644
48	0xba4507a9	-0.0007516095
49	0xbc64b750	-0.013959721
50	0x3b88208c	0.0041542705
51	0x3b66bb32	0.0035206792
52	0x3d21b9f5	0.039483983
53	0x3a4ee9eb	0.0007893133
54	0xbb18c8d0	-0.0023313053
55	0x3afda024	0.0019350094
56	0x3b417903	0.0029521591
57	0xba24bb7b	-0.000628404
58	0x3b4e1aab	0.0031449
59	0xb9b6c935	-0.00034863656
60	0x3bb7d8f4	0.0056105796
61	0xbba4f0db	-0.005033595
62	0x3bdbb9d7	0.0067055034
63	0xbc14bb16	-0.009077808

layers.2.weight f4 [64, 64]
0	0x3b46dd07	0.0030344145
1	0xbe05ea52	-0.13077667
2	0x3dace646	0.08442359
3	0x3d738807	0.059455898
4	0xbdbbb83a	-0.09165998
5	0xbcf3a4c2	-0.029741649
6	0xbc989e50	-0.018630177
7	0x3dee496b	0.11635097
8	0xbdc0e499	-0.094186015
9	0xbe21ff8b	-0.15820138
10	0x3cf9cc51	0.030492933
11	0x3bd23b22	0.0064157406
12	0xbd1396b9	-0.036032412
13	0x3e15a3c6	0.14613256
14	0xbd1f594e	-0.038903527
15	0xbcf44842	-0.029819611
16	0xbd746aa0	-0.059671998
17	0x3c197f53	0.009368735
18	0xbdd33528	-0.10312873
19	0xbdae3e52	-0.085079804
20	0xbdb524af	-0.088448875
21	0xbe5da56d	-0.21645136
22	0xbac4881c	-0.0014994177
23	0x3c9dc954	0.01926104
24	0x3cc60bd5	0.024175564
25	0xbdb77033	-0.08956947
26	0x3d972137	0.07379382
27	0xbd1d77cb	-0.03844432
28	0xbdfec404	-0.12439731
29	0x3d319a1d	0.043359865
30	0x3e3d9dcd	0.18517227
31	0x3df275f0	0.11838901
32	0x3df6d5f4	0.12052527
33	0x3e2f32e1	0.17109253
34	0xbdef44a0	-0.11683011
35	0xbd8f0f23	-0.06985309
36	0xbdf25925	-0.11833409
37	0xbe371afd	-0.17881389
38	0x3cc3f566	0.023920726
39	0x3d5f348c	0.054493472
40	0x3e3b9204	0.1831742
41	0x3e06725b	0.1312956
42	0x3e4f40a9	0.2023951
43	0xbe058881	-0.13040353
44	0x3e0d219b	0.1378235
45	0xbdd61e06	-0.10454945
46	0x3d908758	0.07057065
47	0xbd28137a	-0.0410342
48	0xbe05adc1	-0.13054563
49	0xbded4850	-0.11586058
50	0xbe0f49fd	-0.13993068
51	0xbe097789	-0.13424505
52	0x3d0592b8	0.032610625
53	0xbe193883	-0.14962964
54	0xbda72f3c	-0.08163306
55	0xbdead6cb	-0.1146675
56	0xbd2ce0a5	-0.042206425
57	0xbcc8bcae	-0.024504032
58	0xbe57a598	-0.21059263
59	0xbe23018c	-0.15918559
60	0x3dcd0955	0.100115456
61	0x3e0fe4f3	0.14052181
62	0xbe4e8278	-0.20166957
63	0x3dcd9c85	0.10039619
64	0x3e5735e8	0.21016657
65	0xbd82d322	-0.06387927
66	0xbe03a020	-0.12854052
67	0x3e5f92cd	0.21833344
68	0xbe356334	-0.17713624
69	0x3c8ad966	0.016949367
70	0x3db4a8cd	0.08821259
71	0x3d08b24d	0.033373166
72	0xbe1e34fe	-0.15449902
73	0x3db528bf	0.08845662
74	0x3e44f6ce	0.19234774
75	0xbd9a692c	-0.07539591
76	0x3c83bbf0	0.016080827
77	0x3e0642c9	0.13111414
78	0x3e39c61a	0.18141976
79	0xbe2730f4	-0.16327268
80	0x3e00c2b3	0.12574272
81	0xbdf05f11	-0.117368825
82	0x3c91eb55	0.01781241
83	0x3d1351e6	0.035966776
84	0xbd0eb7d9	-0.0348433
85	0xbd6ed263	-0.05830611
86	0xbdd210e0	-0.10257125
87	0xbdd86d78	-0.105677545
88	0x3c1f8399	0.009735965
89	0xbc86ba9f	-0.01644641
90	0xbd002d9a	-0.03129349
91	0x3d7e8143	0.062134992
92	0x3d868d0e	0.06569873
93	0xbdc5d24e	-0.09659253
94	0xbdee675b	-0.11640807
95	0xbe599984	-0.21249968
96	0x3dcdcdab	0.10048994
97	0x3d85cab6	0.06532805
98	0xbcd129e7	-0.025532676
99	0xbe2e7c98	-0.17039716
100	0xbe4e0163	-0.20117716
101	0xbde373a2	-0.111060396
102	0x3e4cba06	0.19992837
103	0x3e126ad6	0.14298567
104	0x3bd7b98d	0.0065833987
105	0xbe096481	-0.13417245
106	0xbae60619	-0.0017549425
107	0x3e0de287	0.13855945
108	0x3e351411	0.17683436
109	0xbe543d5f	-0.20726536
110	0xbe5c0289	-0.21485342
111	0x3b8d018c	0.004303163
112	0xbcc74ede	-0.024329599
113	0xbe3a3ff2	-0.18188456
114	0xbd84ba6a	-0.06480868
115	0x3d9b01f5	0.07568733
116	0xbdfd9370	-0.12381637
117	0xbe08f928	-0.13376296
118	0x3e315b23	0.17319922
119	0x3bb8bcc6	0.005637738
120	0xbd7e7bff	-0.06212997
121	0x3d9b0bc2	0.07570602
122	0x3e424baf	0.18974183
123	0x3da7beb8	0.081906736
124	0xbdc74bd3	-0.09731259
125	0x3e56ffd7	0.20996033
126	0xbd643f32	-0.05572433
127	0x3e173d60	0.14769506
128	0xbbcb3af1	-0.0062020947
129	0x3e3c8f64	0.18414074
130	0xbde9c06f	-0.11413657
131	0x3d187d7e	0.037229054
132	0xbe256424	-0.16151482
133	0xbe11ff0a	-0.14257446
134	0xbe264623	-0.16237693
135	0xbe4efadc	-0.20212883
136	0x3d80b0ab	0.06283697
137	0xbdfde34a	-0.123968676
138	0xbe274fcd	-0.16339035
139	0xbca3bd79	-0.019987809
140	0xbd90450a	-0.07044418
141	0xbe029a21	-0.12754108
142	0x3e1253e9	0.14289822
143	0x3e00e37f	0.12586783
144	0x3e6570e4	0.22406346
145	0xbe35af2c	-0.17742604
146	0xbdbf33a9	-0.09336025
147	0xbdeb4c7a	-0.11489196
148	0xbcb9a06d	-0.022659505
149	0xbdf4461e	-0.11927436
150	0x3bddf83c	0.0067739766
151	0xbdbca795	-0.09211651
152	0xbe5ecd79	-0.21758069
153	0x3da9e6a8	0.08295947
154	0xbc1bf578	-0.0095189735
155	0x3b08774a	0.0020823055
156	0xbe43c8ae	-0.19119522
157	0x3d2fc923	0.04291643
158	0xbe437bec	-0.19090241
159	0xbd02a524	-0.03189577
160	0xbe4ac96b	-0.19803397
161	0xbde18a4d	-0.11012707
162	0x3e24d26f	0.16095899
163	0xbe43ae41	-0.19109441
164	0x3e3a02f3	0.18165188
165	0xbe28b53f	-0.1647539
166	0xbd950627	-0.07276564
167	0x3c1c4599	0.009538078
168	0xbe3df42e	-0.18550178
169	0xbe3214e7	-0.17390786
170	0xbd93e874	-0.07222071
171	0xbd9a1366	-0.07523231
172	0x3dee7d0b	0.11644944
173	0xbdc6f564	-0.09714773
174	0x3e3c70bb	0.18402378
175	0xbdad91f8	-0.08475107
176	0x3c0b03d0	0.008484796
177	0xbaffdc76	-0.0019520659
178	0x3d98fab5	0.074696936
179	0x3ce6825a	0.028138328
180	0xbcb57805	-0.022151956
181	0x3e5be597	0.214743
182	0x3db41286	0.087925956
183	0x3df48782	0.119399086
184	0x3de82d4a	0.11336763
185	0xbd5a9f36	-0.05337449
186	0x3de08f2d	0.109648086
187	0x3d32f373	0.043689203
188	0x3d637703	0.05553342
189	0xbe6ffe37	-0.23436819
190	0x3d2a7c59	0.041622493
191	0xbe138b09	-0.14408506
192	0xbde7a678	-0.11311048
193	0xbddc50ff	-0.10757636
194	0xbe213298	-0.15741956
195	0x3e4f1633	0.20223312
196	0xbda7f003	-0.082000755
197	0xbdf7b93a	-0.12095876
198	0x3d0fe7d1	0.035133187
199	0x3b5404ed	0.0032351569
200	0xbe34f59d	-0.17671819
201	0xbe5da00a	-0.21643081
202	0xbe1ffb9c	-0.15623325
203	0x3e71e44e	0.23622248
204	0xbe08d27b	-0.13361542
205	0x3ace5aee	0.0015743652
206	0x3d240409	0.04004291
207	0x3de07ca2	0.10961272
208	0xbdaf340e	-0.085548505
209	0xbe667937	-0.22507177
210	0x3e7a29d7	0.24430023
211	0x3e09374c	0.134
212	0xbad59ced	-0.0016297378
213	0x3df0357d	0.11728952
214	0xbe1fa91e	-0.15591857
215	0xbd362f5c	-0.04447876
216	0xbdf93543	-0.12168362
217	0xbe0302ba	-0.12794009
218	0x3dde7489	0.10862071
219	0xbd7d00ef	-0.06176847
220	0xbe0ce6e1	-0.13759948
221	0xbe891409	-0.26773098
222	0xbe36a604	-0.17836767
223	0xbc75d74b	-0.015004943
224	0xbe6d30d6	-0.2316316
225	0xbe3e8484	-0.18605238
226	0xbe023324	-0.12714821
227	0x3c886935	0.01665173
228	0x3ddf3a9f	0.10899853
229	0xbdafdda1	-0.08587194
230	0xbcd46368	-0.025926307
231	0xbd744ae1	-0.059641723
232	0x3cbe795f	0.023251234
233	0xbd69cad8	-0.057078212
234	0x3d89ecb3	0.067346
235	0x3e20a423	0.15687613
236	0x3c06bf4f	0.008224322
237	0x3e061f53	0.13097887
238	0xbe3782e6	-0.17921028
239	0xbda8afe3	-0.08236673
240	0x3e4fd9e4	0.20297962
241	0x3e5770f5	0.21039183
242	0xbe55096c	-0.20804375
243	0x3da5e713	0.081007145
244	0x3cb2d023	0.021827763
245	0xbe33a74e	-0.1754429
246	0xbe26a938	-0.1627549
247	0xbe8aa866	-0.27081603
248	0x3c19421f	0.009354143
249	0x3dd27bbc	0.10277507
250	0x3dc37b8e	0.095450506
251	0xbe19ec7b	-0.15031616
252	0x3e31e6c7	0.17373191
253	0xbe3412af	-0.17585252
254	0x3e588a41	0.2114649
255	0xbdcb629f	-0.0993092

layers.2.bias f4 [64]
0	0xba9e749e	-0.0012089198
1	0xbb0bed2c	-0.0021351082
2	0x3c8ce4c6	0.017198931
3	0x3b3c050d	0.0028689534
4	0x3d23db97	0.04000434
5	0xbb4b38a0	-0.0031009093
6	0xbaa71c27	-0.0012749479
7	0x39d464ba	0.00040510838
8	0xbbcdc26b	-0.00627928
9	0x3b0c7a5b	0.0021435234
10	0x3b20e9fd	0.002455353
11	0x3c22344b	0.009900163
12	0xbaa42f91	-0.0012526383
13	0x3c9df1af	0.019280283
14	0xbad680f2	-0.0016365333
15	0x3b3805d4	0.0028079646
16	0x3a7cee2d	0.0009648528
17	0xbae79623	-0.0017668646
18	0xbc85d815	-0.016338388
19	0xbb969641	-0.0045955484
20	0xbb5bb0ad	-0.0033522055
21	0xbad007da	-0.001587148
22	0xba990e9c	-0.0011677328
23	0xbb40a675	-0.002939609
24	0xbc229521	-0.00992325
25	0x3a3da807	0.0007234816
26	0x3bbd3709	0.005774383
27	0x3b90c504	0.0044180173
28	0xbad38454	-0.0016137459
29	0xba9560ea	-0.001139668
30	0x3ba26f60	0.0049571246
31	0x3b1188e5	0.002220684
32	0xbc1ba8a5	-0.009500657
33	0x3b66f760	0.0035242662
34	0x3ab1ccfc	0.0013565118
35	0xbc0280ed	-0.007965309
36	0x3a7702f0	0.000942274
37	0xba257db3	-0.0006312981
38	0xbbd85db0	-0.0066029653
39	0x3c66ec52	0.014094429
40	0x3b70f52b	0.0036767225
41	0x3be0d90d	0.006861812
42	0x3bade613	0.005306968
43	0x3b8fb431	0.004385494
44	0xbaff3225	-0.00194699
45	0xbb30bb45	-0.002696709
46	0xbca69a76	-0.020337325
47	0x3b39a4f5	0.0028327082
48	0x3c1857ba	0.009298259
49	0xbd3dda6b	-0.046350878
50	0x3cb3c9cb	0.021946808
51	0xbbe0b92e	-0.0068580126
52	0x3bc562b3	0.0060237288
53	0xbb11688b	-0.0022187557
54	0xb9a00e3a	-0.00030528178
55	0xbac6f62a	-0.0015179564
56	0x3c27b924	0.010237012
57	0xb9c34f13	-0.00037252213
58	0x3c2988b0	0.01034753
59	0x3bc5d41f	0.0060372497
60	0xbb5718c4	-0.0032821158
61	0x3adafc27	0.0016707227
62	0xbbd15adc	-0.006389005
63	0x3bc05ada	0.0058702054

layers.4.weight f4 [64, 64]
0	0x3d59bbc3	0.05315758
1	0x3e0f17f4	0.13973981
2	0xbdaf93aa	-0.085730866
3	0xbe494829	-0.19656433
4	0xbe076a01	-0.13224031
5	0xbe0bf07b	-0.13665955
6	0xbd60da9e	-0.05489599
7	0x3d5374df	0.05162513
8	0xbd755e17	-0.059904184
9	0xbd924bd7	-0.071433716
10	0x3d3a2a77	0.045450654
11	0xbdbbcdbc	-0.091701
12	0x3e2378a6	0.15963992
13	0x3e2f6a25	0.17130335
14	0xbe45169f	-0.1924691
15	0x3e2ce180	0.16882896
16	0xbd470856	-0.048591934
17	0x3e2e1c9b	0.170031
18	0x3b6b1459	0.0035870282
19	0xbe0b32b6	-0.13593563
20	0x3cda8c01	0.026678087
21	0xbd3949f4	-0.045236543
22	0x3e56bc89	0.20970358
23	0xbda3dcd0	-0.08001101
24	0xbe459858	-0.19296396
25	0xbd81317e	-0.06308268
26	0x3dd3d803	0.10343935
27	0x3c905a64	0.017621227
28	0xbdf558be	-0.11979817
29	0x3cd70865	0.02624912
30	0x3e049da5	0.12950762
31	0x3dad086f	0.08448874
32	0xbd853f77	-0.065062456
33	0x3e27deaa	0.16393533
34	0xbe0097fd	-0.12557979
35	0x3e55ff4d	0.20898171
36	0x3db7d89d	0.089768626
37	0x3dddc6bf	0.108289234
38	0x3e572c8c	0.21013087
39	0x3da895de	0.0823171
40	0x3e8510a4	0.25989258
41	0x3c2a9a5c	0.010412779
42	0x3e14965f	0.14510487
43	0xbd535102	-0.051590927
44	0x3c56f4c9	0.013119885
45	0x3d757e4e	0.059934907
46	0xbdb3bbae	-0.087760314
47	0x3d28965e	0.041159026
48	0xbe2e9541	-0.17049123
49	0x3dbe5b1c	0.092947215
50	0x3e23f1a3	0.16010146
51	0x3e0391a3	0.12848525
52	0xbd0f9e84	-0.03506328
53	0x3ca1c00c	0.019744895
54	0xbe4d546b	-0.20051734
55	0xbd3cb4fa	-0.04607103
56	0x3e103abe	0.14084908
57	0xbc966b17	-0.018361611
58	0x3e02ff8f	0.127928
59	0x3dad8051	0.0847174
60	0xbc2d663a	-0.010583455
61	0xbdac3d6a	-0.08410151
62	0xbe2199ae	-0.1578128
63	0x3e4b48dc	0.19852012
64	0x3e2c0f5d	0.16802736
65	0xbc84dcf0	-0.016218632
66	0xbe435fe0	-0.19079542
67	0xbe8489e4	-0.25886452
68	0xbdc219b4	-0.09477559
69	0xbe0dd335	-0.138501
70	0x3ea47ee9	0.32128075
71	0xbde5efe6	-0.112273976
72	0xbdbc834f	-0.092047326
73	0x3db6c97b	0.08925148
74	0xbdd76a22	-0.1051829
75	0x3d7ad188	0.06123498
76	0xbe7884ec	-0.24269456
77	0x3cce7623	0.025202816
78	0xbe01f657	-0.12691627
79	0x3d011972	0.031518407
80	0x3cde5c80	0.027143717
81	0xbd84d638	-0.064861715
82	0xbe5582f0	-0.2085073
83	0x3b5a3f48	0.0033301879
84	0x3e1b4fcc	0.15167159
85	0x3da11d36	0.078669
86	0x3cc87d4f	0.024473814
87	0xbe631445	-0.22175701
88	0xbe30ee76	-0.17278466
89	0x3e6d4772	0.23171785
90	0x3d4e1c12	0.05031974
91	0x3d891c04	0.06694797
92	0xbe034d37	-0.12822424
93	0xbdc24f93	-0.09487834
94	0xbd7442a5	-0.05963387
95	0x3e305c55	0.17222722
96	0xbdfb757f	-0.1227827
97	0xbdd4bfeb	-0.10388168
98	0x3d7940e8	0.060852915
99	0x3d294f13	0.041335177
100	0xbd237ec3	-0.03991581
101	0xbe0d434b	-0.13795201
102	0xbebf1034	-0.3731705
103	0xbe22b8ab	-0.15890758
104	0x3e0b0d04	0.13579184
105	0x3dc69851	0.09697021
106	0x3ddb95ed	0.107219554
107	0xbbec3d35	-0.007209445
108	0xbd1b4c42	-0.037914522
109	0xbd831928	-0.064012825
110	0xbcd39c8c	-0.025831483
111	0xbdf953a1	-0.12174154
112	0x3dd5e62f	0.10444295
113	0xbe3389c8	-0.17533028
114	0x3d04259c	0.03226243
115	0xbe5f43bf	-0.21803187
116	0x3e563d52	0.2092183
117	0xbcdef01c	-0.027214102
118	0x3e2835a9	0.1642672
119	0xbd94936e	-0.072546825
120	0xbe0bf026	-0.13665828
121	0xbdc9b82d	-0.09849582
122	0x3e095c8b	0.13414209
123	0x3c8c30b6	0.017113071
124	0x3b8b4b23	0.0042509004
125	0xbdbbf402	-0.091774
126	0xbe94bcbb	-0.2905024
127	0xbe026b34	-0.12736207
128	0xbc8db64a	-0.017298836
129	0xbd01c5d2	-0.031682797
130	0xbe333d27	-0.17503797
131	0x3cb35b6b	0.021894177
132	0x3e745085	0.23858841
133	0x3d066e78	0.032820195
134	0xbdc34f30	-0.09536588
135	0x3d868ba7	0.06569605
136	0xbe331515	-0.17488511
137	0xbe7d7bef	-0.24754308
138	0xbd6a7a62	-0.05724562
139	0xbe838627	-0.25688288
140	0x3e3ab41f	0.18232773
141	0xbda2cccf	-0.079492204
142	0x3dae0f33	0.08498993
143	0x3e62dcef	0.22154592
144	0xbe5bb78c	-0.21456736
145	0x3e83de80	0.25755692
146	0x3e3d8154	0.18506366
147	0xbe021131	-0.1270187
148	0x3de75c05	0.11296848
149	0x3c9b4bf5	0.018957118
150	0x3dab6f1b	0.08370801
151	0x3e64d648	0.22347367
152	0xbda55704	-0.080732375
153	0x3da94bba	0.08266397
154	0x3dabcc39	0.08388562
155	0xbe54d565	-0.20784529
156	0x3e0298d8	0.12753618
157	0x3e9390c6	0.2882139
158	0xbe4a4553	-0.19753008
159	0xbe308f95	-0.17242272
160	0xbe0d1a82	-0.13779643
161	0xbe0acaff	-0.13554
162	0x3e064208	0.13111126
163	0x3dfe8dff	0.12429427
164	0xbe0cbecc	-0.13744658
165	0x3e336825	0.17520197
166	0xbe165315	-0.14680131
167	0xbe53cf3d	-0.20684524
168	0xbe585438	-0.21125877
169	0xbb5baa28	-0.003351817
170	0x3dd08c3a	0.10182996
171	0xbe0be207	-0.13660441
172	0xbb8fbb52	-0.004386344
173	0x3e21f164	0.1581474
174	0x3e348680	0.17629433
175	0x3d740227	0.059572365
176	0xbdb41841	-0.087936886
177	0x3d9b36dd	0.07578824
178	0x3e53db44	0.20689112
179	0x3e2f8d84	0.17143828
180	0x3dafa986	0.08577256
181	0xbe2d0750	-0.16897321
182	0x3db4e6bc	0.088330716
183	0xbe580f9d	-0.21099706
184	0xbdff9592	-0.124797
185	0x3d14e0ec	0.036347315
186	0x3e3e31d3	0.18573694
187	0xbe56438b	-0.20924203
188	0xbe2528b8	-0.16128814
189	0xbd6402fa	-0.0556669
190	0x3ccb0849	0.024784224
191	0xbe4fa0d6	-0.20276198
192	0x3e16b110	0.14715981
193	0xbca5c504	-0.020235546
194	0x3d94b07a	0.07260223
195	0xbca6245c	-0.02028101
196	0x3d5fb177	0.054612603
197	0xbd7e5a62	-0.062097915
198	0xbe4699ca	-0.19394603
199	0x3d083fd3	0.033263993
200	0x3cbf5108	0.023354068
201	0x3d93e267	0.07220917
202	0x3e514a18	0.20438421
203	0x3d81be31	0.06335104
204	0x3db217b1	0.08695925
205	0xbe1e123a	-0.1543664
206	0xbd55d8e7	-0.052208807
207	0x3e4ca481	0.19984628
208	0xbba863c9	-0.0051388484
209	0x3d0bcc1b	0.034130197
210	0x3ceb639e	0.028734025
211	0xbe18a866	-0.14907989
212	0xbe5a7e3c	-0.21337217
213	0xbe16ea50	-0.1473782
214	0x3c850919	0.01623969
215	0x3e4d242e	0.20033333
216	0xbe198a3b	-0.14994137
217	0x3dd4a80f	0.10383617
218	0x3e418eca	0.18902126
219	0xbdd598a7	-0.10429507
220	0xbe160099	-0.14648665
221	0xbe2236de	-0.15841243
222	0xbdd63e8f	-0.10461151
223	0x3c922242	0.017838601
224	0xbe3960a4	-0.18103272
225	0x3dc63baa	0.09679349
226	0xbe1c169e	-0.15243003
227	0xbe10cfc2	-0.14141753
228	0x3e032d51	0.12810256
229	0x3d89d403	0.06729891
230	0x3e19ed7e	0.15032002
231	0xbd6a8efc	-0.057265267
232	0xbe675ae9	-0.22593273
233	0x3d32dc4d	0.043667126
234	0x3e5e6536	0.21718296
235	0x3e3df9a1	0.18552257
236	0x3e40f0ba	0.1884183
237	0xbd0879c3	-0.033319246
238	0xbc5fb042	-0.013652863
239	0x3df64d27	0.120264344
240	0xbc048970	-0.008089408
241	0xbc00de74	-0.007865537
242	0x3c7f02f8	0.015564673
243	0x3d29760f	0.041372355
244	0x3df69772	0.12040605
245	0x3e292525	0.16518076
246	0x3e16442b	0.14674442
247	0xbe31f9fe	-0.1738052
248	0xbe05ba48	-0.13059342
249	0xbc2fff32	-0.010741996
250	0x3e43e2b3	0.19129448
251	0xbd92b628	-0.0716365
252	0xbcd59b95	-0.026075164
253	0x3ce9bb8f	0.028531818
254	0xbdd2e0c0	-0.10296774
255	0x3d0c29af	0.03421944

layers.4.bias f4 [64]
0	0x3a485007	0.00076413195
1	0x3ddb886f	0.10719382
2	0xbc4021f1	-0.011726842
3	0x39b198c6	0.00033873896
4	0xbbd69ce1	-0.006549463
5	0xbc1dd0d5	-0.009632309
6	0x3b234514	0.0024913
7	0xbb151c15	-0.0022752334
8	0x3c3fdab2	0.011709856
9	0xbcb53c13	-0.022123372
10	0x3b111cd4	0.0022142427
11	0xbc255ef5	-0.01009344
12	0x3a98fdca	0.0011672315
13	0x3a132471	0.0005613035
14	0x3b77cb45	0.0037810367
15	0x3b276582	0.002554268
16	0x399c9943	0.00029868828
17	0x3ad4551c	0.0016199681
18	0xbc834a12	-0.01602653
19	0xbc740247	-0.014893121
20	0xbb4c7897	-0.0031199807
21	0xbb2377e9	-0.0024943298
22	0xba7bb9d3	-0.000960258
23	0xba94ecc9	-0.0011362071
24	0x3c15b659	0.009137713
25	0xba625b95	-0.00086348626
26	0x3a7ae995	0.00095715496
27	0x3c350b69	0.011050084
28	0x3bf5ff16	0.0075072153
29	0x3aaf0428	0.0013352679
30	0x3c742f1a	0.014903808
31	0xb7533900	-1.2589851e-05
32	0xbb17c1fd	-0.0023156398
33	0xbbe04167	-0.006843734
34	0xbca201e8	-0.0197763
35	0x3cda9d76	0.026686411
36	0x3c3ea5ba	0.011636192
37	0x3c1b6bb1	0.009486125
38	0xbc19e3a2	-0.009392651
39	0x38d47160	0.000101300655
40	0xbb8cac6c	-0.004293015
41	0x3b07f49b	0.0020745161
42	0xbb871ac1	-0.0041230624
43	0x3b15e416	0.0022871546
44	0xbb93a23e	-0.0045054248
45	0x3a434295	0.0007448581
46	0x3a9cb1c7	0.0011954837
47	0x3a2d6bd7	0.00066154957
48	0x3b03bf41	0.002010301
49	0xbc16703c	-0.009182032
50	0x3a7e016a	0.0009689542
51	0xb70ea455	-8.502121e-06
52	0xba7514b9	-0.0009349096
53	0xbb1522af	-0.0022756269
54	0x3c31004b	0.0108032925
55	0xb96238f9	-0.00021574264
56	0x3c5e819f	0.013580709
57	0x3b64fd01	0.003494084
58	0xbac1bc2d	-0.0014780812
59	0xbae97cbf	-0.0017813666
60	0xbac6ad76	-0.0015157897
61	0x39bffc6e	0.00036618434
62	0x3b66abe9	0.0035197681
63	0xbca8da0d	-0.020611787

layers.6.weight f4 [64, 64]
0	0xbe55cf7c	-0.2087993
1	0x3d467468	0.048450857
2	0xbe4bf8d1	-0.19919135
3	0x3e17c03d	0.14819427
4	0xbe054987	-0.1301633
5	0xbda4d9de	-0.08049367
6	0xbe3454ad	-0.17610426
7	0x3dd38223	0.10327556
8	0x3e16285c	0.14663833
9	0x3d89c225	0.06726483
10	0x3c1c639b	0.009545232
11	0xbd910128	-0.07080299
12	0xbd7a9505	-0.061177272
13	0x3b8d9de3	0.0043218
14	0x3d459bc3	0.04824425
15	0x3e493d53	0.196523
16	0x3d8b2bd5	0.0679547
17	0xbd723bef	-0.05913919
18	0xbe451816	-0.1924747
19	0x3e177430	0.14790416
20	0xbdcc0626	-0.0996211
21	0xbc2ed92d	-0.010671896
22	0xbe565b86	-0.20933351
23	0xbdda3225	-0.106540956
24	0x3db8a04b	0.090149485
25	0xbe2651d0	-0.16242146
26	0x3d802521	0.06257082
27	0x3ad81353	0.0016485251
28	0xbb3151ee	-0.002705689
29	0x3e2d9b75	0.16953833
30	0x3e492267	0.1964203
31	0xbd90dcb1	-0.070733435
32	0x3cdb94f9	0.026804434
33	0x3c23d73a	0.0100000445
34	0xbe331fb6	-0.17492566
35	0xbd322f24	-0.043501988
36	0xbdc857a2	-0.0978234
37	0xbdbe0c6f	-0.09279715
38	0x3d4f1875	0.050560433
39	0x3e1b6c77	0.15178095
40	0xbd01dd0d	-0.03170495
41	0xbd38de27	-0.045133736
42	0x3cbf2afc	0.023335926
43	0x3db9b81e	0.09068321
44	0x3df19ded	0.117977
45	0xbc922622	-0.017840449
46	0x3e4ae1de	0.19812724
47	0xbe5755a6	-0.21028766
48	0xbe03156f	-0.12801145
49	0x3d9f52d0	0.07779467
50	0xbe355687	-0.17708789
51	0xbc1021cc	-0.00879712
52	0x3e43aafa	0.19108191
53	0x3d6fbf3c	0.058531985
54	0x3e0d2ea4	0.13787323
55	0x3e12baf2	0.14329126
56	0x3d15b255	0.036547024
57	0x3dad6c8d	0.0846797
58	0x3e19526d	0.14972849
59	0x3a24c7b4	0.00062858616
60	0x3e53b0b8	0.20672882
61	0x3e045aa3	0.129252
62	0x3d837061	0.06417919
63	0xbe284a4b	-0.1643459
64	0xbe085e46	-0.13317212
65	0xbde57ff3	-0.11206045
66	0x3e2bb220	0.16767168
67	0x3e491afa	0.19639197
68	0x3e8d1e6e	0.27562279
69	0x3e9d71c0	0.30750847
70	0xbe5b114c	-0.21393317
71	0xbdb31dab	-0.08745893
72	0x3e03496b	0.12820975
73	0xbda9c8d8	-0.08290261
74	0xbd9c5376	-0.076331064
75	0xbe409559	-0.18806972
76	0x3b0cdd82	0.0021494334
77	0xbd696a96	-0.056986414
78	0x3e4ab00b	0.19793718
79	0xbd2178fe	-0.039422028
80	0x3d15550e	0.036458068
81	0xbe24bfc0	-0.16088772
82	0x3e7b6d1d	0.24553342
83	0xbd9eabfb	-0.077476464
84	0x3e473a62	0.19455865
85	0xbc81d929	-0.01585062
86	0x3b80f349	0.003935252
87	0xbe70a8a3	-0.2350183
88	0xbe205201	-0.15656282
89	0x3d2ee64b	0.042700093
90	0x3e289da0	0.16466379
91	0xbe88a9ae	-0.26691955
92	0x3cf48106	0.02984668
93	0x3e14afad	0.1452014
94	0x3e21d98b	0.15805642
95	0xbe03126d	-0.12799998
96	0x3e3895e7	0.18025933
97	0x3e4965a8	0.19667685
98	0xbe5fcaf4	-0.21854764
99	0xbe7cfd0a	-0.24705902
100	0xbe20664f	-0.15664028
101	0x3e21a2a7	0.15784703
102	0xbbc9a742	-0.006153972
103	0xbd9fb265	-0.07797698
104	0xbb3f5f83	-0.0029201217
105	0x3e380d3b	0.17973797
106	0x3e21ac2b	0.15788333
107	0x3e6d1887	0.23153888
108	0x3d96ba72	0.0735978
109	0xbd8a5da9	-0.067561455
110	0xbe450256	-0.19239172
111	0xbe307f83	-0.17236142
112	0x3e672136	0.22571263
113	0x3e71c576	0.23610482
114	0xbde66836	-0.112503454
115	0xbb510add	-0.0031897344
116	0x3e239773	0.15975742
117	0x3da4c759	0.08045835
118	0xbdbb19d8	-0.09135789
119	0x3e126491	0.14296176
120	0x3e1e36a1	0.15450527
121	0xbe33dc28	-0.17564452
122	0x3d38172c	0.044943973
123	0x3db5b95d	0.08873246
124	0x3d2b1c21	0.041774873
125	0xbdef1f8d	-0.1167594
126	0xbdf306db	-0.11866542
127	0xbd11c1a9	-0.03558508
128	0xbcf00623	-0.029299801
129	0xbbe69341	-0.007036597
130	0xbe4e7c5d	-0.20164628
131	0xbd2826b0	-0.04105252
132	0xbc56022d	-0.013062042
133	0xbe2da41e	-0.16957137
134	0xbe05a500	-0.13051224
135	0x3e332b34	0.1749695
136	0x3e31880b	0.17337053
137	0x3b7de20f	0.0038739478
138	0xbdf81c67	-0.12114792
139	0x3e5ab39f	0.21357583
140	0xbdc320e8	-0.09527761
141	0xbe336426	-0.17518672
142	0x3e36e328	0.1786009
143	0xbc4c225f	-0.012459367
144	0xbe1c9960	-0.15292883
145	0x3da487df	0.08033728
146	0x3da7878f	0.081801526
147	0x3c5fd85e	0.013662426
148	0xbe38049f	-0.17970513
149	0xbe0141f5	-0.12622817
150	0xbe150f7d	-0.1455669
151	0x3d451217	0.048112955
152	0xbe087bc9	-0.1332847
153	0x3c8c1d0f	0.0171037
154	0x3e00b471	0.12568833
155	0xbe59b469	-0.21260227
156	0xbd54488d	-0.051827002
157	0xbde60c33	-0.112327956
158	0x3d93c7da	0.07215853
159	0x3c9daba0	0.019246876
160	0x3d64dc3e	0.0558741
161	0x3baf792b	0.0053550205
162	0x3e832fa7	0.25622293
163	0x3ca9936a	0.020700175
164	0x3d5844c6	0.052799962
165	0x3e07a214	0.13245422
166	0x3ccf097c	0.025273077
167	0x3d4047b7	0.046943393
168	0xbd54130c	-0.051775977
169	0xbb76ac13	-0.0037639185
170	0xbdf75a0d	-0.12077723
171	0x3d7dd288	0.061968356
172	0x3e066159	0.13123073
173	0xbe081327	-0.13288556
174	0x3e5de030	0.21667552
175	0xbd8cdc51	-0.068779595
176	0xbe08a333	-0.13343506
177	0x3d8f7d83	0.07006361
178	0x3cf83513	0.030298745
179	0xbde88e07	-0.113552146
180	0x3cb52b4e	0.022115376
181	0x3e108d50	0.14116406
182	0xbdfd329f	-0.12363171
183	0x3df21dc1	0.11822081
184	0x3e3fb141	0.18719961
185	0x3e66a3c2	0.22523406
186	0xbd8960d8	-0.067079246
187	0xbe110183	-0.14160733
188	0x3b774460	0.0037729964
189	0x3ba56986	0.0050479798
190	0x3e63f98e	0.22263166
191	0x3e18af80	0.14910698
192	0x3e086fb1	0.13323857
193	0x3e5ad44a	0.21370044
194	0x3ce19a41	0.027539374
195	0xbbaab6b3	-0.0052097677
196	0xbe1f1c4a	-0.15538135
197	0xbd6a224c	-0.057161614
198	0xbc647aff	-0.01394534
199	0xbe3d0689	-0.18459524
200	0xbcaa50a7	-0.020790411
201	0x3dcda45b	0.10041114
202	0xbd9a3ea2	-0.075314775
203	0x3c8a9963	0.016918844
204	0x3e3594a1	0.17732479
205	0xbc962dcc	-0.018332385
206	0x3de63e92	0.11242403
207	0xbda12a9b	-0.078694545
208	0xbe169cf0	-0.14708304
209	0x3d64dbdf	0.055873748
210	0xbdfd892f	-0.12379681
211	0xbe1f88da	-0.15579548
212	0x3e06d47f	0.13166998
213	0x3e22cf1b	0.15899317
214	0x3d0a7d1c	0.03381072
215	0x3e3544c9	0.1770202
216	0xbd4af358	-0.049548477
217	0xbccb2dfd	-0.024802202
218	0xbcdf11d8	-0.027230188
219	0x3d91606f	0.070984714
220	0xbd423752	-0.04741604
221	0x3df7226b	0.120671116
222	0xbe21e2ed	-0.15809222
223	0xbe331721	-0.17489292
224	0xbd92c94c	-0.071673006
225	0x3e018f1d	0.1265225
226	0xbe6128f4	-0.21988279
227	0x3e49e3e7	0.19715844
228	0xbe55aefa	-0.2086753
229	0xbcadac6e	-0.021200385
230	0xbe270bba	-0.16313067
231	0x3e2b81dd	0.16748758
232	0xbde43be3	-0.11144235
233	0xbda1e78b	-0.079054914
234	0x3e2fc407	0.17164622
235	0xbe5a8909	-0.21341337
236	0x3d8479c1	0.06468535
237	0x3e40edc2	0.18840697
238	0xbdbf7740	-0.09348917
239	0xbd4dee3f	-0.050276037
240	0x3c97279c	0.018451504
241	0xbe27ccd2	-0.16386726
242	0xbd29c9f4	-0.041452363
243	0xbc87b7df	-0.016567169
244	0xbe33a1fa	-0.17542258
245	0xbd9d6696	-0.07685582
246	0xbbbaf36a	-0.0057052867
247	0x3d0ddf17	0.034636583
248	0x3dd67d1f	0.10473084
249	0x3e12bb6e	0.14329311
250	0xbe0b2e07	-0.13591777
251	0x3e1d3c51	0.1535504
252	0xbe538e45	-0.2065974
253	0xbe0adfbe	-0.13561913
254	0xbd27d996	-0.04097899
255	0xbe3daff6	-0.18524155

layers.6.bias f4 [64]
0	0x393ee7e4	0.00018206198
1	0xbda72002	-0.08160402
2	0x3b0960bc	0.00209622
3	0x3a3e9a52	0.00072709203
4	0xbb22924c	-0.0024806438
5	0x3a2dd311	0.00066308776
6	0xbbb44427	-0.0055012885
7	0xbbf2d7c6	-0.007410976
8	0xbbc9a845	-0.0061540925
9	0xb759952a	-1.2968938e-05
10	0x3a53375d	0.0008057261
11	0x3bb35f05	0.0054739737
12	0x3b14f69c	0.0022729998
13	0xba36daa5	-0.00069753296
14	0x3a802670	0.000977708
15	0xbd601435	-0.05470677
16	0x39b3b9ae	0.00034279883
17	0x3cd5a184	0.026077993
18	0xbb601af8	-0.0034195762
19	0x3918d669	0.00014575724
20	0x3a4bcb0a	0.00077740906
21	0xbbb50142	-0.0055238316
22	0x3b99857f	0.0046851034
23	0xbabed43f	-0.0014559104
24	0x3bfa660b	0.007641559
25	0x3a133b2a	0.0005616421
26	0x3b2e0b04	0.0026556859
27	0x3b04cad1	0.002026249
28	0x3adb0598	0.0016710041
29	0x3b6f4b78	0.0036513489
30	0xbb10afe0	-0.0022077486
31	0x3b888b4b	0.0041669956
32	0xb9cc5058	-0.00038969773
33	0xb995f6e0	-0.0002860343
34	0x3b36b4d7	0.0027878785
35	0xba7d24dd	-0.0009656677
36	0xbc1dc709	-0.009629973
37	0x3ba789b0	0.005112849
38	0xbc1d5ccf	-0.009604647
39	0xbd48ec4e	-0.049053483
40	0x39c63928	0.00037808088
41	0xbcbce77b	-0.023059597
42	0xb9ba13a7	-0.00035491327
43	0xb939d0ea	-0.00017720801
44	0x3b0bf42a	0.002135525
45	0x39d15931	0.0003993004
46	0xbbaa90ff	-0.005205273
47	0x3aadb150	0.0013251696
48	0x3dd13cba	0.10216661
49	0x3a6c4b8a	0.0009013942
50	0xba9995c8	-0.0011717612
51	0x394f90a8	0.00019794947
52	0x3ba399b1	0.0049926867
53	0x3be6158f	0.007021613
54	0x3ab110ff	0.0013509094
55	0xbb8d60e3	-0.0043145283
56	0x3ade12ad	0.0016942822
57	0x3a45a368	0.0007539303
58	0x38bb19ab	8.921636e-05
59	0xbb85b14f	-0.0040799747
60	0x3bccb7a2	0.0062474767
61	0x3b2fba7c	0.0026814034
62	0x3cc681f4	0.024231888
63	0xba20f3ac	-0.00061398256

layers.8.weight f4 [64, 64]
0	0xbcb8e012	-0.022567783
1	0x3df11cec	0.117730945
2	0xbe21c010	-0.15795922
3	0x3e1d1de5	0.15343435
4	0x3dbb511d	0.091463305
5	0x3dc6fcc9	0.09716184
6	0x3e1c60c1	0.15271284
7	0x3e54eea5	0.2079416
8	0xbdc4c7bf	-0.09608411
9	0xbdccd6aa	-0.100018814
10	0x3e50882a	0.20364442
11	0x3e1cd92c	0.1531722
12	0x3df76c80	0.120812416
13	0x3e2a3391	0.16621234
14	0xbda6d77c	-0.08146569
15	0xbdc7bc2c	-0.09752688
16	0x3dcbfb4f	0.09960043
17	0xbe511ca5	-0.20421083
18	0x3df494e7	0.11942463
19	0xbe33a4a1	-0.1754327
20	0xbde22a95	-0.11043278
21	0x3df2a1c7	0.11847263
22	0xbda6e733	-0.081495665
23	0xbe58e0ef	-0.21179555
24	0x3e0c5756	0.13705191
25	0xbdd839c8	-0.10557896
26	0xbdbcfa64	-0.09227446
27	0x3dfcd2fd	0.1234493
28	0xbd67d9c8	-0.056604177
29	0xbe5be7bd	-0.2147512
30	0x3c6e054d	0.014527631
31	0xbe171bce	-0.147567
32	0xbda6faee	-0.0815333
33	0x3e1f9f56	0.15588126
34	0xbc92d803	-0.017925268
35	0xbd20f44f	-0.03929549
36	0xbd838f1a	-0.06423779
37	0xbe4df8ab	-0.2011439
38	0xbe485edc	-0.19567436
39	0xbda5fae5	-0.08104495
40	0x3e32bb8b	0.17454354
41	0x3c3f41d2	0.011673408
42	0x3d170feb	0.036880415
43	0xbe52ce25	-0.2058645
44	0xbe20e0cf	-0.15710758
45	0x3da9f395	0.08298413
46	0x3e1e6b39	0.1547059
47	0xbe194e35	-0.1497124
48	0x3ab51a78	0.0013817092
49	0xbd28b62e	-0.041189365
50	0xbd533ad9	-0.051569793
51	0xbe2c52a2	-0.16828397
52	0xbe3a201d	-0.18176313
53	0x3e41dd30	0.18932033
54	0xbe5ec716	-0.21755633
55	0x3ce1fdb3	0.027586794
56	0x3d09b773	0.033622216
57	0x3d950218	0.0727579
58	0xbe250a8a	-0.16117302
59	0x3e2e4b8e	0.1702101
60	0xbd4986a7	-0.04920068
61	0x3e256383	0.16151242
62	0xbe0c7f97	-0.13720547
63	0x3ddfc331	0.10925902
64	0xbc67fe16	-0.0141597
65	0xbe078656	-0.13234839
66	0x3dd6b117	0.10482996
67	0x3e38c4ad	0.18043776
68	0x3e3037db	0.17208807
69	0x3dee0bd1	0.116233476
70	0xbd1b72d4	-0.037951306
71	0xbe39ad66	-0.18132553
72	0xbdc355d1	-0.095378526
73	0xbe47d0cb	-0.19513242
74	0x3d1d741b	0.038440805
75	0xbd834290	-0.0640918
76	0x3e2a17e1	0.16610672
77	0xbe4c44bc	-0.19948095
78	0x3db85f78	0.09002584
79	0x3dc113e0	0.09427619
80	0xbdc1cf4d	-0.094633676
81	0xbe4e8534	-0.20168
82	0x3e3fb6ea	0.1872212
83	0xbe0ceba9	-0.13761772
84	0x3e34e5f6	0.17665848
85	0xbe3a4031	-0.1818855
86	0xbdf8681c	-0.12129232
87	0x3d440cd5	0.0478638
88	0xbe397a9d	-0.1811318
89	0xbe3db247	-0.18525039
90	0xbe3d6b7c	-0.18498033
91	0x3e2cc5e1	0.1687236
92	0x3e52dd6d	0.2059228
93	0xbd3fc3e9	-0.046817694
94	0xbdfecc82	-0.124413505
95	0x3db9f4f3	0.090799235
96	0xbdd3bb71	-0.10338486
97	0x3d1066c7	0.035254266
98	0x3c15e3ca	0.009148547
99	0x3db47b65	0.08812598
100	0x3e585979	0.21127881
101	0x3da90157	0.08252209
102	0x3e460c65	0.19340666
103	0x3e382308	0.17982113
104	0x3d703789	0.058646712
105	0xbe328245	-0.17432506
106	0xbdbe0aad	-0.0927938
107	0x3c951d46	0.018202435
108	0x3d4573fd	0.04820632
109	0xbdb71015	-0.08938614
110	0x3c9f28db	0.019428661
111	0x3e03caf4	0.12870389
112	0x3d09994d	0.033593465
113	0xbdcc95b2	-0.099894896
114	0x3e4caa72	0.19986895
115	0x3ce27921	0.02764565
116	0xbdd09cf3	-0.10186186
117	0xbdd9057d	-0.1059675
118	0xbd83feb0	-0.06445062
119	0x3e269eee	0.16271564
120	0xbe47a9d5	-0.1949838
121	0xbe4b4c55	-0.19853337
122	0x3e063c77	0.13109003
123	0x3e2dc065	0.16967924
124	0xbe0ba07e	-0.13635442
125	0xbdaac6dd	-0.083387114
126	0x3e059cd6	0.1304811
127	0x3d71c83a	0.05902884
128	0x3ca51c75	0.020155171
129	0xbe0d4af4	-0.13798124
130	0xbe15b532	-0.14619902
131	0x3e1d0cd7	0.1533693
132	0xbdf2dd3f	-0.118586056
133	0x3d434fd3	0.04768355
134	0x3d6e2241	0.058138136
135	0xbe0382dd	-0.12842889
136	0xbdab2e6c	-0.08358464
137	0xbc8b119b	-0.016976168
138	0xbdbecf35	-0.09316865
139	0xbe398a98	-0.18119276
140	0x3d143128	0.03617969
141	0xbbcb5a73	-0.0062058507
142	0xbe105990	-0.14096665
143	0xbc35237b	-0.0110558225
144	0xbd6acacb	-0.057322305
145	0xbdf29ffe	-0.11846922
146	0xbdff77c1	-0.12474013
147	0xbe172f9c	-0.14764255
148	0x3dde2e5b	0.10848685
149	0xbcffba24	-0.031216688
150	0xbddc7156	-0.107638046
151	0x3da83cd2	0.082147256
152	0x3dfabc85	0.122429885
153	0x3e2fb632	0.17159346
154	0x3e2ed0a0	0.17071772
155	0xbdc23c93	-0.0948421
156	0xbe2bd1d5	-0.16779263
157	0x3d4b3653	0.049612354
158	0xbe63a60b	-0.22231309
159	0xbd468de7	-0.048475172
160	0x3e2e1548	0.17000306
161	0x3d93d89b	0.072190486
162	0x3cb093d7	0.02155487
163	0x3c80aaf2	0.015706513
164	0x3e3453fd	0.17610164
165	0x3e2dc245	0.16968639
166	0xbbf583cc	-0.007492518
167	0xbd3cd17b	-0.046098214
168	0xbac4270e	-0.0014965252
169	0xbd52140b	-0.051288646
170	0x3e394ccd	0.18095703
171	0x3e4bcb1a	0.19901696
172	0xbdeeda22	-0.11662699
173	0xbe22f2b7	-0.15912901
174	0x3ded2a25	0.11580304
175	0x3d8183ab	0.06323942
176	0xbe30d73a	-0.17269602
177	0x3c6e6814	0.014551181
178	0x3d1956e8	0.037436396
179	0xbcfa0093	-0.030517852
180	0xbde4d7c0	-0.111739635
181	0x3e2446b5	0.16042598
182	0x3d84faa7	0.06493121
183	0x3e05403f	0.13012789
184	0x3e3213a8	0.17390311
185	0x3e1d5a46	0.15366468
186	0xbdbf0982	-0.09327985
187	0xbd8a9f72	-0.06768693
188	0x3e0a1c1c	0.13487285
189	0x3d673402	0.056446083
190	0x3d90780d	0.07054148
191	0xbe38b25e	-0.18036792
192	0xbde0e7b7	-0.10981696
193	0xbda1cec5	-0.07900766
194	0xbe2f3182	-0.1710873
195	0x3e3a2089	0.18176474
196	0xbe0a5d7a	-0.13512221
197	0x3d62f387	0.055408027
198	0xbd4d9bdd	-0.05019747
199	0x3dc56168	0.096377194
200	0x3e2a3d13	0.1662486
201	0x3e1a1c64	0.15049893
202	0xbe012037	-0.12609945
203	0xbe490575	-0.19630988
204	0xbe0b1af0	-0.13584495
205	0xbe05059d	-0.12990423
206	0x3e713493	0.23555212
207	0x3e09b372	0.13447359
208	0x3e3bbd5c	0.18333954
209	0x3cc1336b	0.023584088
210	0x3e698621	0.22805072
211	0x3dc3a7e9	0.09553511
212	0x3d759913	0.059960436
213	0xbe25bc5f	-0.16185139
214	0xbde9401a	-0.113891795
215	0x3e28126c	0.16413277
216	0xbd882663	-0.06647947
217	0x3e36acd1	0.17839362
218	0x3d0ee88a	0.034889735
219	0xbe5214ce	-0.20515749
220	0xbde7e756	-0.11323421
221	0x3b86f323	0.0041183396
222	0x3d690f52	0.056899376
223	0x3d856458	0.0651328
224	0xbd002401	-0.031284336
225	0x3e4c6881	0.1996174
226	0xbc2389ea	-0.009981612
227	0xbd471f7c	-0.04861401
228	0xbd990f98	-0.074736774
229	0x3e017720	0.12643099
230	0x3d80bc3b	0.06285902
231	0x3bbeb075	0.005819375
232	0xbd7f8a34	-0.06238766
233	0x3cde6c6a	0.027151305
234	0xbdbce1d4	-0.09222761
235	0x3e2e79a1	0.17038585
236	0xbd9d5d75	-0.07683841
237	0x3c4fe9fa	0.012690062
238	0xbe42dfa7	-0.19030629
239	0x3d3a3d95	0.045468885
240	0xbbba749f	-0.005690172
241	0x3e141109	0.14459623
242	0xbd21672c	-0.039405033
243	0x3dcb6de0	0.09933066
244	0xbe4d0e22	-0.20024922
245	0x3c21a39f	0.00986567
246	0x3d2f43d2	0.042789288
247	0xbe581bb7	-0.21104322
248	0xbd7a0697	-0.06104144
249	0x3cb33bfa	0.021879185
250	0x3e3360ae	0.17517349
251	0xbd8a5106	-0.06753735
252	0x3e29c6be	0.1657972
253	0xbde74be7	-0.11293774
254	0x3e206eea	0.1566731
255	0x3df09f44	0.117491275

layers.8.bias f4 [64]
0	0xba796b30	-0.00095145684
1	0x3aa79c87	0.0012787738
2	0x3bd3d1ea	0.0064642327
3	0xbb602993	-0.0034204468
4	0xbaec77a0	-0.0018041022
5	0x39d2a73a	0.00040178915
6	0xb9269b19	-0.00015888772
7	0xbadfcef4	-0.0017075227
8	0x39cb426b	0.00038768662
9	0x3aa6f7ad	0.0012738608
10	0x3aa1305f	0.0012297741
11	0xba861443	-0.0010229427
12	0x3b9e3326	0.0048278747
13	0xbae628b5	-0.0017559739
14	0xb9c55f74	-0.00037645886
15	0x3a309e08	0.00067374157
16	0x3ad5f8e2	0.0016324783
17	0x3a369648	0.00069651427
18	0x3a12efec	0.0005605209
19	0xbbf4371b	-0.007452858
20	0x3919604b	0.00014627089
21	0xb81d1990	-3.7455524e-05
22	0x3b9cd1a5	0.0047857338
23	0x3b03f264	0.002013349
24	0x38066f17	3.205155e-05
25	0x39c5f386	0.00037756207
26	0xb9b5b4ad	-0.00034657624
27	0x3c0ce51b	0.008599545
28	0xbacbe44a	-0.0015555706
29	0xbbe12865	-0.0068712705
30	0x3bc790c5	0.006090256
31	0xb9c70dfd	-0.0003796666
32	0xba066394	-0.00051265326
33	0xbbadb8ca	-0.0053015696
34	0x3a861d84	0.0010232185
35	0x3aaca967	0.0013173044
36	0xb95ae2c5	-0.00020874578
37	0xbc8ca250	-0.01716724
38	0x3b9a4a0d	0.0047085346
39	0x3806aa28	3.210656e-05
40	0xbb609788	-0.0034270007
41	0x3a834a0e	0.0010016577
42	0xba3a6b4a	-0.0007111324
43	0x3b51ec13	0.003203158
44	0x39240d33	0.00015645176
45	0xbab830c2	-0.0014052617
46	0xbb3b7327	-0.0028602572
47	0x3b011c62	0.0019700755
48	0xbb2b369a	-0.0026125074
49	0x3a504b8f	0.00079458294
50	0xbb18345c	-0.0023224568
51	0x39524f9a	0.00020056815
52	0xbad39801	-0.0016143323
53	0xbb0cb7f6	-0.0021471954
54	0x3bcbcea1	0.0062197004
55	0xbb12174e	-0.0022291723
56	0xb62a13bd	-2.5343463e-06
57	0xb9e46343	-0.00043561505
58	0xbacb7435	-0.0015522303
59	0x39bc66f3	0.00035934857
60	0x3ab3c4cb	0.0013715265
61	0xbb04f884	-0.0020289728
62	0xbaf591fc	-0.0018735523
63	0xbbc0216e	-0.00586336

layers.10.weight f4 [64, 64]
0	0xbe3fe9c7	-0.18741523
1	0xbdd1249e	-0.10212062
2	0x3d1c62ce	0.038180165
3	0x3d362471	0.044468347
4	0xbdeb5654	-0.11491075
5	0xbcd00bdf	-0.025396286
6	0x3ddf3095	0.10897938
7	0xbda8f0ed	-0.08249078
8	0xbe2ef849	-0.17086901
9	0xbe32a527	-0.17445813
10	0xbddaded9	-0.10687036
11	0x3de143db	0.109992705
12	0x3df2e155	0.11859385
13	0x3e0c8515	0.13722642
14	0x3b8869c4	0.004162999
15	0xbdffab7c	-0.1248388
16	0x3e054730	0.13015437
17	0xbbda9f7c	-0.006671844
18	0xbe1433f2	-0.1447294
19	0xbc7c73c2	-0.015408458
20	0xbe477153	-0.19476824
21	0xbb28accc	-0.002573776
22	0x3d62a884	0.05533649
23	0x3d46a4a3	0.048496854
24	0xbe37fb39	-0.17966928
25	0xbe531ea2	-0.20617154
26	0x3c237d04	0.0099785365
27	0xbd835ea0	-0.06414533
28	0x3e46f5a0	0.19429636
29	0x3c80a263	0.015702432
30	0xbdd1e899	-0.102494426
31	0xbc62218e	-0.013801945
32	0xbcded1fb	-0.027199736
33	0x3dff6227	0.12469893
34	0xbe142284	-0.14466292
35	0xbe214557	-0.15749107
36	0xbe50e1da	-0.20398656
37	0xbe40a00c	-0.18811053
38	0xbdeb44d3	-0.114877366
39	0xbd4d8c3c	-0.050182566
40	0x3e2b05b7	0.16701399
41	0xbe3abf91	-0.1823714
42	0xbdc67f12	-0.096922055
43	0xbe0d588f	-0.13803314
44	0xbe086366	-0.13319167
45	0xbd35aae0	-0.044352412
46	0xbda40d55	-0.080103554
47	0xbe5cb588	-0.21553624
48	0x3e5e0de0	0.2168498
49	0x3dea94c2	0.114541546
50	0xbcf2f5a4	-0.029658146
51	0xbe22be96	-0.15893015
52	0xbc9b0010	-0.018920928
53	0xbdfc8d5e	-0.12331651
54	0x3d6fa858	0.058510154
55	0x3e06de07	0.13170634
56	0x3c8202c2	0.015870456
57	0xbc3f633f	-0.011681377
58	0x3e2ee360	0.17078924
59	0x3df0c61c	0.11756536
60	0xbe51db91	-0.20493914
61	0xbe3846c4	-0.17995745
62	0xbe4eae72	-0.20183733
63	0xbe54f586	-0.20796785
64	0x3d7c0834	0.06153126
65	0x3d39f8b1	0.045403186
66	0xbdb4556c	-0.088053554
67	0x3ccd1079	0.025032269
68	0x3dca6594	0.09882656
69	0x3cb6ca9d	0.02231341
70	0xbda4b222	-0.08041789
71	0x3e3976d1	0.18111731
72	0x3e24c998	0.16092527
73	0x3da1a058	0.07891911
74	0xbd171154	-0.03688176
75	0xbe40d5fd	-0.1883163
76	0x3e1b9efe	0.1519737
77	0x3defd5a2	0.11710669
78	0xbc7af6d4	-0.0153176375
79	0xbe3f820c	-0.18701953
80	0x3e3600bf	0.17773722
81	0x3d879619	0.06620426
82	0xbe495ee0	-0.19665098
83	0xbc16ea1d	-0.00921109
84	0xbde07adb	-0.10960933
85	0xbd1e4df5	-0.038648564
86	0xbc893d19	-0.016752766
87	0xbe474cf8	-0.19462955
88	0xbcb900fe	-0.02258348
89	0xbd3a8c02	-0.045543678
90	0x3d95a4b1	0.07306803
91	0x3c9ecb76	0.019384127
92	0x3d6e776f	0.05821937
93	0xbe2480ff	-0.16064833
94	0xbcb8f53b	-0.022577872
95	0x3ddc2da2	0.10750891
96	0xbe127897	-0.14303814
97	0xbe08d3ce	-0.13362047
98	0xbe4a2702	-0.19741443
99	0xbd963f68	-0.073363125
100	0xbe56c41e	-0.2097325
101	0xbca83ae3	-0.020535892
102	0x3c602037	0.013679556
103	0xbd121024	-0.035659924
104	0xbda3696b	-0.07979091
105	0xbe2e6289	-0.17029776
106	0x3e124366	0.14283523
107	0x3cbc454f	0.022982268
108	0xbddd8d80	-0.108180046
109	0xbc91076f	-0.01770374
110	0x3c9940c7	0.018707646
111	0xbc3702db	-0.011170114
112	0xbe35be55	-0.17748387
113	0x3e1627e4	0.14663655
114	0xbd8b67b5	-0.0680689
115	0xbe123ed2	-0.14281777
116	0x3de6c838	0.112686574
117	0x3d70fff7	0.058837857
118	0x3de95660	0.11393428
119	0x3d8b06f2	0.06788434
120	0xbe0f8e63	-0.1401916
121	0x3bba1c5c	0.00567965
122	0xbe3daa20	-0.18521929
123	0x3c7e31e1	0.015514822
124	0x3c9191a4	0.017769642
125	0xbd97a49d	-0.07404444
126	0x3e126132	0.1429489
127	0xbe4b0078	-0.19824398
128	0x3de1eb0f	0.11031162
129	0xbe6171e8	-0.22016108
130	0x3e0eb233	0.13935165
131	0x3e25694a	0.16153446
132	0xbda6ca6b	-0.08144077
133	0xbd0e3dfb	-0.034727078
134	0x3dcae63e	0.099071965
135	0xbe3f36be	-0.18673226
136	0xbe34e489	-0.17665304
137	0xbd855732	-0.06510772
138	0x3e0696a4	0.13143402
139	0x3e2f3cf4	0.17113096
140	0xbd974e08	-0.0738793
141	0x3d4d55fd	0.050130833
142	0x3d96aa2e	0.07356678
143	0xbd5f7c33	-0.054561805
144	0xbd1a9e95	-0.03774889
145	0xbcf34669	-0.02969666
146	0x3e05d6b6	0.13070187
147	0xbdc3283e	-0.0952916
148	0x3a6df609	0.00090774946
149	0x3dd6fac3	0.10497048
150	0xbd6fbafb	-0.058527928
151	0x3e44062a	0.19142976
152	0x3e41c4d4	0.1892274
153	0xbc1ccfcf	-0.00957103
154	0x3dc15974	0.0944089
155	0xbdad336e	-0.08457075
156	0xbd1bc8c7	-0.038033273
157	0x3e1e072e	0.15432426
158	0x3d77f11b	0.06053267
159	0xbe0f549c	-0.1399712
160	0xbd71b64e	-0.05901175
161	0x3dcf83b9	0.10132546
162	0xbe2793cb	-0.16364972
163	0xbd1f7a5f	-0.03893506
164	0xbd7b6baa	-0.061381973
165	0x3e2218ea	0.15829816
166	0xbe4afd3f	-0.19823168
167	0x3e048d54	0.12944537
168	0x3e121115	0.14264329
169	0x3d0f1109	0.034928355
170	0xbcb6d3d4	-0.022317804
171	0x3e38a4d0	0.18031621
172	0xbcce6fcd	-0.025199795
173	0x3e34ce4b	0.1765682
174	0x3d986711	0.07441533
175	0x3ce6a51a	0.028154898
176	0x3cc38363	0.023866361
177	0x3d1ecbb2	0.038768478
178	0x3da7d8c7	0.08195644
179	0xbe1dbad3	-0.15403299
180	0xbd304d46	-0.043042444
181	0x3e392617	0.18080936
182	0x3c2d93a2	0.01059428
183	0xbe1cfc7e	-0.15330693
184	0x3de80e5b	0.11330863
185	0x3c051593	0.0081228195
186	0x3daf8938	0.08571094
187	0xbe156cfa	-0.14592353
188	0xbe42eabb	-0.19034855
189	0x3d97286d	0.073807575
190	0xbe363e5e	-0.17797229
191	0x3dc0d532	0.09415664
192	0xbe12e86e	-0.14346477
193	0xbdf8d94d	-0.12150822
194	0xbe2d834e	-0.1694462
195	0xbe251f5c	-0.16125244
196	0x3e403827	0.1877142
197	0x3dab8f77	0.08376973
198	0xbe3f637b	-0.18690293
199	0x3cf5dac2	0.030011538
200	0xbe048ec8	-0.12945092
201	0x3e19c4ee	0.15016529
202	0xbcd9b20e	-0.02657416
203	0xbd9cfca7	-0.07665377
204	0xbe1412db	-0.14460318
205	0x3e495773	0.19662265
206	0x3e54d2b4	0.20783502
207	0x3cb8de9f	0.022567092
208	0x3e194e44	0.14971262
209	0xbd4e56f9	-0.050375912
210	0xbe646541	-0.2230425
211	0xbdf04e2a	-0.117336586
212	0xbe242c4f	-0.16032527
213	0x3e3110fc	0.17291635
214	0x3e451a4c	0.19248313
215	0x3dc73475	0.09726802
216	0x3de990fe	0.11404608
217	0x3dcf63d4	0.101264626
218	0x3e40c2fb	0.18824379
219	0x3d172c3e	0.036907427
220	0xbd9e128f	-0.077183835
221	0xbe1c3654	-0.152551
222	0xbe405c23	-0.18785147
223	0x3e2d3918	0.16916311
224	0xbc1de861	-0.009637923
225	0x3d3175ec	0.04332535
226	0x3c4cb721	0.012494833
227	0xbdacbd4b	-0.08434542
228	0xbc5e2c76	-0.013560405
229	0x3e500f57	0.20318352
230	0x3e314b8a	0.17313972
231	0x3e219e24	0.15782982
232	0xbd4473d7	-0.047962036
233	0xbe258924	-0.16165596
234	0xbdce1301	-0.100622185
235	0x3e398377	0.18116556
236	0x3da20cc4	0.07912591
237	0xbd9f11f8	-0.07767099
238	0x3d3b0a6f	0.045664247
239	0x3dbbaa01	0.09163285
240	0x3e345ed3	0.17614298
241	0xbd852b1c	-0.06502363
242	0x3e597022	0.21234182
243	0xbd53d1dd	-0.051713813
244	0xbda7413c	-0.08166739
245	0x3c967fb5	0.018371442
246	0xbe2c0235	-0.16797717
247	0x3e1f34e2	0.15547517
248	0xbe072dd9	-0.13201083
249	0x3e4aacf1	0.19792534
250	0x3cdc4054	0.026886143
251	0xbd72b5da	-0.05925546
252	0xbdb66028	-0.08905059
253	0x3d32c4da	0.043644764
254	0xbce78f45	-0.028266558
255	0x3e5e11c1	0.2168646
