data/20240122/state_net_16000.pth (torch, 90556 bytes, 14 tensors)

layers.0.weight f4 [64, 5]
000000 0d 90 a6 3c be 4d 38 bd 73 14 3b 3d 1c 87 4a be
       0.02033236 -0.044996016 0.0456738 -0.19778103
000010 c4 56 8f 3e b5 ad 58 bd 36 95 7d 3e f2 44 18 3e
       0.27995884 -0.052900035 0.2476395 0.1487005
000020 bc 36 6c be b4 44 78 bd f2 a3 94 3e 22 28 f7 bd
       -0.23067755 -0.060612395 0.2903133 -0.120682016
000030 00 d7 7f be 14 a0 54 3e cc eb 24 be 62 5e 8a be
       -0.2498436 0.2076419 -0.16105574 -0.27025133
000040 10 7a 03 3d 46 0b 41 3e bb 78 2f 3e 66 ac 40 bd
       0.03209883 0.18851957 0.17135899 -0.047039412
000050 7f 48 0d be 2f b4 f1 3c 30 86 97 3d 72 ab ea bd
       -0.13797186 0.029504864 0.07398641 -0.11458482
000060 65 30 c6 3d 06 cc ed 3c ec 39 49 3e 74 3b c4 3c
       0.09677199 0.02902795 0.19651002 0.02395413
000070 dc 6e 8d 3e fe 56 b4 bd 01 88 c3 bd b4 17 44 bd
       0.27623641 -0.08805655 -0.09547425 -0.047874168
000080 b3 39 12 be cd 3f ef 3c e6 4d bd 3d a3 b9 90 3e
       -0.14279823 0.029205227 0.092433736 0.2826663
000090 4e 0f 9a 3e 49 47 e5 bb 07 11 09 be c3 c8 cf be
       0.30089802 -0.0069970232 -0.13385402 -0.40582857
0000a0 3a 85 1a be 81 f9 25 3e 55 3c a7 be eb 17 a5 bd
       -0.15089884 0.1620846 -0.32663217 -0.080612026
0000b0 38 4d ac 3e c7 07 fa 3d 55 af 82 bd e2 5c 47 be
       0.33652663 0.12208515 -0.06381098 -0.19469026
0000c0 b9 45 86 3e c4 e8 0c 3e 8a d5 29 be 7b 15 d0 bd
       0.2622507 0.13760668 -0.16585365 -0.10160347
0000d0 d1 9b 93 3e c7 76 81 be eb 10 bf 3d f1 27 7d bd
       0.28829816 -0.25285932 0.09329399 -0.06180567
0000e0 66 cd 52 3e 10 d4 87 3e f0 b2 ad bd a3 6d 93 3e
       0.20586166 0.26528978 -0.08481395 0.28794584
0000f0 da c1 97 bd 36 62 6a bd c5 f1 44 3e f2 0b 68 be
       -0.07410021 -0.057222567 0.19232853 -0.22660807
000100 5f 6d d5 3d 47 0e f3 bd b2 6a 78 3c 7f c3 20 3c
       0.104212515 -0.118679576 0.015162157 0.009812235
000110 27 8d 1e 3e 36 84 2d be 60 a3 be 3d 5e d2 e5 bd
       0.15483533 -0.16944966 0.09308505 -0.11221765
000120 cc 72 16 3c d0 8f 7a 3e f4 f6 4b 3e 67 2f 2f bd
       0.009182643 0.24468923 0.19918424 -0.042769816
000130 c8 f8 72 be 70 e5 91 3e 62 d7 11 3e 72 be 67 bd
       -0.23727715 0.2849536 0.14242318 -0.056578107
000140 37 7f 07 be 2d 28 67 bd f4 96 b0 3d 08 68 f6 bc
       -0.13232122 -0.0564348 0.08622542 -0.030078903
000150 f9 28 87 3e 67 4a b4 3e 0c df e7 3d 9f cc 5d be
       0.26398447 0.35213014 0.1132184 -0.21660088
000160 4b 9d 60 3e 37 20 09 3e 25 64 9e be 1f 9e 6b 3e
       0.21935003 0.13391195 -0.3093578 0.23009537
000170 f7 5d 2e 3d 90 1e 26 be 96 e6 67 3e 49 f7 5e be
       0.04257008 -0.16222596 0.22646555 -0.2177402
000180 e4 88 5b 3e 6c 8f 02 be 6e 85 da bd 6d ff 4f be
       0.21438938 -0.12750024 -0.10669981 -0.20312281
000190 92 ce 22 bd d4 22 82 be b7 5b 33 be 4c 19 b6 3d
       -0.039747782 -0.25417197 -0.17515455 0.08891544
0001a0 bd bc c8 3c 7f 89 05 be 2e 3d b6 bd ce d8 dd bc
       0.02450406 -0.13040732 -0.08898388 -0.02708092
0001b0 83 f9 4b 3e 66 82 6b 3e ab be 46 bb 13 73 48 bb
       0.199194 0.22998962 -0.003032605 -0.0030586168
0001c0 8c 98 ef 3d 73 6f 16 3e 75 17 38 3e b9 aa 8c 3e
       0.11699018 0.14690952 0.17977698 0.27474
0001d0 b4 f4 fd 3d 49 98 a6 3d 4f b8 85 3e 3d 64 62 3c
       0.12400189 0.08134515 0.2611718 0.013817844
0001e0 6f ce 83 3e ba a1 fb 3d 0f 28 b8 bd f9 f4 60 3e
       0.25743434 0.12286706 -0.089920156 0.2196845
0001f0 aa 68 21 be 65 8d 4a be a6 6d c5 3d 89 c7 2b 3e
       -0.15762582 -0.197805 0.096400544 0.16775335
000200 6c d0 64 3e 90 87 3e 3e 1e d0 69 be 03 c7 53 be
       0.22345132 0.186064 -0.22833297 -0.20681386
000210 34 4d 15 3e c4 1d 6b be e9 c9 08 be 92 18 27 3e
       0.14580232 -0.22960573 -0.13358273 0.16317967
000220 81 7c 8e be 22 e2 42 bd 8d 5e e4 bb 6f 40 8f be
       -0.27829364 -0.04757894 -0.006969279 -0.27978846
000230 9c 8e 2a bb df b5 a7 3e bb 31 8f bd d0 ba c7 3d
       -0.0026024943 0.32755944 -0.06991907 0.097524285
000240 de bc 78 be 0c 60 76 3e f2 b8 b4 bd d1 79 92 bd
       -0.24290797 0.24060076 -0.08824338 -0.07152141
000250 bf 02 ef bc 3a 62 84 3e 22 bd 7d be 09 04 1c be
       -0.029176114 0.2585619 -0.2477918 -0.15235914
000260 45 2c 31 be 88 36 96 3e 7d b8 18 be ff 6e 8d bd
       -0.17302044 0.2933848 -0.14914127 -0.069059364
000270 40 15 2f be ce 00 e8 bd a9 31 94 3d 1b c2 01 3e
       -0.1709795 -0.113282785 0.072360344 0.12671702
000280 87 9b 88 3e 66 a7 82 bd ef 2c 30 3e d0 78 41 3e
       0.26681158 -0.06379585 0.17204641 0.18893743
000290 24 98 8a be 12 62 86 3e 71 fb 80 3e cd a7 9a 3d
       -0.270692 0.26246697 0.25191835 0.07551537
0002a0 e7 be 8a be 42 9e 0a be 8e b4 b5 bd 9b 53 39 3e
       -0.27098772 -0.13536933 -0.08872329 0.18098299
0002b0 73 ce 9d 3e 57 b7 4b be 54 3b 40 be 97 53 d0 bc
       0.3082157 -0.19894157 -0.18772632 -0.025430484
0002c0 de eb 46 3e 50 d2 2e 3e c3 43 3b be 0c 39 17 be
       0.19425914 0.17072415 -0.18287568 -0.14767855
0002d0 cc 45 1f 3e 44 81 3f 3d ca e1 27 be 99 d7 8f be
       0.15553969 0.046754137 -0.16394725 -0.28094175
0002e0 b8 54 a5 3d 19 e8 74 be 3c b9 13 3d f8 f8 47 3d
       0.080727994 -0.23916663 0.036065325 0.04882142
0002f0 fa a9 f1 bd b8 41 82 be 9f 3c ba bd fc 97 17 3e
       -0.117999986 -0.25440764 -0.09093594 0.14804071
000300 b0 43 3a 3e 60 d0 7f 3e c6 b1 b3 3e a1 d5 2b 3e
       0.18189883 0.24981833 0.35096568 0.16780712
000310 98 af 69 be 39 34 4d 3e 9d fe 18 bd 84 4f 98 3e
       -0.2282089 0.20039453 -0.037352193 0.29748166
000320 6e 75 72 3e 25 e7 5f be 18 f4 8d 3e 4a 0c 8d be
       0.23677608 -0.21865518 0.2772529 -0.27548438
000330 73 8c 46 3e 95 9d 38 be b3 5c f9 3d 8b 88 85 be
       0.19389515 -0.18028863 0.12175884 -0.26080737
000340 fd 15 1c be 1c 4b 88 bd e1 e1 37 3c 7a d1 96 bd
       -0.15242763 -0.06654951 0.011223287 -0.07364173
000350 86 4e ee 3d 42 6b 8b be 7c fc 43 3e d4 b1 ed 3c
       0.11636071 -0.2723027 0.19139284 0.02901546
000360 32 f5 c0 3d 90 21 e1 bc 32 72 6f bd 04 c3 5e 3e
       0.09421767 -0.027481824 -0.058458515 0.2175408
000370 50 ca 37 3e d4 50 c9 bc b3 bc 37 bd 48 14 48 be
       0.1794827 -0.024574675 -0.044857692 -0.19538987
000380 3d 24 48 be 4e 05 33 be 4f 08 00 be d1 35 19 be
       -0.19545074 -0.17482492 -0.1250317 -0.14961936
000390 ac 1c 82 3d ba 19 d7 3d 41 85 d4 3d 7d 1c 8a be
       0.06353125 0.10502954 0.10376979 -0.2697486
0003a0 52 3b 06 3e 86 db 8f bd b7 de d7 3d bd ac cb 3d
       0.13108566 -0.07024293 0.10540526 0.099450566
0003b0 cb 34 60 be af 13 7f 3e 3b b9 c2 bc c4 ae 5a be
       -0.21895139 0.24909852 -0.023769965 -0.2135573
0003c0 ba f5 74 be 5c 48 ed bc 7e 85 58 3d 24 f4 41 bd
       -0.23921862 -0.028965168 0.052861683 -0.04735197
0003d0 82 37 84 be f8 b2 91 3d e0 ba 7e bd 4b a7 5f 3e
       -0.258236 0.07114214 -0.062189937 0.21841161
0003e0 28 3a 0b be 02 5b b8 3d 6c 36 3d be 19 d6 ac bd
       -0.13596404 0.09001733 -0.18477792 -0.084392734
0003f0 12 98 ea 3d 1e 24 77 be 12 fd 7e be 14 11 14 3e
       0.11454786 -0.24134871 -0.24901226 0.1445964

layers.0.bias f4 [64]
000000 bb 7d 68 bb 0f 6c e8 39 51 27 99 3b 74 ce bf ba
       -0.0035475332 0.00044330998 0.0046738763 -0.0014633671
000010 75 71 50 3b 90 63 91 ba 3e 5a 0c bb 6d ec 7e bd
       0.0031805907 -0.0011092294 -0.0021416093 -0.062237192
000020 2a 27 e0 3c e6 bb d9 ba 3c 11 1c 3b 8f 43 3e bc
       0.027362425 -0.0016611784 0.0023813983 -0.011612787
000030 db 7b 2a bd 84 2d ac 3b ae 1f 08 3b 83 e1 80 3c
       -0.041622024 0.0052544493 0.0020770836 0.015732532
000040 9d 47 f4 b9 00 9a a5 bc 21 fb 15 bc cf f6 86 3b
       -0.00046592663 -0.020215034 -0.009154112 0.0041187773
000050 54 f0 31 3b c6 bc 12 3d 25 84 40 3b 18 4a 6d bc
       0.0027151303 0.03582456 0.002937564 -0.014482997
000060 9f 32 7e 3b 80 45 93 ba 90 b7 3c 3c e9 f7 47 3b
       0.0038787497 -0.0011235923 0.011518374 0.0030512756
000070 65 f4 36 b7 f7 04 67 bb 1f b9 d9 3b d6 e0 bd 3b
       -1.0904948e-05 -0.0035250762 0.0066443826 0.005794625
000080 7d 81 d5 bb f5 7c d2 3a e0 0f d8 bb 49 4a ba 3b
       -0.0065156803 0.0016058969 -0.0065936893 0.005685125
000090 81 cc 77 3c 87 9f 78 3b f2 36 e0 3b 4d 5c b9 3b
       0.015124441 0.0037936883 0.0068424875 0.005656755
0000a0 eb 9c c2 3a 51 39 a9 3a d8 28 b6 3b 8a fa fa 3b
       0.0014847791 0.0012910758 0.005559068 0.007659261
0000b0 c4 d6 21 bc 6c 4c 0b bb db 31 66 3c cb 8e be bb
       -0.009877864 -0.0021255268 0.014049972 -0.005815362
0000c0 51 34 a0 ba 99 3a 45 bc 82 18 b7 39 17 bb 89 3b
       -0.0012222623 -0.012037897 0.0003492274 0.004203211
0000d0 15 e3 00 3d 51 0f ec 39 53 a0 22 bb d1 7f ce 3a
       0.031466562 0.0004502484 -0.00248148 0.0015754645
0000e0 e9 a6 1e 3c 6b 05 83 ba 33 61 67 3b 3e 8d 99 b9
       0.009683349 -0.0009996122 0.0035305738 -0.00029287668
0000f0 ce a5 24 3b 66 25 90 bb e4 5b c3 3b 4a 29 03 bc
       0.0025123241 -0.0043989895 0.005961882 -0.00800545

layers.2.weight f4 [64, 64]
000000 27 2e 44 3b 24 20 06 be c9 6c ac 3d fa af 72 3d
       0.0029934736 -0.13098198 0.084191866 0.059249856
000010 13 4a bb bd 53 53 f6 bc 4c b6 91 bc f9 79 ed 3d
       -0.09144988 -0.030069029 -0.017787121 0.1159553
000020 a9 1f c0 bd fb 17 22 be 97 d7 fa 3c 8a 4b b1 3b
       -0.09381039 -0.1582946 0.03062038 0.0054106163
000030 66 51 13 bd 6d de 15 3e 6f 85 20 bd 31 ce f9 bc
       -0.0359663 0.1463563 -0.039189752 -0.030493828
000040 76 02 74 bd d1 cf 13 3c 9f e2 d1 bd cd 99 aa bd
       -0.05957266 0.009021715 -0.10248303 -0.083301164
000050 e3 98 b2 bd b7 88 5d be 99 21 15 bb b6 30 96 3c
       -0.08720567 -0.21634184 -0.0022755621 0.018333774
000060 93 58 c2 3c 81 37 b8 bd 89 c4 97 3d 54 35 1b bd
       0.023723876 -0.089949615 0.07410533 -0.037892655
000070 89 2a ff bd 45 30 2d 3d c4 e3 3d 3e b2 52 f4 3d
       -0.12459285 0.04228236 0.18543917 0.119298354
000080 96 fa f2 3d a3 e0 2e 3e 4c 77 ef bd fa 96 8f bd
       0.11864202 0.1707788 -0.11692676 -0.07011218
000090 7e d8 f1 bd 6a 87 36 be eb 09 bf 3c 99 13 5d 3d
       -0.11808871 -0.17825094 0.023320159 0.053973768
0000a0 43 98 3b 3e 42 99 08 3e 5e 47 4f 3e f1 c0 06 be
       0.18319802 0.13339713 0.20242068 -0.13159539
0000b0 58 34 0d 3e 6a 12 d4 bd 43 4f 90 3d 48 b2 28 bd
       0.13789499 -0.10355075 0.07046368 -0.041185647
0000c0 99 f9 04 be 7f c3 ed bd 5f 00 0f be 52 28 09 be
       -0.12985839 -0.116095535 -0.13964985 -0.13394287
0000d0 96 3a 05 3d 00 06 18 be fa fe a5 bd 29 0a ee bd
       0.032526575 -0.14846039 -0.081052735 -0.11623032
0000e0 c9 f9 2f bd e8 5c c2 bc 1e da 57 be 1e b1 22 be
       -0.042962823 -0.023725942 -0.21079299 -0.15887877
0000f0 2d d1 cd 3d 72 a4 0e 3e 66 59 4e be bc a0 cb 3d
       0.10049663 0.13929918 -0.2015129 0.09942767
000100 b2 d1 57 3e cd 77 84 bd b7 f7 02 be 5e c6 5c 3e
       0.21076086 -0.06468163 -0.12789808 0.21560046
000110 0e 0e 35 be 09 23 83 3c 64 29 b9 3d 99 c3 04 3d
       -0.17681143 0.016007917 0.09041098 0.0324131
000120 47 cb 1b be 5f 04 b6 3d b1 76 44 3e cc cd a0 bd
       -0.15214263 0.088875525 0.19185902 -0.07851753
000130 0d 4f 81 3c 0c 89 05 3e b9 3a 39 3e 04 8c 2c be
       0.015784765 0.1304056 0.18088807 -0.16850287
000140 02 d6 01 3e 94 ad f0 bd 4a c9 ac 3c b5 0e 22 3d
       0.12679294 -0.117518574 0.021092076 0.039564807
000150 05 5b 03 bd 8d 97 6d bd 4c e3 d5 bd 74 61 dd bd
       -0.032069225 -0.05800586 -0.10443744 -0.10809603
000160 fd 4c 11 3c 4b 40 92 bc b9 eb fd bc 8c 95 7f 3d
       0.008868453 -0.017852923 -0.03099619 0.06239848
000170 94 43 85 3d b2 c1 bf bd 59 b2 ec bd 4c 8e 57 be
       0.0650703 -0.09363116 -0.115574546 -0.21050376
000180 b0 8a be 3d cc 47 84 3d 1b 25 dd bc 50 a9 2f be
       0.09303796 0.06459007 -0.026995232 -0.17154431
000190 07 c5 4b be c3 cd e2 bd 36 6e 4b 3e 0b 4c 11 3e
       -0.19899379 -0.11074402 0.19866261 0.14189164
0001a0 97 f4 c1 3b 40 ce 02 be 4c 4a e0 ba 90 ee 10 3e
       0.00591905 -0.1277399 -0.0017111986 0.14153504
0001b0 43 5e 35 3e 1d 09 52 be 20 68 5c be fa e1 47 3b
       0.17711739 -0.20511289 -0.21524096 0.0030499683
0001c0 29 69 c6 bc 5a 30 3b be 83 6d 84 bd c4 a1 a6 3d
       -0.024220066 -0.18280163 -0.064662 0.08136323
0001d0 3a 1f fd bd e8 9c 04 be 8a fe 32 3e ad cb 25 3a
       -0.123594716 -0.1295048 0.17479911 0.00063246005
0001e0 88 c6 81 bd 3d 66 9e 3d e3 af 41 3e e7 67 a9 3d
       -0.06336695 0.07734344 0.18914752 0.08271771
0001f0 28 78 c4 bd 35 74 54 3e c1 2e 63 bd e1 e3 17 3e
       -0.095932305 0.20747454 -0.05546451 0.14833023
000200 03 c4 d6 bb 28 5c 3b 3e fd bd e7 bd 26 03 0f 3d
       -0.006554128 0.18296874 -0.11315534 0.034915112
000210 36 21 27 be b1 ec 11 be 4d 10 26 be ab ba 4c be
       -0.16321263 -0.14250447 -0.16217156 -0.19993083
000220 d8 ad 7d 3d 98 60 fc bd 7e d4 27 be 09 e5 b2 bc
       0.06193337 -0.12323111 -0.16389653 -0.021837728
000230 ca f8 90 bd 5c d4 02 be f4 4e 13 3e 82 f0 ff 3d
       -0.07078703 -0.12776321 0.14385587 0.12497045
000240 f7 d5 62 3e 45 4b 34 be 0d 43 c5 bd cb 7c f3 bd
       0.22151934 -0.17606838 -0.096319295 -0.11889037
000250 98 48 aa bc d5 00 f5 bd 29 b8 da 3b 61 42 ba bd
       -0.020786569 -0.11963049 0.0066747856 -0.09094692
000260 a0 f2 5d be b2 ca a7 3d 41 f0 29 bc 34 85 aa 3b
       -0.21674585 0.08192958 -0.010372222 0.0052038673
000270 ca e8 43 be f1 fe 44 3d 5d 1c 44 be 74 82 fd bc
       -0.1913177 0.048094694 -0.19151445 -0.030945994
000280 3f e0 47 be 94 b8 df bd 0d 29 24 3e 2d c0 44 be
       -0.19519137 -0.10923877 0.16031285 -0.19213934
000290 25 67 3a 3e 09 b3 2a be 19 a4 96 bd d2 2d 25 3c
       0.18203409 -0.16669859 -0.07355518 0.010081725
0002a0 97 21 3d be 81 12 34 be e2 67 94 bd e4 62 9e bd
       -0.18469845 -0.17585184 -0.072463766 -0.07733706
0002b0 03 62 f0 3d c9 8d c7 bd 9b d2 3c 3e 01 86 ac bd
       0.11737444 -0.0974384 0.18439715 -0.08423997
0002c0 6c 86 d3 3b 18 c0 09 bb 81 61 97 3d 69 e5 f3 3c
       0.0064552333 -0.0021019038 0.07391644 0.029772477
0002d0 a4 b7 bb bc 78 eb 5a 3e 5d f0 b4 3d bb 2f fd 3d
       -0.022914715 0.21378887 0.08834908 0.123626195
0002e0 3b c9 e6 3d cb cc 4e bd 51 ab e1 3d 89 fa 31 3d
       0.112688504 -0.050488275 0.11019004 0.04345182
0002f0 ff 46 63 3d 65 9a 6f be d4 ad 27 3d db 54 12 be
       0.05548763 -0.2339874 0.04093726 -0.14290182
000300 5b 69 ec bd 35 44 e0 bd cb f9 15 be d0 17 41 3e
       -0.115435325 -0.109505095 -0.1464607 0.1885674
000310 d1 00 bc bd 69 f4 f7 bd b8 70 03 3d a0 0c 28 3c
       -0.09179843 -0.121071644 0.03208992 0.010256916
000320 2a ae 36 be 04 09 5c be a1 a8 23 be ae 7f 63 3e
       -0.17839876 -0.21487814 -0.15982296 0.22216675
000330 d7 12 0b be 4e 0c 27 ba 59 ac 22 3d 46 80 cf 3d
       -0.13581406 -0.0006372378 0.039715145 0.10131888
000340 80 83 05 be 87 e1 60 be 75 a3 4e 3e b9 64 fd 3d
       -0.13038445 -0.21961032 0.20179541 0.12372727
000350 ce f5 aa 39 4c 27 e9 3d 0e cc 25 be 1a 1b 22 bd
       0.00032608066 0.113844484 -0.16191122 -0.039576627
000360 1a b8 ea bd 3b a0 0a be 2a 55 d9 3d 1f a5 4f bd
       -0.11460896 -0.13537686 0.10611947 -0.05069458
000370 47 e7 0a be 06 0f 6f be be 9f 37 be 1b 7a 90 bc
       -0.13564788 -0.23345575 -0.1793203 -0.01763635
000380 9b 86 4e be 95 f8 3a be bc 96 04 be a5 0b 83 3c
       -0.20168535 -0.18258889 -0.12948126 0.015996763
000390 b3 d3 e9 3d 76 66 ba bd 02 bd fc bc 28 4e 76 bd
       0.114173315 -0.09101574 -0.030851845 -0.06013313
0003a0 82 30 c2 3c 95 3c 72 bd db ad 87 3d 14 56 11 3e
       0.023704771 -0.059139807 0.06624957 0.14192992
0003b0 1a 4b 5b 3c 6b be 01 3e f3 47 36 be 8a e1 a5 bd
       0.013384605 0.12670295 -0.17800884 -0.08099659
0003c0 26 e7 47 3e 8f c7 56 3e 07 25 56 be b2 1a c8 3d
       0.1952177 0.20974563 -0.20912562 0.09770717
0003d0 ae 10 a5 3c 03 db 37 be ad c9 23 be f5 e5 84 be
       0.020149555 -0.1795464 -0.15994902 -0.25956693
0003e0 fe 91 a4 3b 3b f9 e0 3d 37 a3 ca 3d 47 d2 19 be
       0.0050222864 0.10985037 0.09894412 -0.1502162
0003f0 4c 85 32 3e bd 7e 30 be af 2e 59 3e 9a 92 c5 bd
       0.17433661 -0.17235847 0.21209215 -0.09647103

layers.2.bias f4 [64]
000000 e1 d6 a7 ba 78 3f 03 bb 04 63 87 3c 56 04 51 3b
       -0.0012805128 -0.0020026844 0.016526707 0.0031893454
000010 21 79 af 3c c2 99 4f bb 28 cd a3 ba ea 94 52 3a
       0.021420063 -0.003167734 -0.0012497054 0.0008033054
000020 81 56 8a bb 00 7b ee 3a 3a 9a 2c 3b 0b 5c 11 3c
       -0.004221738 0.0018194616 0.0026337043 0.008872042
000030 26 a5 f8 ba b6 12 5b 3c 12 bb 7a ba c1 a9 a6 3b
       -0.0018970117 0.01337116 -0.0009564619 0.005086154
000040 94 e6 0f 3a 65 16 8a ba 51 a7 83 bc 30 20 b7 bb
       0.0005489376 -0.0010535239 -0.016070994 -0.005588554
000050 a4 3f 59 bb 91 ff a2 ba 93 46 c0 ba 51 82 2f bb
       -0.0033149505 -0.0012435784 -0.001466947 -0.0026780555
000060 fc fe 0d bc 6d 5f 19 3a 0f 49 ba 3b 4f c9 64 3b
       -0.00866675 0.00058507064 0.005684979 0.0034910028
000070 de da bb ba 19 69 85 ba 89 da 9a 3b 77 21 f0 3a
       -0.0014332195 -0.0010178416 0.0047257585 0.001832052
000080 c6 e1 bc bb ea 48 4a 3b e0 ad 81 3a b6 a2 f0 bb
       -0.005764219 0.0030866214 0.0009893738 -0.0073436154
000090 20 e8 de 39 b4 39 8b ba 3a 32 a1 bb 9d e1 54 3c
       0.00042516086 -0.0010622055 -0.0049193176 0.0129932435
0000a0 f9 e1 61 3b 8a 3d d9 3b b3 3c 09 3c bf ad 7e 3b
       0.0034466966 0.0066296505 0.008376288 0.0038860885
0000b0 7a 94 03 bb 74 1d 21 bb ac 1d 9a bc f8 b6 56 3b
       -0.0020077513 -0.0024584206 -0.018812977 0.0032762866
0000c0 1d 09 02 3c bb 66 26 bd 37 0e a3 3c 57 23 c6 bb
       0.007936743 -0.040625315 0.01990424 -0.0060466933
0000d0 50 f7 cf 3b c0 2a 10 bb 12 90 c0 b9 97 7d d1 ba
       0.0063466206 -0.0021998137 -0.00036728434 -0.0015982863
0000e0 d9 77 11 3c 10 cc d4 b9 bb 52 39 3c 0a 35 af 3b
       0.008878672 -0.0004058783 0.011311228 0.005346899
0000f0 ec c4 2f bb aa e0 a8 3a d6 eb 8c bb 24 a3 ee 3b
       -0.0026820255 0.0012884338 -0.004300575 0.0072826315

layers.4.weight f4 [64, 64]
000000 a1 f4 58 3d 70 4e 0f 3e 24 58 b0 bd 85 28 49 be
       0.05296767 0.13994765 -0.086105615 -0.19644363
000010 ae 3c 07 be de 2e 0b be 1f 53 63 bd bc 36 53 3d
       -0.13206741 -0.13592097 -0.055499192 0.05156587
000020 43 c5 74 bd f9 c2 90 bd 73 15 39 3d 23 5b bc bd
       -0.059758436 -0.07068438 0.04518647 -0.091970704
000030 c2 42 23 3e 3b 80 2f 3e 91 12 43 be 0c e5 2c 3e
       0.15943435 0.1713876 -0.19050051 0.1688425
000040 c5 a4 45 bd 0d 52 2d 3e ba c5 39 3b 0f 57 0d be
       -0.04825284 0.16925831 0.0028346614 -0.13802741
000050 30 d8 dd 3c 18 a9 36 bd cc d8 56 3e ee 25 a3 bd
       0.027080625 -0.044594854 0.20981139 -0.07966219
000060 4c 9b 45 be 95 ed 80 bd 4a 43 d4 3d b2 88 8e 3c
       -0.19297522 -0.06295315 0.10364397 0.017399166
000070 8a e7 f4 bd 17 64 c9 3c 3e 32 05 3e 0e 38 ad 3d
       -0.11958225 0.02458386 0.13007447 0.08457957
000080 a2 0c 85 bd 60 08 29 3e e5 84 00 be b5 2b 56 3e
       -0.0649655 0.16507101 -0.12550695 0.2091511
000090 06 a1 b7 3d 6b f0 da 3d f5 c1 56 3e 8a 7f a9 3d
       0.0896626 0.10690387 0.20972426 0.08276279
0000a0 8a eb 81 3e 42 4f 2f 3c aa a1 14 3e 3d 20 53 bd
       0.25375015 0.010700049 0.14514795 -0.051544417
0000b0 23 3d 5d 3c 1f 1a 74 3d 34 53 b3 bd d5 a4 27 3d
       0.013503346 0.059595224 -0.08756104 0.04092868
0000c0 f1 e1 2e be 5e 73 be 3d 3c 96 23 3e 3b 6d 03 3e
       -0.17078377 0.09299348 0.15975279 0.12834637
0000d0 d1 d2 0e bd 1e 45 a1 3c 36 3a 4d be d2 2e 3e bd
       -0.03486902 0.019686278 -0.20041737 -0.04643137
0000e0 a9 26 0f 3e 03 d4 92 bc 65 35 03 3e f1 c8 ad 3d
       0.13979591 -0.01792336 0.12813337 0.08485592
0000f0 21 86 32 bc 10 d0 ac bd be 35 21 be 65 b2 4a 3e
       -0.010896237 -0.08438122 -0.15743157 0.19794615
000100 47 43 28 3e 20 ca ab bc 3b 77 3e be c0 2e 81 be
       0.16431914 -0.020970404 -0.1860017 -0.2523098
000110 30 56 c5 bd aa a3 09 be aa 9a 9f 3e dd 70 cf bd
       -0.096355796 -0.13441339 0.31172687 -0.10128949
000120 7a 7d b1 bd b7 a1 d2 3d 09 7d d7 bd 77 c3 80 3d
       -0.08666511 0.10284751 -0.105218954 0.06287282
000130 38 1c 76 be 2b 4f 68 3c 3d 6e 02 be 3a 53 fe 3c
       -0.24034202 0.014179031 -0.12737365 0.031045545
000140 7a 33 f5 3c 44 49 a4 bd 3e c5 54 be 3a 9b d4 bb
       0.029931773 -0.08021787 -0.20778367 -0.006488231
000150 6e c3 19 3e 83 cd a2 3d b8 48 c3 3c 6e 1e 63 be
       0.15015957 0.079493545 0.023838386 -0.22179577
000160 cf 0d 31 be 59 8c 6b 3e 68 bc 45 3d f0 8d 8b 3d
       -0.17290424 0.23002757 0.04827538 0.06814182
000170 79 22 03 be 2c 66 e7 bd 46 36 70 bd dc e6 2c 3e
       -0.12806119 -0.112987846 -0.05864551 0.16884941
000180 d6 9a f8 bd b0 22 cd bd bf 32 92 3d e0 e9 18 3d
       -0.121389076 -0.10016382 0.07138585 0.037332416
000190 12 a3 43 bd 22 6b 0b be c0 31 bc be 70 c4 15 be
       -0.047762938 -0.13615087 -0.36756706 -0.14625716
0001a0 83 54 be 3d 11 92 c5 3d 3b 35 d7 3d cb 24 96 bb
       0.09293463 0.096470006 0.105082 -0.004582023
0001b0 02 be 1e bd 93 8e 80 bd 77 4a e6 bc ca 61 f6 bd
       -0.038755424 -0.06277194 -0.02811168 -0.120303705
0001c0 9a 43 e4 3d 4b 82 2e be 50 9b 25 3d b5 c0 5b be
       0.111457065 -0.1704189 0.04043132 -0.2146023
0001d0 bc c5 53 3e 29 bc dd bc 41 7b 28 3e e3 ab 91 bd
       0.20680898 -0.02706726 0.16453268 -0.07112863
0001e0 8c 4e 0b be a2 f9 d4 bd e9 e0 08 3e 06 b1 90 3c
       -0.13604182 -0.10399176 0.13367046 0.017662536
0001f0 cc ad ab 3b eb 33 bb bd a9 0a 8e be ee 29 ff bd
       0.005239224 -0.09140762 -0.27742508 -0.12459169
000200 54 43 a7 bc 22 b5 fd bc 0c 3f 33 be ca f6 b8 3c
       -0.020417847 -0.03097016 -0.17504519 0.022578616
000210 e1 0f 73 3e 84 5c 03 3d fb 98 cd bd c6 ba 83 3d
       0.23736526 0.03207065 -0.10038944 0.064321086
000220 cf e4 32 be 4d 41 7c be 02 eb 63 bd fb 98 84 be
       -0.17470096 -0.24634285 -0.055644043 -0.25897965
000230 b3 ab 3a 3e f7 a8 a6 bd 77 0e ae 3d 92 79 64 3e
       0.1822956 -0.08137696 0.08498853 0.22312
000240 f8 9b 59 be c6 42 82 3e 6e 5a 3e 3e e3 ae 0d be
       -0.21250904 0.2544157 0.18589184 -0.13836245
000250 5b 97 e6 3d 31 d3 94 3c 56 83 a9 3d 09 8c 65 3e
       0.112593375 0.01816711 0.082770035 0.224167
000260 5c 4a a3 bd 7f ba ab 3d 77 5b a9 3d e9 d2 54 be
       -0.07973167 0.08385181 0.08269399 -0.20783581
000270 50 bf 02 3e 9e 1e 93 3e 94 fc 48 be 21 85 33 be
       0.12768292 0.28734297 -0.19627601 -0.17531253
000280 e1 c3 0b be 49 3e 06 be cd 50 09 3e c3 a0 fe 3d
       -0.1364894 -0.13109697 0.1340973 0.124330066
000290 de d6 0d be f9 c6 31 3e 21 f1 13 be 8b dc 50 be
       -0.13851497 0.17361058 -0.14447452 -0.2039663
0002a0 f5 b4 67 be 9a 3f 43 bb 87 cd cb 3d 33 9e 0b be
       -0.22627623 -0.0029792548 0.099513106 -0.13634567
0002b0 66 22 6c bb 77 1a 22 3e a6 de 2f 3e 5c 85 80 3d
       -0.0036031245 0.15830408 0.17174777 0.06275436
0002c0 35 5b ad bd 14 56 9d 3d 77 91 4f 3e cf 4e 31 3e
       -0.08464662 0.07682434 0.20270334 0.1731522
0002d0 5b f4 ab 3d 9d ae 2c be fd 15 b6 3d 81 42 56 be
       0.083962165 -0.16863485 0.08890913 -0.20923807
0002e0 cb 85 ff bd 9d 6c 15 3d a4 c9 3f 3e b6 83 53 be
       -0.12476691 0.036480535 0.18729264 -0.20655712
0002f0 48 1a 24 be a6 aa 63 bd 95 30 ef 3c ad a9 49 be
       -0.1602565 -0.055582665 0.02919797 -0.19693632
000300 3c a6 16 3e 8e a0 a3 bc a7 45 94 3d b7 90 a6 bc
       0.14711851 -0.01997402 0.07239848 -0.020332677
000310 40 65 5f 3d e1 94 7c bd 1d d8 46 be 27 2b 08 3d
       0.05453992 -0.06166542 -0.19418378 0.03324428
000320 3f 6f bf 3c d6 a3 93 3d 5b 0a 51 3e c1 c6 81 3d
       0.023368476 0.072089836 0.20414107 0.063367374
000330 72 ea b1 3d 48 1f 1e be 36 86 52 bd 40 75 4c 3e
       0.08687295 -0.1544162 -0.051397525 0.19966602
000340 74 0e 9e bb c1 ff 0b 3d ae 74 e9 3c c2 8b 19 be
       -0.0048235003 0.034179453 0.02849802 -0.1499472
000350 d2 21 5a be 0f 87 16 be 4b 3a 85 3c d0 5b 4d 3e
       -0.21301964 -0.14699958 0.016263148 0.20054555
000360 f8 72 19 be 0d e2 d4 3d 3b 99 41 3e 25 c4 d5 bd
       -0.14985263 0.10394678 0.18906109 -0.10437802
000370 c9 dd 15 be 64 7a 22 be 28 a0 d5 bd 13 ea 92 3c
       -0.14635386 -0.15867001 -0.10430938 0.01793388
000380 fc 38 39 be 9a 9e c8 3d d7 27 1c be 61 ab 10 be
       -0.18088144 0.09795876 -0.15249573 -0.14127876
000390 3d 49 03 3e 98 45 88 3d be a1 19 3e 30 1a 6a bd
       0.12820907 0.06653899 0.15003106 -0.05715388
0003a0 66 e8 68 be 23 39 33 3d 61 54 5e 3e bf f5 3d 3e
       -0.22744903 0.04375566 0.21711875 0.18550776
0003b0 72 62 41 3e 77 f8 08 bd 59 a5 5d bc ab b5 f5 3d
       0.1888521 -0.03344008 -0.0135281915 0.11997541
0003c0 f8 cf 06 bc 43 0b 00 bc 3d 55 74 3c a8 92 29 3d
       -0.008228295 -0.007815185 0.0149129005 0.041399628
0003d0 17 9e f6 3d c4 2d 29 3e 3c 6f 16 3e df 19 32 be
       0.12041872 0.16521364 0.1469087 -0.17392682
0003e0 e6 6a 06 be 8a 45 25 bc 56 1e 44 3e 7f 25 92 bd
       -0.13126716 -0.01008738 0.19152197 -0.07136058
0003f0 78 53 d7 bc 31 e9 e7 3c 33 d5 d2 bd eb cc 0a 3d
       -0.026284918 0.028309437 -0.10294571 0.03388683

layers.4.bias f4 [64]
000000 19 f3 c6 3a 7a 60 d6 3d 8e d8 4c bc 88 19 d0 39
       0.001517865 0.1046762 -0.012502803 0.00039691874
000010 7c a3 d0 bb c4 7e 10 bc 37 90 17 3b ce 41 c4 ba
       -0.006367145 -0.008819286 0.002312673 -0.0014973225
000020 f2 1d 16 3c e2 75 a2 bc a2 bb 17 3b a2 5f 04 bc
       0.009162413 -0.019831602 0.002315261 -0.008079441
000030 92 8f da 3a e8 01 76 3a ba 46 70 3b 91 41 49 3b
       0.0016674867 0.00093844393 0.003666325 0.0030709247
000040 4a 1a 3f 39 c3 9e b1 3a 7a 2d 8f bc d8 df 69 bc
       0.00018224973 0.0013551343 -0.01747774 -0.01427456
000050 ed 0c 23 bb a6 0e 54 bb 08 a5 05 ba aa 19 6e ba
       -0.002487953 -0.0032357364 -0.0005098139 -0.0009082804
000060 2d 42 0d 3c 55 5c 1c ba fd ea 93 3a 85 db ec 3b
       0.008621735 -0.0005964686 0.0011285242 0.007228317
000070 9e a3 e1 3b 3d 4d 58 3b ca 5b 73 3c e2 24 3d 37
       0.0068859598 0.0033005022 0.014853427 1.1273865e-05
000080 e8 6b 2b bb fb 3c ee bb 3a df 99 bc c0 25 ce 3c
       -0.0026156846 -0.007270453 -0.0187832 0.025164485
000090 0e e2 46 3c 1e e6 1f 3c 50 4c 22 bc e0 9e b6 39
       0.012138857 0.009759454 -0.00990589 0.00034832116
0000a0 08 3b 8a bb c1 c9 28 3b ba 87 82 bb e2 0c 15 3b
       -0.004218463 0.002575502 -0.003983465 0.0022743274
0000b0 f1 12 94 bb cd 03 5f 3a 25 50 d5 3a b6 f5 1d 3a
       -0.0045188596 0.0008507341 0.0016274495 0.00060256885
0000c0 97 50 fe 3a e2 b9 04 bc 8f 63 2e 3a 27 22 ce b4
       0.001940268 -0.008100959 0.00066524086 -3.839534e-07
0000d0 68 74 9a ba a3 3e 0b bb dd f6 21 3c b7 6f a3 ba
       -0.0011783959 -0.0021247051 0.009885517 -0.0012469207
0000e0 d1 da 49 3c 43 04 70 3b 61 df c8 ba ac 8c d4 ba
       0.012320236 0.0036623634 -0.0015325361 -0.001621624
0000f0 4e b4 85 ba fa 67 b4 39 27 56 15 3c 0d d2 ac bc
       -0.001020083 0.00034409744 0.009114779 -0.021096254

layers.6.weight f4 [64, 64]
000000 e4 e2 55 be a6 27 46 3d 6f 0c 4c be 64 91 17 3e
       -0.20887333 0.048377655 -0.19926618 0.14801556
000010 40 33 05 be f9 a9 a4 bd be 55 34 be 90 e8 d3 3d
       -0.13007832 -0.08040232 -0.17610833 0.10347092
000020 10 3d 16 3e 7a aa 8a 3d b2 76 21 3c 44 d0 90 bd
       0.14671731 0.06770797 0.009854959 -0.070709735
000030 97 79 79 bd 86 4d 96 3b c5 45 46 3d 31 9e 49 3e
       -0.060906973 0.004586878 0.04840638 0.19689251
000040 d4 ce 8a 3d ab ba 73 bd 92 04 45 be d9 e0 17 3e
       0.067777306 -0.059504192 -0.19240025 0.14831866
000050 88 e9 c8 bd f9 02 35 bc 36 43 57 be b0 d5 da bd
       -0.098101676 -0.011048072 -0.21021733 -0.10685289
000060 06 a2 b8 3d 6a 2d 26 be 57 07 80 3d 97 93 61 3a
       0.090152785 -0.16228262 0.062514 0.00086050614
000070 95 49 37 bb a0 59 2d 3e 40 10 49 3e 4c 38 90 bd
       -0.0027967442 0.1692872 0.19635105 -0.07041988
000080 a0 e9 de 3c 8b 8a 25 3c be e4 32 be 0a d6 32 bd
       0.02721101 0.010103832 -0.1747007 -0.043661155
000090 cb c9 c8 bd 3a 82 be bd c8 19 50 3d 7c ac 1b 3e
       -0.09804114 -0.093021825 0.050805837 0.15202516
0000a0 ab 79 00 bd 7c 26 3b bd e1 e3 c0 3c 40 a8 b9 3d
       -0.03136603 -0.045691 0.023546161 0.09065294
0000b0 7b 12 f1 3d 39 d8 93 bc 9c 1e 4b 3e 68 c9 57 be
       0.11771103 -0.018047439 0.19835895 -0.21072924
0000c0 56 3a 03 be ed 33 9f 3d 9b 90 36 be 2e 3d 0f bc
       -0.12815222 0.07773576 -0.178286 -0.008742614
0000d0 2f bb 43 3e fb 88 6e 3d f2 1d 0d 3e 60 24 13 3e
       0.19114374 0.058236104 0.13780954 0.14369345
0000e0 0f 30 14 3d 9c 2f af 3d a4 9d 19 3e 0c fc 39 b9
       0.036178645 0.08554003 0.15001541 -0.0001773687
0000f0 aa 07 54 3e a4 5d 04 3e 4e bc 82 3d c9 62 27 be
       0.20706049 0.12926346 0.063835725 -0.16346277
000100 1b 2f 0a be a8 cf e1 bd b5 c0 29 3e 61 46 49 3e
       -0.13494532 -0.110259354 0.16577418 0.19655754
000110 74 78 8b 3e fa cf 99 3e 83 c8 5b be d2 00 b1 bd
       0.27240336 0.30041486 -0.21463208 -0.086427346
000120 c0 9c 04 3e 57 77 af bd e4 08 9b bd cb 29 41 be
       0.1295042 -0.08567684 -0.07570055 -0.18863599
000130 00 d9 b0 b9 af 0d 73 bd 01 80 48 3e 5b ce 20 bd
       -0.00033731014 -0.05933922 0.1958008 -0.039259296
000140 b9 61 13 3d da db 23 be 7d 94 7a 3e ce 28 a0 bd
       0.035981867 -0.16001835 0.24470706 -0.07820283
000150 59 9a 48 3e 24 be 51 bc 26 f8 70 3b 5c 10 6f be
       0.19590129 -0.012801681 0.0036769002 -0.23346084
000160 2d e3 1e be f5 c7 2d 3d d0 8e 28 3e d1 e6 86 be
       -0.15516348 0.042427022 0.16460729 -0.26347974
000170 45 24 f5 3c 90 ab 14 3e 62 79 22 3e ea bd 06 be
       0.029924521 0.14518571 0.15866616 -0.13158384
000180 6e b6 35 3e 3f 3b 46 3e dd 5b 56 be 30 39 7c be
       0.17745373 0.19358538 -0.2093348 -0.2463119
000190 a5 44 20 be ec c7 20 3e 3a f8 00 bc 7a 53 9c bd
       -0.15651186 0.15701264 -0.007871682 -0.076331094
0001a0 b5 96 55 bb b1 35 39 3e 13 cb 23 3e 05 13 6b 3e
       -0.003259105 0.18086888 0.15995435 0.22956474
0001b0 57 f4 91 3d 53 10 87 bd 11 8f 43 be d4 29 34 be
       0.07126682 -0.065949105 -0.19097544 -0.17594081
0001c0 1a a1 66 3e 78 f1 71 3e a0 d1 e8 bd 62 cd 67 bb
       0.22522393 0.2362727 -0.11368108 -0.003537022
0001d0 a8 99 23 3e e9 cb a6 3d cf 94 bb bd a8 bc 0e 3e
       0.15976584 0.081443615 -0.09159242 0.13939154
0001e0 22 47 1f 3e a5 c6 34 be a7 5b 3d 3d 60 38 bf 3d
       0.15554479 -0.17653902 0.046229985 0.093369246
0001f0 dc 1e 2a 3d 7c 8a eb bd bc 95 f1 bd e8 98 1f bd
       0.041533336 -0.11501023 -0.11796138 -0.038964182
000200 34 32 f0 bc 3a ee f0 bb b9 0e 4e be 66 63 28 bd
       -0.029320814 -0.0073526176 -0.20122804 -0.04111042
000210 3e 78 4a bc d6 57 2c be 30 59 05 be 71 85 31 3e
       -0.0123577695 -0.16830382 -0.13022304 0.1733606
000220 6b 7d 31 3e 74 a2 44 3b c9 fa f9 bd 81 99 5c 3e
       0.17333 0.0030004056 -0.122060366 0.21542932
000230 bf 11 c7 bd cf 30 32 be ef c5 36 3e 8d 88 68 bc
       -0.09720182 -0.17401432 0.17848943 -0.0141927125
000240 b9 9a 1c be 45 d8 a5 3d f7 10 a8 3d ed b7 69 3c
       -0.15293397 0.08097891 0.08206361 0.014265043
000250 80 10 3b be 24 18 01 be d2 77 15 be 1f df 53 3d
       -0.18268013 -0.12606865 -0.14596489 0.051726457
000260 79 5f 09 be eb 3f 8c 3c d2 7a ff 3d 5a 39 59 be
       -0.13415326 0.017120322 0.12474598 -0.21213284
000270 af 75 52 bd f3 94 e5 bd 0c 80 91 3d 47 4b 95 3c
       -0.051381763 -0.112100504 0.07104501 0.018224372
000280 76 ea 6d 3d 8f 5a cd 3b b1 a5 7e 3e 1b a4 a5 3c
       0.058084927 0.006266899 0.24867894 0.020219853
000290 cd 8f 4f 3d 81 3a 08 3e d9 e9 c8 3c 74 c1 3c 3d
       0.05067425 0.13303567 0.02452557 0.04608293
0002a0 aa 0d 5c bd 11 93 95 bb f0 73 f8 bd 52 55 7e 3d
       -0.05372397 -0.004564651 -0.12131488 0.062093087
0002b0 5c 7f 07 3e 3c 0c 09 be d7 15 5d 3e c6 cf 89 bd
       0.13232177 -0.13383573 0.21590362 -0.06729083
0002c0 21 eb 07 be ce ac 8e 3d 93 a2 e4 3c f2 0b e8 bd
       -0.13273288 0.06966554 0.027909553 -0.113304034
0002d0 e5 f1 b5 3c 8e 4f 10 3e 6f e3 fe bd 66 af f1 3d
       0.02221007 0.14092848 -0.12445723 0.11801033
0002e0 d2 61 3f 3e e3 07 66 3e 99 69 8c bd 76 a9 11 be
       0.18689659 0.22463946 -0.06856079 -0.142248
0002f0 b1 e5 65 3b 47 0b 82 3b 8b ae 62 3e 5d d8 17 3e
       0.0035079534 0.0039686295 0.22136895 0.1482863
000300 c0 67 08 3e 2f e3 5a 3e 99 33 e2 3c ac 33 a5 bb
       0.13320827 0.21375726 0.027612494 -0.00504156
000310 4a 04 1f be aa cf 6a bd 73 43 6c bc 8f 1d 3d be
       -0.1552898 -0.05732695 -0.014420378 -0.18468307
000320 02 08 a9 bc e5 7d cd 3d 02 37 9a bd 3e be 87 3c
       -0.020633701 0.10033778 -0.07530023 0.016570207
000330 4f 3b 35 3e 65 e8 99 bc 0c 4c e4 3d 6d e3 9d bd
       0.17698406 -0.018787572 0.11147317 -0.07709394
000340 12 82 16 be 36 24 64 3d c9 21 fe bd 15 96 1f be
       -0.14698055 0.055698596 -0.12408788 -0.15584596
000350 a6 60 0c 3e 94 d7 22 3e 28 a4 0a 3d 51 87 34 3e
       0.13708743 0.15902549 0.033847958 0.17629744
000360 84 f7 48 bd 90 9f ca bc 3e 46 df bc 57 c7 90 3d
       -0.049064174 -0.024734288 -0.027255174 0.07069271
000370 2c 28 41 bd d1 33 f7 3d 0e ce 21 be c0 06 33 be
       -0.04715745 0.1207043 -0.1580126 -0.17483044
000380 97 33 93 bd 9d 5a 01 3e 07 a0 5d be e3 11 4a 3e
       -0.07187574 0.12632222 -0.21643077 0.19733386
000390 2e 40 55 be d8 15 b2 bc 96 cf 26 be ee 29 2c 3e
       -0.20825264 -0.021738932 -0.16290125 0.1681287
0003a0 dd ad e4 bd e2 ff a1 bd 5f ba 2f 3e 15 7e 5a be
       -0.11165974 -0.07910134 0.17160939 -0.21337159
0003b0 07 31 84 3d db de 40 3e 9e 16 bf bd 30 19 4f bd
       0.06454664 0.18835013 -0.09330486 -0.05056113
0003c0 32 6f 97 3c 40 fa 27 be c7 6a 29 bd 19 36 89 bc
       0.01848564 -0.16404057 -0.041361596 -0.016749429
0003d0 a0 ee 33 be b6 2c 9d bd 1a 3d c4 bb 05 44 0e 3d
       -0.17571497 -0.076745436 -0.005988729 0.034732837
0003e0 80 99 d6 3d db d3 12 3e c0 23 0a be d1 a9 1d 3e
       0.104784966 0.14338629 -0.134902 0.15396811
0003f0 b7 a2 53 be f6 27 0a be ff cc 2a bd 84 55 3d be
       -0.2066754 -0.13491806 -0.041699406 -0.18489653

layers.6.bias f4 [64]
000000 6f 0a 63 39 8e 0f a9 bd d5 1e 30 3b b3 5d 68 3a
       0.00021652294 -0.0825492 0.0026873846 0.000886406
000010 ee ac 20 bb 31 04 23 3b f4 09 bb bb 00 08 06 bc
       -0.0024517137 0.0024874324 -0.0057079736 -0.008180618
000020 83 44 f1 bb 13 a1 f2 b6 df 17 95 39 5d 6f b2 3b
       -0.0073629036 -7.2309135e-06 0.0002843728 0.0054454044
000030 f4 fe 2c 3b cd 47 5c ba ec 98 4f 3a c8 34 61 bd
       0.002639708 -0.0008403033 0.00079192105 -0.054981977
000040 6e ad 82 39 91 26 e4 3c 3e b0 61 bb 82 13 bc bb
       0.00024924747 0.027850421 -0.0034437324 -0.00573963
000050 fd fe 56 3a 30 01 a8 bb aa fc 9c 3b 09 5c e7 ba
       0.00082014484 -0.0051270947 0.004790862 -0.001765133
000060 69 c1 fb 3b 5c bc 2b 3a 5f b3 2e 3b 39 40 f1 3a
       0.0076829684 0.00065512 0.0026657206 0.0018405981
000070 64 05 07 3b a1 c8 44 3b 67 5d 13 bb 98 28 81 3b
       0.0020602578 0.003002681 -0.0022486092 0.0039416067
000080 71 f2 5f b8 c4 f0 5c ba dc 11 3c 3b 1a 85 9f ba
       -5.3393134e-05 -0.0008428211 0.0028697168 -0.0012170405
000090 d4 a9 1a bc 3e 48 aa 3b e2 9c 26 bc 4b ce 3b bd
       -0.009439904 0.0051966 -0.01016924 -0.045851033
0000a0 57 87 2f 3a 06 8c b1 bc e4 1d 3a 39 1e 50 a8 39
       0.00066958874 -0.021673214 0.00017749477 0.0003210315
0000b0 d3 98 38 3b 98 94 37 3a 9e 4d a0 bb d4 5c 89 3a
       0.0028167262 0.0007003038 -0.004892065 0.0010479935
0000c0 d6 02 b4 3d 93 51 1e 3a 8b 36 52 ba 5c 66 c7 37
       0.087896034 0.0006039377 -0.0008018992 2.3770313e-05
0000d0 26 56 b8 3b 39 3d ee 3b 78 95 a8 3a aa f0 60 ba
       0.005625504 0.007270482 0.0012861928 -0.00085807836
0000e0 11 67 e5 3a 58 b8 fa 39 07 1d d2 b8 1d 69 a1 bb
       0.001750203 0.00047821063 -0.00010018987 -0.0049258606
0000f0 cc 54 c4 3b bb b9 2e 3b 6e c6 bd 3c a3 55 91 b9
       0.005991554 0.0026660997 0.023165908 -0.0002772036

layers.8.weight f4 [64, 64]
000000 3c 59 97 bc 72 c5 f0 3d f5 63 1f be 75 58 1c 3e
       -0.018475167 0.1175641 -0.15565474 0.15268119
000010 8e c9 bb 3d 44 c2 c4 3d f6 b1 1c 3e 5e 23 55 3e
       0.09169303 0.09607366 0.15302262 0.20814273
000020 14 1f c7 bd 2b 86 cb bd 12 37 50 3e 57 79 1e 3e
       -0.097227246 -0.099377 0.20333508 0.15475975
000030 8c fb f6 3d 17 7f 27 3e 25 39 aa bd 5d 09 ce bd
       0.120596975 0.16357075 -0.08311681 -0.1006038
000040 60 6c d1 3d 8a 3e 52 be 22 49 f5 3d e5 f0 31 be
       0.10225749 -0.2053167 0.119768396 -0.1737705
000050 49 8f e2 bd 38 20 f2 3d 31 3d a7 bd 52 da 58 be
       -0.11062486 0.118225515 -0.08165968 -0.21177033
000060 ae 7d 0b 3e 54 20 d3 bd f8 4e bd bd ab 92 00 3e
       0.13622162 -0.103089005 -0.09243578 0.1255595
000070 02 de 68 bd e0 12 5b be 72 ca 6c 3c 19 c6 15 be
       -0.05685235 -0.21393919 0.014452564 -0.1462635
000080 d6 2c a4 bd e3 cf 1f 3e e6 10 92 bc 90 2e 21 bd
       -0.08016364 0.15606646 -0.017830323 -0.039351046
000090 d0 07 84 bd 41 fe 4d be 46 7e 48 be f9 01 a6 bd
       -0.064468026 -0.20116521 -0.1957942 -0.08105845
0000a0 e1 92 33 3e 35 95 49 3c 49 c8 2d 3d d7 f0 52 be
       0.17536499 0.01230364 0.042427335 -0.20599686
0000b0 53 76 20 be ed 9f a7 3d c7 c7 1d 3e ee 6d 18 be
       -0.15670137 0.081848 0.1540824 -0.14885685
0000c0 ca 70 d7 3a 12 88 27 bd 18 7c 50 bd 9f 93 2c be
       0.0016436812 -0.04090125 -0.050899595 -0.16853188
0000d0 24 72 3a be f2 7a 40 3e 2a fc 5f be 91 72 eb 3c
       -0.18207604 0.187969 -0.21873537 0.028741153
0000e0 43 20 02 3d 9e 9d 93 3d 92 08 25 be 09 cd 2f 3e
       0.03176905 0.072077975 -0.1611655 0.17168058
0000f0 e2 25 43 bd 48 05 24 3e 29 9f 0c be fe 31 df 3d
       -0.04764355 0.1601764 -0.1373259 0.10898207
000100 08 d0 4f bc 8c e6 07 be 7f 5e d6 3d ce dd 38 3e
       -0.012683876 -0.1327154 0.104672424 0.18053362
000110 17 55 30 3e 92 00 ee 3d 37 5e 1c bd 9a a0 39 be
       0.17219959 0.116212025 -0.038175788 -0.18127671
000120 37 f8 c2 bd e3 6b 47 be ef df 1c 3d 0d a2 84 bd
       -0.095199995 -0.1947475 0.038299497 -0.06476221
000130 b9 f4 29 3e db c8 4b be ad e0 bb 3d e7 d9 c0 3d
       0.1659726 -0.19900839 0.09173713 0.094165616
000140 97 6a c0 bd 62 82 4e be c3 ec 3f 3e c8 ab 0c be
       -0.093953304 -0.20166925 0.18742661 -0.13737404
000150 c3 e4 34 3e bc 66 3a be 00 39 f8 bd 57 d8 43 3d
       0.1766539 -0.18203253 -0.12120247 0.04781374
000160 9e 76 39 be 8e c0 3d be 6a c2 3d be ca 2c 2d 3e
       -0.18111655 -0.18530485 -0.18531194 0.16911617
000170 5b d6 52 3e 79 6d 3f bd 81 bb fe bd 4c b0 b9 3d
       0.20589583 -0.04673526 -0.12438107 0.09066829
000180 dd f2 d3 bd cb f4 0f 3d 6f ad 16 3c a5 3f b4 3d
       -0.10349057 0.035145562 0.009196623 0.08801202
000190 1c 33 58 3e 8c 43 a9 3d 7d 27 46 3e ed 43 38 3e
       0.21113247 0.08264837 0.19351001 0.17994662
0001a0 d5 d2 6f 3d 5b 94 33 be 10 9d bf bd 4e 8e 92 3c
       0.058550674 -0.17537062 -0.09356129 0.017890122
0001b0 25 4d 45 3d 16 18 b7 bd 90 fd 9f 3c 4f 0f 04 3e
       0.048169274 -0.08940141 0.019530088 0.12896465
0001c0 39 32 0a 3d 96 04 cd bd b1 ad 4c 3e bf 04 df 3c
       0.033739302 -0.1001064 0.19988133 0.027223943
0001d0 9d 0b d1 bd 6d d0 d8 bd f5 cb 82 bd 79 7d 26 3e
       -0.10207293 -0.10586629 -0.06386558 0.16258802
0001e0 4a 79 47 be 8a 94 4a be 72 16 06 3e f1 1f 2e 3e
       -0.19479862 -0.19783226 0.130945 0.17004372
0001f0 cf f4 0b be 2c 61 aa bd a8 b4 05 3e 80 26 72 3d
       -0.13667606 -0.08319315 0.13057196 0.059118748
000200 d1 a9 f6 3b 8c 3f 0a be c0 d9 15 be c2 27 1c 3e
       0.007527568 -0.13500804 -0.14633846 0.15249541
000210 21 26 f4 bd b0 cb 3e 3d a0 7e 72 3d b6 b5 02 be
       -0.11921335 0.04658097 0.05920279 -0.1276463
000220 68 cd aa bd 8e a1 94 bc c1 d7 bd bd 9a 26 3a be
       -0.083399594 -0.018143442 -0.092696674 -0.18178788
000230 12 73 10 3d a1 20 f4 bb 9f 2a 0e be 7b 76 92 bb
       0.03526599 -0.0074501787 -0.13883446 -0.0044696904
000240 11 98 62 bd 08 27 f2 bd 1b 4e fe bd d6 ed 17 be
       -0.055320803 -0.11823851 -0.12417241 -0.14836821
000250 6d e8 dc 3d ef 40 f8 bc 08 76 da bd 1d 11 a7 3d
       0.10786519 -0.0303044 -0.10667044 0.08157561
000260 f5 fe f8 3d a7 e6 2d 3e 0d cf 2e 3e a9 ad c1 bd
       0.12158004 0.16982518 0.17071171 -0.09456951
000270 20 96 2c be 2f 9c 4e 3d e4 20 63 be 07 4c 47 bd
       -0.16854143 0.050441917 -0.22180516 -0.04865649
000280 03 52 2e 3e d8 5e 92 3d 4b 8f ad 3c 29 bf 80 3c
       0.17023472 0.07146996 0.021186491 0.015716152
000290 49 8b 33 3e 07 69 2d 3e b0 27 f7 bb 11 77 3a bd
       0.17533602 0.16934596 -0.007542573 -0.045523707
0002a0 f6 e8 59 ba 85 41 45 bd a4 b3 3f 3e 12 cb 4a 3e
       -0.0008312607 -0.048158187 0.18720871 0.19804028
0002b0 55 68 ee bd fd ed 21 be 2b d0 ee 3d 07 97 80 3d
       -0.116409935 -0.15813442 0.11660799 0.06278806
0002c0 7e 6d 31 be 86 54 5b 3c b0 35 17 3d 98 34 00 bd
       -0.17326924 0.013386851 0.036916435 -0.031300157
0002d0 cc 34 e5 bd 5e bb 25 3e 7d 79 78 3d e9 f0 05 3e
       -0.11191711 0.16184756 0.060662735 0.13080181
0002e0 ec b9 32 3e 19 73 1b 3e bd a2 be bd aa 0e 8d bd
       0.17453736 0.15180625 -0.093083836 -0.068875626
0002f0 69 21 0d 3e fe 7f 64 3d 3d 41 91 3d 65 70 39 be
       0.13782276 0.055786125 0.07092521 -0.18109281
000300 2d 96 e2 bd 01 88 9f bd 2e 94 2e be 5c bd 39 3e
       -0.110638 -0.077896126 -0.17048714 0.18138641
000310 8b 44 0a be 57 f0 60 3d 71 bd 4b bd 93 c4 c4 3d
       -0.1350271 0.054916706 -0.049741212 0.09607806
000320 20 ab 29 3e 74 92 19 3e 34 d4 00 be 89 0c 48 be
       0.16569185 0.14997274 -0.12580949 -0.19536032
000330 69 be 0a be 65 8a 05 be f5 49 70 3e 33 49 09 3e
       -0.13549198 -0.13041075 0.23465712 0.1340683
000340 ea 67 3a 3e 6f 4e bd 3c fd a8 68 3e 1b 20 c4 3d
       0.18203703 0.02310869 0.22720714 0.09576436
000350 88 c9 75 3d df 41 25 be 65 dc ea bd 92 42 28 3e
       0.06000665 -0.16138409 -0.11467818 0.16431645
000360 1e 21 88 bd 97 8e 36 3e a4 f4 0e 3d 18 b3 50 be
       -0.066469416 0.17827831 0.034901276 -0.20380819
000370 f6 05 e7 bd 1a 6d 96 3b 3e 7d 68 3d de b6 85 3d
       -0.11280434 0.0045906426 0.056760065 0.0652902
000380 9f 88 fc bc 82 49 4c 3e 87 2d 1f bc f4 45 45 bd
       -0.030826865 0.19949916 -0.009715444 -0.048162416
000390 11 f4 98 bd 2c c4 00 3e d5 47 80 3d a9 56 b7 3b
       -0.07468427 0.12574834 0.06263701 0.0055950475
0003a0 29 8f 7f bd d0 73 db 3c fa 0c bc bd a2 ce 2e 3e
       -0.062392388 0.026788622 -0.091821626 0.17071012
0003b0 49 04 9d bd 99 65 48 3c b1 4f 43 be 2d b8 37 3d
       -0.07666833 0.012231254 -0.19073369 0.044853378
0003c0 c1 8e b6 bb ed 26 14 3e 38 35 23 bd 39 ab cc 3d
       -0.005571217 0.14467974 -0.039845675 0.09993596
0003d0 bf 98 4c be 7b 05 1d 3c be 9b 33 3d cf d0 57 be
       -0.19980143 0.009583826 0.0438497 -0.21075748
0003e0 ed 88 78 bd 93 38 b7 3c 8b 8a 33 3e 6d 75 8a bd
       -0.060677458 0.022365844 0.17533319 -0.067606784
0003f0 0c 84 2a 3e b5 11 e9 bd fd 5a 20 3e 1d 31 f1 3d
       0.16651934 -0.113803305 0.1565971 0.11776946

layers.8.bias f4 [64]
000000 8f c1 c8 ba 3a 43 c2 3a 37 25 ca 3b 24 cc 80 bb
       -0.0015316474 0.001482106 0.006168987 -0.0039305855
000010 0e c5 c9 ba 3d ad 2b ba 2b 09 0a b9 25 fa dd ba
       -0.001539381 -0.0006548947 -0.00013164121 -0.0016935511
000020 ef 75 05 3a ec f5 da 3a 63 c1 e3 3a 9a a9 7b ba
       0.0005091121 0.001670537 0.0017376359 -0.0009600163
000030 15 de a0 3b 7a 8d ed ba 20 ad 08 bb a8 9d b2 39
       0.0049092867 -0.0018123828 -0.0020855144 0.0003406827
000040 68 77 8f 3a 0c 61 15 3a e4 2a 23 3a b4 37 f4 bb
       0.001094562 0.000569836 0.0006224348 -0.0074529294
000050 45 59 3a 3a 63 59 82 b9 7b 84 99 3b c4 0e db 3a
       0.0007108639 -0.0002486213 0.0046849824 0.0016712775
000060 37 33 0c ba fa 8b d1 39 c9 1f 25 b9 1f 81 11 3c
       -0.0005348208 0.00039967877 -0.00015747467 0.0088808825
000070 1d 5b da ba 7a f4 b3 bb b8 63 cf 3b d5 fe 67 b9
       -0.0016659234 -0.0054917904 0.006329026 -0.00022124809
000080 89 5b 40 ba f4 23 e2 bb 6d f4 7d 3a df d0 99 3a
       -0.00073378586 -0.0069012586 0.00096876064 0.0011735222
000090 b1 ea 97 b6 08 93 89 bc 7a 85 a5 3b 50 e2 4f 39
       -4.5274724e-06 -0.016793743 0.005051312 0.00019825366
0000a0 15 f7 66 bb 77 60 c2 3a c7 82 39 ba a3 53 57 3b
       -0.0035242487 0.0014829774 -0.0007076677 0.0032856248
0000b0 05 ab 0b 3a 48 52 c1 ba 5f 90 3b bb ff 9b f9 3a
       0.0005327913 -0.0014749253 -0.0028619987 0.0019043683
0000c0 d1 dd 37 bb 65 08 67 3a e3 82 13 bb 3b 57 b7 b8
       -0.0028055797 0.00088132016 -0.0022508434 -8.742368e-05
0000d0 74 a1 e8 ba 17 5c 02 bb 97 79 e3 3b de 1a 34 bb
       -0.0017748312 -0.0019891316 0.006941985 -0.0027481834
0000e0 a7 b8 4a 39 f4 0a 82 b9 af a6 da ba fd 8b c1 39
       0.0001933301 -0.00024803693 -0.0016681756 0.00036916128
0000f0 f6 70 a0 3a 56 9d f5 ba ff 1a a1 b8 34 c0 c7 bb
       0.0012240696 -0.0018738906 -7.682107e-05 -0.0060959104
