data/20240122/state_net_8000.pth (torch, 90538 bytes, 14 tensors)

layers.0.weight f4 [64, 5]
0	0xbe9c40a8	-0.3051808
1	0x3d8031cf	0.062595
2	0x3e9a3dbf	0.30125234
3	0xbe04d90e	-0.12973425
4	0xbc8617d6	-0.016368788
5	0x3df5d96f	0.12004363
6	0xbcc7eb09	-0.024404066
7	0xbd39f796	-0.045402132
8	0xbe5a1d41	-0.21300222
9	0x3ec48e46	0.38389796
10	0x3de3f040	0.111298084
11	0xbea126c8	-0.314749
12	0x3e48dbe9	0.19615139
13	0xbe0e4822	-0.13894704
14	0x3ee2597d	0.442089
15	0xbe3fd1cb	-0.18732373
16	0x3e13d70b	0.14437501
17	0xbe37fb93	-0.17967062
18	0x3d37af0e	0.04484468
19	0xbd7eb679	-0.06218574
20	0xbaa942a3	-0.0012913536
21	0xbe5e41e1	-0.21704818
22	0x3ddfba8b	0.10924252
23	0xbe809620	-0.25114536
24	0xbe40abde	-0.18815562
25	0x3ea67b67	0.32516024
26	0xbe6f50ce	-0.23370668
27	0xbe92668b	-0.2859386
28	0x3e7cb011	0.24676539
29	0xbe793ec4	-0.2434035
30	0xbe27d951	-0.16391493
31	0xbde84b73	-0.11342516
32	0xbdafd284	-0.085850745
33	0x3c9e26b8	0.019305572
34	0x3e43ae0a	0.1910936
35	0x3d091720	0.03346932
36	0xbc9b10bb	-0.018928876
37	0xbda16191	-0.078799374
38	0x3e063431	0.13105847
39	0x3df365ee	0.11884676
40	0xbe6e7617	-0.23287235
41	0xbe61066b	-0.21975105
42	0xbe8921ef	-0.26783702
43	0x3dfe3396	0.12412183
44	0x3e8d7c5b	0.27633938
45	0xbe5e4e19	-0.2170948
46	0x3e49cced	0.19707079
47	0xbc1c7cae	-0.00955121
48	0x3e49339e	0.19648597
49	0xbe4dc7c1	-0.20095731
50	0xbcf93051	-0.030418547
51	0x3ea104c6	0.31448954
52	0x3cbbc511	0.022921117
53	0x3d0806ba	0.03320954
54	0x3e4c729b	0.19965594
55	0xbcad3482	-0.021143202
56	0xbb88ece6	-0.004178631
57	0x3e8c6a09	0.27424648
58	0x3cd23452	0.025659714
59	0x3e4a9a4f	0.19785427
60	0xbe9c86f7	-0.3057172
61	0x3ea44213	0.3208166
62	0x3ce2c16f	0.027680127
63	0xbe26492d	-0.16238852
64	0x3da52c8e	0.08065139
65	0xbe5d7c74	-0.21629506
66	0x3e96f468	0.29483342
67	0xbdfc4704	-0.12318233
68	0xbd588257	-0.052858677
69	0x3e360153	0.17773943
70	0x3e40015d	0.1875052
71	0xbe60c957	-0.21951805
72	0xbdbba170	-0.09161651
73	0x3e66028a	0.22461906
74	0x3e1b0acc	0.15140837
75	0xbd268e46	-0.040663026
76	0x3c2e95fa	0.010655874
77	0xbe0e6dcf	-0.13909076
78	0x3d5d2f2d	0.05400007
79	0x3e699035	0.22808917
80	0x3cbe4218	0.023224875
81	0x3ed22193	0.4104124
82	0x3e6e3076	0.23260674
83	0xbe12567e	-0.14290807
84	0x3eacaa6a	0.33723766
85	0x3e5c01d9	0.2148508
86	0x3e209e46	0.15685377
87	0xbe72ef63	-0.23724131
88	0xbd246bdf	-0.040141936
89	0x3e849c22	0.2590037
90	0x3e72a39f	0.23695229
91	0x3eb56819	0.35430983
92	0xbe6dd334	-0.23225099
93	0x3dfa4d99	0.12221832
94	0xbe0f4e90	-0.13994813
95	0xbe47a8a0	-0.19497919
96	0xbe3aa371	-0.1822641
97	0x3dbed897	0.09318655
98	0xbd5d2c01	-0.053997044
99	0x3e3ba439	0.18324365
100	0x3e8f581d	0.27996913
101	0x3e7f81b4	0.24951822
102	0xbe8a5b06	-0.2702257
103	0xbe12c7c5	-0.14334019
104	0x3df159d3	0.11784711
105	0x3e667613	0.22505979
106	0x3dbc65c9	0.091991015
107	0x3e5cd644	0.21566111
108	0x3d95593b	0.0729241
109	0x3e9326a3	0.28740415
110	0x3e11edd0	0.14250875
111	0x3e91563d	0.28386107
112	0xbeaf13f9	-0.34194925
113	0xbe7c93dc	-0.24665779
114	0xbe070696	-0.13186106
115	0x3e8add34	0.2712189
116	0xbe484c59	-0.19560374
117	0xbe39b996	-0.18137202
118	0xbda54648	-0.08070046
119	0xbde05600	-0.10953903
120	0xbbd3c690	-0.0064628795
121	0xbe877f24	-0.26464188
122	0x3e64ee99	0.22356643
123	0x3e952bef	0.2913508
124	0xbe09f5ee	-0.13472721
125	0x3e81ef52	0.253779
126	0xbc64192d	-0.013922018
127	0x3e573de2	0.210197
128	0x3c797fde	0.01522824
129	0xbb513102	-0.003192008
130	0x3e8aaac1	0.270834
131	0xbe353cfe	-0.17699048
132	0xbe762fae	-0.24041626
133	0xbe82e4d8	-0.2556522
134	0xbd4d5307	-0.05012801
135	0x3da38942	0.07985164
136	0x3dfcb45a	0.12339087
137	0xbde767bb	-0.11299082
138	0xbe555300	-0.20832443
139	0xbb289ad5	-0.0025727053
140	0x3e88d0be	0.26721758
141	0x3e0f3113	0.13983564
142	0xbd8cbb31	-0.068716414
143	0xbe398be3	-0.18119769
144	0x3b5998e1	0.0033202695
145	0xbe0caa9f	-0.13736962
146	0xbe618420	-0.22023058
147	0x3e4e020b	0.20117967
148	0x3d2f604a	0.042816438
149	0x3e565152	0.20929459
150	0x3e4ef57b	0.20210831
151	0x3e626e4a	0.22112384
152	0x3e32fc20	0.1747899
153	0x3e4d2833	0.20034866
154	0xbdb71565	-0.089396276
155	0xbc25d9fc	-0.010122772
156	0x3d6f366f	0.05840152
157	0x3e4bc496	0.1989921
158	0x3d8fb1fb	0.07016369
159	0x3e13800f	0.14404319
160	0x3dee3b70	0.116324306
161	0xbd9e4b3c	-0.077291936
162	0xbe194e04	-0.14971167
163	0xbdb3660d	-0.08759699
164	0x3e020581	0.12697412
165	0x3e4d701a	0.20062295
166	0xbde5f755	-0.112288155
167	0x3e379e1e	0.1793141
168	0x3e5b5159	0.2141775
169	0x3e735e75	0.23766501
170	0xbcd7676f	-0.026294438
171	0xbc76708a	-0.01504148
172	0x3e9df9d0	0.30854654
173	0x3e102085	0.14074905
174	0xbe72dc87	-0.23716937
175	0x3cb1e3fd	0.021715159
176	0x3e9a686d	0.30157796
177	0xbd823477	-0.06357663
178	0xbe3a45b2	-0.18190649
179	0x3c3828a8	0.011240162
180	0xbe9dbc7e	-0.3080787
181	0x3e8ad9d7	0.27119324
182	0x3e371fc7	0.17883216
183	0x3cfff7ef	0.031246154
184	0x3d38592c	0.045006916
185	0xbe2bfab0	-0.16794848
186	0xbddb1302	-0.10696985
187	0xbd80a4b4	-0.06281415
188	0x3e2f1b92	0.17100361
189	0x3e6e2bc3	0.23258881
190	0xbe162d29	-0.14665665
191	0x3d9e77f9	0.07737727
192	0x3e115bb6	0.14195141
193	0xbe830393	-0.25588664
194	0x3e648a3a	0.22318354
195	0xbe7c8017	-0.24658237
196	0xbe6babae	-0.2301471
197	0xbdd215ba	-0.1025805
198	0x3cfa372a	0.030543882
199	0xbe19777d	-0.14986987
200	0x3bd509b7	0.0065014022
201	0x3a99120d	0.0011678353
202	0x3e9c17d3	0.30486926
203	0xbe2d6954	-0.1693471
204	0xbe9d0eb4	-0.3067528
205	0x3d8646a3	0.06556442
206	0x3d24c383	0.040225517
207	0x3dbc9495	0.09208027
208	0x3db274a6	0.08713655
209	0x3e91c5b9	0.28471163
210	0xbe7acdcd	-0.2449257
211	0x3e5fd2a9	0.21857704
212	0xbced8366	-0.02899332
213	0x3e643ec9	0.22289576
214	0x3e3c8255	0.18409093
215	0x3d13862d	0.036016632
216	0xbd1a1f34	-0.037627414
217	0x3e2d9261	0.1695037
218	0x3dbc72d7	0.092015915
219	0x3e61b6e5	0.22042425
220	0x3d8c4c0d	0.06850443
221	0xbe3f960a	-0.18709579
222	0xbe8b4630	-0.27201986
223	0xbe0e1174	-0.13873845
224	0xbd69f832	-0.057121463
225	0x3e1826fc	0.14858621
226	0xbe8d5dab	-0.27610525
227	0xbd39ece9	-0.04539195
228	0x3e1f32f1	0.15546776
229	0x3e8184a4	0.2529651
230	0xbe10f0f6	-0.1415442
231	0xbe66c003	-0.22534184
232	0xbdb7f3b1	-0.08982027
233	0xbd62a689	-0.0553346
234	0xbc605f68	-0.013694622
235	0x3d0068fd	0.031350125
236	0x3cc65330	0.024209589
237	0xbe12ee41	-0.14348699
238	0xbbfc3794	-0.007697055
239	0xbe970782	-0.29497916
240	0xbca6775e	-0.02032059
241	0x3dc85233	0.09781303
242	0xbe01f6ec	-0.1269185
243	0x3dcda533	0.10041275
244	0x3dd77209	0.10519797
245	0xbda6a023	-0.081360124
246	0xbe311cea	-0.17296186
247	0x3d8d8e2b	0.06911882
248	0x3d97c5e7	0.07410794
249	0xbe160dab	-0.14653651
250	0xbdd4321f	-0.10361122
251	0xbe48b7c4	-0.19601351
252	0xbe380ce2	-0.17973664
253	0xbe63132c	-0.22175282
254	0xbd47cf8f	-0.048781928
255	0x3e53c704	0.20681387

layers.0.bias f4 [64]
0	0xbb6b14de	-0.0035870592
1	0x3b2fc68a	0.002682122
2	0xbc6ed403	-0.014576915
3	0x3bb2cf85	0.005456867
4	0x3bc54a20	0.0060207993
5	0xbc39606f	-0.0113144955
6	0xbb96d353	-0.0046028285
7	0xbae7a1d5	-0.0017672131
8	0x3c88cb87	0.016698612
9	0x3c75ba49	0.014998027
10	0xbd0d189e	-0.034447305
11	0xbbcd6e4e	-0.006269253
12	0xbd33cb01	-0.04389477
13	0xbc74f892	-0.014951842
14	0xbb5d320a	-0.003375175
15	0xb9bcedd5	-0.00036035353
16	0xbd78d67e	-0.06075143
17	0xbc53abe6	-0.012919402
18	0x3cf25d00	0.029585361
19	0xbaf68588	-0.0018808106
20	0xbb6f7df2	-0.0036543575
21	0x39350bc2	0.00017265885
22	0x3ccb9ec9	0.024855988
23	0x3bd9c19e	0.0066453954
24	0xb961e238	-0.00021541945
25	0x3b9b7e21	0.0047452603
26	0x3b9c83c6	0.004776451
27	0x3bcde712	0.0062836492
28	0xbb4602ae	-0.0030214
29	0xba3901c8	-0.00070574554
30	0xbc9655b9	-0.018351423
31	0xbc0815bd	-0.008305964
32	0x3b017f3d	0.0019759678
33	0x3bd2fe8f	0.006439037
34	0xbd5425f3	-0.051794004
35	0xbb8a2936	-0.0042163385
36	0x3bb37aef	0.0054773013
37	0x3b0cc45f	0.002147935
38	0x3b475279	0.0030414148
39	0x3b264ef3	0.0025376647
40	0x3c998b7f	0.018743275
41	0x3aba48d6	0.0014212381
42	0xbb9e60f0	-0.004833333
43	0x3bd2c529	0.0064321947
44	0x3b893702	0.0041874656
45	0x3b824786	0.0039758114
46	0xbb6b54ef	-0.0035908779
47	0xbbfb46f4	-0.0076683704
48	0xbb7e0cd7	-0.0038764977
49	0x3bf56a15	0.0074894526
50	0x3b5dc17b	0.0033837247
51	0xbc0c60a4	-0.008567963
52	0xbb861c50	-0.0040927306
53	0xbb89b6fb	-0.004202721
54	0xbc77afd4	-0.015117604
55	0xbb61571f	-0.0034384204
56	0xbc0584fb	-0.008149381
57	0x3b6f3960	0.0036502704
58	0xbc5ad147	-0.01335556
59	0xbbf62632	-0.0075118775
60	0xbc064ac9	-0.008196541
61	0x3bcb45ef	0.006203405
62	0xbb1fa27b	-0.002435832
63	0xbb95293c	-0.0045520347

layers.2.weight f4 [64, 64]
0	0xbce58f77	-0.02802251
1	0xbe09065b	-0.1338133
2	0xbe509069	-0.20367588
3	0xbddaee90	-0.106900334
4	0xbd9f875e	-0.07789491
5	0x3e3ae606	0.1825181
6	0xbcf75a9e	-0.030194577
7	0x3cb38f79	0.021918999
8	0x3d56bfdf	0.052429076
9	0x3e25c199	0.16187133
10	0x3d80054b	0.062510096
11	0xbe44da5d	-0.19223924
12	0xbe40a04e	-0.18811151
13	0xbd2da68d	-0.042395163
14	0xbbc26927	-0.0059329453
15	0x3c809732	0.015697096
16	0x3e3ae2fd	0.18250652
17	0x3d93faf4	0.072256
18	0xbe0bba85	-0.1364537
19	0xbd04a58b	-0.032384437
20	0x3e594d02	0.21220782
21	0xbdceeb98	-0.1010353
22	0xbe213059	-0.157411
23	0xbe101e14	-0.14073974
24	0x3df68d2f	0.120386474
25	0xbd94a454	-0.072579056
26	0x3cc56778	0.02409719
27	0xbd1b76c6	-0.037955068
28	0xbe452dc4	-0.1925574
29	0x3e4de806	0.20108041
30	0x3ded3a71	0.115834124
31	0x3e3ae5cb	0.18251722
32	0x3d166cc4	0.03672482
33	0x3e390d91	0.18071581
34	0xbe266689	-0.16250052
35	0xbd1e4bd1	-0.038646523
36	0x3dd2bfbb	0.10290476
37	0xbd6f16f9	-0.058371518
38	0x3e32f551	0.17476393
39	0x3e3c2042	0.1837168
40	0xbe06e7f5	-0.13174422
41	0x3e4cb8f2	0.19992426
42	0xbe0eaf94	-0.13934165
43	0xbdded1f8	-0.10879892
44	0x3d88d83c	0.066818684
45	0xbe442958	-0.19156396
46	0xbe33a757	-0.17544304
47	0x3d333176	0.04374834
48	0xbdbb65f9	-0.09150309
49	0xbc7aa9bc	-0.015299257
50	0x3c607223	0.013699087
51	0xbd7dc329	-0.061953697
52	0xbdbcc666	-0.09217529
53	0xbcb29fb4	-0.021804668
54	0xbd43e322	-0.047824033
55	0xbddf31a1	-0.10898138
56	0x3dfffbdc	0.1249921
57	0x3e560894	0.2090171
58	0x3db82b5f	0.089926474
59	0xbe24956d	-0.16072626
60	0xbe06ae29	-0.13152374
61	0x3e156b8f	0.14591812
62	0x3e418ca5	0.18901308
63	0x3e6a221b	0.22864573
64	0x3e3af0a2	0.18255857
65	0x3d36446b	0.044498842
66	0xbdfa5571	-0.12223328
67	0x3b45ae86	0.0030163839
68	0xbd869a51	-0.06572402
69	0x3dbbd3e5	0.09171275
70	0x3cacd1e1	0.021096172
71	0x3dcd2357	0.10016506
72	0xbdab4064	-0.08361891
73	0x3e7b3c98	0.24534833
74	0xbcdb697c	-0.026783697
75	0xbe4b0e0c	-0.19829577
76	0xbd863d27	-0.06554633
77	0xbe094f16	-0.13409075
78	0x3dd67131	0.10470808
79	0x3cf60ad0	0.030034453
80	0x3e25e567	0.16200791
81	0xbdc3819c	-0.095462054
82	0xbe48e9a1	-0.19620372
83	0x3e18bad0	0.14915013
84	0xbe4c3230	-0.1994102
85	0x3cf7993f	0.03022444
86	0x3e447b8e	0.19187757
87	0x3df4f0aa	0.119599655
88	0xbe4289ed	-0.18997927
89	0xbe3b2c78	-0.18278682
90	0x3d2af8c2	0.04174114
91	0x3e4e535a	0.20148984
92	0xbe821acd	-0.25411072
93	0xbe81072b	-0.2520078
94	0xbe421c42	-0.18956092
95	0xbe790931	-0.24319912
96	0xbe5c4e07	-0.2151414
97	0x3b0f8831	0.0021901245
98	0x3ded95a1	0.11600805
99	0xbe19a81e	-0.15005538
100	0x3e278197	0.16358028
101	0xbe0ff4f4	-0.14058286
102	0xbdfa0904	-0.12208751
103	0x3e434fe5	0.19073446
104	0xbe28f175	-0.16498359
105	0xbd809a98	-0.062794864
106	0x3de123dd	0.109931685
107	0xbdf41312	-0.119177
108	0x3dc0e435	0.09418527
109	0xbccaafaf	-0.024741976
110	0xbe041e62	-0.12902215
111	0x3eada64b	0.33915934
112	0xbdfb3dd5	-0.12267653
113	0x3e62376f	0.22091459
114	0xbcb78142	-0.022400502
115	0xbc9b508a	-0.018959302
116	0x3e10dedc	0.14147514
117	0x3e292e3a	0.1652154
118	0xbdb2e024	-0.08734158
119	0xbe0f7e3e	-0.14013001
120	0x3e0d22f5	0.13782866
121	0xbb256419	-0.0025236665
122	0x3dbfccca	0.09365232
123	0x3dea3a74	0.1143693
124	0x3cda8db9	0.026678907
125	0x3e77b8d7	0.24191605
126	0xbe23906d	-0.15973063
127	0x3e621e2f	0.22081827
128	0xbe5ac2b6	-0.21363339
129	0x3d109576	0.035298787
130	0x3e1980cf	0.14990543
131	0xbe14ab36	-0.14518437
132	0xbe177d47	-0.14793883
133	0x3dec87cb	0.11549338
134	0xbe545875	-0.20736869
135	0xbe530f0d	-0.2061121
136	0x3e1edc0e	0.15513632
137	0xbd6253a3	-0.055255543
138	0xbd8279de	-0.063709006
139	0xbd46a03c	-0.048492655
140	0x3db96b6a	0.09053691
141	0xbe63f9af	-0.22263215
142	0xbdedfb9a	-0.11620255
143	0xbdb24ce5	-0.08706073
144	0xbe0ce9d6	-0.13761076
145	0x3dccb1a9	0.099948235
146	0xbdc0185c	-0.09379646
147	0xbd935b0e	-0.07195102
148	0x3dd7d708	0.10539061
149	0x3d88cbe5	0.06679515
150	0xbd2cdb0d	-0.04220109
151	0x3d4cdacd	0.050013352
152	0x3e0487ab	0.12942378
153	0x3e479695	0.19491036
154	0x3d3462f9	0.0440397
155	0xbe2c51d8	-0.16828096
156	0x3e2f624f	0.17127346
157	0xbe5b466c	-0.21413583
158	0xbda41651	-0.08012069
159	0xbd2cebc1	-0.04221702
160	0x3c7cd56a	0.015431741
161	0x3d273898	0.040825456
162	0xbd444d55	-0.047925312
163	0xbe0990f1	-0.13434197
164	0xbd2cfaf8	-0.04223153
165	0x3e59af73	0.21258335
166	0x3bb4b108	0.005514268
167	0xbe278c6d	-0.16362162
168	0x3bd4707d	0.006483136
169	0x3e35d0e1	0.17755462
170	0xbe2e78b2	-0.17038229
171	0xbd0673ac	-0.032825157
172	0x3e10a044	0.14123636
173	0x3daea51f	0.08527588
174	0xbc35a84b	-0.011087487
175	0xbd2e8880	-0.042610645
176	0x3dde19d4	0.1084477
177	0xbca38476	-0.019960623
178	0xbe450708	-0.19240963
179	0x3d5ad420	0.053424954
180	0x3c211f3b	0.009834106
181	0xbcd5fd8a	-0.026121873
182	0x3dbd7628	0.09251052
183	0x3e2fb099	0.1715721
184	0xbdcb2875	-0.09919826
185	0x3ddb3617	0.10703676
186	0xbe0ca2cf	-0.13733982
187	0x3cea11c8	0.028572932
188	0xbe23b72e	-0.15987846
189	0xbd41f4b6	-0.047352515
190	0xbdee083a	-0.11622663
191	0xbd9f10e2	-0.07766892
192	0xbe4502dc	-0.19239372
193	0x3cb448a7	0.0220073
194	0xbdfeddfb	-0.12444683
195	0x3e21809a	0.15771714
196	0xbdb5031a	-0.08838482
197	0x3da5a876	0.08088772
198	0xbe5ba770	-0.21450591
199	0x3d92c9c8	0.07167393
200	0x3d946b04	0.07246974
201	0xbd2f6c20	-0.042827725
202	0x3e2fd9fc	0.17172998
203	0x3e1978ee	0.14987537
204	0x3e2e42fc	0.1701774
205	0xbe08377b	-0.13302414
206	0x3ce7606c	0.02824422
207	0xbd43b7a9	-0.047782574
208	0x3dedd621	0.116131075
209	0x3dfbea71	0.123005755
210	0x3e00e56b	0.12587516
211	0x3e457589	0.19283117
212	0x3c84fdd8	0.016234323
213	0xbd065545	-0.032796163
214	0xb981dbd9	-0.00024768597
215	0xbdb0104f	-0.085968606
216	0x3ddbc5c6	0.10731082
217	0x3c275922	0.010214122
218	0xbc64c0aa	-0.01396195
219	0xbe4af110	-0.1981852
220	0xbda3cca6	-0.07998018
221	0x3e1c066c	0.15236825
222	0xbd91435b	-0.07092925
223	0x3d84317e	0.064547524
224	0xbd8108cb	-0.06300505
225	0x3db26b77	0.087119035
226	0x3d6225a4	0.05521168
227	0xbc83b708	-0.016078487
228	0x3e2e5670	0.17025161
229	0xbe54647e	-0.2074146
230	0x3e284a41	0.16434576
231	0xbd8a8233	-0.06763115
232	0x3d34d92d	0.044152427
233	0xbdfb9dab	-0.12285932
234	0xbe49f954	-0.19724017
235	0xbe298792	-0.16555622
236	0x3e14131b	0.14460413
237	0x3db9a6c2	0.0906501
238	0xbe2b501a	-0.16729775
239	0x3e2b356f	0.16719602
240	0xbdb34407	-0.087532096
241	0xbd0ed981	-0.034875397
242	0xbd06b7c2	-0.03289009
243	0x3d6d9d51	0.058011357
244	0xbe044da3	-0.12920241
245	0xbe3429c1	-0.17594053
246	0xbe246f76	-0.16058144
247	0xbe24ceb2	-0.16094473
248	0x3e153cae	0.14573929
249	0xbd93c1e0	-0.07214713
250	0x3e3da75a	0.18520871
251	0x3e01e5c4	0.12685305
252	0xbd8badd8	-0.068202674
253	0x3d34b5c3	0.044118654
254	0xbe1ca971	-0.15299012
255	0xbd97856c	-0.07398495

layers.2.bias f4 [64]
0	0xbb9b93ec	-0.0047478583
1	0x3b80025a	0.0039065303
2	0x3bba46ef	0.0056847255
3	0xba6d3f7c	-0.00090502924
4	0xbb1b2a9b	-0.0023676518
5	0x3a40b82e	0.00073516637
6	0xbc019c64	-0.007910822
7	0x3982b345	0.00024929098
8	0x3aacaf95	0.0013174886
9	0x3b777c03	0.0037763126
10	0x3b1cf44b	0.002394932
11	0x3aa4142b	0.0012518218
12	0xbc1dfc5b	-0.009642686
13	0xbbe6ee35	-0.0070474395
14	0xbb8ed726	-0.004359144
15	0x3be951eb	0.007120361
16	0x3b7b52de	0.0038348953
17	0x3b948ed2	0.004533627
18	0xbbf0bb52	-0.007346549
19	0x3bf5a60b	0.0074966005
20	0x3baf4411	0.0053486903
21	0x3b76cde6	0.0037659346
22	0x3af89bd6	0.0018967341
23	0x3a564b4b	0.00081746717
24	0xbb4eecf2	-0.0031574336
25	0xbb0a940c	-0.0021145372
26	0xbdb70898	-0.08937186
27	0xbca09b51	-0.01960531
28	0x39fb3d5e	0.00047920173
29	0xbb4faea4	-0.0031689787
30	0xb97676bd	-0.00023504622
31	0x3b5fc36c	0.003414358
32	0xbbaab302	-0.0052093277
33	0x3c033eb3	0.008010554
34	0x3ba468fd	0.0050173984
35	0x3b2e16a6	0.0026563792
36	0x3b9bc262	0.004753397
37	0xbd6449c8	-0.055734426
38	0x3bcbbf7d	0.0062178955
39	0x3c0511c0	0.008121908
40	0xb9d1fc2f	-0.00040051478
41	0x39c89f59	0.00038265696
42	0x3c22d754	0.009939034
43	0x3a01d139	0.0004952136
44	0xbb68720f	-0.0035468375
45	0xbbe9774e	-0.007124818
46	0x3aa9f058	0.0012965305
47	0x3ab6fb23	0.0013960343
48	0xbb93e6ad	-0.0045135827
49	0xbbd3e92b	-0.006467005
50	0x3cc04953	0.023472464
51	0x3b28efbc	0.0025777658
52	0x3b8be197	0.0042688358
53	0xbaac7078	-0.0013156077
54	0x3a967332	0.0011478423
55	0xbb25c987	-0.0025297122
56	0xbb8e2f25	-0.004339116
57	0xbb9d59bf	-0.0048019583
58	0xbb9f946a	-0.0048699873
59	0xbbe49b84	-0.0069765467
60	0xbba307c9	-0.0049752933
61	0xba8df333	-0.0010829925
62	0x3a960f68	0.0011448683
63	0xbba67fc3	-0.0050811484

layers.4.weight f4 [64, 64]
0	0x3c101a00	0.008795261
1	0x3e20fecf	0.15722202
2	0x3da607e1	0.081069715
3	0xbd848882	-0.06471349
4	0x3d564954	0.052316025
5	0x3e340e10	0.1758349
6	0x3e1d683c	0.15371794
7	0x3d54e625	0.051977295
8	0x3d7ceac2	0.06174732
9	0xbd855984	-0.065112144
10	0xbdf19e7f	-0.11797809
11	0x3d66dc76	0.05636259
12	0xbe3600ed	-0.1777379
13	0xbc669baf	-0.014075204
14	0x3dea20c4	0.11432031
15	0x3df607e4	0.12013224
16	0x3d8d617d	0.0690336
17	0xbc68cfdd	-0.014209715
18	0x3e3a07c5	0.18167026
19	0xbd966197	-0.073428325
20	0xbe5ca0bb	-0.21545689
21	0xbe0b8227	-0.13623868
22	0xbcddb8b1	-0.027065607
23	0x3d78e6b0	0.060766876
24	0x3d90c2b3	0.07068386
25	0xbd775577	-0.06038424
26	0xbe01186c	-0.12606972
27	0x3de12418	0.109932125
28	0xbe3fbb9f	-0.18723916
29	0xbe40369d	-0.18770833
30	0xbdb03562	-0.08603932
31	0x3e09fcc4	0.13475329
32	0x3dee557e	0.116374
33	0x3dfa2a15	0.12215058
34	0xbe3d8549	-0.18507876
35	0x3df1c596	0.11805265
36	0x3e21c4bd	0.15797706
37	0xbd2551d3	-0.040361237
38	0xbc20fe62	-0.009826275
39	0xbdc2e098	-0.09515494
40	0x3e1e4517	0.15456043
41	0xbdd39f0e	-0.10333072
42	0x3d94848a	0.07251842
43	0x3ddfe911	0.10933126
44	0xbced8839	-0.02899562
45	0x3df4c22e	0.11951099
46	0x3e104329	0.1408812
47	0x3c9214a5	0.01783211
48	0x3de3cb47	0.111227565
49	0xbd381996	-0.044946276
50	0xbdbd6eed	-0.09249673
51	0xbdf1987a	-0.11796661
52	0xbe03ca36	-0.12870106
53	0xbe4467ef	-0.19180273
54	0xbdb59456	-0.088661835
55	0x3e132cb9	0.14372529
56	0x3e36ed5f	0.17863987
57	0x3cd75c07	0.026289
58	0x3e3f9b88	0.18711674
59	0x3e31ef09	0.17376341
60	0xbb6cae1b	-0.0036114517
61	0xbe2fb630	-0.17159343
62	0xbd5fef95	-0.054671843
63	0xbc142a7f	-0.009043335
64	0xbd56b14f	-0.05241519
65	0x3e0b0ad4	0.1357835
66	0x3e1b4d4d	0.15166207
67	0x3e559ff0	0.20861793
68	0xbc905c1f	-0.017622052
69	0xbddc38f5	-0.10753051
70	0x3e1f8032	0.15576246
71	0xbe025b01	-0.12730028
72	0xbdb05916	-0.08610742
73	0x3e57c219	0.21070136
74	0xbe188bee	-0.14897129
75	0xbc8f8bcf	-0.01752272
76	0x3e2a7f8f	0.16650222
77	0x3e40474c	0.18777198
78	0x3bb0b56a	0.00539272
79	0x3e1949de	0.14969584
80	0xbbb0e209	-0.0053980392
81	0xbe568cef	-0.209522
82	0xbd81e780	-0.06342983
83	0x3e2dbcf0	0.16966605
84	0x3dd78081	0.10522557
85	0x3e55e60e	0.2088854
86	0xbcc0084e	-0.02344146
87	0x3d43c926	0.047799252
88	0x3cadc45d	0.021211797
89	0x3e0f7525	0.14009531
90	0x3d92c168	0.071657956
91	0xbc5e4608	-0.013566501
92	0xbe1386e3	-0.14406924
93	0x3e494741	0.19656087
94	0xbe2ce4c2	-0.16884139
95	0x3d0ab94f	0.03386813
96	0xbe075baf	-0.13218568
97	0x3d4ab115	0.049485285
98	0x3cdb9b68	0.026807502
99	0x3c548b63	0.0129726855
100	0x3de8f3cf	0.11374628
101	0x3b26371a	0.0025362433
102	0xbd9e32b8	-0.077245176
103	0xbdbd7b8a	-0.09252079
104	0xbca32e47	-0.019919528
105	0x3e12a8cd	0.14322205
106	0xbe3821db	-0.17981665
107	0xbe55807b	-0.20849793
108	0xbd8aed5d	-0.06783555
109	0x3e4bb4ae	0.19893143
110	0xbd219ac7	-0.039454248
111	0x3cdf00d0	0.027222067
112	0x3d8b8a23	0.06813457
113	0xbde6bcae	-0.112664565
114	0x3ca3ed3d	0.020010585
115	0x3e0a5947	0.13510619
116	0x3e442b84	0.19157225
117	0x3ca6bb60	0.02035302
118	0xbe5c89bd	-0.21536918
119	0x3d5f1687	0.054464843
120	0x3e2f24ae	0.17103836
121	0x3a04d6de	0.0005067418
122	0x3d32a985	0.043618698
123	0xbe511158	-0.20416772
124	0x3db55453	0.08853974
125	0x3df9d232	0.12198295
126	0x3dcfeb04	0.101522475
127	0x3d1e96fd	0.038718212
128	0xbdd019db	-0.101611815
129	0x3e25a9c3	0.1617804
130	0xbe279dcb	-0.16368787
131	0x3e2ba966	0.16763839
132	0xbe3e20d9	-0.18567218
133	0xbdbec677	-0.09315198
134	0xbc9e5dc1	-0.019331815
135	0xbda6e976	-0.08149998
136	0xbe1df27c	-0.15424532
137	0x3e3d55a8	0.18489707
138	0xbcd3a2da	-0.02583449
139	0xbd34f53d	-0.04417919
140	0xbcd7e36e	-0.026353564
141	0xbc1d370e	-0.009595646
142	0x3d865c1e	0.06560539
143	0xbdf41891	-0.11918748
144	0xbd3c2d07	-0.04594138
145	0xbd9c4cc8	-0.07631832
146	0x3cd4fd63	0.02599973
147	0xbdfb80e4	-0.12280443
148	0xbe39d2c3	-0.18146805
149	0x3e2378ea	0.15964094
150	0x3e22c020	0.15893602
151	0x3e0e1cad	0.13878126
152	0xbe530948	-0.2060901
153	0xbe28c30c	-0.16480654
154	0x3e521481	0.20515634
155	0xbe37a0a7	-0.17932378
156	0xbe4a39f6	-0.19748673
157	0xbd86ced9	-0.06582422
158	0xbe4cbc75	-0.19993766
159	0x3e27c53d	0.16383834
160	0xbd06af92	-0.03288228
161	0x3d83da63	0.06438138
162	0xbe372ca5	-0.17888124
163	0x3e3a83f9	0.18214406
164	0x3c4bbd6a	0.012435297
165	0xbe0b04dd	-0.13576074
166	0xbd8d1e12	-0.06890501
167	0x3c0e4b9d	0.00868502
168	0x3e15305a	0.14569226
169	0xbe0ed3e9	-0.13948025
170	0x3d21777c	0.03942059
171	0xbbc5e7c0	-0.0060395896
172	0xbd88c6ba	-0.06678529
173	0xbe1d9dc1	-0.1539221
174	0xbd5d0013	-0.05395515
175	0x3c43de3d	0.011954841
176	0xbe175a79	-0.14780606
177	0xbe478481	-0.1948414
178	0x3c977120	0.01848656
179	0xbdf841b9	-0.121219106
180	0x3c17a717	0.009256146
181	0xbe2505b9	-0.16115464
182	0x3dbc102c	0.09182772
183	0x3d6b07d9	0.05738053
184	0xbe4c956f	-0.1997888
185	0x3d4f6af5	0.05063911
186	0x3afec82d	0.0019438319
187	0x3e29a4df	0.165668
188	0x3cdc70bb	0.026909223
189	0x3d1c4c8f	0.03815895
190	0x3d945d9a	0.072444156
191	0x3e285f7f	0.16442679
192	0xbdd5e957	-0.10444897
193	0xbe10c1d9	-0.14136447
194	0x3e387b36	0.18015751
195	0x3e3f1665	0.18660887
196	0x3de7c643	0.11317112
197	0x3dd5625f	0.104191534
198	0xbe31b3bd	-0.17353721
199	0x3e4a4000	0.19750977
200	0xbd3efb75	-0.046626527
201	0xbd8383ea	-0.06421645
202	0xbd3b6e89	-0.04575971
203	0xbdbcb709	-0.09214599
204	0xbd9e51e4	-0.07730463
205	0xbdc3d02c	-0.0956119
206	0xbdb0dc72	-0.086357966
207	0x3dd8c763	0.10584905
208	0xbe10c5e8	-0.14137995
209	0xbd21ae42	-0.039472826
210	0x3db028fc	0.08601567
211	0xbd10736a	-0.035266317
212	0x3e53e5af	0.20693086
213	0x3e2ead99	0.1705841
214	0x3cb6e76e	0.022327151
215	0x3e2d0466	0.16896209
216	0xbc868491	-0.016420634
217	0x3dce8abf	0.100850575
218	0x3e0152af	0.12629198
219	0x3d81e22e	0.063419685
220	0x3d58485d	0.052803386
221	0x3d29eef8	0.041487664
222	0x3e2315eb	0.1592633
223	0x3da5e381	0.081000336
224	0xbde9789c	-0.113999575
225	0x3e1378c4	0.14401537
226	0x3e4c994a	0.1998035
227	0x3e439306	0.19099054
228	0xbd1bcb7a	-0.038035847
229	0x3e5ea578	0.21742809
230	0xbe3e0dfa	-0.18560019
231	0xbd615307	-0.05501082
232	0xbd473c92	-0.04864175
233	0x3e5b951b	0.21443598
234	0xbc1bb8c8	-0.0095045045
235	0xbe5c32d4	-0.21503764
236	0xbd79f080	-0.061020374
237	0xbdd2f9f9	-0.10301585
238	0x3b953094	0.00455291
239	0x3d7a8299	0.061159704
240	0xbc8b637e	-0.017015215
241	0xbe11d4bb	-0.14241306
242	0xbcee7ed8	-0.029113218
243	0x3e3f2f4d	0.18670388
244	0xbe22b137	-0.15887915
245	0x3d2f6da0	0.042829156
246	0x3d99cebc	0.075101346
247	0xbdd76b36	-0.10518496
248	0xbde6ead7	-0.11275261
249	0x3ceeefbb	0.029167047
250	0x3bade535	0.0053068646
251	0x3e09f5c2	0.13472655
252	0xbd91ef5f	-0.071257345
253	0x3e2015f2	0.15633371
254	0x3dcd7bf6	0.10033409
255	0x3d34ab16	0.044108473

layers.4.bias f4 [64]
0	0xbb9c1d38	-0.0047642253
1	0x3a88acf1	0.0010427517
2	0xbb22b983	-0.0024829812
3	0x3aa17529	0.0012318242
4	0xbba1911a	-0.0049306275
5	0xbb9f846c	-0.004868081
6	0x39c2cfe3	0.0003715745
7	0x3ac0af39	0.0014700658
8	0x385301dc	5.0308052e-05
9	0xbb5d19aa	-0.003373722
10	0xbb989a7f	-0.0046570892
11	0x3ac1a5cf	0.0014774146
12	0x3b3499ab	0.0027557414
13	0x3a8b5fae	0.0010633373
14	0x3b2d4172	0.0026436714
15	0x3b9af2f4	0.0047286693
16	0xbbfcbf36	-0.007713224
17	0xbb48c99b	-0.0030637744
18	0xbbf83bd7	-0.007575493
19	0x3c6cd982	0.014456155
20	0x3b7d0027	0.0038604827
21	0xbaf176fd	-0.0018422302
22	0xbb8328c0	-0.0040026605
23	0xbb01cd28	-0.001980612
24	0xbab210cb	-0.0013585327
25	0x3b4d1282	0.003129155
26	0x3be39dc8	0.006946299
27	0xbafcb514	-0.001928004
28	0x3975c05e	0.00023436683
29	0x3b81ddd4	0.0039632116
30	0x3ae00706	0.0017091937
31	0x3b297712	0.0025858325
32	0xbb9cdd51	-0.004787125
33	0x3b58cba3	0.0033080361
34	0x3c926113	0.017868554
35	0xbbbc36e2	-0.005743847
36	0x3a0984b9	0.00052459125
37	0xbaa1ea34	-0.0012353123
38	0xbb6e3cbc	-0.0036352118
39	0x3b421c0a	0.0029618763
40	0x3a9ee4e6	0.001212266
41	0x3b415e66	0.0029505729
42	0x3b6ee559	0.003645262
43	0x3c61cc5b	0.013781632
44	0x3a64998b	0.00087203895
45	0x3c7e1f49	0.015510389
46	0xbc85502d	-0.016273582
47	0xbd3fc91a	-0.046822645
48	0xbaf04a5f	-0.0018332711
49	0x3c43a80f	0.011941924
50	0xbb22e592	-0.0024856073
51	0x3c2540a3	0.010086211
52	0xbb5316a0	-0.003220953
53	0x3a7b7d8e	0.0009593599
54	0xb90390f4	-0.00012547133
55	0x3b1e2e80	0.0024136603
56	0xba441765	-0.00074802927
57	0x3b5d483b	0.0033764977
58	0x3b2c0678	0.0026248973
59	0xbc0262bb	-0.0079581095
60	0xbdbdd2a4	-0.09268692
61	0x3b923e11	0.0044629653
62	0x3962fc3c	0.00021647004
63	0x3b3cded2	0.0028819335

layers.6.weight f4 [64, 64]
0	0xbd2d49fc	-0.042306885
1	0x3e30209a	0.17199937
2	0xbb11ae7c	-0.0022229245
3	0xbe3859a4	-0.18002945
4	0xbd7c81d7	-0.061647262
5	0x3dc5b1e2	0.09653069
6	0xbe461aca	-0.19346157
7	0xbe1041d1	-0.14087607
8	0x3de37d34	0.11107865
9	0xbd7b696e	-0.061379842
10	0x3dea6e77	0.11446851
11	0xbc929c15	-0.017896691
12	0x3e44be58	0.19213235
13	0x3e2c3240	0.16816044
14	0xbdfd34bb	-0.12363573
15	0x3da3f063	0.080048345
16	0x3e3080d1	0.1723664
17	0x3e21a31a	0.15784875
18	0x3e0c1e39	0.13683404
19	0xbde8b0be	-0.11361836
20	0x3e5297fa	0.20565787
21	0x3e13e0a4	0.14441162
22	0x3d968685	0.07349876
23	0x3e1aa1b0	0.15100741
24	0xbdfecf83	-0.124419235
25	0x3c4552cd	0.012043667
26	0x3e49125a	0.19635907
27	0x3d650366	0.055911444
28	0x3cd748ad	0.026279772
29	0xbe358679	-0.17727078
30	0xbd203d81	-0.039121155
31	0xbe501bc0	-0.20323086
32	0xbe0d7e8d	-0.13817807
33	0xbc0b31f1	-0.008495794
34	0x3e09a807	0.13443004
35	0x3e5e683b	0.21719448
36	0x3e366a36	0.17813954
37	0x3e440db7	0.19145857
38	0x3debb20c	0.11508569
39	0x3e179b08	0.14805233
40	0xbe292987	-0.16519748
41	0x3d984008	0.07434088
42	0x3e1311de	0.14362285
43	0x3dd4d629	0.1039241
44	0x3ddf94c1	0.109170444
45	0x3e45af6a	0.19305196
46	0x3d84f7b7	0.0649256
47	0x3dbfe75e	0.09370302
48	0xbd80a414	-0.062812954
49	0x3e426eec	0.18987626
50	0x3e1445a5	0.14479692
51	0x3e07ab1d	0.13248868
52	0x3dab09de	0.083514914
53	0xbd363893	-0.044487547
54	0x3e09c5ec	0.13454407
55	0xbdb22073	-0.086975954
56	0xbdc84c5d	-0.0978019
57	0x3e04b3a2	0.1295915
58	0x3c3f0e87	0.011661178
59	0x3e40f0bf	0.18841837
60	0x3e1feb86	0.15617189
61	0xbe1839f4	-0.14865857
62	0xbdccd58f	-0.100016706
63	0x3e2fad0c	0.17155856
64	0xbcad7fb5	-0.02117906
65	0x3e60140c	0.21882647
66	0x3e1b80c3	0.15185837
67	0xbe134548	-0.14381897
68	0x3e175cfb	0.14781563
69	0x3d56d5ee	0.052450113
70	0xbd826a25	-0.06367902
71	0x3e1bb673	0.15206318
72	0xbde8fbd7	-0.1137616
73	0x3d2acfe5	0.04170217
74	0xbde0bac0	-0.1097312
75	0x3e38f30d	0.18061467
76	0x3dd4f789	0.10398776
77	0x3da67692	0.08128084
78	0x3d133b2a	0.035945095
79	0x3e41cb31	0.18925168
80	0xbd197704	-0.037467018
81	0xbe0b68e8	-0.13614237
82	0xbb407db9	-0.0029371812
83	0x3c90790e	0.017635848
84	0x3d611726	0.054953717
85	0x3c5c76b4	0.013456035
86	0x3cf2d3d1	0.029642018
87	0xbe577584	-0.21040922
88	0x3d5f2c66	0.0544857
89	0xbe2be82a	-0.16787782
90	0xbe47cc49	-0.19511522
91	0xbe0df8e5	-0.13864477
92	0x3d771fb3	0.060332965
93	0xbda50c56	-0.080589935
94	0xbd0c6b97	-0.034282293
95	0xbe12591a	-0.14291802
96	0xbcfc1ca4	-0.030775376
97	0xbb7c405c	-0.003849051
98	0xbe5a865e	-0.2134032
99	0xbd5bf672	-0.053701825
100	0xbd6ed80e	-0.058311515
101	0xbdc3f424	-0.095680505
102	0xbe282661	-0.1642089
103	0xbe561d19	-0.20909537
104	0xbe16092d	-0.14651938
105	0x3d529299	0.051409338
106	0xbda8c942	-0.08241512
107	0xbe03e813	-0.12881498
108	0xbe3e4ac2	-0.18583205
109	0xbe55c81f	-0.20877121
110	0xbe2eccaf	-0.17070268
111	0x3d79c7b3	0.060981464
112	0xbe4f0304	-0.20215994
113	0xbd311ab4	-0.043238357
114	0xbe3e2f7e	-0.18572804
115	0xbe02428f	-0.12720703
116	0xbe1ef294	-0.15522224
117	0x3db94450	0.09046233
118	0x3b81f4c9	0.0039659482
119	0xbe16580f	-0.14682029
120	0x3d754254	0.05987771
121	0x3d87f88a	0.06639202
122	0xbce9d1bd	-0.028542394
123	0xbd279211	-0.040910784
124	0x3e4ad3d2	0.19807366
125	0x3e251578	0.16121471
126	0xbdc55578	-0.096354425
127	0xbe4ebaca	-0.20188442
128	0x3e139c64	0.14415127
129	0x3e29bc88	0.16575825
130	0xbd825a9f	-0.06364941
131	0xbe5fda1b	-0.21860544
132	0xbd8adb1c	-0.06780073
133	0xbc227a9d	-0.009916929
134	0x3d974f96	0.07388227
135	0xbdda66c3	-0.106641315
136	0xbd589356	-0.052874885
137	0x3e29cab9	0.16581239
138	0x3e4d3a3e	0.20041749
139	0x3dae7bf4	0.08519736
140	0xbe0a70e8	-0.13519633
141	0xbe24def3	-0.16100673
142	0x3d2937d0	0.041312993
143	0xbc9ac7ea	-0.018894155
144	0xbc9589a3	-0.018254107
145	0xbd358634	-0.04431744
146	0xbe359ac5	-0.17734821
147	0x3e207685	0.15670212
148	0x3e05637d	0.13026233
149	0x3de1ef08	0.1103192
150	0xbda3a543	-0.079905055
151	0xbd829288	-0.06375605
152	0x3cfae2f7	0.030625803
153	0x3dc8abd3	0.09798398
154	0xbe5dfe67	-0.21679078
155	0x3e5dd468	0.21663058
156	0xbe0faa90	-0.14029908
157	0xbe276cef	-0.16350149
158	0xbe244d64	-0.16045147
159	0xbd0897a3	-0.033347737
160	0x3e3394a0	0.17537165
161	0xbdd97883	-0.10618689
162	0x3e0188ce	0.12649843
163	0xbe2ab95e	-0.16672274
164	0x3e3403fa	0.17579642
165	0xbdfc5c46	-0.12322287
166	0xbd41fd3b	-0.04736064
167	0x3e31d794	0.17367393
168	0xbc3d1d53	-0.011542636
169	0xbe3cb715	-0.18429215
170	0xbe28a915	-0.1647075
171	0xbca097b1	-0.019603582
172	0x3df3b51d	0.11899779
173	0x3e203e9a	0.1564888
174	0xbdba426b	-0.090946995
175	0xbdb86b64	-0.09004858
176	0x3e5a4390	0.21314836
177	0x3e44ed0a	0.19231048
178	0x3ccbd026	0.024879526
179	0xbdc46a27	-0.095905595
180	0x3d8fe9a0	0.07026982
181	0xbd297ce0	-0.041378856
182	0xbdd9e7cd	-0.106399156
183	0x3baed023	0.0053348704
184	0x3d26ff0f	0.040770587
185	0x3e658ad8	0.22416246
186	0xbdd4d975	-0.10393039
187	0xbe266f7f	-0.1625347
188	0xbdfbadd3	-0.12289014
189	0xbcdf40a3	-0.0272525
190	0x3e392c89	0.18083395
191	0xbe2a91d2	-0.16657189
192	0xbb33b764	-0.0027422542
193	0xbc3df9b3	-0.011595177
194	0xbe209983	-0.1568356
195	0xbc1f5878	-0.009725682
196	0xbe187585	-0.1488858
197	0xbe136729	-0.14394821
198	0x3e013311	0.12617137
199	0x3e179c68	0.14805758
200	0x3e0004bd	0.12501808
201	0x3cfc6a87	0.030812515
202	0xbe0174cc	-0.1264221
203	0xbe2de8ab	-0.16983287
204	0x3e6c2316	0.23060259
205	0x3e54fd7f	0.20799826
206	0x3e5474c7	0.20747672
207	0xbdae6664	-0.08515623
208	0xbc85dfb6	-0.016342025
209	0xbcf18225	-0.029481003
210	0x3dfb074e	0.12257253
211	0x3e32c402	0.17457584
212	0x3de0b3fc	0.10971829
213	0xbd1921a1	-0.037385587
214	0x3c570746	0.013124293
215	0xbdc8f2da	-0.09811945
216	0xbe4da3b9	-0.20081986
217	0x3e430d62	0.19048074
218	0xbe0c6321	-0.1370969
219	0xbe084c78	-0.1331042
220	0x3e3e15bf	0.18562983
221	0x3de7ce5a	0.11318655
222	0xbd7fb9e9	-0.062433157
223	0x3e5fd1cc	0.21857375
224	0x3db3bfed	0.08776841
225	0x3df25c8e	0.1183406
226	0x3e1a7a61	0.15085746
227	0x3e0185aa	0.12648645
228	0xbdbfb06c	-0.09359822
229	0xbe3aae9a	-0.18230668
230	0xbd4a059e	-0.049321763
231	0xbe0f57cc	-0.13998336
232	0xbe23f6cb	-0.16012113
233	0xbdc57190	-0.09640801
234	0xbe1f5814	-0.15560943
235	0xbd91d116	-0.07119958
236	0x3e3ad21d	0.18244214
237	0xbe0c8e7c	-0.13726228
238	0xbe407a7b	-0.18796723
239	0xbe1a0b76	-0.15043435
240	0xbdd2d739	-0.10294957
241	0x3e21e56c	0.15810174
242	0xbe2431b8	-0.16034591
243	0xbe2a14e7	-0.16609536
244	0xbe17ef35	-0.14837344
245	0xbe112fdb	-0.14178412
246	0xbe419359	-0.18903865
247	0x3e1b34d3	0.1515687
248	0x3af1d697	0.0018450794
249	0x3e33d5e0	0.17562056
250	0x3df88ad9	0.12135858
251	0xbb01ff97	-0.0019836181
252	0xbd8b4b2b	-0.068014465
253	0x3dc8d787	0.098067336
254	0x3d61a076	0.055084668
255	0x3e1504da	0.14552632

layers.6.bias f4 [64]
0	0xb994c7e7	-0.000283777
1	0xbade116a	-0.0016942446
2	0xbaa23b5f	-0.0012377313
3	0x3c139371	0.009007321
4	0xbb6927ad	-0.0035576627
5	0xba8c7d1f	-0.0010718441
6	0x3adf36c7	0.0017029875
7	0x394921b0	0.00019181403
8	0x3bfd1003	0.007722856
9	0x3b53d61c	0.0032323664
10	0xbbacc523	-0.005272524
11	0xb9a6c4cd	-0.00031808615
12	0x3b88c6a7	0.004174072
13	0xbb45bfe6	-0.0030174195
14	0x3b4f6ab2	0.0031649289
15	0xbb71946a	-0.0036862143
16	0x3a807f75	0.000980361
17	0xbc5ad530	-0.013356492
18	0x3b38a789	0.002817603
19	0xbb90aa9c	-0.0044148695
20	0x3b82a3ec	0.003986826
21	0x3aaa5334	0.0012994767
22	0x3b3b1ad8	0.0028549936
23	0x3b86ab67	0.004109788
24	0xbb040c82	-0.0020149057
25	0xbae325a7	-0.0017329947
26	0x3d107b8a	0.035274066
27	0xbaea039e	-0.0017853861
28	0xbaba55ff	-0.0014216303
29	0x3b982c16	0.0046439273
30	0xb9ade3d8	-0.00033166888
31	0xba9a66e7	-0.0011779935
32	0xb93ffd57	-0.00018309556
33	0xbb321bed	-0.002717729
34	0x3aeb7f33	0.0017966985
35	0xb9aa13c1	-0.00032439645
36	0x3acd80fa	0.0015678697
37	0xb903d717	-0.00012573261
38	0xbc58c737	-0.01323109
39	0xbaa8f9dc	-0.0012891847
40	0xbbb42b6d	-0.005498341
41	0xbb6284ce	-0.003456402
42	0xbbe58772	-0.0070046717
43	0x3b81ace6	0.0039573787
44	0x39230103	0.00015545268
45	0x3c02815a	0.00796541
46	0xbb9d1909	-0.004794244
47	0x3c8cae7d	0.017173046
48	0x3c3c267c	0.011483785
49	0x3b470be5	0.003037208
50	0x3b0bb2fa	0.0021316395
51	0x3b634349	0.0034677556
52	0x3a66a64e	0.0008798585
53	0xbb95dd95	-0.004573534
54	0xba549409	-0.0008109217
55	0xb7f4f300	-2.9200222e-05
56	0x3aa492f2	0.0012556
57	0x3b36a443	0.0027868904
58	0xbb02ecf3	-0.0019977659
59	0x3a8b7606	0.0010640032
60	0xba8a216f	-0.0010538528
61	0xbaa0b5f2	-0.0012261255
62	0xbb3b6b2e	-0.002859782
63	0xb962b0fb	-0.0002161897

layers.8.weight f4 [64, 64]
0	0xbdc215c7	-0.0947681
1	0x3e07b582	0.13252833
2	0xbe51b05b	-0.2047743
3	0x3c894830	0.016758054
4	0x3dd161a1	0.10223699
5	0x3e4daacc	0.20084685
6	0xbd4d7f47	-0.05017021
7	0x3d35688d	0.04428916
8	0xba26c45f	-0.0006361659
9	0x3e377154	0.17914325
10	0xbde487fe	-0.11158751
11	0x3e4fc4a0	0.2028985
12	0x3e36070f	0.1777613
13	0x3e5c2433	0.21498184
14	0x3d910cf5	0.070825495
15	0xbe018ef6	-0.12652192
16	0x3e08a371	0.13343598
17	0xbd6ea200	-0.058259964
18	0xbccf8fa9	-0.025337057
19	0xbde89178	-0.11355871
20	0xbd03346e	-0.032032423
21	0xbe37a438	-0.17933738
22	0x3e22b537	0.1588944
23	0x3e1863d1	0.14881827
24	0xbe1ffd4b	-0.15623967
25	0x3d8c47be	0.06849621
26	0x3e12cfa4	0.14337021
27	0x3e15d7f5	0.14633162
28	0xbd267d55	-0.04064687
29	0xbe0b8178	-0.13623607
30	0x3e31b775	0.1735514
31	0xbe206504	-0.15663534
32	0xbe1cbf1b	-0.15307276
33	0x3db090c6	0.08621363
34	0x3cc94312	0.024568114
35	0xbd27c940	-0.04096341
36	0xbd43db26	-0.047816418
37	0xbd8b4310	-0.067999005
38	0x3a9dc821	0.0012037792
39	0x3c31fc39	0.010863357
40	0xbc9e09f7	-0.019291861
41	0x3d8c807a	0.068604425
42	0x3d07c9d2	0.033151455
43	0xbde33501	-0.11094094
44	0x3d8f772f	0.07005154
45	0xbb577850	-0.0032878108
46	0x3dce173a	0.10063024
47	0x3d373b8c	0.044734523
48	0xbe3762a6	-0.17908725
49	0x3e3797d6	0.17929015
50	0x3def9faa	0.117003754
51	0x39f6c12c	0.000470647
52	0xbd053387	-0.032519843
53	0xbe1ab66f	-0.15108655
54	0xbdf65d4e	-0.12029515
55	0xbc3620d7	-0.011116228
56	0x3de5ca11	0.11220182
57	0xbe4a9574	-0.19783574
58	0x3df16d23	0.11788394
59	0xbc16d3a4	-0.0092057325
60	0xbdbeb00f	-0.09310924
61	0x3d97501a	0.07388325
62	0x3d874d7c	0.06606576
63	0xbdee6923	-0.11641147
64	0xbdb78585	-0.08961014
65	0xbccaac44	-0.024740346
66	0xbdb046fb	-0.086072885
67	0x3dfb71bf	0.12277555
68	0x3e5b66e1	0.21425964
69	0xbe4a8206	-0.19776163
70	0x3da56368	0.08075601
71	0x3e0446de	0.12917659
72	0x3e2ae9b1	0.16690709
73	0x3d17f18e	0.0370956
74	0x3e35edb3	0.17766456
75	0xbe519900	-0.20468521
76	0x3dfa8079	0.122315355
77	0xbe536459	-0.20643748
78	0xbdd64f67	-0.104643635
79	0xbcab80f9	-0.020935522
80	0xbe1db0ad	-0.15399428
81	0x3da863ae	0.082221374
82	0x3d78fda7	0.060788777
83	0xbde597b3	-0.11210575
84	0xbe128606	-0.14308938
85	0x3e18df54	0.14928943
86	0x3e0344d3	0.12819223
87	0xbe0dd4a3	-0.13850646
88	0x3e1e32e3	0.15449099
89	0x3df5e198	0.12005919
90	0xbe316d23	-0.17326789
91	0x3bdca220	0.006733194
92	0xbe090fe9	-0.13384975
93	0x3cf0b02d	0.029380882
94	0xbe481c88	-0.19542134
95	0xbe146ccd	-0.14494629
96	0x3e4f5b7c	0.20249742
97	0x3dec54ca	0.1153961
98	0xbd0965a9	-0.033544216
99	0x3dd0b7c9	0.10191304
100	0xbde6fe69	-0.11278994
101	0xbe1db6f4	-0.15401822
102	0x3dee97aa	0.116500214
103	0x3e403ce5	0.1877323
104	0x3e4eec14	0.20207244
105	0x3dc19506	0.09452252
106	0xbe52bec5	-0.20580585
107	0xbe0c16be	-0.1368055
108	0xbd928ea7	-0.07156115
109	0xbdf89818	-0.121383846
110	0xbe240b24	-0.16019875
111	0xbe3cd79f	-0.18441628
112	0x3e0d4226	0.13794765
113	0xbdf2a884	-0.11848548
114	0x3cc93887	0.024563087
115	0xbc7ba7b1	-0.015359805
116	0x3e3a924a	0.18219867
117	0x3e02665e	0.12734362
118	0xbdb63e65	-0.088986196
119	0xbe261b2e	-0.16221306
120	0x3e0d6a07	0.13809977
121	0x3ba2f234	0.0049727205
122	0xbdae128d	-0.08499632
123	0x3d3b7b9a	0.045772173
124	0xbd99e908	-0.0751515
125	0xbd82dea4	-0.063901216
126	0x3cb5e8c0	0.02220571
127	0xbd5398cc	-0.05165939
128	0x3df3b5a5	0.1189988
129	0xbd812a96	-0.06306951
130	0x3dbc6f55	0.092009224
131	0x3e3416ed	0.1758687
132	0xbdea62d2	-0.1144463
133	0xbe49b1de	-0.19696757
134	0x3de7ee17	0.11324709
135	0x3da3afa8	0.07992488
136	0xbd91b5f5	-0.07114784
137	0x3ce73cac	0.028227173
138	0x3c197d43	0.009368244
139	0x3d71f0f0	0.059067667
140	0x3e34543a	0.17610255
141	0xbd87c35c	-0.06629059
142	0xbe201242	-0.15631965
143	0xbdc0b0a4	-0.094086915
144	0xbcd752c2	-0.02628458
145	0xbbcb867d	-0.0062111006
146	0xbc6bba77	-0.014387718
147	0xbe4e0169	-0.20117725
148	0xbe2eef1e	-0.17083403
149	0x3e06c794	0.1316207
150	0xbc470bbf	-0.012148797
151	0x3dee594f	0.11638128
152	0xbe20d690	-0.15706849
153	0x3dda94c5	0.10672907
154	0x3e364407	0.17799388
155	0x3db099e0	0.08623099
156	0xbe27c88e	-0.163851
157	0xbe071c28	-0.13194335
158	0x3e2c83fc	0.16847223
159	0x3ddd49a0	0.108050585
160	0xbda17762	-0.078840986
161	0x3c36a59d	0.011147884
162	0xbd86b929	-0.06578285
163	0x3e0644d3	0.13112192
164	0x3e10bcf1	0.14134575
165	0x3e09222f	0.13391946
166	0xbd96ea71	-0.07368935
167	0xbe56ffe6	-0.20996055
168	0xbcc8f3ee	-0.024530377
169	0x3dc10f2c	0.09426722
170	0x3e276aa0	0.16349268
171	0x3e129334	0.14313966
172	0x3e0f7bc6	0.1401206
173	0xbdc2e03b	-0.09515425
174	0x3c255717	0.010091565
175	0xbdeb98eb	-0.11503776
176	0x3dfac166	0.12243919
177	0xbd10233c	-0.035189852
178	0x3ddd308f	0.108002774
179	0xbdbbac47	-0.09163719
180	0xbe20792e	-0.15671226
181	0x3e193145	0.14960201
182	0x3e0340e6	0.12817726
183	0xbd3eefa5	-0.04661526
184	0xbe36f30f	-0.17866157
185	0x3d1925ff	0.03738975
186	0xbdb46121	-0.08807588
187	0x3e2c58a6	0.16830692
188	0xbe0c1434	-0.13679582
189	0xbda210a4	-0.0791333
190	0x3e1fdbfd	0.15611263
191	0xbe2c9428	-0.16853392
192	0x3e049561	0.12947609
193	0xbdad9493	-0.08475604
194	0x3dc8a386	0.097968146
195	0x3b4305c2	0.002975807
196	0x3df0b818	0.11753863
197	0x3cf088fb	0.029362192
198	0xbcf04d18	-0.029333636
199	0xbe5ab811	-0.21359278
200	0x3e245a38	0.1605004
201	0xbe2728b5	-0.16324122
202	0xbe66d6a1	-0.22542812
203	0x3b05fdbd	0.002044543
204	0x3e34247c	0.17592043
205	0xbd70fb35	-0.05883332
206	0x3e40b495	0.18818887
207	0xbdb55896	-0.08854787
208	0xbe17f245	-0.14838512
209	0x3b2ea307	0.0026647465
210	0x3cf507a9	0.02991088
211	0xbe470c45	-0.19438274
212	0xbdc34963	-0.09535482
213	0xbdb02cc8	-0.08602291
214	0x3e4b09c4	0.19827944
215	0x3e05fe89	0.13085379
216	0xbd5d074a	-0.05396203
217	0xbd967024	-0.07345608
218	0x3e2bf1bc	0.16791433
219	0xbe333719	-0.17501487
220	0x3e05f592	0.13081959
221	0x3e369464	0.17830044
222	0xbc43ddc9	-0.011954733
223	0xbdbb57ad	-0.09147582
224	0x3e2dc102	0.16968158
225	0xbd6e1880	-0.058128834
226	0xbb89c4fb	-0.00420439
227	0x3b342e3a	0.0027493373
228	0x3d6b779c	0.057487115
229	0x3e1a3f09	0.15063109
230	0xbde609e4	-0.11232355
231	0xbe16cef9	-0.14727391
232	0x3e05f36d	0.13081141
233	0x3d7e2321	0.06204522
234	0xbd4727cd	-0.04862194
235	0x3e09f9bf	0.13474177
236	0xbe3e5327	-0.18586408
237	0xbcf64fee	-0.03006741
238	0xbe2fc46d	-0.17164774
239	0xbc1fbb71	-0.009749279
240	0x3e206ad1	0.15665747
241	0xbdd3cc8e	-0.1034175
242	0xbe0982c2	-0.13428786
243	0xbd8a1987	-0.0674315
244	0xbd59fe5c	-0.05322109
245	0x3e50702b	0.20355289
246	0x3db7d935	0.08976976
247	0x3dff799b	0.12474366
248	0x3d617e1b	0.055051904
249	0xbd164b9f	-0.03669321
250	0x3d022f39	0.031783316
251	0x3db12a10	0.08650601
252	0xbe060535	-0.13087924
253	0x3e298566	0.16554794
254	0xbce1cf2e	-0.027564611
255	0x3e3c4187	0.18384372

layers.8.bias f4 [64]
0	0x3a8814af	0.0010382141
1	0xbb91bbaf	-0.0044474225
2	0x3a4cb1e7	0.0007808492
3	0x3b1908fe	0.0023351307
4	0x3af2f603	0.0018536452
5	0x3b711c98	0.0036790725
6	0x3a1699ed	0.00057449826
7	0x3b1206b8	0.0022281837
8	0xb865764b	-5.4708024e-05
9	0x3a85c207	0.0010204919
10	0x3bc59030	0.0060291514
11	0xbabd8ba5	-0.0014461173
12	0x3abeecc9	0.0014566417
13	0x3c212a5f	0.009836762
14	0xb9ec5758	-0.00045078504
15	0xbb3668f7	-0.002783356
16	0xbab6e177	-0.0013952692
17	0x3a439920	0.0007461477
18	0xbb8b788f	-0.004256315
19	0x3b543e16	0.003238564
20	0x38ac5e1e	8.21913e-05
21	0x3b8c3f5b	0.0042800135
22	0xba3d9a03	-0.00072327274
23	0xbc9fe064	-0.019516177
24	0x3aefd7ce	0.0018298568
25	0x3a62b2fa	0.00086478854
26	0xbb48faec	-0.003066714
27	0x3afe662b	0.001940911
28	0xbc4799e0	-0.012182683
29	0xba115318	-0.0005543693
30	0x3b6993dc	0.003564111
31	0xba929f78	-0.0011186441
32	0xbb723c99	-0.0036962389
33	0x39788afc	0.00023702899
34	0xb9910354	-0.00027659035
35	0x3a8f0953	0.0010912813
36	0xbbf6cd7f	-0.0075318213
37	0xbafd57c8	-0.0019328529
38	0xbc51df43	-0.012809577
39	0x3bdd9a7e	0.0067628017
40	0x39e97ccb	0.000445342
41	0xbbb4a860	-0.005513236
42	0xbb31c4da	-0.002712539
43	0xbb8b5b19	-0.004252803
44	0xbb0f4482	-0.0021860902
45	0xbb657d51	-0.0035017321
46	0xbba3bff9	-0.00499725
47	0x39bffcd1	0.00036618722
48	0x3b09f379	0.0021049662
49	0xba068af2	-0.0005132399
50	0x3b1933ab	0.0023376744
51	0x38bafab3	8.9158675e-05
52	0x3a8bf2f4	0.0010677264
53	0x39bc75be	0.0003594588
54	0x3ad6e36a	0.0016394679
55	0xbb150604	-0.0022739181
56	0xbad76621	-0.0016433635
57	0xbc2967f9	-0.01033973
58	0x3966a4c0	0.00021995883
59	0xba35a596	-0.0006929276
60	0x3a2ce0b7	0.00065947644
61	0xb9a2570b	-0.000309639
62	0xba218562	-0.0006161538
63	0xbab57b2c	-0.0013845912

layers.10.weight f4 [64, 64]
0	0x3de013f1	0.109413035
1	0xbe14d088	-0.14532673
2	0x3e576201	0.2103348
3	0xbdb3d3b2	-0.08780612
4	0x3e5f0c31	0.21781994
5	0x3e5a6721	0.21328403
6	0x3e2e9a13	0.17050962
7	0x3e4287b1	0.18997075
8	0x3d99128d	0.074742414
9	0xbdb43df0	-0.08800876
10	0x3c73c8f8	0.014879458
11	0xbda56e7e	-0.08077715
12	0x3e4554fd	0.19270702
13	0x3daa9335	0.08328859
14	0xbbcb620c	-0.0062067565
15	0x3d158ddb	0.036512237
16	0x3e03eb95	0.12882836
17	0x3d710559	0.05884299
18	0x3e0fa353	0.14027147
19	0x3d507f1f	0.050902482
20	0xbdaade16	-0.08343141
21	0xbe11dd6f	-0.14244626
22	0xbe283561	-0.16426612
23	0x3e4d8671	0.20070817
24	0xbe533a48	-0.20627701
25	0x3e56ccd1	0.20976569
26	0x3d562684	0.052282825
27	0x3e348ef3	0.17632656
28	0x3e2632b5	0.1623028
29	0x3cd1273b	0.025531402
30	0x3dcb63b8	0.09931129
31	0xbd934e32	-0.07192649
32	0xbe272224	-0.16321617
33	0xbd45a094	-0.048248842
34	0x3e4fa730	0.2027862
35	0x3dbf013d	0.09326408
36	0xbd1918fb	-0.03737734
37	0xbd6ae6bc	-0.05734895
38	0xbe3e056f	-0.1855676
39	0x3e2ec5ea	0.17067686
40	0x3da68842	0.08131458
41	0xbc761183	-0.015018824
42	0x3dd2f2f9	0.103002496
43	0xbd948c0d	-0.07253275
44	0xbe43c811	-0.19119288
45	0xbe1c93be	-0.15290734
46	0xbbef2d2e	-0.007299087
47	0x3d09adf8	0.033613175
48	0x3d87b7dc	0.06626865
49	0xbd317d3c	-0.043332323
50	0x3d998dbc	0.07497737
51	0x3e4f48d6	0.20242628
52	0x3dc39174	0.09549227
53	0xbcaf524a	-0.021401543
54	0x3df040e6	0.117311284
55	0x3e508c08	0.20365918
56	0xbe35eda6	-0.17766437
57	0x3e4e6172	0.2015436
58	0x3d8ec1ad	0.069705345
59	0xbd8f4a51	-0.069965966
60	0x3e2fe9b3	0.17178993
61	0x3e3f498c	0.186804
62	0x3e4d15b1	0.20027806
63	0xbe5b883a	-0.21438685
64	0x3e2cc483	0.16871838
65	0x3e575120	0.2102704
66	0x3e03cbd4	0.12870723
67	0xbda08dcd	-0.07839546
68	0x3e5aa6b3	0.21352653
69	0xbca930ac	-0.020653091
70	0x3d10d4ae	0.035359077
71	0xbe0220c6	-0.12707815
72	0xbe444b6e	-0.19169399
73	0xbde95881	-0.11393834
74	0x3d043eef	0.03228658
75	0xbc162fcd	-0.00916667
76	0xbd00c71e	-0.031439893
77	0x3cd25be3	0.02567858
78	0xbbad060b	-0.0052802614
79	0xbe44caf4	-0.19218045
80	0xbd4a0417	-0.049320307
81	0xbe59e82a	-0.2127997
82	0xbcbc1733	-0.022960281
83	0x3d2d2d7e	0.042279713
84	0x3e22f540	0.15913868
85	0x3d76ae0c	0.060224578
86	0x3ccabe26	0.024748873
87	0xbbaaaa23	-0.00520827
88	0x3d2a9f83	0.04165603
89	0x3e127741	0.14303304
90	0x3d8e6a17	0.06953829
91	0x3d5a87a9	0.05335203
92	0xbd95e3e1	-0.07318855
93	0xbc194f7c	-0.009357329
94	0x3d0f5018	0.034988493
95	0x3d886701	0.066602714
96	0x3d9e7740	0.07737589
97	0xbd9f045e	-0.07764505
98	0x3ce15811	0.027507814
99	0x3dd941f1	0.106082805
100	0xbe53cbc5	-0.206832
101	0x3e61e779	0.22060956
102	0xbdc33e25	-0.095333375
103	0xbe5a7798	-0.21334684
104	0x3e59f38d	0.21284313
105	0xbe0cdb53	-0.1375554
106	0xbcc818a2	-0.024425808
107	0x3e43ed73	0.19133548
108	0xbd17482a	-0.036934055
109	0x3decee63	0.11568906
110	0x3d3b9aa1	0.045801762
111	0x3e433db1	0.19066502
112	0x3e556807	0.20840465
113	0xbe2e85e9	-0.1704327
114	0x3d913b2b	0.070913635
115	0xbb0cf1ec	-0.0021506501
116	0x3dd32bd7	0.10311096
117	0x3e24afd7	0.16082703
118	0xbca3a446	-0.019975793
119	0xbdfea1f0	-0.12433231
120	0xbe082d28	-0.13298476
121	0xbce64806	-0.028110515
122	0x3e2efee3	0.17089419
123	0xbe0159b3	-0.12631874
124	0xbda4af43	-0.08041241
125	0x3e1ab2fa	0.15107337
126	0xbe5e326f	-0.21698926
127	0xbcabaa09	-0.020955103
128	0xbdce1db6	-0.10064261
129	0xbd83421a	-0.06409092
130	0xbdb8c2bf	-0.0902152
131	0x3dd975f0	0.10618198
132	0xbd8258a7	-0.06364565
133	0xbd19ca45	-0.037546415
134	0x3da60f11	0.081083424
135	0xbdef44ed	-0.116830684
136	0xbe236c9a	-0.15959397
137	0xbc056783	-0.008142355
138	0x3df700c5	0.12060694
139	0xbde0ebac	-0.10982451
140	0xbd2c53e4	-0.04207219
141	0x3ced73ab	0.028985819
142	0x3e2b7c52	0.16746643
143	0xbdb93aaf	-0.09044396
144	0xbdb0c4f1	-0.086313136
145	0xbe2844c3	-0.1643248
146	0x3e3f1489	0.18660177
147	0xbe31c739	-0.17361154
148	0xbe5d65a3	-0.21620803
149	0x3e1cacf1	0.15300347
150	0x3cd414c1	0.025888802
151	0x3e59f6c0	0.21285534
152	0xbe334e4a	-0.17510334
153	0x3b2dc73d	0.002651646
154	0xbdf24b36	-0.118307516
155	0x3da6bdf9	0.08141703
156	0x3e5358b8	0.20639312
157	0xbe1c67d8	-0.15273988
158	0x3b52d590	0.003217075
159	0x3e5938c8	0.21213067
160	0x3e210fbd	0.1572866
161	0x3d968311	0.07349218
162	0x3de50849	0.11183221
163	0x3c953f16	0.018218558
164	0x3de06b17	0.10957926
165	0xbda4b534	-0.08042374
166	0x3e2af779	0.16695966
167	0xbd976881	-0.073929794
168	0x3d95b0b5	0.07309095
169	0x3bfde9a4	0.0077487994
170	0xbd876711	-0.06611455
171	0x3dc00bd8	0.09377259
172	0xbd37bf6d	-0.044860292
173	0x3d820723	0.063490175
174	0xbdf160e9	-0.11786062
175	0xbe3f1620	-0.18660784
176	0xbd897643	-0.0671201
177	0x3e1b207a	0.15149108
178	0xbdcaa1df	-0.09894156
179	0x3b877873	0.0041342317
180	0x3d7e3608	0.062063247
181	0x3d32bf09	0.043639217
182	0xbe56feb3	-0.20995598
183	0xbe133bee	-0.1437833
184	0xbc93addd	-0.01802724
185	0x3e413881	0.18869211
186	0xbe18b711	-0.14913584
187	0xbd7c5513	-0.06160457
188	0x3dca61c4	0.098819286
189	0xbe063c75	-0.13109
190	0xbcf7c22c	-0.030243956
191	0xbd365a25	-0.044519562
192	0x3d2c0496	0.04199656
193	0x3e561593	0.20906667
194	0x3e48d1f8	0.19611347
195	0xbe54f180	-0.2079525
196	0x3e05fc71	0.1308458
197	0x3dd230db	0.10263225
198	0x3c8bb8cd	0.017055893
199	0xbe5a487e	-0.21316716
200	0xbde040f6	-0.1094989
201	0x3cbd5aa3	0.023114508
202	0x3d8fabac	0.07015166
203	0xbd9799dd	-0.07402394
204	0xbc29e531	-0.010369585
205	0xbe32cea6	-0.17461643
206	0xbd2991b5	-0.041398723
207	0x3e63b939	0.22238626
208	0x3e0d28e3	0.13785128
209	0xbe267e18	-0.16259038
210	0x3e1cce1e	0.15313002
211	0x3e4aab9b	0.19792025
212	0x3ca5e97c	0.020252936
213	0x3e34702b	0.17620914
214	0xbddb7d2f	-0.10717236
215	0xbba9b98d	-0.00517959
216	0x3e5110ae	0.20416519
217	0xbda5906d	-0.08084188
218	0xbd3fb4b2	-0.046803184
219	0xbca0d3e8	-0.019632295
220	0xbe2af1ee	-0.16693851
221	0xbda29097	-0.079377346
222	0xbd4b87a7	-0.049689915
223	0x3dd18f59	0.102324195
224	0xbdcc7837	-0.09983867
225	0x3b7ab137	0.00382526
226	0xbe0c3671	-0.13692643
227	0xbe1d4bc0	-0.15360928
228	0xbd21046d	-0.03931086
229	0xbe53d048	-0.20684922
230	0x3e00c48b	0.12574975
231	0xbcc1144f	-0.023569254
232	0x3c9d6dba	0.01921736
233	0x3ca588af	0.020206777
234	0xbd1bded9	-0.03805432
235	0x3dea1bce	0.114310846
236	0xbe413a58	-0.18869913
237	0xbdc66d84	-0.09688857
238	0x3e404ef8	0.18780124
239	0x3cc2b792	0.023769174
240	0xbdaf554a	-0.085611895
241	0x3c8a7b2b	0.016904434
242	0xbe5a2f0e	-0.21307012
243	0x3d040452	0.032230683
244	0xbd7961d5	-0.060884316
245	0xbde8188e	-0.113328084
246	0xbe40f138	-0.18842018
247	0xbc40a101	-0.011757136
248	0xbe3ba8e5	-0.18326147
249	0xbdba5348	-0.09097916
250	0x3dbf193d	0.09330986
251	0x3dfb6761	0.12275577
252	0x3d09d8f2	0.03365416
253	0x3d8fcbc9	0.07021291
254	0x3e37ec49	0.1796123
255	0xbe5c926f	-0.21540235
