data/20240122/state_net_12000.pth (torch, 90556 bytes, 14 tensors)

layers.0.weight f4 [64, 5]
000000 ed a3 a0 3c 6f 21 3b bd 24 7f 36 3d c6 3f 4b be
       0.019609416 -0.04568618 0.044554844 -0.19848546
000010 ba 6d 8f 3e 2f a6 5b bd 10 76 7d 3e d6 fc 17 3e
       0.28013402 -0.053625282 0.24752069 0.14842543
000020 02 84 6c be 31 5d 75 bd 9d e9 93 3e 77 d5 f7 bd
       -0.23097232 -0.059903327 0.2888917 -0.12101262
000030 f7 76 7f be df 77 54 3e 4f 07 25 be 9f 69 88 be
       -0.24947725 0.20748852 -0.1611607 -0.26643082
000040 91 39 05 3d c9 5a 3e 3e 84 77 2f 3e 4c 08 3a bd
       0.032525603 0.1858932 0.17135435 -0.04541807
000050 62 ae 0b be 57 0b f7 3c 43 57 98 3d 26 33 ea bd
       -0.1364074 0.030156774 0.07438519 -0.11435537
000060 c6 14 c6 3d 0c 5a f9 3c a6 e4 49 3e 36 bf c2 3c
       0.09671931 0.030438446 0.19716129 0.023772817
000070 74 88 8d 3e a1 7c b4 bd 37 94 c3 bd 59 86 43 bd
       0.27643168 -0.088128336 -0.09549754 -0.047735546
000080 bc 83 12 be 91 cd ee 3c 1d 47 bd 3d 59 4a 8e 3e
       -0.14308065 0.029150756 0.092420794 0.27791098
000090 ff 7c 9a 3e 8d 42 c4 bb 08 a1 09 be 75 ae c8 be
       0.3017349 -0.005989379 -0.13440335 -0.391956
0000a0 05 00 1d be aa 77 26 3e 2b 1e a3 be 20 97 a2 bd
       -0.15332039 0.16256586 -0.31858954 -0.07938981
0000b0 92 94 aa 3e c5 b3 f0 3d c0 be 84 bd 5b d8 48 be
       0.33316475 0.11753038 -0.06481695 -0.19613783
0000c0 62 26 86 3e 1d fb 0b 3e 38 d1 29 be e9 15 d0 bd
       0.2620116 0.13670011 -0.16583717 -0.10160429
0000d0 29 8c 93 3e 08 67 81 be cf be be 3d 98 44 72 bd
       0.2881787 -0.2527392 0.093137376 -0.059147447
0000e0 55 a5 52 3e c1 67 87 3e 21 bb ad bd e5 f1 92 3e
       0.20570882 0.26446345 -0.08482958 0.28700176
0000f0 d8 7e 8b bd 28 e1 61 bd 9d ac 45 3e c5 42 69 be
       -0.06811303 -0.055146366 0.19304128 -0.22779377
000100 e5 45 d4 3d f0 5a f2 bd bb f6 77 3c 45 e7 10 3c
       0.10364894 -0.11833751 0.015134509 0.008844201
000110 ba 99 1e 3e 39 31 2d be 00 fd bf 3d 9a 43 e6 bd
       0.1548833 -0.16913308 0.09374428 -0.11243363
000120 73 59 fe 3b 68 45 7a 3e 15 8f 4c 3e c9 9f 28 bd
       0.007762128 0.24440539 0.19976456 -0.041168008
000130 c8 cf 71 be 4a f8 90 3e 83 54 12 3e 32 d7 5a bd
       -0.23614419 0.2831443 0.14290051 -0.053427882
000140 6e ee 06 be af 3c 66 bd dd 04 b1 3d 9f df f7 bc
       -0.13176891 -0.056210216 0.08643506 -0.030257998
000150 98 56 87 3e c1 f9 ae 3e 32 e3 e7 3d 57 99 5b be
       0.26433253 0.34174922 0.11322631 -0.21445213
000160 47 c2 60 3e 30 47 08 3e 8a 82 9d be e5 27 6c 3e
       0.21949111 0.13308406 -0.30763656 0.23062094
000170 46 98 2a 3d d9 90 25 be d7 dd 68 3e c6 f0 5d be
       0.041649126 -0.16168536 0.22740875 -0.21673879
000180 2f 5a 5b 3e 21 1d 02 be 94 f4 d9 bd f0 aa 4f be
       0.21421121 -0.12706424 -0.10642353 -0.20280051
000190 06 30 25 bd 7d 19 82 be 4b dc 32 be 06 90 b6 3d
       -0.040329 -0.2541007 -0.17466848 0.08914189
0001a0 24 4e c7 3c 31 6e 0f be 9b 95 93 bd 1f 7d cd bc
       0.024329253 -0.14006878 -0.07206269 -0.025084076
0001b0 02 0c 55 3e a5 f2 77 3e fb 84 0c bb 1b 4a 1f bb
       0.20805362 0.24213655 -0.0021441567 -0.0024305645
0001c0 e8 b5 ee 3d 3c 90 16 3e 7b e4 37 3e f5 44 8b 3e
       0.116557896 0.14703459 0.17958252 0.27201048
0001d0 1d 41 fe 3d ac fc a0 3d 6a 0b 85 3e 66 1e 76 3c
       0.12414763 0.07860693 0.2598527 0.015021896
0001e0 a0 4e 82 3e a6 4c fb 3d cb a2 b6 bd d6 f1 60 3e
       0.2545061 0.12270479 -0.08917769 0.21967253
0001f0 bc 47 20 be 36 b4 49 be ea 9b c9 3d 51 23 28 3e
       -0.15652364 -0.19697651 0.09844191 0.16419722
000200 96 27 66 3e 83 b6 41 3e 3f 98 61 be f2 a5 57 be
       0.22476038 0.18917279 -0.22030734 -0.21059397
000210 6e 12 13 3e 91 5a 6d be 82 cf 08 be c8 41 25 3e
       0.14362499 -0.2317908 -0.13360408 0.16138375
000220 59 da 8e be 8d 61 42 bd 88 b0 f7 bb 6b 8d 8f be
       -0.2790096 -0.047456313 -0.007558886 -0.2803758
000230 d4 6e 10 bc e8 5c a6 3e 01 f5 8e bd 96 0e c6 3d
       -0.008815486 0.32492757 -0.069803245 0.09670751
000240 ea 03 78 be ea 0d 75 3e 29 f9 b3 bd fd 41 92 bd
       -0.24220243 0.23931089 -0.08787758 -0.071414925
000250 d2 de ef bc 97 76 84 3e 45 75 7d be 52 e0 1b be
       -0.029281054 0.25871727 -0.24751766 -0.1522229
000260 f1 c8 31 be 62 4f 96 3e 65 85 18 be f7 53 8d bd
       -0.1736181 0.2935744 -0.14894636 -0.06900781
000270 1a 2e 2f be 1f 96 e7 bd 4c de 93 3d 50 6e 00 3e
       -0.1710743 -0.1130793 0.07220134 0.12542081
000280 0c 7f 88 3e 87 6a 83 bd 15 97 30 3e 75 27 41 3e
       0.2665943 -0.06416803 0.17245133 0.18862708
000290 87 7f 8a be fd 77 86 3e 9d df 80 3e da ac 9b 3d
       -0.2705042 0.2626342 0.25170603 0.07601328
0002a0 31 bb 8a be c4 67 0a be 8f 04 a9 bd 40 ec 38 3e
       -0.2709594 -0.13516146 -0.082528226 0.18058872
0002b0 ed 7e 99 3e b8 3a 4b be 2b 0f 41 be 09 95 b9 bc
       0.2997965 -0.19846618 -0.18853442 -0.022654073
0002c0 13 ff 45 3e 74 18 2f 3e f9 03 3a be c8 8b 17 be
       0.19335584 0.17099172 -0.18165578 -0.14799416
0002d0 06 a5 21 3e 92 10 43 3d 8f c0 26 be 3e 91 8f be
       0.15785608 0.047623225 -0.16284393 -0.28040498
0002e0 2d 70 a4 3d 59 bc 74 be 4a d6 13 3d 19 db 47 3d
       0.08029208 -0.23899974 0.036093034 0.048792932
0002f0 c0 d1 f0 bd df 07 82 be 2c 06 b6 bd ee f2 17 3e
       -0.11758757 -0.2539663 -0.08887896 0.14838764
000300 ad da 39 3e bc 10 80 3e d7 1c b2 3e 76 0e 29 3e
       0.18149824 0.25012767 0.34787628 0.16509423
000310 a2 24 6a be e9 1e 4d 3e 10 0a 1b bd 0e d9 96 3e
       -0.22865537 0.20031323 -0.037851393 0.29462475
000320 a2 e3 72 3e cb e0 5f be 70 32 8e 3e 80 04 8d be
       0.23719648 -0.21863095 0.27772856 -0.27542496
000330 51 40 46 3e ce 36 38 be df a0 f8 3d d2 3d 85 be
       0.19360472 -0.17989656 0.12140059 -0.26023728
000340 9d ef 1b be e1 e9 88 bd da 87 3a 3c 35 2c 97 bd
       -0.15228124 -0.06685234 0.011384929 -0.07381479
000350 63 36 ee 3d 06 af 8b be 8c 41 43 3e 25 62 f2 3c
       0.11631467 -0.2728197 0.19067973 0.029587815
000360 97 f2 c2 3d 7b 76 dd bc 1f 9d 6c bd 91 25 5d 3e
       0.095189266 -0.027034035 -0.05776703 0.21596362
000370 48 8a 36 3e f1 7c d8 bc 86 dc 38 bd 6a ee 48 be
       0.17826188 -0.026426764 -0.045132183 -0.19622198
000380 99 3f 48 be 3c e3 30 be 3c b0 fe bd 6d 55 14 be
       -0.1955551 -0.17274183 -0.12435958 -0.14485712
000390 d8 d4 86 3d 03 e1 cc 3d f8 bb da 3d 74 26 8a be
       0.065835655 0.10003855 0.106803834 -0.26982462
0003a0 a8 5f 05 3e be ca 8e bd e3 43 d7 3d 2e e2 c9 3d
       0.13024771 -0.06972264 0.10510995 0.098575935
0003b0 d7 ef 60 be 0e 73 7f 3e c6 d6 c3 bc 78 4e 59 be
       -0.21966492 0.24946234 -0.023906123 -0.2122134
0003c0 c4 d3 74 be 78 1f ef bc 3b af 57 3d 57 a7 42 bd
       -0.23908907 -0.02918981 0.052657347 -0.04752287
0003d0 6e 0c 84 be 17 2b 92 3d e0 07 7c bd c3 36 60 3e
       -0.25790733 0.07137125 -0.061530948 0.2189589
0003e0 d4 88 0a be 5a 60 b7 3d a7 56 40 be a1 04 b1 bd
       -0.13528758 0.089539245 -0.18783055 -0.08643461
0003f0 7e 02 eb 3d 71 7a 79 be 2a f8 7d be 64 f3 13 3e
       0.11475085 -0.24363114 -0.24801698 0.14448315

layers.0.bias f4 [64]
000000 fe 40 5f bb 2e 5d 84 3a a3 6d 93 3b 5a 2b 81 ba
       -0.0034065838 0.001009857 0.0044991537 -0.0009854839
000010 1a 4f 2c 3b fc f8 6c ba ff b3 fa ba 9d e4 5f bd
       0.0026292265 -0.0009039787 -0.0019127129 -0.054661382
000020 c1 12 df 3c d5 f3 1e bb 76 59 1d 3b da fd 41 bc
       0.027230622 -0.0024254222 0.0024009622 -0.011840308
000030 cb f2 0a bd 4b 12 8d 3b 35 85 0b 3b a2 69 72 3c
       -0.03392295 0.004305159 0.0021289114 0.014795693
000040 90 89 04 b9 d3 5f 9a bc 92 9f 10 bc 09 50 87 3b
       -0.00012639747 -0.01884452 -0.008827107 0.004129414
000050 49 e1 11 3b 3f 7a 0d 3d 93 21 74 3b c4 09 4c bc
       0.0022259525 0.03454041 0.0037251457 -0.0124535
000060 ca a1 6d 3b 5a a1 88 ba 54 e2 04 3c d0 4f 34 3b
       0.0036259764 -0.0010424063 0.008110601 0.0027513392
000070 eb 50 2a ba 6b 9b 46 bb 33 ff b7 3b 8f b0 a4 3b
       -0.0006497043 -0.0030305039 0.005615139 0.0050259302
000080 48 96 bb bb 7a 7c b8 3a be 9b b1 bb 01 43 a7 3b
       -0.005724702 0.0014075183 -0.0054201772 0.005104423
000090 da d1 60 3c 46 f5 65 3b 6a 52 e9 3b 17 eb a6 3b
       0.0137219075 0.0035088821 0.00712042 0.005093943
0000a0 5c aa ab 3a b5 7d 5e 3a 39 4b a5 3b 5f ba 01 3c
       0.0013097036 0.000848736 0.0050443676 0.0079179695
0000b0 97 5c 0e bc 37 92 f2 ba 8c 84 6a 3c 43 5d b7 bb
       -0.008689067 -0.001850671 0.014313828 -0.0055958345
0000c0 3e cd ad ba 00 68 2e bc ab 1a 18 b8 f2 94 8b 3b
       -0.001326002 -0.010644913 -3.626446e-05 0.004259699
0000d0 7e a5 b5 3c 78 b5 8d 3a 22 37 17 bb 2f be a0 3a
       0.02217364 0.0010811528 -0.0023073633 0.001226371
0000e0 23 69 20 3c 22 15 39 ba e5 e8 5e 3b bf 13 13 ba
       0.009790692 -0.0007060339 0.0034013328 -0.00056105474
0000f0 93 75 3e 3b 2f 09 6c bb ef 03 b3 3b 2b 25 e9 bb
       0.002906178 -0.0036016216 0.0054631154 -0.0071150265

layers.2.weight f4 [64, 64]
000000 4d 3f 4c 3b 17 26 06 be 81 30 ac 3d 69 43 71 3d
       0.003116566 -0.13100468 0.08407689 0.058902178
000010 ea fe ba bd 0d d7 f8 bc 9c dd 8e bc 8a 65 ed 3d
       -0.09130652 -0.030375982 -0.017439656 0.11591633
000020 fd e7 bf bd 2d 2e 22 be fb 7b fb 3c bd d1 a2 3b
       -0.0937042 -0.15837927 0.030698767 0.0049688504
000030 d2 f1 12 bd 41 ce 15 3e 9e 7e 21 bd e2 9b fc bc
       -0.03587515 0.14629461 -0.039427392 -0.03083605
000040 d3 c9 73 bd f3 63 11 3c 8c 62 d1 bd c5 fb a8 bd
       -0.059518646 0.008873927 -0.102238744 -0.08251146
000050 6e 77 b1 bd 31 a3 5d be c9 42 34 bb 61 a5 91 3c
       -0.086653575 -0.21644284 -0.0027505627 0.017779054
000060 23 f3 bf 3c f6 de b8 bd b0 28 98 3d 5a 79 19 bd
       0.023431366 -0.090269014 0.074296355 -0.037469245
000070 15 90 ff bd 45 8f 2c 3d 20 e7 3d 3e f4 16 f5 3d
       -0.12478653 0.04212882 0.18545198 0.119672686
000080 77 1f f1 3d af dc 2e 3e 7d 99 ef bd d7 bb 8f bd
       0.117735796 0.17076372 -0.116991974 -0.070182495
000090 e0 5f f1 bd b5 44 36 be 11 94 bb 3c 6e 96 5c 3d
       -0.11785865 -0.17799647 0.022897752 0.0538544
0000a0 ff af 3b 3e 02 bb 09 3e 7c 69 4f 3e cd 38 07 be
       0.18328856 0.13450244 0.20255083 -0.13205262
0000b0 1d 62 0d 3e 52 3f d3 bd 97 68 90 3d 8f d2 28 bd
       0.13806958 -0.10314812 0.07051199 -0.04121643
0000c0 38 b4 04 be e9 db ed bd 3b ce 0e be 3a 00 09 be
       -0.12959373 -0.1161421 -0.13945858 -0.13378993
0000d0 5d a6 04 3d e4 5b 17 be 1f 97 a5 bd 0f 5b ef bd
       0.03238522 -0.14781147 -0.08085465 -0.1168729
0000e0 5b da 31 bd 3e db bf bc 37 d5 57 be ad a7 22 be
       -0.04342113 -0.023419973 -0.21077429 -0.15884276
0000f0 7e 7e ce 3d fa 1c 0e 3e 7e 2c 4e be 62 32 cb 3d
       0.1008272 0.13878241 -0.2013416 0.09921719
000100 a5 61 58 3e 78 4d 84 bd 6d 0a 03 be bf 1c 5b 3e
       0.21130998 -0.064600885 -0.12796946 0.21397685
000110 00 87 34 be 74 b6 7a 3c fb 9c ba 3d eb ee 03 3d
       -0.17629623 0.015302289 0.09111973 0.03221027
000120 37 ec 1a be a5 99 b5 3d 86 9e 44 3e 2e d6 a2 bd
       -0.15129171 0.08867196 0.19201097 -0.07951008
000130 de ba 82 3c 33 ec 04 3e 0c 93 38 3e 4e 10 2f be
       0.015958246 0.12980728 0.18024844 -0.17096063
000140 89 5b 02 3e 4d 9e f1 bd 9f 27 b8 3c 11 11 2c 3d
       0.1273023 -0.117977716 0.02247983 0.042008463
000150 b3 f5 ff bc 0b 81 6e bd 78 60 d8 bd 2d fa df bd
       -0.031245088 -0.058228534 -0.10565275 -0.10936389
000160 59 7d 06 3c 20 17 9a bc 24 c5 f9 bc 5c af 80 3d
       0.008208596 -0.018809855 -0.030489512 0.06283447
000170 09 35 84 3d 1d aa bd bd 77 a0 ec bd e4 03 57 be
       0.06455428 -0.09260962 -0.11554044 -0.20997578
000180 78 67 b6 3d e4 52 84 3d 8f b1 de bc 6c b8 2f be
       0.08906454 0.06461123 -0.027184276 -0.17160195
000190 51 5f 4a be d7 7a e1 bd 31 82 4a 3e 18 fd 10 3e
       -0.19762923 -0.11009758 0.19776227 0.14159048
0001a0 9b c4 c2 3b 32 fe fd bd 48 0a b3 ba 88 e6 11 3e
       0.0059438474 -0.124019995 -0.001365968 0.14248097
0001b0 5b d8 35 3e 2e 5c 51 be 76 4c 5c be 96 3c 37 3b
       0.17758314 -0.2044532 -0.21513543 0.0027959696
0001c0 01 96 c1 bc 55 49 3b be 67 79 83 bd f9 14 ac 3d
       -0.023631098 -0.18289693 -0.0641964 0.08402438
0001d0 38 9c fd bd 33 99 02 be 84 51 33 3e d2 a7 13 bb
       -0.12383312 -0.12753753 0.17511564 -0.0022530449
0001e0 07 75 83 bd 91 cf 9e 3d 8f c8 41 3e a8 7e a9 3d
       -0.064188056 0.07754434 0.18924163 0.08276111
0001f0 29 a8 c2 bd 80 93 53 3e 2c 1e 61 bd 4b 98 18 3e
       -0.0950473 0.20661736 -0.054960415 0.14901845
000200 5f 75 cf bb 0f c7 3a 3e 4e 4b e6 bd 17 32 00 3d
       -0.0063311304 0.18239997 -0.11244832 0.03129777
000210 8e 24 28 be 25 1a 12 be 9b 8c 25 be 86 07 4b be
       -0.16420195 -0.14267786 -0.16166918 -0.19827089
000220 46 19 7f 3d 46 3f fb bd 82 5d 28 be 8e 52 be bc
       0.062279962 -0.12267928 -0.1644192 -0.023232725
000230 6b 82 91 bd d5 b2 03 be b6 ad 13 3e 0f 90 fa 3d
       -0.071049534 -0.12861188 0.14421734 0.12234508
000240 b7 f8 60 3e 0b 26 33 be 8b 9e c7 bd 66 a0 f7 bd
       0.21969877 -0.17494981 -0.097470365 -0.120911404
000250 4b f2 a0 bc 37 fe f5 bd 15 4c c8 3b 57 34 b9 bd
       -0.019646784 -0.12011378 0.0061125853 -0.09043186
000260 71 78 5d be a6 30 a5 3d d7 3b 36 bc e9 70 db 3b
       -0.21627976 0.080659196 -0.011122665 0.0066968095
000270 89 ec 43 be bf 2d 61 3d 1f 9a 44 be 87 a8 f8 bc
       -0.191332 0.054975267 -0.19199418 -0.030353798
000280 bd 1d 48 be e2 0a de bd a1 62 23 3e 87 78 45 be
       -0.19542594 -0.108419195 0.15955593 -0.19284259
000290 ca d9 3b 3e 42 51 2c be 6e 1b 98 bd 01 f0 25 3c
       0.18344799 -0.16827872 -0.07427107 0.010128022
0002a0 1c da 3c be 91 5b 33 be 90 59 94 bd 14 02 9a bd
       -0.18442577 -0.17515399 -0.07243645 -0.075199276
0002b0 19 29 f2 3d 7b 92 c7 bd b8 d1 3c 3e 65 24 ad bd
       0.11824245 -0.09744736 0.18439376 -0.08454207
0002c0 6d 53 90 3b 30 eb 1b bb 43 f8 95 3d bd 68 08 3d
       0.0044044764 -0.0023791306 0.07322743 0.03330301
0002d0 ca e0 be bc 08 04 5b 3e 4f 74 b5 3d d3 9f 00 3e
       -0.023300547 0.21388257 0.08860075 0.12560968
0002e0 f8 16 e6 3d b5 45 49 bd 06 9d e2 3d f5 35 31 3d
       0.1123485 -0.049138743 0.11065106 0.043264348
0002f0 22 bd 64 3d 64 84 6f be 13 94 26 3d a2 b2 0f be
       0.055844434 -0.23390347 0.04066856 -0.14032987
000300 ef a5 ed bd 12 45 e1 bd f9 0b 12 be 15 2c 3b 3e
       -0.11603915 -0.10999502 -0.1426238 0.18278535
000310 f2 09 c4 bd be e0 f7 bd 61 ed f9 3c fa d8 61 3c
       -0.095722094 -0.12103413 0.030508699 0.013784641
000320 59 cc 37 be 62 9d 5b be 04 b0 24 be d4 df 5f 3e
       -0.17949046 -0.21446756 -0.1608277 0.21862727
000330 47 83 0b be c1 5a f5 ba 01 0d 23 3d 47 7b ca 3d
       -0.13624297 -0.0018719063 0.039807323 0.098867945
000340 d6 fb 16 be 08 b9 5e be fa fe 38 3e 9a d1 f2 3d
       -0.14744505 -0.21750271 0.18066016 0.118563846
000350 a6 35 39 39 31 e4 e5 3d 4e cd 27 be 3f 3e 16 bd
       0.0001766296 0.11225165 -0.16386911 -0.036680456
000360 d1 c6 e4 bd be 86 0d be 02 79 d7 3d 97 ee 3f bd
       -0.11170734 -0.13820931 0.10521127 -0.046858396
000370 b0 56 0a be fe 7b 60 be 73 a4 38 be d3 a9 9c bc
       -0.13509631 -0.219223 -0.18031482 -0.019123947
000380 28 c4 42 be 46 20 39 be 8b f3 04 be d5 f2 82 3c
       -0.1902014 -0.18078718 -0.1298353 0.015984932
000390 3b 65 ee 3d 45 11 c0 bd 12 09 06 bd 71 3f 74 bd
       0.11640402 -0.09378294 -0.032723494 -0.059630815
0003a0 cb 73 c7 3c 33 e8 7d bd d3 42 87 3d 60 f6 0d 3e
       0.024347207 -0.06198902 0.066045426 0.13863516
0003b0 3e 49 7e 3c e6 ee fe 3d a5 98 35 be 8b 4d a4 bd
       0.015520392 0.1244791 -0.1773401 -0.08022603
0003c0 38 ac 43 3e c7 04 57 3e 28 9f 56 be 65 64 d4 3d
       0.19108665 0.20997916 -0.20959151 0.10370711
0003d0 26 49 9d 3c 9d f8 3a be b6 b0 23 be da 68 80 be
       0.019199919 -0.18258901 -0.15985379 -0.25079995
0003e0 94 fb 73 3b 56 65 e5 3d c8 e7 cd 3d 77 72 1a be
       0.003722881 0.11200969 0.100539744 -0.15082727
0003f0 91 aa 32 3e 07 3d 2e be 4f 5d 59 3e 24 b0 c0 bd
       0.17447878 -0.17015468 0.21227 -0.09408596

layers.2.bias f4 [64]
000000 10 de b9 ba be 3c 03 bb 60 f5 82 3c c3 33 06 3b
       -0.001418056 -0.002002522 0.015986145 0.002047763
000010 f6 d6 3a 3b 02 ef 3e bb 87 9c 63 ba 3e 6a 96 3a
       0.0028509474 -0.002913416 -0.0008682687 0.0011475754
000020 1d 6a e1 ba 2c db 12 3b 16 32 2c 3b 91 00 07 3c
       -0.0017197762 0.0022408469 0.002627497 0.008239881
000030 ae e8 20 bb 62 b8 48 3c 6e bb bb ba f2 72 c6 3b
       -0.002455275 0.012250992 -0.0014322826 0.006056183
000040 a2 a2 0e 3a 82 22 3b ba 6c 24 81 bc 52 ba ae bb
       0.00054411043 -0.0007138626 -0.015764438 -0.0053322697
000050 5c a0 46 bb 25 4a 55 ba c2 e9 ca ba 92 53 34 bb
       -0.0030307984 -0.00081363536 -0.0015481042 -0.0027515632
000060 ec 01 06 bc 50 90 c1 3a 49 65 a6 3b 8c 13 47 3b
       -0.008179169 0.001476774 0.005077992 0.003037664
000070 55 e2 9b ba ca 6a 31 ba 52 7a 8e 3b 04 fb ec 3a
       -0.0011893014 -0.0006767927 0.004348078 0.001808018
000080 ae 03 36 bb 85 34 1d 3b 8d 86 1e 3a ea cc e1 bb
       -0.002777319 0.0023987603 0.00060472713 -0.0068908827
000090 eb 98 33 3a ed 04 56 ba 67 f6 89 bb 7b 9b 48 3c
       0.00068510947 -0.0008164186 -0.0042102817 0.012244101
0000a0 f2 56 56 3b fe 8b 9f 3b 6d a9 e3 3b 0d 22 74 3b
       0.0032705632 0.0048689833 0.0069476874 0.003725174
0000b0 e1 b6 16 bb ad 00 1d bb e0 e0 89 bc 8c d9 48 3b
       -0.0022997188 -0.0023956702 -0.016830862 0.0030647246
0000c0 34 4c f2 3b 63 72 1b bd 4f 19 88 3c 18 32 be bb
       0.007394338 -0.037950885 0.01661363 -0.0058043115
0000d0 e9 33 c7 3b 9d 34 1d bb c1 95 c2 b9 86 4d af ba
       0.006079186 -0.0023987659 -0.0003711414 -0.0013374544
0000e0 c1 43 0e 3c ae 01 c6 b9 6c b9 00 3c 39 4b 9c 3b
       0.008683146 -0.00037766754 0.007856708 0.0047697094
0000f0 1e 77 1b bb db 5f 7e 3a 9a 8e 74 bb 81 14 05 3c
       -0.0023722122 0.00097036146 -0.0037316442 0.008122564

layers.4.weight f4 [64, 64]
000000 e0 c1 59 3d 67 f3 0f 3e 3e 30 b1 bd 72 86 49 be
       0.05316341 0.14057694 -0.086517796 -0.19680193
000010 19 24 07 be 6b 03 0b be 7c bc 63 bd b4 0d 53 3d
       -0.13197364 -0.13575523 -0.055599675 0.05152674
000020 33 35 76 bd 7c 78 8f bd 9a ff 37 3d ee aa bc bd
       -0.06010933 -0.070054024 0.044921495 -0.0921229
000030 b9 f2 22 3e b8 12 30 3e fb ef 40 be 00 a9 2c 3e
       0.15912904 0.1719464 -0.18841545 0.16861343
000040 8b 1c 45 bd 57 4c 2b 3e f7 cc 15 3b 86 35 0f be
       -0.048122924 0.1672834 0.0022857764 -0.13985261
000050 67 7f e2 3c 0b 42 34 bd ea 07 57 3e db 6b a2 bd
       0.02764864 -0.044008296 0.20999113 -0.07930728
000060 52 aa 45 be 0d 2e 80 bd 70 e0 d4 3d 18 7a 8d 3c
       -0.19303253 -0.062587835 0.103943706 0.017270133
000070 3a 65 f4 bd 6c 78 c1 3c 62 85 05 3e 2f 74 ad 3d
       -0.1193337 0.023616992 0.13039163 0.08469426
000080 a9 22 85 bd 2c fd 29 3e ea 91 01 be 59 88 56 3e
       -0.065007515 0.16600484 -0.12653318 0.2095045
000090 f3 d1 b8 3d 59 db d8 3d f0 2f 56 3e 0c 83 a8 3d
       0.0902442 0.10588712 0.20916724 0.0822812
0000a0 78 50 7e 3e 0f 6a 32 3c d4 de 14 3e 6f 90 54 bd
       0.24835384 0.010889544 0.14538127 -0.051895555
0000b0 4c 7e 64 3c 58 0c 73 3d ea 36 b3 bd 0a 55 25 3d
       0.013946127 0.059337944 -0.087507084 0.040364303
0000c0 0b 65 2f be fc b7 bd 3d 5b 07 22 3e ef 1c 03 3e
       -0.17128389 0.09263608 0.15823118 0.12804006
0000d0 a8 be 0d bd 2f 63 a2 3c f9 fd 4c be 71 85 3f bd
       -0.034605652 0.019822685 -0.20018758 -0.04675812
0000e0 e4 18 0e 3e 7f 56 8d bc 2a 64 03 3e e4 2c ae 3d
       0.13876683 -0.017253159 0.12831178 0.08504656
0000f0 48 89 38 bc 38 5a ad bd 39 e6 21 be 2a 35 49 3e
       -0.011263199 -0.084644735 -0.15810479 0.19649187
000100 37 13 23 3e 92 9e f4 bc 2d 71 3a be 92 23 7d be
       0.15925299 -0.029860768 -0.18207236 -0.247206
000110 a4 98 c5 bd e6 31 03 be bb ef 9b 3e e6 39 b5 bd
       -0.096482545 -0.12812003 0.30456337 -0.08848934
000120 d5 cb a7 bd 46 70 eb 3d 97 1f da bd c8 63 81 3d
       -0.08193175 0.11496024 -0.106505565 0.0631786
000130 d9 46 74 be 16 13 c7 3a c8 68 06 be a1 63 03 3d
       -0.23855151 0.0015188183 -0.13125908 0.032077435
000140 d9 7d 0a 3d 59 63 ca bd 4a a7 53 be c7 88 1f bc
       0.033811424 -0.0988223 -0.20669284 -0.0097372
000150 1c 4e 18 3e a5 a0 a4 3d c9 e7 c6 3c 7f 15 62 be
       0.14873546 0.08038453 0.024280446 -0.22078513
000160 3d 45 33 be 71 6a 66 3e eb 53 41 3d 86 c0 8b 3d
       -0.17506881 0.22501542 0.04719917 0.0682383
000170 2f ed 01 be 47 92 05 be a9 30 68 bd f1 f3 2a 3e
       -0.12688135 -0.13044082 -0.05668703 0.16694619
000180 ad ab f8 bd 00 75 c8 bd 10 56 a6 3d bd ba 0c 3d
       -0.121421196 -0.09787941 0.08121884 0.034357775
000190 4d ea 77 bd 2a 1e 07 be 61 d8 b9 be f7 ed 03 be
       -0.06052618 -0.131951 -0.36297897 -0.12883745
0001a0 ca c0 92 3d b7 79 c7 3d e0 cf d5 3d a5 5c 0f 3a
       0.07165678 0.09740012 0.1044004 0.0005468822
0001b0 aa 25 20 bd 3e 18 80 bd 4c 11 00 bd 44 fe f4 bd
       -0.03909842 -0.06254624 -0.031266496 -0.1196256
0001c0 e8 e2 ef 3d 1e 72 2a be 58 43 55 3d 66 38 59 be
       0.11713201 -0.16645095 0.052066177 -0.2121292
0001d0 fb 57 52 3e c2 de e9 bc dc 0a 2a 3e 7d ca 90 bd
       0.20541374 -0.028548602 0.16605705 -0.070698716
0001e0 f8 7f 0a be cb ae e0 bd 41 54 09 3e c9 3c 9e 3c
       -0.13525379 -0.10970839 0.13411047 0.019316094
0001f0 26 1b b7 3b f4 ae bb bd 3b d7 85 be 29 f5 fb bd
       0.005587953 -0.09164229 -0.2614077 -0.1230262
000200 c3 50 b7 bc 25 46 00 bd 18 14 33 be 11 19 be 3c
       -0.022377377 -0.031316895 -0.17488134 0.023205312
000210 82 b7 71 3e 0f 7b 00 3d 83 e5 d3 bd d5 09 83 3d
       0.23605159 0.031367358 -0.1034651 0.0639836
000220 66 f6 32 be 9c 6a 7a be 8f 03 5f bd c6 a6 84 be
       -0.17476806 -0.24454731 -0.054446753 -0.25908488
000230 95 19 3b 3e f0 5f aa bd 15 62 ad 3d 64 0c 65 3e
       0.18271478 -0.0831908 0.08465973 0.22368008
000240 d3 73 58 be 22 db 80 3e ba fe 3e 3e 35 4b 15 be
       -0.21137933 0.25167185 0.18651858 -0.1457947
000250 ed 6e e6 3d 1c 6b 8f 3c d0 96 a7 3d 76 63 65 3e
       0.11251626 0.017507128 0.08183062 0.22401223
000260 4f 00 a1 bd af 7b ad 3d 2e 2d a7 3d f6 22 54 be
       -0.07861387 0.084708564 0.08162914 -0.20716462
000270 23 76 02 3e bc 63 92 3e d3 c3 48 be 4d 5d 35 be
       0.12740378 0.28591716 -0.19605951 -0.17711373
000280 c0 3c 0a be 77 fc 03 be ae 17 0c 3e 7b 7d fd 3d
       -0.13499737 -0.12889276 0.13680908 0.12377449
000290 ad be 0e be ec 20 31 3e 68 90 12 be b5 c5 4e be
       -0.13939925 0.17297715 -0.14312899 -0.20192607
0002a0 80 46 70 be 23 e2 51 bb 43 e4 c8 3d 17 7e 0b be
       -0.23464394 -0.0032025657 0.098091625 -0.13622318
0002b0 09 73 6e bb 36 c3 22 3e 9a 2b 2d 3e e2 9f 83 3d
       -0.0036384484 0.1589478 0.16911164 0.064269796
0002c0 af c3 a7 bd c1 3f 9f 3d 78 75 4c 3e 77 7f 32 3e
       -0.081916206 0.07775832 0.19966686 0.17431436
0002d0 b9 44 a9 3d 27 ed 2b be f2 57 b6 3d cf d8 54 be
       0.08265061 -0.16789685 0.08903493 -0.20785831
0002e0 2d 33 ff bd a5 a7 14 3d 8d 4f 40 3e d9 37 52 be
       -0.12460933 0.03629269 0.18780346 -0.20529117
0002f0 12 29 23 be 40 6e 62 bd f4 d0 03 3d 1f a0 45 be
       -0.15933636 -0.055280924 0.032181695 -0.19299363
000300 20 6b 16 3e ac 6b a7 bc 75 54 94 3d fc a3 a5 bc
       0.14689302 -0.020437084 0.072426714 -0.020219795
000310 54 48 5f 3d e7 9a 79 bd f7 d0 46 be 20 30 0a 3d
       0.054512337 -0.060938742 -0.19415651 0.0337373
000320 ba ef bf 3c fb 20 94 3d 97 b4 50 3e 76 25 82 3d
       0.02342974 0.07232853 0.2038139 0.06354801
000330 d1 41 b2 3d 99 80 1e be 59 0d 51 bd b1 4c 4c 3e
       0.0870396 -0.15478744 -0.05103812 0.1995113
000340 76 3f 93 bb 6f 84 0a 3d 79 7a e9 3c e2 66 1a be
       -0.004493649 0.033817705 0.028500782 -0.15078309
000350 e4 e4 59 be bf 5d 16 be ba e9 85 3c 9a 74 4d 3e
       -0.21278721 -0.14684199 0.016346801 0.20064011
000360 8e 91 19 be 2b 19 d4 3d cd 9c 41 3e 7f b6 d5 bd
       -0.14996931 0.10356363 0.18907471 -0.10435199
000370 ee b2 15 be df c5 22 be bb 52 d5 bd 76 87 93 3c
       -0.14619038 -0.15895794 -0.1041617 0.018008929
000380 63 37 39 be d0 04 ca 3d 50 f6 1b be 31 bc 10 be
       -0.18087535 0.09864199 -0.1523068 -0.1413429
000390 c6 c5 02 3e a8 65 88 3d 42 78 19 3e 26 55 69 bd
       0.12770757 0.066600144 0.14987281 -0.05696597
0003a0 10 6d 69 be c2 ab 33 3d 37 57 5e 3e 7f 4f 3e 3e
       -0.2279551 0.043864973 0.21712957 0.18585013
0003b0 15 79 41 3e 7d 0c 09 bd 65 fd 61 bc 72 d4 f4 3d
       0.18893845 -0.033459175 -0.013793324 0.11954583
0003c0 a8 b2 05 bc e3 7b fd bb a0 01 70 3c 45 b2 29 3d
       -0.008160271 -0.0077357157 0.014648825 0.041429777
0003d0 73 a7 f6 3d 1c 30 29 3e 80 c1 16 3e 42 2f 32 be
       0.12043657 0.16522259 0.14722252 -0.1740084
0003e0 ba f5 06 be 69 a7 24 bc c6 26 44 3e 4c 91 91 bd
       -0.13179675 -0.010049679 0.19155416 -0.07107791
0003f0 db ec d7 bc 5e 54 e7 3c e6 87 d2 bd 58 0e 06 3d
       -0.026358059 0.028238472 -0.10279827 0.032728523

layers.4.bias f4 [64]
000000 b5 09 d8 3a 17 f1 cf 3d 5b e2 57 bc ba f4 0e b8
       0.0016482385 0.10153406 -0.013176526 -3.4083358e-05
000010 7d 2d c6 bb e8 ae 0e bc b0 cb 02 3b 29 62 a4 ba
       -0.006047903 -0.008708693 0.0019957833 -0.0012541461
000020 f0 1b f8 3b 4a e7 9d bc 02 dc 04 3b e2 b9 d5 bb
       0.00757169 -0.019275326 0.0020272736 -0.006522403
000030 2d 18 c8 3a 28 78 75 3a 1e 34 69 3b 70 26 5c 3b
       0.0015265994 0.0009363913 0.0035584043 0.0033592246
000040 01 96 5b b9 9a f9 49 3a 6e d5 89 bc 32 39 5c bc
       -0.00020941348 0.0007704735 -0.016825404 -0.013441371
000050 7e d1 04 bb 91 74 61 bb 71 67 20 ba 96 ed 27 ba
       -0.0020266469 -0.0034401754 -0.00061189296 -0.00064059475
000060 c4 3b fa 3b 4e 44 d9 b9 08 18 40 3a a6 f8 9c 3b
       0.007636519 -0.00041440356 0.00073277997 0.0047903834
000070 fe fb c0 3b 84 dd 6e 3b 31 2c 7c 3c c5 9a 22 b9
       0.005889415 0.0036447952 0.015391395 -0.0001550718
000080 20 a2 1c bb ed f1 df bb b1 83 96 bc f1 a2 a8 3c
       -0.0023900345 -0.0068342597 -0.018373342 0.020585509
000090 76 01 4f 3c d4 55 1a 3c a3 51 20 bc 48 42 5c 3a
       0.012634626 0.009419877 -0.009785089 0.00084022107
0000a0 f9 6d 93 bb ee e5 11 3b cf ce 8a bb a7 c5 03 3b
       -0.0044991937 0.0022262293 -0.0042360793 0.0020106824
0000b0 e8 3d 8c bb f5 ac 22 3a dd 9c 12 3b 34 40 4f 39
       -0.0042798407 0.0006205582 0.002237133 0.00019764976
0000c0 43 9f d0 3a a1 95 f2 bb e1 ac e1 39 75 54 85 b9
       0.0015916604 -0.007403091 0.0004304415 -0.00025430662
0000d0 94 f9 c1 ba db 99 ea ba 63 e2 1e 3c c1 19 4b ba
       -0.0014799112 -0.0017898636 0.0096975295 -0.0007747673
0000e0 2f 44 2f 3c 5c c3 73 3b 86 5d c4 ba 64 50 d0 ba
       0.010697409 0.00371953 -0.0014981485 -0.0015893099
0000f0 fa a2 ab 39 2b 10 bd 39 9c 5b 2e 3c 7c dd b2 bc
       0.0003273709 0.00036060935 0.010641959 -0.021834128

layers.6.weight f4 [64, 64]
000000 e6 df 55 be 84 33 46 3d 6c 24 4c be 2a 72 17 3e
       -0.20886192 0.048388973 -0.19935769 0.14789644
000010 8e 29 05 be c8 af a4 bd e5 4d 34 be 4f 2b d4 3d
       -0.13004133 -0.0804134 -0.1760784 0.10359823
000020 a6 58 16 3e 1d a1 8a 3d f7 07 23 3c 5c 85 90 bd
       0.14682254 0.06769011 0.009950629 -0.07056686
000030 22 78 78 bd aa 8b 9b 3b 41 bd 46 3d 5b b0 49 3e
       -0.060661443 0.004746874 0.04852033 0.1969618
000040 d2 8d 8a 3d 88 b4 74 bd fe f4 44 be 84 07 18 3e
       0.06765331 -0.05974248 -0.19234082 0.14846617
000050 6b 85 c8 bd f5 2b 3a bc d3 e0 57 be ef 1e db bd
       -0.097910725 -0.011363019 -0.21081857 -0.106992595
000060 1a a5 b8 3d d2 13 26 be 80 1f 80 3d 41 c4 09 3a
       0.090158656 -0.16218498 0.06256008 0.00052553794
000070 20 3a 3a bb 7b 42 2d 3e f4 f9 48 3e 6e 1c 90 bd
       -0.0028415993 0.16919892 0.196266 -0.070366725
000080 79 bc e0 3c 4e 54 28 3c 5e 8f 32 be c5 48 33 bd
       0.02743362 0.010274006 -0.17437503 -0.04377057
000090 77 29 c9 bd 77 4d be bd 0d 0e 50 3d 6e 33 1c 3e
       -0.09822362 -0.09292119 0.05079465 0.15253994
0000a0 bd 12 00 bd 63 3a 3c bd e1 c7 c1 3c 7d a5 b9 3d
       -0.03126787 -0.04595412 0.02365488 0.090647675
0000b0 27 ca f0 3d 77 a0 94 bc 1c 49 4b 3e e5 35 58 be
       0.117573075 -0.018142922 0.19852108 -0.21114309
0000c0 a0 40 03 be 4f 24 9f 3d 7e 5b 37 be 62 5d 0e bc
       -0.12817621 0.07770597 -0.17905995 -0.008689256
0000d0 dd c5 43 3e 8c 7b 6d 3d 99 fb 0c 3e 93 52 13 3e
       0.19118448 0.05797915 0.13767852 0.14386968
0000e0 18 84 13 3d 96 6e b0 3d 1b 7e 19 3e 85 46 04 ba
       0.036014646 0.086148426 0.14989512 -0.00050459086
0000f0 11 61 54 3e c3 6b 04 3e 12 7b 82 3d bb 12 27 be
       0.20740153 0.12931733 0.0637113 -0.16315739
000100 2f 84 0b be 04 f8 df bd 93 e1 28 3e 03 2f 49 3e
       -0.13624643 -0.10935977 0.164923 0.1964684
000110 72 10 8a 3e 8d a5 95 3e 6a 1f 5b be 20 3f b1 bd
       0.26965672 0.29227868 -0.21398702 -0.08654618
000120 f0 81 06 3e dc d7 b8 bd 4d ad 9a bd 71 89 3f be
       0.13135505 -0.09025547 -0.07552586 -0.18704773
000130 e2 98 92 bb 13 2d 7d bd b7 49 44 3e b9 78 21 bd
       -0.0044737915 -0.061810564 0.19168745 -0.03942177
000140 67 44 10 3d 08 a8 23 be e1 46 7a 3e c7 47 9f bd
       0.035221484 -0.15982068 0.244411 -0.07777362
000150 16 24 49 3e 32 e3 0d bc b7 ac b0 3b af 4a 71 be
       0.19642672 -0.008660125 0.005391683 -0.23563646
000160 56 e2 1e be 78 0d 2c 3d 25 54 27 3e ca 54 85 be
       -0.15516028 0.042005032 0.16340692 -0.2604125
000170 fd a6 f9 3c 21 10 15 3e ae 77 26 3e e8 b2 09 be
       0.030475134 0.14556934 0.16256592 -0.13447154
000180 f3 3c 34 3e c9 d8 40 3e 2f b7 4d be eb e2 7b be
       0.17601375 0.18832697 -0.2008941 -0.24598281
000190 1f 12 21 be ed b1 20 3e f5 ab 7b bc 8e 0b 97 bd
       -0.15729569 0.15692873 -0.015360822 -0.07375251
0001a0 d9 0a a1 bb 40 1d 3a 3e 70 0b 24 3e 58 ac 69 3e
       -0.004914623 0.1817522 0.16019988 0.2281965
0001b0 99 42 8d 3d 51 a7 85 bd c1 f6 41 be ff 7d 35 be
       0.06897468 -0.06526054 -0.18941785 -0.17723845
0001c0 4d e0 66 3e e0 9b 72 3e ed c2 f0 bd 22 1c 49 bb
       0.22546501 0.23692274 -0.11755929 -0.0030686934
0001d0 31 e2 23 3e cc 89 a6 3d bc 82 d3 bd cf 4d 0a 3e
       0.16004254 0.081317514 -0.1032767 0.13506244
0001e0 e6 e1 1f 3e 48 11 38 be d0 db 3c 3d 0e 72 c4 3d
       0.15613517 -0.17975342 0.046108067 0.09592067
0001f0 11 62 20 3d b3 a3 ed bd 34 66 f0 bd a0 02 35 bd
       0.039156023 -0.11603489 -0.11738244 -0.044191957
000200 e7 36 ee bc d4 7e f2 bb 69 97 4d be 72 55 28 bd
       -0.029078914 -0.007400373 -0.2007729 -0.041097112
000210 f6 02 42 bc 7c 24 2b be 1a 19 05 be 77 a3 30 3e
       -0.011841526 -0.16713136 -0.12997857 0.17249857
000220 07 47 31 3e 23 74 25 3b 06 65 fb bd d5 44 5d 3e
       0.17312251 0.0025246225 -0.12275128 0.21608289
000230 0a 12 c8 bd 1e 12 31 be 09 57 37 3e b0 4d 74 bc
       -0.09769066 -0.17292067 0.17904295 -0.0149111
000240 ad 95 1c be a5 80 a6 3d 86 3d a8 3d 56 57 6b 3c
       -0.15291472 0.08130006 0.0821486 0.014364084
000250 57 3a 3f be 3a 7a 01 be b8 cb 15 be a0 87 5c 3d
       -0.18674599 -0.12644282 -0.14628494 0.05384028
000260 7c 73 09 be dd b4 8a 3c ce cb fe 3d ca 5e 58 be
       -0.1342296 0.016931945 0.124412164 -0.21129909
000270 2b 9e 51 bd 7d 16 e5 bd e7 fc 90 3d c1 67 90 3c
       -0.05117623 -0.1118593 0.07079487 0.017627599
000280 87 f0 73 3d c1 f6 ec 3b 97 4a 79 3e 6c 5d a4 3c
       0.059555557 0.007231564 0.2434486 0.020064078
000290 03 09 4a 3d e1 4f 09 3e 15 58 c1 3c f6 da 38 3d
       0.049325 0.13409378 0.023601571 0.045130692
0002a0 54 5f 5f bd fd 3c 9e bb cb 3f f9 bd 61 7c 7f 3d
       -0.05453427 -0.0048290477 -0.12170371 0.062374476
0002b0 f0 13 08 3e 05 83 09 be e2 6e 5c 3e ae 1c 88 bd
       0.13288856 -0.13428886 0.21526673 -0.06646095
0002c0 73 6c 07 be 5a c6 8d 3d 7d 04 d6 3c 61 17 e8 bd
       -0.13224964 0.06922598 0.026125187 -0.11332584
0002d0 a5 32 b6 3c fc f2 0f 3e f1 d5 ff bd e2 9b f1 3d
       0.022240946 0.14057535 -0.12491978 0.117973104
0002e0 c9 42 3f 3e eb 31 66 3e 31 8d 8e bd c7 a7 13 be
       0.1867782 0.2247998 -0.06960524 -0.1441947
0002f0 74 65 69 3b e8 22 82 3b 8d 10 62 3e 19 e5 16 3e
       0.003561345 0.0039714463 0.22076626 0.14735831
000300 25 77 08 3e 85 ee 5a 3e ad fd e1 3c a0 e7 a4 bb
       0.133267 0.2138005 0.027586782 -0.0050324947
000310 15 f4 1e be 39 eb 6a bd 24 e6 6c bc dc 1f 3d be
       -0.15522797 -0.057353232 -0.014459167 -0.18469185
000320 7b 1f a8 bc 69 24 cc 3d 51 65 9a bd 35 40 88 3c
       -0.020522824 0.09967882 -0.07538856 0.016632179
000330 6a 0e 35 3e 0e c1 9b bc c0 2b e3 3d 04 08 9d bd
       0.1768128 -0.019012954 0.11092329 -0.076675445
000340 c4 94 16 be d1 f7 62 3d 23 69 fe bd e3 94 1f be
       -0.14705187 0.055412117 -0.12422397 -0.1558414
000350 a1 61 0d 3e 6e ae 22 3e 1b 3f 0a 3d 35 0d 34 3e
       0.13806774 0.15886852 0.03375159 0.17583163
000360 18 1e 48 bd d2 f0 c9 bc 23 3c df bc 5c 8a 90 3d
       -0.048856825 -0.024650965 -0.027250355 0.0705764
000370 b3 2d 40 bd 30 4f f7 3d d6 e0 21 be 55 2a 33 be
       -0.046918582 0.12075651 -0.15808424 -0.17496617
000380 af 3d 93 bd c3 6a 01 3e d3 12 5b be a9 21 4a 3e
       -0.071894996 0.12638383 -0.213939 0.19739403
000390 70 53 55 be c9 78 b2 bc 57 eb 26 be cd 23 2d 3e
       -0.2083261 -0.02178611 -0.16300713 0.16908188
0003a0 8a 74 e5 bd 3a 15 a2 bd 2d aa 2f 3e 20 74 5a be
       -0.11203869 -0.07914205 0.1715476 -0.2133336
0003b0 1f 08 84 3d cf c6 40 3e be a9 be bd aa f3 50 bd
       0.064468615 0.1882584 -0.093097195 -0.051013626
0003c0 42 30 98 3c f4 09 28 be da 2c 29 bd f2 0c 89 bc
       0.018577699 -0.16410047 -0.04130254 -0.016729806
0003d0 1a 0d 34 be 18 ab 9d bd 72 7f d0 bb c6 80 0e 3d
       -0.17583123 -0.07698649 -0.006362849 0.034790777
0003e0 c1 aa d6 3d df dd 12 3e 18 39 0a be 6d 0c 1e 3e
       0.104817875 0.1434245 -0.13498342 0.15434428
0003f0 2b 89 53 be 3d ec 09 be 38 a7 2b bd 48 3f 3d be
       -0.20657794 -0.13469024 -0.04190752 -0.18481171

layers.6.bias f4 [64]
000000 d8 10 dd 39 1b dc a8 bd d2 d0 64 3b 48 6c 9f 3a
       0.00042164954 -0.08245107 0.0034914506 0.0012163008
000010 ab 04 13 bb 25 86 4f 3a 1b 07 bd bb 4b d8 0c bc
       -0.0022433202 0.00079164124 -0.0057686693 -0.00859649
000020 fc 71 04 bc e8 27 39 39 f1 96 62 b9 62 74 c6 3b
       -0.008083817 0.00017657841 -0.0002160927 0.0060563544
000030 4a 9f 1d 3b f5 c2 46 ba 84 d2 c2 39 de 89 60 bd
       0.0024051243 -0.00075821514 0.0003715941 -0.05481898
000040 4c e3 ff 39 ec c8 b3 3c e5 8b 53 bb 25 42 9b bb
       0.0004880674 0.021946393 -0.0032279429 -0.0047381097
000050 3b de 24 3a 8c bb a3 bb 47 10 a2 3b b6 42 05 bb
       0.00062892184 -0.0049967226 0.004945788 -0.0020333952
000060 f1 0f f0 3b ad f5 e0 39 71 0b 16 3b 65 65 fd 3a
       0.007326119 0.00042907652 0.0022895003 0.0019332586
000070 5e 46 13 3b d3 03 0d 3b f5 40 f1 ba 21 17 98 3b
       0.0022472362 0.0021517172 -0.00184062 0.004641429
000080 93 33 c2 39 59 02 80 ba 28 3d 2c 3b 36 4b 98 ba
       0.0003704099 -0.0009766325 0.002628157 -0.0011619094
000090 db 8c 21 bc f8 d4 c2 3b af c9 3e bc 97 7d 34 bd
       -0.009860243 0.005945798 -0.011644765 -0.044065084
0000a0 64 b3 50 3a 56 c3 9b bc 15 2b bc 39 1b 69 3c 3a
       0.00079613016 -0.019014042 0.00035890253 0.0007187293
0000b0 f1 2d 32 3b ea 6c 06 3a f2 39 98 bb a7 f6 47 3a
       0.0027188028 0.0005127924 -0.0046455795 0.00076280016
0000c0 ca f1 8a 3d d7 29 d3 39 17 d0 c6 b9 1c 19 9e b9
       0.06784399 0.0004027623 -0.00037920542 -0.00030154816
0000d0 d0 ff b1 3b ff 78 ff 3b 77 22 90 3a 3c 50 70 3a
       0.0054321066 0.0077964063 0.00109966 0.00091672293
0000e0 ef 46 cd 3a 38 ec 17 39 9d 60 e4 b9 7b b6 bd bb
       0.0015661399 0.0001448848 -0.0004355953 -0.0057895756
0000f0 28 51 c5 3b 0f a3 4f 3b ae 06 b8 3c 42 b2 86 38
       0.0060216375 0.0031682884 0.022464123 6.422821e-05

layers.8.weight f4 [64, 64]
000000 ce 26 8f bc bd b7 f0 3d 3c 25 1e be 46 fb 1b 3e
       -0.017474558 0.11753795 -0.15443891 0.15232572
000010 cf 15 bc 3d 92 93 c3 3d 3a 24 1d 3e 50 67 55 3e
       0.09183847 0.09549631 0.1534585 0.20840192
000020 08 8f c7 bd c7 d0 ca bd 5b ed 4f 3e fa bd 1f 3e
       -0.09744078 -0.09903102 0.20305388 0.15599814
000030 4f c0 f6 3d ef 4a 22 3e f9 3f ac bd 0e 82 d4 bd
       0.12048399 0.15848897 -0.08410639 -0.103763685
000040 31 f2 d4 3d 72 c5 52 be 84 65 f6 3d df 2e 31 be
       0.10397757 -0.20583132 0.12031081 -0.17303036
000050 df 8d e2 bd 03 b1 f1 3d eb 6b a7 bd 60 1a 59 be
       -0.11062216 0.118013404 -0.081748806 -0.21201468
000060 ab 19 0b 3e 8a 97 ce bd cb 20 bd bd a1 20 ff 3d
       0.1358401 -0.100874975 -0.092347704 0.12457395
000070 0a 2b 6a bd 5b 70 59 be f2 d8 6d 3c 74 ca 14 be
       -0.05716995 -0.21234266 0.014517056 -0.14530355
000080 f2 92 a2 bd b0 fc 1f 3e 5c 74 92 bc f2 08 20 bd
       -0.07938184 0.15623736 -0.01787775 -0.03907103
000090 7e 3c 84 bd 8e 9f 4d be 44 8c 48 be ee d1 a5 bd
       -0.064568505 -0.20080397 -0.19584757 -0.080966815
0000a0 cd 1e 34 3e c5 ac 55 3c b4 06 32 3d d5 01 53 be
       0.17589875 0.01304168 0.043463424 -0.20606168
0000b0 ad 57 20 be 5a 54 a3 3d 0c d3 1d 3e 71 da 17 be
       -0.15658446 0.07975073 0.15412539 -0.14829423
0000c0 ed fd 03 3b de 65 1f bd ea 6b 4e bd 10 0b 2d be
       0.0020140365 -0.038915507 -0.050395884 -0.16898751
0000d0 2d d5 3a be 13 36 3f 3e 5f 31 60 be ab cc f1 3c
       -0.18245383 0.18672971 -0.21893834 0.029516539
0000e0 cb 21 f6 3c 78 9d 91 3d 81 f5 24 be 7b 95 30 3e
       0.03004541 0.07110113 -0.16109277 0.17244522
0000f0 3b e3 41 bd fb d6 23 3e 07 52 0c be fe 9e de 3d
       -0.047335844 0.15999977 -0.13703166 0.10870169
000100 c6 db 30 bc 55 81 08 be b1 f4 d5 3d dc 14 39 3e
       -0.010794586 -0.13330586 0.10447062 0.18074363
000110 58 4b 30 3e 64 61 ee 3d fe 14 1d bd a8 a5 39 be
       0.17216241 0.116396695 -0.038350098 -0.18129599
000120 b7 d8 c2 bd 7f 3f 47 be d5 df 1c 3d d9 2e 87 bd
       -0.09513991 -0.19457816 0.0382994 -0.06600732
000130 0c f6 29 3e 8e ee 4a be 4b a2 bd 3d 81 bb c0 3d
       0.16597766 -0.19817564 0.092594706 0.094107635
000140 5b 76 c0 bd 9b 40 4e be 18 25 40 3e 61 d0 0c be
       -0.093975745 -0.20141833 0.1876415 -0.13751365
000150 e1 08 35 3e 4e a2 3a be a1 0b f8 bd bc 5f 43 3d
       0.17679168 -0.18225977 -0.12111593 0.04769872
000160 7c 2f 39 be ff ec 3d be 74 f5 3d be db 91 2d 3e
       -0.1808452 -0.18547438 -0.18550664 0.1695017
000170 7b c7 52 3e 9d 66 41 bd 22 bc fe bd c7 3b b9 3d
       0.20583908 -0.047217 -0.12438227 0.09044605
000180 2f 0c d4 bd fb f7 0f 3d 8a a9 16 3c dd 97 b3 3d
       -0.10353886 0.035148602 0.009195695 0.087692
000190 13 1e 58 3e 1f 1d a9 3d 31 40 46 3e 62 32 38 3e
       0.21105222 0.082575075 0.19360425 0.1798797
0001a0 7e 73 6f 3d 7e 4f 34 be f9 d6 c0 bd 68 d6 92 3c
       0.05845975 -0.17608449 -0.09416003 0.017924502
0001b0 98 ad 44 3d 2c a6 b5 bd 15 a3 9f 3c 6c 28 04 3e
       0.048017114 -0.088695854 0.019486943 0.12906045
0001c0 87 bf 0a 3d 95 b8 cd bd 7e a1 4c 3e 6e f8 de 3c
       0.03387406 -0.10044972 0.1998348 0.02721807
0001d0 56 3d d1 bd 34 5f d8 bd a5 b2 81 bd 31 59 26 3e
       -0.10216777 -0.105650336 -0.06332902 0.16244961
0001e0 c1 4a 47 be 64 46 4a be cc 0b 06 3e 74 11 2e 3e
       -0.1946211 -0.19753414 0.13090438 0.16998845
0001f0 c2 a0 0c be be 0f aa bd 25 ba 05 3e da a5 72 3d
       -0.13733199 -0.08303784 0.1305929 0.0592402
000200 d9 11 98 bb 72 a3 07 be de 61 15 be 10 7c 1b 3e
       -0.0046407995 -0.13245943 -0.14588115 0.15184045
000210 0e eb f4 bd 96 fc 38 3d 94 61 75 3d a6 3b 02 be
       -0.119588956 0.04516276 0.05990751 -0.12718067
000220 41 4c ab bd 2d 03 9c bc c8 4d bd bd 42 8e 3a be
       -0.08364154 -0.019044483 -0.09243351 -0.1821833
000230 60 ba 0c 3d 98 2b 0e bc 13 d6 0c be 2f 92 c8 3a
       0.03435743 -0.008677386 -0.13753538 0.0015302355
000240 01 7f 58 bd 83 53 f2 bd 00 8e fd bd 49 9c 17 be
       -0.052855495 -0.11832335 -0.123806 -0.14805712
000250 a9 51 dc 3d a3 04 f3 bc 80 b6 d9 bd a7 65 a6 3d
       0.10757763 -0.029665297 -0.10630512 0.081248574
000260 e9 54 f8 3d ef aa 2c 3e 8b 7f 2e 3e 36 c5 b9 bd
       0.1212557 0.16862081 0.17040841 -0.09070818
000270 9a f7 2c be 8e 4c 50 3d 57 cf 62 be 66 46 47 bd
       -0.16891328 0.05085426 -0.22149406 -0.04865112
000280 17 a7 2e 3e 84 4b 91 3d a2 88 af 3c 18 48 7e 3c
       0.17055927 0.070944816 0.021427456 0.015520118
000290 6d cf 32 3e 73 82 2c 3e fe 47 f9 bb d7 c3 38 bd
       0.17461939 0.16846637 -0.007607459 -0.045108642
0002a0 20 0e b0 b9 2f 53 39 bd 90 c7 42 3e 40 f7 49 3e
       -0.0003357986 -0.045245346 0.1902144 0.19723225
0002b0 27 5b ee bd 02 5f 21 be 41 0f ef 3d e3 07 80 3d
       -0.1163848 -0.15758899 0.11672831 0.06251504
0002c0 33 cc 31 be 84 2d 43 3c 49 ef 13 3d 81 25 02 bd
       -0.17363052 0.011912707 0.036116872 -0.031774048
0002d0 89 b2 e5 bd 2d 18 27 3e f5 f0 6c 3d 84 4f 06 3e
       -0.112156935 0.16317816 0.057846982 0.1311627
0002e0 0a 03 33 3e 71 8d 1a 3e 83 57 be bd d2 1a 8c bd
       0.17481628 0.15093018 -0.09294035 -0.06841053
0002f0 a1 a9 0f 3e 6b ce 60 3d ed 9d 91 3d 5c af 39 be
       0.14029552 0.054884356 0.071102 -0.181333
000300 f2 15 e3 bd 69 e0 9f bd 2d 71 2e be a9 6c 39 3e
       -0.1108817 -0.07806475 -0.1703536 0.18107857
000310 6d 5a 0a be d6 f4 60 3d 3e e8 4b bd 45 df c4 3d
       -0.13511057 0.054920994 -0.04978203 0.09612898
000320 ac 48 29 3e d8 8c 19 3e 8c 94 00 be 5d 7b 47 be
       0.16531628 0.14995134 -0.12556666 -0.19480653
000330 8a 3f 0a be e6 ff 04 be 01 a9 6f 3e 35 97 09 3e
       -0.135008 -0.12988243 0.23404314 0.13436587
000340 90 ca 39 3e 25 3e bb 3c f6 58 68 3e 7c 64 c4 3d
       0.18143678 0.022856781 0.22690186 0.095894784
000350 9f bc 75 3d 5c 0d 25 be 42 c9 eb bd 41 50 28 3e
       0.059994336 -0.16118377 -0.11512996 0.16436864
000360 e9 45 88 bd 2d 66 36 3e f2 a7 0f 3d a3 ce 4e be
       -0.06653959 0.17812414 0.035072275 -0.20196013
000370 a1 e6 e6 bd 76 ae 8a 3b d2 bc 67 3d 19 03 86 3d
       -0.11274458 0.004232223 0.056576557 0.065435596
000380 c4 0c fb bc a1 79 4c 3e 9a 5c 1f bc 63 eb 44 bd
       -0.030645736 0.19968273 -0.009726668 -0.048076045
000390 9a a1 98 bd d8 f5 00 3e c3 29 7f 3d 23 d4 b2 3b
       -0.07452698 0.12593782 0.062295686 0.0054574176
0003a0 91 8e 7f bd 05 9b dc 3c ef 9e bb bd ea b7 2e 3e
       -0.06239182 0.026929388 -0.091611736 0.17062345
0003b0 04 19 9d bd b0 58 4b 3c f9 77 43 be 9d 88 37 3d
       -0.07670787 0.0124112815 -0.19088735 0.04480802
0003c0 8a bc b3 bb c0 f4 13 3e 04 71 22 bd f2 00 cd 3d
       -0.005485122 0.14448833 -0.03965856 0.10009946
0003d0 78 30 4c be a5 4e 1d 3c 05 95 32 3d c1 a5 57 be
       -0.19940364 0.00960127 0.043599147 -0.21059324
0003e0 ef 3d 76 bd 18 e8 b7 3c 59 b0 33 3e cb f7 8a bd
       -0.06011766 0.022449538 0.1754774 -0.06785544
0003f0 f5 66 2b 3e 9e ed e9 bd 32 70 20 3e bc db f0 3d
       0.16738494 -0.11422275 0.15667799 0.11760661

layers.8.bias f4 [64]
000000 cc e3 bb ba 48 ee d7 3a 26 42 bd 3b 0b e3 8f bb
       -0.0014334857 0.0016474212 0.005775708 -0.0043910793
000010 81 e6 a9 ba 92 8f b0 ba f5 9f a7 b9 87 e4 b2 ba
       -0.0012962372 -0.0013470522 -0.000319719 -0.0013648429
000020 dc 8b 37 3a cd ce 01 3b 56 9b 0e 3b 2f b3 46 ba
       0.00070017367 0.00198071 0.0021760068 -0.0007579801
000030 4a 28 9e 3b 2b e6 dd ba 7d 60 35 bb d5 8c 50 38
       0.00482658 -0.0016929557 -0.002767592 4.9722225e-05
000040 a6 2d 12 3a 57 4c 2f 39 33 ba 0e 39 e8 fa d6 bb
       0.000557626 0.0001671774 0.0001361154 -0.006560672
000050 f1 0e 9c 3a ce 4e f5 b9 bb 7c a2 3b 8d 5a b8 3a
       0.0011906308 -0.00046788756 0.0049587167 0.0014065072
000060 fb 2f 6a ba 7e 8a e1 38 e3 38 d5 b8 f9 1b 18 3c
       -0.0008933541 0.00010754632 -0.000101672274 0.009284013
000070 1b 24 f5 ba 17 76 5d bb 6e 5b d7 3b 5f 19 25 38
       -0.0018702777 -0.003379231 0.0065721786 3.9362694e-05
000080 f2 52 7b ba e2 26 07 bc 00 ef 53 3a df c3 2a 3a
       -0.000958725 -0.0082490165 0.0008084625 0.00065141724
000090 df cb 38 b9 cf 92 87 bc df 65 af 3b 55 26 ee 39
       -0.00017623555 -0.016549496 0.00535272 0.00045423457
0000a0 f4 bd 6f bb b0 1e c2 3a 03 ef 1f ba 4d 4c 44 3b
       -0.0036581727 0.0014810171 -0.0006100984 0.0029952705
0000b0 3a 35 50 3a 6e e7 ae ba ad 10 40 bb 83 6e de 3a
       0.00079425017 -0.0013344118 -0.0029306815 0.0016970191
0000c0 cb 3a 35 bb c4 da 87 3a 9a b0 05 bb 29 27 b1 b9
       -0.0027653452 0.001036488 -0.0020399452 -0.00033789247
0000d0 24 a0 e1 ba 54 f0 e5 ba 10 ab ef 3b db 6f 52 bb
       -0.0017213863 -0.0017542937 0.0073140934 -0.0032110128
0000e0 38 ee 00 3a 11 f0 ce b6 62 03 bb ba a1 c2 92 39
       0.000491831 -6.167226e-06 -0.0014267976 0.000279923
0000f0 29 81 8a 3a cc 6e d4 ba bb e9 a1 3a b9 06 ce bb
       0.0010567057 -0.0016207336 0.0012352982 -0.0062874225
