data/20240122/state_net_12000.pth (torch, 90556 bytes, 14 tensors)

layers.0.weight f4 [64, 5]
0	0xbe9d53d5	-0.3072802
1	0x3d811d6a	0.063044384
2	0x3e9a9969	0.30195168
3	0xbe052221	-0.130013
4	0xbc5d50e9	-0.01350806
5	0x3e0cc355	0.13746388
6	0xbccd5fc3	-0.025070077
7	0xbd2e59f0	-0.04256624
8	0xbe585240	-0.21125126
9	0x3ec96343	0.39333543
10	0x3de9793a	0.11400075
11	0xbea0c36d	-0.31399098
12	0x3e49345f	0.19648884
13	0xbe109beb	-0.14121978
14	0x3ee80e09	0.45323208
15	0xbe407da9	-0.18797936
16	0x3e13b613	0.14424925
17	0xbe3826e6	-0.17983589
18	0x3d37b609	0.044851337
19	0xbd8009ee	-0.06251894
20	0xbab6a4b6	-0.0013934586
21	0xbe5cf701	-0.215786
22	0x3ddfcda2	0.10927893
23	0xbe80344e	-0.25039905
24	0xbe41b774	-0.18917638
25	0x3eaa8aa2	0.33308893
26	0xbe7b7ead	-0.24560042
27	0xbe953308	-0.29140496
28	0x3e8355f4	0.25651515
29	0xbe8eec9b	-0.2791489
30	0xbe28a167	-0.1646782
31	0xbde86c0d	-0.11348734
32	0xbdb01318	-0.08597392
33	0x3ca01096	0.019539159
34	0x3e43b9b3	0.19113807
35	0x3d0df621	0.034658555
36	0xbca07c04	-0.019590385
37	0xbda06e8a	-0.07833584
38	0x3e0663c7	0.13124
39	0x3df1fa7d	0.11815355
40	0xbe7036b0	-0.23458362
41	0xbe616da3	-0.2201448
42	0xbe89c2ae	-0.2690634
43	0x3dfd2f20	0.12362504
44	0x3e915a67	0.28389284
45	0xbe61f32e	-0.22065422
46	0x3e48df26	0.19616374
47	0xbc400d57	-0.0117219305
48	0x3e4a9fba	0.19787493
49	0xbe540e0b	-0.20708482
50	0xbcfb222e	-0.030655947
51	0x3ea1bcc7	0.31589338
52	0x3ca15946	0.01969589
53	0x3d0459b8	0.032312125
54	0x3e4d36e1	0.20040466
55	0xbca54636	-0.02017508
56	0xbb811cb8	-0.003940191
57	0x3e8cdedd	0.2751378
58	0x3ccf6a24	0.025319166
59	0x3e4bd18e	0.19904158
60	0xbe9e2ac3	-0.30892
61	0x3eb3179a	0.34978944
62	0x3d3c28de	0.04593741
63	0xbe2bb9ae	-0.1677005
64	0x3df33719	0.118757434
65	0xbe63a28f	-0.2222998
66	0x3e963683	0.29338464
67	0xbe031567	-0.12801133
68	0xbd9a09b6	-0.075213835
69	0x3e6f0875	0.2334307
70	0x3e40f155	0.18842061
71	0xbe610bbf	-0.21977137
72	0xbdbb2dd3	-0.091396
73	0x3e6667ed	0.22500582
74	0x3e1983da	0.14991704
75	0xbd2a4f5a	-0.04157958
76	0x3c2a3a20	0.010389835
77	0xbe0ec5af	-0.13942598
78	0x3d5d642e	0.054050617
79	0x3e6ae4f2	0.22938898
80	0x3bb99388	0.005663339
81	0x3ee1abc6	0.44076365
82	0x3e6315ae	0.22176239
83	0xbe3412b4	-0.1758526
84	0x3ec00f70	0.37511778
85	0x3e32bbd0	0.17454457
86	0x3e02ef9e	0.12786719
87	0xbe80edc1	-0.25181392
88	0xbd567f04	-0.052367225
89	0x3eb49a96	0.3527419
90	0x3e7614b8	0.24031341
91	0x3eb487f5	0.35259977
92	0xbe71e41f	-0.23622178
93	0x3df88af1	0.12135876
94	0xbe0c872d	-0.1372344
95	0xbe47e26c	-0.19519967
96	0xbe3a052a	-0.18166032
97	0x3dbed4f8	0.09317964
98	0xbd5e2aa7	-0.054239895
99	0x3e3d2146	0.18469724
100	0x3e8f4d4c	0.2798866
101	0x3e7dc60d	0.24782582
102	0xbe8c1546	-0.2735998
103	0xbe155e4c	-0.14586753
104	0x3df7b519	0.120950885
105	0x3e664d48	0.22490418
106	0x3dbcbc31	0.09215582
107	0x3e5beb88	0.21476567
108	0x3d958084	0.07299903
109	0x3e93e658	0.28886676
110	0x3e13b14a	0.14423099
111	0x3e90d7bf	0.282896
112	0xbeb0b11a	-0.34510118
113	0xbe7b52a3	-0.24543242
114	0xbe0a4cb8	-0.13505828
115	0x3e8bea09	0.27326992
116	0xbe47fd25	-0.1953016
117	0xbe39be17	-0.1813892
118	0xbda52540	-0.080637455
119	0xbddf353b	-0.10898825
120	0xbc30cace	-0.01079054
121	0xbe875621	-0.264329
122	0x3e63ebed	0.22257967
123	0x3e9531a8	0.29139447
124	0xbe0af7bb	-0.13571064
125	0x3e8224aa	0.25418597
126	0xbc650797	-0.01397886
127	0x3e58027c	0.21094698
128	0x3c80cd3c	0.015722863
129	0xbb7f2b06	-0.0038935556
130	0x3e8b1788	0.2716639
131	0xbe34b9db	-0.17649023
132	0xbe766ba2	-0.24064496
133	0xbe82ce3e	-0.25547975
134	0xbd4e295c	-0.050332412
135	0x3da3e96b	0.08003505
136	0x3dfdecd9	0.12398691
137	0xbde91b78	-0.113821924
138	0xbe558d9c	-0.20854801
139	0xbad61711	-0.0016333779
140	0x3e8f64cc	0.2800659
141	0x3e135a8e	0.14390013
142	0xbd8f544d	-0.06998501
143	0xbe372183	-0.17883877
144	0x3b1783b9	0.0023119284
145	0xbe1074c2	-0.1410704
146	0xbe62348b	-0.22090356
147	0x3e4e48f6	0.2014502
148	0x3d2d2451	0.042270962
149	0x3e595b79	0.212263
150	0x3e4fe85b	0.2030348
151	0x3e6151a2	0.22003797
152	0x3e33a797	0.17544399
153	0x3e4da6e6	0.20083198
154	0xbdbb5d01	-0.091485985
155	0xbc3f0152	-0.01165803
156	0x3d7118f0	0.058861673
157	0x3e4c803f	0.19970797
158	0x3d8fa17b	0.07013222
159	0x3e148662	0.14504388
160	0x3df91ba5	0.12163476
161	0xbd9fda36	-0.07805292
162	0xbe180a9c	-0.14847797
163	0xbdb4031b	-0.08789655
164	0x3e04f83f	0.12985323
165	0x3e4aa886	0.19790849
166	0xbde77c15	-0.11302964
167	0x3e386147	0.18005858
168	0x3e5ae3d8	0.21375978
169	0x3e73fa7d	0.23826022
170	0xbcaf12ec	-0.021371327
171	0xbc6c6903	-0.014429334
172	0x3e9f538d	0.31118432
173	0x3e10772e	0.14107963
174	0xbe770130	-0.24121547
175	0x3cb59e87	0.022170318
176	0x3e9a8e2c	0.30186594
177	0xbd8253f6	-0.063636705
178	0xbe3a8cd1	-0.1821778
179	0x3c5ac2b0	0.013352081
180	0xbe9e8ab8	-0.3096521
181	0x3e8afddf	0.27146813
182	0x3e36ca2c	0.1785056
183	0x3cfeab01	0.0310874
184	0x3d3b4f0d	0.045729686
185	0xbe2def26	-0.16985759
186	0xbddbe166	-0.10736351
187	0xbd81b6a4	-0.06333664
188	0x3e2f31dd	0.17108865
189	0x3e6f8ba4	0.23393112
190	0xbe160683	-0.14650922
191	0x3d9ed80b	0.07756051
192	0x3e10d9bc	0.14145559
193	0xbe83100a	-0.25598174
194	0x3e664ec9	0.22490992
195	0xbe7d2904	-0.24722677
196	0xbe6ba9b0	-0.2301395
197	0xbdd3aa46	-0.103352115
198	0x3cf86b1a	0.030324508
199	0xbe1a108e	-0.15045378
200	0x3bf020b8	0.007328119
201	0x3a4dae82	0.0007846133
202	0x3e9cc962	0.30622393
203	0xbe2c41d6	-0.1682199
204	0xbe9f20c2	-0.3107968
205	0x3d801248	0.06253487
206	0x3d20eecd	0.03929024
207	0x3dbc787c	0.09202668
208	0x3db1b47d	0.086770035
209	0x3e93527f	0.28773877
210	0xbe7b6cee	-0.24553272
211	0x3e5dcf76	0.21661171
212	0xbce74e52	-0.028235588
213	0x3e630d51	0.22173049
214	0x3e3fcc03	0.18730168
215	0x3d1625f4	0.03665729
216	0xbd1bffc5	-0.038085718
217	0x3e2dab3d	0.16959853
218	0x3dbbefe1	0.09176613
219	0x3e683b17	0.22678791
220	0x3d8ccc75	0.068749346
221	0xbe3f7921	-0.18698551
222	0xbe8bafd2	-0.27282578
223	0xbe0e0986	-0.1387082
224	0xbd6e1d8f	-0.058133658
225	0x3e18e1c6	0.14929876
226	0xbe8d7baa	-0.2763341
227	0xbd3a791e	-0.045525663
228	0x3e1f3a12	0.15549496
229	0x3e8165ae	0.25272888
230	0xbe10f75f	-0.14156865
231	0xbe66ccac	-0.22539014
232	0xbdb77e18	-0.08959597
233	0xbd63cecf	-0.05561715
234	0xbc4319ee	-0.011908038
235	0x3d030cd0	0.03199464
236	0x3cc778b9	0.024349557
237	0xbe140ca1	-0.14457943
238	0xbbe4dd4a	-0.0069843875
239	0xbe9951f2	-0.29945332
240	0xbca73d80	-0.020415068
241	0x3dc9d837	0.09855693
242	0xbe029172	-0.12750795
243	0x3dcd9a80	0.10039234
244	0x3dd9a432	0.10627021
245	0xbda50c00	-0.080589294
246	0xbe319109	-0.17340483
247	0x3d8d3e2f	0.06896626
248	0x3d9820d8	0.074281394
249	0xbe184e5e	-0.14873645
250	0xbdd7e9e4	-0.10542658
251	0xbe4a64cb	-0.19765012
252	0xbe3bfcc2	-0.18358138
253	0xbe638f72	-0.22222689
254	0xbd4c7498	-0.04991588
255	0x3e523eff	0.20531844

layers.0.bias f4 [64]
0	0xbb5a707c	-0.0033331206
1	0x3b945293	0.004526445
2	0xbc7d5c47	-0.015463895
3	0x3bbd537e	0.0057777753
4	0x3beb5e45	0.0071828687
5	0xbcef93f4	-0.029245354
6	0xbb8ba12a	-0.0042611556
7	0xbb057a1c	-0.0020366972
8	0x3c9aab58	0.018880531
9	0x3c7d7fac	0.015472334
10	0xbd0c956f	-0.0343222
11	0xbbd4e8d0	-0.00649748
12	0xbd5f3b2c	-0.05449979
13	0xbd12eca0	-0.035870194
14	0xbb3e9f1b	-0.0029086533
15	0xb98223fb	-0.0002482234
16	0xbd9b3675	-0.07578746
17	0xbce0896b	-0.027409276
18	0x3cf867de	0.030322965
19	0xbb0427d2	-0.0020165336
20	0xbbf91dd6	-0.0076024337
21	0x396c92bb	0.00022561375
22	0x3cc67b73	0.024228787
23	0x3bc7abd7	0.006093483
24	0x39d83dd9	0.0004124481
25	0x3b8dd026	0.0043277917
26	0x3b98f538	0.004667904
27	0x3bd1e83c	0.0064058583
28	0xbb5bb5e0	-0.0033525154
29	0x39b30b83	0.00034150117
30	0xbca10028	-0.019653395
31	0xbc0818b4	-0.008306671
32	0x3ac9619e	0.0015364175
33	0x3bce2d94	0.0062920544
34	0xbd575781	-0.052573685
35	0xbb8aee29	-0.0042398167
36	0x3bbf3733	0.0058354377
37	0x3b363311	0.0027801434
38	0x3b646782	0.0034851735
39	0x3b2ae1d9	0.0026074557
40	0x3c9c6103	0.019089228
41	0x3a709cf4	0.0009178661
42	0xbbca660a	-0.006176715
43	0x3be3095b	0.0069286055
44	0x3b98951c	0.004656447
45	0x3b7c8737	0.0038532743
46	0xbb79f24b	-0.0038138803
47	0xbc01c809	-0.007921227
48	0xbb731a29	-0.003709445
49	0x3c056d2b	0.008143703
50	0x3b37cbf0	0.002804514
51	0xbc102806	-0.008798605
52	0xbb68367a	-0.0035432861
53	0xbb8c2691	-0.0042770584
54	0xbc5f1e76	-0.013618102
55	0xbb4bfec5	-0.0031127196
56	0xbc0643ad	-0.008194846
57	0x3b6fff57	0.00366207
58	0xbc707b42	-0.014677824
59	0xbc018e34	-0.007907439
60	0xbbf9e8c0	-0.007626623
61	0x3bd2bff8	0.006431576
62	0xbb17cd06	-0.0023162975
63	0xbb8693d9	-0.0041069803

layers.2.weight f4 [64, 64]
0	0xbce351a6	-0.027748894
1	0xbe08dd34	-0.13365632
2	0xbe508ed8	-0.2036699
3	0xbdda9be1	-0.10674263
4	0xbd9f1b51	-0.07768882
5	0x3e3a5416	0.18196139
6	0xbcf1ba29	-0.029507713
7	0x3cb210f2	0.021736596
8	0x3d56ad9a	0.052411653
9	0x3e25c1e8	0.1618725
10	0x3d7f5f26	0.0623466
11	0xbe452228	-0.19251311
12	0xbe3feb90	-0.18742204
13	0xbd2c0c86	-0.04200413
14	0xbbcf45d1	-0.0063254614
15	0x3c80a3ea	0.01570316
16	0x3e3b054b	0.18263738
17	0x3d93aab7	0.07210296
18	0xbe0bf8ea	-0.13669172
19	0xbd02d86e	-0.031944685
20	0x3e5910c6	0.21197805
21	0xbdd0a602	-0.101879135
22	0xbe20b129	-0.15692581
23	0xbe105e40	-0.14098454
24	0x3df54512	0.11976065
25	0xbd957dcf	-0.07299387
26	0x3cc6ba1d	0.024258668
27	0xbd1a690f	-0.037697848
28	0xbe456607	-0.19277202
29	0x3e4e15dd	0.20125528
30	0x3dec0e8f	0.11526214
31	0x3e39b931	0.18137051
32	0x3d167e4e	0.036741547
33	0x3e388295	0.18018563
34	0xbe269329	-0.16267075
35	0xbd1c6fc7	-0.038192537
36	0x3dd4181d	0.10356162
37	0xbd6f20e3	-0.058380973
38	0x3e3365ad	0.17519255
39	0x3e3d23f9	0.18470754
40	0xbe06cff2	-0.13165262
41	0x3e4c3ca8	0.19945014
42	0xbe0ec6ab	-0.13942973
43	0xbde061fb	-0.10956188
44	0x3d8a1a38	0.06743282
45	0xbe448fbf	-0.1919546
46	0xbe330331	-0.17481686
47	0x3d34eae5	0.044169325
48	0xbdbb9228	-0.091587365
49	0xbc7523cd	-0.014962149
50	0x3c67f264	0.0141569115
51	0xbd804e3f	-0.06264924
52	0xbdbd1959	-0.0923335
53	0xbcb1c257	-0.021699114
54	0xbd42ffb9	-0.047607157
55	0xbddee6a8	-0.10883838
56	0x3e003a32	0.125222
57	0x3e56a6fd	0.20962138
58	0x3db7408a	0.08947857
59	0xbe2450f8	-0.16046512
60	0xbe06845c	-0.13136429
61	0x3e157d43	0.14598565
62	0x3e422907	0.18960963
63	0x3e6abf83	0.22924618
64	0x3e39948f	0.18123077
65	0x3d1e2cad	0.038616825
66	0xbe01f97c	-0.12692827
67	0x3bba9ea4	0.005695181
68	0xbd89399c	-0.06700441
69	0x3db74275	0.089482225
70	0x3caf0f11	0.021369489
71	0x3dcf98a9	0.101365395
72	0xbdaad080	-0.083405495
73	0x3e7f19ab	0.24912135
74	0xbcdf10a3	-0.027229613
75	0xbe4fcc5a	-0.20292798
76	0xbd41d229	-0.047319565
77	0xbe083dd1	-0.13304831
78	0x3dd5cd40	0.10439539
79	0x3cf98594	0.030459203
80	0x3e22c00d	0.15893574
81	0xbdc463a7	-0.0958932
82	0xbe45adcb	-0.19304578
83	0x3e138c01	0.14408876
84	0xbe4dba98	-0.20090711
85	0x3cb2e179	0.02183603
86	0x3e451402	0.19245914
87	0x3df345e0	0.11878562
88	0xbe396e4e	-0.18108484
89	0xbe3d48eb	-0.18484847
90	0x3d252bda	0.040325023
91	0x3e4bb5c4	0.19893557
92	0xbe838627	-0.25688288
93	0xbe83e079	-0.25757197
94	0xbe42d0b0	-0.1902492
95	0xbe80964b	-0.25114664
96	0xbe690b5d	-0.22758241
97	0xbc2eeb14	-0.010676164
98	0x3def8d85	0.116969146
99	0xbe1ae6c3	-0.15127091
100	0x3e29cf86	0.1658307
101	0xbe0f4e5a	-0.13994732
102	0xbdfc8c4d	-0.12331448
103	0x3e492373	0.19642429
104	0xbe29b6b5	-0.16573603
105	0xbd961a23	-0.07329204
106	0x3de32f69	0.11093027
107	0xbe0a284a	-0.13491932
108	0x3dd62cc1	0.10457755
109	0xbce47f13	-0.027892625
110	0xbdf51d02	-0.119684234
111	0x3eb53c70	0.35397673
112	0xbdf7eb43	-0.121054195
113	0x3e6ec21f	0.23316239
114	0xbcaf3e59	-0.021392034
115	0xbcb684f7	-0.0222802
116	0x3e1251ea	0.1428906
117	0x3e272f80	0.16326714
118	0xbdb51bbf	-0.08843183
119	0xbe120b53	-0.14262132
120	0x3e0e2a31	0.13883282
121	0x3c30053d	0.010743436
122	0x3dc1e335	0.094671644
123	0x3dead636	0.11466639
124	0x3ccadd87	0.024763836
125	0x3e792a3e	0.2433252
126	0xbe19c667	-0.1501709
127	0x3e68d6ce	0.22738191
128	0xbe5b9d65	-0.2144676
129	0x3d09c96f	0.033639368
130	0x3e190271	0.14942338
131	0xbe14df0a	-0.14538208
132	0xbe17b74f	-0.1481602
133	0x3df0b56f	0.11753356
134	0xbe55f5d9	-0.20894565
135	0xbe52b15b	-0.20575468
136	0x3e1ef378	0.15522563
137	0xbd60dd72	-0.054898687
138	0xbd846c58	-0.064659774
139	0xbd487c7e	-0.04894685
140	0x3db481f6	0.088138506
141	0xbe66269a	-0.22475663
142	0xbdebe687	-0.11518579
143	0xbdb32cd1	-0.087487824
144	0xbe0f186c	-0.1397416
145	0x3dcaed74	0.09908572
146	0xbdbf38dd	-0.09337018
147	0xbd959473	-0.07303705
148	0x3dd5099a	0.10402222
149	0x3d899abe	0.06718968
150	0xbd3ac793	-0.045600485
151	0x3d529a53	0.051416706
152	0x3e076a73	0.13224201
153	0x3e484977	0.19559275
154	0x3d331a0e	0.04372602
155	0xbe2d997f	-0.16953085
156	0x3e2ed159	0.17072047
157	0xbe5bd856	-0.21469244
158	0xbda19384	-0.078894645
159	0xbd2c2b5f	-0.04203355
160	0x3c5d01dc	0.013489213
161	0x3d2b39b3	0.041803073
162	0xbd3d9f58	-0.04629454
163	0xbe0c7cbb	-0.13719456
164	0xbd375642	-0.044759996
165	0x3e59bdde	0.21263835
166	0x3b86bd5e	0.00411193
167	0xbe27691c	-0.1634869
168	0x3bd439b4	0.0064766053
169	0x3e35d2ba	0.17756167
170	0xbe2e6fd6	-0.1703485
171	0xbd04ada6	-0.032392167
172	0x3e100e96	0.14068064
173	0x3db088ca	0.086198404
174	0xbc400de8	-0.0117220655
175	0xbd192cc8	-0.037396222
176	0x3dde1c74	0.10845271
177	0xbc8278b7	-0.015926702
178	0xbe45de42	-0.19323066
179	0x3d60b8e1	0.054863814
180	0x3c22b2f8	0.009930365
181	0xbcd5cfda	-0.026100088
182	0x3dbca11a	0.09210415
183	0x3e2f9a16	0.17148623
184	0xbdcbba05	-0.0994759
185	0x3dd9bd98	0.10631865
186	0xbe0ba37d	-0.13636585
187	0x3ce9fcef	0.028562991
188	0xbe23e0b0	-0.1600368
189	0xbd421212	-0.047380514
190	0xbdefe9ab	-0.117144905
191	0xbd9ead6a	-0.0774792
192	0xbe44d9c7	-0.192237
193	0x3cb5516e	0.022133555
194	0xbdff1b22	-0.12456347
195	0x3e218f16	0.15777239
196	0xbdb52eba	-0.08846803
197	0x3da4c836	0.08046
198	0xbe5c077c	-0.2148723
199	0x3d92b8eb	0.071641766
200	0x3d9416db	0.07230922
201	0xbd2f217e	-0.04275655
202	0x3e3055d0	0.17220235
203	0x3e19af46	0.15008268
204	0x3e2ec9ad	0.1706912
205	0xbe07c89a	-0.13260117
206	0x3ce623da	0.028093267
207	0xbd43c809	-0.04779819
208	0x3deef8e2	0.116685644
209	0x3dfc4676	0.12318127
210	0x3e00fd78	0.1259669
211	0x3e455dfc	0.19274133
212	0x3c870184	0.016480215
213	0xbd0622b5	-0.032747943
214	0xb9a389a6	-0.0003119234
215	0xbdb1a063	-0.086731695
216	0x3ddb1b6e	0.10698591
217	0x3c278ab9	0.010225945
218	0xbc66a43a	-0.014077241
219	0xbe4ac5d8	-0.19802034
220	0xbda34a11	-0.079731114
221	0x3e1bed00	0.15227127
222	0xbd9100a8	-0.07080203
223	0x3d85c6fa	0.065320924
224	0xbd82aa79	-0.06380171
225	0x3db260e4	0.08709887
226	0x3d62a2ee	0.055331163
227	0xbc7a76d2	-0.015287118
228	0x3e2fb268	0.171579
229	0xbe548735	-0.20754702
230	0x3e287307	0.1645013
231	0xbd8b7add	-0.06810544
232	0x3d34e96b	0.044167917
233	0xbdfb491e	-0.12269805
234	0xbe49ee63	-0.19719844
235	0xbe295fef	-0.16540502
236	0x3e139f83	0.14416318
237	0x3db92a2c	0.09041247
238	0xbe2ba28a	-0.16761222
239	0x3e2aa9b3	0.16666298
240	0xbdb32b91	-0.08748544
241	0xbd12e53c	-0.035863146
242	0xbd072c7e	-0.033001415
243	0x3d6d4bbf	0.057933565
244	0xbe0436da	-0.12911549
245	0xbe34448b	-0.17604272
246	0xbe245db8	-0.16051376
247	0xbe24e846	-0.1610423
248	0x3e153c88	0.14573872
249	0xbd942f98	-0.0723564
250	0x3e3dd1e0	0.18537092
251	0x3e01c44a	0.12672535
252	0xbd8be40f	-0.06830608
253	0x3d348cd6	0.044079624
254	0xbe1cd491	-0.15315463
255	0xbd96bdc5	-0.073604144

layers.2.bias f4 [64]
0	0xbba0bbc1	-0.0049051945
1	0x3bcf7c83	0.0063319816
2	0x3bbfb54b	0.005850469
3	0xba5807cd	-0.00082409085
4	0xbb06daed	-0.0020577267
5	0xba50dd2c	-0.00079675275
6	0xbc006b9c	-0.007838156
7	0x39ed1725	0.00045221407
8	0x3ac406d0	0.0014955644
9	0x3b730faa	0.0037088194
10	0x3b1c5166	0.0023852228
11	0x3a8141e8	0.000986156
12	0xbc4a3fde	-0.012344329
13	0xbbe0f289	-0.00686485
14	0xbb947b78	-0.00453132
15	0x3c075007	0.008258826
16	0x3b67c54c	0.00353654
17	0x3b707037	0.003668798
18	0xbc115c93	-0.008872169
19	0x3bff3a5d	0.00778894
20	0x3bcd43d3	0.006264189
21	0x3b786f92	0.0037908298
22	0x3b742329	0.0037252402
23	0x3a120d36	0.00055714266
24	0xbb48a0a5	-0.003061333
25	0xbb1d543a	-0.0024006502
26	0xbde69a15	-0.112598576
27	0xbd248e69	-0.040174875
28	0x39bc7475	0.00035944922
29	0xbb44cabb	-0.0030028063
30	0xb7f4e8f0	-2.9195537e-05
31	0x3b4d3876	0.003131417
32	0xbbaee454	-0.0053372774
33	0x3c078b7c	0.008273002
34	0x3bae536a	0.0053200023
35	0x3b55cea0	0.0032624379
36	0x3b991e35	0.0046727904
37	0xbd6e592a	-0.058190502
38	0x3bc51bf3	0.0060152947
39	0x3c1f184d	0.009710384
40	0xb9cd2a7a	-0.00039132294
41	0xb6b3fe51	-5.364222e-06
42	0x3c1e3c1d	0.009657887
43	0x39ea3c60	0.0004467694
44	0xbb9a8ea9	-0.0047167134
45	0xbc20c2f2	-0.009812104
46	0x3a4551f9	0.00075271685
47	0x3aa9523d	0.0012918186
48	0xbb90747c	-0.0044084173
49	0xbbb8cbf8	-0.0056395493
50	0x3ccb1796	0.02479152
51	0x3b33b1bc	0.002741917
52	0x3b8612fe	0.0040916195
53	0xb9acd0d5	-0.00032961988
54	0x3a959b44	0.0011414071
55	0xbb38a20c	-0.002817276
56	0xbb901928	-0.00439753
57	0xbba2f6b7	-0.0049732584
58	0xbba3d52d	-0.004999778
59	0xbbca3ee8	-0.00617205
60	0xbb27a78c	-0.0025582043
61	0xba44b143	-0.00075032207
62	0x3b45e351	0.0030195306
63	0xbbc22e42	-0.0059259245

layers.4.weight f4 [64, 64]
0	0x3c0af086	0.008480197
1	0x3e1ff14d	0.15619393
2	0x3da78628	0.08179885
3	0xbd84850e	-0.06470691
4	0x3d54f87e	0.051994793
5	0x3e340ad4	0.17582256
6	0x3e1d4bac	0.15360898
7	0x3d4e8be7	0.05042639
8	0x3d7e3e2e	0.062071018
9	0xbd85cfab	-0.0653375
10	0xbdf211ad	-0.11819778
11	0x3d65f6b8	0.056143492
12	0xbe356a93	-0.17716436
13	0xbc66d6c8	-0.014089294
14	0x3deb2701	0.11482049
15	0x3df56721	0.11982561
16	0x3d8ee7f1	0.06977833
17	0xbc6cf641	-0.014463008
18	0x3e39ef76	0.18157753
19	0xbd96b7d8	-0.07359284
20	0xbe5ce30d	-0.21570988
21	0xbe0c5c15	-0.13707002
22	0xbcdd9bc6	-0.027051818
23	0x3d7d20d2	0.061798878
24	0x3d91bda4	0.07116249
25	0xbd78ac03	-0.06071092
26	0xbe009579	-0.1255702
27	0x3de06d3d	0.109583355
28	0xbe3ff83d	-0.18747039
29	0xbe3f27e5	-0.18667562
30	0xbdb27511	-0.08713735
31	0x3e082958	0.13297021
32	0x3deef7ec	0.11668381
33	0x3df7fb08	0.12108427
34	0xbe3dd5d5	-0.18538602
35	0x3df1f8fc	0.11815068
36	0x3e21c310	0.15797067
37	0xbd23f551	-0.040028874
38	0xbc32ab48	-0.010905094
39	0xbdc33860	-0.09532237
40	0x3e1e81eb	0.15479247
41	0xbdd3efd1	-0.10348476
42	0x3d95470a	0.0728894
43	0x3de0b361	0.10971714
44	0xbce8e3b3	-0.028428888
45	0x3dfd7f43	0.12377789
46	0x3e104c4a	0.14091602
47	0x3c9e4bfd	0.019323343
48	0x3de3ef10	0.11129582
49	0xbd37a53d	-0.044835318
50	0xbdbcf63a	-0.092266515
51	0xbdf1a296	-0.11798589
52	0xbe01beb8	-0.1267041
53	0xbe441e2f	-0.19152139
54	0xbdb6ac51	-0.089195855
55	0x3e12a2d3	0.14319925
56	0x3e362ee3	0.17791323
57	0x3cd440c2	0.025909785
58	0x3e3fd083	0.18731885
59	0x3e31f495	0.17378457
60	0xbb85b450	-0.004080333
61	0xbe2f9cd2	-0.17149666
62	0xbd65c19b	-0.05609284
63	0xbc0feabf	-0.008783995
64	0xbd56732a	-0.052355923
65	0x3e0b4fd5	0.13604672
66	0x3e1baa2d	0.15201636
67	0x3e55eed7	0.20891891
68	0xbc8c6698	-0.017138764
69	0xbddbae1c	-0.10726568
70	0x3e1fdb3f	0.1561098
71	0xbe01b490	-0.12666535
72	0xbdb0a1e8	-0.08624631
73	0x3e580f89	0.21099676
74	0xbe1898a3	-0.14901976
75	0xbc9257ec	-0.01786419
76	0x3e2b2817	0.16714512
77	0x3e404818	0.18777502
78	0x3bb041c3	0.005378933
79	0x3e18ca94	0.14921027
80	0xbb932ed2	-0.0044916654
81	0xbe565c4d	-0.20933647
82	0xbd8261d8	-0.063663185
83	0x3e2e0f9e	0.16998145
84	0x3dd7c155	0.10534922
85	0x3e560006	0.20898446
86	0xbcbd07db	-0.023075035
87	0x3d457f8c	0.04821734
88	0x3cb6e751	0.022327097
89	0x3e0f86d5	0.14016278
90	0x3d93aced	0.07210717
91	0xbc5f9438	-0.013646178
92	0xbe13a896	-0.14419779
93	0x3e4a7a0e	0.19773123
94	0xbe2ceca3	-0.16887145
95	0x3cf2be05	0.029631624
96	0xbe06f93e	-0.13181016
97	0x3d48be14	0.049009398
98	0x3cdaf1df	0.026726661
99	0x3c51faca	0.01281614
100	0x3dea393d	0.114366986
101	0x3b35ea55	0.002775808
102	0xbd9e0fe9	-0.07717878
103	0xbdbd54b9	-0.09244675
104	0xbca43bef	-0.02004811
105	0x3e12c5ec	0.14333314
106	0xbe37e9a8	-0.17960227
107	0xbe54c305	-0.20777519
108	0xbd87d3b6	-0.066321775
109	0x3e4cf1a1	0.20014049
110	0xbd232532	-0.039830394
111	0x3ce1b946	0.027554166
112	0x3d8b66c6	0.06806712
113	0xbde770a5	-0.11300782
114	0x3ca3cc17	0.019994779
115	0x3e0a2eec	0.13494462
116	0x3e48a468	0.19593966
117	0x3caea45b	0.021318605
118	0xbe5c8b0c	-0.21537417
119	0x3d6028f6	0.054726563
120	0x3e2f04b1	0.17091633
121	0x3a365397	0.0006955205
122	0x3d3471f9	0.044054005
123	0xbe51244f	-0.20424007
124	0x3db5053f	0.08838891
125	0x3df9937d	0.12186334
126	0x3dcf5e8b	0.101254545
127	0x3d202a31	0.039102737
128	0xbdd10969	-0.10206873
129	0x3e245fab	0.1605212
130	0xbe26e0ba	-0.16296664
131	0x3e2bcff8	0.16778553
132	0xbe3dc704	-0.1853295
133	0xbdbe36e3	-0.092878126
134	0xbc9da143	-0.019241935
135	0xbda8b83f	-0.08238267
136	0xbe1ddc74	-0.15416127
137	0x3e3d4f58	0.18487298
138	0xbcd92e29	-0.026511269
139	0xbd3716cf	-0.044699486
140	0xbcd342cd	-0.025788689
141	0xbc1f0f03	-0.009708169
142	0x3d8779e6	0.06615047
143	0xbdf4f31c	-0.11960432
144	0xbd3866bd	-0.045019854
145	0xbd9c61f3	-0.0763587
146	0x3cd270d8	0.025688574
147	0xbdfb4fd2	-0.12271084
148	0xbe39d9b2	-0.1814945
149	0x3e22c541	0.15895559
150	0x3e23d6e9	0.1599995
151	0x3e0f9a99	0.14023818
152	0xbe50e209	-0.20398726
153	0xbe2931ea	-0.16522947
154	0x3e5254c2	0.20540145
155	0xbe37c47f	-0.17946051
156	0xbe4ab5bf	-0.19795893
157	0xbd83b7af	-0.06431519
158	0xbe4d0299	-0.20020522
159	0x3e230ab7	0.15922056
160	0xbd061672	-0.03273625
161	0x3d823de4	0.06359461
162	0xbe37a504	-0.17934042
163	0x3e3a62e3	0.18201785
164	0x3c4eb8fb	0.012617345
165	0xbe0ade25	-0.13561304
166	0xbd8dab2a	-0.069174126
167	0x3c0c389d	0.0085584195
168	0x3e156d8a	0.14592567
169	0xbe0e88a5	-0.13919313
170	0x3d22be43	0.03973223
171	0xbbb1db57	-0.0054277587
172	0xbd85f84f	-0.06541502
173	0xbe1a5795	-0.15072472
174	0xbd5e29fd	-0.054239262
175	0x3c697131	0.014248178
176	0xbe17cf90	-0.14825273
177	0xbe478db7	-0.19487654
178	0x3c9a7b3c	0.01885759
179	0xbdf884d3	-0.12134709
180	0x3c54437e	0.0129555445
181	0xbe240be5	-0.16020162
182	0x3dbb0ce9	0.09133322
183	0x3d69acc7	0.05704954
184	0xbe4d8a4d	-0.20072289
185	0x3d4f2e4d	0.050581265
186	0x3b236372	0.00249311
187	0x3e299c7d	0.16563602
188	0x3cd69616	0.026194613
189	0x3d1c6f37	0.038192
190	0x3d8fcb40	0.07021189
191	0x3e28db67	0.16489945
192	0xbdd5dea7	-0.10442858
193	0xbe10b546	-0.1413165
194	0x3e38e779	0.1805705
195	0x3e3f8087	0.18701373
196	0x3de7d835	0.11320535
197	0x3dd5f977	0.10447972
198	0xbe31b07a	-0.17352477
199	0x3e49f87d	0.19723697
200	0xbd3fe6a1	-0.046850804
201	0xbd83894e	-0.06422673
202	0xbd3b67a6	-0.045753144
203	0xbdbe0dd1	-0.09279979
204	0xbd9d4a8e	-0.07680236
205	0xbdc2fa81	-0.09520436
206	0xbdb0ddb3	-0.08636036
207	0x3dd88d1f	0.10573792
208	0xbe11401c	-0.14184612
209	0xbd21489a	-0.03937588
210	0x3db002b7	0.08594268
211	0xbd0f9b38	-0.035060138
212	0x3e540a19	0.20706977
213	0x3e2ea857	0.17056404
214	0x3cb7dda5	0.022444556
215	0x3e2d498c	0.16922587
216	0xbc8166c5	-0.015796075
217	0x3dce91a1	0.1008637
218	0x3e0187ed	0.12649508
219	0x3d8197dc	0.06327793
220	0x3d5854b3	0.05281515
221	0x3d2ccad6	0.042185627
222	0x3e23a10d	0.15979405
223	0x3da342ec	0.07971749
224	0xbde889c0	-0.11354399
225	0x3e130b03	0.1435967
226	0x3e4c823e	0.19971558
227	0x3e43489f	0.19070671
228	0xbd1cb416	-0.03825768
229	0x3e5ea8f2	0.21744135
230	0xbe3df30e	-0.1854975
231	0xbd620788	-0.055182964
232	0xbd478aab	-0.04871623
233	0x3e5c21f0	0.21497321
234	0xbc1aeb4f	-0.009455516
235	0xbe5b8871	-0.21438767
236	0xbd76d3ac	-0.06026046
237	0xbdd3ca05	-0.103412665
238	0x3b8f9d9f	0.0043828036
239	0x3d7cc0f8	0.061707467
240	0xbc8f4972	-0.017491076
241	0xbe11c39e	-0.14234778
242	0xbcef59b4	-0.029217578
243	0x3e3f0843	0.18655495
244	0xbe21012b	-0.15723102
245	0x3d2ff102	0.042954452
246	0x3d9a8702	0.07545282
247	0xbdd77cac	-0.10521826
248	0xbde7810e	-0.11303912
249	0x3cf001b9	0.029297696
250	0x3bb0bac7	0.0053933593
251	0x3e09e4e6	0.13466224
252	0xbd921e38	-0.0713467
253	0x3e1f3342	0.15546897
254	0x3dcc9232	0.09988822
255	0x3d35f43e	0.04442238

layers.4.bias f4 [64]
0	0xbba6f1f2	-0.00509476
1	0x3a84fded	0.0010146477
2	0xbb19e86d	-0.0023484484
3	0x3ac0e69f	0.0014717168
4	0xbba3113d	-0.00497642
5	0xbbb7e152	-0.005611577
6	0x3bd67ac5	0.006545397
7	0x3ab814a3	0.0014044236
8	0xba2bc6e8	-0.00065527717
9	0xbb363dc4	-0.0027807811
10	0xbba7194d	-0.0050994516
11	0x3abd3b21	0.0014437177
12	0x3b319237	0.0027095207
13	0x3a92d3c1	0.0011202024
14	0x3b1dba7a	0.0024067448
15	0x3b9cc094	0.0047836993
16	0xbbefa42c	-0.007313272
17	0xbb4bd027	-0.003109941
18	0xbc2a63ec	-0.0103998
19	0x3c5d882d	0.013521236
20	0x3b84e527	0.0040556374
21	0xbb2f90bb	-0.0026789147
22	0x3aa864e1	0.0012847447
23	0xbb0cb8cd	-0.0021472455
24	0xbac80ccf	-0.0015262606
25	0x3b642fa7	0.0034818442
26	0x3bed9d7c	0.0072514396
27	0xbae8c0c6	-0.0017757646
28	0x3ac2b998	0.0014856337
29	0x3b7c20fd	0.003847181
30	0xb9934061	-0.0002808599
31	0x3b10a4e1	0.0022070932
32	0xbb955ea9	-0.0045584035
33	0x3b6371e1	0.0034705328
34	0x3c9c5ee2	0.019088212
35	0xbbaa9676	-0.0052059246
36	0xbbc27c22	-0.005935208
37	0xba56aea9	-0.00081894785
38	0xbb84177e	-0.004031121
39	0x3b22e73f	0.0024857072
40	0x3aa44491	0.0012532641
41	0x3b2d6734	0.002645922
42	0x3b77f44a	0.0037834817
43	0x3c553c4b	0.013014863
44	0x3ad5e0cc	0.0016317605
45	0x3d1eeb24	0.038798466
46	0xbc7f04e1	-0.015565128
47	0xbd39ac9e	-0.045330636
48	0xbaf629c5	-0.0018780759
49	0x3c3eb96d	0.011640889
50	0xbb34d619	-0.0027593432
51	0x3c2c7f28	0.010528363
52	0x39fde0fe	0.00048423553
53	0x3930239e	0.00016797936
54	0xba4365e8	-0.0007453845
55	0x3b3570ce	0.0027685645
56	0xbaa9b990	-0.0012948979
57	0x3b60a015	0.0034275104
58	0x3b6af6af	0.0035852601
59	0xbbf6c2ea	-0.00753056
60	0xbdcd1dfb	-0.10015484
61	0x3b8b9b64	0.0042604674
62	0x3a7da151	0.0009675222
63	0x3b2fcc01	0.0026824477

layers.6.weight f4 [64, 64]
0	0xbd2e0b5a	-0.042491294
1	0x3e2fb867	0.17160188
2	0xbb16a433	-0.0022986054
3	0xbe386dbe	-0.18010613
4	0xbd798b59	-0.060923908
5	0x3dc5f277	0.09665387
6	0xbe45e3cb	-0.19325177
7	0xbe101b90	-0.14073014
8	0x3de2cf47	0.11074691
9	0xbd7d0f5a	-0.06178222
10	0x3de8f0ca	0.11374052
11	0xbc92c75b	-0.017917326
12	0x3e44af74	0.19207555
13	0x3e2c7882	0.16842845
14	0xbdfd5f3d	-0.12371681
15	0x3da46fb3	0.080291174
16	0x3e30ab10	0.17252755
17	0x3e217536	0.15767369
18	0x3e0beba3	0.13664107
19	0xbde86e93	-0.11349215
20	0x3e5286f3	0.20559292
21	0x3e13b818	0.14425695
22	0x3d9705b1	0.073741324
23	0x3e1aa921	0.1510358
24	0xbdfe688a	-0.12422283
25	0x3c423de7	0.011855579
26	0x3e496736	0.19668278
27	0x3d66948f	0.05629402
28	0x3cd75a28	0.026288107
29	0xbe359ada	-0.17734852
30	0xbd1fcce7	-0.03901377
31	0xbe50244c	-0.20326346
32	0xbe0ddf14	-0.13854629
33	0xbc0fb593	-0.008771318
34	0x3e0a0915	0.13480027
35	0x3e5e7327	0.21723615
36	0x3e3613dd	0.17781015
37	0x3e43fef5	0.19140227
38	0x3debc57c	0.115122765
39	0x3e179dca	0.14806286
40	0xbe291a27	-0.16513883
41	0x3d98fa3e	0.07469605
42	0x3e139bfd	0.14414974
43	0x3dd56e17	0.104213886
44	0x3de0c0be	0.10974263
45	0x3e45e8ea	0.19327131
46	0x3d851f7f	0.06500148
47	0x3dbfadb7	0.09359305
48	0xbd7b1604	-0.061300293
49	0x3e42a9da	0.19010106
50	0x3e14d259	0.14533366
51	0x3e07d1d5	0.13263638
52	0x3dacfd32	0.08446731
53	0xbd35e5e9	-0.044408713
54	0x3e0a22a0	0.13489771
55	0xbdb1f5ae	-0.08689438
56	0xbdc862d5	-0.09784476
57	0x3e043f30	0.12914729
58	0x3c402163	0.01172671
59	0x3e40abbe	0.18815514
60	0x3e1fab14	0.15592605
61	0xbe1854ca	-0.14876094
62	0xbdcde784	-0.10053924
63	0x3e2fbdd3	0.17162256
64	0xbcaa8264	-0.020814128
65	0x3e60a17a	0.21936598
66	0x3e1bb549	0.15205874
67	0xbe131dc5	-0.14366825
68	0x3e16c7db	0.14724676
69	0x3d55532e	0.05208128
70	0xbd8083d3	-0.062751435
71	0x3e1aefb1	0.15130498
72	0xbdecfead	-0.11572013
73	0x3d2fb11d	0.042893518
74	0xbdd9dc45	-0.10637716
75	0x3e3930b1	0.1808498
76	0x3dd44d3c	0.10366294
77	0x3da607c4	0.0810695
78	0x3d138eec	0.036024973
79	0x3e410b4c	0.18851966
80	0xbd1e8498	-0.03870067
81	0xbe0b558d	-0.13606854
82	0xbb18a907	-0.0023294108
83	0x3c8e94d7	0.017404957
84	0x3d60eb88	0.05491212
85	0x3c5ca7f3	0.013467777
86	0x3cedb760	0.029018104
87	0xbe57fbc3	-0.21092133
88	0x3d5cdcd9	0.053921554
89	0xbe2ba419	-0.16761817
90	0xbe46f45b	-0.19429152
91	0xbe0e66aa	-0.1390635
92	0x3d7ccb93	0.06171758
93	0xbda52b0c	-0.08064851
94	0xbd0dd6a4	-0.034628525
95	0xbe138405	-0.1440583
96	0xbcee171d	-0.029063756
97	0xbb6eb951	-0.0036426375
98	0xbe5b9354	-0.2144292
99	0xbd5bc620	-0.053655744
100	0xbd6d92d0	-0.05800134
101	0xbdc15b84	-0.09441283
102	0xbe282526	-0.16420421
103	0xbe55cae5	-0.2087818
104	0xbe165d84	-0.14684111
105	0x3d4c929d	0.04994451
106	0xbdaa7c46	-0.083244845
107	0xbe04ba3d	-0.1296167
108	0xbe3e5bd6	-0.1858972
109	0xbe5573d3	-0.20844965
110	0xbe2ece1d	-0.17070813
111	0x3d7a3d1b	0.06109343
112	0xbe51774e	-0.20455667
113	0xbd3183af	-0.043338474
114	0xbe3d2d9a	-0.18474427
115	0xbe0229d5	-0.1271127
116	0xbe21115b	-0.15729277
117	0x3db8ca21	0.09022928
118	0x3ba18f52	0.004930415
119	0xbe161442	-0.14656165
120	0x3d76372b	0.060111206
121	0x3d89236a	0.06696208
122	0xbce999c0	-0.028515697
123	0xbd26d9cd	-0.040735055
124	0x3e4b3bbb	0.19847004
125	0x3e25c08b	0.1618673
126	0xbdc4f0cf	-0.09616243
127	0xbe4e8123	-0.20166449
128	0x3e13db4e	0.14439127
129	0x3e29a208	0.16565716
130	0xbd825c08	-0.0636521
131	0xbe5fc8d3	-0.21853952
132	0xbd8d39c5	-0.06895784
133	0xbc246518	-0.010033868
134	0x3d95d28a	0.07315548
135	0xbdda6291	-0.10663331
136	0xbd53a8c4	-0.05167462
137	0x3e29fe4d	0.16600914
138	0x3e4edef2	0.20202234
139	0x3daea29d	0.0852711
140	0xbe0ac9f2	-0.13553599
141	0xbe258150	-0.1616261
142	0x3d289cf3	0.041165303
143	0xbcab1459	-0.020883726
144	0xbc938a58	-0.018010303
145	0xbd357ea6	-0.044310234
146	0xbe35bb17	-0.1774715
147	0x3e2037c7	0.15646277
148	0x3e056d41	0.13029958
149	0x3de1a6d5	0.11018149
150	0xbda29b79	-0.0793981
151	0xbd82422e	-0.06360279
152	0x3d00289f	0.03128874
153	0x3dc9600c	0.098327726
154	0xbe5df992	-0.21677235
155	0x3e5dbb0a	0.21653381
156	0xbe102ef3	-0.1408041
157	0xbe276ca8	-0.16350043
158	0xbe2433ea	-0.16035429
159	0xbd070acd	-0.032969285
160	0x3e347607	0.17623149
161	0xbdd95956	-0.106127426
162	0x3e011b88	0.12608159
163	0xbe2b20e5	-0.16711767
164	0x3e33c506	0.17555627
165	0xbdfcc4c4	-0.123422176
166	0xbd4201d2	-0.047365017
167	0x3e31fa3c	0.17380613
168	0xbc3cd22b	-0.011524717
169	0xbe3cdff3	-0.18444805
170	0xbe28a7ad	-0.16470213
171	0xbca20d40	-0.019781709
172	0x3df3c215	0.119022526
173	0x3e202bf5	0.15641768
174	0xbdba027c	-0.09082505
175	0xbdb81a3e	-0.0898938
176	0x3e57d976	0.21079049
177	0x3e44be18	0.1921314
178	0x3cdb8a66	0.026799392
179	0xbdc44cbb	-0.09584948
180	0x3d903a54	0.07042375
181	0xbd291386	-0.041278385
182	0xbdda1ee8	-0.10650426
183	0x3bb21540	0.005434662
184	0x3d25ef40	0.04051137
185	0x3e66c014	0.2253421
186	0xbdd59dcb	-0.10430487
187	0xbe261347	-0.16218291
188	0xbdfbf85e	-0.12303232
189	0xbce308bd	-0.027714128
190	0x3e396363	0.1810432
191	0xbe2af7f6	-0.16696152
192	0xbc02ee18	-0.007991336
193	0xbc6ad828	-0.014333762
194	0xbe216c5c	-0.15763992
195	0xbc1e7103	-0.009670499
196	0xbe0fbc75	-0.14036734
197	0xbe111b47	-0.14170562
198	0x3e00f648	0.12593949
199	0x3e1b0945	0.15140255
200	0x3e00341b	0.12519877
201	0x3cf32e19	0.029685067
202	0xbe0a73cd	-0.13520737
203	0xbe2e8ac8	-0.17045128
204	0x3e6a31fd	0.22870632
205	0x3e5689f2	0.2095106
206	0x3e53f5d8	0.2069925
207	0xbda8cd89	-0.08242328
208	0xbc761047	-0.015018529
209	0xbcfa72ce	-0.030572321
210	0x3df5045b	0.11963721
211	0x3e3271f3	0.1742628
212	0x3de0ccac	0.10976538
213	0xbd1baf70	-0.038009107
214	0x3c981835	0.01856623
215	0xbdc653f8	-0.096839845
216	0xbe4b7439	-0.19868554
217	0x3e417da2	0.18895581
218	0xbe0f248f	-0.1397879
219	0xbe0521f6	-0.13001236
220	0x3e3d5744	0.1849032
221	0x3de765ab	0.112986885
222	0xbd7f89f7	-0.062387433
223	0x3e6089cf	0.2192757
224	0x3da81d25	0.08208684
225	0x3ded347b	0.115822755
226	0x3e1d567a	0.1536502
227	0x3e01995a	0.12656155
228	0xbdc75ef0	-0.09734905
229	0xbe3ce656	-0.18447241
230	0xbd487866	-0.048942946
231	0xbe0f85b1	-0.14015843
232	0xbe2362d7	-0.15955673
233	0xbdbb277e	-0.09138392
234	0xbe185152	-0.14874771
235	0xbd8be0c3	-0.06829979
236	0x3e3f55b1	0.18685032
237	0xbe0cd865	-0.13754423
238	0xbe404fa2	-0.18780378
239	0xbe1b17d8	-0.15145814
240	0xbdd050db	-0.10171672
241	0x3e234902	0.15945819
242	0xbe27cc4c	-0.16386527
243	0xbe2a9036	-0.16656575
244	0xbe11c746	-0.14236173
245	0xbe115ec8	-0.14196312
246	0xbe44eb42	-0.19230369
247	0x3e1a9208	0.15094769
248	0x3aaf7c12	0.0013388416
249	0x3e29f3cb	0.16596906
250	0x3df86abe	0.121297345
251	0xbb069932	-0.002053809
252	0xbd88da66	-0.06682281
253	0x3dc186c0	0.0944953
254	0x3d604876	0.054756604
255	0x3e158d68	0.14604723

layers.6.bias f4 [64]
0	0xb9ba2045	-0.00035500727
1	0xbac5581d	-0.0015056167
2	0xbac464d9	-0.0014983668
3	0x3c17600d	0.009239209
4	0xbb54314d	-0.0032378018
5	0xba87485c	-0.0010321247
6	0x3abb4062	0.0014286155
7	0x3af8dee8	0.001898733
8	0x3bb9a67b	0.005665598
9	0x3b431fee	0.002977367
10	0xbb9b2b7e	-0.0047354093
11	0xba3f793a	-0.0007304136
12	0x3b801061	0.0039082025
13	0xbb51ec77	-0.0032031813
14	0x3b6211b1	0.0034495408
15	0xbb5988df	-0.0033193154
16	0x3a036bb4	0.00050133024
17	0xbc4a3053	-0.012340623
18	0x3b2fad77	0.0026806274
19	0xbb98fac3	-0.004668565
20	0x3b800a2a	0.0039074617
21	0xba16f60f	-0.00057587115
22	0x3b328ea0	0.0027245656
23	0x3b7d9b23	0.0038697205
24	0xbb08b1f8	-0.002085803
25	0xb9936670	-0.00028114347
26	0x3d1b4464	0.03790702
27	0xbae57501	-0.0017506183
28	0xbab1b51a	-0.0013558001
29	0x3b8ac92a	0.0042354064
30	0xb9aea80e	-0.00033313077
31	0xbab3da9e	-0.0013721769
32	0xba10d763	-0.0005525259
33	0xbb1ecfb3	-0.0024232685
34	0x3b3df2df	0.0028983874
35	0xb9610780	-0.00021460466
36	0x3a93bfdc	0.0011272389
37	0xb9685905	-0.00022158407
38	0xbc5b6aeb	-0.01339219
39	0xba71f902	-0.00092305255
40	0xbbb8997d	-0.0056335316
41	0xbb384ba2	-0.0028121253
42	0xbbe95fbf	-0.0071220095
43	0x3b805168	0.0039159544
44	0x38e27548	0.00010798365
45	0x3bf75d80	0.007548988
46	0xbb9026ad	-0.0043991418
47	0x3c938b60	0.018010795
48	0x3c59ce4b	0.013293813
49	0x3b0d25f3	0.0021537512
50	0x3b01b41a	0.0019791187
51	0x3b65a958	0.0035043564
52	0x3a7fe4b3	0.0009761557
53	0xbb9821dd	-0.0046427087
54	0xba577c9d	-0.0008220168
55	0x39441e98	0.00018703414
56	0x3a9466b7	0.0011322115
57	0x3b2c76e7	0.0026315989
58	0xbb0ceed0	-0.0021504648
59	0x3a7a1807	0.00095403235
60	0xba8a94ee	-0.0010572949
61	0xbaa1f360	-0.0012355857
62	0xbb2ed7e9	-0.0026678985
63	0x3a468a3f	0.0007573701

layers.8.weight f4 [64, 64]
0	0xbdc3a67c	-0.09553239
1	0x3e086404	0.13319403
2	0xbe51f47b	-0.20503418
3	0x3c8ee7b0	0.017444462
4	0x3dcf7bb6	0.10131018
5	0x3e4e1b9d	0.20127721
6	0xbd47bf25	-0.048766274
7	0x3d305d93	0.04305799
8	0x39e79eb4	0.00044177996
9	0x3e36a1fd	0.17835231
10	0xbde419e7	-0.11137753
11	0x3e4face6	0.202808
12	0x3e3644cf	0.17799686
13	0x3e5bf9b7	0.21481977
14	0x3d90877f	0.07057094
15	0xbe032973	-0.1280878
16	0x3e088e8a	0.13335624
17	0xbd6cde44	-0.057829157
18	0xbcd2b6cd	-0.025721932
19	0xbdec0bba	-0.11525674
20	0xbd033bff	-0.03203964
21	0xbe37a6c7	-0.17934714
22	0x3e22a73a	0.15884104
23	0x3e18fdc2	0.14940551
24	0xbe1fd744	-0.15609461
25	0x3d8af812	0.06785597
26	0x3e12e729	0.14345993
27	0x3e15d203	0.14630894
28	0xbd2f89a8	-0.04285589
29	0xbe0ba4f4	-0.13637143
30	0x3e321264	0.17389828
31	0xbe1fe092	-0.1561301
32	0xbe1ce8ca	-0.15323177
33	0x3db1a3c5	0.08673815
34	0x3cc8e445	0.02452291
35	0xbd292eb0	-0.04130429
36	0xbd477c20	-0.04870236
37	0xbd8c81e4	-0.06860712
38	0x3aff2fb2	0.001946917
39	0x3c30c7b8	0.010789804
40	0xbcaa6984	-0.020802267
41	0x3d8cb8e5	0.06871203
42	0x3d0a05cf	0.033696946
43	0xbde3a5b1	-0.111155875
44	0x3d8f9bb6	0.070121214
45	0xbb8d4418	-0.004311096
46	0x3dd25c5d	0.10271523
47	0x3d34b898	0.044121355
48	0xbe38c09f	-0.18042229
49	0x3e39b5b1	0.18135716
50	0x3df056e3	0.11735322
51	0x3982c77c	0.0002494416
52	0xbd030ce4	-0.031994715
53	0xbe1e2c73	-0.15446644
54	0xbdf6da43	-0.12053349
55	0xbc317587	-0.010831243
56	0x3de48d94	0.111598164
57	0xbe4a9ce9	-0.19786419
58	0x3df13525	0.11777715
59	0xbc15ceff	-0.00914359
60	0xbdbcc914	-0.0921804
61	0x3d9795ba	0.07401605
62	0x3d87484e	0.06605588
63	0xbded8ae5	-0.11598758
64	0xbdb8494d	-0.08998356
65	0xbccf82d9	-0.025330948
66	0xbdaead1d	-0.085291125
67	0x3dfc5632	0.12321128
68	0x3e5ce5e7	0.21572076
69	0xbe494210	-0.19654107
70	0x3da5c924	0.08095005
71	0x3e05abc8	0.1305381
72	0x3e292aab	0.16520183
73	0x3d22a9e8	0.039712816
74	0x3e375a10	0.1790545
75	0xbe52098e	-0.20511457
76	0x3dfa30b7	0.12216323
77	0xbe53abd6	-0.20671019
78	0xbdd4f564	-0.10398367
79	0xbca462f0	-0.020066708
80	0xbe1e3c3a	-0.15452662
81	0x3da6579d	0.0812218
82	0x3d7441eb	0.059633177
83	0xbde108ae	-0.10987984
84	0xbe1277f5	-0.14303572
85	0x3e1748e7	0.14773904
86	0x3e02588d	0.12729092
87	0xbe0f18a9	-0.13974251
88	0x3e1f0f2f	0.15533136
89	0x3df6abab	0.12044462
90	0xbe2f576e	-0.17123196
91	0x3bc61b84	0.0060457606
92	0xbe092a26	-0.13394985
93	0x3cf4c0d0	0.029877096
94	0xbe47b835	-0.19503863
95	0xbe1440be	-0.14477822
96	0x3e4fe856	0.20303473
97	0x3deef215	0.11667267
98	0xbd0d60d3	-0.034516167
99	0x3dcf0fca	0.101104334
100	0xbde9584f	-0.11393797
101	0xbe202e90	-0.15642762
102	0x3ded56c3	0.11588814
103	0x3e3fb998	0.18723142
104	0x3e52ee63	0.2059875
105	0x3dbfea06	0.09370808
106	0xbe525ea6	-0.20543918
107	0xbe0cb873	-0.13742237
108	0xbd9364c6	-0.071969554
109	0xbdf71f3d	-0.12066505
110	0xbe23dfa6	-0.16003284
111	0xbe3c3332	-0.18378904
112	0x3e0ea5c7	0.13930427
113	0xbdf29153	-0.11844125
114	0x3cc330ca	0.023826975
115	0xbc81f4a5	-0.015863726
116	0x3e39937e	0.1812267
117	0x3e044ba6	0.12919483
118	0xbdb4033d	-0.0878968
119	0xbe26405f	-0.16235493
120	0x3e0ddda7	0.13854085
121	0x3bb340b4	0.0054703597
122	0xbdad121a	-0.08450718
123	0x3d3e5b3b	0.046473723
124	0xbd9bb717	-0.07603281
125	0xbd80a054	-0.0628058
126	0x3cbb8419	0.022890138
127	0xbd564747	-0.05231407
128	0x3df3bf2d	0.11901698
129	0xbd82008f	-0.06347763
130	0x3dbd1205	0.092319526
131	0x3e348142	0.17627433
132	0xbde9f417	-0.114235096
133	0xbe49693b	-0.19669048
134	0x3de92923	0.11384799
135	0x3da250e1	0.07925583
136	0xbd920e43	-0.071316265
137	0x3cfbbc62	0.030729476
138	0x3c21e6e1	0.009881706
139	0x3d7383fc	0.059452042
140	0x3e34a454	0.17640811
141	0xbd8b33f4	-0.06797019
142	0xbe1fc572	-0.15602663
143	0xbdc41273	-0.095738314
144	0xbcdca0aa	-0.02693208
145	0xbbcab3dc	-0.0061859917
146	0xbc60e570	-0.013726577
147	0xbe4ee268	-0.20203555
148	0xbe2ffaa3	-0.17185454
149	0x3e0799b7	0.13242231
150	0xbc461212	-0.012089269
151	0x3dee3bd3	0.11632504
152	0xbe20b995	-0.15695794
153	0x3dd92d07	0.106042914
154	0x3e36abfe	0.17839047
155	0x3db01da3	0.08599403
156	0xbe27d932	-0.16391447
157	0xbe06ae77	-0.1315249
158	0x3e2cc7f2	0.16873148
159	0x3dde9cac	0.108697265
160	0xbda10de8	-0.078639805
161	0x3c4c9497	0.012486598
162	0xbd8789d2	-0.06618084
163	0x3e055c3e	0.13023469
164	0x3e1134ee	0.14180347
165	0x3e0aa58c	0.13539714
166	0xbd975650	-0.0738951
167	0xbe575a2a	-0.21030489
168	0xbcc89d9d	-0.024489218
169	0x3dc003d4	0.0937573
170	0x3e2794a0	0.1636529
171	0x3e118130	0.14209437
172	0x3e0f2db9	0.13982286
173	0xbdc2b894	-0.09507862
174	0x3c2dff01	0.01061988
175	0xbdeadbed	-0.11467729
176	0x3dfdd477	0.1239404
177	0xbd0dfdef	-0.034665998
178	0x3ddd79d9	0.10814256
179	0xbdbc0b7c	-0.09181878
180	0xbe20d35f	-0.15705632
181	0x3e18fc27	0.14939938
182	0x3e0390cc	0.12848204
183	0xbd426e20	-0.047468305
184	0xbe368cc4	-0.17827135
185	0x3d18eb63	0.037333857
186	0xbdb3c468	-0.08777696
187	0x3e2cbd2e	0.16869041
188	0xbe0beb90	-0.13664079
189	0xbda138a6	-0.07872133
190	0x3e1f4929	0.15555252
191	0xbe2d3ca6	-0.16917667
192	0x3e054877	0.13015924
193	0xbdad4d63	-0.08462026
194	0x3dc7dc46	0.09758811
195	0x3b5dc8b5	0.0033841555
196	0x3deefa01	0.11668778
197	0x3cf1ce4d	0.029517317
198	0xbce88795	-0.028384963
199	0xbe5d45fb	-0.21608727
200	0x3e25e819	0.1620182
201	0xbe29c5b9	-0.16579331
202	0xbe66a83d	-0.22525115
203	0x3b4714f2	0.0030377475
204	0x3e359e65	0.17736204
205	0xbd759f08	-0.059966117
206	0x3e404b45	0.18778713
207	0xbdbbfc43	-0.091789745
208	0xbe19d526	-0.15022716
209	0x3b499504	0.0030758986
210	0x3d141e6e	0.036161833
211	0xbe49a5ff	-0.19692229
212	0xbdc3c975	-0.09559909
213	0xbdae2108	-0.08502394
214	0x3e4e7fda	0.20165959
215	0x3e071fa8	0.1319567
216	0xbd5e4451	-0.05426437
217	0xbd96ddd9	-0.07366533
218	0x3e2d81bb	0.1694402
219	0xbe32c655	-0.1745847
220	0x3e05d5d2	0.13069847
221	0x3e372f26	0.1788908
222	0xbc882508	-0.01661922
223	0xbdba1f22	-0.09087969
224	0x3e2ddf33	0.16979675
225	0xbd6f0dc8	-0.058362752
226	0xbb83e996	-0.0040256483
227	0x3b20130a	0.002442541
228	0x3d6e010a	0.05810646
229	0x3e202db5	0.15642436
230	0xbde3b5b1	-0.11118639
231	0xbe1740ae	-0.14770767
232	0x3dfca067	0.12335282
233	0x3d7d719b	0.06187592
234	0xbd3ef68d	-0.046621848
235	0x3e08e89b	0.13369982
236	0xbe3e6a23	-0.18595175
237	0xbcfbf867	-0.030758096
238	0xbe2d8b6c	-0.16947716
239	0xbc25ea4e	-0.010126663
240	0x3e1cfe4b	0.1533138
241	0xbdd346ce	-0.10316239
242	0xbe094c46	-0.13408002
243	0xbd8a894a	-0.06764467
244	0xbd586955	-0.052834827
245	0x3e4cf5a4	0.2001558
246	0x3db73da1	0.08947302
247	0x3df972f9	0.121801324
248	0x3d604af9	0.054759
249	0xbd18361c	-0.037160978
250	0x3d00a12f	0.031403717
251	0x3db1f161	0.086886175
252	0xbe051f73	-0.13000278
253	0x3e2b9b63	0.16758494
254	0xbd01ddff	-0.031705853
255	0x3e3cd3e9	0.18440212

layers.8.bias f4 [64]
0	0x3a844ac4	0.0010093083
1	0xbb8ab99a	-0.004233551
2	0x3a3a01f2	0.0007095627
3	0x3b2958c8	0.0025840271
4	0x3b01e396	0.001981949
5	0x3b6da800	0.0036263466
6	0x3a2eddda	0.00066706317
7	0x3b0bdbe7	0.0021340789
8	0xb991428a	-0.0002770613
9	0x3a902895	0.0010998423
10	0x3be71e90	0.007053204
11	0xbab8e125	-0.0014105184
12	0x3a9c4ea7	0.0011925296
13	0x3c10e599	0.008843803
14	0xb95cd9f4	-0.00021062029
15	0xbb2e615f	-0.002660833
16	0xbaccdd7b	-0.0015629971
17	0x3a1cd335	0.00059824
18	0xbb806890	-0.003918715
19	0x3b43c816	0.00298739
20	0x380b19b9	3.316414e-05
21	0x3b7d7c1d	0.0038678714
22	0xba6c68fa	-0.0009018328
23	0xbc428b52	-0.011874037
24	0x3ae677e7	0.0017583341
25	0x3a6b84dd	0.0008984337
26	0xbb2271d1	-0.0024787078
27	0x3ae17916	0.0017202224
28	0xbc32f68c	-0.010923039
29	0xba010dfd	-0.0004923044
30	0x3b708642	0.0036701118
31	0xbaa3d092	-0.0012498072
32	0xbb581e79	-0.0032977147
33	0x39b299b1	0.00034065315
34	0xb94669a3	-0.00018922104
35	0x3a94b787	0.0011346199
36	0xbbcb1260	-0.006197259
37	0xbb0442a3	-0.002018132
38	0xbc453e2b	-0.012038748
39	0x3bc27d03	0.0059353127
40	0x39e3caa9	0.00043447808
41	0xbba58fc5	-0.005052539
42	0xbb9b8153	-0.0047456413
43	0xbb4cd21b	-0.0031253162
44	0xbbcfb2ad	-0.0063384385
45	0xbb4eddbc	-0.003156527
46	0xbbf501dd	-0.0074770288
47	0x39048c42	0.00012640751
48	0x3b0113e4	0.0019695694
49	0xba0fda85	-0.0005487579
50	0x3b0a51a0	0.0021105781
51	0x3947d265	0.00019056497
52	0x3a789e54	0.0009484042
53	0x3954b5dd	0.00020285645
54	0x3ae481d2	0.0017433709
55	0xbb072e4d	-0.0020626963
56	0xbaaab499	-0.0013023793
57	0xbc3b2046	-0.011421269
58	0x3979c2e8	0.00023819099
59	0xb9d8c4f9	-0.00041345487
60	0x39f084c5	0.00045875288
61	0xba9dd3c4	-0.001204126
62	0xba2c7ccc	-0.00065798755
63	0xbaab5dc6	-0.0013074211

layers.10.weight f4 [64, 64]
0	0x3ddfe387	0.10932069
1	0xbe149ffa	-0.14514151
2	0x3e57f6d1	0.21090247
3	0xbdb3c342	-0.08777477
4	0x3e5f4e27	0.21807157
5	0x3e5ab0d1	0.21356513
6	0x3e2ecbec	0.17069978
7	0x3e427aad	0.1899211
8	0x3d9a6ef2	0.075406924
9	0xbdb2cbc1	-0.08730269
10	0x3c786387	0.015160448
11	0xbda53f25	-0.080686845
12	0x3e45428b	0.19263665
13	0x3daae903	0.08345225
14	0xbbce715a	-0.0063001337
15	0x3d1607d4	0.03662856
16	0x3e03a773	0.12856846
17	0x3d720525	0.059086937
18	0x3e0f7a82	0.14011577
19	0x3d510603	0.051031124
20	0xbdabdb52	-0.083914414
21	0xbe133afe	-0.14377972
22	0xbe2a26ca	-0.1661636
23	0x3e4d6fa2	0.20062116
24	0xbe538fa7	-0.20660268
25	0x3e575884	0.2102986
26	0x3d5451fb	0.051835995
27	0x3e34bc09	0.17649855
28	0x3e25e034	0.16198808
29	0x3cd4489c	0.02591353
30	0x3dcb42b7	0.09924834
31	0xbd900e77	-0.07034009
32	0xbe26f4c5	-0.1630431
33	0xbd453d0c	-0.048153922
34	0x3e4eba7e	0.20188329
35	0x3dbed3ac	0.09317717
36	0xbd196461	-0.037449244
37	0xbd6ab460	-0.057300925
38	0xbe3e4817	-0.18582188
39	0x3e2e9ab4	0.17051202
40	0x3da6f1c7	0.08151584
41	0xbc6cad7d	-0.01444566
42	0x3dd3b4e4	0.103372365
43	0xbd9523d2	-0.07282223
44	0xbe43e213	-0.19129209
45	0xbe1ca87c	-0.15298647
46	0xbbde93d6	-0.0067925258
47	0x3d0a7044	0.03379847
48	0x3d88975d	0.06669495
49	0xbd357966	-0.044305228
50	0x3d9b84a7	0.07593661
51	0x3e4e2d8a	0.2013456
52	0x3dc358a3	0.095383905
53	0xbcb09017	-0.021553082
54	0x3df0393a	0.11729665
55	0x3e4fbb7c	0.20286363
56	0xbe361203	-0.17780308
57	0x3e4ec605	0.20192726
58	0x3d8ee5b9	0.0697741
59	0xbd8f7714	-0.07005134
60	0x3e2fff4b	0.1718723
61	0x3e3f85fc	0.18703455
62	0x3e4d0b2b	0.20023791
63	0xbe5b8922	-0.21439031
64	0x3e2c9546	0.16853818
65	0x3e535a2e	0.2063987
66	0x3e03abcc	0.12858504
67	0xbda13088	-0.07870585
68	0x3e5ae0f9	0.21374883
69	0xbca7e103	-0.020493036
70	0x3d1172cc	0.03550987
71	0xbe0210a2	-0.12701657
72	0xbe440161	-0.19141151
73	0xbde9f770	-0.11424148
74	0x3d05c57b	0.032659035
75	0xbc132977	-0.008982054
76	0xbd00df60	-0.031463027
77	0x3cd6bbdf	0.02621263
78	0xbbba905c	-0.0056934785
79	0xbe452956	-0.1925405
80	0xbd480621	-0.04883397
81	0xbe5a9aeb	-0.21348159
82	0xbcbb719c	-0.022881322
83	0x3d2bdca4	0.041958466
84	0x3e22d486	0.15901384
85	0x3d713d45	0.05889632
86	0x3cd793d3	0.026315605
87	0xbba101ca	-0.0049135434
88	0x3d235d1b	0.039883714
89	0x3e120502	0.14259723
90	0x3d8b8b0f	0.06813633
91	0x3d5bbd55	0.053647358
92	0xbd9690b2	-0.07351817
93	0xbc1577fd	-0.009122846
94	0x3d0f782c	0.035026714
95	0x3d899c65	0.06719283
96	0x3d9f0694	0.077649266
97	0xbd9eb204	-0.077487975
98	0x3cd8f4ea	0.026483972
99	0x3dda18c2	0.106492534
100	0xbe53a762	-0.2066932
101	0x3e61294c	0.2198841
102	0xbdc3c938	-0.09559864
103	0xbe5adbf6	-0.21372971
104	0x3e5a17ac	0.21298093
105	0xbe0bd8b4	-0.13656884
106	0xbcc81343	-0.024423247
107	0x3e43fc07	0.1913911
108	0xbd16340b	-0.036670726
109	0x3dec718f	0.11545097
110	0x3d3a87d4	0.045539692
111	0x3e43032d	0.1904418
112	0x3e55fde5	0.20897634
113	0xbe2c24db	-0.16810934
114	0x3d92d422	0.071693674
115	0xba833b89	-0.001001225
116	0x3dd24303	0.10266688
117	0x3e237039	0.15960778
118	0xbca1c97f	-0.019749401
119	0xbdfed3b4	-0.12442723
120	0xbe08f36d	-0.1337411
121	0xbce54b37	-0.027989967
122	0x3e2ea3da	0.17054692
123	0xbe018351	-0.1264775
124	0xbda498eb	-0.08036979
125	0x3e1b2ad1	0.15153052
126	0xbe608fca	-0.21929851
127	0xbca8c926	-0.020603728
128	0xbdce5c90	-0.10076249
129	0xbd82b103	-0.063814186
130	0xbdbb5597	-0.09147184
131	0x3dd9ee03	0.106411
132	0xbd82193e	-0.06352471
133	0xbd18f774	-0.037345365
134	0x3da61f27	0.081114106
135	0xbdef4dbb	-0.11684748
136	0xbe2445e1	-0.16042282
137	0xbbfc1488	-0.007692877
138	0x3df6c431	0.12049139
139	0xbde0dfc0	-0.10980177
140	0xbd2c7b16	-0.04210957
141	0x3cec617e	0.028855082
142	0x3e2b743a	0.16743556
143	0xbdb8c4eb	-0.09021934
144	0xbdb1b6ac	-0.0867742
145	0xbe279dba	-0.16368762
146	0x3e3f12bb	0.18659489
147	0xbe317ef1	-0.1733358
148	0xbe5daaf6	-0.21647248
149	0x3e1bc17c	0.15210527
150	0x3cc8aff7	0.02449797
151	0x3e59b982	0.21262172
152	0xbe32f6de	-0.17476985
153	0x3b41ec3c	0.002959027
154	0xbdf1cc24	-0.11806515
155	0x3da65500	0.08121681
156	0x3e5353fb	0.20637505
157	0xbe1bf59f	-0.15230416
158	0x3b43b90f	0.0029864942
159	0x3e590c18	0.2119602
160	0x3e210d4c	0.15727729
161	0x3d965c01	0.07341767
162	0x3de473f3	0.11154928
163	0x3c95c17f	0.018280743
164	0x3de05ae0	0.10954833
165	0xbda52a1b	-0.080646716
166	0x3e2af3c8	0.16694558
167	0xbd972c1a	-0.073814586
168	0x3d95b8e0	0.07310653
169	0x3c07ee83	0.008296612
170	0xbd87b826	-0.066269204
171	0x3dbf79cc	0.09349403
172	0xbd38bc40	-0.045101404
173	0x3d81fc33	0.06346931
174	0xbded954b	-0.11600741
175	0xbe3eaa55	-0.18619664
176	0xbd896d47	-0.06710296
177	0x3e1bfaca	0.15232387
178	0xbdc9e5ab	-0.09858259
179	0x3b82218c	0.0039712843
180	0x3d7eb4f0	0.062184274
181	0x3d326d9a	0.043561555
182	0xbe571281	-0.21003152
183	0xbe136419	-0.14393653
184	0xbc8f73a7	-0.017511202
185	0x3e413322	0.18867162
186	0xbe188d85	-0.14897735
187	0xbd7b5648	-0.06136158
188	0x3dca8bff	0.098899834
189	0xbe06969c	-0.1314339
190	0xbcf15b88	-0.02946259
191	0xbd379b3a	-0.04482577
192	0x3d2c807d	0.042114723
193	0x3e56a91b	0.20962946
194	0x3e4a3a48	0.19748795
195	0xbe551edf	-0.20812558
196	0x3e059bc0	0.13047695
197	0x3dd12bff	0.1021347
198	0x3c8a7f7c	0.016906492
199	0xbe5a3810	-0.21310449
200	0xbddff906	-0.10936169
201	0x3cb6979b	0.022289088
202	0x3d8f8f6a	0.07009776
203	0xbd97bb93	-0.07408824
204	0xbc29700b	-0.0103416545
205	0xbe331838	-0.17489707
206	0xbd27cf31	-0.040969077
207	0x3e63b8cb	0.22238462
208	0x3e0ded55	0.13860066
209	0xbe2752be	-0.16340157
210	0x3e1ce261	0.15320732
211	0x3e4a43c3	0.19752412
212	0x3ca9ff60	0.020751655
213	0x3e36d31d	0.17853971
214	0xbdd994a3	-0.10624053
215	0xbb9d3e2b	-0.0047986708
216	0x3e51656f	0.2044885
217	0xbda7258c	-0.081614584
218	0xbd3dde21	-0.046354417
219	0xbca0db3b	-0.019635787
220	0xbe2a6381	-0.1663952
221	0xbda393b4	-0.079871565
222	0xbd4b0228	-0.049562603
223	0x3dd0a951	0.101885445
224	0xbdccee57	-0.10006397
225	0x3b7b87a7	0.0038380416
226	0xbe0b82f2	-0.1362417
227	0xbe1d612a	-0.15369096
228	0xbd20e860	-0.03928411
229	0xbe53c9b5	-0.20682414
230	0x3e010269	0.12598576
231	0xbcc029d3	-0.023457443
232	0x3c9cb723	0.019130295
233	0x3ca05f00	0.01957655
234	0xbd1c681f	-0.038185235
235	0x3deb68f9	0.11494631
236	0xbe40d91e	-0.18832824
237	0xbdc64cc9	-0.09682614
238	0x3e3d937a	0.18513289
239	0x3cbf6635	0.023364166
240	0xbdb02515	-0.08600823
241	0x3c7f0af3	0.015566575
242	0xbe5ba055	-0.2144788
243	0x3d060ae3	0.032725226
244	0xbd782cec	-0.060589716
245	0xbde6cee9	-0.11269934
246	0xbe40d6fa	-0.18832007
247	0xbc322177	-0.010872236
248	0xbe3beadf	-0.18351315
249	0xbdba3fa6	-0.09094171
250	0x3dbea403	0.093086265
251	0x3dfb2546	0.12262969
252	0x3d08e3c1	0.033420328
253	0x3d8ffffe	0.070312485
254	0x3e37ecd8	0.17961442
255	0xbe5c3e1a	-0.21508065
