data/results/output_net_8000.pth (torch, 38752 bytes, 8 tensors)

layers.0.weight f4 [64, 5]
0	0x3e83b52b	0.25724158
1	0xbe42d196	-0.19025263
2	0xbea87a8d	-0.32906
3	0x3dd3963c	0.10331389
4	0xbd960297	-0.07324713
5	0x3d9fd759	0.07804746
6	0xbc79fc6f	-0.015257939
7	0x3d6723d6	0.05643066
8	0x3e947ff2	0.29003865
9	0x3e7c4201	0.24634553
10	0x3e507512	0.20357159
11	0x3e70d197	0.23517452
12	0x3e65a1b7	0.2242497
13	0x3ea4f5ad	0.32218686
14	0x3dd18432	0.102302924
15	0x3e6ca589	0.23110022
16	0xbc8eeb9c	-0.017446332
17	0x3d65db91	0.056117598
18	0xbd3c22c2	-0.045931585
19	0xbd86865f	-0.06568598
20	0x3eafe7aa	0.34356433
21	0x3e7b93b8	0.24568069
22	0xbd393929	-0.045220528
23	0xbe0bcb0c	-0.13651675
24	0xbc6b14aa	-0.014348188
25	0xbd8bd8a4	-0.0682843
26	0x3dc74d76	0.097315714
27	0x3e3315ed	0.17488833
28	0xbe3dc85c	-0.18533462
29	0xbcfc301a	-0.030784655
30	0xbd82914c	-0.063753694
31	0xbe885e8a	-0.26634628
32	0x3d759da4	0.05996479
33	0x3d934c54	0.07192293
34	0x3c6d53e0	0.014485329
35	0xbeaf106b	-0.34192213
36	0xbc57d27f	-0.013172745
37	0x3e154270	0.14576125
38	0xbe894993	-0.26813945
39	0xbe34ce9b	-0.17656939
40	0x3e76308d	0.24041958
41	0xbe30e907	-0.17276393
42	0x3dc9cdab	0.09853681
43	0xbe8efc1b	-0.27926716
44	0xbd4e5b01	-0.050379757
45	0x3d08cd9e	0.033399217
46	0x3e0fc409	0.14039625
47	0xbda1c476	-0.078988
48	0x3e226959	0.158605
49	0x3cfb3262	0.030663673
50	0x3ea0c4d8	0.3140018
51	0xbe8983f6	-0.2685849
52	0xbe71614d	-0.23572274
53	0xbd39d589	-0.04536966
54	0x3e1e6969	0.15469898
55	0x3e4ffaeb	0.20310561
56	0xbe4be091	-0.19909884
57	0x3e079959	0.13242091
58	0x3e6971c2	0.22797301
59	0xbe4cad6d	-0.19988032
60	0x3e6b88e2	0.23001435
61	0x3e56f221	0.20990802
62	0x3e95bf41	0.29247478
63	0x3dfb0464	0.12256697
64	0xbe320a28	-0.17386687
65	0x3e25c04a	0.16186634
66	0x3e40f52f	0.1884353
67	0x3e9e4441	0.3091145
68	0x3c624350	0.013809994
69	0x3c10f5a7	0.008847631
70	0xbdfa7aee	-0.12230478
71	0xbe5ed0b4	-0.21759301
72	0x3e056e0c	0.13030261
73	0x3e4d6ed2	0.20061806
74	0xbe53d4a7	-0.20686589
75	0x3d9ae5d3	0.07563367
76	0x3e85a0a4	0.26099122
77	0xbdf0f1d2	-0.117648736
78	0x3e2ae194	0.16687614
79	0xbe6ed3a2	-0.23322919
80	0x3d83666b	0.06416019
81	0xbe0125af	-0.12612031
82	0x3d0003ba	0.031253554
83	0xbe838037	-0.25683758
84	0xbe3d6d14	-0.18498641
85	0x3e5a7b14	0.21336013
86	0xbd08fca1	-0.03344405
87	0xbe40dbac	-0.18833798
88	0xbdf135ff	-0.11777877
89	0xbda5d76d	-0.0809773
90	0x3e50ec1e	0.20402572
91	0x3db0e320	0.08637071
92	0x3e749733	0.23885803
93	0x3e7a88cc	0.24466246
94	0xbda1acf8	-0.07894319
95	0xbe151d12	-0.1456187
96	0x3ea516d0	0.32243967
97	0xbeaa00f2	-0.33203846
98	0x3cf05c1b	0.029340794
99	0xbe395773	-0.18099765
100	0xbeb811a2	-0.35950953
101	0x3e717d4e	0.23582956
102	0x3d2c7272	0.04210133
103	0xbdaad6e9	-0.08341772
104	0x3e405c82	0.18785289
105	0xbe9c8266	-0.30568236
106	0xbd19e7a4	-0.037574425
107	0xbe51fdde	-0.20506999
108	0xbdb53b61	-0.08849216
109	0xbe1827a3	-0.1485887
110	0x3deed4d9	0.11661691
111	0x3e52203c	0.20520109
112	0x3c58a80b	0.013223658
113	0xbe24ff0d	-0.16112919
114	0x3df416dd	0.11918423
115	0xbe431f19	-0.19054832
116	0x3e46feba	0.19433108
117	0xbe7a1669	-0.24422611
118	0x3e22f3a0	0.15913248
119	0x3e6f69fd	0.23380275
120	0x3d8c69b7	0.06856101
121	0x3e353586	0.17696199
122	0xbe37d5fd	-0.17952724
123	0xbe114de6	-0.14189872
124	0xbb198859	-0.0023427217
125	0x3ec56753	0.38555393
126	0x3d8ce5fd	0.06879804
127	0x3db9ca3a	0.09071775
128	0xbe625d6d	-0.22105952
129	0x3e036816	0.12832674
130	0xbddfd586	-0.10929398
131	0xbe8c1a78	-0.27363944
132	0x3d8d0db2	0.06887378
133	0xbe7fda13	-0.24985532
134	0x3d811504	0.063028365
135	0x3d450eba	0.048109747
136	0xbe1742eb	-0.14771621
137	0x3e63f15e	0.22260043
138	0xbe3297fb	-0.17440788
139	0x3b939ad8	0.004504543
140	0x3e271302	0.16315845
141	0x3c7fa5a0	0.015603453
142	0x3e4dd5c9	0.20101084
143	0xbdebba98	-0.11510199
144	0xbd9fb340	-0.07797861
145	0xbd64dc26	-0.055874012
146	0x3e860001	0.26171878
147	0xbd5332d8	-0.05156216
148	0x3e148938	0.1450547
149	0x3ce3f353	0.027825987
150	0x3e549726	0.20760784
151	0x3c1473e1	0.009060831
152	0xbdb95065	-0.09048537
153	0x3e8d0151	0.27540067
154	0x3e47118b	0.19440286
155	0x3daaf999	0.08348388
156	0xbe0eea57	-0.13956581
157	0x3e0a2904	0.13492209
158	0xbdc9ba48	-0.098499835
159	0xbe034051	-0.12817504
160	0x3d5a44d1	0.053288285
161	0xbdc59756	-0.09648006
162	0xbe0ceb71	-0.13761689
163	0xbe231252	-0.15924957
164	0x3e4a02c5	0.19727619
165	0xbe91c476	-0.284702
166	0x3d7f3fa1	0.06231654
167	0x3d830cdf	0.06398939
168	0xbe0e0bde	-0.13871714
169	0x3d287d63	0.041135203
170	0x3ead0270	0.33790922
171	0x3dd38ea0	0.10329938
172	0xbe92bbf6	-0.28659028
173	0xbdcd9020	-0.10037255
174	0xbe640f03	-0.22271352
175	0xbe4a9a42	-0.19785407
176	0xbe34c115	-0.1765178
177	0x3e94c75f	0.29058358
178	0x3d4b0db3	0.04957361
179	0x3e2e7c99	0.17039718
180	0x3ebe315a	0.37147027
181	0x3ddd77aa	0.1081384
182	0xbe93362d	-0.2875227
183	0x3e6f4b69	0.2336861
184	0x3e0a74df	0.13521145
185	0x3e720e2c	0.23638219
186	0xbe889e94	-0.26683486
187	0x3dd64308	0.10462004
188	0x3df616f1	0.120160945
189	0x3d52a9ef	0.051431593
190	0xbe95c665	-0.29252926
191	0xbe649c41	-0.22325231
192	0x3e3e0ddd	0.18559976
193	0x3d880459	0.06641454
194	0xbe8a18a4	-0.26971924
195	0xbdbc2c30	-0.091881156
196	0xbe89d18c	-0.26917684
197	0x3e63ec5a	0.2225813
198	0xbd1e024d	-0.038576413
199	0x3dd7cc06	0.10536961
200	0xbea1c5ef	-0.31596324
201	0xbe0c7fd0	-0.13720632
202	0xbdb04075	-0.08606044
203	0x3db27000	0.087127686
204	0xbe4e0375	-0.20118506
205	0x3e40e9d3	0.18839197
206	0x3e629bb3	0.22129707
207	0xbe1afd25	-0.1513563
208	0x3e4b7e86	0.19872484
209	0x3c5879fe	0.013212679
210	0xbe29a8cf	-0.16568302
211	0x3e181afa	0.1485404
212	0x3e822bd9	0.25424078
213	0xbe431feb	-0.19055144
214	0x3e92f886	0.28705233
215	0x3e8d8ff1	0.2764888
216	0x3d80cab9	0.06288666
217	0xbe8b6afb	-0.27230057
218	0xbdaa0bce	-0.08303033
219	0xbcb1fa8a	-0.021725912
220	0x3eb87a0f	0.36030623
221	0xbe46fbe5	-0.19432028
222	0xbe911b91	-0.28341344
223	0x3e910a53	0.2832819
224	0x3d526f84	0.05137588
225	0xbde210cd	-0.11038361
226	0x3e2b6e3a	0.16741267
227	0x3d294843	0.04132868
228	0x3df42b08	0.1192227
229	0x3e3f7319	0.1869625
230	0xbeaf0fd8	-0.34191775
231	0xbe9dc7e7	-0.30816576
232	0x3e818998	0.25300288
233	0x3cf1a3d5	0.029497067
234	0x3d381e11	0.04495055
235	0xbd1e0d29	-0.03858677
236	0x3e137a19	0.14402045
237	0x3e5c534e	0.21516153
238	0x3d44e83a	0.04807303
239	0x3e5234e3	0.20527987
240	0xbe8c5aac	-0.27412927
241	0x3e8f8bbd	0.280363
242	0x3e7a6179	0.24451245
243	0xbcdb8609	-0.026797311
244	0x3e021999	0.12705077
245	0x3e71534a	0.23566929
246	0xbd7779da	-0.06041894
247	0xbe96464b	-0.29350504
248	0x3e84f2fe	0.25966638
249	0xbe688482	-0.22706798
250	0xbe5a28dc	-0.21304649
251	0xbe4cb9ef	-0.19992803
252	0x3e971feb	0.2951654
253	0xbdb060c9	-0.0861221
254	0xbe567bca	-0.2094566
255	0xbe127105	-0.14300926

layers.0.bias f4 [64]
0	0x3d16f057	0.0368503
1	0xbc253848	-0.010084219
2	0xbb2e6374	-0.0026609572
3	0x3b6b064e	0.0035861912
4	0xbc8da3d7	-0.017290039
5	0xbd8f3754	-0.06992975
6	0xbd04712c	-0.03233449
7	0xbc8eda5e	-0.01743811
8	0xbb917ee1	-0.004440174
9	0x3d515318	0.051104635
10	0x3b1086bb	0.0022052962
11	0x3d0f4867	0.034981158
12	0xbd10b646	-0.03533008
13	0xbd0aedbe	-0.033918135
14	0xbc39f6a2	-0.011350306
15	0x3cc959af	0.024578897
16	0x3c53c2df	0.012924879
17	0xbc3689df	-0.0111412695
18	0xbc34d1cb	-0.011036347
19	0x3d1de522	0.038548596
20	0xbcbb84b5	-0.022890428
21	0x3b534b5b	0.003224096
22	0x3b510e78	0.0031899493
23	0x3d3f5b28	0.046717793
24	0x3a2bf7c5	0.0006560053
25	0xba3a01c7	-0.0007095602
26	0xbca4ec86	-0.020132314
27	0xbc3f94aa	-0.011693159
28	0x3cb5c87b	0.022190323
29	0xbc167818	-0.009183906
30	0xbc1902f2	-0.009339081
31	0xbd5041a7	-0.05084386
32	0xbd5201ae	-0.051271133
33	0xbce873e6	-0.028375577
34	0x3d4d5f64	0.0501398
35	0xbd575694	-0.0525728
36	0x3d967d27	0.0734809
37	0xbb3ac668	-0.0028499607
38	0x3cb70e5d	0.022345716
39	0xbca90da6	-0.02063639
40	0x3d3a9bd8	0.04555878
41	0x3c31d124	0.010853086
42	0x3a9bf33c	0.0011898051
43	0x3ca3ea62	0.020009223
44	0x3d1c2873	0.038124513
45	0xbc1da6be	-0.009622274
46	0xbd105562	-0.035237677
47	0xbb21b726	-0.0024675815
48	0xbd240075	-0.0400395
49	0x3d29cc99	0.041454885
50	0xbc683cab	-0.014174621
51	0x3ca9e082	0.020736936
52	0xbb789791	-0.0037932137
53	0x3b9844e6	0.004646885
54	0xbb32a19a	-0.0027256967
55	0x3c65833d	0.01400834
56	0x3c2dc029	0.010604897
57	0xbcf8f6cb	-0.030391118
58	0xbc86051c	-0.016359858
59	0xbbc6b563	-0.0060641035
60	0x3c8eb010	0.017417938
61	0x3d433a19	0.047662828
62	0x3d2827a4	0.04105343
63	0xbdc70b0f	-0.09718906

layers.2.weight f4 [64, 64]
0	0x3dc4fcf1	0.09618557
1	0x3bdceb8e	0.0067419475
2	0xbd81d302	-0.06339075
3	0x3e231040	0.15924168
4	0xbe200547	-0.15627013
5	0x3d5a3af7	0.05327889
6	0x3e2f9797	0.1714767
7	0xbe4bafdf	-0.19891308
8	0x3deff02c	0.11715731
9	0xbd7412dd	-0.059588302
10	0xbe4d98ad	-0.20077772
11	0xbe0c7b2d	-0.13718863
12	0xbdf26af7	-0.11836808
13	0xbd368ba4	-0.044566765
14	0xbd2ddf55	-0.042449314
15	0x3d007281	0.0313592
16	0xbe2dc942	-0.16971305
17	0x3e051c1c	0.12999004
18	0x3e0b9f2f	0.13634942
19	0xbd6274c3	-0.055287134
20	0xbe0e9676	-0.13924584
21	0xbd0675c1	-0.032827143
22	0xbce55072	-0.02799246
23	0xbd9c28ae	-0.076249465
24	0x3d586377	0.052829232
25	0xbe284fad	-0.16436644
26	0x3d98d60f	0.074627034
27	0xbe1fad0e	-0.15593359
28	0x3cc727e7	0.02431102
29	0x3e531297	0.2061256
30	0x3e406fb5	0.18792613
31	0xbe1caf17	-0.15301166
32	0xbdb9b448	-0.09067589
33	0xbd83ce27	-0.06435805
34	0xbdcdb854	-0.100449234
35	0x3e720a45	0.2363673
36	0x3d47c5ac	0.0487725
37	0x3dfd74c0	0.12375784
38	0xbd413cc2	-0.047177084
39	0xbe429eee	-0.1900594
40	0x3d6a6d34	0.05723305
41	0x3e04a843	0.12954812
42	0xbe4de86f	-0.20108198
43	0xbe3d0639	-0.18459405
44	0xbe1d2fd4	-0.15350276
45	0xbd72299c	-0.059121713
46	0x3e2fe293	0.17176275
47	0x3e53aabe	0.20670602
48	0xbd73356e	-0.059377126
49	0xbbcc66ed	-0.0062378556
50	0xbe50f58a	-0.20406166
51	0x3e1aac48	0.15104783
52	0x3d128f75	0.035781343
53	0x3ce39b1b	0.027783921
54	0x3e21ce14	0.15801269
55	0x3dd2b870	0.10289085
56	0x3dd95968	0.10612756
57	0xbd17bc73	-0.037044954
58	0x3ddaa814	0.106765896
59	0x3e4f69ed	0.20255251
60	0x3e56f5be	0.2099218
61	0xbe5f8eee	-0.21831867
62	0xbd971239	-0.073765226
63	0x3e558f0c	0.2085535
64	0x3a921756	0.0011145871
65	0x3e19dff1	0.15026833
66	0xbe2bcdfd	-0.16777797
67	0xbb12f0f0	-0.0022421442
68	0x3e0ae012	0.13562039
69	0x3e19cc0f	0.15019248
70	0x3d10383c	0.03520988
71	0xbe4bda88	-0.19907582
72	0xbe004966	-0.12528
73	0xbe0e5669	-0.1390015
74	0x3e392db8	0.18083847
75	0x3d1acc2f	0.03779238
76	0x3e09d1d3	0.13458948
77	0xbe1968b2	-0.14981344
78	0x3d79ee70	0.061018407
79	0x3cab41fa	0.020905484
80	0x3e21626b	0.157602
81	0xbe280b81	-0.16410638
82	0xbacf2af4	-0.0015805648
83	0xbd53bb77	-0.051692452
84	0xbd933e06	-0.071895644
85	0x3d49733b	0.049182158
86	0xbdba4647	-0.090954356
87	0x3e10a49f	0.14125298
88	0xbe153c3b	-0.14573757
89	0x3e29c3db	0.16578619
90	0xbe3800ff	-0.1796913
91	0xbe379a17	-0.17929874
92	0xbcc1c583	-0.023653751
93	0x3e6985be	0.22804925
94	0x3e2841a1	0.16431285
95	0x3dbf2b89	0.093344755
96	0x3dcacc96	0.09902303
97	0xbbf6b945	-0.00752941
98	0xbe418970	-0.18900084
99	0x3e41dea3	0.18932585
100	0x3d020300	0.031741142
101	0x3dfac1b3	0.122439764
102	0x3e31430d	0.17310734
103	0x3c931570	0.017954558
104	0x3e37554c	0.17903632
105	0xbb62e79a	-0.0034622909
106	0xbdeb4895	-0.11488453
107	0x3e289d27	0.16466199
108	0xbd2d93b7	-0.0423772
109	0x3ded6bf4	0.11592856
110	0xbe04635b	-0.12928526
111	0xbdb3d7af	-0.08781373
112	0x3bd78c44	0.0065780003
113	0x3ddf4e85	0.10903648
114	0xbe0df1d8	-0.13861787
115	0xbe069081	-0.13141061
116	0x3e6a2208	0.22864544
117	0xbe345268	-0.1760956
118	0xbdf15d13	-0.117853306
119	0x3e03a622	0.12856343
120	0x3e048230	0.12940288
121	0xbe03f496	-0.12886271
122	0x3d4aea11	0.04953963
123	0xbdf30273	-0.118657015
124	0xbd5568e5	-0.05210199
125	0x3d1d7800	0.03844452
126	0xbda920de	-0.08258222
127	0xbdbaf362	-0.09128453
128	0x3c9d3322	0.019189421
129	0xbda280ad	-0.07934699
130	0x3e155535	0.14583285
131	0xbe0a7772	-0.13522127
132	0xbe7082d4	-0.23487407
133	0x3e2cd3be	0.16877648
134	0x3e855ba9	0.26046494
135	0xbe4fe7db	-0.2030329
136	0xbe452c24	-0.1925512
137	0xbe622225	-0.22083338
138	0xbde58178	-0.11206335
139	0x3e6ba814	0.23013335
140	0xbe6df6f6	-0.2323874
141	0x3c9713ad	0.018442
142	0x3d656318	0.056002706
143	0x3d89f508	0.06736189
144	0x3e0628f9	0.13101567
145	0x3d799931	0.06093711
146	0xbd95e57f	-0.073191635
147	0x3e81d56f	0.2535815
148	0x3d9f9e86	0.07793908
149	0xbe36624f	-0.17810939
150	0xbe318590	-0.17336106
151	0x3df3b1c7	0.11899143
152	0x3e5f016c	0.21777886
153	0xbdd737d0	-0.10508692
154	0xbd859c9a	-0.0652401
155	0xbe2d843e	-0.16944978
156	0x3cf1368a	0.029444952
157	0xbd549213	-0.05189712
158	0x3e55625d	0.20838304
159	0xbd872e8c	-0.06600675
160	0xbcae3879	-0.021267163
161	0xbe3cf042	-0.18451026
162	0x3d07cfc2	0.033157118
163	0xbd1ac318	-0.037783712
164	0x3cd961b1	0.02653584
165	0x3dcb3715	0.099226154
166	0xbdfb3413	-0.12265792
167	0x3d100be2	0.035167582
168	0x3d8de46b	0.06928333
169	0x3e0f0615	0.13967164
170	0xbddbd3b1	-0.10733736
171	0x3debc506	0.115121886
172	0x3e1ab65f	0.15108632
173	0xbdfd4dd3	-0.123683594
174	0xbc51f208	-0.012814052
175	0xbe71afe3	-0.23602252
176	0x3e20c881	0.15701486
177	0x3e2bf6e3	0.16793399
178	0xbdd48551	-0.103769906
179	0x3db40f5a	0.087919906
180	0x3d76a9cc	0.060220525
181	0xbe0af88d	-0.13571377
182	0xbe357f39	-0.17724313
183	0x3dd65913	0.10466208
184	0x3ddb016f	0.10693633
185	0x3d75960e	0.059957556
186	0x3d40d418	0.04707727
187	0x3e4ad0e3	0.19806246
188	0xbd7e2107	-0.062043216
189	0x3df0d5f7	0.117595606
190	0x3e6e960d	0.23299427
191	0x3cd88572	0.02643082
192	0xbe2dc630	-0.16970134
193	0x3cc982aa	0.024598438
194	0x3e54a4dc	0.20766014
195	0xbde92563	-0.11384084
196	0xbe307b2b	-0.17234485
197	0xbdabb566	-0.083842084
198	0xbd127489	-0.035755668
199	0xbe4df9f7	-0.20114885
200	0xbe272a9a	-0.16324845
201	0xbd9eac8f	-0.07747757
202	0x3e187071	0.14886643
203	0xbd2bd89e	-0.04195463
204	0x3e6a6968	0.22891772
205	0x3e36e1ab	0.17859523
206	0xbb8a070a	-0.004212265
207	0xbe14b76c	-0.14523095
208	0x3d2fd26f	0.042925294
209	0x3c57c689	0.013169893
210	0x3d7e08d8	0.062020153
211	0xbe583341	-0.21113302
212	0x3dd3d83a	0.10343976
213	0x3c31ca7b	0.010851498
214	0xbe047bc1	-0.12937833
215	0xbdbf2a18	-0.093342006
216	0xbe03f997	-0.1288818
217	0x3dcbafef	0.09945666
218	0xbde6e054	-0.11273256
219	0x3e40cfc9	0.18829264
220	0x3e73ee03	0.23821263
221	0x3e127789	0.14303412
222	0xbd6a92a8	-0.05726877
223	0x3d74f669	0.059805308
224	0xbe4f0be8	-0.20219386
225	0x3de1c1b5	0.11023275
226	0xbcf2c227	-0.029633595
227	0x3c2ad5d7	0.01042696
228	0x3e52f8b5	0.20602687
229	0x3e8106a6	0.25200385
230	0x3dbb355f	0.09141039
231	0x3e2c6b6e	0.16837856
232	0xbd501d96	-0.050809465
233	0x3dc55474	0.09635249
234	0xbe245f44	-0.16051966
235	0x3e046cbb	0.12932102
236	0xbdf574c2	-0.119851604
237	0x3e04bb03	0.12961964
238	0xbc204d07	-0.00978399
239	0x3e3c67f9	0.18399037
240	0xbe5f3bee	-0.21800205
241	0x3e3d3c88	0.18480122
242	0xbe15459e	-0.14577338
243	0xbdd05fc6	-0.10174517
244	0xbdee0c33	-0.116234206
245	0xbe3b6370	-0.18299651
246	0x3dc430e5	0.095796384
247	0x3dd9d5e1	0.10636497
248	0xbd039117	-0.03212079
249	0x3c86689e	0.016407307
250	0xbe644ccf	-0.22294925
251	0x3dcaf38f	0.09909736
252	0x3c6d4502	0.014481785
253	0x3dc367b8	0.09541267
254	0x3e1b1716	0.15145525
255	0xbe10440f	-0.14088462

layers.2.bias f4 [64]
0	0xba8a7b48	-0.0010565305
1	0x3c419bbf	0.011816918
2	0x3c133d37	0.008986763
3	0x3bd474aa	0.006483634
4	0xbae687eb	-0.0017588114
5	0xbc8d81d2	-0.017273817
6	0xbcdda090	-0.027054101
7	0xbc1ae27b	-0.009453411
8	0x3c04370d	0.008069766
9	0x3c964470	0.01834318
10	0xbc4e66f7	-0.012597791
11	0x3d19f36a	0.037585653
12	0x3d05e3e9	0.032688055
13	0x3b94a5da	0.0045363726
14	0x3b8258ef	0.003977887
15	0xbb927b1b	-0.0044702417
16	0x3b4ab6b4	0.0030931653
17	0x3b28abb5	0.002573711
18	0xbc8d9655	-0.017283598
19	0xbb65437d	-0.0034982853
20	0xbca8dbaf	-0.020612566
21	0x3d4638f2	0.04839415
22	0xbcfe5b8f	-0.031049518
23	0xbd06fea5	-0.03295769
24	0xbc7c20e1	-0.015388698
25	0xbc1e6425	-0.009667431
26	0x3cc63188	0.02419354
27	0x3c783fc9	0.015151926
28	0x3c88f107	0.016716493
29	0x3d7d582c	0.061851665
30	0xbd02ba54	-0.031915978
31	0x3c3950a8	0.011310734
32	0x3cbbbcad	0.022917116
33	0x3c5f77a1	0.013639362
34	0x3b24d92f	0.0025153866
35	0xbd2a93d5	-0.04164489
36	0x3c03fbe6	0.008055663
37	0x3cc9e4fe	0.024645325
38	0x3bf3b6ef	0.007437579
39	0x3c1d0f9d	0.009586242
40	0xbc945ff6	-0.018112164
41	0x3ccf76a4	0.025325127
42	0xbd522f1e	-0.051314466
43	0x3d6176ba	0.055044867
44	0x3ccd1cf5	0.025038222
45	0xbb806fd2	-0.00391958
46	0x3b4108be	0.0029454674
47	0xbcf43758	-0.029811546
48	0xbc68e3e8	-0.014214493
49	0x3cc3dd63	0.023909276
50	0xba7eb2ea	-0.00097159913
51	0xbac22f71	-0.0014815164
52	0x3c2a4aa2	0.01039377
53	0xbcbd80af	-0.02313265
54	0xbd2b6a11	-0.0418492
55	0xbc08f8ee	-0.008360131
56	0x3c566bb9	0.0130872065
57	0xbd11a758	-0.035559982
58	0xbd0633d7	-0.032764282
59	0xba7582eb	-0.00093655166
60	0xbcecde79	-0.028914677
61	0xbbefe9c3	-0.0073215677
62	0xbba0a094	-0.004901955
63	0xbbfdc7ad	-0.0077447505

layers.4.weight f4 [64, 64]
0	0xbe5c4e39	-0.21514215
1	0xbd7b0869	-0.061287317
2	0x3dcaa749	0.09895188
3	0x3ce326fc	0.02772855
4	0xbe075609	-0.13216414
5	0xbe39d6c7	-0.18148337
6	0x3dbb66ec	0.0915049
7	0xbd9c942c	-0.07645449
8	0xbd612650	-0.05496818
9	0x3e3da885	0.18521316
10	0x3e47ed21	0.19524051
11	0xbe44a0aa	-0.19201913
12	0x3bfe48ad	0.0077601285
13	0xbe19e993	-0.15030508
14	0xbe09651a	-0.13417473
15	0x3df38ebd	0.118924595
16	0xbe3d38f0	-0.18478751
17	0x3e485559	0.19563808
18	0xbdc44e76	-0.09585278
19	0x3e30cda6	0.17265949
20	0xbce12f23	-0.027488297
21	0xbe1a3e4c	-0.15062827
22	0x3d9dcea7	0.077054314
23	0xbe28b180	-0.16473961
24	0x3dafcecf	0.085843675
25	0x3cc36197	0.023850245
26	0x3c9042bf	0.017609952
27	0xbe46702d	-0.19378729
28	0x3ccad86e	0.024761405
29	0xbd89c54d	-0.06727085
30	0xbda39c96	-0.07988851
31	0x3d999cba	0.07500596
32	0xbe4143aa	-0.18873468
33	0x3e14b715	0.14522965
34	0x3da38bc7	0.07985645
35	0x3dfea144	0.12433103
36	0x3a72fa54	0.0009268869
37	0xbe39bdb2	-0.1813877
38	0xbcc82c20	-0.024435103
39	0x3e08c63f	0.13356875
40	0xbd80d26a	-0.06290133
41	0xbdca7120	-0.09884858
42	0x3dd11047	0.10208183
43	0x3dc3842c	0.09546694
44	0xbcd1da88	-0.0256169
45	0x3ba61bce	0.0050692325
46	0x3c607ad6	0.013701161
47	0x3db06244	0.08612493
48	0xbcf80460	-0.030275524
49	0x3de09287	0.10965448
50	0xbe006caa	-0.12541452
51	0xbc74b399	-0.014935398
52	0xbe45d579	-0.19319715
53	0xbe259e0c	-0.16173571
54	0xbdffc285	-0.124882735
55	0xbe19454f	-0.14967845
56	0x3c44708a	0.011989722
57	0x3d7b6bc1	0.06138206
58	0xbe155651	-0.14583708
59	0xbdeea2f6	-0.11652176
60	0xbe1089db	-0.14115088
61	0x3dca407e	0.09875582
62	0x3d883580	0.06650829
63	0xbda1b14e	-0.07895146
64	0xbe477a8e	-0.19480345
65	0xbd143ef1	-0.036192838
66	0xbde0da1d	-0.10979102
67	0x3e1b4448	0.15162766
68	0xbe44430e	-0.19166204
69	0x3e71a922	0.23599675
70	0x3e034196	0.12817988
71	0x3c86f746	0.016475331
72	0x3e4e50e1	0.2014804
73	0x3e3d67b1	0.18496586
74	0xbd301e6e	-0.04299777
75	0xbb389e26	-0.0028170436
76	0x3e16820d	0.14698048
77	0x3db47ef4	0.08813277
78	0xbce6f023	-0.028190678
79	0x3e56f384	0.20991331
80	0x3e3a263a	0.18178645
81	0x3dfa5127	0.1222251
82	0x3e2d709f	0.16937493
83	0xbe5b3068	-0.21405184
84	0x3dc427c6	0.09577899
85	0xbe6d524b	-0.23175924
86	0x3c47cefb	0.012195344
87	0xbda8694d	-0.082232095
88	0x3e0489c2	0.12943175
89	0xbe1acea5	-0.15117891
90	0xbdf7a1db	-0.12091418
91	0xbd28db53	-0.04122479
92	0x3e09e177	0.13464914
93	0x3e1d69a5	0.15372331
94	0xbe1869a8	-0.14884055
95	0x3db6d414	0.089271694
96	0x3caba31c	0.0209518
97	0xbcc028c7	-0.023456944
98	0xbdb2f7c4	-0.08738664
99	0x3db67cdd	0.089105345
100	0xbd524e9b	-0.051344495
101	0xbdf2ec7c	-0.11861512
102	0xbe1e7a8b	-0.15476434
103	0xbe4a6b4e	-0.19767496
104	0xbe3f399b	-0.18674318
105	0x3e2fb572	0.1715906
106	0x3cebcf28	0.028785303
107	0x3e56ecb9	0.2098874
108	0x3e2c1d66	0.1680809
109	0xbe0130f6	-0.12616333
110	0x3e28d658	0.16488016
111	0x3e3000e5	0.17187841
112	0x3e526482	0.20546153
113	0xbe01db68	-0.12681353
114	0x3c80d2e8	0.015725568
115	0x3d38bc12	0.045101233
116	0x3d9055e3	0.070476316
117	0x3d4070cf	0.046982583
118	0x3c4fe42d	0.012688679
119	0x3dd6089f	0.10450863
120	0xbe329b56	-0.17442068
121	0xbde3cf3f	-0.111235134
122	0xbd3c62da	-0.04599271
123	0xbe0536bc	-0.13009161
124	0xbd74d944	-0.059777513
125	0xbe37f4b9	-0.17964448
126	0xbcb3ba8c	-0.021939538
127	0xbd649a98	-0.055811495
128	0x3dfbc858	0.12294072
129	0x3df6373d	0.120222546
130	0x3dee49d7	0.116351776
131	0x3d38a373	0.045077752
132	0xbd7e9999	-0.0621582
133	0xbe2cb79b	-0.16866915
134	0x3c1db29e	0.009625105
135	0xbe0ef2a3	-0.13959746
136	0xbd0072bb	-0.031359416
137	0xbe576383	-0.21034054
138	0x3e59a765	0.21255262
139	0xbe394354	-0.1809209
140	0xbdb1f30f	-0.08688938
141	0x3d287a69	0.041132364
142	0x3da228d7	0.07917946
143	0x3de74bc7	0.1129375
144	0x3e0bbe2f	0.13646768
145	0x3e21587c	0.1575641
146	0xbd33432d	-0.043765236
147	0x3ceb73f2	0.02874181
148	0x3d096118	0.03353986
149	0x3e117e9c	0.14208454
150	0x3e21ea35	0.15811999
151	0x3bfa5d09	0.007640485
152	0xbe4aa722	-0.19790319
153	0x3df8d87f	0.12150668
154	0xbd87a5ea	-0.066234425
155	0x3d28d6df	0.041220542
156	0x3e1fadd9	0.15593661
157	0x3d42b7ac	0.047538444
158	0xbe2da4a2	-0.16957334
159	0x3e4e2036	0.20129475
160	0x3d85ed37	0.06539386
161	0x3c903124	0.017601557
162	0x3df15322	0.117834345
163	0xbe013618	-0.12618291
164	0x3e1d2c06	0.15348825
165	0x3cef8ffa	0.029243458
166	0xbd371325	-0.044695992
167	0x3e2b5828	0.16732848
168	0x3e13a075	0.14416678
169	0x3dc04729	0.09388573
170	0x3d989275	0.074498095
171	0x3e01e577	0.1268519
172	0xbe2c524b	-0.16828267
173	0xbe2f5913	-0.17123823
174	0x3d70cfdb	0.058791976
175	0x3dc32eaf	0.095303886
176	0x3e2d9da6	0.1695467
177	0xbd18ac4f	-0.0372737
178	0x3e119c45	0.14219768
179	0x3e229b46	0.15879545
180	0x3d35c67d	0.044378746
181	0xbc9dc7e7	-0.01926036
182	0x3e71bcbc	0.23607153
183	0xbac5c35d	-0.001508813
184	0xbe3be9ed	-0.18350954
185	0x3e12cc75	0.14335807
186	0xbcbd6349	-0.023118632
187	0x3dc45aa3	0.095876
188	0xbe167ce6	-0.14696082
189	0xbe2a46d2	-0.16628578
190	0x3dffd236	0.124912664
191	0xbd2611e8	-0.04054442
192	0x3e361e0f	0.17784904
193	0x3e3f7b8b	0.18699472
194	0xbe2efdcc	-0.17089003
195	0x3e16aa64	0.14713436
196	0xbd49f4ac	-0.049305603
197	0x3dbba864	0.09162977
198	0x3e37c997	0.17947994
199	0x3e5373f6	0.20649704
200	0x3db775a1	0.08957983
201	0x3e0556c4	0.1302138
202	0xbdea3154	-0.1143519
203	0xbe26c6f7	-0.16286837
204	0xbe214d45	-0.15752132
205	0x3ddcc105	0.10779003
206	0x3da005db	0.07813617
207	0x3e23b28b	0.15986077
208	0xbe0ea5de	-0.13930461
209	0xbe38d50d	-0.18050022
210	0xbdd0ef4c	-0.10201892
211	0x3d1c433e	0.038150065
212	0x3e2786d0	0.1636002
213	0xbe55a4ca	-0.20863643
214	0x3d9c82f3	0.07642164
215	0xbd6683ee	-0.05627816
216	0xbce7cf7f	-0.028297184
217	0xbe4511c4	-0.19245058
218	0x3c844e74	0.01615069
219	0xbdbef56b	-0.093241535
220	0xbdaaed25	-0.08346013
221	0x3e03cdfd	0.12871547
222	0x3e224359	0.15846004
223	0xbdea3aa2	-0.114369646
224	0xbdf4a73a	-0.119459584
225	0xbe18e0f1	-0.14929558
226	0x3e2ce7b9	0.1688527
227	0xbe01795f	-0.12643956
228	0xbe125eee	-0.14294025
229	0x3e5ad121	0.21368839
230	0x3e48afca	0.19598308
231	0x3d2f712c	0.04283254
232	0xbdb1553b	-0.086588345
233	0x3d7428f4	0.05960937
234	0x3b00b5d1	0.001963962
235	0xbd43adc0	-0.047773123
236	0x3d701cc7	0.058621194
237	0x3bf4e629	0.0074737263
238	0xbd1f456a	-0.038884558
239	0x3e0309b2	0.12796667
240	0x3d4927a2	0.049110062
241	0x3e2811de	0.16413066
242	0x3df2322f	0.11825978
243	0xbd75b638	-0.05998823
244	0x3e49b209	0.19696821
245	0xba82088d	-0.0009920761
246	0xbe0f1e43	-0.13976388
247	0xbe56d82e	-0.20980904
248	0xbe210323	-0.15723853
249	0xbe3de85e	-0.18545672
250	0x3e2eb642	0.17061713
251	0x3e121671	0.14266373
252	0xbdf94df2	-0.1217307
253	0xbc0a2016	-0.008430501
254	0xbbf01bcc	-0.0073275324
255	0x3e618ef7	0.22027193

layers.4.bias f4 [64]
0	0xbbb41838	-0.005496051
1	0xbbd99443	-0.0066399886
2	0x3bb4f306	0.0055221347
3	0xbbb7c000	-0.005607605
4	0x3bd63232	0.0065367455
5	0x3bcc4174	0.0062333886
6	0x3bfee030	0.00777819
7	0xbb2d3529	-0.002642939
8	0xbbf943b1	-0.0076069464
9	0x3c052fb0	0.008129045
10	0x3983ab13	0.00025113727
11	0x3c82f20c	0.015984558
12	0x3bda3cdd	0.0066600875
13	0x3c1e7970	0.009672508
14	0xbc8bb4f9	-0.017054068
15	0xbbd196ef	-0.0063961665
16	0x3b007b09	0.0019604585
17	0x3c6093c0	0.013707101
18	0xbb85d2e2	-0.004083977
19	0xbc2874a8	-0.010281719
20	0xbbdb7e35	-0.0066983947
21	0xbd3b1faa	-0.045684494
22	0x3c590f2e	0.013248248
23	0x3c6f008c	0.014587533
24	0x3a46a822	0.00075781543
25	0x3b2c694c	0.002630788
26	0x3c7f4173	0.015579569
27	0xbbff5c1f	-0.007792964
28	0x3bba1a4a	0.0056794034
29	0xbb82623f	-0.003978997
30	0x3c3909ea	0.011293868
31	0xbcca0ee4	-0.024665304
32	0xbc17c765	-0.009263848
33	0xbc17ce05	-0.0092654275
34	0x3b3c1c43	0.0028703369
35	0x3b434107	0.0029793398
36	0x3c10b32e	0.008831782
37	0x3c6453c1	0.013935984
38	0xbd8de5c6	-0.069285914
39	0xbb838e40	-0.0040147603
40	0xbbc4e61a	-0.0060088756
41	0x3c1d52b7	0.00960224
42	0xbac3aff6	-0.001492976
43	0x3be846f8	0.0070885383
44	0xbbb04509	-0.0053793234
45	0xbc1566c0	-0.009118736
46	0x3c1e745c	0.009671297
47	0x3c31c68d	0.010850561
48	0xbd3e969a	-0.046530344
49	0xbc559047	-0.013034887
50	0x3b86073d	0.0040902183
51	0x3c4e2ab8	0.012583427
52	0x3c739494	0.014866967
53	0x3b762089	0.0037556014
54	0xbbacf62e	-0.0052783703
55	0x3cf74fa0	0.030189335
56	0x3c4e16f0	0.012578711
57	0xbb9861a5	-0.004650312
58	0xbbf60303	-0.0075076832
59	0xbc7bf72b	-0.015378754
60	0xbc50938c	-0.01273049
61	0x3d1c0baa	0.03809706
62	0xbc293cc7	-0.010329432
63	0x3ba7ed42	0.005124719

layers.6.weight f4 [2, 64]
0	0xbe89453a	-0.26810628
1	0xbe2e7d12	-0.17039898
2	0x3e5069cb	0.20352857
3	0xbe2d18fc	-0.16904062
4	0x3e6954a1	0.2278619
5	0xbd334921	-0.043770913
6	0x3e5c7086	0.215273
7	0xbe9df462	-0.30850512
8	0xbe93ac50	-0.28842402
9	0x3e88932c	0.26674783
10	0xbe2f6518	-0.17128408
11	0xbdfcbafb	-0.12340351
12	0x3e7acf00	0.24493027
13	0x3e65e5d7	0.22450958
14	0x3e44734f	0.19184612
15	0xbe6a06d0	-0.22854161
16	0xbe570004	-0.209961
17	0x3e2fdc74	0.1717394
18	0xbc6d805b	-0.014495934
19	0xbca5c208	-0.020234123
20	0x3cf91c55	0.030409018
21	0x3da96e40	0.08272982
22	0xbd8ece39	-0.069729276
23	0x3de4d5cf	0.11173593
24	0xbe05e2a1	-0.13074733
25	0x3e7003e8	0.2343899
26	0x3c1d536a	0.009602407
27	0xbd58bc2d	-0.052913833
28	0x3eb26ad4	0.34847128
29	0xbe32d035	-0.17462237
30	0x3e710aa3	0.23539214
31	0xbd6558eb	-0.055993002
32	0xbe7ce375	-0.24696143
33	0xbe52d358	-0.20588434
34	0x3dd4164c	0.10355815
35	0x3e304107	0.17212306
36	0xba8ec560	-0.0010892563
37	0x3ddbc400	0.107307434
38	0x3cd7fd2f	0.026365845
39	0xbe371b82	-0.17881587
40	0x3d112acf	0.035441216
41	0xbe26e0db	-0.16296713
42	0xbd1e5d80	-0.038663387
43	0x3e41a6c3	0.18911271
44	0xbdcfbca9	-0.10143406
45	0xbe3ac068	-0.1823746
46	0x3da2bd2a	0.079462364
47	0xbd987262	-0.07443692
48	0xbc821975	-0.01588128
49	0x3db475a6	0.08811502
50	0x3e11716a	0.1420342
51	0xbd4c437e	-0.049869053
52	0x3d9bc5ec	0.0760611
53	0xbca9f009	-0.02074434
54	0xbe1ba203	-0.15198521
55	0xbe56dc32	-0.20982435
56	0x3dbde4da	0.092721656
57	0xbe26fe4f	-0.16307949
58	0xbd7e8e83	-0.06214763
59	0xbb8c80f5	-0.004287834
60	0xbe0c62fa	-0.13709632
61	0x3da00515	0.07813469
62	0xbe889b39	-0.26680925
63	0x3e9ab8df	0.3021917
64	0xbe8f4e8a	-0.27989608
65	0x3e89aa3c	0.2688769
66	0x3e4a0e87	0.19732104
67	0xbe6f85f2	-0.2339094
68	0x3bf3edcf	0.0074441205
69	0xbe899011	-0.26867726
70	0x3d8082f3	0.062749766
71	0xbea85dff	-0.32884213
72	0x3d88b1b3	0.066745184
73	0xbe0e740c	-0.13911456
74	0xbc9b7c58	-0.01898019
75	0xbe79434b	-0.24342076
76	0x3d99c28c	0.0750781
77	0xbe3f14c5	-0.18660267
78	0x3e602b31	0.21891476
79	0x3e1f5d54	0.15562946
80	0x3e9cb513	0.306069
81	0x3e466c19	0.19377173
82	0x3d137ae1	0.03600586
83	0x3d4706e0	0.04859054
84	0x3e86ee49	0.26353672
85	0xbe5bb5ff	-0.21456145
86	0xbe66377c	-0.22482103
87	0xbe33904d	-0.17535515
88	0xbe867ad7	-0.26265594
89	0x3ec2496f	0.3794665
90	0xbdb53508	-0.088480055
91	0x3d33808d	0.043823767
92	0x3e17c27b	0.14820282
93	0xbe9101eb	-0.28321776
94	0xbe8e2da8	-0.27769208
95	0xbe802be0	-0.25033474
96	0x3e1a1841	0.15048315
97	0xbd2c3761	-0.042045
98	0x3e957642	0.29191786
99	0xbd71950d	-0.058980037
100	0xbda76cb9	-0.08175034
101	0xbe5b5317	-0.21418415
102	0xbeb5476c	-0.35406053
103	0xbe218e83	-0.1577702
104	0x3e9478c3	0.28998384
105	0xbe86e057	-0.26343033
106	0x3e70154c	0.23445624
107	0x3e4c8661	0.19973136
108	0x3dbe27f8	0.09284967
109	0x3e0cd26f	0.13752149
110	0x3d1a6376	0.03769251
111	0xbe11fd2a	-0.1425673
112	0xbe984cec	-0.29746187
113	0x3e238254	0.15967685
114	0x3eb147fd	0.34625235
115	0xbea5c46b	-0.32376418
116	0xbe4bf3a3	-0.19917159
117	0xbeaa3577	-0.33243915
118	0xbe4af7fa	-0.19821158
119	0x3bc1c496	0.0059133274
120	0xbe34999c	-0.17636722
121	0x3bcdaeea	0.006276955
122	0x3e7e7599	0.24849547
123	0x3e939f11	0.28832296
124	0x3dc8df9a	0.098082736
125	0xbea3131f	-0.31850526
126	0xbe846cad	-0.25864163
127	0xbdd81e78	-0.105526865

layers.6.bias f4 [2]
0	0x3c3668f8	0.011133425
1	0xbc60fc2e	-0.013731999
