data/results/output_net_16000.pth (torch, 38764 bytes, 8 tensors)

layers.0.weight f4 [64, 5]
000000 75 57 8d 3e 61 85 39 be f8 da 6b be 2b 10 ec 3d
       0.27605787 -0.18117286 -0.23032749 0.11526521
000010 20 5f 17 be a9 10 af 3d b1 ae 4e bc f0 a3 7d 3d
       -0.14782381 0.085480995 -0.012614892 0.06192392
000020 c2 27 96 3e 86 29 6a 3e c5 20 4d 3e f0 b1 77 3e
       0.29327208 0.22867402 0.20032032 0.24188972
000030 ef f5 68 3e 1e d2 a7 3e 72 48 d2 3d f7 f0 84 3e
       0.22750066 0.32777494 0.10267724 0.25965092
000040 cd 22 60 bc 3c a4 84 3d 27 dc 31 bd c2 e9 47 bd
       -0.013680172 0.06476638 -0.043422844 -0.048806913
000050 fd 9d ae 3e c7 15 87 3e 51 2a f6 bc 0c c9 08 be
       0.3410491 0.26383802 -0.030049475 -0.13357943
000060 8b a3 1d bd 06 a3 6d bd a5 80 d7 3d bc 58 3c 3e
       -0.038486045 -0.0580168 0.10522584 0.18393224
000070 e3 fa 2f be 5b a0 90 bd 25 d2 88 bd e0 c5 98 be
       -0.1718555 -0.070618354 -0.06680707 -0.29838467
000080 0c e0 46 3d ba 4d 80 3d 37 f3 4e 3d 76 2b a9 be
       0.04855351 0.06264825 0.050524916 -0.3304097
000090 38 e4 a7 bc 24 27 0d 3e 24 35 8a be dc 9c 2f be
       -0.020494565 0.13784462 -0.26993668 -0.17149681
0000a0 86 83 7f 3e d2 55 36 be be 37 c1 3d 93 3c 90 be
       0.24952516 -0.17806175 0.0943446 -0.28171214
0000b0 79 0a c5 bc 3a 6b 21 3d af 6c 28 3e fe ac 9b bd
       -0.024052845 0.0394089 0.1644771 -0.07601355
0000c0 b0 73 29 3e 2a 1c 23 3c 1f 63 a7 3e df 7d 89 be
       0.16548038 0.009955445 0.3269281 -0.26853845
0000d0 ac 26 76 be ac 3e 2e bd a8 38 03 3e f0 c3 56 3e
       -0.2403819 -0.042540237 0.12814581 0.20973182
0000e0 4c 93 56 be 4f 6c 1d 3e f3 fd 71 3e b9 b7 38 be
       -0.20954627 0.15373348 0.2363203 -0.18038835
0000f0 b7 0b 84 3e b9 36 50 3e 08 e1 98 3e a3 fd f8 3d
       0.25790188 0.20333375 0.29859185 0.12157752
000100 a7 9d 5b be 7f 2d 23 3e 55 f0 46 3e 69 0f 9e 3e
       -0.21446858 0.15935324 0.19427617 0.30871132
000110 e7 59 4c 3c 1f 01 a6 3a 77 bc 08 be 9a 94 77 be
       0.012472606 0.0012665129 -0.13353144 -0.24177781
000120 4d f3 02 3e c6 54 4c 3e 82 99 48 be f6 5f 99 3d
       0.12788124 0.19954214 -0.19589809 0.07489006
000130 a5 01 86 3e 6e 4c fb bd 58 99 2b 3e 33 e5 67 be
       0.2617313 -0.12270437 0.16757715 -0.22646026
000140 46 b1 61 3d fd 5c 07 be e0 bd c7 3c b2 ad 84 be
       0.0551007 -0.13219066 0.024382532 -0.2591377
000150 58 ef cc bd 22 56 61 3e 8d c5 26 bd 39 a8 40 be
       -0.10006589 0.22005513 -0.040715743 -0.18814172
000160 fa 4b f4 bd 14 d6 96 bd 3a b3 54 3e ef 5c b0 3d
       -0.11928554 -0.07365051 0.20771495 0.08611476
000170 71 b4 6e 3e 0b 6a 76 3e 04 a8 a5 bd bf bd 1f be
       0.2331102 0.2406389 -0.08088687 -0.15599726
000180 85 99 a6 3e b9 42 ac be 04 3c cd 3c 1e 1e 4d be
       0.32539 -0.33644655 0.025053032 -0.2003102
000190 b0 3b b3 be 04 39 62 3e 13 fb 2a 3d c7 d3 bc bd
       -0.35006475 0.22092062 0.04174335 -0.09220081
0001a0 74 28 1c 3e 69 5c a4 be cb 36 3e bd bc f2 5c be
       0.15249807 -0.32101753 -0.046438973 -0.21576971
0001b0 a9 5c b9 bd de 1a 1e be a8 0a f3 3d d2 85 53 3e
       -0.09050877 -0.15439937 0.11867267 0.20656517
0001c0 b6 ad 7c 3c 7c a8 25 be f9 35 d1 3d 1d 43 56 be
       0.015422275 -0.16177553 0.102153726 -0.20924039
0001d0 87 0c 46 3e 22 61 7a be 68 35 20 3e 3d f2 75 3e
       0.19340716 -0.24451116 0.15645373 0.24018188
0001e0 06 fe 92 3d 60 47 35 3e 77 09 3b be c3 da 12 be
       0.071773574 0.17703009 -0.1826533 -0.14341263
0001f0 f0 f8 d6 3a 4a 91 c2 3e 07 e7 af 3d 40 f8 c9 3d
       0.0016401093 0.38001472 0.08588987 0.09861803
000200 b0 35 62 be 09 02 01 3e 21 0b e8 bd af ed 89 be
       -0.22090793 0.12598433 -0.11330248 -0.2693915
000210 5e 1f 8b 3d f9 66 80 be 22 ae 93 3d 35 88 83 3d
       0.06793092 -0.25078562 0.072109476 0.06422464
000220 2b 75 0e be 85 0e 69 3e 94 bd 33 be 32 8e fb 3c
       -0.13911884 0.22759445 -0.17552787 0.030707452
000230 b0 83 27 3e c4 7a 58 3c 31 21 4f 3e 29 17 e9 bd
       0.16358829 0.013212863 0.20227505 -0.113813706
000240 46 84 a2 bd 06 b0 73 bd f2 c9 83 3e bb 84 24 bd
       -0.079353854 -0.05949404 0.2574001 -0.040165644
000250 3e 7c 18 3e eb e3 fc bc 4c 4f 54 3e 89 0f 99 3b
       0.14891145 -0.030870399 0.20733374 0.0046710414
000260 ca d6 ad bd 10 cc 8d 3e 5f 67 3f 3e de 98 e4 3d
       -0.084882334 0.2769475 0.18691777 0.111619696
000270 65 ae 1b be 78 0d 09 3e 7d 3a b2 bd f1 9c 09 be
       -0.15203245 0.13384044 -0.08702562 -0.13438775
000280 95 8b b2 3d 88 bf e4 bd 9b 53 15 be af 53 25 be
       0.087180294 -0.11169344 -0.14582674 -0.16145204
000290 f1 21 58 3e d6 de 97 be f8 cd 5c 3d ad c0 85 3d
       0.21106698 -0.29662198 0.053907365 0.065308906
0002a0 f7 a1 17 be 96 34 10 3d 3f c9 af 3e 9d 8c 01 3e
       -0.14807878 0.0352064 0.34333226 0.12651296
0002b0 cb 4a 8f be 4f 08 ce bd 05 84 51 be e9 d3 4d be
       -0.2798675 -0.100601785 -0.20460518 -0.20100369
0002c0 e2 16 47 be 46 f0 90 3e 82 47 4b 3d 94 a8 34 3e
       -0.19442323 0.28308314 0.049628742 0.17642432
0002d0 80 5b c0 3e b0 b0 10 3e c8 2f 8a be c6 fe 70 3e
       0.3756981 0.14129901 -0.2698958 0.23534688
0002e0 7f 00 ff 3d 73 ca 7a 3e 1d ed 86 be 83 7a e1 3d
       0.124512665 0.24491291 -0.26352778 0.110096954
0002f0 fb 36 f8 3d fc 9b 4e 3d 6b 15 94 be 2f f2 73 be
       0.12119862 0.050441727 -0.2892259 -0.23822854
000300 4e 4b 36 3e 86 1f 71 3d 49 21 8a be 74 c8 c4 bd
       0.17802164 0.058867954 -0.2697852 -0.09608546
000310 83 b7 8a be f9 f6 5e 3e 94 54 16 bd 0e 64 22 3e
       -0.27093133 0.217739 -0.036701754 0.1585848
000320 e7 2f a0 be aa 50 1a be 7b 3d c0 bd 25 0a b6 3d
       -0.31286547 -0.15069833 -0.093867265 0.08888654
000330 d3 45 38 be 02 10 3d 3e ac 69 60 3e 86 90 17 be
       -0.17995386 0.18463138 0.2191531 -0.14801225
000340 e4 91 4b 3e e3 c4 0e 3c ca d4 35 be 43 dc 17 3e
       0.19879872 0.008713934 -0.17756954 0.14830117
000350 fc f2 7d 3e 64 d3 47 be 0f 71 92 3e 1e 2d 90 3e
       0.24799722 -0.19514233 0.28601882 0.28159422
000360 3a 6f 8a 3d 74 1e 8a be 4a 8d aa bd 69 de a3 bc
       0.06759496 -0.2697636 -0.0832773 -0.020003514
000370 f3 2c bc 3e 64 1b 3f be 14 dd 8c be a9 bd 91 3e
       0.36753044 -0.18662792 -0.2751242 0.28465012
000380 e7 03 4f 3d f7 9a d8 bd 3c e3 46 3e 27 3c 0d 3d
       0.05054083 -0.10576432 0.1942262 0.034481194
000390 43 17 fc 3d 42 d7 4a 3e 45 f2 b3 be 71 be a2 be
       0.12309124 0.19808677 -0.35145774 -0.3178592
0003a0 7c 8e 82 3e 5f f1 e9 3c 3e f5 2f 3d fd 37 15 bd
       0.25499332 0.028557478 0.04295849 -0.036430348
0003b0 8b 06 19 3e 0b 1d 60 3e ec 1b 48 3d 35 93 4b 3e
       0.14943902 0.21886079 0.048854753 0.19880374
0003c0 fd e0 94 be 30 70 8f 3e 3e b5 77 3e 04 b9 e2 bc
       -0.29077902 0.2801528 0.24190232 -0.027676113
0003d0 6b 95 04 3e cb 83 78 3e cb 1a 5e bd 8a dc 89 be
       0.12947623 0.24269025 -0.05422477 -0.2692607
0003e0 6e d1 86 3e ed a6 64 be 5f 89 54 be 23 b5 55 be
       0.26331657 -0.22329302 -0.20755528 -0.2086988
0003f0 af e9 97 3e 00 9b b4 bd a2 a0 50 be 09 3e 38 be
       0.29670474 -0.088186264 -0.20373777 -0.17992415

layers.0.bias f4 [64]
000000 1e ca 30 3d ce 16 29 bc 84 52 59 3b fc f5 f2 3b
       0.043161504 -0.0103203785 0.0033160755 0.0074145775
000010 d5 49 8c bc df 45 93 bd c1 43 12 bd fb d1 bf bc
       -0.01712505 -0.07191061 -0.035709146 -0.023415556
000020 57 d7 02 3b 42 08 50 3d 65 bb 4e ba a8 37 27 3d
       0.0019964778 0.050789125 -0.00078862003 0.040824562
000030 dd df 04 bd 07 9b 1c bd 65 be 77 bc 7d 32 ed 3c
       -0.032440055 -0.038233783 -0.015121077 0.028954739
000040 17 8f 89 3c 6b 08 31 bc 2d e7 97 bc 95 db 1a 3d
       0.016791863 -0.01080523 -0.01854285 0.037807066
000050 3a b9 ad bc 49 07 a3 3b 19 31 98 ba 75 bf 24 3d
       -0.021206487 0.0049752337 -0.0011611312 0.04022165
000060 28 60 af ba cd a4 57 ba 07 c5 c7 bc bf 93 2a bc
       -0.0013380097 -0.00082261564 -0.024385942 -0.010411202
000070 b7 8b bb 3c 8b 6b 80 bc 2f 04 f7 bb 5b 20 5a bd
       0.02289377 -0.01567628 -0.0075383405 -0.053253513
000080 0b 47 32 bd d7 31 ea bc a6 d5 71 3d 9c 3f 6d bd
       -0.043524783 -0.028588219 0.05904164 -0.05792199
000090 10 fd a8 3d b1 8c 91 bb 90 67 db 3c cb 0b a9 bc
       0.08251393 -0.0044418206 0.02678278 -0.020635506
0000a0 90 bb 54 3d ed a0 57 3c d7 1a 15 3a 3e 1c a2 3c
       0.051936686 0.013160926 0.00056878984 0.019788858
0000b0 55 05 1d 3d 2d c5 0c bc 5d 3d 38 bd 93 56 a1 bb
       0.038335163 -0.008591932 -0.044980396 -0.0049236505
0000c0 fb a0 18 bd 65 fa 45 3d a2 cc 59 bc 2f 54 45 3c
       -0.037262898 0.048334498 -0.013293417 0.012043997
0000d0 a7 7c f1 bb 97 2a 0a 3c ad 45 bb 3a f5 e0 67 3c
       -0.007369596 0.008433006 0.0014287733 0.014152755
0000e0 81 61 07 3c f4 7d ea bc c4 78 a2 bc 0b 03 f5 bb
       0.008262993 -0.028624512 -0.019832976 -0.0074771694
0000f0 4d 92 81 3c 52 ec 34 3d 60 c1 26 3d 69 48 db bd
       0.015816832 0.044170685 0.04071176 -0.107071705

layers.2.weight f4 [64, 64]
000000 3d 96 c7 3d 00 14 35 3c 09 d5 65 bd 09 e4 27 3e
       0.097454526 0.011052132 -0.05611137 0.16395582
000010 c8 d5 1d be 1d f5 5b 3d 7c 82 3c 3e 54 6d 4e be
       -0.15413582 0.053700555 0.18409151 -0.20158893
000020 ba ec f3 3d af 94 75 bd d6 69 4b be dc 67 ef bd
       0.119103864 -0.05995625 -0.19864592 -0.116897315
000030 88 0a c2 bd ac b2 12 bd 65 6f 0c bd 56 0d 02 3d
       -0.09474665 -0.035814926 -0.03428592 0.031751
000040 4a 04 2e be d8 c4 03 3e de 67 1e 3e 61 c7 75 bd
       -0.16993824 0.12868059 0.1546931 -0.060004596
000050 db e4 21 be 0d 07 4f bd 9e 0f f6 bc e4 41 a6 bd
       -0.15809958 -0.050543834 -0.030036744 -0.081180364
000060 d6 35 09 3d 81 0b 26 be 40 ba 96 3d 61 0b 1e be
       0.033498608 -0.16215326 0.07359743 -0.15434028
000070 29 22 e0 3c e9 8e 52 3e 52 b1 43 3e 59 1d 19 be
       0.027360039 0.20562328 0.19110611 -0.14952601
000080 6b 33 c0 bd 52 71 94 bd 5a 53 db bd 40 dc 78 3e
       -0.09384807 -0.07248177 -0.107092574 0.24302769
000090 aa 39 45 3d 74 a3 17 3e 11 5f 43 bd df c4 3f be
       0.048150696 0.14808446 -0.047698084 -0.18727444
0000a0 50 83 58 3d 65 5b 05 3e 60 b9 50 be 3f 86 48 be
       0.052859604 0.13023145 -0.20383215 -0.19582461
0000b0 51 02 1a be 7e 18 76 bd 53 44 33 3e cb 18 5d 3e
       -0.15039946 -0.06008195 0.17506532 0.21591489
0000c0 f4 11 8a bd 63 1f 93 bb d3 01 4e be 58 c6 12 3e
       -0.067417055 -0.0044898256 -0.20117883 0.14333475
0000d0 fc 1c 00 3d a6 2c bf 3c 3d 7d 27 3e 0a be e1 3d
       0.03127764 0.02333672 0.16356368 0.11022575
0000e0 ac d5 91 3d ca e6 2e bd ac 1f de 3d cd 5e 51 3e
       0.07120833 -0.042700566 0.10845885 0.2044632
0000f0 48 e8 5b 3e 2e c0 6d be 89 6d 9c bd 2e 16 5b 3e
       0.21475327 -0.23217842 -0.0763808 0.2139518
000100 cc 80 47 3b cc 45 1c 3e 40 02 29 be c7 4a 25 bb
       0.003044176 0.15261 -0.16504765 -0.0025221573
000110 55 10 06 3e 32 b2 17 3e f7 c7 34 3d dc 3c 4d be
       0.13092168 0.1481407 0.044136014 -0.20042747
000120 d3 ca ff bd 69 87 0d be 1a ed 38 3e e7 55 43 3d
       -0.124898575 -0.13821186 0.18059197 0.047689345
000130 2b 5e 11 3e 05 f9 1a be 3b 30 8d 3d 5d c4 ac 3c
       0.14196078 -0.15134056 0.06893965 0.021089727
000140 e5 1e 21 3e 91 99 2a be f3 2c 84 3b 96 96 57 bd
       0.15734442 -0.16660143 0.0040336787 -0.052633844
000150 17 31 a0 bd 49 7f 42 3d 3c 33 c5 bd 0a 1e 0e 3e
       -0.07821863 0.04748467 -0.09628913 0.13878646
000160 a8 5c 21 be 11 31 28 3e 8b b1 38 be f8 b2 37 be
       -0.15758002 0.16424967 -0.18036477 -0.17939365
000170 65 1d c0 bc d9 05 69 3e 10 fe 29 3e 83 5d c0 3d
       -0.023451516 0.22756137 0.16600823 0.09392836
000180 c8 47 c6 3d 57 07 25 bc e1 f0 49 be 8b b9 44 3e
       0.0968166 -0.010072551 -0.19720794 0.19211404
000190 a3 66 03 3d 2d 75 08 3e 18 b0 3c 3e 24 ea 9e 3c
       0.032080304 0.13325949 0.1842655 0.019398756
0001a0 b4 89 3a 3e a0 3a 52 bb 1f a3 ef bd eb 59 1e 3e
       0.18216592 -0.00320784 -0.11701035 0.15463988
0001b0 1b 39 26 bd c5 3f ec 3d 6f 4b 00 be ea 4a b3 bd
       -0.040581804 0.115356006 -0.12528776 -0.08754523
0001c0 17 91 48 3b dd 75 e2 3d 3d 59 0c be be 2d 0b be
       0.0030604058 0.11057637 -0.13705917 -0.13591668
0001d0 ec 01 69 3e 4f 12 35 be 45 81 ef bd e7 8c 07 3e
       0.2275464 -0.17682765 -0.11694578 0.13237344
0001e0 13 3a dc 3d 44 a6 03 be 31 7b 55 3d 3b 42 dd bd
       0.10753264 -0.12856394 0.052119438 -0.10803648
0001f0 0b 7b 40 bd f4 65 06 3d 78 6c a9 bd e4 3f ba bd
       -0.046992343 0.032812074 -0.08272642 -0.090942174
000200 8c 66 90 3c e3 df a0 bd 72 66 14 3e a0 f1 19 be
       0.017627023 -0.07855203 0.14492205 -0.15033579
000210 08 cd 81 be 91 15 2b 3e 18 1f 93 3e 36 e0 4b be
       -0.2535174 0.16707446 0.2873466 -0.19909748
000220 52 2e 47 be 4d 9b 64 be 26 6c e4 bd 74 ac 68 3e
       -0.19451264 -0.22324868 -0.1115344 0.22722036
000230 c0 45 7e be e3 27 dd bb 9e 38 84 3d a6 29 7a 3d
       -0.24831295 -0.0067491396 0.06456111 0.061074875
000240 b4 77 05 3e e4 6d 5e 3d aa ea a1 bd 44 42 80 3e
       0.13033944 0.05430402 -0.07906087 0.25050557
000250 29 7e b1 3d fd 17 2c be 38 df 3d be 8f 2f fb 3d
       0.08666641 -0.16806026 -0.18542182 0.122649305
000260 ab 30 54 3e f1 36 e7 bd 25 28 7c bd 62 a0 2c be
       0.2072169 -0.11289776 -0.061561722 -0.16858056
000270 cf bf a7 3c c8 2e 64 bd 80 34 53 3e e8 ed 88 bd
       0.020477204 -0.055708677 0.20625496 -0.06686002
000280 d8 22 90 bc 01 1b 37 be d9 5e 65 3c 92 17 c7 bc
       -0.01759474 -0.17881395 0.013999664 -0.024303231
000290 63 b1 b7 3c 63 4d c7 3d 5f 43 e3 bd 87 54 38 3d
       0.022423452 0.09731557 -0.110968344 0.045002487
0002a0 f9 07 a8 3d b8 5a 0a 3e b9 81 d9 bd 75 32 ce 3d
       0.08204646 0.13511169 -0.10620446 0.10068218
0002b0 78 f6 17 3e 60 41 fb bd b8 8b 0b bb c8 6d 74 be
       0.14840114 -0.12268329 -0.0021292996 -0.23870003
0002c0 87 99 24 3e bd 16 2a 3e ae dd ca bd 46 85 bd 3d
       0.16074191 0.16610236 -0.09905563 0.092539355
0002d0 8b 46 9f 3d 97 54 0d be ba 92 39 be 09 71 d1 3d
       0.07777127 -0.138018 -0.18122378 0.10226638
0002e0 94 11 c5 3d f0 df 93 3d 6b 1e 72 3d 04 3e 60 3e
       0.096224934 0.07220447 0.05911104 0.21898657
0002f0 d2 ef 62 bd d9 d5 e3 3d 14 e2 70 3e a5 f6 f7 3c
       -0.05540449 0.111247726 0.23523742 0.030268976
000300 69 f8 30 be ad 42 a5 3c e1 43 51 3e 45 96 e3 bd
       -0.17282261 0.020173395 0.2043605 -0.11112646
000310 17 57 2b be 6f fc a4 bd 53 76 3a bd c8 0f 4b be
       -0.16732441 -0.080559604 -0.045523 -0.19830239
000320 95 35 26 be ea 71 a2 bd 2b f1 16 3e f3 91 45 bd
       -0.16231377 -0.07931884 0.14740436 -0.04823489
000330 6b 7e 71 3e 04 38 3d 3e 6c 18 16 bc c4 24 15 be
       0.23583381 0.184784 -0.009161096 -0.14564806
000340 20 85 38 3d f6 9f 85 3c df d1 70 3d 41 eb 58 be
       0.045048833 0.016311627 0.0587939 -0.21183492
000350 00 71 d6 3d 9b c4 0c 3c b2 9c fd bd 9b 72 be bd
       0.10470772 0.008591796 -0.12383403 -0.09299203
000360 56 f0 f3 bd 04 11 d0 3d 27 d6 e3 bd 6b 74 42 3e
       -0.11911075 0.101594955 -0.11124831 0.18989722
000370 b3 f0 76 3e 73 64 11 3e 32 95 79 bd a2 ff 79 3d
       0.24115257 0.14198475 -0.0609333 0.061034806
000380 fe f3 4d be 3b f8 e7 3d 0d 07 93 bc f5 aa e2 3b
       -0.20112607 0.11326643 -0.017947698 0.0069173523
000390 29 cd 51 3e f0 77 7b 3e d9 ad b9 3d 65 d5 2b 3e
       0.20488419 0.24557471 0.09066362 0.16780622
0003a0 20 95 5a bd 67 7c c2 3d 4a df 21 be 0c ca 0b 3e
       -0.053364873 0.09496384 -0.15807834 0.13651294
0003b0 39 b8 fb bd 99 e4 02 3e 59 26 64 bc ea 2a 3a 3e
       -0.12290997 0.12782516 -0.013925158 0.18180433
0003c0 35 d3 5d be 0c 4b 3b 3e 56 63 14 be d4 27 cf bd
       -0.216626 0.18290347 -0.14491019 -0.101150185
0003d0 ce 43 f4 bd 42 5d 3d be 49 11 c9 3d f7 f0 d1 3d
       -0.11926995 -0.18492606 0.0981775 0.102510385
0003e0 b4 2e b4 bc d6 bc 43 3c 0b d4 66 be e3 36 ba 3d
       -0.021994926 0.011946877 -0.22541825 0.090925
0003f0 d7 6c d6 3b 0e f1 c4 3d 53 02 1a 3e 91 74 11 be
       0.0065437364 0.0961629 0.15039949 -0.14204623

layers.2.bias f4 [64]
000000 79 f9 ba bb 5f 6a 62 3c 6e 5d 21 3c b3 65 ad 3b
       -0.005706009 0.013819306 0.0098489355 0.0052916645
000010 27 7d b4 3a ea 05 aa bc f5 9a d6 bc 19 8f 9c bb
       0.0013770208 -0.020754773 -0.026196936 -0.0047778008
000020 08 40 cc 3b 36 c2 8f 3c a0 80 7f bc a4 02 24 3d
       0.006233219 0.017548662 -0.015594631 0.04004158
000030 6b 96 00 3d 3c b4 e5 3b ce de b0 3b ca 9d a7 bb
       0.03139345 0.007010011 0.005397654 -0.0051152455
000040 db 21 87 3a 03 d1 95 38 9d d7 a7 bc f9 4e 92 ba
       0.0010309772 7.143805e-05 -0.020488555 -0.0011162452
000050 97 44 d2 bc b4 37 64 3d 83 4e d7 bc 5d 7c 24 bd
       -0.025667472 0.055717185 -0.026282554 -0.040157665
000060 df 28 84 bc 9c 21 93 bc eb 55 05 3d 10 c9 74 3c
       -0.01613277 -0.017960362 0.03255264 0.014940515
000070 5d 16 38 3c 6c 94 82 3d e3 58 4a bd 86 57 5d 3c
       0.011235801 0.063759655 -0.049401175 0.013509637
000080 99 54 85 3c 91 7f e5 3b c4 a4 cf 3b 43 94 03 bd
       0.01627569 0.0070037325 0.0063367803 -0.032123815
000090 b1 44 13 3c cc af f1 3c 51 a7 22 3c 7a d0 36 3c
       0.008988545 0.029502772 0.009927587 0.011158103
0000a0 3c 45 9e bc af b7 d5 3c 7f c6 84 bd e9 6a 6c 3d
       -0.019320123 0.026088564 -0.064831726 0.057719145
0000b0 03 2a 03 3d 08 67 24 bb 78 c3 8e 3b 90 b0 0b bd
       0.032022487 -0.0025085825 0.004356798 -0.03410393
0000c0 af d5 c3 bc e4 03 02 3d df 55 6b 3a 42 dc 5d bb
       -0.023905603 0.03174199 0.00089773344 -0.0033853208
0000d0 8d 0c 12 3c 21 fa d4 bc 39 57 3b bd 8f a1 03 bc
       0.008914125 -0.025998177 -0.04573748 -0.008034124
0000e0 eb d7 7e 3c ca fc 10 bd f9 c8 01 bd f2 54 75 ba
       0.015554409 -0.03539733 -0.031685803 -0.0009358666
0000f0 48 c9 09 bd 5c dc 9b bb b0 44 d0 bb 0c 8e 07 bc
       -0.033639222 -0.0047564935 -0.0063558444 -0.008273613

layers.4.weight f4 [64, 64]
000000 3e f8 5b be 0c ff 7d bd bf cd cc 3d e3 54 e4 3c
       -0.21481416 -0.06201081 0.100001805 0.027872508
000010 cf b5 02 be f1 dc 38 be 65 66 be 3d bf b1 98 bd
       -0.12764667 -0.18053032 0.09296874 -0.074557774
000020 a0 ce 62 bd 8b 4f 3d 3e f2 cc 48 3e 62 05 45 be
       -0.055372834 0.18487374 0.1960943 -0.19240335
000030 dd c7 1d 3c 3a a5 1a be 7b f1 09 be 80 54 f0 3d
       0.009630171 -0.15102091 -0.13471024 0.11734867
000040 c6 4e 45 be 5c a9 45 3e 1c 43 c5 bd a9 d0 2f 3e
       -0.19268331 0.19302887 -0.09631941 0.17169441
000050 7b 72 e0 bc 01 2c 19 be 03 6f 9f 3d d7 ef 2a be
       -0.027398339 -0.14958192 0.07784846 -0.16693054
000060 36 29 af 3d c5 d4 ff 3c 65 9e ac 3c c0 6c 47 be
       0.08552782 0.031229386 0.021071622 -0.19475079
000070 0c ad cd 3c a0 0e 86 bd 87 98 a3 bd ce 26 9b 3d
       0.02510693 -0.06545758 -0.07988077 0.07575761
000080 35 87 46 be 45 c2 14 3e 17 dc 9f 3d 4c 84 fc 3d
       -0.19387515 0.14527233 0.07805651 0.12329921
000090 69 13 6f ba 54 73 3f be 7a 51 d2 bc 96 72 07 3e
       -0.0009120019 -0.18696338 -0.025673617 0.13227305
0000a0 e6 2c 8d bd f6 d7 cc bd 4b 7f d0 3d 0e 8f c5 3d
       -0.06893329 -0.10002129 0.10180529 0.09646426
0000b0 aa 5c d1 bc 66 6b 53 3b 31 36 bd 3c 0a 07 b1 3d
       -0.025556881 0.003226006 0.02309713 0.08643921
0000c0 be 0a e9 bc 88 6e ed 3d 9e a1 00 be e0 ff 82 bc
       -0.028447505 0.11593348 -0.12561652 -0.015991151
0000d0 72 09 49 be c2 67 25 be 0e b8 fe bd 1d 3e 1b be
       -0.1963251 -0.16152862 -0.124374494 -0.15160413
0000e0 38 33 5b 3c 3c c2 78 3d 6c b5 15 be 58 8c eb bd
       0.013378911 0.06073211 -0.14619988 -0.11501378
0000f0 e1 ed 0f be a8 1f be 3d 16 78 89 3d 2b 0e 9f bd
       -0.14055587 0.09283382 0.06712358 -0.07766374
000100 ef b5 45 be bb 69 13 bd ae 68 de bd 7e 97 1b 3e
       -0.19307683 -0.035989504 -0.1085981 0.15194508
000110 f2 0d 46 be a8 36 74 3e d0 12 03 3e 6b 14 71 3c
       -0.19341257 0.23848975 0.12800145 0.014714341
000120 cc fd 4d 3e 91 62 3c 3e 40 76 26 bd 71 24 3b bb
       0.20116347 0.18396975 -0.040640116 -0.0028555656
000130 bf 90 16 3e 96 06 b8 3d 90 af ba bc c1 d4 63 3e
       0.14703654 0.08985631 -0.022788793 0.22249128
000140 b1 31 3e 3e 17 5d e5 3d 4f 74 2d 3e 48 28 55 be
       0.18573643 0.11199396 0.169389 -0.20816147
000150 89 c4 c0 3d cc de 71 be ea 68 21 3c d0 08 9e bd
       0.09412486 -0.23620147 0.009851674 -0.077165246
000160 a2 ab 03 3e 4a b1 08 be 5b 01 fc bd 5b b6 25 bd
       0.12858441 -0.1334888 -0.12304946 -0.04045711
000170 79 87 0b 3e df 02 21 3e 2b c4 0e be e2 91 bc 3d
       0.13625897 0.15723751 -0.1394202 0.092075124
000180 2e 34 bc 3b ac cf a2 bc c6 f0 b4 bd c3 63 b1 3d
       0.005743525 -0.019874416 -0.088349864 0.08661606
000190 b5 48 40 bd d5 ba 0f be 9b 7f 1d be 13 f9 48 be
       -0.04694434 -0.14036115 -0.15380709 -0.19626264
0001a0 c1 8f 3f be e1 af 30 3e 08 de f0 3c 0b 00 53 3e
       -0.18707182 0.17254592 0.029402748 0.20605485
0001b0 75 70 21 3e 5e b1 fe bd 46 23 27 3e f6 c1 31 3e
       0.15765555 -0.12436174 0.1632205 0.17359146
0001c0 e5 ed 54 3e 20 b4 07 be 98 d7 57 3c 64 28 4a 3d
       0.20793875 -0.13252306 0.01317396 0.049354926
0001d0 99 87 8a 3d c2 47 44 3d 2c d1 42 3c b0 64 d9 3d
       0.067641445 0.047919996 0.011890691 0.10614908
0001e0 ae b0 30 be 22 b7 e2 bd 8a 86 37 bd bf 80 00 be
       -0.17254898 -0.11070086 -0.04480604 -0.12549113
0001f0 c8 d6 71 bd b8 28 4f be 0b ce ad bc e3 5f 64 bd
       -0.059042722 -0.20230377 -0.021216413 -0.055755507
000200 89 5e fa 3d 8f 8e f6 3d 4f 33 eb 3d 5f 96 3c 3d
       0.122250624 0.1203891 0.11484396 0.046041843
000210 aa a6 87 bd b7 f6 2c be 70 e5 2d 3c 9b e1 11 be
       -0.066235855 -0.16890989 0.010613784 -0.14246218
000220 b3 d2 02 bd 4c 58 57 be 3e d3 59 3e 83 25 39 be
       -0.03193922 -0.21029776 0.21271989 -0.18080716
000230 e1 7a b5 bd 41 0f 29 3d 0d bf a0 3d 17 7f f2 3d
       -0.08861328 0.041274313 0.0784894 0.11840647
000240 c4 eb 0b 3e 91 1e 22 3e b0 a3 2f bd 72 f3 eb 3c
       0.13664156 0.15831973 -0.042880714 0.028802607
000250 26 1e 07 3d 18 2c 10 3e ea f3 1f 3e 12 57 2c 3c
       0.032987736 0.1407932 0.1562039 0.010518806
000260 e6 b8 48 be 06 a5 f7 3d db c8 8f bd 0d 38 23 3d
       -0.19601783 0.120920226 -0.07020732 0.039848376
000270 43 b3 1d 3e 82 e1 33 3d 21 bf 2a be 9d 94 4d 3e
       0.15400414 0.043916233 -0.16674472 0.20076223
000280 7e b9 88 3d f7 ff 74 3c 3d e1 f1 3d 18 ff ff bd
       0.06676005 0.014953605 0.11810539 -0.12499827
000290 02 1b 20 3e 32 35 02 3d 69 18 34 bd e7 07 2c 3e
       0.15635303 0.031789012 -0.04396859 0.1679989
0002a0 5f 65 1a 3e 3e 21 c2 3d 85 b7 9a 3d 29 10 01 3e
       0.15077733 0.09478997 0.07554535 0.12603821
0002b0 c2 70 2a be 04 8c 2a be b9 78 67 3d dd c8 c3 3d
       -0.16644576 -0.16654974 0.056511614 0.09559796
0002c0 97 02 29 3e b5 dc 30 bd fb 65 14 3e cf 1c 26 3e
       0.16504894 -0.043179233 0.14492027 0.16221927
0002d0 54 ba 3b 3d 8b 21 9d bc e9 b8 71 3e f5 20 4d b9
       0.045831993 -0.019181034 0.23605694 -0.00019562601
0002e0 d1 46 3d be 14 9d 13 3e 3e 9b ae bc 5d 68 c2 3d
       -0.18484046 0.1441539 -0.02131426 0.09492562
0002f0 fd 40 16 be 42 60 27 be d2 65 ff 3d 41 48 29 bd
       -0.14673229 -0.16345313 0.124705926 -0.041328672
000300 44 a9 37 3e b2 b7 3f 3e 44 b9 2d be ac 9b 17 3e
       0.17935663 0.18722418 -0.16965204 0.14805478
000310 e2 4b 36 bd 15 6c bb 3d 96 90 38 3e a9 bf 56 3e
       -0.04450596 0.091514744 0.18023905 0.2097155
000320 51 fb b7 3d da 9d 05 3e bf b9 e9 bd ec 39 26 be
       0.08983482 0.13048497 -0.114123814 -0.16233033
000330 3e 22 1f be ce 62 dc 3d 13 cf 9f 3d 37 99 21 3e
       -0.15540406 0.10761033 0.07803168 0.15781103
000340 ec c8 19 be bc 2f 3b be e2 81 d4 bd 56 e4 18 3d
       -0.15018052 -0.18279928 -0.10376336 0.037327133
000350 c9 b9 26 3e d0 11 53 be 59 a0 9e 3d 31 a6 75 bd
       0.16281809 -0.20612264 0.07745428 -0.059972946
000360 c0 94 f1 bc bd 1c 3f be 57 6b ab 3c 3a fa be bd
       -0.029489875 -0.18663307 0.020925207 -0.09325071
000370 3f 42 a8 bd 5a 80 05 3e 11 f2 20 3e 53 4d ea bd
       -0.082157604 0.13037243 0.15717341 -0.1144053
000380 5a 78 ff bd 5a d0 18 be 3a cc 2a 3e 28 a8 02 be
       -0.12474127 -0.1492323 0.16679469 -0.12759459
000390 3c 6d 13 be 8c 6f 57 3e bd 2d 48 3e 7e a3 2d 3d
       -0.14397138 0.21038646 0.19548698 0.042392246
0003a0 ae 64 bf bd 57 63 72 3d 71 9d 14 3a bd b5 3d bd
       -0.09345375 0.05917677 0.00056692126 -0.046315897
0003b0 5b 4f 72 3d 8a cf 99 3b b3 1d be bc 81 2f 02 3e
       0.05915771 0.00469393 -0.023207521 0.12713434
0003c0 3c bd 51 3d d6 17 2f 3e f9 8d f1 3d fe 75 81 bd
       0.05120586 0.17098936 0.11794657 -0.06321333
0003d0 ce 89 46 3e 3e f9 c1 ba 01 d9 0e be 6e 30 58 be
       0.19388506 -0.0014799011 -0.13949968 -0.21112224
0003e0 70 62 1e be 9e 87 3f be 01 18 2d 3e f3 22 14 3e
       -0.15467238 -0.18704078 0.16903688 0.14466457
0003f0 cc 3e fa bd 24 9c 58 bc fb f2 03 bc f3 fe 61 3e
       -0.12219009 -0.013220821 -0.0080535365 0.22069912

layers.4.bias f4 [64]
000000 76 e0 bf bb f5 84 22 bc e7 5b c6 3b 02 16 97 bb
       -0.0058556153 -0.009919395 0.006053436 -0.004610778
000010 7c 7a 07 3c 09 71 16 3c 0c 59 1c 3c 66 ae 2a bb
       0.008268949 0.009182223 0.009542715 -0.002604389
000020 5b 02 1f bc a9 0e 27 3c c6 e5 39 ba e9 46 8f 3c
       -0.009705151 0.010196366 -0.0007091429 0.017489867
000030 85 84 10 3c 82 9d 7d 3c b9 72 a6 bc 3a d8 11 bc
       0.008820658 0.015479447 -0.020318376 -0.00890165
000040 9b 14 af bb 67 8d 85 3c 5a d4 1d bc c7 dc 79 bc
       -0.0053430325 0.016302777 -0.009633148 -0.015250391
000050 fd 1d 3b bc cd 53 7c bd d7 88 69 3c 05 d0 91 3c
       -0.011420724 -0.061603356 0.014253817 0.017799387
000060 34 15 eb 3a ac ee f9 3a 05 f3 9f 3c 38 dc 2e bc
       0.0017935396 0.0019068322 0.01952506 -0.010672621
000070 28 01 0e 3c 19 79 f7 ba e9 46 68 3c c8 a5 c5 bc
       0.008667268 -0.0018880694 0.014177063 -0.024126902
000080 05 31 47 bc e6 bc 27 bc c1 aa 6b 3b 13 e9 bb 3b
       -0.012157683 -0.010237908 0.0035959932 0.0057345717
000090 d5 0f 4e 3c 9a 58 8f 3c ca 2f c5 bd b4 2c c9 bb
       0.012577017 0.017498303 -0.09628256 -0.006139362
0000a0 2a a8 08 bc 7c f8 b6 3b 2a 4b 09 bc 81 20 fc 3b
       -0.008340875 0.005583821 -0.008379737 0.0076943045
0000b0 0b 6b 1b bc 91 23 33 bc 10 68 36 3c 95 52 1f 3c
       -0.00948597 -0.010933773 0.011133209 0.009724279
0000c0 e8 ce 28 bd c1 6a 0b bc be e9 7a 3b 90 de ae 3c
       -0.041212946 -0.008509339 0.0038286294 0.02134636
0000d0 43 fd 9b 3c 65 d1 e9 3b 26 86 af bb 31 2c fe 3c
       0.019041663 0.0071355575 -0.005356568 0.031026931
0000e0 7c 8d 84 3c 12 47 ee bb c0 04 1d bc 13 cf a7 bc
       0.016180746 -0.007271656 -0.009583652 -0.020484483
0000f0 a0 22 85 bc f3 5b 39 3d f6 7a 2c bc 10 09 36 3c
       -0.016251862 0.045253705 -0.010527363 0.011110559

layers.6.weight f4 [2, 64]
000000 40 37 8a be b8 db 30 be 40 c2 4e 3e 5f ed 2c be
       -0.26995277 -0.17271316 0.20191288 -0.16887425
000010 89 c3 6a 3e 65 1c 1d bd 95 7a 5b 3e a9 d1 9e be
       0.22926153 -0.038357157 0.2143348 -0.31019333
000020 38 9d 94 be 65 60 8b 3e 00 5b 2f be 9d bd f8 bd
       -0.29026198 0.2722198 -0.17124557 -0.12145541
000030 a1 bd 80 3e e5 c3 66 3e cc 5b 44 3e 20 84 6b be
       0.25144675 0.22535665 0.19175643 -0.2299962
000040 3e 74 56 be c4 33 2f 3e e5 94 66 bc 1d 81 ae bc
       -0.2094278 0.17109591 -0.014073585 -0.0213018
000050 70 77 e1 3c 20 6d b0 3d b8 e2 8c bd 37 76 ef 3d
       0.027522773 0.08614564 -0.06879181 0.116924696
000060 59 00 05 be 58 89 6e 3e 31 d8 21 3c dd 19 6c bd
       -0.12988414 0.2329458 0.009878204 -0.057641853
000070 e1 34 bb 3e 39 a6 32 be 41 f0 73 3e c0 be 69 bd
       0.3656378 -0.17446221 0.23822118 -0.05706668
000080 17 28 81 be ef 0d 5b be 96 c7 d0 3d e2 a8 2a 3e
       -0.252259 -0.21392034 0.10194318 0.16665986
000090 16 f4 b3 3b 76 b0 e4 3d e0 64 be 3c 31 c5 37 be
       0.005491744 0.1116647 0.02324146 -0.17946316
0000a0 26 e9 1c 3d c6 5b 25 be a8 47 29 bd 5f 18 43 3e
       0.038308285 -0.1614829 -0.041328102 0.19052266
0000b0 e0 de d2 bd 09 74 3e be d4 60 9f 3d 72 89 9a bd
       -0.10296416 -0.18598951 0.077821404 -0.07545747
0000c0 db 89 80 bc fd 89 b6 3d 9b 7f 11 3e 1d b9 4b bd
       -0.015690735 0.08913038 0.14208834 -0.049737085
0000d0 1d 3f 9e 3d 0d a8 92 bc 46 c3 1d be 4f 96 57 be
       0.07726882 -0.017902398 -0.15406522 -0.21053432
0000e0 98 24 bf 3d 26 4e 27 be 43 a6 83 bd a8 cb 9f bb
       0.093331516 -0.16338405 -0.06428196 -0.0048765726
0000f0 8e 41 0d be ce ef a1 3d f5 37 89 be 35 97 9c 3e
       -0.13794538 0.07907067 -0.26800504 0.30584112
000100 38 2f 91 be 19 da 98 3e 05 da 51 3e b0 84 78 be
       -0.28356338 0.29853895 0.20493324 -0.24269366
000110 93 90 bc 3b 70 8a 91 be be 35 80 3d 23 99 a9 be
       0.0057545393 -0.28425932 0.062602505 -0.33124647
000120 68 4f 97 3d d4 37 12 be 81 43 a8 bc f5 5a 7c be
       0.073881924 -0.14279109 -0.02054 -0.24644072
000130 71 8d 91 3d 11 4f 42 be a8 df 61 3e e4 20 21 3e
       0.07107056 -0.18975474 0.22057974 0.15735203
000140 1f 10 9d 3e 08 51 3f 3e 43 91 0c 3d 7f dd 4e 3d
       0.30676362 0.18683255 0.03431822 0.050504204
000150 52 a3 90 3e 3d 1d 5c be ab 84 70 be f2 87 40 be
       0.28249604 -0.21495529 -0.23488109 -0.18801859
000160 cc fa 87 be b7 18 c5 3e 21 0c c0 bd 8e da 3a 3d
       -0.2655853 0.38495418 -0.093773134 0.045618586
000170 ea 9d 10 3e cf a8 93 be 42 05 91 be ad d2 83 be
       0.1412274 -0.28839728 -0.28324324 -0.2574667
000180 ad c0 2a 3e fe bd 0d bd 9a 47 96 3e e0 00 8a bd
       0.16675062 -0.03460502 0.29351503 -0.06738448
000190 0d 93 a7 bd 79 96 65 be 74 5b b7 be b1 03 22 be
       -0.081823446 -0.22420682 -0.3581196 -0.1582172
0001a0 08 2c a6 3e 2d dd 86 be a6 e3 6f 3e 64 c2 4f 3e
       0.32455468 -0.2634062 0.23426685 0.20288998
0001b0 b7 b0 c2 3d 6d 8a 1c 3e 7f 36 0d 3d 32 5f 12 be
       0.09506362 0.1528718 0.0344758 -0.14294127
0001c0 20 b5 97 be 2e 50 27 3e 8f 22 bb 3e 2b ef a7 be
       -0.29630375 0.1633918 0.36549804 -0.32799658
0001d0 1f 48 50 be a4 ff af be 05 d7 49 be 57 29 b1 3c
       -0.20340012 -0.34374726 -0.1971093 0.021626158
0001e0 43 c5 34 be 80 14 aa 3b a8 3f 85 3e 92 ca 96 3e
       -0.17653374 0.005190432 0.26025128 0.29451424
0001f0 04 b4 d2 3d a8 0b a4 be 1c c6 85 be 55 85 f8 bd
       0.102882415 -0.32040143 -0.26127708 -0.12134806

layers.6.bias f4 [2]
000000 ae 48 5b 3c 2b ed 90 bc
       0.013384027 -0.017691216
