data/results/output_net_32000.pth (torch, 38764 bytes, 8 tensors)

layers.0.weight f4 [64, 5]
0	0x3e8f7c14	0.28024352
1	0xbe2a351c	-0.16621822
2	0xbe463e4f	-0.19359706
3	0x3e0ddacb	0.13852994
4	0xbe715529	-0.23567642
5	0x3dbf885b	0.093521796
6	0xbc956d36	-0.018240552
7	0x3d91a57d	0.071116425
8	0x3e9762d7	0.29567596
9	0x3e5404ad	0.20704909
10	0x3e5cc4f8	0.21559513
11	0x3e7eb5db	0.2487406
12	0x3e807e71	0.25096467
13	0x3eac4ca5	0.33652225
14	0x3dbbcd4a	0.09170015
15	0x3eb6cbd2	0.35702378
16	0xbc848060	-0.016174495
17	0x3d443350	0.047900498
18	0xbc05cb73	-0.008166182
19	0xbc89f159	-0.016838716
20	0x3eaef938	0.34174514
21	0x3e88b6d9	0.26702002
22	0xbc38bd7c	-0.011275645
23	0xbe064190	-0.13110948
24	0xbd51003c	-0.051025614
25	0xbd502a76	-0.050821744
26	0x3e035c68	0.12828219
27	0x3e51e6b2	0.2049816
28	0xbe1b2f51	-0.15154769
29	0xbd989721	-0.074507006
30	0xbd8bb2ad	-0.06821189
31	0xbea992b4	-0.33119738
32	0x3cdb894b	0.026798865
33	0x3d4ccbdb	0.0499991
34	0x3daf101e	0.08547996
35	0xbeaee2e1	-0.3415747
36	0xbcd27dbd	-0.025694722
37	0x3dfd8f6a	0.1238087
38	0xbe8b8fb2	-0.27258068
39	0xbe3350f4	-0.1751135
40	0x3e804b2c	0.25057352
41	0xbe40c2e7	-0.1882435
42	0x3da6d8f1	0.08146847
43	0xbe91097c	-0.28327549
44	0x3b74592d	0.0037284598
45	0x3d05c00b	0.03265385
46	0x3e40d15a	0.18829861
47	0xbd83d04e	-0.06436215
48	0x3e31cd50	0.17363477
49	0xbc472dbe	-0.012156902
50	0x3ea67d61	0.32517532
51	0xbe8ca1d3	-0.27467212
52	0xbe8549b3	-0.2603279
53	0xbd2c540e	-0.04207235
54	0x3e100cff	0.14067458
55	0x3e6d2a26	0.2316061
56	0xbe6735cc	-0.22579116
57	0x3e37e66a	0.1795899
58	0x3e7e5ab3	0.24839287
59	0xbe0fc735	-0.14040835
60	0x3ea2183f	0.31659123
61	0x3e4639c3	0.19357972
62	0x3ea9fb5e	0.3319959
63	0x3e00a467	0.12562715
64	0xbe85f547	-0.26163694
65	0x3e184e69	0.14873661
66	0x3e420481	0.1894703
67	0x3e96612d	0.29371014
68	0x3c2e684e	0.010644985
69	0xbc45ea3f	-0.012079774
70	0xbdc9f999	-0.0986206
71	0xbe9130a5	-0.28357425
72	0x3e1a29b3	0.1505497
73	0x3e65c35e	0.22437808
74	0xbe62a457	-0.22133003
75	0x3d8d6258	0.06903523
76	0x3e87f533	0.2655426
77	0xbe07e56f	-0.13271116
78	0x3e2e0464	0.16993862
79	0xbe6d7ab5	-0.2319134
80	0x3d1c052b	0.038090866
81	0xbe1e8ab6	-0.15482602
82	0x3b7c3a3c	0.0038486859
83	0xbe86f9e8	-0.26362538
84	0xbc86c2ec	-0.016450368
85	0x3e6496fb	0.2232322
86	0xbd52462e	-0.05133646
87	0xbe436d28	-0.19084609
88	0xbdf1b244	-0.118015796
89	0xbd92de22	-0.07171275
90	0x3e8a8cb4	0.27060473
91	0x3d6f3440	0.05839944
92	0x3e880de3	0.26573095
93	0x3e6fd199	0.23419799
94	0xbdbb1ca1	-0.0913632
95	0xbe2ea684	-0.17055708
96	0x3eaf893d	0.34284392
97	0xbeb8d33d	-0.36098662
98	0x3c9095d5	0.01764957
99	0xbe73bc9c	-0.23802418
100	0xbebcf8df	-0.36908624
101	0x3e61dd6b	0.2205712
102	0x3ce41797	0.02784328
103	0xbdd1e84b	-0.102493845
104	0x3e0ecd82	0.13945583
105	0xbeb04914	-0.34430754
106	0xbd2d2b98	-0.042277902
107	0xbe7b5f38	-0.24548042
108	0xbdd3eab7	-0.10347503
109	0xbe3e5196	-0.1858581
110	0x3e02eeed	0.12786455
111	0x3e4f925d	0.20270677
112	0x3c498858	0.012300573
113	0xbe269468	-0.1626755
114	0x3daefff0	0.0854491
115	0xbe633193	-0.2218688
116	0x3e49ab1b	0.19694178
117	0xbe7db627	-0.24776517
118	0x3e1d9944	0.15390497
119	0x3e763f3a	0.24047557
120	0x3d8d2d1f	0.06893372
121	0x3e36e08b	0.17859094
122	0xbe418d81	-0.18901636
123	0xbe150397	-0.1455215
124	0x3b91417f	0.0044328566
125	0x3ebbbd6a	0.3666795
126	0x3db9f21c	0.09079382
127	0x3dbc0380	0.09180355
128	0xbe608189	-0.21924414
129	0x3e093fe9	0.13403286
130	0xbddf6b02	-0.10909082
131	0xbe86ceb7	-0.26329586
132	0x3d972465	0.073799886
133	0xbe80baa0	-0.25142384
134	0x3dbf805e	0.09350656
135	0x3db0154d	0.08597813
136	0xbe11cda5	-0.14238603
137	0x3e7790fc	0.24176401
138	0xbe346c62	-0.1761947
139	0x3d4fe206	0.050752662
140	0x3e31667f	0.17324255
141	0x3c0e8d2d	0.008700651
142	0x3e4d1be6	0.20030174
143	0xbde1279b	-0.10993882
144	0xbdbf4d51	-0.09340919
145	0xbd8b4089	-0.067994185
146	0x3e88fbb2	0.26754528
147	0xbd082eed	-0.033247877
148	0x3e271f26	0.16320476
149	0xbdb471fa	-0.08810802
150	0x3e4ec80b	0.20193498
151	0x39ad631d	0.00033070976
152	0xbda55ec8	-0.08074719
153	0x3e8de5ef	0.27714488
154	0x3e396560	0.18105078
155	0x3e137c1d	0.14402814
156	0xbe1aaf70	-0.15105987
157	0x3e0cd78e	0.13754103
158	0xbd85afe6	-0.065276906
159	0xbdc47d2f	-0.095941894
160	0x3dc19060	0.094513655
161	0xbde85e30	-0.1134609
162	0xbe1ac5db	-0.15114538
163	0xbe235f9c	-0.15954441
164	0x3e651687	0.22371875
165	0xbe991557	-0.29899094
166	0x3d277beb	0.04088966
167	0x3d962a36	0.0733227
168	0xbe229558	-0.15877283
169	0x3c660e0e	0.014041437
170	0x3eb57a2b	0.3544477
171	0x3e1658d4	0.14682323
172	0xbe8aa973	-0.27082404
173	0xbdc4c681	-0.09608174
174	0xbe428c23	-0.1899877
175	0xbe48aaf0	-0.19596457
176	0xbe563eb4	-0.20922357
177	0x3e947316	0.28994054
178	0x3d3dfe0e	0.046384864
179	0x3e1ba1f7	0.15198503
180	0x3ec7bd40	0.39011574
181	0x3e2474fd	0.16060252
182	0xbe77181b	-0.2413029
183	0x3e7069a6	0.23477802
184	0x3e04fd6a	0.12987295
185	0x3e822276	0.25416917
186	0xbe88cda0	-0.2671938
187	0x3dec093c	0.11525199
188	0x3e035a21	0.1282735
189	0x3d50ae8a	0.050947703
190	0xbe98199f	-0.29707047
191	0xbe805f21	-0.25072578
192	0x3e2f91c8	0.17145455
193	0x3d61688a	0.055031337
194	0xbe952e92	-0.29137093
195	0xbddba38f	-0.10724556
196	0xbe921200	-0.28529358
197	0x3e63f7ee	0.22262546
198	0xbd2f03be	-0.04272818
199	0x3e59d306	0.21271905
200	0xbe9cf30e	-0.30654186
201	0xbe1ac762	-0.15115121
202	0xbd927538	-0.07151264
203	0x3db758b9	0.089524694
204	0xbe2bb9b6	-0.16770062
205	0x3e2a567e	0.16634557
206	0x3e5b83f6	0.21437058
207	0xbe1e4225	-0.1545492
208	0x3e49e0fc	0.19714731
209	0xbaa2fa91	-0.0012434294
210	0xbe42f9e9	-0.19040646
211	0x3e1ca25f	0.15296315
212	0x3e7163cd	0.23573227
213	0xbe4f3a33	-0.20237045
214	0x3e9a9ca2	0.30197626
215	0x3e914e9b	0.28380284
216	0x3d8e5aa6	0.069508836
217	0xbe8df46e	-0.27725548
218	0xbdad75dd	-0.08469746
219	0xbc502fc5	-0.012706702
220	0x3ec521eb	0.3850244
221	0xbe3958ab	-0.1810023
222	0xbe84e1c6	-0.259535
223	0x3e942d49	0.289408
224	0x3d89f4b7	0.06736129
225	0xbdc71f1c	-0.097227305
226	0x3e663ca1	0.22484066
227	0x3d2b2a3d	0.04178833
228	0x3dfd8007	0.12377935
229	0x3e558617	0.20851932
230	0xbeb0eb4c	-0.34554517
231	0xbea9a464	-0.33133233
232	0x3e850b1e	0.25985044
233	0x3cdbe19e	0.026840981
234	0x3d3b2dec	0.04569809
235	0xbc3434de	-0.010998933
236	0x3e195360	0.14973211
237	0x3e7216fa	0.23641577
238	0x3d52e013	0.051483225
239	0x3e3aec91	0.18254305
240	0xbe98f32f	-0.29873034
241	0x3e903d77	0.28171894
242	0x3e78d38a	0.24299446
243	0xbce37a92	-0.027768407
244	0x3dff5734	0.124678046
245	0x3e857ac9	0.2607024
246	0xbd89977e	-0.06718348
247	0xbe85922f	-0.26088092
248	0x3e86e843	0.26349077
249	0xbe51ef7e	-0.20501515
250	0xbe4b4617	-0.19850956
251	0xbe6020b6	-0.21887478
252	0x3e979f13	0.29613551
253	0xbdb78179	-0.08960242
254	0xbe4213a5	-0.18952806
255	0xbe5337df	-0.20626782

layers.0.bias f4 [64]
0	0x3d7dc56e	0.06195586
1	0xbc829290	-0.015939027
2	0x3c100396	0.008789917
3	0x3c6c0335	0.0144050615
4	0xbc95aeeb	-0.018271884
5	0xbd893aaa	-0.067006424
6	0xbd1aa325	-0.037753243
7	0xbcd4b092	-0.025963102
8	0x3b0aa170	0.0021153353
9	0x3d5937ba	0.05303166
10	0xbb81bff5	-0.0039596506
11	0x3d36148d	0.044453193
12	0xbd031e52	-0.032011338
13	0xbd2b32a4	-0.04179634
14	0xbc729d45	-0.014808004
15	0x3cf9f01d	0.030510003
16	0x3ccc852c	0.024965845
17	0xbc17bb7d	-0.009261009
18	0xbd1900a5	-0.03735413
19	0x3d39cea9	0.045363102
20	0xbca3f91d	-0.020016247
21	0x3c25a868	0.010110952
22	0xbb69513b	-0.0035601396
23	0x3d16e56e	0.036839895
24	0xbac0ce8a	-0.0014709991
25	0xbb5e4cee	-0.0033920365
26	0xbce8567f	-0.028361557
27	0xbc3975fd	-0.0113196345
28	0x3cd0a14a	0.025467534
29	0xbcaa32e2	-0.020776216
30	0xbbd657aa	-0.006541212
31	0xbd6c2b11	-0.05765826
32	0xbd1853e1	-0.03718937
33	0xbcde91ad	-0.027169073
34	0x3d8be51f	0.06830811
35	0xbd8f4160	-0.06994891
36	0x3dabeebd	0.08395145
37	0xbbdc2c42	-0.006719143
38	0x3d16db6f	0.036830362
39	0xbcaed9f9	-0.021344172
40	0x3d7175fe	0.058950417
41	0x3c69ac6c	0.0142623
42	0x3ade5057	0.0016961199
43	0x3ca1c5f6	0.019747715
44	0x3d2e33c0	0.04252982
45	0xbc64a497	-0.013955257
46	0xbd5273f5	-0.051380116
47	0xbc14b6c5	-0.009076779
48	0xbd139144	-0.036027208
49	0x3d73794b	0.059441846
50	0xbc4d9975	-0.012548794
51	0x3b626d8a	0.0034550154
52	0xbc4a9392	-0.012364285
53	0x3c28c46f	0.01030074
54	0x3b140ff0	0.0022592507
55	0x3c4adec6	0.012382215
56	0x3c0386f6	0.008027783
57	0xbcd91cc2	-0.02650297
58	0xbcb9793d	-0.022640819
59	0xbc0aec68	-0.008479215
60	0x3c38447a	0.011246795
61	0x3d31fb5f	0.043452617
62	0x3d364e4c	0.044508263
63	0xbe00c596	-0.12575373

layers.2.weight f4 [64, 64]
0	0x3dd8a460	0.10578227
1	0x3cb36916	0.021900695
2	0xbd1a6f18	-0.037703604
3	0x3e2815d9	0.16414584
4	0xbe1cd3b6	-0.15315136
5	0x3d571611	0.05251128
6	0x3e37234a	0.17884555
7	0xbe54de22	-0.20787862
8	0x3de8f21d	0.113743044
9	0xbd5efe57	-0.054441776
10	0xbe5840ff	-0.21118544
11	0xbdb6af03	-0.089200996
12	0xbd81a82d	-0.06330905
13	0xbcbcec98	-0.023062035
14	0xbc8d5f07	-0.017257227
15	0x3d258364	0.040408507
16	0xbe372e1d	-0.17888685
17	0x3df807c1	0.12110854
18	0x3e5884b3	0.2114437
19	0xbd755796	-0.05989798
20	0xbe230853	-0.15921144
21	0xbd958adf	-0.07301878
22	0xbd11b214	-0.03557022
23	0xbda43039	-0.0801701
24	0x3c60ab2e	0.013712687
25	0xbe29259a	-0.1651825
26	0x3d85b976	0.065295145
27	0xbe221e86	-0.15831956
28	0x3cd3763b	0.025813213
29	0x3e5ca637	0.21547781
30	0x3e4c3068	0.1994034
31	0xbe1a8c60	-0.15092611
32	0xbdda0626	-0.10645704
33	0xbdafa665	-0.08576659
34	0xbdeee7c7	-0.11665302
35	0x3e78ba22	0.24289754
36	0x3d4e09f7	0.050302472
37	0x3e1f0241	0.15528204
38	0xbd691c58	-0.056911796
39	0xbe4763e8	-0.19471705
40	0x3d51b8e4	0.051201716
41	0x3e0cce9c	0.1375069
42	0xbe5d5fd4	-0.21618587
43	0xbe57cd58	-0.21074426
44	0xbe14a8f9	-0.14517583
45	0xbd5c2171	-0.05374283
46	0x3e2e5855	0.17025883
47	0x3e6fd96f	0.23422788
48	0xbd49f4da	-0.049305774
49	0x3b384e4a	0.0028122836
50	0xbe50c825	-0.20388849
51	0x3e12a405	0.14320381
52	0x3cf6d7e5	0.030132243
53	0x3cca575e	0.024699863
54	0x3e279b9b	0.16367953
55	0x3dff6fbd	0.12472484
56	0x3d2f022e	0.042726688
57	0xbd943c26	-0.07238035
58	0x3dc7f66b	0.097637974
59	0x3e5527b5	0.20815928
60	0x3e5fdec2	0.21862319
61	0xbe7371fb	-0.23773949
62	0xbd9a7074	-0.0754098
63	0x3e7009c6	0.23441228
64	0x3bd3ba6c	0.006461432
65	0x3e1e2c70	0.15446639
66	0xbe2650a7	-0.16241704
67	0x3a7d48ea	0.0009662049
68	0x3e06da97	0.13169323
69	0x3e15d4f9	0.14632024
70	0x3d3fbc07	0.046810176
71	0xbe4f70c3	-0.20257859
72	0xbdfd352f	-0.123636596
73	0xbe0d2fa4	-0.13787705
74	0x3e3f37d3	0.18673639
75	0x3d58e3b7	0.05295154
76	0x3e22656d	0.15859003
77	0xbe16debf	-0.14733408
78	0x3d836e13	0.06417479
79	0x3caa9cd5	0.020826736
80	0x3e2149c5	0.15750797
81	0xbe2a3c26	-0.16624507
82	0x3c690ee5	0.014224743
83	0xbd608b35	-0.05482026
84	0xbdaca60e	-0.0843011
85	0x3d03ed9a	0.032209016
86	0xbdc656aa	-0.096844986
87	0x3e0c0cb2	0.13676718
88	0xbe237de4	-0.15965992
89	0x3e2953d1	0.1653588
90	0xbe38cc0a	-0.18046585
91	0xbe373fd0	-0.17895436
92	0xbcb334df	-0.021875797
93	0x3e67f657	0.22652565
94	0x3e2be4df	0.16786526
95	0x3dc14f62	0.09438969
96	0x3dc7d004	0.09756473
97	0xbc6417fd	-0.013921735
98	0xbe480569	-0.19533314
99	0x3e43ce0c	0.1912157
100	0x3d0ad054	0.033890083
101	0x3e11f03b	0.14251797
102	0x3e324dd7	0.17412506
103	0x3ca1ed43	0.019766456
104	0x3e38ae0d	0.18035145
105	0xbb256b3b	-0.0025240916
106	0xbdf52f49	-0.119719096
107	0x3e252350	0.16126752
108	0xbd1a0b72	-0.03760857
109	0x3dea694c	0.11445865
110	0xbe01d6cb	-0.12679593
111	0xbdb31c2f	-0.0874561
112	0xbc0ad701	-0.0084741125
113	0x3de6d976	0.11271946
114	0xbe0e3524	-0.13887459
115	0xbe0d9e99	-0.13830031
116	0x3e67e302	0.2264519
117	0xbe34a20a	-0.17639938
118	0xbdee893c	-0.11647269
119	0x3e09adce	0.13445207
120	0x3dee56f0	0.11637676
121	0xbe02f2a8	-0.12787879
122	0x3d55dc58	0.05221209
123	0xbde1bb1f	-0.11022019
124	0xbd2bd02d	-0.04194658
125	0x3d00fe6a	0.03149263
126	0xbdad3ae7	-0.084585
127	0xbdc68c02	-0.09694673
128	0x3c10a623	0.008828673
129	0xbda6f398	-0.081519306
130	0x3e117ccf	0.14207767
131	0xbe3bd5d1	-0.18343283
132	0xbe8de084	-0.27710354
133	0x3e282480	0.16420174
134	0x3e98aea0	0.29820728
135	0xbe443333	-0.19160156
136	0xbe4c6e42	-0.19963935
137	0xbe670e95	-0.22564156
138	0xbdf06bda	-0.11739321
139	0x3e5894b2	0.21150473
140	0xbe90acf8	-0.28256965
141	0xbd4c69ad	-0.049905468
142	0x3d4e5256	0.05037149
143	0x3d5c2068	0.053741843
144	0x3e0673e4	0.13130146
145	0x3d30b74e	0.043143563
146	0xbdc3efb2	-0.09567203
147	0x3e87a309	0.26491573
148	0x3ddba0ce	0.107240304
149	0xbe1b4a9c	-0.1516518
150	0xbe425614	-0.18978149
151	0x3e0ff6ee	0.1405904
152	0x3e5c0cb9	0.21489228
153	0xbdfce53f	-0.12348413
154	0xbd64ce5b	-0.05586086
155	0xbe30c017	-0.17260776
156	0xbbd93493	-0.006628582
157	0xbd705b1d	-0.058680642
158	0x3e4d2a5f	0.20035695
159	0xbda43191	-0.080172665
160	0xbc114d18	-0.008868478
161	0xbe2b40c9	-0.16723932
162	0xbb1747f4	-0.002308366
163	0xbc93ff9a	-0.018066216
164	0x3c869272	0.016427252
165	0x3d936f68	0.071989834
166	0xbde4e11d	-0.111757495
167	0x3d56248b	0.052280944
168	0x3dc79941	0.09746028
169	0x3e046782	0.1293011
170	0xbdc67577	-0.096903734
171	0x3db8aa89	0.09016902
172	0x3e112bf9	0.1417693
173	0xbde8b9ce	-0.113635644
174	0x3b9cda79	0.004786786
175	0xbe708b93	-0.23490743
176	0x3e327a9a	0.17429581
177	0x3e249e85	0.16076095
178	0xbdcb2609	-0.09919364
179	0x3e069cc8	0.13145745
180	0x3e037779	0.12838544
181	0xbe021606	-0.12703714
182	0xbe5d2049	-0.21594347
183	0x3dbcd9c7	0.09221225
184	0x3deda549	0.11603791
185	0x3db4b55a	0.088236526
186	0x3d8ed99d	0.069751
187	0x3e6ecc76	0.23320183
188	0xbd64221b	-0.055696588
189	0x3e3a85a9	0.1821505
190	0x3e7d3fc9	0.24731363
191	0x3d0599f7	0.032617535
192	0xbe35a7c4	-0.17739779
193	0x3c6e3835	0.014539768
194	0x3e47a4f8	0.19496524
195	0xbdec3532	-0.11533584
196	0xbe3145d0	-0.17311788
197	0xbd9e422c	-0.07727465
198	0xbd11dade	-0.03560912
199	0xbe442439	-0.19154443
200	0xbe2516a4	-0.16121918
201	0xbdaa4f0e	-0.0831586
202	0x3e145ecb	0.14489286
203	0xbd57c88e	-0.0526815
204	0x3e62d8db	0.22153036
205	0x3e36417a	0.17798415
206	0x3bc2e6ea	0.0059479373
207	0xbe1836a0	-0.14864588
208	0x3d449fec	0.048004076
209	0x3c91c706	0.017795097
210	0x3d352d89	0.04423288
211	0xbe5aa2e2	-0.21351197
212	0x3de0dd96	0.10979764
213	0x3d13c4d0	0.036076367
214	0xbe028d05	-0.12749107
215	0xbdc305b6	-0.09522574
216	0xbdf90448	-0.1215902
217	0x3dcac0f6	0.09900086
218	0xbddb8df8	-0.10720438
219	0x3e448aad	0.19193526
220	0x3e774fd0	0.2415154
221	0x3e0e997a	0.13925734
222	0xbd88c2e3	-0.06677797
223	0x3d832ab0	0.06404626
224	0xbe4cb783	-0.19991879
225	0x3dfb1307	0.122594886
226	0xbce081f4	-0.027405716
227	0x3c49dc62	0.01232061
228	0x3e4c122f	0.19928811
229	0x3e755e79	0.2396182
230	0x3e06e37f	0.1317272
231	0x3e2fa9c7	0.17154609
232	0xbd406059	-0.046966884
233	0x3db88c8c	0.09011182
234	0xbe2088a0	-0.15677118
235	0x3dff77e0	0.12474036
236	0xbe03a344	-0.1285525
237	0x3dfe051d	0.12403319
238	0xbb663ca3	-0.0035131357
239	0x3e2b9497	0.16755901
240	0xbe5c8f25	-0.2153898
241	0x3e377152	0.17914322
242	0xbe0e08a1	-0.13870479
243	0xbdd6eef6	-0.10494797
244	0xbdf5a43e	-0.11994217
245	0xbe40a107	-0.18811427
246	0x3dccb749	0.09995896
247	0x3dc9a6d8	0.09846276
248	0xbd4d469e	-0.050116174
249	0x3c9ec9c0	0.019383311
250	0xbe602fbb	-0.21893208
251	0x3ddc326f	0.10751807
252	0x3ac2b653	0.0014855362
253	0x3db7bf17	0.08971994
254	0x3e191d51	0.1495259
255	0xbe0f6a1a	-0.14005318

layers.2.bias f4 [64]
0	0xbc468f72	-0.012119161
1	0x3c758244	0.014984671
2	0x3c5b2e7d	0.013377783
3	0x3ad86957	0.0016510886
4	0x3c12278b	0.008920561
5	0xbcc5ca9c	-0.024144463
6	0xbcd6a151	-0.026199969
7	0xbbb6f34a	-0.0055832015
8	0x3be2b176	0.0069181276
9	0x3c7fc511	0.015610949
10	0xbc92f65f	-0.017939745
11	0x3d296565	0.041356463
12	0x3d077f27	0.033080246
13	0x3c126e05	0.0089373635
14	0x3b878e24	0.0041368175
15	0xbb487917	-0.0030589753
16	0x3a278214	0.00063899276
17	0x3a35e7b7	0.000693913
18	0xbcaa7b11	-0.020810636
19	0xbabcde92	-0.0014409593
20	0xbcf313b7	-0.029672487
21	0x3d67998e	0.056542926
22	0xbcc25fb6	-0.02372728
23	0xbd51e9e1	-0.051248435
24	0xbc95e413	-0.01829723
25	0xbcc4f9a9	-0.024044828
26	0x3d0ee35d	0.0348848
27	0x3c53766c	0.012906652
28	0x3c066fda	0.008205378
29	0x3d904dbd	0.070460774
30	0xbd492644	-0.04910876
31	0x3c6ce2c1	0.014458359
32	0x3c5b0838	0.013368659
33	0x3b33d104	0.0027437815
34	0x3c0172ca	0.007900903
35	0xbcf05b6f	-0.029340474
36	0x3c3c1bd7	0.011481247
37	0x3d07da3b	0.033167105
38	0x3c4fcc24	0.012682948
39	0x3c3682e1	0.011139602
40	0xbcb20867	-0.021732522
41	0x3cec307f	0.028831718
42	0xbd9eb7d7	-0.077499084
43	0x3d4af713	0.049552035
44	0x3d24dc7a	0.040249325
45	0xbbcbc419	-0.006218445
46	0x3bffc2e0	0.0078052133
47	0xbd303f40	-0.04302907
48	0xbd0f6833	-0.03501148
49	0x3d1dcc4e	0.03852492
50	0xb920e81b	-0.00015345255
51	0xbb398ac0	-0.0028311461
52	0x3c03ab76	0.008036485
53	0xbcd58973	-0.026066517
54	0xbd42ac72	-0.047527738
55	0xbbbe6df0	-0.0058114454
56	0x3c8199c4	0.015820391
57	0xbcef2e89	-0.029196994
58	0xbcf90f3a	-0.030402768
59	0xba28f04b	-0.0006444498
60	0xbd256720	-0.04038155
61	0xbb99c680	-0.0046928525
62	0xbbba4697	-0.0056846845
63	0xbbf54e2b	-0.007486125

layers.4.weight f4 [64, 64]
0	0xbe58cafe	-0.21171185
1	0xbd7b8dcb	-0.06141452
2	0x3dd0b331	0.10190428
3	0x3ce47aef	0.02789065
4	0xbdfed061	-0.12442089
5	0xbe38f165	-0.18060835
6	0x3dc2c846	0.095108554
7	0xbd8c4f08	-0.068510115
8	0xbd62953a	-0.055318095
9	0x3e3c1c6c	0.18370217
10	0x3e4854d7	0.19563614
11	0xbe44e893	-0.19229345
12	0x3c2908b3	0.010317015
13	0xbe199c3a	-0.15001002
14	0xbe078d1c	-0.13237423
15	0x3df614ca	0.12015684
16	0xbe57483e	-0.21023652
17	0x3e4135bf	0.18868159
18	0xbdcd629e	-0.10028575
19	0x3e2fcd29	0.17168106
20	0xbcf12a0b	-0.029438993
21	0xbe191e6e	-0.14953014
22	0x3da11a1a	0.078663066
23	0xbe2bedad	-0.16789885
24	0x3dadce66	0.08486633
25	0x3d1cb35a	0.03825698
26	0x3cc04bcc	0.023473643
27	0xbe47a72a	-0.19497362
28	0x3ccd8e1b	0.025092175
29	0xbd869c93	-0.06572833
30	0xbda7acd8	-0.08187264
31	0x3d994f3e	0.074858174
32	0xbe52251e	-0.20521972
33	0x3e18cf51	0.14922835
34	0x3d98f6e3	0.07468965
35	0x3e0337ee	0.12814304
36	0xbb0a1b0c	-0.002107325
37	0xbe4a3c91	-0.19749667
38	0xbccfc394	-0.025361814
39	0x3e082888	0.13296711
40	0xbd92af2d	-0.071623184
41	0xbdcd2c04	-0.10018161
42	0x3dcdeb66	0.10054664
43	0x3dd16188	0.10223681
44	0xbcb89855	-0.022533575
45	0x3b408ee4	0.0029382044
46	0x3d1bf0c5	0.038071413
47	0x3db7b0ab	0.089692436
48	0xbcaca9c4	-0.021077044
49	0x3df942cf	0.12170946
50	0xbe00dd0e	-0.12584326
51	0xbc82a567	-0.01594801
52	0xbe4b9cec	-0.1988408
53	0xbe260d7c	-0.16216081
54	0xbdfe370f	-0.12412845
55	0xbe1b7b69	-0.15183796
56	0x3c8b211d	0.016983563
57	0x3d74e60c	0.059789702
58	0xbe15140b	-0.14558427
59	0xbde4828f	-0.111577146
60	0xbe101676	-0.14071068
61	0x3d9bec78	0.07613462
62	0x3d885ecd	0.06658707
63	0xbd9e6b59	-0.07735319
64	0xbe440f1c	-0.19146389
65	0xbd113ee8	-0.035460383
66	0xbdddae75	-0.10824291
67	0x3e17aabd	0.14811225
68	0xbe533c13	-0.20628385
69	0x3e783a6e	0.24241039
70	0x3dff3359	0.12460966
71	0x3bd404c5	0.006470295
72	0x3e4ef83b	0.2021188
73	0x3e3cdb7b	0.184431
74	0xbd200043	-0.03906275
75	0xbb0c78ef	-0.0021434387
76	0x3e19996f	0.14999937
77	0x3dbbef9a	0.0917656
78	0xbc9b6b3e	-0.018972035
79	0x3e5faf74	0.21844274
80	0x3e456cf3	0.19279842
81	0x3de5a078	0.112122476
82	0x3e2c670e	0.16836187
83	0xbe52711a	-0.20550957
84	0x3dc4b03d	0.09603927
85	0xbe74deb6	-0.23913082
86	0x3c4ea13e	0.012611685
87	0xbd9ffba4	-0.078116685
88	0x3e01e277	0.12684046
89	0xbe0e639f	-0.1390519
90	0xbdfe9b3d	-0.12431953
91	0xbd1208d2	-0.035652943
92	0x3e1140ce	0.14184877
93	0x3e24c8c0	0.16092205
94	0xbe0f369b	-0.13985674
95	0x3dced5b8	0.10099357
96	0xbb9933a6	-0.0046753464
97	0xbc169004	-0.009189609
98	0xbda8f9e8	-0.08250791
99	0x3da4a7b3	0.080397986
100	0xbd3de227	-0.046358254
101	0xbe18aaba	-0.14908877
102	0xbe1e457a	-0.1545619
103	0xbe46bfad	-0.19409056
104	0xbe41168b	-0.18856256
105	0x3e324fea	0.17413297
106	0x3ce7cee1	0.02829689
107	0x3e478833	0.1948555
108	0x3e0d8722	0.1382108
109	0xbe03d4a8	-0.1287409
110	0x3e25b45c	0.16182083
111	0x3e2fa97f	0.17154501
112	0x3e5a63f9	0.21327199
113	0xbe09f286	-0.13471422
114	0x3c41c189	0.0118259275
115	0x3d3fdc76	0.046841107
116	0x3d8731d9	0.066013046
117	0x3d43e9ae	0.047830276
118	0x3c49b22a	0.012310544
119	0x3ddc8c37	0.10768931
120	0xbe324eb4	-0.17412835
121	0xbde3f3a2	-0.11130454
122	0xbd44c64e	-0.04804068
123	0xbe0885c6	-0.1333228
124	0xbd6f55c1	-0.05843139
125	0xbe4f7578	-0.20259655
126	0xbcb60bcf	-0.022222428
127	0xbd6269a8	-0.055276543
128	0x3df40ab2	0.119161025
129	0x3df5bf64	0.119993955
130	0x3de7f683	0.11326315
131	0x3d445a81	0.047937874
132	0xbd8aa5a4	-0.06769875
133	0xbe2cdbd2	-0.1688073
134	0x3c145103	0.009052518
135	0xbe1abc09	-0.15110792
136	0xbd029823	-0.03188337
137	0xbe55882c	-0.20852727
138	0x3e59d77e	0.2127361
139	0xbe38924f	-0.18024562
140	0xbdb4bfab	-0.0882562
141	0x3d25c656	0.04047235
142	0x3d9af434	0.07566109
143	0x3df4918f	0.119418256
144	0x3e17d180	0.14826012
145	0x3e277760	0.16354132
146	0xbd21c51c	-0.03949462
147	0x3ce8f9a6	0.028439354
148	0x3d0ce7e7	0.034400847
149	0x3e119230	0.14215922
150	0x3e1def10	0.15423226
151	0x3c1f821f	0.009735613
152	0xbe471460	-0.19441366
153	0x3df2b926	0.118517205
154	0xbd9337da	-0.07188387
155	0x3d1ff11f	0.03904831
156	0x3e1d2637	0.15346609
157	0x3d345908	0.04403022
158	0xbe277fc2	-0.1635733
159	0x3e4eeaac	0.20206708
160	0x3d9ecf1c	0.07754347
161	0x3c19130e	0.009342922
162	0x3df6ccae	0.12050758
163	0xbe054b0d	-0.13016911
164	0x3e246500	0.16054153
165	0x3d199c3e	0.03750252
166	0xbd3325a4	-0.04373707
167	0x3e2b9e3b	0.16759579
168	0x3e1c219b	0.15247194
169	0x3dc3aa55	0.09553973
170	0x3d9de304	0.077093154
171	0x3dfe6685	0.12421898
172	0xbe2c1ca6	-0.16807804
173	0xbe2a4b0e	-0.16630194
174	0x3d5dcd59	0.054150913
175	0x3dbbb85b	0.091660224
176	0x3e1e90a4	0.15484864
177	0xbd425915	-0.047448236
178	0x3e152a00	0.14566803
179	0x3e294e08	0.16533673
180	0x3d42a436	0.047519885
181	0xbc996979	-0.018727051
182	0x3e717e08	0.23583233
183	0x39dd0ff8	0.00042164302
184	0xbe40f48d	-0.18843289
185	0x3e142831	0.14468457
186	0xbcb197f4	-0.021678902
187	0x3dbb0d6f	0.09133422
188	0xbe165548	-0.1468097
189	0xbe1a22b4	-0.150523
190	0x3dff8e53	0.12478318
191	0xbd2bed1f	-0.041974183
192	0x3e3b84be	0.18312356
193	0x3e410857	0.18850838
194	0xbe2ce31e	-0.16883513
195	0x3e195b14	0.1497615
196	0xbd15679d	-0.036475766
197	0x3dbbec99	0.09175987
198	0x3e3be331	0.18348385
199	0x3e5e7987	0.21726047
200	0x3db72c53	0.08944001
201	0x3e03f498	0.12886274
202	0xbde9c031	-0.11413611
203	0xbe2524c2	-0.16127303
204	0xbe1cf8d0	-0.1532929
205	0x3dddf857	0.10838383
206	0x3da3d64f	0.079998605
207	0x3e232264	0.15931088
208	0xbe312467	-0.17299043
209	0xbe3da4f8	-0.18519962
210	0xbdda9010	-0.10672009
211	0x3d1592e5	0.036517043
212	0x3e2450fd	0.1604652
213	0xbe507a43	-0.20359139
214	0x3da29a56	0.079395935
215	0xbd7d2c47	-0.061809804
216	0xbcf8da9f	-0.030377684
217	0xbe399363	-0.1812263
218	0x3ccf8105	0.025330076
219	0xbdc11c91	-0.09429277
220	0xbda9d487	-0.082924895
221	0x3e02e1fb	0.12781517
222	0x3e1ea60c	0.1549303
223	0xbdeca1a0	-0.11554265
224	0xbe0beabe	-0.13663766
225	0xbe1696f5	-0.14706023
226	0x3e26e40a	0.16297927
227	0xbdfdb001	-0.12387086
228	0xbe14f3db	-0.14546148
229	0x3e4a523f	0.19757937
230	0x3e48da23	0.19614463
231	0x3d304769	0.043036852
232	0xbdc8b3ac	-0.09799895
233	0x3d71e8e3	0.05905999
234	0xbaa2164d	-0.0012366265
235	0xbd24f0e9	-0.040268812
236	0x3d885867	0.066574864
237	0x3b88fbbf	0.004180401
238	0xbb496043	-0.0030727542
239	0x3e061e0b	0.13097398
240	0x3d72b023	0.05925001
241	0x3e381864	0.17978054
242	0x3df16184	0.11786178
243	0xbd81444b	-0.06311854
244	0x3e423d2a	0.18968645
245	0xbb1e586a	-0.0024161586
246	0xbe0dc74f	-0.13845561
247	0xbe587673	-0.21138935
248	0xbe19e274	-0.15027791
249	0xbe42931e	-0.19001433
250	0x3e2e321d	0.17011304
251	0x3e17d8dc	0.14828819
252	0xbdfb69fc	-0.12276074
253	0xbcf6c507	-0.030123247
254	0xbc165a18	-0.009176753
255	0x3e61c69f	0.22048424

layers.4.bias f4 [64]
0	0xbbb1a12d	-0.005420825
1	0xbc21d611	-0.009877698
2	0x3bd467d1	0.0064821024
3	0xbb907b76	-0.004409249
4	0x3c02ddd9	0.007987463
5	0x3c1057ae	0.008809967
6	0x3c2bc448	0.010483809
7	0xbb155b42	-0.002278999
8	0xbc1493db	-0.009068455
9	0x3c276c99	0.010218763
10	0x3afa870c	0.0019113733
11	0x3c822234	0.01588545
12	0x3c344c75	0.011004557
13	0x3c7bfef2	0.015380608
14	0xbcd7ed9c	-0.026358418
15	0xbbf40638	-0.0074470304
16	0xbc1283e7	-0.008942581
17	0x3c57ef37	0.013179592
18	0xbc3bdd90	-0.011466399
19	0xbc845b28	-0.016156748
20	0xbc56cbf6	-0.0131101515
21	0xbda02656	-0.07819812
22	0x3c6ca35e	0.014443247
23	0x3c88f335	0.016717533
24	0x3abc0158	0.0014343662
25	0x3b351998	0.0027633663
26	0x3d00b24d	0.03142004
27	0xbc4fc529	-0.012681284
28	0x3c413baa	0.01179401
29	0xb9dcf2fd	-0.0004214271
30	0x3c501ef2	0.01270269
31	0xbcbc1cb7	-0.022962911
32	0xbc4201d6	-0.011841258
33	0xbc32460f	-0.010880961
34	0x3bf0b92b	0.0073462925
35	0x3ba838e2	0.005133734
36	0x3c591bc0	0.013251245
37	0x3c9355be	0.017985221
38	0xbda8804d	-0.082275964
39	0xbc244bde	-0.010027854
40	0xbc0126d4	-0.0078827925
41	0x3b64085d	0.0034795024
42	0xbc08f1c7	-0.008358425
43	0x3bf43758	0.0074528866
44	0xbc3dc0db	-0.011581625
45	0xbc2d7c64	-0.010588739
46	0x3c361ed9	0.011115753
47	0x3c698114	0.014251966
48	0xbd3e93ea	-0.04652778
49	0xbc3c18ac	-0.011480492
50	0x3b5cfd5a	0.0033720345
51	0x3ceff37a	0.029290903
52	0x3c954513	0.018221414
53	0x3baa3eb3	0.0051954626
54	0xbb5ba0a6	-0.0033512502
55	0x3d32e1a8	0.043672234
56	0x3c81fbe5	0.015867183
57	0xbbd9a0aa	-0.006641467
58	0xbc763d52	-0.015029268
59	0xbca9a06b	-0.020706376
60	0xbc8aab20	-0.016927302
61	0x3d496e51	0.04917747
62	0xbc20110d	-0.00976969
63	0x3c829dac	0.015944324

layers.6.weight f4 [2, 64]
0	0xbe8c6417	-0.27420112
1	0xbe364abb	-0.17801945
2	0x3e4a0aa9	0.19730629
3	0xbe35af42	-0.17742637
4	0x3e6b8298	0.22999036
5	0xbcdf37a5	-0.027248213
6	0x3e593cc6	0.2121459
7	0xbe9ef154	-0.31043494
8	0xbe94befb	-0.29051957
9	0x3e8bbd48	0.27292848
10	0xbe2f2e2f	-0.17107461
11	0xbdefff56	-0.11718623
12	0x3e837b48	0.25679994
13	0x3e6765fb	0.22597496
14	0x3e44a604	0.19203955
15	0xbe6b8833	-0.23001175
16	0xbe57aa67	-0.21061097
17	0x3e2f4cdf	0.17119168
18	0xbc64de45	-0.013969009
19	0xbcb10fd2	-0.021613989
20	0x3cc05476	0.023477774
21	0x3dc0bde5	0.094112195
22	0xbd8d0ffa	-0.06887813
23	0x3df360ec	0.11883721
24	0xbe03b273	-0.12861042
25	0x3e73c143	0.23804192
26	0x3c933dfc	0.017973892
27	0xbd800486	-0.06250863
28	0x3ec01d61	0.37522414
29	0xbe347b39	-0.1762513
30	0x3e757495	0.23970254
31	0xbd65ebf6	-0.056133233
32	0xbe81604b	-0.25268778
33	0xbe6e981b	-0.23300211
34	0x3dcfc0f9	0.101442285
35	0x3e2272fb	0.15864174
36	0x3a2e6b98	0.0006653606
37	0x3de97813	0.113998555
38	0x3c81cc59	0.01584451
39	0xbe36b045	-0.17840679
40	0x3d24c5c5	0.04022767
41	0xbe23012d	-0.15918417
42	0xbd444a53	-0.047922444
43	0x3e45236b	0.19251792
44	0xbdd8ff73	-0.10595598
45	0xbe40313e	-0.18768784
46	0x3d9a19e4	0.075244695
47	0xbd9daba0	-0.076987505
48	0xbc774e0e	-0.015094293
49	0x3db62236	0.08893244
50	0x3e15b432	0.1461952
51	0xbd490517	-0.04907712
52	0x3da2ec07	0.07955175
53	0xbcba8d30	-0.022772402
54	0xbe1e21dd	-0.15442605
55	0xbe4e7383	-0.20161252
56	0x3dc51417	0.096229725
57	0xbe26dd57	-0.16295372
58	0xbd91cc89	-0.0711909
59	0xbb9e42c2	-0.0048297355
60	0xbe0e39dd	-0.1388926
61	0x3da5d248	0.080967486
62	0xbe8b0a2b	-0.27156195
63	0x3e9e9c05	0.30978408
64	0xbe92ddb2	-0.28684765
65	0x3ea11221	0.31459144
66	0x3e5d0582	0.21584132
67	0xbe852fcc	-0.2601303
68	0x3b9a0379	0.004700121
69	0xbe94b057	-0.29040787
70	0x3d43b86f	0.04778331
71	0xbead4b9b	-0.33846745
72	0x3dac8a1e	0.08424781
73	0xbe142dde	-0.14470622
74	0xbcab51c2	-0.020913009
75	0xbe7c9fbc	-0.24670309
76	0x3d8dca65	0.06923369
77	0xbe407df0	-0.18798041
78	0x3e65b1fd	0.22431178
79	0x3e22914e	0.15875742
80	0x3e9c2294	0.3049513
81	0x3e418a63	0.18900447
82	0x3d343690	0.043997347
83	0x3d4b3bb0	0.04961747
84	0x3e9b41bf	0.30323598
85	0xbe5ba5ce	-0.21449968
86	0xbe824e86	-0.25450534
87	0xbe5dbc54	-0.21653873
88	0xbe8a1492	-0.2696882
89	0x3ecb4684	0.39702237
90	0xbde40570	-0.111338496
91	0x3d3bbde7	0.045835402
92	0x3e11f458	0.14253366
93	0xbe945ca7	-0.28976938
94	0xbe953a79	-0.29146174
95	0xbe8aa8c7	-0.27081892
96	0x3e44b59c	0.19209903
97	0xbd0cb480	-0.034351826
98	0x3e96f9eb	0.29487547
99	0xbd41557a	-0.047200657
100	0xbd394e87	-0.045240905
101	0xbe6d9a48	-0.23203385
102	0xbeb48c47	-0.35263273
103	0xbe244059	-0.16040172
104	0x3ebdecf1	0.37094834
105	0xbe89cf65	-0.26916042
106	0x3e7a519c	0.24445194
107	0x3e52b3aa	0.20576349
108	0x3dc8ec62	0.098107114
109	0x3e39277a	0.18081465
110	0x3cc207fd	0.02368545
111	0xbe162be9	-0.14665188
112	0xbe990d5a	-0.29893
113	0x3e2f3962	0.17111734
114	0x3ec279ea	0.37983638
115	0xbea924b7	-0.33035824
116	0xbe523954	-0.20529681
117	0xbeb930b4	-0.3616997
118	0xbe50ac93	-0.20378332
119	0x3d3e6775	0.046485383
120	0xbe3b1498	-0.18269575
121	0x3c660489	0.014039167
122	0x3e8cc2ad	0.27492276
123	0x3e9cf997	0.30659172
124	0x3ddba391	0.10724557
125	0xbea62696	-0.32451314
126	0xbe8f4f9d	-0.27990428
127	0xbe0e9133	-0.13922577

layers.6.bias f4 [2]
0	0x3c57b9d4	0.0131668635
1	0xbc8a38c7	-0.016872777
