data/results/output_net_12000.pth (torch, 38764 bytes, 8 tensors)

layers.0.weight f4 [64, 5]
0	0x3e88da07	0.26728842
1	0xbe40e988	-0.18839085
2	0xbe91a580	-0.2844658
3	0x3ddc6ef4	0.1076335
4	0xbde90059	-0.113770194
5	0x3da8e095	0.082459606
6	0xbc577a8e	-0.013151778
7	0x3d723d84	0.059140697
8	0x3e956be0	0.29183865
9	0x3e723d29	0.23656143
10	0x3e4caf5e	0.19988772
11	0x3e74d496	0.2390922
12	0x3e666d72	0.22502688
13	0x3ea662ba	0.32497197
14	0x3dd3e762	0.10346867
15	0x3e7a9ac3	0.244731
16	0xbc6eaf44	-0.014568154
17	0x3d80b4aa	0.06284459
18	0xbd3c9306	-0.04603865
19	0xbd6b72ce	-0.057482533
20	0x3eaebf17	0.34130165
21	0x3e83cc30	0.2574172
22	0xbd162de6	-0.036664866
23	0xbe0a4e70	-0.13506484
24	0xbcdd6273	-0.027024483
25	0xbd7c87af	-0.061652835
26	0x3dcd7527	0.10032111
27	0x3e382b39	0.17985238
28	0xbe365e6b	-0.17809455
29	0xbd6e278f	-0.058143195
30	0xbd871813	-0.06596389
31	0xbe90c168	-0.28272557
32	0x3d54a6b5	0.051916797
33	0x3d89c3a5	0.06726769
34	0x3d0aea31	0.03391475
35	0xbeabd157	-0.3355815
36	0xbc90f6ef	-0.017695872
37	0x3e117191	0.14203478
38	0xbe89c3f9	-0.26907328
39	0xbe319541	-0.17342092
40	0x3e7b8bce	0.2456505
41	0xbe330387	-0.17481814
42	0x3dc68e76	0.09695141
43	0xbe8ff013	-0.2811285
44	0xbd12d84d	-0.03585081
45	0x3d1e2065	0.038605113
46	0x3e1c18f7	0.15243898
47	0xbd9cb9ae	-0.07652603
48	0x3e26eb5b	0.16300718
49	0x3c977cb9	0.01849209
50	0x3ea4a3f6	0.32156342
51	0xbe88eb6e	-0.2674212
52	0xbe7391f2	-0.23786142
53	0xbd33282f	-0.043739494
54	0x3e0e1ca8	0.13878119
55	0x3e5349d0	0.20633626
56	0xbe5129a7	-0.20426045
57	0x3e162345	0.14661892
58	0x3e6f1e07	0.23351298
59	0xbe3f205e	-0.18664691
60	0x3e7863de	0.24256846
61	0x3e54005b	0.2070326
62	0x3e961edf	0.29320428
63	0x3df7c219	0.12097568
64	0xbe47148f	-0.19441436
65	0x3e2556b0	0.1614635
66	0x3e45538a	0.19270149
67	0x3e9e4c95	0.30917802
68	0x3c5912d0	0.013249114
69	0x3bbb7698	0.0057209246
70	0xbe074cae	-0.13212845
71	0xbe6b13c3	-0.22956757
72	0x3e00bd42	0.12572196
73	0x3e4d729e	0.20063254
74	0xbe4b8723	-0.1987577
75	0x3d9a2c3e	0.0752797
76	0x3e85abea	0.26107723
77	0xbdf67302	-0.12033655
78	0x3e2b2026	0.16711482
79	0xbe6a5e18	-0.22887456
80	0x3d731e5a	0.059355117
81	0xbe000faf	-0.12505983
82	0x3ceda2d9	0.029008316
83	0xbe839eac	-0.25706995
84	0xbe061969	-0.1309563
85	0x3e5e1956	0.21689352
86	0xbd1ad701	-0.0378027
87	0xbe41306c	-0.18866128
88	0xbdf3de40	-0.11907625
89	0xbd9dcc65	-0.07705001
90	0x3e53bafc	0.20676798
91	0x3db48bfb	0.08815762
92	0x3e6ede69	0.2332703
93	0x3e78ae39	0.2428521
94	0xbda3de39	-0.0800137
95	0xbe1a6447	-0.15077315
96	0x3ea56fc8	0.32311845
97	0xbeaa3eb9	-0.3325098
98	0x3ce5ab0f	0.028035669
99	0xbe423a77	-0.18967615
100	0xbeb48d7e	-0.352642
101	0x3e672ec6	0.22576436
102	0x3d2ac7f0	0.04169458
103	0xbdb5336b	-0.08847698
104	0x3e282982	0.16422084
105	0xbea273a6	-0.31728858
106	0xbd3664bb	-0.044529658
107	0xbe59061a	-0.21193734
108	0xbdb5efb7	-0.088836126
109	0xbe1c2d20	-0.15251589
110	0x3deeec5b	0.11666175
111	0x3e52add2	0.2057412
112	0x3c5f5128	0.013630189
113	0xbe25629a	-0.16150895
114	0x3de0828d	0.109624006
115	0xbe4cf630	-0.20015788
116	0x3e46d165	0.19415815
117	0xbe786955	-0.24258931
118	0x3e22e503	0.15907674
119	0x3e726457	0.23671089
120	0x3d909dad	0.07061324
121	0x3e34e05a	0.17663708
122	0xbe394d72	-0.1809595
123	0xbe122e45	-0.14275463
124	0x38f81817	0.000118300486
125	0x3ec46312	0.38356835
126	0x3da32a8a	0.07967098
127	0x3dc69bd4	0.096976906
128	0xbe62820c	-0.22119921
129	0x3e020a99	0.12699355
130	0xbde7072b	-0.11280664
131	0xbe8b3082	-0.27185446
132	0x3d8c1ca9	0.06841404
133	0xbe80592f	-0.25068042
134	0x3d87ba71	0.06627358
135	0x3d65247d	0.055943
136	0xbe117d54	-0.14207965
137	0x3e657af0	0.22410178
138	0xbe33855e	-0.17531344
139	0x3ca99468	0.020700648
140	0x3e25cd96	0.16191706
141	0x3c7a2b53	0.015269118
142	0x3e4e4fc3	0.20147614
143	0xbdead44d	-0.114662744
144	0xbd9e1635	-0.077190794
145	0xbd693496	-0.056934915
146	0x3e84334d	0.2582039
147	0xbd3bae47	-0.0458205
148	0x3e164cd3	0.14677744
149	0xbb9e493e	-0.0048305085
150	0x3e54d1c9	0.20783152
151	0x3be588bd	0.007004826
152	0xbdb3c596	-0.08777921
153	0x3e8d9b75	0.27657667
154	0x3e4289e1	0.18997909
155	0x3dcbca10	0.0995065
156	0xbe16374f	-0.14669536
157	0x3e09ee11	0.13469721
158	0xbdbe0d6c	-0.09279904
159	0xbe07e6bd	-0.13271613
160	0x3d96c14e	0.07361089
161	0xbdd7bc41	-0.105339535
162	0xbe133a0a	-0.14377609
163	0xbe247e8a	-0.16063896
164	0x3e4fa580	0.20277977
165	0xbe95ca88	-0.29256082
166	0x3d6f307e	0.058395855
167	0x3d852ea6	0.06503038
168	0xbe139e73	-0.14415912
169	0x3d1c05d1	0.038091484
170	0x3eaeb585	0.34122863
171	0x3dee7d7d	0.11645029
172	0xbe90394f	-0.28168723
173	0xbdcf04b6	-0.101083204
174	0xbe57e314	-0.21082717
175	0xbe4eeb81	-0.20207025
176	0xbe3e90d7	-0.1860994
177	0x3e90d4b4	0.2828728
178	0x3d4cd680	0.05000925
179	0x3e31af27	0.17351972
180	0x3ec00c51	0.37509397
181	0x3e036e75	0.12835105
182	0xbe8ead5d	-0.2786664
183	0x3e70668d	0.2347662
184	0x3e062d67	0.13103257
185	0x3e784d9e	0.24248359
186	0xbe874e5f	-0.2642698
187	0x3ddcbe18	0.10778445
188	0x3df6290d	0.120195486
189	0x3d53c7cb	0.05170421
190	0xbe94953a	-0.290201
191	0xbe6e630a	-0.23279968
192	0x3e367d30	0.17821193
193	0x3d7c448e	0.061588816
194	0xbe891de6	-0.26780623
195	0xbdc1e0b0	-0.09466684
196	0xbe8a3177	-0.26990864
197	0x3e5fdc5c	0.21861404
198	0xbd16a211	-0.036775652
199	0x3e07d981	0.13266565
200	0xbea158b1	-0.3151298
201	0xbe15a3ab	-0.14613216
202	0xbdbbf81a	-0.09178181
203	0x3db5818a	0.08862598
204	0xbe425f3b	-0.1898164
205	0x3e40f494	0.18843299
206	0x3e61fea9	0.22069801
207	0xbe185196	-0.14874873
208	0x3e4bdeea	0.19909254
209	0x3c3875e0	0.011258572
210	0xbe31271e	-0.17300078
211	0x3e17e121	0.14831974
212	0x3e804ce9	0.25058678
213	0xbe460d98	-0.19341123
214	0x3e91e977	0.28498432
215	0x3e8f2502	0.27957922
216	0x3d86c162	0.065798536
217	0xbe8a5ebd	-0.27025405
218	0xbdaa3dce	-0.083125696
219	0xbca661a3	-0.020310229
220	0x3eba61af	0.36402652
221	0xbe42e3b8	-0.1903218
222	0xbe8edafb	-0.27901444
223	0x3e915612	0.2838598
224	0x3d4e6811	0.050392214
225	0xbddc3867	-0.107529454
226	0x3e393c2c	0.1808936
227	0x3d1cf538	0.038319796
228	0x3df8796d	0.12132535
229	0x3e42985f	0.19003437
230	0xbeb35256	-0.35023755
231	0xbea0ba10	-0.31391954
232	0x3e820589	0.25394848
233	0x3cec6d0b	0.02886059
234	0x3d2e1159	0.042497013
235	0xbd1b1321	-0.03786004
236	0x3e171613	0.14754514
237	0x3e5dd13a	0.21661845
238	0x3d4628d2	0.048378773
239	0x3e4d5ed3	0.20055704
240	0xbe913c59	-0.28366354
241	0x3e8fa2c7	0.28053877
242	0x3e79cd0c	0.24394625
243	0xbcdf5120	-0.027260363
244	0x3e037ba4	0.12840134
245	0x3e746dc0	0.23869991
246	0xbd63c0d7	-0.05560383
247	0xbe8f7ed9	-0.28026465
248	0x3e861af0	0.26192427
249	0xbe63c9e8	-0.2224499
250	0xbe5753fb	-0.2102813
251	0xbe512382	-0.20423701
252	0x3e976554	0.29569495
253	0xbdb2c0ac	-0.087281555
254	0xbe53ec8f	-0.20695709
255	0xbe27b202	-0.16376498

layers.0.bias f4 [64]
0	0x3d25a802	0.040443428
1	0xbc29415f	-0.010330527
2	0x391dfb36	0.0001506627
3	0x3bcd43d0	0.0062641874
4	0xbc8ac09d	-0.016937548
5	0xbd93426e	-0.07190405
6	0xbd0b4d79	-0.03400943
7	0xbca9c905	-0.020725736
8	0xba275d7d	-0.0006384475
9	0x3d4ff1b1	0.050767604
10	0x3a43ca23	0.00074687804
11	0x3d1f490d	0.038888026
12	0xbd0c94b3	-0.034321498
13	0xbd135f89	-0.03597978
14	0xbc4d76b1	-0.012540505
15	0x3cdd4d86	0.027014505
16	0x3c811537	0.015757186
17	0xbc30995d	-0.010778752
18	0xbc5bb0a3	-0.013408813
19	0x3d1de8fb	0.038552266
20	0xbcbc6400	-0.022996902
21	0x3b8ad5d8	0.004236918
22	0x3a418fc0	0.0007383786
23	0x3d33694a	0.043801583
24	0xb9878cdc	-0.00025854155
25	0xba3efe0f	-0.00072857825
26	0xbcb8aca0	-0.022543252
27	0xbc27f47d	-0.010251162
28	0x3cb79d68	0.022413924
29	0xbc53491d	-0.0128958495
30	0xbc09a865	-0.008401965
31	0xbd565640	-0.05232835
32	0xbd3e6bac	-0.046489403
33	0xbcef08ca	-0.029178996
34	0x3d62fed9	0.055418823
35	0xbd63678e	-0.05551868
36	0x3da228b8	0.07917923
37	0xbb64e1cb	-0.0034924622
38	0x3cc90bb8	0.02454172
39	0xbca856fe	-0.020549294
40	0x3d4873d8	0.048938602
41	0x3c456bec	0.012049656
42	0x39f5bbb7	0.000468699
43	0x3ca4979a	0.02009182
44	0x3d1dbedc	0.038512096
45	0xbc1b4783	-0.009477499
46	0xbd26bf81	-0.040709976
47	0xbb834eb7	-0.0040071863
48	0xbd1fc3fe	-0.039005272
49	0x3d3af228	0.045641094
50	0xbc5f5682	-0.013631465
51	0x3c8ec6b0	0.017428726
52	0xbbbbf93e	-0.005736499
53	0x3bd83609	0.0065982384
54	0xb9be6c82	-0.0003632047
55	0x3c6c724b	0.014431546
56	0x3c19efc9	0.009395548
57	0xbcf0bcac	-0.02938684
58	0xbc95331b	-0.018212846
59	0xbbdd3654	-0.006750861
60	0x3c8b5051	0.017006071
61	0x3d3dda14	0.046350554
62	0x3d291224	0.041277066
63	0xbdd3ab7d	-0.10335443

layers.2.weight f4 [64, 64]
0	0x3dca4cc1	0.09877921
1	0x3c13bc30	0.009017035
2	0xbd743880	-0.059624195
3	0x3e26c672	0.16286638
4	0xbe1e6863	-0.15469508
5	0x3d59cc51	0.053173367
6	0x3e38cc88	0.18046772
7	0xbe4db350	-0.20087934
8	0x3df3406c	0.11877522
9	0xbd75345b	-0.059864383
10	0xbe49faea	-0.19724622
11	0xbdfcce0a	-0.12343986
12	0xbdd6a5af	-0.104808204
13	0xbd24a56e	-0.04019683
14	0xbd14876f	-0.036261972
15	0x3d02468c	0.03180556
16	0xbe2d7b1a	-0.16941491
17	0x3e058a13	0.13040952
18	0x3e1599d7	0.14609466
19	0xbd6e685c	-0.058204994
20	0xbe1f35cd	-0.15547867
21	0xbd2e4e23	-0.042554986
22	0xbcf5e176	-0.030014735
23	0xbda330cb	-0.07968291
24	0x3d29a791	0.04141957
25	0xbe26ac00	-0.1627655
26	0x3d9779d9	0.073962875
27	0xbe1e9dc7	-0.15489875
28	0x3cd83d6d	0.026396478
29	0x3e5245c3	0.20534424
30	0x3e427e0e	0.18993399
31	0xbe1a3487	-0.150591
32	0xbdbd6efe	-0.09249686
33	0xbd90244e	-0.070381746
34	0xbdcaa530	-0.09894788
35	0x3e74bfb5	0.23901255
36	0x3d4807c9	0.04883555
37	0x3e1066ff	0.1410179
38	0xbd3d6721	-0.04624093
39	0xbe411f97	-0.18859707
40	0x3d60960b	0.054830592
41	0x3e053e18	0.13011968
42	0xbe51645f	-0.20448445
43	0xbe3f78f0	-0.18698478
44	0xbe1a83aa	-0.15089288
45	0xbd782801	-0.060585026
46	0x3e3102e7	0.17286263
47	0x3e554719	0.20827903
48	0xbd998ff8	-0.07498163
49	0xbb91d1f2	-0.0044500763
50	0xbe4f537b	-0.20246689
51	0x3e153420	0.14570665
52	0x3d04c55c	0.03241478
53	0x3cce3a44	0.025174268
54	0x3e2566a9	0.16152443
55	0x3dde3a71	0.108509906
56	0x3dac9142	0.08426143
57	0xbd23c3ea	-0.03998176
58	0x3ddbaaf9	0.1072597
59	0x3e512d49	0.20427431
60	0x3e5a96b1	0.21346547
61	0xbe68c3d7	-0.22730957
62	0xbd9ab55a	-0.07554121
63	0x3e5621f3	0.20911388
64	0x3b07a2b3	0.0020696342
65	0x3e1b58b4	0.15170556
66	0xbe2a5650	-0.16634488
67	0xbb3f4e5e	-0.0029190998
68	0x3e073e07	0.13207255
69	0x3e187805	0.14889534
70	0x3d2a0f99	0.04151878
71	0xbe4ca239	-0.19983758
72	0xbe0034ef	-0.12520193
73	0xbe0dc605	-0.1384507
74	0x3e384423	0.17994742
75	0x3d344c97	0.044018354
76	0x3e0c9724	0.1372953
77	0xbe1b0831	-0.15139844
78	0x3d8980c5	0.06714014
79	0x3cad928a	0.02118804
80	0x3e212225	0.15735681
81	0xbe29dcb9	-0.16588105
82	0x3aa78fa5	0.0012783898
83	0xbd5559c6	-0.052087568
84	0xbd9a4d6b	-0.075342976
85	0x3d4e135e	0.05031144
86	0xbdc2686a	-0.09492572
87	0x3e0f33e3	0.13984637
88	0xbe1d73f7	-0.15376268
89	0x3e288167	0.16455613
90	0xbe388e21	-0.18022968
91	0xbe37cd51	-0.17949416
92	0xbcc35abe	-0.02384698
93	0x3e696123	0.22790961
94	0x3e295512	0.16536358
95	0x3dbfc51c	0.093637675
96	0x3dc76c08	0.09737402
97	0xbc103169	-0.008800843
98	0xbe47b51d	-0.19502683
99	0x3e43e114	0.19128829
100	0x3d02a77e	0.031898014
101	0x3e03b5f9	0.12862386
102	0x3e3a4cd0	0.18193364
103	0x3c99d1e3	0.01877684
104	0x3e39ebf8	0.18156421
105	0xbb553875	-0.0032534872
106	0xbdee4c88	-0.11635691
107	0x3e20d5a2	0.15706494
108	0xbd2952a1	-0.041338567
109	0x3deceb9b	0.11568376
110	0xbe0160de	-0.12634608
111	0xbdb424d1	-0.08796085
112	0x3bb33611	0.0054690917
113	0x3de14581	0.10999585
114	0xbe0cda15	-0.13755067
115	0xbe093ffc	-0.13403314
116	0x3e69a905	0.22818382
117	0xbe34ba4b	-0.1764919
118	0xbdf096f8	-0.11747545
119	0x3e06461d	0.13112684
120	0x3de847a0	0.113417864
121	0xbe0388cb	-0.12845151
122	0x3d51cf8a	0.051223315
123	0xbde1e3f2	-0.11029805
124	0xbd489fce	-0.048980527
125	0x3d0ea8c7	0.034828927
126	0xbda907e0	-0.08253455
127	0xbdb8f3b3	-0.09030857
128	0x3c9c7876	0.019100409
129	0xbd9efc28	-0.07762939
130	0x3e15d5d1	0.14632346
131	0xbe11a99d	-0.14224859
132	0xbe7a7032	-0.24456862
133	0x3e2affc0	0.16699123
134	0x3e8d1166	0.27552336
135	0xbe4efc3d	-0.20213409
136	0xbe46faba	-0.19431582
137	0xbe6285fc	-0.22121423
138	0xbde4a712	-0.11164679
139	0x3e6b7fac	0.22997922
140	0xbe7437c7	-0.23849402
141	0x3bee102b	0.007265111
142	0x3d7a9ca0	0.061184525
143	0x3d84533d	0.06461189
144	0x3e04b556	0.12959799
145	0x3d671627	0.05641761
146	0xbd99251f	-0.074777834
147	0x3e8085bf	0.2510204
148	0x3da81baa	0.082084015
149	0xbe32d46a	-0.17463842
150	0xbe38bc7b	-0.1804065
151	0x3df84f74	0.121245295
152	0x3e573336	0.21015629
153	0xbddfe460	-0.10932231
154	0xbd835d40	-0.064142704
155	0xbe2d810b	-0.16943757
156	0x3ccbbbe0	0.02486986
157	0xbd59fc12	-0.05321891
158	0x3e557c63	0.20848231
159	0xbd88e548	-0.06684357
160	0xbca5d74f	-0.020244269
161	0xbe3affa4	-0.18261582
162	0x3cb93060	0.022606075
163	0xbcf9135f	-0.030404745
164	0x3cd0c892	0.025486264
165	0x3dcef39a	0.10105057
166	0xbdeffaa0	-0.11717725
167	0x3d244363	0.040103327
168	0x3d9af0b8	0.07565445
169	0x3e0d78f4	0.13815671
170	0xbddb6e15	-0.10714356
171	0x3ddbbb1f	0.1072905
172	0x3e1a4c4f	0.15068172
173	0xbdfa781d	-0.12229941
174	0xbbfba95f	-0.0076801027
175	0xbe714950	-0.23563123
176	0x3e2326ce	0.15932772
177	0x3e2bb2f9	0.16767491
178	0xbdd0f13f	-0.10202264
179	0x3db82ea9	0.08993275
180	0x3d8e46be	0.06947087
181	0xbe0c835f	-0.13721989
182	0xbe369149	-0.1782886
183	0x3dd57ae4	0.1042383
184	0x3dcc82ff	0.09985923
185	0x3d869dbc	0.06573054
186	0x3d596785	0.05307724
187	0x3e55a508	0.20863736
188	0xbd69d2d3	-0.057085823
189	0x3de1af2c	0.110197395
190	0x3e6fc626	0.23415431
191	0x3ced255a	0.028948475
192	0xbe2fb6f3	-0.17159633
193	0x3cb706dc	0.022342138
194	0x3e53beac	0.20678204
195	0xbde35bf8	-0.11101526
196	0xbe2b958b	-0.16756265
197	0xbda76bfd	-0.08174894
198	0xbd3319c1	-0.043725733
199	0xbe4cc4af	-0.19996904
200	0xbe264dff	-0.1624069
201	0xbda0c5b8	-0.07850212
202	0x3e185fa6	0.14880237
203	0xbd39dfcf	-0.045379456
204	0x3e735081	0.23761179
205	0x3e3cf2b0	0.18451953
206	0xbc17aed3	-0.00925799
207	0xbe14faf9	-0.14548863
208	0x3d34e47f	0.044163223
209	0x3c7be9c5	0.015375559
210	0x3d7e17b9	0.062034342
211	0xbe591992	-0.2120116
212	0x3dd26de9	0.1027487
213	0x3b50e130	0.0031872503
214	0xbdff2022	-0.12457301
215	0xbdbefbde	-0.093253836
216	0xbdfa0a11	-0.12208951
217	0x3dd054b6	0.10172407
218	0xbde563a1	-0.11200643
219	0x3e420c27	0.18949948
220	0x3e767694	0.24068671
221	0x3e11d1fc	0.14240259
222	0xbd71fac0	-0.059077024
223	0x3d78616e	0.06063979
224	0xbe4e2fe1	-0.20135452
225	0x3de3049e	0.11084865
226	0xbcac43c8	-0.021028414
227	0x3c026231	0.007957981
228	0x3e529306	0.20563897
229	0x3e8001ae	0.25001281
230	0x3dab7f58	0.08373898
231	0x3e2c0871	0.16800095
232	0xbd5dcf27	-0.054152634
233	0x3dc43bb7	0.09581702
234	0xbe226286	-0.15857896
235	0x3e0b5474	0.13606435
236	0xbdf8c705	-0.12147335
237	0x3e03c659	0.12868632
238	0xbc643384	-0.013928298
239	0x3e3d3d4f	0.18480419
240	0xbe5e8e9e	-0.21734092
241	0x3e3c075c	0.18362182
242	0xbe1530c4	-0.14569384
243	0xbdcfaa28	-0.101398766
244	0xbdf2e8c4	-0.11860803
245	0xbe3cdb9c	-0.1844315
246	0x3dc8379f	0.09776234
247	0x3dd516eb	0.10404762
248	0xbcb46652	-0.022021446
249	0x3c472a06	0.012156015
250	0xbe667fb5	-0.22509654
251	0x3db927bc	0.09040782
252	0x3c1f2ac3	0.009714785
253	0x3dc48ef5	0.095975794
254	0x3e19f8bd	0.15036292
255	0xbe114f67	-0.14190446

layers.2.bias f4 [64]
0	0xbb6ff3e0	-0.0036613867
1	0x3c52ce41	0.012866558
2	0x3c2ad2c4	0.010426227
3	0x3bbf7301	0.005842567
4	0x3849e83a	4.8138412e-05
5	0xbc9c2455	-0.019060293
6	0xbcd6e487	-0.026232017
7	0xbbd76f6e	-0.0065745628
8	0x3be769e6	0.0070621846
9	0x3c9633f7	0.018335326
10	0xbc6ade3b	-0.01433521
11	0x3d206de8	0.039167315
12	0x3d03bdbb	0.032163363
13	0x3bba5e7c	0.005687533
14	0x3b9e6f9c	0.004835082
15	0xbb99b3d8	-0.0046906285
16	0x3afb4275	0.0019169586
17	0x3a929234	0.0011182488
18	0xbc9ace39	-0.018897163
19	0xbb1287d0	-0.0022358783
20	0xbcc0dc25	-0.023542473
21	0x3d58222b	0.05276696
22	0xbceeadb7	-0.029135568
23	0xbd19a1e6	-0.037507914
24	0xbc7f4d89	-0.015582451
25	0xbc56be42	-0.013106884
26	0x3ceef5ef	0.029170005
27	0x3c7664c9	0.0150386775
28	0x3c6039ed	0.013685686
29	0x3d7f8aee	0.062388353
30	0xbd354a32	-0.04426021
31	0x3c52a138	0.01285582
32	0x3c9fec26	0.019521784
33	0x3c2399f4	0.009985436
34	0x3b9816d6	0.004641394
35	0xbd17eea2	-0.037092812
36	0x3bef3e76	0.007301147
37	0x3ce36a22	0.027760569
38	0x3c11f72f	0.008909031
39	0x3c2aeb2d	0.010432047
40	0xbc988069	-0.018615918
41	0x3cd32f56	0.025779407
42	0xbd704c39	-0.05866644
43	0x3d699ebc	0.057036147
44	0x3ceafb3e	0.028684255
45	0xbb48c3e2	-0.0030634333
46	0x3b7ccefb	0.0038575518
47	0xbcffc4d7	-0.03122179
48	0xbca1a566	-0.019732188
49	0x3cea34e6	0.028589677
50	0x386216f7	5.3903987e-05
51	0xbb224c2a	-0.0024764636
52	0x3c1b5320	0.009480268
53	0xbccb4266	-0.024811935
54	0xbd35e1a8	-0.044404656
55	0xbc091923	-0.0083678095
56	0x3c69b8d7	0.014265261
57	0xbd12e6b3	-0.035864543
58	0xbd037c63	-0.032101046
59	0xba84c893	-0.0010130577
60	0xbd010060	-0.0314945
61	0xbbc48fc0	-0.0059985816
62	0xbbbc9662	-0.0057552317
63	0xbc04ef79	-0.008113735

layers.4.weight f4 [64, 64]
0	0xbe5c5307	-0.21516047
1	0xbd7d4a9a	-0.061838724
2	0x3dcbe18f	0.09955131
3	0x3ce38662	0.02777404
4	0xbe048145	-0.12939937
5	0xbe3963fd	-0.18104549
6	0x3dbcdfd5	0.0922238
7	0xbd9a7092	-0.07541002
8	0xbd621463	-0.055195224
9	0x3e3da658	0.18520486
10	0x3e4873b9	0.19575395
11	0xbe44dbfb	-0.19224541
12	0x3c118859	0.0088826055
13	0xbe1a7915	-0.15085252
14	0xbe09f645	-0.1347285
15	0x3df1534b	0.11783465
16	0xbe403022	-0.18768361
17	0x3e46ce25	0.19414575
18	0xbdc44612	-0.09583677
19	0x3e301e7f	0.17199133
20	0xbcdea6b7	-0.027179105
21	0xbe1a6858	-0.15078866
22	0x3d9ebfdc	0.07751438
23	0xbe29e20a	-0.16590133
24	0x3daf9ccd	0.08574829
25	0x3cdff3e0	0.027337968
26	0x3c9f3266	0.019433212
27	0xbe4704ba	-0.19435397
28	0x3ccc0856	0.024906319
29	0xbd877aa1	-0.066151865
30	0xbda2a8c0	-0.07942343
31	0x3d9a670d	0.075391866
32	0xbe442e8b	-0.1915838
33	0x3e14457f	0.14479636
34	0x3da12c3e	0.07869767
35	0x3dfd16d2	0.12357868
36	0xb9951f29	-0.0002844271
37	0xbe3ba6c7	-0.1832534
38	0xbcce9097	-0.02521543
39	0x3e07d5e4	0.13265187
40	0xbd8861ff	-0.06659316
41	0xbdcc0529	-0.09961922
42	0x3dd12de8	0.10213834
43	0x3dc50105	0.09619335
44	0xbcd61ab6	-0.026135784
45	0x3b86e032	0.0041160816
46	0x3c9ffc70	0.019529551
47	0x3db07e52	0.08617844
48	0xbcf12c88	-0.02944018
49	0x3de72c70	0.11287773
50	0xbe00d3a4	-0.12580734
51	0xbc7b107d	-0.015323755
52	0xbe4773d7	-0.19477783
53	0xbe257ccf	-0.16160892
54	0xbdff6b31	-0.12471617
55	0xbe1a9b64	-0.1509834
56	0x3c4e5930	0.012594506
57	0x3d7a5ed7	0.061125603
58	0xbe156f71	-0.14593293
59	0xbdece43a	-0.11566968
60	0xbe101ec2	-0.14074233
61	0x3dc4516e	0.09585844
62	0x3d89209f	0.06695675
63	0xbda00dc2	-0.07815124
64	0xbe464674	-0.19362813
65	0xbd140fd2	-0.0361479
66	0xbddf1575	-0.108927645
67	0x3e1c5b53	0.15269212
68	0xbe436e1f	-0.19084977
69	0x3e72e103	0.23718648
70	0x3e031c41	0.12803747
71	0x3c8411ba	0.016121734
72	0x3e4e3394	0.20136863
73	0x3e3cd2dd	0.18439813
74	0xbd2b577f	-0.04183149
75	0xbb4178a6	-0.0029521375
76	0x3e1678dc	0.14694542
77	0x3db6e95d	0.08931229
78	0xbcca5e6c	-0.024703227
79	0x3e5e00de	0.21680018
80	0x3e3da147	0.18518554
81	0x3debc934	0.11512986
82	0x3e2dd079	0.16974057
83	0xbe5718c0	-0.21005535
84	0x3dc1a9b9	0.094562
85	0xbe70464f	-0.2346432
86	0x3c294392	0.010331051
87	0xbda2ef62	-0.07955815
88	0x3e03d2b0	0.1287334
89	0xbe0f27d5	-0.13980038
90	0xbdfa284f	-0.122147195
91	0xbd27a6d9	-0.040930603
92	0x3e0ae1b1	0.13562657
93	0x3e1fd3e1	0.15608169
94	0xbe133fc4	-0.14379793
95	0x3db97bf1	0.09056843
96	0x3c65886f	0.014009579
97	0xbcaccd60	-0.021094024
98	0xbdb3a0aa	-0.087708786
99	0x3db3d75a	0.087813094
100	0xbd46e13a	-0.048554637
101	0xbe06e4fb	-0.13173287
102	0xbe1ddc98	-0.15416181
103	0xbe49ad55	-0.19695027
104	0xbe3fdeef	-0.18737386
105	0x3e303868	0.17209017
106	0x3ceec021	0.029144349
107	0x3e553286	0.20820054
108	0x3e258e2a	0.16167513
109	0xbe0032fd	-0.1251945
110	0x3e25fb0a	0.16209045
111	0x3e31080c	0.17288226
112	0x3e542340	0.20716572
113	0xbe052784	-0.13003355
114	0x3c5f83fb	0.013642306
115	0x3d421038	0.04737875
116	0x3d8d8922	0.06910922
117	0x3d43138d	0.047626067
118	0x3c405da4	0.011741076
119	0x3dd87169	0.10568506
120	0xbe30ddfe	-0.17272183
121	0xbde3644d	-0.11103115
122	0xbd399771	-0.04531044
123	0xbe01ac36	-0.1266335
124	0xbd739f84	-0.059478298
125	0xbe4453b9	-0.19172563
126	0xbcae37e9	-0.021266894
127	0xbd653989	-0.055963073
128	0x3dfb1f48	0.12261826
129	0x3df69ce8	0.12041646
130	0x3dec7e12	0.115474835
131	0x3d3a8284	0.045534626
132	0xbd8460f0	-0.06463802
133	0xbe2cd794	-0.16879112
134	0x3c28ef3d	0.010310945
135	0xbe10880f	-0.14114402
136	0xbd01c965	-0.031686205
137	0xbe578bfa	-0.2104949
138	0x3e59ad78	0.2125758
139	0xbe392c37	-0.18083273
140	0xbdb373aa	-0.087622955
141	0x3d28fb70	0.041255414
142	0x3da195b7	0.07889884
143	0x3dedb199	0.1160614
144	0x3e0a5ae7	0.13511239
145	0x3e224c8f	0.15849517
146	0xbd31fc5e	-0.043453567
147	0x3ceb2b7c	0.028707258
148	0x3d072e2c	0.033003017
149	0x3e1187b6	0.14211926
150	0x3e20b157	0.1569265
151	0x3c14ac54	0.009074289
152	0xbe49954b	-0.19685857
153	0x3df7eb5e	0.121054396
154	0xbd8be638	-0.0683102
155	0x3d25a8f8	0.040444344
156	0x3e1e8497	0.15480267
157	0x3d3945da	0.04523263
158	0xbe2ce991	-0.16885974
159	0x3e4dd237	0.20099722
160	0x3d883f0d	0.06652651
161	0x3c856465	0.016283223
162	0x3df15968	0.11784631
163	0xbe006a96	-0.1254066
164	0x3e1ec714	0.1550563
165	0x3cfcffe9	0.030883746
166	0xbd35244b	-0.044224065
167	0x3e2be815	0.16787751
168	0x3e17aa37	0.14811026
169	0x3dc1813d	0.09448478
170	0x3d995a58	0.07487935
171	0x3e012e97	0.12615429
172	0xbe2a914c	-0.16656989
173	0xbe2cdd4b	-0.16881292
174	0x3d6d5034	0.057937816
175	0x3dc3ba42	0.0955701
176	0x3e2b090f	0.16702674
177	0xbd2425f7	-0.04007527
178	0x3e136c86	0.14396867
179	0x3e247ce8	0.16063273
180	0x3d38ca37	0.045114722
181	0xbc9dc115	-0.019257108
182	0x3e71db17	0.23618732
183	0xba30b289	-0.0006740471
184	0xbe3c9a83	-0.18418317
185	0x3e132120	0.14368105
186	0xbcb616ad	-0.02222761
187	0x3dc347f7	0.095352106
188	0xbe166270	-0.14685988
189	0xbe2940ca	-0.16528621
190	0x3dff3f3a	0.124632314
191	0xbd27ab9c	-0.040935144
192	0x3e36b87d	0.17843814
193	0x3e3f74de	0.18696925
194	0xbe2e308b	-0.17010705
195	0x3e16ec1a	0.14738503
196	0xbd3fe08e	-0.04684501
197	0x3dbb1f5b	0.0913684
198	0x3e37fc64	0.17967373
199	0x3e5560eb	0.20837753
200	0x3db7de13	0.08977904
201	0x3e05bc52	0.1306012
202	0xbdea0791	-0.114272244
203	0xbe268927	-0.16263257
204	0xbe202d1f	-0.15642212
205	0x3ddc3496	0.107522175
206	0x3d9f57a3	0.07780387
207	0x3e223e08	0.15843976
208	0xbe12fbb1	-0.14353825
209	0xbe3a2977	-0.1817988
210	0xbdd2aac6	-0.10286479
211	0x3d1996f3	0.037497472
212	0x3e275c4a	0.16343799
213	0xbe551b17	-0.20811115
214	0x3d9dfcc5	0.077142276
215	0xbd6eb9cd	-0.058282662
216	0xbcec829e	-0.028870877
217	0xbe424191	-0.18970324
218	0x3c98c6c7	0.018649472
219	0xbdbecccc	-0.09316406
220	0xbda982b6	-0.08276884
221	0x3e04fde9	0.12987484
222	0x3e21df3b	0.15807812
223	0xbdea850e	-0.114511594
224	0xbdf9f3ed	-0.12204728
225	0xbe1962a7	-0.14979039
226	0x3e2b7825	0.1674505
227	0xbe0230a1	-0.12713863
228	0xbe1344a6	-0.14381656
229	0x3e5b30a1	0.21405269
230	0x3e4851bd	0.1956243
231	0x3d2dc61c	0.04242526
232	0xbdb97638	-0.090557516
233	0x3d72a553	0.059239697
234	0x3ab8c8ce	0.001409793
235	0xbd3faad5	-0.046793777
236	0x3d6e4de7	0.058179762
237	0x3bc0bc29	0.0058818054
238	0xbcea8061	-0.028625669
239	0x3e02623e	0.12732789
240	0x3d4cf964	0.050042525
241	0x3e2b620c	0.1673662
242	0x3df12cef	0.117761485
243	0xbd7c0c32	-0.061535068
244	0x3e484137	0.19556127
245	0xbaa4d8de	-0.0012576838
246	0xbe0f21fe	-0.1397781
247	0xbe57dde0	-0.21080732
248	0xbe1fceb4	-0.15606195
249	0xbe3e8d10	-0.18608499
250	0x3e2dd9e9	0.16977657
251	0x3e13464e	0.14382288
252	0xbdf9a982	-0.12190534
253	0xbc30ec07	-0.010798461
254	0xbbfb0c2d	-0.0076613636
255	0x3e61ed2a	0.22063127

layers.4.bias f4 [64]
0	0xbbb5a761	-0.0055436348
1	0xbc0b7aa8	-0.00851313
2	0x3bbaa2e7	0.005695689
3	0xbba0b23e	-0.0049040606
4	0x3bf3d4fd	0.0074411617
5	0x3c0ce4f0	0.008599505
6	0x3c0df9aa	0.008665482
7	0xbb1fee7d	-0.0024403625
8	0xbc113006	-0.008861547
9	0x3c185cd8	0.009299479
10	0xb95bdea0	-0.00020968402
11	0x3c8dc194	0.01730422
12	0x3bf85e27	0.007579583
13	0x3c51f259	0.012814128
14	0xbc9c64b6	-0.019090991
15	0xbc0011fc	-0.007816788
16	0xbac3df78	-0.0014943918
17	0x3c7e2506	0.015511757
18	0xbbf55056	-0.0074863834
19	0xbc590961	-0.013246865
20	0xbc20cb31	-0.00981407
21	0xbd5a7534	-0.05333443
22	0x3c697edd	0.014251438
23	0x3c879a4d	0.016553069
24	0x3ac58c81	0.0015071781
25	0x3b006676	0.0019592321
26	0x3c9d4ceb	0.019201716
27	0xbc191c00	-0.009345055
28	0x3beb6bae	0.0071844673
29	0xbb381bb1	-0.0028092677
30	0x3c56a403	0.013100627
31	0xbcc974e8	-0.024591878
32	0xbc32f8f5	-0.010923614
33	0xbc20bc1c	-0.009810474
34	0x3b4d2ea1	0.003130831
35	0x3b924001	0.0044631963
36	0x3c364e94	0.011127133
37	0x3c83e100	0.0160985
38	0xbda5fc8b	-0.081048094
39	0xbba6f36a	-0.005094935
40	0xbbff1e63	-0.007785605
41	0x3bee9210	0.0072805956
42	0xbb9a83ef	-0.0047154347
43	0x3beed73e	0.0072888425
44	0xbbfc0daf	-0.007692061
45	0xbc26a575	-0.010171284
46	0x3c2ab7e7	0.010419822
47	0x3c1fadf0	0.00974606
48	0xbd2f14a6	-0.0427443
49	0xbc2d0ec6	-0.010562604
50	0x3b7242e0	0.003696613
51	0x3c8fae04	0.017539032
52	0x3c8e6b25	0.017385075
53	0x3bc9e754	0.0061616097
54	0xbbadb67a	-0.005301294
55	0x3cfaf7fa	0.030635823
56	0x3c71234d	0.014717889
57	0xbbc9261e	-0.006138577
58	0xbc0d6836	-0.008630803
59	0xbc9a4270	-0.018830508
60	0xbc744832	-0.014909791
61	0x3d2e5c15	0.042568285
62	0xbc2adf9b	-0.010429288
63	0x3c0b7c4d	0.008513522

layers.6.weight f4 [2, 64]
0	0xbe89e5d8	-0.2693317
1	0xbe303127	-0.1720625
2	0x3e5000ee	0.20312855
3	0xbe2d81bd	-0.16944022
4	0x3e6a5426	0.22883663
5	0xbd22fa30	-0.03978938
6	0x3e5c6481	0.21522714
7	0xbe9eaa50	-0.30989313
8	0xbe946085	-0.2897989
9	0x3e8a55a5	0.27018467
10	0xbe2f4c1a	-0.17118874
11	0xbdfacb6e	-0.122458324
12	0x3e7e7670	0.24849868
13	0x3e6685a8	0.22511923
14	0x3e44321f	0.19159745
15	0xbe6b2261	-0.22962333
16	0xbe56e9d0	-0.2098763
17	0x3e301bd4	0.17198116
18	0xbc686646	-0.01418454
19	0xbcac037c	-0.020997755
20	0x3ce6d752	0.028178845
21	0x3dac325f	0.08408045
22	0xbd8d45b2	-0.06898059
23	0x3deb7f37	0.11498874
24	0xbe058d39	-0.13042153
25	0x3e6e86fc	0.2329368
26	0x3c23e115	0.010002394
27	0xbd63e9b5	-0.055642802
28	0x3eb7c80e	0.35894817
29	0xbe32aea4	-0.17449433
30	0x3e72d1a8	0.2371279
31	0xbd660f97	-0.05616721
32	0xbe804151	-0.25049832
33	0xbe581eca	-0.21105495
34	0x3dd1f1be	0.10251187
35	0x3e2d95dd	0.169517
36	0x3b2dd87e	0.0026526744
37	0x3de36f1b	0.11105176
38	0x3ccb5b6d	0.024823869
39	0xbe37ac2a	-0.17936769
40	0x3d1a407d	0.037659157
41	0xbe25f896	-0.1620811
42	0xbd215730	-0.03938979
43	0x3e420fd2	0.18951347
44	0xbdd17c5b	-0.10228797
45	0xbe3cf86b	-0.18454139
46	0x3da15a1c	0.07878515
47	0xbd999772	-0.07499589
48	0xbc81417b	-0.015778294
49	0x3db5f229	0.08884079
50	0x3e11663f	0.1419916
51	0xbd4b7eae	-0.049681358
52	0x3d9d6369	0.076849766
53	0xbc969887	-0.018383278
54	0xbe1d5b3c	-0.15366834
55	0xbe577a02	-0.21042636
56	0x3dbde38b	0.09271916
57	0xbe2713be	-0.16316125
58	0xbd82a46b	-0.063790165
59	0xbb9ff60b	-0.0048816255
60	0xbe0d1459	-0.13777293
61	0x3da13548	0.07871491
62	0xbe88b27f	-0.26698682
63	0x3e9bd6f6	0.3043744
64	0xbe9083d7	-0.28225586
65	0x3e91dc5a	0.28488427
66	0x3e4da402	0.20082095
67	0xbe74f010	-0.23919702
68	0x3bcb8c2a	0.006211777
69	0xbe8f3d0f	-0.27976272
70	0x3d7eadc4	0.062177435
71	0xbea8db4b	-0.32979807
72	0x3d91c8e1	0.07118393
73	0xbe11ee04	-0.14250952
74	0xbca44ee7	-0.020057155
75	0xbe7afea3	-0.24511199
76	0x3d9439df	0.072376005
77	0xbe40ea3b	-0.18839352
78	0x3e60ec6a	0.21965185
79	0x3e20c489	0.15699972
80	0x3e9ca608	0.30595422
81	0x3e419c73	0.18907337
82	0x3d0dca3b	0.03461669
83	0x3d4cd918	0.050011724
84	0x3e8c0d9d	0.27354136
85	0xbe5bfa25	-0.21482141
86	0xbe6b8e44	-0.23003489
87	0xbe3be2b5	-0.183482
88	0xbe871e7b	-0.26390442
89	0x3ec4d5bf	0.38444325
90	0xbdb9b18e	-0.09067069
91	0x3d38658a	0.04501871
92	0x3e1453a4	0.14485031
93	0xbe92ee0d	-0.28697243
94	0xbe904e62	-0.281848
95	0xbe81fdd9	-0.25388983
96	0x3e24af0a	0.16082397
97	0xbd142955	-0.03617223
98	0x3e96431a	0.2934807
99	0xbd88db3a	-0.06682439
100	0xbdae8fcc	-0.08523521
101	0xbe62e61e	-0.22158095
102	0xbeb70055	-0.3574244
103	0xbe21e98f	-0.15811752
104	0x3e9df410	0.30850267
105	0xbe86ba98	-0.26314235
106	0x3e6ff852	0.2343457
107	0x3e4e2d1f	0.201344
108	0x3dc035a0	0.09385228
109	0x3e14974f	0.14510845
110	0x3d133afd	0.035944927
111	0xbe11f615	-0.14254029
112	0xbe97ab43	-0.2962285
113	0x3e257b4d	0.16160317
114	0x3eb74448	0.35794282
115	0xbea6d533	-0.32584533
116	0xbe4e9802	-0.20175174
117	0xbeae1810	-0.34002733
118	0xbe4a1d62	-0.19737771
119	0x3c6e0c5e	0.014529316
120	0xbe346fa5	-0.17620714
121	0x3bb9fb85	0.0056757354
122	0x3e82f019	0.25573805
123	0x3e953a75	0.29146162
124	0x3dcdd58a	0.10050495
125	0xbea3a3fb	-0.31961045
126	0xbe85118c	-0.2598995
127	0xbde82926	-0.113359734

layers.6.bias f4 [2]
0	0x3c4b7246	0.012417382
1	0xbc87d15b	-0.01657932
