data/results/output_net_4000.pth (torch, 38752 bytes, 8 tensors)

layers.0.weight f4 [64, 5]
0.24785866 -0.16990903 -0.35219002 0.11474953 -0.01312177 0.06942485 -0.02481774 0.054552924
0.28708994 0.257028 0.20869923 0.23149006 0.22312467 0.32059795 0.09906455 0.20611426
-0.021717977 0.049458995 -0.04331796 -0.0804173 0.34286368 0.23047999 -0.04519234 -0.13743055
-9.87433e-05 -0.07318478 0.091594726 0.19114852 -0.18654902 0.075116634 -0.053459395 -0.25640127
0.057952248 0.07783872 -0.02979459 -0.3342094 -0.0068627032 0.14924946 -0.26711372 -0.17529082
0.24000569 -0.1698215 0.10071979 -0.27401683 -0.07557785 0.019291185 0.1250863 -0.07487289
0.15084253 0.049692646 0.30816698 -0.27444074 -0.22602399 -0.047630478 0.17071521 0.18610539
-0.1980845 0.112164356 0.2188329 -0.26193646 0.20441449 0.21121863 0.29506904 0.12463783
-0.17215323 0.17053233 0.18270917 0.3115989 0.014093524 0.011125453 -0.09628186 -0.20658986
0.13646232 0.19744974 -0.22025613 0.07452032 0.26266062 -0.114612356 0.16700998 -0.23672701
0.0646653 -0.12653697 0.038699724 -0.2578659 -0.23964499 0.21187125 -0.026997497 -0.18791722
-0.114924625 -0.08852377 0.14776012 0.07730798 0.24747138 0.2453401 -0.090702504 -0.1514851
0.3232232 -0.3405023 0.028133685 -0.18024118 -0.34782556 0.2471586 0.045459103 -0.080272704
0.22964536 -0.2834498 -0.02234584 -0.20081143 -0.09066809 -0.12857012 0.11839425 0.20557132
0.012626869 -0.16055472 0.12929754 -0.19914386 0.18801558 -0.25595236 0.15522623 0.24688938
0.0699095 0.18021171 -0.17899895 -0.13975762 -0.004006613 0.37368405 0.05409441 0.08387437
-0.22149272 0.12958726 -0.099229634 -0.2758001 0.066933855 -0.24814183 0.06237503 0.04258074
-0.1534043 0.2233611 -0.17291698 -0.017523654 0.1804323 0.013426508 0.20287661 -0.11490873
-0.08099683 -0.055085097 0.26858807 -0.05446858 0.14627732 0.08575983 0.20998709 0.01117083
-0.09141702 0.27372268 0.19950058 0.08300436 -0.13390625 0.14089042 -0.10186909 -0.12494148
0.031069169 -0.08647919 -0.12684904 -0.15737255 0.20001982 -0.24034551 0.0623936 0.060042106
-0.1311236 0.038814902 0.32035246 0.08799384 -0.29048043 -0.09810017 -0.24301066 -0.18718731
-0.16987301 0.30060765 0.04687281 0.1765919 0.33195925 0.08005877 -0.30206835 0.23535444
0.12591985 0.21825428 -0.27227026 0.10010848 0.12118789 0.04850325 -0.2798241 -0.21354364
0.19388796 0.07170498 -0.2750485 -0.07627573 -0.2607943 0.2300221 -0.042305693 0.09093242
-0.3098925 -0.12253424 -0.078654 0.08555183 -0.20858368 0.1857641 0.22072226 -0.15403688
0.19931689 0.01229007 -0.15537521 0.14698984 0.257058 -0.18725805 0.2939978 0.26752797
0.059696957 -0.27411196 -0.08291496 -0.026368674 0.34890857 -0.1960908 -0.28708646 0.28314424
0.05043739 -0.110483184 0.14958592 0.04225003 0.11658283 0.18160892 -0.32602295 -0.29996076
0.24750742 0.0313057 0.05655693 -0.046483766 0.1370065 0.21430996 0.04639107 0.20798397
-0.26196513 0.27664235 0.24154493 -0.027519906 0.12025357 0.22385249 -0.069580756 -0.30607623
0.257621 -0.25150636 -0.21186075 -0.195623 0.29647213 -0.08485637 -0.21455392 -0.13710977
00000000: a9ce 7d3e a2fc 2dbe 4052 b4be cd01 eb3d
00000010: b1fc 56bc 9e2e 8e3d 934e cbbc e372 5f3d
00000020: 74fd 923e 2d99 833e 40b5 553e bb0b 6d3e
00000030: cb7a 643e 6a25 a43e 5be2 ca3d 9e0f 533e
00000040: e6e9 b1bc 8495 4a3d 2c6e 31bd d3b1 a4bd
00000050: d48b af3e f202 6c3e 9a1b 39bd 98ba 0cbe
00000060: 6814 cfb8 e7e1 95bd 0496 bb3d 70bc 433e
00000070: b506 3fbe c0d6 993d 3df8 5abd 0747 83be
00000080: 565f 6d3d e869 9f3d c913 f4bc 7f1d abbe
00000090: 87e0 e0bb dad4 183e 21c3 88be 707f 33be
000000a0: 0dc4 753e b0e5 2dbe 2d46 ce3d ef4b 8cbe
000000b0: 8fc8 9abd 8c08 9e3c 9f16 003e f556 99bd
000000c0: 7776 1a3e 848a 4b3d 10c8 9d3e 7f83 8cbe
000000d0: d572 67be 2d18 43bd f8cf 2e3e 6992 3e3e
000000e0: aad6 4abe 6db6 e53d bb15 603e 891c 86be
000000f0: 0852 513e b249 583e 4a13 973e 1e42 ff3d
00000100: f048 30be 07a0 2e3e 1d18 3b3e e489 9f3e
00000110: 86e8 663c 8847 363c 6c2f c5bd 4b8c 53be
00000120: c7bc 0b3e 4430 4a3e d38a 61be 1c9e 983d
00000130: 747b 863e e2b9 eabd aa04 2b3e 9168 72be
00000140: 3e6f 843d e892 01be 9a83 1e3d 0007 84be
00000150: 7f65 75be c7f4 583e db29 ddbc 5f6d 40be
00000160: 9a5d ebbd f34b b5bd 6e4e 173e a553 9e3d
00000170: 2369 7d3e 6f3a 7b3e 3cc2 b9bd e91e 1bbe
00000180: 837d a53e 5156 aebe 9d78 e63c 2591 38be
00000190: 3116 b2be 2517 7d3e 5333 3a3d 0466 a4bd
000001a0: 2728 6b3e 5520 91be a00e b7bc 83a1 4dbe
000001b0: 31b0 b9bd e3a7 03be af78 f23d 4a81 523e
000001c0: ede0 4e3c 7568 24be 9366 043e 5eec 4bbe
000001d0: 2887 403e 300c 83be a0f3 1e3e 92d0 7c3e
000001e0: b62c 8f3d 6b89 383e 804b 37be 9f1c 0fbe
000001f0: e849 83bb 8453 bf3e 1a92 5d3d 53c6 ab3d
00000200: fdce 62be 86b2 043e e838 cbbd ac35 8dbe
00000210: 9e14 893d e418 7ebe f67c 7f3d 2469 2e3d
00000220: 0416 1dbe c6b8 643e 2611 31be c48d 8fbc
00000230: 3fc3 383e dbfa 5b3c e3be 4f3e 4555 ebbd
00000240: aae1 a5bd e9a0 61bd 6084 893e 721a 5fbd
00000250: b9c9 153e daa2 af3d db06 573e db05 373c
00000260: d938 bbbd 6125 8c3e e149 4c3e 31fe a93d
00000270: b81e 09be 9445 103e bea0 d0bd 52e1 ffbd
00000280: c584 fe3c 001c b1bd b7e4 01be 4526 21be
00000290: ffd1 4c3e 221d 76be 6e90 7f3d b6ee 753d
000002a0: 4445 06be 60fc 1e3d 3d05 a43e 1d36 b43d
000002b0: dab9 94be bee8 c8bd c9d7 78be 08ae 3fbe
000002c0: 31f3 2dbe 3fe9 993e b4fd 3f3d 82d4 343e
000002d0: 90f6 a93e daf5 a33d b4a8 9abe c100 713e
000002e0: 22f1 003e 0d7e 5f3e 0267 8bbe ad05 cd3d
000002f0: 5b31 f83d 58ab 463d 1b45 8fbe 2fab 5abe
00000300: 918a 463e 10da 923d 28d3 8cbe 7336 9cbd
00000310: d586 85be ea8a 6b3e bc48 2dbd c73a ba3d
00000320: 3baa 9ebe 3bf3 fabd 5915 a1bd cc35 af3d
00000330: f696 55be f238 3e3e 0405 623e d8bb 1dbe
00000340: ba19 4c3e 4a5c 493c ae1a 1fbe 8184 163e
00000350: 1b9d 833e 93c0 3fbe e186 963e 6df9 883e
00000360: cc84 743d 6758 8cbe 52cf a9bd 1e03 d8bc
00000370: 25a4 b23e 07cc 48be fffc 92be 48f8 903e
00000380: 7097 4e3d 0245 e2bd 0d2d 193e 5e0e 2d3d
00000390: fbc2 ee3d b0f7 393e 7bec a6be 7594 99be
000003a0: 9672 7d3e 683a 003d 3da8 673d c365 3ebd
000003b0: 6f4b 0c3e 1274 5b3e 9004 3e3d c0f9 543e
000003c0: 4b20 86be 11a4 8d3e 8e57 773e 6d71 e1bc
000003d0: 8147 f63d 9639 653e 5b80 8ebd 06b6 9cbe
000003e0: e6e6 833e 71c5 80be 06f2 58be 6551 48be
000003f0: 32cb 973e 2dc9 adbd 06b4 5bbe 8166 0cbe

layers.0.bias f4 [64]
0.038924765 -0.008555961 -0.0009168218 0.0031292115 -0.014523852 -0.05466683 -0.028920162 -0.015662864
-0.0077266544 0.048662536 0.004040586 0.02565932 -0.032723084 -0.03235973 -0.012450279 0.022914823
0.009072909 -0.012753861 -0.0140861 0.035807647 -0.02264165 0.0029120878 0.0049823467 0.04422807
0.00018914402 0.0017828128 -0.018968778 -0.01671451 0.020681113 -0.004208917 -0.0077252723 -0.048042614
-0.05220359 -0.022625748 0.04047874 -0.04839255 0.06255258 -0.005009444 0.020144477 -0.022263035
0.040752135 0.012578984 0.0006929086 0.017824013 0.034709517 -0.011585829 -0.029585412 -0.0005293969
-0.038350288 0.033293866 -0.013056924 0.020309782 0.00012212725 0.004186499 -0.0035474629 0.0130058285
0.010326266 -0.03367789 -0.0134414015 -0.003784752 0.014591582 0.045803435 0.03695775 -0.0868213
00000000: 936f 1f3d 4d2e 0cbc df56 70ba 7513 4d3b
00000010: 73f5 6dbc 53ea 5fbd fae9 ecbc 684f 80bc
00000020: e02f fdbb 5e52 473d e466 843b 7f33 d23c
00000030: a408 06bd a38b 04bd 41fc 4bbc deb7 bb3c
00000040: 8aa6 143c 92f5 50bc 63c9 66bc 0aab 123d
00000050: fb7a b9bc bad8 3e3b f442 a33b 7e28 353d
00000060: f654 4639 45ad e93a 6964 9bbc deec 88bc
00000070: 706b a93c f4ea 89bb 4824 fdbb 55c8 44bd
00000080: 6ed3 55bd a259 b9bc 09cd 253d 4437 46bd
00000090: 911b 803d 4326 a4bb 0806 a53c f860 b6bc
000000a0: b6eb 263d 1518 4e3c 4fa4 353a aa03 923c
000000b0: 912b 0e3d 7dd2 3dbc 1b5d f2bc 39c7 0aba
000000c0: 3115 1dbd 265f 083d b5ec 55bc b360 a63c
000000d0: 490f 0039 e62e 893b 8d7c 68bb 6616 553c
000000e0: 802f 293c d4f1 09bd 5339 5cbc 9a09 78bb
000000f0: 8811 6f3c 629c 3b3d 0261 173d 5ecf b1bd

layers.2.weight f4 [64, 64]
0.09298982 0.0048605534 -0.06822164 0.14939816 -0.16732141 0.052644897 0.16724078 -0.19540417
0.11251202 -0.058404718 -0.21407308 -0.15339254 -0.1402143 -0.05453571 -0.043785512 0.030615075
-0.17163122 0.12298328 0.12548222 -0.050420698 -0.11241182 -0.014373502 -0.030553525 -0.07035758
0.05620397 -0.1715314 0.075519964 -0.15827146 0.018691324 0.20799764 0.18495964 -0.15723087
-0.0909071 -0.05518586 -0.12076289 0.23807845 0.04788672 0.09792641 -0.023323352 -0.19041575
0.06716084 0.12781422 -0.1958448 -0.20699799 -0.15659578 -0.05540062 0.17870158 0.20899373
-0.028892323 -0.00841533 -0.20332827 0.15838312 0.04382921 0.030711416 0.15282479 0.09533812
0.10935223 -0.031551532 0.11044645 0.21398006 0.20689738 -0.20781772 -0.06892401 0.21411793
-0.00011949818 0.14813727 -0.16864406 0.0006668145 0.14276479 0.15265249 0.021920774 -0.19833791
-0.124826595 -0.13989002 0.18317765 0.030358119 0.13746502 -0.14472005 0.047726437 0.019934632
0.15817375 -0.16133824 -0.0040793926 -0.052140728 -0.07264823 0.0418837 -0.08216402 0.14220709
-0.13206728 0.16861449 -0.17877465 -0.1782448 -0.021363027 0.22797589 0.16272567 0.093525894
0.10153944 -0.006648134 -0.17757654 0.18660662 0.03162402 0.11685546 0.15767252 0.01739704
0.1735132 -0.0038980136 -0.11165976 0.17860751 -0.04354173 0.115801685 -0.13502505 -0.08413561
0.006185934 0.10750381 -0.13976716 -0.12959659 0.22722524 -0.1768304 -0.11671387 0.12471697
0.16223618 -0.13183892 0.04712623 -0.13618039 -0.05728053 0.042344455 -0.08345554 -0.094500095
0.017951075 -0.08363433 0.14357474 -0.12893483 -0.2242908 0.17222239 0.24051088 -0.20050204
-0.18943627 -0.22208068 -0.114807434 0.22905919 -0.22881763 0.024851639 0.051877804 0.07035858
0.13423371 0.06807388 -0.07423734 0.2593117 0.072181165 -0.17644733 -0.16615397 0.115185566
0.22997135 -0.100666806 -0.065504216 -0.16892713 0.033923887 -0.051096156 0.20548588 -0.06397124
-0.021013295 -0.18383874 0.04653169 -0.04721269 0.024495795 0.09006389 -0.124523856 0.029534083
0.064438745 0.13985233 -0.1096917 0.12423841 0.14887069 -0.12663056 -0.017716696 -0.24278015
0.15266721 0.16792323 -0.10332698 0.08473438 0.048480485 -0.13276257 -0.17823039 0.10451753
0.11547754 0.054194797 0.04025438 0.18788745 -0.07099032 0.12888908 0.23196793 0.025248352
-0.1687942 0.027372478 0.20730542 -0.11922151 -0.18128946 -0.08633382 -0.018675381 -0.20106561
-0.16467866 -0.076581776 0.14558814 -0.037450146 0.21407601 0.16947728 0.009089933 -0.14482397
0.04126544 0.009070145 0.061431848 -0.20989405 0.108576074 0.0284582 -0.13948019 -0.09332566
-0.14302692 0.09532394 -0.11339571 0.18652806 0.23372358 0.14389734 -0.055606697 0.058924295
-0.20379397 0.11203662 -0.047413256 0.016181422 0.20522824 0.25298673 0.11316566 0.16924988
-0.044066112 0.096365884 -0.16392775 0.110396124 -0.119222455 0.13116287 0.00040276386 0.18033423
-0.21214691 0.18593119 -0.14482328 -0.10191165 -0.112183794 -0.18113986 0.09294469 0.10950589
-0.061971463 0.0244981 -0.21859635 0.11851207 0.020655178 0.09322232 0.1531083 -0.13531485
00000000: 7271 be3d 4745 9f3b cab7 8bbd d5fb 183e
00000010: 4e56 2bbe 2da2 573d 2b41 2b3e 0818 48be
00000020: b46c e63d c939 6fbd f935 5bbe ef12 1dbe
00000030: 5694 0fbe d660 5fbd 7058 33bd 77cc fa3c
00000040: 18c0 2fbe a8de fb3d 697e 003e ef85 4ebd
00000050: 2b38 e6bd d67e 6bbc 634b fabc a317 90bd
00000060: 2236 663d eda5 2fbe 36aa 9a3d ea11 22be
00000070: 8c1e 993c 55fd 543e 0f66 3d3e 2101 21be
00000080: 802d babd 910a 62bd 8952 f7bd d6ca 733e
00000090: de24 443d a48d c83d 9d10 bfbc 59fc 42be
000000a0: 9f8b 893d bbe1 023e 8a8b 48be 48f7 53be
000000b0: a55a 20be c3eb 62bd 8cfd 363e 7402 563e
000000c0: 98af ecbc 74e0 09bc 4935 50be 2f2f 223e
000000d0: 4286 333d 8296 fb3c 1a7e 1c3e a240 c33d
000000e0: 10f4 df3d 2e3c 01bd c031 e23d 971d 5b3e
000000f0: e8dc 533e 2bce 54be 0828 8dbd bb41 5b3e
00000100: 199b fab8 4cb1 173e 07b1 2cbe 2acd 2e3a
00000110: ef30 123e ef50 1c3e 3293 b33c 1819 4bbe
00000120: 16a5 ffbd 543f 0fbe ec92 3b3e 97b1 f83c
00000130: a1c3 0c3e 7e31 14be cc7c 433d f44d a33c
00000140: 4df8 213e da35 25be 6dac 85bb 8491 55bd
00000150: 98c8 94bd 3e8e 2b3d 9c45 a8bd bc9e 113e
00000160: a53c 07be 47a9 2c3e b410 37be ce85 36be
00000170: 8401 afbc 8372 693e 8fa1 263e 818a bf3d
00000180: e9f3 cf3d 97d8 d9bb a0d6 35be ce15 3f3e
00000190: 3088 013d ea51 ef3d e874 213e 3d84 8e3c
000001a0: 72ad 313e d175 7fbb dfad e4bd e3e4 363e
000001b0: d058 32bd 6f29 ed3d 0244 0abe 4a4f acbd
000001c0: 60b3 ca3b f52a dc3d 1f1f 0fbe f8b4 04be
000001d0: bcad 683e 0713 35be ae07 efbd 9c6b ff3d
000001e0: 3e21 263e c800 07be 6f07 413d df72 0bbe
000001f0: fd9e 6abd 6171 2d3d bdea aabd 4489 c1bd
00000200: 220e 933c 7a48 abbd 4205 133e 7e07 04be
00000210: 7dac 65be 115b 303e 7c48 763e 6850 4dbe
00000220: 95fb 41be 1e69 63be 2920 ebbd 7e8e 6a3e
00000230: 2b4f 6abe aa95 cb3c d27d 543d 2918 903d
00000240: 9074 093e 526a 8b3d bf09 98bd 81c4 843e
00000250: b8d3 933d 9cae 34be 4424 2abe 69e6 eb3d
00000260: 9c7d 6b3e 662a cebd 1327 86bd 3cfb 2cbe
00000270: c6f3 0a3d 344a 51bd e46a 523e 5a03 83bd
00000280: 1324 acbc 3940 3cbe 0398 3e3d 1862 41bd
00000290: 68ab c83c 6b73 b83d 5d06 ffbd 76f1 f13c
000002a0: 76f8 833d 7335 0f3e 0ba6 e0bd b570 fe3d
000002b0: 8f71 183e 71ab 01be 9b22 91bc 5c9b 78be
000002c0: cb54 1c3e 11f4 2b3e 189d d3bd 3889 ad3d
000002d0: 7993 463d e9f2 07be 0782 36be 490d d63d
000002e0: 7d7f ec3d 5dfb 5d3d c7e1 243d 9165 403e
000002f0: 5f63 91bd 80fb 033e 0089 6d3e a2d5 ce3c
00000300: 63d8 2cbe 3f3c e03c df47 543e 682a f4bd
00000310: f2a3 39be c9cf b0bd 1dfd 98bc 25e4 4dbe
00000320: 86a1 28be e8d6 9cbd 0f15 153e 5365 19bd
00000330: be36 5b3e 748b 2d3e f1ed 143c bc4c 14be
00000340: f305 293d f29a 143c f69f 7b3d 77ee 56be
00000350: 225d de3d 2c21 e93c e5d3 0ebe 8621 bfbd
00000360: a675 12be 3339 c33d 033c e8bd 3601 3f3e
00000370: 3c55 6f3e d359 133e d9c3 63bd 9a5a 713d
00000380: 5eaf 50be 7573 e53d 6734 42bd e78e 843c
00000390: 5a27 523e 7a87 813e 66c3 e73d d74f 2d3e
000003a0: ab7e 34bd 7a5b c53d addc 27be 5d17 e23d
000003b0: e72a f4bd 8f4f 063e 0d2a d339 89a9 383e
000003c0: 0a3d 59be bf64 3e3e 8e4c 14be 0eb7 d0bd
000003d0: 9ec0 e5bd ba7c 39be c959 be3d a044 e03d
000003e0: cad5 7dbd 3db0 c83c b9d7 5fbe 75b6 f23d
000003f0: 0c35 a93c 58eb be3d 6cc8 1c3e fa8f 0abe

layers.2.bias f4 [64]
0.0049153636 0.011843212 0.0036845584 0.0046350756 -0.0007670042 -0.0161651 -0.027709706 -0.015019306
0.007422775 0.0149597665 -0.012510855 0.036381662 0.031470824 0.0052037276 0.004918258 -0.006381508
0.0026564158 0.002964806 -0.0149563 -0.0030179345 -0.017697662 0.04253462 -0.02636052 -0.025594436
-0.016132347 -0.0057596005 0.016601883 0.016016109 0.018154873 0.057966016 -0.009141443 0.0062270225
0.029146893 0.016028436 0.000312429 -0.038639676 0.011764357 0.021187723 0.0077259145 0.010671335
-0.015348762 0.026544275 -0.039649993 0.046963036 0.021517204 -0.0046195607 -0.00016786474 -0.031817593
-0.009948445 0.013329016 -0.00071041833 -0.0020749841 0.017389538 -0.023898086 -0.03434756 -0.0054900064
0.011745947 -0.0319038 -0.030920818 0.00079224247 -0.028571 -0.006552856 -0.00591077 -0.008568068
00000000: 0f11 a13b 080a 423c a278 713b d5e1 973b
00000010: c810 49ba ac6c 84bc 77ff e2bc 8913 76bc
00000020: c03a f33b cf19 753c 54fa 4cbc f004 153d
00000030: 8de7 003d 0884 aa3b 5729 a13b f81b d1bb
00000040: 4317 2e3b 314d 423b 450b 75bc 8ac8 45bb
00000050: b0fa 90bc c838 2e3d 04f2 d7bc 6cab d1bc
00000060: fc27 84bc 08bb bcbb ac00 883c 3734 833c
00000070: 87b9 943c c66d 6d3d fec5 15bc 0d0c cc3b
00000080: 77c5 ee3c 114e 833c 83cd a339 a344 1ebd
00000090: 4abf 403c e091 ad3c ab29 fd3b d3d6 2e3c
000000a0: 6079 7bbc 6173 d93c 0868 22bd 505c 403d
000000b0: d944 b03c af5f 97bb d904 30b9 2a53 02bd
000000c0: cdfe 22bc f261 5a3c 5e3b 3aba 75fc 07bb
000000d0: 8174 8e3c ebc5 c3bc 07b0 0cbd 83e5 b3bb
000000e0: 1372 403c 8fad 02bd a84d fdbc 7eae 4f3a
000000f0: bb0d eabc 57b9 d6bb 22af c1bb 1561 0cbc

layers.4.weight f4 [64, 64]
-0.21480878 -0.060238976 0.0985886 0.027240152 -0.13629001 -0.18206756 0.09088957 -0.07706994
-0.054412104 0.18487099 0.19394532 -0.19218665 0.004012226 -0.14979447 -0.13248831 0.121190816
-0.18340817 0.19812633 -0.09538401 0.1736936 -0.028052146 -0.14466137 0.07225318 -0.16351543
0.085605025 0.018844657 0.015047261 -0.1924093 0.024843493 -0.07026096 -0.0802082 0.0736834
-0.18431522 0.14869565 0.081391305 0.12630123 0.0022000307 -0.18145703 -0.023084398 0.13497072
-0.057290312 -0.09827934 0.102035545 0.09575471 -0.023805825 0.004989625 0.0044878433 0.08640599
-0.029947357 0.10679055 -0.12571362 -0.013831174 -0.19100814 -0.16191077 -0.12404325 -0.14725636
0.010759113 0.06306445 -0.14633848 -0.11774375 -0.1420841 0.09912654 0.06517661 -0.08002263
-0.1971521 -0.036086958 -0.11071217 0.15020256 -0.1962087 0.23535371 0.1292249 0.015081463
0.20155138 0.18540053 -0.04402911 -0.00184732 0.14559583 0.08569795 -0.03343878 0.20341484
0.17342961 0.12940237 0.16983326 -0.21998379 0.09827437 -0.22381723 0.015099277 -0.08365454
0.13125816 -0.16227445 -0.11915406 -0.041715752 0.13256094 0.14924607 -0.15279618 0.08865818
0.02273091 -0.028131286 -0.08798432 0.09098277 -0.054939937 -0.10783253 -0.15516615 -0.19813566
-0.18546173 0.17110872 0.028595587 0.21048568 0.17685488 -0.1267659 0.17210174 0.17100981
0.20272525 -0.12120275 0.019436661 0.044943135 0.07134904 0.046559118 0.01632258 0.1020393
-0.17742342 -0.11118813 -0.04647087 -0.13706094 -0.05954155 -0.16593727 -0.024542123 -0.05528383
0.12343694 0.11999824 0.117244646 0.04554103 -0.057450924 -0.16846351 0.008619527 -0.13838635
-0.031104695 -0.20956735 0.2130537 -0.18024443 -0.0831957 0.041356716 0.0786358 0.108429134
0.13914165 0.15521418 -0.04463487 0.02885555 0.034045994 0.13693617 0.16406703 0.005809662
-0.19894052 0.123527296 -0.06303918 0.041487496 0.15719736 0.052256048 -0.1702002 0.20219423
0.06260418 0.016544843 0.11770079 -0.12879856 0.15248974 0.028471546 -0.045408905 0.16656683
0.13759364 0.09384698 0.07381024 0.12715435 -0.17148596 -0.172756 0.061853614 0.09449459
0.17149384 -0.034521654 0.14098552 0.15601793 0.04321921 -0.019555504 0.23474993 -0.0029723085
-0.18192993 0.14091729 -0.023635563 0.096654855 -0.14691503 -0.165135 0.12579617 -0.040380668
0.17833164 0.18817522 -0.1709194 0.14703445 -0.053847335 0.09071621 0.17954947 0.20646837
0.090288796 0.13001508 -0.11592267 -0.16290238 -0.16001216 0.10864996 0.08018479 0.16476965
-0.13922489 -0.17831613 -0.10114841 0.039715342 0.16238014 -0.20263468 0.069186084 -0.054835152
-0.028432086 -0.19387546 0.013053467 -0.09241129 -0.083798036 0.12563427 0.15862483 -0.11625603
-0.11438816 -0.14621334 0.17075062 -0.12559234 -0.14112492 0.21398973 0.19771037 0.044351738
-0.0804937 0.060479417 0.002063409 -0.04704807 0.059676763 0.008065459 -0.050222564 0.12855676
0.049077686 0.15981342 0.11778341 -0.05712483 0.19974379 -0.0017508938 -0.13964564 -0.20696028
-0.1583198 -0.18422751 0.17070562 0.1430233 -0.12271131 -0.011247587 -0.00865074 0.21907535
00000000: d5f6 5bbe 25bd 76bd d2e8 c93d bd26 df3c
00000010: 9c8f 0bbe eb6f 3abe 5024 ba3d d8d6 9dbd
00000020: 3adf 5ebd d24e 3d3e 9a99 463e 94cc 44be
00000030: fe78 833b b963 19be 04ab 07be e432 f83d
00000040: 5acf 3bbe a1e1 4a3e b158 c3bd bcdc 313e
00000050: 9dcd e5bc 1c22 14be 7af9 933d 9770 27be
00000060: b051 af3d 1c60 9a3c c988 763c f206 45be
00000070: 9584 cb3c fae4 8fbd 3244 a4bd 53e7 963d
00000080: 21bd 3cbe ac43 183e 7cb0 a63d 1c55 013e
00000090: 642e 103b dfcf 39be 7e1b bdbc c435 0a3e
000000a0: 3fa9 6abd ae46 c9bd 03f8 d03d 0c1b c43d
000000b0: 6f04 c3bc 0280 a33b c20e 933b a0f5 b03d
000000c0: 2954 f5bc 01b5 da3d 12bb 00be 269c 62bc
000000d0: a397 43be f0cb 25be 630a febd 5fca 16be
000000e0: fe46 303c ef27 813d c1d9 15be a323 f1bd
000000f0: 7f7e 11be db02 cb3d 517b 853d e8e2 a3bd
00000100: 3de2 49be ebcf 13bd 10bd e2bd b3ce 193e
00000110: efea 48be 9000 713e 8853 043e 3e18 773c
00000120: 7c63 4e3e a3d9 3d3e de57 34bd c621 f2ba
00000130: 1317 153e 6882 af3d 1af7 08bd fb4b 503e
00000140: 8897 313e 0e82 043e c5e8 2d3e 6e43 61be
00000150: 1344 c93d 5830 65be f562 773c 1253 abbd
00000160: 8a68 063e 462b 26be 0b07 f4bd 23de 2abd
00000170: 0ebe 073e f6d3 183e 9a76 1cbe 6b92 b53d
00000180: 2c36 ba3c 9573 e6bc 2031 b4bd 2d55 ba3d
00000190: b308 61bd 4dd7 dcbd e0e3 1ebe 13e4 4abe
000001a0: aee9 3dbe 2037 2f3e 4b41 ea3c 8f89 573e
000001b0: 7219 353e ecce 01be 703b 303e 321d 2f3e
000001c0: 3597 4f3e 2639 f8bd a239 9f3c 4b16 383d
000001d0: 721f 923d c6b4 3e3d eeb6 853c fbf9 d03d
000001e0: 7cae 35be 9ab6 e3bd 3d58 3ebd b459 0cbe
000001f0: d7e1 73bd 76eb 29be 900c c9bc 4c71 62bd
00000200: 82cc fc3d a3c1 f53d f61d f03d 3b89 3a3d
00000210: a951 6bbd b381 2cbe eb38 0d3c 27b5 0dbe
00000220: 46cf febc d398 56be c02a 5a3e ff91 38be
00000230: 8262 aabd a965 293d ce0b a13d 1810 de3d
00000240: 267b 0e3e 77f0 1e3e 0ed3 36bd 7962 ec3c
00000250: d073 0b3d ff38 0c3e 3001 283e fa5e be3b
00000260: 10b7 4bbe e1fb fc3d b01a 81bd cbee 293d
00000270: 58f8 203e 700a 563d f648 2ebe 010c 4f3e
00000280: 9f36 803d 0d89 873c 1d0d f13d c5e3 03be
00000290: 4526 1c3e 293d e93c b0fe 39bd 7f90 2a3e
000002a0: 59e5 0c3e d832 c03d d329 973d c034 023e
000002b0: 049a 2fbe f3e6 30be 375a 7d3d 6186 c13d
000002c0: 159c 2f3e 9466 0dbd 825e 103e 2ac3 1f3e
000002d0: a006 313d dd32 a0bc 4962 703e 10cb 42bb
000002e0: d74b 3abe 9f4c 103e 5e9f c1bc fbf2 c53d
000002f0: e570 16be 2619 29be b6d0 003e 3366 25bd
00000300: 929c 363e 01b1 403e 7f05 2fbe 3390 163e
00000310: 068f 5cbd 6cc9 b93d d1db 373e 726c 533e
00000320: 55e9 b83d ac22 053e dd68 edbd e2cf 26be
00000330: 3ada 23be df83 de3d ec37 a43d 60b9 283e
00000340: f890 0ebe 8198 36be e626 cfbd 8eac 223d
00000350: fb46 263e 777f 4fbe 6fb1 8d3d d39a 60bd
00000360: 68ea e8bc 4a87 46be 35de 553c 2142 bdbd
00000370: 4e9e abbd 45a6 003e 8c6e 223e a417 eebd
00000380: 5744 eabd f3b8 15be 40d9 2e3e 479b 00be
00000390: 0d83 10be 2020 5b3e 9674 4a3e 2baa 353d
000003a0: e2d9 a4bd 44b9 773d 423a 073b 7ab5 40bd
000003b0: 9f6f 743d fd24 043c 2db6 4dbd 62a4 033e
000003c0: af05 493d 21a6 233e 6e38 f13d bafb 69bd
000003d0: a389 4c3e 3f7e e5ba 44ff 0ebe 65ed 53be
000003e0: 961e 22be 23a6 3cbe 74cd 2e3e b374 123e
000003f0: 1150 fbbd cd47 38bc d5bb 0dbc 4a55 603e

layers.4.bias f4 [64]
-0.0075327805 -0.0056290645 0.0075324303 -0.0077911154 0.0073334947 -0.00012607807 0.008794108 -0.005064843
-0.007584372 0.008275347 -0.0004943152 0.012718857 0.0078303795 0.007964292 -0.012577288 -0.0064989915
0.0070309457 0.011067864 0.00017331986 -0.0073389057 0.00047171424 -0.034976855 0.009053451 0.012886056
-0.002146711 0.0054868357 0.007277561 -0.0088565545 0.006222807 -0.0078023677 0.010081398 -0.023188213
-0.008679847 -0.010196281 0.0047011785 0.0034179678 0.0050993846 0.011605005 -0.051259115 -0.0056643696
-0.0015233754 0.012112436 0.00026372308 0.008671587 -0.004787269 -0.008956252 0.010540357 0.012597833
-0.0484309 -0.011902395 0.006923002 0.0036896535 0.011963303 -0.0020257528 -0.0070399027 0.02905516
0.011025796 -0.004433191 -0.00591223 -0.0080345 -0.011318791 0.031406518 -0.0114032 0.003321373
00000000: 8bd5 f6bb 0474 b8bb 9bd2 f63b 9d4c ffbb
00000010: d04d f03b d333 04b9 2a15 103c fcf6 a5bb
00000020: 5386 f8bb 5295 073c ee94 01ba c162 503c
00000030: fe4a 003c a97c 023c f810 4ebc 7ef5 d4bb
00000040: d963 e63b fc55 353c 32bd 3539 347b f0bb
00000050: 6a50 f739 e443 0fbd ed54 143c 0920 533c
00000060: d6af 0cbb eaca b33b 9b78 ee3b 151b 11bc
00000070: b0e8 cb3b 01ab ffbb 732c 253c 35f5 bdbc
00000080: eb35 0ebc 4d0e 27bc 580c 9a3b fcff 5f3b
00000090: bd18 a73b eb22 3e3c 14f5 51bd 2d9c b9bb
000000a0: ffab c7ba 3d73 463c 5044 8a39 4613 0e3c
000000b0: 86de 9cbb 3ebd 12bc 76b1 2c3c 2467 4e3c
000000c0: 7b5f 46bd 4302 43bc 5ada e23b 1dce 713b
000000d0: bb01 443c 7ec2 04bb fcae e6bb 1605 ee3c
000000e0: 8aa5 343c 4d44 91bb 61bb c1bb 23a3 03bc
000000f0: 7372 39bc 1fa4 003d 7dd4 3abc 64ab 593b

layers.6.weight f4 [2, 64]
-0.26482216 -0.16525435 0.20177637 -0.16429895 0.22525714 -0.048592713 0.2094651 -0.30573362
-0.2857579 0.26323387 -0.17173605 -0.1253554 0.24589157 0.22276078 0.19323976 -0.22687924
-0.20993154 0.17059156 -0.015400466 -0.019071724 0.035145193 0.08349864 -0.071325116 0.10926849
-0.12985599 0.23828031 0.006886025 -0.049017943 0.33309028 -0.17279404 0.23333348 -0.058962416
-0.24129416 -0.19631396 0.10628788 0.17417066 0.0012758143 0.093722545 0.025911003 -0.17677076
0.036558658 -0.16163582 -0.039861754 0.19152617 -0.099876195 -0.18732706 0.07978599 -0.07107969
-0.016848164 0.08740491 0.14239824 -0.051922463 0.07476958 -0.024258895 -0.14628415 -0.2101574
0.09426898 -0.16537371 -0.062293816 -0.0022305476 -0.1358301 0.07720266 -0.27149442 0.29882988
-0.27748716 0.25080988 0.19171965 -0.22177991 0.011531976 -0.24656774 0.064715736 -0.32533762
0.05860231 -0.13138932 -0.014984363 -0.23875709 0.07825275 -0.18292782 0.21651585 0.15138254
0.30796784 0.19919366 0.03975634 0.044209152 0.2437967 -0.21404643 -0.21761058 -0.15959238
-0.26093975 0.36172622 -0.086378925 0.04052797 0.14556125 -0.2763062 -0.26716718 -0.24978675
0.12747663 -0.05390132 0.29069218 -0.04190135 -0.07064636 -0.19473375 -0.34826437 -0.15531433
0.2790786 -0.2617396 0.23354292 0.198852 0.08989813 0.13319874 0.042064738 -0.15068471
-0.29776454 0.15712905 0.32530582 -0.32156798 -0.1934641 -0.3153482 -0.20091127 -0.0003826606
-0.17275222 0.00726647 0.23167346 0.28383055 0.093992904 -0.31668037 -0.2599491 -0.098325066
00000000: c596 87be 7038 29be 779e 4e3e fc3d 28be
00000010: cfa9 663e 2709 47bd 057e 563e 1e89 9cbe
00000020: dc4e 92be 97c6 863e 93db 2fbe 2a5d 00be
00000030: 00cb 7b3e 671b 643e a5e0 453e 0853 68be
00000040: 4bf8 56be 8eaf 2e3e 3c52 7cbc 4e3c 9cbc
00000050: 68f4 0f3d 5601 ab3d e712 92bd 28c8 df3d
00000060: f8f8 04be c1ff 733e 2aa4 e13b 0ac7 48bd
00000070: cf8a aa3e ecf0 30be f9ee 6e3e 9382 71bd
00000080: d115 77be 8706 49be 76ad d93d cb59 323e
00000090: 3939 a73a 9bf1 bf3d 5043 d43c 6503 35be
000000a0: 88be 153d dc83 25be 1446 23bd 701f 443e
000000b0: e48b ccbd aad2 3fbe d666 a33d 3a92 91bd
000000c0: 2905 8abc 5801 b33d d8d0 113e a6ac 54bd
000000d0: cb20 993d 97ba c6bc 83cb 15be 8033 57be
000000e0: 1810 c13d ba57 29be cd27 7fbd 612e 12bb
000000f0: 0c17 0bbe 6e1c 9e3d 5101 8bbe 3b00 993e
00000100: cc12 8ebe 276a 803e 2852 443e 461a 63be
00000110: 9df0 3c3c 417c 7cbe af89 843d a792 a6be
00000120: fa08 703d ec8a 06be f980 75bc bd7c 74be
00000130: fa42 a03d 6e51 3bbe 55b6 5d3e 0604 1b3e
00000140: f6ad 9d3e 6cf9 4b3e 8bd7 223d a814 353d
00000150: d8a5 793e fd2e 5bbe 4fd5 5ebe 2f6c 23be
00000160: e599 85be 2e34 b93e 6fe7 b0bd a800 263d
00000170: 020e 153e 0278 8dbe 23ca 88be 19c8 7fbe
00000180: 3c89 023e a1c7 5cbd 9bd5 943e c0a0 2bbd
00000190: 0aaf 90bd 4968 47be b54f b2be b80a 1fbe
000001a0: 64e3 8e3e bc02 86be e025 6f3e dc9f 4b3e
000001b0: 831c b83d 4065 083e 134c 2c3d 184d 1abe
000001c0: 9874 98be 70e6 203e 7c8e a63e 8fa4 a4be
000001d0: 741b 46be 5275 a1be afbb 4dbe d69f c8b9
000001e0: f5e5 30be 921b ee3b cf3b 6d3e 3d52 913e
000001f0: 5a7f c03d ee23 a2be 0c18 85be a75e c9bd

layers.6.bias f4 [2]
0.011047807 -0.0075876047
00000000: dc01 353c 71a1 f8bb
