data/results/output_net_20000.pth (torch, 38764 bytes, 8 tensors)

layers.0.weight f4 [64, 5]
00000000: 2897 8f3e acfa 31be 576b 37be ea9c fd3d
00000010: ff83 38be 4123 b43d c127 54bc 1237 863d
00000020: abb2 963e 9547 623e eb27 523e 2e7d 7a3e
00000030: 9792 6d3e 424c a93e 48a2 ce3d 40b4 8f3e
00000040: 1b6f 4bbc 5c3d 823d bf0d 1abd d0b5 20bd
00000050: e619 af3e 80ab 883e 504e c7bc a5c9 07be
00000060: 3901 38bd 09fe 61bd f6fc e43d fdb4 453e
00000070: 2e52 29be d13d 9dbd b58a 8abd 00b6 9fbe
00000080: 3535 343d 23c2 6d3d 7bb3 7d3d e898 a8be
00000090: 5ed6 b8bc 0996 093e b58e 8abe 7f06 2fbe
000000a0: 2e71 803e a6f1 39be 6570 ba3d cb09 90be
000000b0: f71c 71bc f443 183d 9eb0 323e c453 97bd
000000c0: 0742 2b3e 0083 a03b 22fd a73e e228 8abe
000000d0: 6e6b 7abe 6b08 2cbd 46bf 003e a622 5b3e
000000e0: db75 5bbe a80d 223e 1f8e 743e 3e86 31be
000000f0: edac 8d3e eb31 4c3e e784 9d3e a156 fc3d
00000100: 56ed 6dbe ea36 1f3e 056d 463e 07ca 9c3e
00000110: be25 3e3c d65e 25bb 330c 05be 6e2a 82be
00000120: 2e4e 0b3e db67 4c3e 4556 49be 5556 963d
00000130: bea1 863e 8b52 00be e03f 2c3e 6245 67be
00000140: afa9 543d 1944 11be 038a 903c 59da 85be
00000150: da39 a2bd e162 633e 6b16 31bd a552 3fbe
00000160: 374f f3bd a767 93bd d1de 673e 7f9b a23d
00000170: b23c 753e 74d4 723e 1194 a8bd c54e 23be
00000180: 9d54 a83e 85a2 afbe 5464 b13c c3b4 57be
00000190: 8a3a b5be c051 603e b6a8 1e3d 1bca c2bd
000001a0: e05c 173e 39ea a4be 9c3a 3abd 9e25 5fbe
000001b0: 6e83 bdbd c5ca 1fbe aae0 fa3d 939a 533e
000001c0: 6db6 8a3c 88d6 25be fbf2 c53d b223 5abe
000001d0: 1b2b 463e 1458 7cbe ee2c 1d3e 5c84 773e
000001e0: 216a 923d 923c 363e ed33 3dbe de6b 13be
000001f0: 5025 5e3b 5953 c13e e8db b63d 1fd0 c63d
00000200: ff10 62be ac9c 023e 9bc9 e5bd fa7b 88be
00000210: bbac 8c3d fd64 80be dfa2 a33d 113e 923d
00000220: 9aeb 0dbe c6d6 6d3e d5a3 33be 21a2 163d
00000230: 0ffe 293e 2d9b 273c 49a1 4f3e 7d50 e6bd
00000240: 3f03 aebd 34df 7dbd b698 843e a4c7 0cbd
00000250: 0dd4 1b3e 7880 4fbd 104f 533e 6ecb 353b
00000260: 763a a9bd bcd8 8d3e 6dcd 3c3e 3bef f53d
00000270: c73e 1ebe 3aa9 093e d321 a5bd 3207 07be
00000280: 6f82 c13d acac eabd 6e75 15be deec 24be
00000290: a685 5d3e bd0f 98be 5def 4b3d 97a9 873d
000002a0: b308 1bbe 6919 fb3c df08 b13e 9466 0a3e
000002b0: dcb3 8ebe 5758 cbbd 9207 4cbe de20 4bbe
000002c0: a023 4ebe 6849 923e 97e9 473d de38 353e
000002d0: b8ab c13e c9d5 1a3e 31bb 85be 89f7 703e
000002e0: 3221 fb3d f3ef 7c3e e726 87be cbc8 e53d
000002f0: 88aa fb3d 4ca4 493d 59d2 94be a6b1 77be
00000300: 17ff 373e 4fb8 6c3d 8d75 8cbe 9673 c9bd
00000310: e6f1 8bbe 390f 603e c79a 1abd 3eb7 373e
00000320: 8111 9fbe b2a5 1bbe d83f bbbd 9455 b63d
00000330: be4d 32be 7d21 383e 15a3 5e3e 444f 18be
00000340: cef4 4a3e f9eb b33b 80d7 39be f601 183e
00000350: 1393 7a3e 4223 49be 204e 933e 3cca 903e
00000360: 14ce 8c3d ff9a 8abe 49df aabd 92c6 9bbc
00000370: 791e be3e 1995 3cbe c8cb 8abe 2833 923e
00000380: 984a 573d a35b d4bd d8a0 533e 2107 033d
00000390: a248 fd3d 72b9 553e c533 b2be 4397 a4be
000003a0: ca9a 833e f82c e63c 65f0 363d d0c6 ffbc
000003b0: fe38 193e c301 643e 2ed7 493d a3ff 483e
000003c0: e159 97be 622d 8f3e 183b 753e bb36 e4bc
000003d0: 926d 043e 6335 7d3e 0921 64bd ef4e 86be
000003e0: ec1b 873e 6148 66be aaf9 51be 0ee0 59be
000003f0: a621 983e 38d4 b5bd 604a 4dbe a282 43be
0.2804501 -0.1738078 -0.1791204 0.123834446 -0.18019103 0.08795787 -0.012948931 0.065534726
0.29433188 0.22097619 0.2052304 0.24461815 0.23200451 0.33065993 0.100895464 0.28067207
-0.012416626 0.063593596 -0.037610766 -0.03923589 0.34199446 0.26693344 -0.024329334 -0.13260515
-0.04492304 -0.055173907 0.11181061 0.19307323 -0.16535255 -0.07677806 -0.067647375 -0.31193542
0.043996055 0.05804647 0.061938744 -0.32929158 -0.022563156 0.1343614 -0.27062002 -0.17092322
0.2508635 -0.18158588 0.09103469 -0.2813247 -0.014716378 0.03717418 0.17450187 -0.07389024
0.16724406 0.004898429 0.32810313 -0.26984316 -0.24455044 -0.042000216 0.12572965 0.21399936
-0.21431677 0.15825522 0.2388234 -0.17336366 0.27670994 0.19940917 0.3076546 0.12321211
-0.23235068 0.15548292 0.19377525 0.30622885 0.011605678 -0.0025233529 -0.12992935 -0.25422996
0.13604042 0.19961493 -0.19661815 0.07340685 0.26295274 -0.12531488 0.16821241 -0.22585061
0.051919635 -0.14186133 0.017643934 -0.2614315 -0.079211906 0.22205688 -0.04323427 -0.1868387
-0.118803434 -0.071975045 0.22643591 0.07939815 0.23948935 0.23713857 -0.082313664 -0.15948017
0.32877055 -0.3430368 0.021654285 -0.21065049 -0.35396224 0.21906185 0.038735114 -0.09511205
0.14781523 -0.32209948 -0.04546605 -0.21791694 -0.09253584 -0.15604694 0.122498825 0.20664434
0.01693269 -0.16195118 0.096654855 -0.21302679 0.19352381 -0.24642974 0.1534917 0.24171585
0.07149149 0.17796543 -0.1847684 -0.14396617 0.0033896752 0.37758902 0.089286625 0.09707665
-0.22076796 0.12755078 -0.11220094 -0.26657087 0.06868883 -0.25077048 0.079900496 0.071407445
-0.13859406 0.23226461 -0.17542966 0.036775712 0.16600822 0.010229868 0.20276369 -0.11245821
-0.08496713 -0.06198044 0.2589776 -0.03437008 0.1521761 -0.050659627 0.20635629 0.0027739662
-0.08263104 0.27704418 0.18437739 0.1200852 -0.15453635 0.13443461 -0.08063092 -0.13186339
0.09448706 -0.11458716 -0.14595577 -0.16105983 0.21633014 -0.29699507 0.04978882 0.066241436
-0.15140037 0.030651765 0.3457708 0.13515693 -0.27871597 -0.09928959 -0.19924763 -0.19836757
-0.20130777 0.2857163 0.048806753 0.17697474 0.37826324 0.15120615 -0.26119378 0.23531927
0.12262191 0.24700908 -0.26396868 0.11219939 0.12288386 0.04922895 -0.29066733 -0.24188861
0.17968403 0.057792958 -0.27433434 -0.098364994 -0.2733299 0.21880807 -0.037745263 0.17940995
-0.31068042 -0.15199926 -0.091430366 0.089030415 -0.17412469 0.17981525 0.21741898 -0.14873987
0.19819948 0.0054907766 -0.18148613 0.14844498 0.24470167 -0.19642356 0.28770542 0.28279293
0.06875244 -0.27071378 -0.083433695 -0.019015584 0.37132624 -0.18416251 -0.27108598 0.28554654
0.052561373 -0.10369041 0.20666826 0.03198922 0.12367369 0.20871523 -0.34805122 -0.32146654
0.25704032 0.028097615 0.04466285 -0.03122273 0.14963147 0.22266297 0.049277477 0.19628768
-0.2956076 0.27964312 0.23948324 -0.027858129 0.12932423 0.24727397 -0.055695567 -0.26232097
0.2638849 -0.22488548 -0.20505396 -0.21276876 0.29713172 -0.08878368 -0.20047903 -0.19092801

layers.0.bias f4 [64]
00000000: 4147 433d 5517 29bc d70c b63b 18fc 053c
00000010: 1287 8ebc f3f3 8fbd aaec 18bd 6bfd ccbc
00000020: 0a6b 343b fe61 513d 52f1 d2ba 3005 2b3d
00000030: 963c fabc d25f 23bd 25bc 8dbc 1ced f33c
00000040: 3a6b 8c3c 0183 31bc 2b5a c4bc c9b1 173d
00000050: c19e a5bc d608 bf3b d8a5 0bbb 0d65 183d
00000060: b9f9 0fbb 54a5 8bba 4f7b d2bc 7c11 39bc
00000070: cfa2 c03c bf05 8fbc bff4 e3bb 7011 5abd
00000080: 159b 2cbd c6b9 e6bc e6b8 7c3d ee86 78bd
00000090: 8e91 ab3d 602c a6bb 99c2 f03c f47a aabc
000000a0: 3423 5e3d 2a5a 603c ed0b 913a d14f 9f3c
000000b0: 9432 1d3d d7ed 0bbc 2ae3 42bd 659b bcbb
000000c0: 7a49 14bd 8583 503d 7c30 56bc f43a dd3b
000000d0: d5a7 0ebc 4a2d 1d3c a6e8 1d3b a5b0 5e3c
000000e0: dc57 f33b 20b5 e4bc 31b0 abbc a33f 01bc
000000f0: 5e62 6a3c 1205 2f3d 6695 263d 60ce e4bd
0.047675375 -0.010320504 0.00555573 0.00817778 -0.01739839 -0.070289515 -0.037335075 -0.025023183
0.002752962 0.051118843 -0.0016093648 0.041752994 -0.030546468 -0.039886303 -0.017301628 0.029776148
0.017140973 -0.010834456 -0.023968777 0.037034784 -0.020217301 0.0058299107 -0.0021308567 0.037205745
-0.0021968915 -0.001065413 -0.025693564 -0.0112956725 0.023515133 -0.017458795 -0.0069566662 -0.053239286
-0.042140085 -0.028164756 0.06169977 -0.060675554 0.08377372 -0.005071208 0.029389666 -0.020810582
0.05423279 0.013693372 0.0011066176 0.01944724 0.038378313 -0.008540592 -0.04757992 -0.005755829
-0.036202885 0.050906677 -0.013073083 0.0067514125 -0.008707006 0.009593317 0.0024094968 0.01359192
0.007426245 -0.027918398 -0.020958038 -0.007888707 0.014305679 0.042729445 0.04066982 -0.111721754

layers.2.weight f4 [64, 64]
00000000: dc27 c13d c8c9 593c d6e2 54bd 767e 283e
00000010: c40a 1dbe 74b7 5e3d 0189 3d3e de24 4fbe
00000020: 0676 f33d 6cd0 74bd e27b 4ebe b1da e6bd
00000030: d5e6 adbd b89b fbbc e7a8 0abd 56ab 023d
00000040: cf0c 2fbe 4465 013e e0c5 293e 4921 7cbd
00000050: ee56 20be f1d6 73bd d8e1 f0bc 19da a7bd
00000060: 6fb9 de3c e187 25be a678 953d 61be 1dbe
00000070: 4bc1 e53c 2587 533e 07f5 443e 24a1 18be
00000080: 9116 c3bd 5c11 97bd ddc6 efbd fc89 7c3e
00000090: 0ffb 423d c569 1b3e 14cd 56bd cbe6 3ebe
000000a0: be89 4f3d 08be 053e aff0 4ebe 9e90 51be
000000b0: c804 1abe 0fc1 70bd 53d0 343e 671e 683e
000000c0: 3b63 5ebd 6c1a a0bb ca53 4dbe 0193 113e
000000d0: 80b1 fb3c 0f46 b43c 6ef9 283e 391c e33d
000000e0: 9d79 813d 588c 3ebd 2066 df3d 4a68 503e
000000f0: 8067 5c3e 21f3 70be 07ef 9dbd 16b3 613e
00000100: 1c2a 773b 30fa 1c3e 66a6 27be 39e8 e5ba
00000110: 172b 063e b71c 173e 9169 363d abe8 4dbe
00000120: 2b67 ffbd bd46 0dbe 4cd5 393e 5d66 4c3d
00000130: ed2d 173e e8db 19be cb78 8b3d 63c9 ac3c
00000140: be1b 213e 3ae5 2abe ccd3 e93b bdf2 58bd
00000150: 7d92 a3bd f21f 2f3d d07d c5bd f093 0d3e
00000160: 54c0 22be e443 283e 21dc 38be 0cb0 37be
00000170: ae46 bcbc 11cf 683e b093 2a3e 8f6f c03d
00000180: a1f2 c53d 650c 39bc a6ab 49be 5b97 443e
00000190: 694e 053d 3582 0b3e 7dcc 3a3e 8b30 a03c
000001a0: 283f 3a3e e257 44bb 604b f0bd 7efc 1e3e
000001b0: 8149 23bd 1bf5 eb3d 8ea0 00be db5a b1bd
000001c0: ceb0 b13a 7288 e33d 5590 0cbe af21 0cbe
000001d0: 7376 683e d217 35be 83dc eebd d237 083e
000001e0: b03b dd3d 1e49 04be 67d2 553d 0ebd debd
000001f0: b242 3bbd 6fda 033d 7996 a9bd f2a8 bcbd
00000200: 9090 7e3c e4f9 a4bd 7118 123e 1651 24be
00000210: 2bac 85be 988f 2b3e 0b07 973e 1b59 48be
00000220: e02a 47be 37f8 66be fd42 e3bd b885 633e
00000230: 0088 85be 0950 bebc f8ed 833d bb1d 6c3d
00000240: fad9 063e 68f0 5a3d 613d aebd 0c8f 813e
00000250: 2aa2 bc3d 5937 24be 38b9 40be d537 003e
00000260: d5cd 553e 2dc9 edbd 9116 70bd 3d48 2cbe
00000270: b2c2 6c3c a501 6ebd 5641 503e 43ca 8abd
00000280: 9b62 65bc 4b9f 32be eb06 fe3b 7ec8 a8bc
00000290: 3c4a 9d3c efdd b73d 3f9c dcbd a2c3 463d
000002a0: cd64 b33d f429 073e 73a5 d6bd aa3e c63d
000002b0: d044 153e 98bb fbbd 67d8 063b 9a84 78be
000002c0: e59c 253e 681e 283e dcfa c6bd 2cf3 ca3d
000002d0: 16b9 b43d 72e7 0bbe ebdc 40be 7349 cb3d
000002e0: ce5b c93d 8d4f a13d cdae 823d 5617 683e
000002f0: 0f5c 63bd ec10 003e 1d03 733e 7fdc ff3c
00000300: 38c2 31be 6fcc 943c d907 4e3e cde6 e6bd
00000310: 1484 2dbe 95a8 a3bd 3328 34bd 1a1e 49be
00000320: f75c 26be 820e a4bd cf8f 153e e389 4ebd
00000330: 8e01 6b3e d24f 3a3e 3d82 bebb 8e79 15be
00000340: ca7f 3b3d fef0 883c 1868 5b3d 236e 58be
00000350: af67 db3d 4325 a03c 2e1c 00be e13b bebd
00000360: e277 f2bd 1c63 cd3d a4fb e1bd 868b 423e
00000370: 9480 763e 71ea 103e ca8c 80bd 0c36 7b3d
00000380: 29eb 4dbe 3a15 ee3d f4ed 95bc d36a e23b
00000390: 41a7 503e f607 773e c30a d53d a303 2c3e
000003a0: 5e60 4fbd d62c c03d 2715 22be 0c57 093e
000003b0: ff79 febd 64e7 013e 4007 40bc 42ec 343e
000003c0: fe37 5ebe 0cb5 3a3e b809 13be ff8e cfbd
000003d0: f0df f3bd 2688 3dbe ca83 c83d 6fa3 cf3d
000003e0: be4e e1bc 25aa 633c 55db 65be 97f6 c43d
000003f0: 5af7 953b a928 c43d c87c 1a3e 2a67 11be
0.09431431 0.013292737 -0.05197414 0.16454491 -0.15336138 0.054374173 0.18509294 -0.20228907
0.118877456 -0.05976908 -0.20164445 -0.11272181 -0.08491293 -0.0307139 -0.033852484 0.03190168
-0.1709473 0.12636286 0.1657939 -0.06155518 -0.15658161 -0.059531156 -0.029404566 -0.08195896
0.027188031 -0.16165115 0.072984025 -0.15404655 0.02804627 0.20657022 0.19234096 -0.1490522
-0.095257886 -0.07376358 -0.11707852 0.24662012 0.04760271 0.15177067 -0.05244167 -0.18642728
0.05066847 0.13060772 -0.20209001 -0.20465323 -0.15040886 -0.058777865 0.17657594 0.22667848
-0.054293852 -0.0048859622 -0.20051494 0.14216234 0.030724287 0.022006063 0.165014 0.110893674
0.06322024 -0.04652056 0.10908151 0.20352283 0.21523857 -0.23530246 -0.077116065 0.22040972
0.0037714308 0.15329814 -0.1637207 -0.0017540521 0.13102375 0.14757048 0.04453427 -0.20108287
-0.124708496 -0.13796516 0.18147773 0.04990231 0.14763613 -0.15025294 0.06810149 0.021092122
0.15733239 -0.16689005 0.007135844 -0.05296587 -0.07986925 0.042755075 -0.096431375 0.13825965
-0.1589368 0.16432148 -0.18052723 -0.1793825 -0.022982921 0.2273524 0.16657901 0.09396278
0.096654184 -0.011294459 -0.19694385 0.19198363 0.03254548 0.13623889 0.18242069 0.019554397
0.18188155 -0.0029959609 -0.11733127 0.15526006 -0.03986502 0.115213595 -0.12561247 -0.086599074
0.001355672 0.11110009 -0.13726933 -0.13684724 0.22701435 -0.17684868 -0.11663153 0.13302544
0.108024 -0.12918517 0.05220261 -0.10875903 -0.045717902 0.032190736 -0.082806535 -0.09211911
0.015537396 -0.08055475 0.14267136 -0.16046557 -0.26107916 0.16753995 0.2949756 -0.19565241
-0.1944995 -0.22555624 -0.110967614 0.22218978 -0.26080322 -0.023231523 0.06441873 0.05764554
0.13169089 0.053451926 -0.08507801 0.2530445 0.09210618 -0.16036738 -0.18820655 0.12521298
0.208793 -0.11610637 -0.05861527 -0.16824432 0.014450716 -0.058107037 0.20337424 -0.067768596
-0.01400056 -0.17443578 0.0077522895 -0.020603415 0.019200437 0.08977877 -0.10771989 0.048526414
0.087594606 0.13199598 -0.10480776 0.09679921 0.14577031 -0.1229164 0.0020575763 -0.24269333
0.16173132 0.16417849 -0.097158164 0.099096626 0.08824365 -0.13662508 -0.18834274 0.09926119
0.098319635 0.07876501 0.06380997 0.22665152 -0.055507716 0.12506455 0.23731656 0.03123307
-0.17359245 0.018163888 0.20120181 -0.112744905 -0.16944915 -0.07991139 -0.04398365 -0.19640389
-0.16246401 -0.0801058 0.1460564 -0.050424468 0.22949812 0.18194512 -0.0058138655 -0.1459715
0.045776166 0.016716477 0.05356607 -0.21135764 0.107131355 0.019549018 -0.1251075 -0.09288765
-0.11839272 0.10028669 -0.11034325 0.18998536 0.24072486 0.14151932 -0.062768534 0.06133084
-0.20109238 0.116251424 -0.018301941 0.006909707 0.20376302 0.2412413 0.10402443 0.16798262
-0.050629012 0.09383552 -0.15828381 0.13412112 -0.12425613 0.12685925 -0.011720479 0.1766825
-0.21701047 0.18233126 -0.14359176 -0.10134696 -0.11907947 -0.18508968 0.09790762 0.10138594
-0.027503368 0.013895546 -0.2244695 0.09617346 0.0045766057 0.09578068 0.15086663 -0.1419951

layers.2.bias f4 [64]
00000000: 82b9 fdbb 0bf3 6f3c 7a3c 0c3c 3873 a13b
00000010: 6113 4c3b a9b6 b3bc 5e24 dabc e0d8 8cbb
00000020: 269a c33b a5d8 863c 8c9b 86bc a1ac 243d
00000030: a4dc fe3c dde2 033c 2c84 af3b 66f4 a7bb
00000040: 23e7 f139 b04e 69b9 e83d aabc 8901 28ba
00000050: 7ed1 dcbc cba8 6a3d 1ebc c4bc 60d9 2bbd
00000060: 50cf 89bc ce88 b6bc 98a0 0b3d 4448 733c
00000070: c4e5 223c f8f4 863d 754c 47bd bae3 573c
00000080: 1b07 693c 4e4b a33b f226 f03b 0671 f1bc
00000090: 35a6 393c df84 f93c 2222 2d3c 47c1 3c3c
000000a0: 039e a5bc fcda d73c 4f95 8dbd 848e 6b3d
000000b0: 64ec 0c3d 2a83 2cbb 8e3b aa3b 6bde 15bd
000000c0: e7d7 e3bc 96bb 0b3d f18b 9b3a 6dc8 69bb
000000d0: 8cc3 0b3c 0121 dabc 85ad 3bbd fd61 f7bb
000000e0: 9062 843c 42d2 0cbd 6106 00bd ad83 26ba
000000f0: b7df 10bd 3edd 8fbb 2e86 d3bb b831 07bc
-0.0077430615 0.014645348 0.008559341 0.004927065 0.003113948 -0.021937685 -0.02662867 -0.0042983145
0.0059693037 0.016460726 -0.016431592 0.040203694 0.031111069 0.008049694 0.0053563323 -0.00512557
0.00046139312 -0.00022249925 -0.020781472 -0.000640892 -0.026955362 0.05728988 -0.024015483 -0.04195535
-0.016822487 -0.02228203 0.0340887 0.014848772 0.009942476 0.06589693 -0.0486569 0.013176853
0.0142228855 0.0049833423 0.0073288614 -0.02947284 0.011331131 0.030458866 0.01056722 0.01152069
-0.020216947 0.026349537 -0.06913244 0.05750896 0.034405127 -0.0026323297 0.0051950878 -0.036589067
-0.027812911 0.034114443 0.0011867267 -0.0035672442 0.008530509 -0.026627066 -0.045819778 -0.007549523
0.01616028 -0.034380205 -0.031256083 -0.00063520187 -0.0353696 -0.004390388 -0.0064552044 -0.0082516

layers.4.weight f4 [64, 64]
00000000: b749 5bbe 91b4 7dbd dc2d cd3d 47d2 e43c
00000010: 3ee1 00be f434 38be f243 c03d 7230 97bd
00000020: 7ee1 63bd 36b4 3c3e 3027 493e c1fa 44be
00000030: 2e45 2b3c 7aa4 1abe 3e9a 09be 4277 f03d
00000040: e49c 4bbe 8618 453e 4bd2 c5bd 4ca6 2f3e
00000050: e5eb e3bc d030 18be 8808 a03d 527d 2bbe
00000060: 23b5 ae3d 3764 0b3d a781 b63c d5ca 47be
00000070: 145b ce3c 57f8 85bd 0213 a5bd 6112 9c3d
00000080: 18f1 49be 4ca3 153e a05d 9f3d f8b1 fc3d
00000090: 1d9e 9fba 9f41 43be 4a0c d4bc 325b 073e
000000a0: de3d 90bd e232 cdbd fb85 cf3d 89c3 c43d
000000b0: 84e9 cabc bf4c 2d3b 85cf db3c 3b54 b23d
000000c0: 6a3b debc 1b9b f23d d63c 00be 0e06 85bc
000000d0: cca9 4abe af6d 25be 23ae fdbd 9481 1bbe
000000e0: 4b09 693c 38bb 763d fed0 15be 3faf eabd
000000f0: 22d1 0fbe f09b b43d f535 893d 9b57 9ebd
00000100: b025 45be fa4c 12bd 5fb2 debd c3f1 193e
00000110: 1708 4bbe 4635 753e d7aa 023e 4a35 603c
00000120: 0cea 4d3e c63f 3c3e b0a6 22bd a7a9 2cbb
00000130: 11c8 163e a3f6 b83d c61a b0bc d788 673e
00000140: 163e 3e3e e295 e13d b182 2b3e d311 54be
00000150: f08e c03d ab6b 72be 38e9 213c 44de 9abd
00000160: c685 033e 8b90 06be 746f fdbd addd 21bd
00000170: ee74 0c3e 1809 223e b774 0bbe b546 bf3d
00000180: e9e0 6eba c857 96bc 22d2 b4bd 8aa9 ae3d
00000190: 936d 3cbd b13c 15be f457 1dbe e740 48be
000001a0: 282b 3fbe c71e 313e 167a f13c d3a6 4f3e
000001b0: 0677 1d3e 4ff0 fdbd 19e4 283e ac00 323e
000001c0: 44bd 553e 8b17 0abe 8b93 5f3c e125 4c3d
000001d0: 153e 883d 39d6 433d 6a26 473c 57f0 d93d
000001e0: 46e9 30be be20 e2bd 3659 37bd c486 00be
000001f0: aeb2 70bd 7dfc 54be 9ba7 b0bc c15f 63bd
00000200: 48e1 f83d ee21 f63d bda7 ea3d 5e73 3e3d
00000210: b4a9 8abd 6d58 2dbe d136 293c 2356 13be
00000220: eec9 02bd f4c6 56be b9b7 593e 9a35 39be
00000230: bb4c b7bd 95be 283d b378 9f3d 7197 f53d
00000240: ec9d 0f3e b012 223e ccc3 2ebd 6f08 ec3c
00000250: 7034 083d 4a4a 0f3e fa35 1f3e 0dbc 373c
00000260: bffb 47be ada0 f73d f988 92bd 79e7 213d
00000270: 8c31 1d3e bf7f 323d e2a3 28be a251 4d3e
00000280: 8d65 8d3d e0e5 5b3c 0bc8 f13d 3df2 ffbd
00000290: 621f 213e 8b73 073d 7278 33bd 35fb 2b3e
000002a0: 100f 1c3e 5879 c23d f239 9c3d 31e5 013e
000002b0: a1a5 2abe 621f 29be 5ba8 613d f4c0 c23d
000002c0: 51b6 263e d6dc 3abd d7b4 143e c262 273e
000002d0: 31f7 3f3d 1fef 9bbc 195b 713e 31c5 9236
000002e0: d622 3ebe 2022 143e 8244 aabc 3ea1 c13d
000002f0: e22d 16be b8be 23be 1aeb ff3d 9b89 2abd
00000300: dab9 383e 6827 403e b293 2dbe 444b 183e
00000310: dbd9 29bd 2949 bc3d e874 393e 9bdc 573e
00000320: c6c7 b73d be28 053e 356b e9bd e4b3 25be
00000330: f093 1dbe 56b6 dc3d 759c a03d 1c29 213e
00000340: c97a 21be f6f8 3abe 00e5 d4bd 60fe 173d
00000350: 4204 263e 392d 51be 38ae 9f3d 7323 7bbd
00000360: 60f8 f5bc 8143 3dbe 449b bb3c f579 bfbd
00000370: f5af a7bd 803e 053e 0c8c 1f3e 3dc7 e9bd
00000380: 00db 02be 0315 18be 9a7a 2a3e 66f7 02be
00000390: 1383 13be 2692 533e 283f 483e d033 2e3d
000003a0: 1727 c4bd f4b9 723d 545e adb9 39c3 3bbd
000003b0: a341 783d bf2e 6d3b 4919 8ebc 538b 023e
000003c0: 3814 583d 36ce 323e ece0 f13d a7e4 82bd
000003d0: c6d6 443e 6284 eaba d759 0ebe 6a40 58be
000003e0: fc17 1dbe e0bb 40be a6ae 2c3e 51a8 143e
000003f0: 92c9 fabd 9ae0 8fbc 3de9 0cbc 4c0a 623e
-0.21414839 -0.06193978 0.100185126 0.0279323 -0.12585923 -0.1798895 0.093879595 -0.07382287
-0.055634968 0.1842812 0.19643855 -0.1923628 0.010453505 -0.15101805 -0.13437745 0.117414966
-0.19884068 0.19247636 -0.09659251 0.17153281 -0.027822444 -0.1486237 0.07814127 -0.16747025
0.08530643 0.03403112 0.02227862 -0.19510968 0.025189914 -0.06541508 -0.08060266 0.07620693
-0.19720876 0.14613074 0.077815294 0.12338632 -0.0012177859 -0.19068001 -0.025884766 0.13218382
-0.0704305 -0.10019471 0.101329766 0.09607608 -0.024769552 0.002644345 0.026832351 0.08707472
-0.02712794 0.1184599 -0.12523207 -0.016238239 -0.19791335 -0.16155122 -0.123867296 -0.15186149
0.014223407 0.06023714 -0.14630505 -0.11459207 -0.14044622 0.08818805 0.066997446 -0.07731553
-0.19252658 -0.03571794 -0.10873865 0.15033631 -0.19827305 0.23946103 0.12760483 0.01368458
0.20108813 0.18383703 -0.039709747 -0.0026346238 0.14724757 0.09031417 -0.021497142 0.22610794
0.18578371 0.11014916 0.16749074 -0.20709924 0.09402263 -0.23673885 0.009882264 -0.07561925
0.12844 -0.13141076 -0.123747736 -0.039518047 0.1371648 0.15823781 -0.13618742 0.09339658
-0.0009112494 -0.018352404 -0.08829142 0.08528431 -0.046002936 -0.14573933 -0.15365583 -0.19556008
-0.18668807 0.17296897 0.02947716 0.20278482 0.15377435 -0.12399351 0.16493262 0.17383069
0.2087298 -0.13485543 0.013646017 0.04984081 0.06652466 0.04781172 0.012155155 0.10641544
-0.17276487 -0.11041401 -0.044762813 -0.12551409 -0.058764152 -0.20799442 -0.021564296 -0.05551124
0.12152344 0.1201819 0.11457775 0.04649674 -0.067706496 -0.16928263 0.010328011 -0.14388327
-0.031930856 -0.20974332 0.21261491 -0.18086854 -0.08950182 0.04119738 0.077866934 0.11991776
0.14025086 0.15827441 -0.042667195 0.028812615 0.033253133 0.13993183 0.15547934 0.011214268
-0.19529627 0.12091193 -0.07155032 0.03952739 0.15350932 0.04357886 -0.16468766 0.20050672
0.06904135 0.013421506 0.11805733 -0.12497375 0.15734628 0.033069175 -0.043816037 0.16795047
0.15240121 0.09495801 0.0762824 0.12685086 -0.16664745 -0.16515878 0.055092197 0.09509459
0.16280486 -0.04562076 0.1452211 0.16346267 0.0468666 -0.01903492 0.23569907 4.374095e-06
-0.18567976 0.14466143 -0.02078462 0.09454583 -0.1466594 -0.15990722 0.12496014 -0.041635137
0.18039647 0.18765032 -0.16950873 0.14872462 -0.04146753 0.09193642 0.18111002 0.21080248
0.08973651 0.13003823 -0.11397401 -0.16181904 -0.15388465 0.10776965 0.07842342 0.15738338
-0.15769495 -0.18259034 -0.10395241 0.037107825 0.16212562 -0.20427407 0.077969015 -0.061313104
-0.030025661 -0.18482782 0.022901185 -0.09349433 -0.08187858 0.13012123 0.15580767 -0.11414955
-0.12778854 -0.14851765 0.16648331 -0.12789688 -0.1440547 0.2066122 0.19555342 0.04252988
-0.09577768 0.05925937 -0.0003306741 -0.045840476 0.06060947 0.0036191193 -0.017346041 0.1274846
0.052753657 0.17461476 0.118104786 -0.06391268 0.19222555 -0.0017892236 -0.13901459 -0.21118322
-0.1534118 -0.18821669 0.16863498 0.14517333 -0.12245478 -0.017563153 -0.00860053 0.2207424

layers.4.bias f4 [64]
00000000: 92e7 cabb 8cb9 29bc 22a8 d43b 2a74 95bb
00000010: 792f 0d3c 1f39 0c3c 2a82 263c e2cb 39bb
00000020: a638 22bc 82f7 2a3c bf5b 27ba 6f79 8a3c
00000030: 7653 213c d3b0 893c f952 b0bc 749f 14bc
00000040: 96f5 03bc fa84 843c 5f64 28bc 6ef9 82bc
00000050: 1c66 40bc 56ae 8cbd dde6 603c a517 933c
00000060: 06ca d13a bd81 113b d6db 963c c86b 43bc
00000070: 775f 213c bb6b 9fba 530f 693c bde3 bfbc
00000080: 4145 4ebc e2a4 29bc d68b 923b 87c2 c73b
00000090: f873 543c d6b7 923c cef5 cabd e0fd eabb
000000a0: 7a4d 00bc a0cd 8b3b daac 41bc 5d78 043c
000000b0: 9850 2abc 3a29 35bc 01a1 3d3c ab76 1c3c
000000c0: 41cc 2fbd a5e9 02bc 352b 8b3b a6cc c63c
000000d0: 26f4 9e3c 88c3 d73b 8941 b0bb 9f47 053d
000000e0: 9e8b 873c a201 fcbb 1dff 2fbc dd36 aabc
000000f0: 4ec4 88bc c1b7 3c3d 9b66 2dbc 6eb2 503c
-0.006192156 -0.010359179 0.0064897696 -0.004560967 0.008617275 0.008558541 0.0101628695 -0.0028350283
-0.009901201 0.010434987 -0.00063842157 0.016903607 0.009846559 0.01680795 -0.02152394 -0.00907122
-0.008054158 0.01617669 -0.010277837 -0.015988078 -0.011743095 -0.068691894 0.013726917 0.01795561
0.0016005642 0.0022202574 0.018415373 -0.0119275525 0.009849421 -0.0012162843 0.014224845 -0.023424024
-0.012589754 -0.0103542525 0.004472236 0.0060961875 0.012967102 0.017909925 -0.09910165 -0.0071713775
-0.007830972 0.004266456 -0.011820996 0.0080853375 -0.010395192 -0.011057192 0.011574031 0.009549777
-0.0429194 -0.0079902755 0.004247094 0.024267506 0.019403528 0.0065845884 -0.005378906 0.032539006
0.016546067 -0.0076906243 -0.010741976 -0.020778114 -0.016695168 0.04607368 -0.010583545 0.012737853

layers.6.weight f4 [2, 64]
00000000: bd48 8abe 6ed3 30be 8120 4d3e d4de 2cbe
00000010: 41f5 6a3e c600 1bbd 2572 5a3e 4bb5 9ebe
00000020: 7794 94be 99ea 8b3e 0873 2fbe 3b80 f6bd
00000030: 692e 823e f7c9 663e e3cb 443e dc8d 6bbe
00000040: 3032 56be baa8 2d3e cc8d 67bc f955 aebc
00000050: 2f31 de3c 8ba8 b53d 23bc 8cbd 08f9 f13d
00000060: 3574 04be 65fc 6e3e f345 243c 2086 73bd
00000070: 3016 bd3e 8ad4 32be fe92 743e 5e7c 6dbd
00000080: 4a83 81be 0e2b 5dbe 83ec cf3d 08d5 273e
00000090: bc1f c13b da31 e43d 8a8a b13c 1b63 37be
000000a0: 085e 1c3d e79c 24be fadd 33bd 771d 443e
000000b0: fe4f d4bd 2d2a 40be b191 9d3d d7da 9bbd
000000c0: 6abf 80bc 3d57 b63d 3f07 123e a073 4cbd
000000d0: ceea 9e3d ea05 96bc 168a 1dbe 75c4 56be
000000e0: a2b4 c03d 7d5f 27be 35c6 84bd 08ca 9bbb
000000f0: 0135 0dbe 9e98 a23d ed67 89be 0e30 9d3e
00000100: a4e2 91be d70f 9c3e 55e6 553e 434e 7bbe
00000110: 34dc c63b 79a3 91be 60ce 803d 84c1 aabe
00000120: d9b8 9a3d 8d35 11be adfc aabc d446 7dbe
00000130: 78ce 903d b014 43be 6df3 623e f6de 203e
00000140: 5759 9d3e e771 403e 6db8 103d f164 4f3d
00000150: 1b2c 953e 735d 5cbe cd6f 76be e98b 44be
00000160: 5a05 89be dd73 c63e 7fef c8bd 6103 3c3d
00000170: f5e0 0f3e eeed 93be 6529 91be ed9e 85be
00000180: ebbb 2f3e f750 18bd 780a 963e 7db6 80bd
00000190: 8bb3 96bd efd9 64be 1795 b6be 5665 22be
000001a0: 2d31 ad3e 9b9b 87be 2dc2 703e dd2e 513e
000001b0: dc27 c53d de61 243e b4e4 063d a6ea 12be
000001c0: 6532 98be b77b 293e 7189 be3e 22cb a8be
000001d0: 8c4d 50be dc6a b1be 45ac 4abe 8acf ee3c
000001e0: 1409 35be d25e b93b 7cac 863e 8c33 983e
000001f0: 193b d63d 2550 a4be 8011 87be 71c1 febd
-0.2700862 -0.17268154 0.2003193 -0.16881877 0.2294512 -0.037842534 0.21332605 -0.3099769
-0.2901952 0.2732742 -0.17133725 -0.12036177 0.25426033 0.22537981 0.19218402 -0.23003334
-0.20917583 0.16958895 -0.014132928 -0.02128123 0.027123062 0.08870038 -0.06871822 0.11815077
-0.12934954 0.23338468 0.010026443 -0.059454083 0.3693099 -0.1746389 0.23884198 -0.057979934
-0.25295478 -0.21598455 0.10152533 0.16389859 0.0058936756 0.11142321 0.021672506 -0.179089
0.038175613 -0.16075478 -0.043912865 0.19151865 -0.1036682 -0.18766089 0.07693804 -0.076101
-0.015716273 0.08903358 0.14260577 -0.049914956 0.07759629 -0.018313367 -0.15384707 -0.2097338
0.09409453 -0.1634502 -0.064831175 -0.0047543086 -0.1378975 0.07939266 -0.26837102 0.30700725
-0.28493226 0.30480835 0.20888646 -0.24541573 0.0060687307 -0.28445032 0.06289363 -0.33350766
0.07554788 -0.14180584 -0.020872438 -0.2473405 0.07070631 -0.1905086 0.22163172 0.15710053
0.30732223 0.1879345 0.035332132 0.050633375 0.29135212 -0.21520023 -0.24066086 -0.19193996
-0.26761895 0.38760272 -0.09811305 0.04590166 0.14050658 -0.28892463 -0.28351894 -0.26097813
0.17161529 -0.03718659 0.29304862 -0.06284807 -0.07358464 -0.2234876 -0.35660622 -0.15858969
0.3382658 -0.26485905 0.23511572 0.20428033 0.09626743 0.16052958 0.032932952 -0.14347324
-0.29725948 0.165511 0.37214234 -0.32967478 -0.20342082 -0.3465184 -0.19792278 0.029151697
-0.17679244 0.0056570554 0.2630347 0.29726827 0.10460491 -0.32092395 -0.2638054 -0.1243924

layers.6.bias f4 [2]
00000000: f5c2 613c ed93 8dbc
0.013779392 -0.01728245
