data/results/output_net_24000.pth (torch, 38764 bytes, 8 tensors)

layers.0.weight f4 [64, 5]
0.28071102 -0.1695922 -0.16115426 0.12990418 -0.20413451 0.09023763 -0.0142842075 0.069058135
0.29490507 0.21354178 0.21092853 0.24606209 0.2384401 0.33311558 0.09764519 0.3053384
-0.011887113 0.05881152 -0.028762704 -0.031146433 0.34231248 0.26716346 -0.019278187 -0.1319865
-0.04940831 -0.05289384 0.11844365 0.20254469 -0.15933695 -0.07750908 -0.068486415 -0.32118413
0.038550194 0.054412626 0.07050422 -0.3321018 -0.02368009 0.13103065 -0.2709767 -0.17188585
0.2508633 -0.18474285 0.08681554 -0.28137273 -0.0072834655 0.034506865 0.18095794 -0.07166495
0.16901964 -8.098082e-06 0.32678637 -0.2715912 -0.24969637 -0.04201405 0.12790665 0.22020002
-0.2181038 0.16522409 0.24179162 -0.16312395 0.2941789 0.19623809 0.31832886 0.12446359
-0.24559604 0.15192202 0.19195226 0.30154943 0.01096685 -0.006364191 -0.121624425 -0.26407135
0.14849603 0.20481297 -0.1987092 0.070974156 0.2640185 -0.12860554 0.168818 -0.22666001
0.048488457 -0.14886652 0.010900266 -0.26303652 -0.059950452 0.22277462 -0.04564597 -0.18655738
-0.11832975 -0.07089829 0.24510315 0.070464894 0.24995017 0.23404135 -0.086810194 -0.16310386
0.3337643 -0.35107723 0.019162353 -0.2193417 -0.36082363 0.21864665 0.03409241 -0.097731605
0.14539622 -0.32601234 -0.04272661 -0.22303165 -0.094494626 -0.15943584 0.12593389 0.20555146
0.016605368 -0.16212527 0.09207744 -0.21426836 0.195354 -0.24756733 0.15243237 0.24150577
0.07035872 0.17837586 -0.18717457 -0.1445576 0.003938981 0.37483925 0.08997656 0.09431922
-0.22040164 0.12910643 -0.11076814 -0.2647516 0.07026141 -0.250996 0.085968316 0.07785598
-0.13966659 0.23621975 -0.17542884 0.040449686 0.16816963 0.007854284 0.20261349 -0.1110811
-0.09016162 -0.06426747 0.26219392 -0.030595168 0.15596564 -0.06516754 0.20485231 0.0014046967
-0.08108599 0.27702996 0.18255317 0.1282965 -0.15497078 0.13598293 -0.07443346 -0.12310845
0.09631449 -0.11545069 -0.14740935 -0.16019945 0.21884528 -0.29616293 0.04576438 0.069156945
-0.15419737 0.024128474 0.3488413 0.14108846 -0.2771463 -0.09791258 -0.19461405 -0.19676967
-0.20508866 0.28810057 0.04825415 0.17185934 0.38209194 0.15686727 -0.2537658 0.23453511
0.12539275 0.24954398 -0.26476273 0.114010625 0.12475366 0.049357668 -0.2938897 -0.24436723
0.17981939 0.057269834 -0.2789074 -0.10196408 -0.27724624 0.22041392 -0.039601635 0.19318266
-0.3087702 -0.15162018 -0.084550515 0.08922721 -0.17101042 0.1744244 0.21597393 -0.15061523
0.19762854 0.003070465 -0.18593554 0.14893623 0.24048305 -0.19808514 0.2906345 0.28333312
0.06924583 -0.2728841 -0.083781146 -0.017205846 0.3756918 -0.1824283 -0.26699656 0.28639606
0.05673575 -0.101752184 0.21491514 0.03173722 0.12352113 0.2134157 -0.34507483 -0.32458845
0.2591782 0.027825417 0.045669865 -0.024098026 0.14897208 0.22711469 0.04984133 0.19043578
-0.2977682 0.2795529 0.23878177 -0.027920883 0.12828134 0.25186604 -0.058104638 -0.25860572
0.26380897 -0.22053815 -0.20288852 -0.21563515 0.29701653 -0.08916612 -0.19689557 -0.19844608
00000000: 5bb9 8f3e 94a9 2dbe 9f05 25be 9a05 053e
00000010: a308 51be 82ce b83d 4f08 6abc 5a6e 8d3d
00000020: ccfd 963e b2aa 5a3e a6fd 573e b3f7 7b3e
00000030: a429 743e 208e aa3e 34fa c73d 5155 9c3e
00000040: 2ac2 42bc 59e4 703d c39f ebbc ce26 ffbc
00000050: 9543 af3e a6c9 883e 4aed 9dbc 7827 07be
00000060: 5e60 4abd 36a7 58bd 9692 f23d e067 4f3e
00000070: 3a29 23be 15bd 9ebd 9b42 8cbd 3f72 a4be
00000080: cfe6 1d3d c6df 5e3d 8464 903d 3f09 aabe
00000090: c0fc c1bc e62c 063e 75bd 8abe d802 30be
000000a0: 2871 803e 3b2d 3dbe 59cc b13d 1610 90be
000000b0: 23aa eebb 1257 0d3d 0a4d 393e 13c5 92bd
000000c0: 7c13 2d3e ffdc 07b7 8b50 a73e 000e 8bbe
000000d0: 68b0 7fbe ed16 2cbd f6f9 023e 1d7c 613e
000000e0: 9a56 5fbe 8130 293e 3998 773e f709 27be
000000f0: 9e9e 963e a3f2 483e 00fc a23e c4e6 fe3d
00000100: 877d 7bbe 7291 1b3e 228f 443e b064 9a3e
00000110: 4eae 333c b48a d0bb 3a16 f9bd 5c34 87be
00000120: 580f 183e 7eba 513e 6d7a 4bbe e65a 913d
00000130: 6f2d 873e 2cb1 03be a0de 2c3e 9019 68be
00000140: d59b 463d 7770 18be 0797 323c b9ac 86be
00000150: 9b8e 75bd 081f 643e 45f7 3abd e608 3fbe
00000160: de56 f2bd 1f33 91bd 52fc 7a3e e64f 903d
00000170: f0f2 7f3e 89a8 6f3e 8bc9 b1bd b304 27be
00000180: 28e3 aa3e 65c0 b3be 5efa 9c3c 1c9b 60be
00000190: e0bd b8be e8e4 5f3e 7ca4 0b3d 8227 c8bd
000001a0: bfe2 143e 17eb a6be 1902 2fbd 6962 64be
000001b0: 6686 c1bd 2643 23be d0f4 003e 157c 523e
000001c0: fb07 883c 2b04 26be 1993 bc3d 2a69 5bbe
000001d0: e10a 483e 4a82 7dbe 3b17 1c3e 4a4d 773e
000001e0: 3c18 903d 29a8 363e b1aa 3fbe e806 14be
000001f0: 9112 813b eeea bf3e a145 b83d 6f2a c13d
00000200: f8b0 61be 7a34 043e 68da e2bd 868d 87be
00000210: 37e5 8f3d 8c82 80be 2810 b03d f572 9f3d
00000220: c204 0fbe 97e3 713e 9ea3 33be 92ae 253d
00000230: a934 2c3e 41af 003c e979 4f3e 7d7e e3bd
00000240: a8a6 b8bd aa9e 83bd 483e 863e b8a2 fabc
00000250: 75b5 1f3e 8f76 85bd cec4 513e cd1d b83a
00000260: 6910 a6bd dfd6 8d3e 38ef 3a3e 2860 033e
00000270: a9b0 1ebe 1c3f 0b3e 9270 98bd 4820 fcbd
00000280: 8840 c53d 6971 ecbd 7af2 16be 530b 24be
00000290: fa18 603e aba2 97be 6e73 3b3d 28a2 8d3d
000002a0: eae5 1dbe 14a9 c53c 549b b23e 7e79 103e
000002b0: 1fe6 8dbe 6486 c8bd e848 47be fd7d 49be
000002c0: c302 52be eb81 933e 25a6 453d e5fb 2f3e
000002d0: 8ea1 c33e d0a1 203e 97ed 81be f929 703e
000002e0: f566 003e 7588 7f3e fb8e 87be 677e e93d
000002f0: d97e ff3d 442b 4a3d b678 96be 673b 7abe
00000300: 9322 383e c693 6a3d f3cc 8ebe 8bd2 d0bd
00000310: 38f3 8dbe 30b4 613e 5335 22bd add1 453e
00000320: 2117 9ebe 5242 1bbe d228 adbd c1bc b63d
00000330: 5b1d 2fbe 4f9c 323e 4528 5d3e e13a 1abe
00000340: 235f 4a3e db39 493b e365 3ebe bd82 183e
00000350: 3041 763e d5d6 4abe 0cce 943e 0a11 913e
00000360: c2d0 8d3d 77b7 8bbe 7395 abbd 46f3 8cbc
00000370: ad5a c03e 7cce 3abe c6b3 88be 81a2 923e
00000380: bf63 683d 7363 d0bd b712 5c3e e3fe 013d
00000390: a5f8 fc3d a589 5a3e a6ad b0be 7530 a6be
000003a0: 01b3 843e 21f2 e33c 5310 3b3d 3969 c5bc
000003b0: 238c 183e c190 683e 6c26 4c3d 9901 433e
000003c0: 1375 98be 8f21 8f3e 3583 743e 56ba e4bc
000003d0: 2f5c 033e 96f4 803e 21ff 6dbd f867 84be
000003e0: f811 873e c1d4 61be 02c2 4fbe 76cf 5cbe
000003f0: 8d12 983e ba9c b6bd fe9e 49be 7335 4bbe

layers.0.bias f4 [64]
0.052983914 -0.011026389 0.006950858 0.009766995 -0.017795328 -0.0685747 -0.03784061 -0.025768539
0.0026743459 0.0512182 -0.0022684492 0.04302802 -0.029884651 -0.04090354 -0.017100258 0.029974006
0.018213574 -0.0104785375 -0.029137678 0.037841044 -0.020051878 0.0072584655 -0.0027742602 0.03569041
-0.0024918048 -0.0017686047 -0.026649427 -0.011762954 0.024045967 -0.018794082 -0.0065443814 -0.05369439
-0.040599883 -0.02769874 0.06393917 -0.063560605 0.08403418 -0.005592096 0.03237937 -0.020876832
0.05624653 0.01387606 0.0012551011 0.019320222 0.0389694 -0.009981336 -0.04932879 -0.006937303
-0.03584718 0.053912092 -0.012785641 0.003280529 -0.009943887 0.010162309 0.002773811 0.013059242
0.006744034 -0.027063694 -0.021618277 -0.008019763 0.01312921 0.04207996 0.041524794 -0.11667225
00000000: a905 593d 07a8 34bc 06c4 e33b bf05 203c
00000010: 82c7 91bc e470 8cbd c1fe 1abd 8b18 d3bc
00000020: 1444 2f3b 2dca 513d 43aa 14bb 263e 303d
00000030: a8d0 f4bc 788a 27bd d715 8cbc 0c8c f53c
00000040: a234 953c 2cae 2bbc 24b2 eebc 36ff 1a3d
00000050: d643 a4bc 6cd8 ed3b 5dd0 35bb 1b30 123d
00000060: 8c4d 23bb 87d0 e7ba e64f dabc 68b9 40bc
00000070: 0cfc c43c 0cf6 99bc 4072 d6bb a6ee 5bbd
00000080: 104c 26bd 78e8 e2bc 8af2 823d 102c 82bd
00000090: 1d1a ac3d e73d b7bb 3ba0 043d e405 abbc
000000a0: c362 663d 6a58 633c 3482 a43a 7145 9e3c
000000b0: 619e 1f3d c288 23bc fc0c 4abd 5152 e3bb
000000c0: 7ed4 12bd edd2 5c3d dd7a 51bc 25fe 563b
000000d0: afeb 22bc d07f 263c d4c8 353b 6ef6 553c
000000e0: 0ffd dc3b aeb4 ddbc d018 b1bc 5365 03bc
000000f0: e61b 573c 095c 2c3d e715 2a3d dcf1 eebd

layers.2.weight f4 [64, 64]
0.09392419 0.016112037 -0.047147144 0.16518195 -0.15247229 0.054435384 0.18401107 -0.20388247
0.11792947 -0.05869656 -0.20459382 -0.10665408 -0.075298965 -0.026141543 -0.03240655 0.03337597
-0.17282465 0.124282405 0.18273844 -0.062406287 -0.15658206 -0.06795584 -0.029729702 -0.08207927
0.021881683 -0.161665 0.071292266 -0.15451387 0.02825266 0.20854019 0.19438952 -0.14913689
-0.09766791 -0.07675107 -0.12116642 0.24763405 0.04806519 0.15458119 -0.05911858 -0.18728252
0.04918392 0.13211502 -0.20293365 -0.20896813 -0.14940836 -0.057118434 0.17559503 0.23599032
-0.047416095 -0.0038509471 -0.20107803 0.14177942 0.030241385 0.02169422 0.16571826 0.11328397
0.057405043 -0.05284218 0.10737401 0.20279583 0.21621208 -0.23726404 -0.07747857 0.22587432
0.004322189 0.15390183 -0.16263232 -0.0006513022 0.13144258 0.14715081 0.04466042 -0.201726
-0.12447199 -0.13777825 0.18243751 0.051582508 0.15339677 -0.14849487 0.06646615 0.021059897
0.15731746 -0.16709204 0.01062193 -0.053584177 -0.081357315 0.037262727 -0.09629366 0.13783088
-0.1598434 0.16467622 -0.1806521 -0.17926782 -0.022370525 0.22714688 0.16710931 0.09400738
0.096617654 -0.01238967 -0.1967806 0.19192863 0.033104785 0.13901253 0.17938201 0.019735597
0.18120013 -0.0027712374 -0.117552035 0.15606114 -0.039147522 0.1151354 -0.12610497 -0.08521173
-0.00018198234 0.11157629 -0.13774547 -0.13743094 0.2265466 -0.17693482 -0.11622555 0.13348782
0.109867126 -0.12965132 0.052228097 -0.11003567 -0.044591606 0.031775344 -0.08318935 -0.09326493
0.012353663 -0.08192596 0.14138345 -0.17066893 -0.26648283 0.16737212 0.29729703 -0.19313882
-0.19535553 -0.22665714 -0.11254069 0.2169395 -0.27123153 -0.035022162 0.059420075 0.055309992
0.1323506 0.05136086 -0.09030766 0.25732383 0.09868422 -0.15518947 -0.18832584 0.12967068
0.21246712 -0.11829825 -0.05661573 -0.16895673 0.0077032144 -0.059199445 0.20125602 -0.07086992
-0.01103512 -0.17072316 0.0032930474 -0.019032046 0.017145613 0.08138806 -0.10868666 0.05038572
0.09095563 0.13003422 -0.10173788 0.09450972 0.14343482 -0.12084788 0.003838627 -0.24181302
0.1665654 0.16220053 -0.09718259 0.109585255 0.10073693 -0.13360316 -0.1977405 0.095906466
0.10540943 0.08343333 0.06662611 0.22970226 -0.05643233 0.14791904 0.24019323 0.032808144
-0.17468832 0.016773257 0.19871221 -0.11430217 -0.17159733 -0.07924611 -0.041247953 -0.19470319
-0.1624163 -0.08094453 0.14502808 -0.05151656 0.22468859 0.17958342 -0.0011641601 -0.146598
0.04637905 0.01680263 0.04905534 -0.21157002 0.10889436 0.02829164 -0.12652254 -0.093278445
-0.11939223 0.09919423 -0.109423384 0.19032227 0.240523 0.14098257 -0.06422007 0.06189598
-0.20101334 0.118807085 -0.02163829 0.008348074 0.20240234 0.23920856 0.116620764 0.16883577
-0.04838895 0.092666805 -0.15815884 0.13027103 -0.1256438 0.12603602 -0.008730957 0.1728376
-0.21649557 0.1814989 -0.14198135 -0.102211386 -0.11893024 -0.18571733 0.098097 0.10046341
-0.03531493 0.01595493 -0.22273177 0.10160036 0.003383999 0.09418716 0.15088794 -0.14119768
00000000: 535b c03d 64fd 833c 5d1d 41bd 7525 293e
00000010: b221 1cbe a3f7 5e3d 666d 3c3e 91c6 50be
00000020: 0285 f13d ce6b 70bd 0b81 51be 746d dabd
00000030: 5836 9abd ca26 d6bc bbbc 04bd 3eb5 083d
00000040: f2f8 30be c687 fe3d c91f 3b3e bc9d 7fbd
00000050: 0c57 20be 6e2c 8bbd b48b f3bc 2d19 a8bd
00000060: 3741 b33c 828b 25be ae01 923d e238 1ebe
00000070: 1f72 e73c 8f8b 553e 0c0e 473e 57b7 18be
00000080: 1d06 c8bd aa2f 9dbd 1a26 f8bd c893 7d3e
00000090: 01e0 443d 884a 1e3e 5326 72bd fdc6 3fbe
000000a0: 1475 493d 2949 073e d7cd 4fbe befb 55be
000000b0: 81fe 18be 05f5 69bd 2fcf 333e 72a7 713e
000000c0: 6137 42bd 2c60 7cbb 66e7 4dbe a02e 113e
000000d0: c8bc f73c 14b8 b13c 0cb2 293e 6d01 e83d
000000e0: 8d21 6b3d 0b71 58bd e8e6 db3d b6a9 4f3e
000000f0: b366 5d3e 58f5 72be 16ad 9ebd 994b 673e
00000100: 26a1 8d3b 7198 1d3e 1689 26be 27bc 2aba
00000110: e298 063e b4ae 163e d8ed 363d 4391 4ebe
00000120: 2ceb febd be15 0dbe e6d0 3a3e 2e48 533d
00000130: 0b14 1d3e 0a0f 18be 681f 883d ce85 ac3c
00000140: d417 213e 2d1a 2bbe 9a07 2e3c 157b 5bbd
00000150: aa9e a6bd cda0 183d 9c35 c5bd 8a23 0d3e
00000160: fdad 23be e2a0 283e ddfc 38be fc91 37be
00000170: 6442 b7bc 3199 683e b41e 2b3e f186 c03d
00000180: 7adf c53d 0bfe 4abc db80 49be f088 443e
00000190: e298 073d 4d59 0e3e ebaf 373e 8cac a13c
000001a0: 878c 393e a69d 35bb 1fbf f0bd 7ece 1f3e
000001b0: 2759 20bd 1ccc eb3d a921 01be 7d83 aebd
000001c0: 83d2 3eb9 1c82 e43d 260d 0dbe b2ba 0cbe
000001d0: d5fb 673e 672e 35be a907 eebd 08b1 083e
000001e0: 0402 e13d 51c3 04be 21ed 553d 625a e1bd
000001f0: b0a5 36bd dd26 023d 2e5f aabd af01 bfbd
00000200: 0567 4a3c ccc8 a7bd d3c6 103e d6c3 2ebe
00000210: 7070 88be 9963 2b3e 5137 983e 2fc6 45be
00000220: 480b 48be cf18 68be bc7b e6bd 6325 5e3e
00000230: dcde 8abe 6673 0fbd 7762 733d bb8c 623d
00000240: ea86 073e c45f 523d 39f3 b8bd f3bf 833e
00000250: f41a ca3d fde9 1ebe 7dd8 40be 64c8 043e
00000260: fb90 593e 5a46 f2bd e5e5 67bd fe02 2dbe
00000270: 3f6b fc3b 1e7b 72bd 0f16 4e3e 4024 91bd
00000280: a6cc 34bc 0dd2 2ebe 2bd0 573b 18e9 9bbc
00000290: f574 8c3c c8ae a63d 1d97 debd 4261 4e3d
000002a0: f246 ba3d b127 053e f35b d0bd 508e c13d
000002b0: 94e0 123e 187f f7bd 7991 7b3b d59d 77be
000002c0: 1f90 2a3e e517 263e aa07 c7bd 3c6e e03d
000002d0: 2a4f ce3d 44cf 08be 7c7c 4abe 9c6a c43d
000002e0: e6e0 d73d 18df aa3d 4573 883d 1237 6b3e
000002f0: 9625 67bd 1778 173e 37f5 753e d561 063d
00000300: 7fe1 32be 1268 893c 377b 4b3e 4217 eabd
00000310: 36b7 2fbe c94b a2bd 9df3 28bd 4660 47be
00000320: 7550 26be 3fc6 a5bd 3e82 143e 0703 53bd
00000330: c414 663e b7e4 373e bb96 98ba c91d 16be
00000340: f5f7 3d3d aba5 893c 41ee 483d d0a5 58be
00000350: 0204 df3d dfc3 e73c 208f 01be c508 bfbd
00000360: ea83 f4bd 5826 cb3d 5e19 e0bd d7e3 423e
00000370: a94b 763e bc5d 103e d085 83bd a486 7d3d
00000380: 71d6 4dbe 2151 f33d c842 b1bc 5cc6 083c
00000390: 8f42 4f3e 17f3 743e ded6 ee3d 49e3 2c3e
000003a0: 7e33 46bd 18c8 bd3d 64f4 21be c565 053e
000003b0: c5a8 00be 960f 013e 4a0c 0fbc 57fc 303e
000003c0: 04b1 5dbe d9da 393e 8f63 11be 3454 d1bd
000003d0: b391 f3bd af2c 3ebe 14e7 c83d c3bf cd3d
000003e0: 63a6 10bd eab3 823c cc13 64be d913 d03d
000003f0: 15c6 5d3b 33e5 c03d 5e82 1a3e 2096 10be

layers.2.bias f4 [64]
-0.009379597 0.0152411945 0.0087958705 0.004225763 0.0051492695 -0.022860227 -0.02636602 -0.004282346
0.0060208794 0.01561723 -0.017089631 0.040184498 0.031401668 0.008655494 0.004861098 -0.0047428864
8.554269e-06 -0.00011385748 -0.020630175 -0.0007397947 -0.028043808 0.057725236 -0.023023572 -0.044180088
-0.01728548 -0.023884343 0.03471092 0.014372097 0.009001704 0.067688234 -0.047360275 0.012722556
0.0133859925 0.003788249 0.00748449 -0.028345777 0.012386263 0.03146938 0.011143714 0.011590796
-0.021037405 0.02685167 -0.07219578 0.056457974 0.03647476 -0.003497466 0.0064280266 -0.038492605
-0.031284727 0.0359643 0.0009727186 -0.0032722186 0.008222711 -0.026860196 -0.04608933 -0.0069355946
0.01623221 -0.03261006 -0.030843101 -0.00039979815 -0.03691126 -0.004568298 -0.0062055825 -0.008233859
00000000: e2ac 19bc 34b6 793c 8e1c 103c 4578 8a3b
00000010: 34bb a83b 5f45 bbbc 8dfd d7bc ec52 8cbb
00000020: cc4a c53b 69df 7f3c 8eff 8bbc 8098 243d
00000030: 099f 003d c6cf 0d3c d849 9f3b 376a 9bbb
00000040: 4e84 0f37 c5c6 eeb8 9d00 a9bc c8ee 41ba
00000050: 21bc e5bc 4c71 6c3d ee9b bcbc 2ef6 34bd
00000060: 479a 8dbc 19a9 c3bc 0a2d 0e3d f278 6b3c
00000070: e27b 133c 21a0 8a3d d9fc 41bd 4472 503c
00000080: ec50 5b3c 4644 783b 7440 f53b 6735 e8bc
00000090: c1ef 4a3c 09e6 003d 2094 363c 52e7 3d3c
000000a0: a356 acbc 09f8 db3c 62db 93bd 7a40 673d
000000b0: 8f66 153d be35 65bb 32a2 d23b 6caa 1dbd
000000c0: 6a24 00bd 4d4f 133d 0afe 7e3a b872 56bb
000000d0: 8db8 063c ea09 dcbc 2ac8 3cbd fc43 e3bb
000000e0: 69f9 843c 2092 05bd acaa fcbc 009c d1b9
000000f0: 4330 17bd a9b1 95bb 3358 cbbb 4fe7 06bc

layers.4.weight f4 [64, 64]
-0.21331273 -0.061743386 0.100449905 0.027826555 -0.124976374 -0.1797442 0.094615564 -0.07240853
-0.05574445 0.18377347 0.19647112 -0.19227844 0.010820662 -0.1508396 -0.13380527 0.117902696
-0.20461008 0.19154502 -0.09741361 0.171486 -0.028347554 -0.1484312 0.078412674 -0.16771923
0.085113734 0.035492152 0.02288288 -0.19523023 0.025128193 -0.065773405 -0.080999516 0.0762428
-0.20066218 0.14724742 0.07713498 0.124244764 -0.0014448146 -0.19369926 -0.025836982 0.13232997
-0.071216255 -0.10024919 0.10101754 0.096477285 -0.024240376 0.002461835 0.03125367 0.087998025
-0.025208216 0.12019058 -0.12509643 -0.016231196 -0.19890243 -0.16169502 -0.12363436 -0.15195666
0.015151041 0.059956297 -0.14605041 -0.113868944 -0.14045931 0.08304557 0.06673818 -0.07715754
-0.19181253 -0.035425138 -0.108840756 0.14929277 -0.20192213 0.24046007 0.12670793 0.011648269
0.20128179 0.1840204 -0.0391617 -0.0022906205 0.14787288 0.09100167 -0.020115964 0.22646989
0.18700472 0.109580755 0.16615652 -0.20603621 0.094345845 -0.2371366 0.010821945 -0.07579798
0.12787317 -0.132252 -0.12386236 -0.03809462 0.1387992 0.15933204 -0.13485625 0.095514126
-0.005469967 -0.01552132 -0.08684607 0.08379214 -0.04542024 -0.14947449 -0.15367858 -0.19484791
-0.18711597 0.17348032 0.028971938 0.19917616 0.14874853 -0.12484364 0.16498098 0.17331634
0.21003434 -0.13551874 0.013808951 0.04889976 0.06570611 0.047596052 0.012270457 0.10696335
-0.17293593 -0.1104366 -0.045565043 -0.1275384 -0.058753744 -0.20772015 -0.022098573 -0.05550913
0.12058686 0.11992675 0.11428588 0.047071707 -0.06793259 -0.16927698 0.009812434 -0.14626163
-0.03189016 -0.20916086 0.21258475 -0.18083444 -0.08969655 0.04101871 0.07709999 0.1203541
0.14442787 0.15939832 -0.041936263 0.028732076 0.033731487 0.140079 0.15488519 0.011110769
-0.19479388 0.12041102 -0.07202653 0.03930207 0.1533918 0.04380275 -0.16373548 0.20079014
0.07206508 0.011900769 0.118592545 -0.12581751 0.15824923 0.034413695 -0.043806784 0.16778381
0.15297659 0.09508903 0.07670876 0.12724206 -0.16665323 -0.16487172 0.05351533 0.09406727
0.160126 -0.046899367 0.14529872 0.1642744 0.047485944 -0.018832304 0.23557714 0.000104776984
-0.1867084 0.14487033 -0.020916265 0.09359526 -0.14661987 -0.15547323 0.12519921 -0.04178677
0.18140315 0.18809314 -0.16943285 0.14914738 -0.039080657 0.09207394 0.18206355 0.2125788
0.089609 0.12950888 -0.113979176 -0.16138989 -0.15285048 0.10789865 0.07883864 0.15723397
-0.16490723 -0.18257894 -0.104344785 0.036764756 0.16149442 -0.2032993 0.07861037 -0.06201359
-0.030324655 -0.1839849 0.024142522 -0.09377933 -0.08211505 0.12922359 0.15496959 -0.11423456
-0.13082609 -0.14789952 0.16566828 -0.1274679 -0.14432849 0.20325093 0.19575644 0.042722117
-0.09726215 0.059284143 -0.0008170644 -0.044767734 0.062175106 0.0031140775 -0.009892041 0.12845954
0.054894973 0.17743047 0.118044324 -0.06382286 0.19100595 -0.0020916476 -0.13864581 -0.21125755
-0.15228727 -0.18913074 0.16894312 0.14591715 -0.12265509 -0.022814216 -0.009105489 0.2207189
00000000: a76e 5abe a2e6 7cbd aeb8 cd3d 84f4 e33c
00000010: 9df3 ffbd dd0e 38be cec5 c13d ec4a 94bd
00000020: 4b54 64bd 1d2f 3c3e ba2f 493e a4e4 44be
00000030: 2549 313c b275 1abe 4004 09be f876 f13d
00000040: 4e85 51be 6124 443e c980 c7bd 079a 2f3e
00000050: 2139 e8bc 59fe 17be d396 a03d 97be 2bbe
00000060: 1c50 ae3d 3860 113d e174 bb3c 6fea 47be
00000070: a4d9 cd3c 35b4 86bd 13e3 a5bd 2f25 9c3d
00000080: 637a 4dbe 07c8 163e f2f8 9d3d 0a74 fe3d
00000090: ef5f bdba 1959 46be 14a8 d3bc 8281 073e
000000a0: d4d9 91bd 734f cdbd 49e2 ce3d e295 c53d
000000b0: c193 c6bc bd56 213b d903 003d 4f38 b43d
000000c0: 7681 cebc 7b26 f63d 4719 00be 49f7 84bc
000000d0: 14ad 4bbe 6193 25be 0334 fdbd 879a 1bbe
000000e0: 123c 783c bc94 753d 3d8e 15be 1f34 e9bd
000000f0: 91d4 0fbe cc13 aa3d 07ae 883d c604 9ebd
00000100: 816a 44be f319 11bd e7e7 debd 34e0 183e
00000110: adc4 4ebe 2a3b 763e b9bf 013e 62d8 3e3c
00000120: d01c 4e3e d86f 3c3e 0568 20bd 3c1e 16bb
00000130: fd6b 173e 155f ba3d 3cca a4bc b9e7 673e
00000140: 2a7e 3f3e e06b e03d ef24 2a3e 28fb 52be
00000150: 6538 c13d f0d3 72be 874e 313c f93b 9bbd
00000160: 2ff1 023e 116d 07be 8dab fdbd 1b09 1cbd
00000170: 6121 0e3e f027 233e c217 0abe e99c c33d
00000180: 693d b3bb 224d 7ebc 5adc b1bd 379b ab3d
00000190: 930a 3abd d70f 19be eb5d 1dbe 3686 47be
000001a0: 549b 3fbe d3a4 313e 8f56 ed3c d6f4 4b3e
000001b0: 8951 183e 06ae ffbd c6f0 283e d779 313e
000001c0: 3e13 573e 6dc5 0abe f03e 623c 1d4b 483d
000001d0: ed90 863d 14f4 423d 070a 493c 9a0f db3d
000001e0: 1e16 31be 962c e2bd 69a2 3abd 6d99 02be
000001f0: c4a7 70bd 97b4 54be 1108 b5bc 8b5d 63bd
00000200: 3ef6 f63d 289c f53d b70e ea3d 43ce 403d
00000210: 3e20 8bbd f256 2dbe 55c4 203c 9cc5 15be
00000220: 429f 02bd 442e 56be d1af 593e aa2c 39be
00000230: d3b2 b7bd 3c03 283d 99e6 9d3d 367c f63d
00000240: e6e4 133e 5039 233e 5cc5 2bbd 885f eb3c
00000250: 072a 0a3d df70 0f3e 399a 1e3e f109 363c
00000260: 0c78 47be 0e9a f63d a582 93bd 35fb 203d
00000270: bd12 1d3e 836a 333d 46aa 27be ee9b 4d3e
00000280: db96 933d 71fb 423c a6e0 f23d 4ed6 00be
00000290: 160c 223e 60f5 0c3d be6e 33bd 85cf 2b3e
000002a0: e5a5 1c3e 0abe c23d 7b19 9d3d be4b 023e
000002b0: 25a7 2abe 22d4 28be e432 5b3d 57a6 c03d
000002c0: 12f8 233e 8d19 40bd 30c9 143e 8c37 283e
000002d0: 9f80 423d 3446 9abc 223b 713e b7bb db38
000002e0: 7d30 3fbe e358 143e 9658 abbc dfae bf3d
000002f0: 8523 16be 6034 1fbe 3934 003e 9b28 2bbd
00000300: bfc1 393e 7d9b 403e ce7f 2dbe 17ba 183e
00000310: 0a13 20bd 4391 bc3d de6e 3a3e 42ae 593e
00000320: ec84 b73d fa9d 043e ea6d e9bd 6443 25be
00000330: d684 1cbe f8f9 dc3d 2776 a13d f101 213e
00000340: 71dd 28be f9f5 3abe b8b2 d5bd a496 163d
00000350: cb5e 253e b12d 50be 79fe a03d f601 7ebd
00000360: 696b f8bc 8a66 3cbe 8ac6 c53c 610f c0bd
00000370: ef2b a8bd 3053 043e 59b0 1e3e cff3 e9bd
00000380: 46f7 05be f972 17be f2a4 293e f286 02be
00000390: d9ca 13be 0321 503e 6074 483e 63fd 2e3d
000003a0: 6131 c7bd eed3 723d 4430 56ba 5f5e 37bd
000003b0: 53ab 7e3d 8d15 4c3b 3a12 22bc e68a 033e
000003c0: 8dd9 603d 55b0 353e 39c1 f13d 8fb5 82bd
000003d0: 1097 433e 0614 09bb 2bf9 0dbe e653 58be
000003e0: 32f1 1bbe 7dab 41be 6dff 2c3e 4e6b 153e
000003f0: 9832 fbbd e1e4 babc 302f 15bc 2304 623e

layers.4.bias f4 [64]
-0.006194552 -0.010198027 0.0066888747 -0.0045107566 0.008565105 0.008199998 0.010429239 -0.0028381888
-0.0097193895 0.01036581 2.9027478e-05 0.016098768 0.010408745 0.016980749 -0.023288246 -0.008708732
-0.008991045 0.015192943 -0.01056296 -0.016226165 -0.011972231 -0.07247556 0.013668706 0.0176037
0.001401842 0.0025520632 0.020586813 -0.013039058 0.010758852 -0.0007451415 0.013817316 -0.022512149
-0.01253824 -0.010368836 0.005342727 0.0058402615 0.01309237 0.017942192 -0.08742058 -0.008190859
-0.0074378704 0.0033400774 -0.013336315 0.008103692 -0.010865492 -0.010909707 0.011613379 0.010285923
-0.044951923 -0.008494591 0.0042234166 0.02664203 0.019121997 0.0058032693 -0.0049517783 0.035326853
0.016437713 -0.0075367927 -0.012478757 -0.020861309 -0.016772058 0.04682688 -0.010417603 0.013945847
00000000: abfb cabb a015 27bc 592e db3b f8ce 93bb
00000010: a754 0c3c 4959 063c 66df 2a3c e800 3abb
00000020: 133e 1fbc 5cd5 293c 0980 f337 90e1 833c
00000030: 7189 2a3c 361b 8b3c fec6 bebc 12af 0ebc
00000040: 2d4f 13bc d2eb 783c 4410 2dbc bcec 84bc
00000050: 2d27 44bc 116e 94bd b5f2 5f3c a235 903c
00000060: 03be b73a 8440 273b ada5 a83c c6a1 55bc
00000070: e545 303c 9955 43ba 0662 623c 666b b8bc
00000080: 316d 4dbc 0de2 29bc 0b12 af3b aa5f bf3b
00000090: 6181 563c 81fb 923c 9009 b3bd f432 06bc
000000a0: 61b9 f3bb 33e5 5a3b 8f80 5abc 59c5 043c
000000b0: 2d05 32bc a1be 32bc 0b46 3e3c 4a86 283c
000000c0: 821f 38bd e62c 0bbc 9664 8a3b 6340 da3c
000000d0: bca5 9c3c 5a29 be3b 8742 a2bb e4b2 103d
000000e0: 62a8 863c 33f7 f6bb b373 4cbc 56e5 aabc
000000f0: 8e65 89bc 8bcd 3f3d 98ae 2abc 1f7d 643c

layers.6.weight f4 [2, 64]
-0.2707957 -0.17319694 0.19888996 -0.17005964 0.22968636 -0.03602442 0.21257441 -0.3099006
-0.2900716 0.27353147 -0.17135322 -0.11926481 0.25598192 0.22543274 0.1924038 -0.22998936
-0.2094462 0.16904466 -0.014240024 -0.021195184 0.026170231 0.09086899 -0.06876754 0.11866684
-0.12883256 0.23427534 0.011653291 -0.060934443 0.37165987 -0.17519991 0.2392324 -0.058278747
-0.25281125 -0.21930914 0.1013245 0.16115144 0.0038860545 0.11148225 0.020122476 -0.17856117
0.038330182 -0.15995556 -0.045451175 0.19221845 -0.10447543 -0.18868333 0.07609628 -0.076520905
-0.015739271 0.08909111 0.14382268 -0.05001679 0.07804551 -0.019587586 -0.15375152 -0.20754544
0.09485201 -0.16321361 -0.06628864 -0.004702838 -0.1380326 0.07982038 -0.26877323 0.3080323
-0.28563222 0.3074072 0.21165453 -0.24917804 0.0060956646 -0.28495812 0.060396846 -0.33572555
0.077543296 -0.14167105 -0.021073684 -0.2474403 0.071268715 -0.19013162 0.22261822 0.1572051
0.30681747 0.18936913 0.037648346 0.050271142 0.29618534 -0.21514453 -0.24542646 -0.19824918
-0.2691141 0.39159817 -0.10299226 0.046243943 0.14116953 -0.2886833 -0.28482667 -0.26409733
0.17761962 -0.038354203 0.2929371 -0.05707066 -0.06302428 -0.22459625 -0.3550734 -0.15906301
0.3506137 -0.26635408 0.23857497 0.20512976 0.0973297 0.16873151 0.030584509 -0.14471762
-0.29816523 0.16743621 0.376668 -0.33022374 -0.20345862 -0.35018757 -0.19927104 0.036848158
-0.17781743 0.0074094506 0.26627755 0.3002719 0.105740726 -0.3218241 -0.26778856 -0.12714691
00000000: bca5 8abe 8a5a 31be cfa9 4b3e 1d24 2ebe
00000010: e732 6b3e 588e 13bd 1bad 593e 4bab 9ebe
00000020: 4484 94be 510c 8c3e 3877 2fbe 1c41 f4bd
00000030: 1010 833e d7d7 663e 8005 453e 5582 6bbe
00000040: 1179 56be 0b1a 2d3e fd4e 69bc 86a1 adbc
00000050: f462 d63c 8519 ba3d ffd5 8cbd 9a07 f33d
00000060: afec 03be e0e5 6f3e 72ed 3e3c 6596 79bd
00000070: 344a be3e 9b67 33be 57f9 743e b2b5 6ebd
00000080: 7a70 81be 9392 60be 3883 cf3d e204 253e
00000090: 2dad 7e3b ce50 e43d e4d7 a43c bdd8 36be
000000a0: 1c00 1d3d 64cb 23be 032b 3abd ead4 443e
000000b0: 37f7 d5bd 3436 41be 5ed8 9b3d feb6 9cbd
000000c0: a5ef 80bc 6675 b63d 4146 133e 68de 4cbd
000000d0: 53d6 9f3d 2576 a0bc 0a71 1dbe cb86 54be
000000e0: c541 c23d 7821 27be 57c2 87bd 441a 9abb
000000f0: 6b58 0dbe de78 a33d a59c 89be 69b6 9d3e
00000100: 633e 92be 7a64 9d3e f7bb 583e 8728 7fbe
00000110: 24be c73b 08e6 91be af62 773d 38e4 abbe
00000120: 05cf 9e3d 3712 11be b8a2 acbc fd60 7dbe
00000130: 55f5 913d ddb1 42be 08f6 633e 60fa 203e
00000140: 2e17 9d3e fbe9 413e 2735 1a3d 1de9 4d3d
00000150: 9ba5 973e d94e 5cbe 1351 7bbe d501 4bbe
00000160: 53c9 89be 8e7f c83e 9bed d2bd 4a6a 3d3d
00000170: bf8e 103e 4cce 93be cdd4 91be c437 87be
00000180: ebe1 353e 4c19 1dbd dafb 953e edc2 69bd
00000190: e012 81bd 8ffc 65be 2ecc b5be 6ae1 22be
000001a0: a483 b33e 905f 88be ff4c 743e 890d 523e
000001b0: cb54 c73d f4c7 2c3e 5d8c fa3c db30 14be
000001c0: 1da9 98be 6674 2b3e a1da c03e 1613 a9be
000001d0: 7557 50be c94b b3be b50d 4cbe 18ee 163d
000001e0: c615 36be faca f23b 8855 883e 3dbd 993e
000001f0: 988e d83d 21c6 a4be 951b 89be cd32 02be

layers.6.bias f4 [2]
0.013723322 -0.016860321
00000000: c9d7 603c a81e 8abc
