data/results/state_net_12000.pth (torch, 90556 bytes, 14 tensors)

layers.0.weight f4 [64, 5]
000000 b5 95 32 3b 49 c5 4d be eb 43 9d 3e 71 4e 97 be
       0.0027249877 -0.2009479 0.3071588 -0.29552034
000010 6f 58 81 be b2 fb 8c be 86 3f 8c be 67 3c ac bd
       -0.25262782 -0.27535778 -0.27392215 -0.08409958
000020 67 b4 61 3e ed 12 5f 3e 91 ea 1c bd c3 9b 6a 3e
       0.22041474 0.21784563 -0.038309637 0.22910981
000030 76 e3 52 3e 87 84 4f 3e d7 b9 8a be bb 1a 2c 3e
       0.20594582 0.20265399 -0.2709491 0.16807072
000040 b5 43 86 bd 30 f4 5b 3e e0 c2 37 3e fd 6a 23 be
       -0.06555883 0.21479869 0.17945433 -0.15958782
000050 af 5b 72 be b0 0b 12 3e 5d 74 03 be f4 cd 3f 3e
       -0.23667787 0.14262271 -0.12837358 0.18730909
000060 07 44 91 3c 2f 37 8d 3e 8c aa 41 3c 3d 13 5f 3e
       0.017732633 0.27581164 0.011820447 0.21784683
000070 d4 8e 10 bd 2d 46 06 3e 93 c9 15 3e d8 5e 84 3e
       -0.03529246 0.13112707 0.14627676 0.2585361
000080 fd bc 02 3e 99 02 4d bd d5 60 20 bc 09 b5 b7 3d
       0.12767406 -0.050051305 -0.009788712 0.089700766
000090 25 b7 25 bd cf 1b 2c be ab 49 d2 bd 6d cc dd 3c
       -0.040457863 -0.16807483 -0.10267957 0.027075017
0000a0 4c fa a4 be 23 b2 7b be d1 69 5e 3e b3 c5 27 3e
       -0.3222221 -0.24579673 0.21720053 0.1638401
0000b0 97 a6 b0 3d 4c 99 3a be 4a b3 ae bc 0f 30 81 3e
       0.086255245 -0.1822254 -0.021325726 0.25231978
0000c0 46 62 13 3e e9 0b 9a be b9 ed f2 3c a6 38 84 3d
       0.14392957 -0.30087212 0.02965437 0.06456117
0000d0 7f e0 9d 3c 8e b7 b9 3d 82 26 33 be 81 af 90 be
       0.019272087 0.090682134 -0.17495158 -0.282589
0000e0 0b ed 57 be 5e ef e8 bd c1 37 37 be 2b 60 8b be
       -0.21086518 -0.11373781 -0.17892362 -0.27221808
0000f0 3c 91 90 3e 5e 44 7f be 07 96 1d 3e 33 3a 01 bc
       0.28235805 -0.24928424 0.15389262 -0.007887411
000100 fb 4f a6 3e c3 79 5b be b7 52 92 be 67 74 fe 3d
       0.32482895 -0.21433167 -0.2857873 0.12424546
000110 0a 8d 74 3d 5a 85 94 bb 23 88 23 bd 9e 94 ee 3d
       0.059704818 -0.0045324983 -0.039924752 0.1164944
000120 21 e3 b4 bd 74 39 b6 bd b5 c0 41 3e 52 b4 80 3e
       -0.08832384 -0.08897677 0.18921168 0.25137573
000130 b8 c3 85 be 1e c6 6c be 24 68 18 be 17 90 3b 3e
       -0.26125884 -0.2312245 -0.14883476 0.18316685
000140 63 79 d5 3c 47 d1 96 3d d2 f0 88 3d a9 60 1d 3e
       0.026058858 0.07364135 0.06686558 0.15368904
000150 23 99 ad 3d b5 08 9b be 3e 70 6f 3e cc 28 8e be
       0.08476474 -0.3028008 0.23382661 -0.277655
000160 c4 cd 13 bd c8 f4 de bd b1 d3 e4 3d 22 92 86 bd
       -0.036084905 -0.10886532 0.111731894 -0.06570841
000170 e6 14 65 3e 40 2b 67 3e 19 1b a6 3e ae db 47 3e
       0.22371253 0.22575092 0.3244255 0.19517395
000180 c1 bc d8 3b be fb 88 be 17 7e 5d 3e 85 8f 7e 3e
       0.006614298 -0.26754564 0.2163013 0.24859436
000190 7e db 91 be 6d 5c 81 3e 39 4c 9f bb aa 57 df bd
       -0.28487772 0.25265828 -0.0048613814 -0.109053925
0001a0 d6 0a 67 3d ea 0c 8c 3e 61 d9 86 3e 88 47 6c be
       0.05640682 0.27353603 0.26337722 -0.23074162
0001b0 65 0f 98 ba 71 ec 0a bd 68 fa ed bd ff 2a f4 bc
       -0.0011601268 -0.033916894 -0.11620027 -0.029805658
0001c0 f0 c2 16 3e e4 5e 90 be 5a 10 41 3e d2 3f 74 3e
       0.147228 -0.28197396 0.18853894 0.2385247
0001d0 a6 8e 8b be f4 f7 52 3e 6a 28 58 bc 58 58 92 be
       -0.2725727 0.20602399 -0.013193229 -0.28583026
0001e0 48 b1 0c 3b ab ea d3 bd 0b e5 48 3e 1c 48 83 3e
       0.0021467973 -0.10347494 0.19618623 0.25640953
0001f0 dd c1 7b be 9b 94 9c 3e c8 77 36 be 85 08 7c 3e
       -0.24585672 0.30582127 -0.1781913 0.24612625
000200 b3 c8 4a bc d3 48 fa bd 9a 25 84 3e 4e a6 19 be
       -0.012376952 -0.12220921 0.25809938 -0.15004846
000210 c9 7a e6 bd a9 ad d2 3d 42 b7 6e 3d 30 71 40 3e
       -0.11253888 0.10287029 0.058280237 0.18793178
000220 ab 14 70 be ac 0d fb 3d c4 6f 13 be ac 20 b1 bc
       -0.23445384 0.12258467 -0.14398104 -0.021622024
000230 9b 89 3a 3e 60 0a ea 3d fe 7a 9b 3e 36 7b 4c bd
       0.18216555 0.1142776 0.30367273 -0.04992219
000240 a4 a0 af bd e0 7b 15 be 2f 48 70 be a2 95 8f 3e
       -0.08575562 -0.14598036 -0.23465036 0.28043848
000250 04 19 73 be 0c af 5b be 20 6e dd 3c b5 a6 20 bd
       -0.23740011 -0.21453494 0.02703005 -0.039221484
000260 2d 91 02 3c c3 2d 57 bd ac 35 ed bd 7a 8e 7b 3e
       0.007969183 -0.052533876 -0.11582503 0.24566069
000270 e3 bc 3e be a8 2b 65 be 2f fb 8c be 2f 5b 67 3e
       -0.18626742 -0.22379935 -0.27535388 0.22593378
000280 d0 e4 8e bc 81 68 80 3e d6 e0 dc 3c 1e da 92 3a
       -0.01744309 0.2507973 0.026962679 0.001120392
000290 ef 96 24 3e b7 de 34 3e 1a 6a 6a 3e 62 b6 c1 bd
       0.16073202 0.17663084 0.22892037 -0.09458615
0002a0 87 89 93 be 36 be e6 3d d5 4f d0 be 82 3b 8d 3e
       -0.28815863 0.112667486 -0.40685907 0.27584463
0002b0 12 e5 b3 be bf d3 a1 3e 77 67 e4 3e 1a a9 83 3e
       -0.35135704 0.31606862 0.44610187 0.25714952
0002c0 72 ba 8e be 30 09 45 be dc 0a 4c be 2f 6b f4 3d
       -0.2787662 -0.19241786 -0.19926018 0.11934506
0002d0 2e e7 8b be 7e 23 09 bd d8 94 87 3b 45 b3 71 3e
       -0.27324814 -0.033481114 0.0041376166 0.23603542
0002e0 9d 66 d0 be 10 29 da bd 84 79 03 be 7d 5c 9c 3e
       -0.40703288 -0.10652363 -0.12839323 0.30539313
0002f0 d5 a6 2f be bb 61 9c 3e 45 47 83 3e 5d 60 aa bd
       -0.17153485 0.30543312 0.25640312 -0.08319161
000300 cc 6f 1c 3d cd 90 80 be 7b ad 7f bd a9 21 b5 be
       0.038192555 -0.25110474 -0.062421303 -0.35377243
000310 73 1d ab be c3 1b 93 3e 90 94 8d be 70 b7 84 be
       -0.33420905 0.28732118 -0.27652407 -0.25921202
000320 81 05 9f 3e fe fc a7 3d 41 a3 18 be 4d 5c 9c bd
       0.31058887 0.08202551 -0.14906026 -0.076347925
000330 c5 c3 01 be db 5e 56 be b5 3d 2d be 23 e8 2e bd
       -0.12672336 -0.20934622 -0.1691807 -0.04270185
000340 e1 81 79 3e 3c 7e 31 be a9 9f f3 bd 98 87 8d bd
       0.24365951 -0.17333311 -0.11895687 -0.06910628
000350 a8 f4 8e 3e b0 74 59 be db 02 5a 3d ff 27 29 be
       0.27921033 -0.21235919 0.05322538 -0.16519164
000360 ee ca c4 bd c2 80 97 3b b8 fe 95 3d 4b b0 ae 3d
       -0.09609018 0.0046235034 0.07323974 0.08529719
000370 1c c0 2e 3e 48 06 a4 3c ba 65 c4 3c 27 72 8b 3e
       0.17065471 0.020022526 0.023974288 0.2723553
000380 cc 8c a8 be c6 a8 9a bd dd db f6 bc c4 0d f0 bd
       -0.3291992 -0.07551722 -0.030134136 -0.117213756
000390 e6 62 5b be bb af 27 3e b7 70 49 3e 1c 0c dd bc
       -0.21424446 0.1637563 0.19671904 -0.026983313
0003a0 ce 85 85 3e c0 49 8e 3e 17 a2 8f 3c e0 ae 90 be
       0.26078647 0.27790642 0.017533345 -0.2825842
0003b0 6b 00 f1 bd 8f d8 75 3d d2 7e 96 be 16 43 67 3e
       -0.11767658 0.06002098 -0.2939363 0.22584185
0003c0 78 80 19 3e 89 21 9b be 37 c2 95 be 70 d3 49 bd
       0.14990413 -0.30299023 -0.29249737 -0.04927391
0003d0 b5 02 93 be d3 cd 80 be 3d 99 3c 3e 22 c0 b6 bc
       -0.28713003 -0.2515703 0.18417831 -0.022308413
0003e0 46 18 4e be 4e 39 18 be b2 74 40 be e7 cc 8d 3e
       -0.20126447 -0.1486561 -0.18794516 0.2769539
0003f0 c0 27 83 be 41 95 86 be f7 b3 64 3e 8c 9b d7 3d
       -0.25616264 -0.26285747 0.22334276 0.10527715

layers.0.bias f4 [64]
000000 f9 18 9a bc f5 d1 d4 3c a1 6c 58 bc a7 9b 2c bb
       -0.018810736 0.025979022 -0.013209493 -0.0026337893
000010 f1 84 11 bb 12 55 43 3b 28 0c f1 bb eb 8f 65 bc
       -0.0022204483 0.0029805345 -0.0073561855 -0.0140113635
000020 e9 18 26 3b 41 d2 84 ba 5c 2e ed ba 01 be 67 bb
       0.0025344437 -0.0010133461 -0.0018095481 -0.0035361054
000030 a5 55 56 bc 08 f7 d3 3b 26 60 28 3b 07 9f 6b bc
       -0.013081943 0.0064686574 0.0025692075 -0.014381177
000040 6c 60 85 3b 90 0c 75 bb 5e 6a 66 bc 0b d4 fa bb
       0.0040703323 -0.003739152 -0.014063446 -0.007654672
000050 fa 2a 25 3b fd 76 5e bb 23 6f aa 3b 56 06 14 3c
       0.0025202618 -0.0033945434 0.005201237 0.009034714
000060 89 92 3f 3c bd 2a f5 ba 5c d5 a7 3b f6 0b 9f 3b
       0.011692652 -0.0018704754 0.00512187 0.004853721
000070 92 45 03 bc 67 1c c2 3a 8e f9 2c 3c 99 ac dc ba
       -0.008012192 0.001480949 0.010557545 -0.0016836106
000080 e0 92 c0 bb 3e 58 b9 bb 83 46 40 3d 05 a5 47 3c
       -0.005876884 -0.0056562712 0.046942245 0.01218534
000090 5a 9e 32 bc db 34 c3 3b ee 44 e3 bb 0f 70 52 bc
       -0.010902012 0.0059572286 -0.0069357073 -0.0128441
0000a0 fd 06 21 bc b7 a5 57 ba e1 40 d8 bb e5 f9 77 3b
       -0.009828326 -0.00082262926 -0.006599531 0.0037838158
0000b0 da ce 3f 3c 92 21 5d bc 7a 83 cd bb 88 0c 14 bb
       0.011707032 -0.013496773 -0.0062717767 -0.0022590477
0000c0 44 05 23 3c a0 4c 08 bb b9 98 dc bc 35 36 3f 3b
       0.009949986 -0.0020797625 -0.026928293 0.0029176597
0000d0 21 1d 0d ba 09 f8 e4 3b a2 97 76 3b 4f cf 71 bb
       -0.00053830637 0.006987576 0.0037627001 -0.0036897247
0000e0 8b 27 fe bb 7b 18 8c 3c bc e7 f3 bb 38 f5 aa bb
       -0.0077561787 0.017101517 -0.0074433964 -0.0052172206
0000f0 1d 72 f5 bb ba f7 67 3b 6b d2 80 bb df 40 a6 3a
       -0.00749041 0.003539546 -0.003931334 0.0012684128

layers.2.weight f4 [64, 64]
000000 3a 09 0f bb 0e 5e a1 bc 4f f5 e5 bd aa 55 68 bd
       -0.0021825568 -0.01969817 -0.112284295 -0.05672232
000010 0b 36 f6 3d 83 05 d8 3d ce c8 1a 3e 0d 77 1e 3e
       0.12022027 0.10547926 0.15115663 0.15475102
000020 2f 73 54 3e 6d d9 41 be dd 87 44 3d 24 9e 3d be
       0.20747064 -0.18930598 0.04798113 -0.18517357
000030 d1 bb 45 be cd af ab 3c b8 b0 89 3c 98 5f e7 bd
       -0.19309928 0.020957852 0.016807899 -0.1129753
000040 ea 02 17 3e 9f 59 51 3e 20 2d a9 3d 75 b7 4a 3c
       0.14747205 0.20444344 0.0826056 0.012372841
000050 2e 58 b0 3d 1c ed 6c 3c 2d 02 fe bd c0 69 79 bb
       0.08610569 0.014460828 -0.12402759 -0.0038057417
000060 f4 c9 9d 3d d4 bb 08 be d8 8b 07 3e c9 cc ca 3b
       0.07704535 -0.133529 0.1323694 0.006188963
000070 50 91 61 be 88 e0 24 be ea e9 3a 3e d4 5a 3b 3d
       -0.22028089 -0.16101277 0.18253294 0.045740917
000080 23 e9 86 bd 79 8d 4d 3e 71 06 55 3e b9 93 11 be
       -0.06587436 0.20073499 0.20803238 -0.14216508
000090 a6 77 28 be 5b b8 40 3e eb 5d 6f be 14 45 b7 3b
       -0.16451892 0.18820326 -0.2337567 0.0055929516
0000a0 4a 7c 64 be e6 dd 5b bd 4e 15 24 be f2 22 35 bd
       -0.22313038 -0.053678416 -0.16023752 -0.04422278
0000b0 0c f7 82 3d b1 d7 d1 bd 66 bf 60 be 70 48 e8 3d
       0.06394777 -0.10246218 -0.21948013 0.11341941
0000c0 27 ed 28 be d9 4d f1 3d c2 78 ed bd 15 c7 e2 3b
       -0.16496716 0.117824264 -0.11595298 0.006920705
0000d0 fc d3 6c be 61 66 ca bd 48 de 6e bd 95 43 10 3e
       -0.2312774 -0.098828085 -0.058317453 0.1408828
0000e0 b2 d4 15 3e 8c 00 5f 3e 78 76 47 be 03 27 b1 3d
       0.14631918 0.21777552 -0.19478786 0.08650019
0000f0 08 a3 d6 bd 7d 3a 11 3e 7c ba f5 3d 3a b3 f8 3c
       -0.104803145 0.14182468 0.1199846 0.0303589
000100 38 bd 21 3e 98 0d d1 3c 56 a9 3f be 18 3d 1c 3e
       0.15794837 0.025519177 -0.1871694 0.1525768
000110 31 73 48 3e 68 b2 86 bd 74 57 a7 bd 90 a6 02 3c
       0.19575192 -0.06576997 -0.08170977 0.007974282
000120 48 a1 76 bc 7b 99 37 bd 6f 36 3e 3e a5 7e 82 3d
       -0.015053101 -0.044824105 0.18575452 0.06371812
000130 65 f5 19 be ce a0 36 be 3a 1c 18 be f2 55 36 bd
       -0.15035017 -0.1783478 -0.14854518 -0.044515558
000140 e7 62 5a 3e c8 4e d3 3d cc 23 32 3e ef 80 2e 3e
       0.21326791 0.10317761 0.17396468 0.17041372
000150 81 a1 ce bd dd 7c 4b 3d ba 3f cf bc da c8 d9 bc
       -0.10089398 0.049679626 -0.025298942 -0.026585031
000160 8f f6 e8 3d 10 65 38 bb 38 19 26 be d6 8c 26 3e
       0.11375152 -0.002813641 -0.16220558 0.16264662
000170 6b 13 0f be 55 ff e1 3c 2d 8c 7a 3d 8f 9f 1f 3e
       -0.13972251 0.027587572 0.06116884 0.1558821
000180 d8 ca 13 3e 84 8f 50 be db ff 3f 3e 1a 78 30 3d
       0.14432847 -0.20367247 0.18749945 0.043083288
000190 f7 1d 2a bd ae aa 3a be 2c 22 27 3d d5 e0 46 bd
       -0.041532483 -0.18229172 0.040804073 -0.04855426
0001a0 2a ba fc bc b4 30 ee bd b7 60 e4 3d d8 4b 58 3e
       -0.030850489 -0.11630383 0.111512594 0.21122682
0001b0 4e f5 57 be ab 71 53 bb 59 ec 02 3e cb c3 77 bd
       -0.2108967 -0.0032263796 0.12785472 -0.060489457
0001c0 34 9b 00 be 42 55 e7 3d 6e 9c 49 be ac 57 6b bd
       -0.12559205 0.112955585 -0.1968858 -0.057456657
0001d0 f6 6e 81 3d 24 05 34 be 89 60 48 be 59 4e 3e 3d
       0.06319992 -0.17580086 -0.19568075 0.046461437
0001e0 49 51 9b 3c 83 27 96 3d e6 a3 4d 3e 79 e4 12 3e
       0.018959658 0.07331755 0.20082054 0.14344968
0001f0 8f 0f 90 3a 6c 90 94 3c 80 01 9b bd 43 9c db 3c
       0.0010990965 0.018135272 -0.075686455 0.02680791
000200 96 8c 6a be ff c7 15 be bc e4 17 3d ae cc 0e 3e
       -0.22905192 -0.14627074 0.037083372 0.13945267
000210 83 57 90 bd 0b 8a 30 be 43 27 37 3a 17 e2 ae bc
       -0.070479415 -0.17240159 0.00069867464 -0.021348042
000220 ca 15 f6 bd 5d f6 25 be 11 3e 86 3e c1 7b 62 be
       -0.12015875 -0.16207261 0.26219228 -0.22117521
000230 51 77 94 3d c2 47 5a be 89 67 4c bd b7 b8 d3 bd
       0.0724932 -0.21316436 -0.049903426 -0.10337966
000240 d8 34 c8 bd 61 87 31 be 3b 40 82 3b 6f f2 88 3c
       -0.09775704 -0.17336799 0.003974942 0.016717164
000250 6c 06 6a be 82 a3 c8 bd 19 ad 20 be 2f 45 95 3d
       -0.22854012 -0.09796812 -0.15691032 0.07288586
000260 52 fa 64 bc 68 bc 5b 3d 5b 4a b0 bd 6c c2 11 3d
       -0.013975697 0.053646475 -0.08607932 0.035585806
000270 46 b0 50 be b8 c0 31 3e b7 1b bf bd 2a 7e 2f be
       -0.20379743 0.17358673 -0.09331458 -0.17137972
000280 47 cc b9 3d d1 5d 23 be 12 9a 1a be b6 f4 db 3d
       0.09072166 -0.15953757 -0.15097836 0.10740034
000290 3c f2 04 3e 29 87 1c 3e e2 b2 14 3e a6 ed 9b bd
       0.1298303 0.15285935 0.14521363 -0.07613687
0002a0 98 14 94 3e 87 eb 5c 3e 6b 3e 26 be 07 b2 9a bd
       0.28921962 0.21574222 -0.16234748 -0.07553487
0002b0 a2 54 92 3e 8f 47 d6 bd 48 43 5a 3d 84 9e 10 be
       0.28580195 -0.104628675 0.05328682 -0.14122969
0002c0 71 7e 5e 3e 4e fc 32 be 81 7f 90 be f0 7e 6a bd
       0.21727921 -0.17479059 -0.28222278 -0.057249963
0002d0 81 14 3e be f2 e5 80 3d 12 bd c0 3d 7a 00 d3 3c
       -0.18562509 0.062938586 0.09411062 0.025757063
0002e0 65 f0 96 bd f9 89 33 be b6 b7 fd bd 10 bd 8a be
       -0.0737007 -0.17533101 -0.12388556 -0.27097368
0002f0 14 e2 56 be b9 bd 07 3e a5 e0 1d 3d a3 44 41 be
       -0.2098468 0.13255967 0.038544316 -0.18873839
000300 10 48 a9 bc 29 55 1d be c7 9d 9b 3c 1e d9 68 3e
       -0.020664245 -0.15364517 0.018996133 0.22739074
000310 4e 68 dc bc f9 57 f4 bd ee fd 85 3c 05 60 1e bc
       -0.026905205 -0.11930842 0.016356435 -0.0096664475
000320 57 df 78 be 92 c2 d0 bd 05 be 50 3e cc 81 d7 bd
       -0.24303947 -0.10193361 0.20384987 -0.10522804
000330 b0 7d d9 bd 67 fb 1e bc 37 a5 ba bd 90 69 a2 3d
       -0.10619676 -0.009703494 -0.091135435 0.07930291
000340 20 6c 16 3c 86 8d 7c 3d 10 71 09 3d b4 51 6d bc
       0.009181052 0.061658405 0.03355509 -0.014484812
000350 eb 57 72 3c 52 36 11 be 8b 2c 28 3d 36 9f d3 3d
       0.014791469 -0.14180878 0.041058104 0.103331015
000360 59 cc 63 3c ce 58 4c 3e 96 1a 75 bd 6e 16 58 be
       0.013903701 0.19955751 -0.059839807 -0.21102306
000370 cd c6 a7 bd 29 c1 17 bc 2e 25 5c be f0 d4 7d 3d
       -0.08192215 -0.009262362 -0.21498558 0.06197065
000380 9a e5 03 be 47 87 04 3e 0c 4d 1f 3e df 08 db 3c
       -0.12880555 0.12942229 0.15556735 0.026737629
000390 24 18 1f 3e 14 5f 19 be 0e 80 9a bd 68 3c 56 be
       0.15536553 -0.14977676 -0.07543956 -0.2092148
0003a0 9e 4e 87 bc 56 58 ce 3d 81 ab 22 3e 77 0d 19 be
       -0.01651698 0.100754425 0.15885736 -0.14946543
0003b0 a5 ca a3 bd 2a 78 f6 bd 97 22 3b 3e 97 83 36 be
       -0.07997636 -0.12034638 0.18274914 -0.17823635
0003c0 ab c8 87 3d 45 87 3c bd a7 b3 d4 bb ab ac 42 be
       0.06630071 -0.04602744 -0.006491143 -0.1901118
0003d0 dd 7d d9 3c 48 10 7a 3d c3 a2 62 3e 7f bf 47 be
       0.026549274 0.061050683 0.22132401 -0.19506644
0003e0 73 18 85 bd a4 7c 29 3e 69 c3 d0 3d 56 5b 41 be
       -0.06498804 0.16551453 0.101935215 -0.18882498
0003f0 d7 4d 3f be a6 69 94 bc ee 31 0a be 12 45 1e bd
       -0.18682037 -0.018116783 -0.13495609 -0.03864009

layers.2.bias f4 [64]
000000 3d a2 15 3c 15 75 00 bb 27 6a 05 3d ff 7c 07 3b
       0.009132919 -0.0019601036 0.032571938 0.0020673869
000010 77 e6 27 37 2a 30 ab 3b 75 d0 77 3a 92 78 cd ba
       1.0007635e-05 0.0052242475 0.0009453365 -0.0015676192
000020 58 55 6b 3a fe fa 99 bb 46 73 5a 39 bc 61 91 3b
       0.0008977256 -0.00469911 0.00020833043 0.0044366997
000030 56 03 5c b9 e5 e7 f6 ba 43 3d 09 bb 44 35 2e bb
       -0.00020982078 -0.001883742 -0.0020941056 -0.0026582042
000040 08 28 95 3a 58 9c 0b 3a 43 ae 0c bd b0 b1 cc ba
       0.0011379728 0.0005325726 -0.034345876 -0.001561692
000050 36 00 be 3b a2 1e 9d 3b 0f f6 fa bb fd ee 87 38
       0.005798365 0.0047949115 -0.007658727 6.481817e-05
000060 5c 59 ba ba 11 72 25 3b c4 70 02 3c 79 ea e5 3a
       -0.0014217305 0.002524499 0.007961456 0.0017541192
000070 d0 81 ee 3b 6b 60 78 3a 1d f1 9c 3b 54 5c db bb
       0.0072786584 0.00094748166 0.004789485 -0.006694356
000080 1a cf 4b 3c 27 24 75 3b 6e 46 27 bc 9b 26 7c bd
       0.012439514 0.0037405582 -0.010209663 -0.061560255
000090 e4 7f 84 bb ff fc f5 ba f0 74 53 bb 03 79 03 3c
       -0.004043566 -0.0018767415 -0.0032265745 0.008024457
0000a0 68 bb b2 3a 5b 20 0b 3b 20 37 5b 3c 64 d0 d6 3b
       0.0013636174 0.0021229002 0.013379842 0.006555604
0000b0 3b b4 0e 3b b5 19 c0 bc ac e1 31 3c b1 39 01 bc
       0.0021774906 -0.023449758 0.010857027 -0.00788729
0000c0 89 ea 98 bc c4 3f 5a 3b b9 43 dc bb f9 76 80 bb
       -0.018666523 0.0033302167 -0.0067219404 -0.0039204326
0000d0 34 21 28 bb da c2 d7 ba 3d e7 21 ba 2c 2d b2 ba
       -0.0025654556 -0.0016461269 -0.000617612 -0.0013593785
0000e0 dc d8 d7 bb af 82 a6 3b aa 25 a4 bb 4f 2a 89 bb
       -0.006587131 0.0050814967 -0.0050093727 -0.004185952
0000f0 35 28 52 3b a6 5d 3e 3c 4c 86 9b ba 8b 13 9d bd
       0.0032067422 0.011619007 -0.0011865585 -0.07669743

layers.4.weight f4 [64, 64]
000000 a0 e6 db bd ab 7a e1 3d e1 57 31 be 44 fa 1c be
       -0.107373476 0.11009725 -0.1731868 -0.15329844
000010 ed 95 23 3e 56 fb 25 be 8e 49 22 be 52 62 cf bd
       0.15975161 -0.16209158 -0.15848371 -0.10126175
000020 0b 12 4c bc 49 b6 3e 3e af 16 19 3e 25 f2 39 3d
       -0.012455474 0.18624224 0.1495006 0.045396943
000030 9d 3b 5a be be d2 47 3e 0e 82 ae bd 52 cf 1e 3e
       -0.21311803 0.19513986 -0.085209 0.15508774
000040 33 0f 01 be 45 40 cf bd 87 3c 00 be a6 b5 a9 bc
       -0.12603454 -0.1011968 -0.1252309 -0.0207165
000050 d3 ce ee 3b 73 a8 57 3e aa 0f 86 bd 06 ce 44 3e
       0.007287839 0.21060352 -0.065459564 0.19219217
000060 97 b0 25 be f0 35 2f be 2a 69 93 bc 77 fb 1f be
       -0.16180645 -0.1711042 -0.017994482 -0.1562327
000070 f1 4b 33 3e e2 e8 1b bd 18 c7 0b be df 6c 99 bd
       0.17509438 -0.03806389 -0.13650167 -0.07491469
000080 db 8f 0b 3e 40 20 c0 3d 1a 03 97 3d 69 d8 2c 3e
       0.13629095 0.09381151 0.073736385 0.16879429
000090 c1 58 6c bd 9e 54 14 3e be 2e 02 bc 9f f8 99 3d
       -0.05770183 0.14485404 -0.0079457145 0.07518124
0000a0 ba 85 60 bd e0 30 46 bb 1c 2a 4c bd 0f d6 4f be
       -0.05481503 -0.0030241534 -0.049844846 -0.202965
0000b0 a9 b5 d9 bb 03 11 26 be 33 61 87 bd 61 81 45 bd
       -0.00664397 -0.16217427 -0.06610336 -0.04821909
0000c0 12 f0 3e be 9a 92 5b be 07 84 51 3e b3 52 7d bd
       -0.18646267 -0.21442643 0.2046052 -0.061846446
0000d0 d1 9f 34 be 26 83 aa bd 45 47 bf bd c6 4e 53 be
       -0.1763909 -0.08325796 -0.093397655 -0.20635518
0000e0 25 bc 7d 3d 27 be 03 be f6 02 34 be b3 d8 55 3e
       0.061947007 -0.12865506 -0.17579255 0.20883445
0000f0 62 c8 49 be 99 65 0c bc f9 c9 14 3e bd 5c 14 be
       -0.19705346 -0.008569145 0.14530171 -0.14488502
000100 da a3 13 be 9c 0b 25 3c 26 9f ff 3d 15 7e a2 3d
       -0.14417973 0.010073569 0.12481527 0.079342045
000110 da 90 58 3e a6 45 89 3c 6a 6f 43 be 00 bb 11 be
       0.21149006 0.016756844 -0.1908547 -0.14231491
000120 b9 db e6 bd aa 17 50 be ea 58 55 3e 1c e3 1a be
       -0.112723775 -0.20321527 0.208347 -0.15125698
000130 23 c3 d9 bd b6 ff 66 3e 4d a1 1e 3e 64 d9 ce bc
       -0.106329225 0.22558483 0.15491219 -0.025250144
000140 11 8f fa bd 3e 07 be 3d 46 b6 ab 3d 1d cd 9c 3d
       -0.12234319 0.09278725 0.08384375 0.0765631
000150 d8 f6 84 bd 32 f8 e8 3c 9e 18 0b bc c6 dd d2 bd
       -0.06492394 0.028438661 -0.008489756 -0.10296206
000160 48 8a 12 3e 98 81 de bb fa d8 3c 3e 60 88 5b 3e
       0.14310563 -0.006790351 0.18442145 0.21438742
000170 7a 8f 00 be 9a 9d d9 3d 25 cd 59 3e a3 b1 c2 3c
       -0.12554732 0.10625763 0.21269663 0.023766344
000180 84 a5 1e be e8 0c 53 3e c6 8d 34 be eb 11 87 3e
       -0.15492827 0.20610392 -0.17632207 0.26380858
000190 ae 36 1c bd fe d2 0b be 4d 67 a8 3c df b9 22 bd
       -0.038138084 -0.13654706 0.02055707 -0.03972804
0001a0 42 22 0e be ec d6 3f bc df 13 19 be be 87 72 be
       -0.13880256 -0.011708956 -0.14948986 -0.23684594
0001b0 a0 66 75 be d8 fb 9e 3c 2e 7c 11 be a4 29 64 bd
       -0.2396493 0.019407198 -0.14207527 -0.055703774
0001c0 b9 87 80 3e e1 fc 01 3d a3 f5 07 3e 04 c2 b7 3d
       0.25103548 0.031735305 0.13277297 0.089725524
0001d0 7b 16 27 bd 4f 47 95 3c 40 6e 60 be 00 dc 39 be
       -0.040792923 0.01822248 -0.21917057 -0.1815033
0001e0 8d cb 52 bd a8 d9 46 be 26 d1 d2 bd a2 d9 4d 3e
       -0.051463652 -0.19418967 -0.10293798 0.20102552
0001f0 4f 9d 27 be cd f6 99 bd e6 ed c8 bc ad 72 4f 3b
       -0.16368602 -0.07517777 -0.024527501 0.0031654045
000200 b3 21 f5 bd 3b 62 fc bc a7 42 8f 3d dd 1a 06 3e
       -0.11969318 -0.030808559 0.06995135 0.13096185
000210 2f db d6 bd fd 94 2e be 82 3d c8 3c 97 59 9e 3d
       -0.10491025 -0.17049022 0.024443392 0.07731932
000220 63 37 ff b9 29 ea fb bc fe 68 e8 3c 1e 3d 8f bd
       -0.00048678656 -0.030751305 0.028370377 -0.06994079
000230 e7 57 6d 3d 2a b1 33 be 96 81 b2 bb 67 91 11 3e
       0.05794516 -0.17548051 -0.0054475768 0.14215623
000240 70 7f 4a 3c 28 7c ca 3d 89 c2 0b 3d 78 bd 31 3e
       0.012359485 0.09886962 0.03412107 0.17357433
000250 85 70 42 3c 1b 8c f1 3d 58 ea ee bd e8 aa 3b 3d
       0.011867647 0.11794301 -0.11665791 0.045817286
000260 1f aa 9a 3d 53 24 25 3d 22 27 51 be da f5 2a 3e
       0.07551979 0.040317845 -0.20425084 0.16695347
000270 87 11 20 3e 84 d2 97 3d 7c 83 ef bd 2a cd a0 bd
       0.15631686 0.074131995 -0.116950005 -0.07851632
000280 c6 a1 35 be 06 0f 03 bd 9f 60 ac 3d 79 88 f0 3c
       -0.17737493 -0.03199675 0.084168665 0.02936195
000290 4b 4e 56 3e 0d fd 06 be a7 eb 37 be 87 0f 1e bd
       0.20928304 -0.13182469 -0.17960988 -0.038589027
0002a0 11 f8 9a 3d 10 94 9d bd 7c 9c b0 bd 7e a5 6c 3e
       0.07566846 -0.07694256 -0.08623597 0.23110005
0002b0 6b 1c 38 3c 74 85 04 3e f2 69 3f bd b6 9b e9 bd
       0.011237244 0.12941533 -0.046731897 -0.11406653
0002c0 53 f9 67 bd 50 c7 52 bd a8 de 68 bd 08 cf 64 bd
       -0.05663426 -0.05145961 -0.056852967 -0.055861503
0002d0 93 e8 22 3e b2 92 38 3e b4 dd db bd 58 ce 9f bd
       0.15909033 0.1802471 -0.10735646 -0.07803029
0002e0 43 c6 12 be 6e 5c f4 bd c7 ac e4 bd 04 6f eb 3b
       -0.14333443 -0.11931692 -0.11165767 0.007184865
0002f0 4f 97 0c be 17 dd 35 3e 29 8b 33 3d 28 77 5a be
       -0.13729595 0.1776012 0.043833885 -0.21334517
000300 63 84 3f bd f7 01 44 be d4 87 dd bc 10 d3 35 bc
       -0.046757113 -0.19141375 -0.027042307 -0.0110976845
000310 1f df de bd 3c a9 59 bb 74 b2 12 be 53 44 39 3e
       -0.10882401 -0.0033212444 -0.14325887 0.1809247
000320 87 b1 49 3d c3 d4 b8 3d d5 dd 10 be 7e 60 6d bd
       0.04924157 0.09024956 -0.14147122 -0.05795335
000330 f6 e9 24 3e 73 3c 5a 3e 66 4c 3d 3e 03 b5 0e be
       0.16104874 0.21312122 0.18486175 -0.13936238
000340 4a a1 24 3e 47 61 4b 3d b2 73 4f 3e 0d b6 04 bc
       0.16077152 0.049653318 0.20258978 -0.008100045
000350 8e 75 af bd c2 47 d1 bd 10 3e 17 be 6a 11 2f be
       -0.08567344 -0.10218765 -0.14769769 -0.17096487
000360 5b da 2b be a9 28 58 3e 78 23 09 3e fa c6 0e 3e
       -0.16782515 0.2110926 0.13392437 0.13943091
000370 49 f3 b8 3d e8 ea 52 3e 14 a0 46 3e 79 65 eb 3d
       0.09030778 0.20597422 0.19397002 0.11493964
000380 3e 9b ef 3d 94 c6 23 be 7a b5 0a 3c 49 34 37 3d
       0.11699532 -0.1599372 0.008466119 0.044727597
000390 44 cf 8b 3d 62 18 a3 3d 97 a0 e1 3d 10 85 c4 bd
       0.06826642 0.07963635 0.11016958 -0.09595692
0003a0 c8 9f 85 3d 93 f6 82 3d 23 6f dd bc c1 cc c2 bd
       0.065246165 0.063946865 -0.027030533 -0.0951171
0003b0 8e bf 08 be 7f e8 36 3e 80 84 28 be 00 8b 42 3e
       -0.13354322 0.17862128 -0.16456795 0.18998337
0003c0 e8 45 ed 3d 99 c9 11 be cf b5 4d be 20 db 0b be
       0.11585599 -0.1423706 -0.20088886 -0.13657808
0003d0 bb e0 9c 3d 05 20 37 bd 06 c0 70 bc d7 f6 18 3e
       0.076600514 -0.04470827 -0.014694219 0.14937912
0003e0 a2 a6 35 3e 0d 58 3f be 95 67 31 3e 4e eb 11 3e
       0.17739347 -0.18685932 0.1732467 0.14249918
0003f0 68 fb c2 bd f2 76 0d 3e 89 d6 09 be 9a 8e 8c bc
       -0.09520608 0.13814905 -0.13460745 -0.017157841

layers.4.bias f4 [64]
000000 a8 c6 24 bb 76 ad 51 bc 3e 81 a4 ba 33 77 f6 bb
       -0.0025142822 -0.012797704 -0.0012550724 -0.007521534
000010 0c 31 4c bb d2 1e 89 bd 7e 92 8b 3b 1d 65 06 ba
       -0.0031157164 -0.06695332 0.0042594066 -0.00051267614
000020 fa 13 76 3a 52 b2 cb 3b 9f ab 5e bb 98 8d 8c ba
       0.0009387132 0.006216326 -0.0033976806 -0.001072335
000030 25 10 a9 ba 8a a1 37 3b 9c 7b 2d 3c c7 49 cb ba
       -0.0012898488 0.0028019869 0.010588553 -0.0015509658
000040 02 76 80 3b cb 67 e3 ba 38 4a 96 bc d0 53 11 3b
       0.0039203176 -0.0017349658 -0.018345937 0.00221752
000050 94 b3 85 3a 9c ac 1f 3b df 5a ad bb 2d 9e d2 bd
       0.0010200613 0.0024364358 -0.0052903737 -0.10284076
000060 09 f3 d9 3c f7 81 98 3b 3f f4 84 3b a0 75 ba bb
       0.026605146 0.004654165 0.0040574367 -0.0056902915
000070 43 d8 9f 3b 1f e9 44 3b 36 d7 0b bb 21 44 8f 3b
       0.0048780753 0.0030046178 -0.0021337993 0.0043721353
000080 30 bd a3 bb 7b 6c 77 3a 8d 9c 15 3b c4 df 78 3b
       -0.004996918 0.0009438467 0.0022828907 0.0037975172
000090 8c 66 82 bb 43 b4 71 b9 dc 3c d7 3a 90 c9 b7 3a
       -0.0039795097 -0.00023050704 0.0016421336 0.0014021862
0000a0 51 ab 6a 3b 6b ad 4c 3b 66 e8 eb ba 09 a1 6c bb
       0.003580768 0.0031231295 -0.0017998337 -0.0036106727
0000b0 65 3f 13 bc 1e 2a 89 3b 75 2a a4 bb cf ab af bb
       -0.008987282 0.004185929 -0.005009944 -0.0053610574
0000c0 52 97 db ba e0 01 03 bb 19 9a 03 3c 25 50 ff ba
       -0.0016753471 -0.0019990131 0.008032345 -0.0019478841
0000d0 f1 2b a5 ba 21 0f ad 3c 16 4c 42 3a de 75 23 3d
       -0.0012601597 0.021125378 0.00074118504 0.03990733
0000e0 fe c0 18 ba 9c 82 8c 3b 86 e0 87 bb bc cd 46 ba
       -0.0005827098 0.004288031 -0.0041466383 -0.00075837574
0000f0 ac ba 34 3b 6c be 0c bb c8 68 20 bc 7b d0 05 bc
       0.0027577085 -0.0021475805 -0.009790607 -0.008167381

layers.6.weight f4 [64, 64]
000000 ff 29 c9 3c a3 6d 45 bd ac 25 eb 3d bb 3e 24 be
       0.024556158 -0.04820026 0.11481795 -0.16039555
000010 ae 70 d1 bd de a1 81 bc 1e fb 43 be 83 fc 0a bd
       -0.1022657 -0.015824255 -0.19138762 -0.03393222
000020 16 c7 56 be 67 6d 00 be 3e 06 06 3e 60 96 2b be
       -0.20974383 -0.12541734 0.13088319 -0.16756582
000030 58 29 81 3d b9 20 63 3c 0f fc e4 bd 38 6e 9b 3d
       0.06306714 0.013862782 -0.11180889 0.07589382
000040 0d 76 5c 3e b0 6d e3 3b b6 52 29 be ef b5 20 3c
       0.21529408 0.006940566 -0.16535458 0.009809001
000050 60 d5 0e 3e e2 15 51 3d d0 e9 27 3e 8a 6c c0 bd
       0.13948584 0.05104626 0.16397786 -0.09395702
000060 fd b6 ec bc 6e 2b 57 be ff 9e 4a be 07 ed e4 3d
       -0.02889585 -0.21012661 -0.19787215 0.11178022
000070 7f bc 1b 3d a5 f4 a6 bd 04 0c f3 bd 57 16 27 3d
       0.03802156 -0.08152131 -0.11867526 0.04079279
000080 89 64 5b be e4 ac 48 be 1a 9b 17 3c 28 6c be 3d
       -0.2142507 -0.19597203 0.009253288 0.09297973
000090 63 f9 f7 3d c7 c6 bf bd 97 28 17 3e 66 22 a2 3d
       0.121081136 -0.09364086 0.14761578 0.07916717
0000a0 40 49 21 3e cb e0 b3 bd e8 64 11 3b fd 09 38 bd
       0.15750599 -0.0878311 0.002218539 -0.0449314
0000b0 1a fb c1 bd 91 eb 29 3e ab d4 c6 bd dc fc d0 3c
       -0.09471722 0.16593768 -0.09708532 0.025511198
0000c0 9c c4 47 ba d1 af 4d be 51 c3 0d be 85 80 4f be
       -0.00076205446 -0.200866 -0.13844039 -0.2026387
0000d0 28 ed 15 be 9a 62 02 be 29 cb 20 3d 4b 54 82 bc
       -0.14641249 -0.12732926 0.03925625 -0.015909335
0000e0 ee fb 4e bd 44 67 e2 3d 09 e1 22 be 2c a4 03 3e
       -0.050533228 0.110548526 -0.15906157 0.12855595
0000f0 2f e6 ca 3d 22 b0 a7 bd 7c af 1b 3e ff 19 1c 3d
       0.09907185 -0.081878915 0.1520366 0.03811073
000100 17 6a 18 3e a3 93 32 be 2a 56 fd bd 5b 94 8f bd
       0.1488422 -0.17439131 -0.1236995 -0.070107184
000110 af 28 c3 3d c9 50 cd 3d 36 50 29 3e 41 ee 3d be
       0.09529244 0.10025174 0.16534504 -0.18547918
000120 b1 53 6a be 49 ab 50 be 00 f0 2b bd 3d 83 f4 3d
       -0.22883488 -0.2037784 -0.04197693 0.11939094
000130 03 ce 21 be f6 75 e3 3d 51 a7 2d 3e 3d 0f 48 bd
       -0.15801243 0.11106484 0.16958357 -0.048842657
000140 63 ec 30 3e fd 73 09 3e e1 f4 34 3d 46 c0 30 be
       0.17277674 0.13423152 0.044178847 -0.17260846
000150 85 52 3c bd 56 72 6a 3e a5 dd 25 be 18 75 84 bd
       -0.045977134 0.22895178 -0.16197832 -0.06467646
000160 92 7e 42 3c 05 2e 95 3d f1 01 8a bd 9d 2f 03 3e
       0.011870997 0.07284168 -0.067386515 0.12811132
000170 f1 c2 45 bd 3c bb 81 bc 95 5c 19 3d c6 35 0f be
       -0.048281614 -0.01583635 0.03744181 -0.13985357
000180 cb 39 fb bb 75 29 5d bd cd 9f 3c 3e f7 f1 ec 3c
       -0.0076668016 -0.053994615 0.18420334 0.028923972
000190 6c 2a 81 bd ee ec 29 3c 32 24 b9 3d fa dd 5d bd
       -0.063069195 0.01037143 0.09040107 -0.05416677
0001a0 96 69 3b be 95 ec 5f 3d f7 e1 6c bd be 9f 4c 3d
       -0.18301997 0.05466898 -0.057832684 0.04995703
0001b0 69 14 ea bd 16 85 d8 bd 5f c8 47 be e7 51 e2 bd
       -0.11429674 -0.10572259 -0.1951003 -0.11050778
0001c0 f7 35 46 3e 36 a6 24 3e 08 1b 9f bc c0 6d e1 3a
       0.19356523 0.1607903 -0.01942207 0.0017198846
0001d0 7a 00 3b be 73 7b 2c be 98 2c 53 bd 24 c1 38 3e
       -0.182619 -0.16843967 -0.0515562 0.18042427
0001e0 4c 24 09 3e ad 16 bd 3d c7 7e 2c be 5d 5d 5f 3e
       0.13392752 0.09232841 -0.16845237 0.21812959
0001f0 6f 6f 14 3c 6a 75 4c 3c e1 4d 23 be 05 5d 29 3e
       0.009059771 0.012479166 -0.15947677 0.1653939
000200 d2 86 25 be cd e6 5d 3e 24 d8 20 bd c8 5a 28 be
       -0.16164711 0.21670075 -0.039268628 -0.1644088
000210 d9 02 1b 3e cd a1 c6 bd 37 42 07 3e 6c b0 da 3d
       0.15137805 -0.0969883 0.13208853 0.10678181
000220 35 a0 12 3e ef 5e 69 bd 26 13 bf 3d da a9 89 bd
       0.14318927 -0.0569753 0.09329824 -0.0672185
000230 89 25 09 3e 4e 57 22 3d 0c 18 c8 3d 44 92 e5 3d
       0.13393225 0.03963404 0.097702116 0.112095386
000240 a3 23 61 3d dd bf 35 3e 25 6a 3a be bc 09 5a 3e
       0.054965626 0.17748971 -0.18204553 0.21292776
000250 4e 53 41 be 5c 48 41 3e 2f da 5a be e7 8d 3d 3e
       -0.18879434 0.18875259 -0.21372293 0.18511163
000260 65 df 43 3d ae 12 ed bd 21 da 03 3d b7 f9 11 be
       0.047820468 -0.115758285 0.032190446 -0.14255415
000270 26 1a 34 be 71 8c 1a 3e 89 d6 2d 3c 6e 2d 9f 3c
       -0.175881 0.15092637 0.010610231 0.019430842
000280 dd 6d 2d 3e 21 3a f9 3c 28 59 54 be 21 ea 53 be
       0.16936441 0.030423226 -0.20737135 -0.20694782
000290 83 04 ba 3d 04 d0 c9 3d 56 72 2e be a1 9d 8d 3d
       0.09082892 0.09854129 -0.17035803 0.06914831
0002a0 ea 62 ea bd f9 44 45 3e c8 85 86 3d 5b dc 94 bd
       -0.114446476 0.19264592 0.065684855 -0.07268592
0002b0 4e 0c ab bc ae 02 21 be 7f b1 45 bc b1 d4 52 be
       -0.02087989 -0.15723678 -0.012066244 -0.20588948
0002c0 21 ea 3a 3d 8e 49 53 3e aa 0e ce 3d 29 88 0f 3e
       0.04563344 0.20633528 0.10061391 0.14016785
0002d0 ca e9 1c 3e 56 2c 8b bd 8d 86 21 3d 1f 3f 26 be
       0.15323558 -0.06795566 0.03943496 -0.16235016
0002e0 08 ae 3e 3e c6 9b 54 3e f6 ea 2a 3e ed 8b 0e 3d
       0.18621075 0.20762548 0.16691193 0.034801412
0002f0 7e 60 30 3e 81 51 30 3e b9 85 9a bc 96 d3 56 be
       0.17224309 0.17218591 -0.018862592 -0.20979151
000300 d4 d5 36 be 93 bf 7e bd f1 aa 1c be ac db 90 bd
       -0.17855006 -0.06219442 -0.15299584 -0.07073149
000310 2d 7f 15 3e 3d c8 de 3c 09 4b a5 3d 57 85 ce 3d
       0.14599295 0.02719509 0.080709524 0.10084026
000320 fb e0 db bd 72 d5 9e 3d 2e 2e 6f 3c b9 b1 1f bd
       -0.10736271 0.07755555 0.014598412 -0.03898785
000330 ca 66 83 ba dc 63 a7 bd 57 48 1c be 55 02 8e bc
       -0.001002514 -0.081733435 -0.1526197 -0.017335096
000340 b8 77 42 be 67 22 ff 3c 8e dd ca bd 35 6f e3 3b
       -0.18990982 0.031144334 -0.099055395 0.006940747
000350 b3 71 84 bd 3b 23 42 be 1c 15 ca bd 9b 32 03 3d
       -0.06466999 -0.18958752 -0.098673075 0.032030683
000360 b3 1a 97 3d c5 7c 2f be 7a 95 b3 3d af 61 5e 3e
       0.07378139 -0.1713744 0.08768745 0.21716951
000370 3f 05 83 3c d9 c1 43 bd d4 6e 4b bd 14 c7 2e 3e
       0.015993712 -0.04779229 -0.04966624 0.1706813
000380 ca 5f 13 be 15 f6 24 3e bd f2 10 be 81 0d dd 3d
       -0.1439201 0.16109498 -0.14155097 0.10793591
000390 6b 15 e3 3d e5 9d 4e 3d 65 97 00 be dd 7c fa bd
       0.110880695 0.05044355 -0.12557752 -0.12230847
0003a0 a8 5c 36 be 93 7f e5 bd f6 d3 d1 3d 4b ef 80 bd
       -0.17808783 -0.112059735 0.102455065 -0.062956415
0003b0 1f a8 3c be a0 c4 0b 3e 80 86 63 be 77 3c 9b 3c
       -0.18423508 0.13649225 -0.22219276 0.01894973
0003c0 c5 b4 3e 3e b1 d6 88 bd 7e d5 ad bd 08 19 3b bd
       0.18623646 -0.06681574 -0.08487986 -0.04567817
0003d0 7b 70 22 be 9b f3 ac bd b8 92 72 bd a9 a8 ab 3d
       -0.1586322 -0.084449016 -0.059221953 0.08381779
0003e0 f8 73 b0 3c 94 84 c9 bd 01 76 c6 3d 3e 1f 62 be
       0.021539673 -0.098397404 0.09690476 -0.2208223
0003f0 13 96 c1 3d 37 73 bc ba ab 22 ce 3d 85 e8 70 bd
       0.094524525 -0.0014377598 0.10065206 -0.058815498

layers.6.bias f4 [64]
000000 f7 9b 91 ba 10 5a a9 3c c9 7d 26 ba f8 91 29 bc
       -0.0011109103 0.020672828 -0.0006351141 -0.010349743
000010 4f 06 ed 3a 02 f6 06 3b 99 1e 21 bc d3 08 14 3c
       0.0018083545 0.002059341 -0.009833955 0.009035307
000020 c0 90 75 bc e5 25 ea b8 28 64 68 3a 97 2a 15 3b
       -0.014988124 -0.00011165048 0.0008865022 0.0022760981
000030 dd 2d 9a b9 45 68 ab 3a b4 37 41 3a 25 16 30 bd
       -0.0002940734 0.0013077339 0.0007370666 -0.04298987
000040 55 28 bf ba eb 67 53 3b d4 8d 98 3b 2e cb 06 3c
       -0.0014584163 0.0032257985 0.004655579 0.008227153
000050 4c f6 e2 3a bb 02 76 ba 42 24 dc bb bb ca c2 ba
       0.0017315834 -0.0009384562 -0.0067181895 -0.0014861444
000060 f2 b0 9a 39 6b e3 a2 3a 58 f5 00 bb 27 9f 3d bb
       0.00029505003 0.0012427395 -0.0019677486 -0.0028933974
000070 81 1e 39 bd 1a 6c b7 bb 99 8a ce ba d7 0c 48 bb
       -0.045195106 -0.0055976035 -0.0015757858 -0.0030525231
000080 1f b3 48 ba 71 a0 8a 3b e6 37 55 3a dd d1 0b bb
       -0.00076560857 0.004230552 0.00081336347 -0.0021334805
000090 97 bc 67 bb 2a 9f 2e bc 17 19 e4 ba 92 32 ca 3a
       -0.003536021 -0.010658065 -0.0017402497 0.0015426448
0000a0 7a 5f 8f 3b d3 5c 5f bb 0c 0f d5 ba ce bd ce 3a
       0.0043753954 -0.0034082427 -0.0016255095 0.0015773119
0000b0 ed a1 6c 3b 95 2e 1e 3c 77 0c 1b bb 1b 65 a7 3a
       0.0036107257 0.009654661 -0.0023658553 0.0012771221
0000c0 56 af 19 3b f3 bf 5f bb 9d 6a be 39 e6 81 f0 bb
       0.0023450456 -0.003414151 0.00036319057 -0.007339704
0000d0 01 0a d3 3a 40 b3 2b 39 f6 1c a2 3b 51 a0 6c bc
       0.0016101004 0.00016374607 0.0049473 -0.014442519
0000e0 db 2e 7c 3b 5c e0 42 bc 74 a6 bc 3b 73 3c 8b bb
       0.0038480076 -0.011894312 0.0057571474 -0.0042491495
0000f0 79 50 af 3b 0d da 0e bb 25 03 93 39 6b 62 85 3b
       0.0053501693 -0.002179745 0.00028040368 0.00407057

layers.8.weight f4 [64, 64]
000000 20 7e 07 bc d6 d3 b6 ba 8a ba f3 3d 8d d5 7c 3d
       -0.008269817 -0.001394863 0.11900814 0.061727095
000010 db ec 25 be 7d 2a 06 3e f0 ed 6a 3e b3 65 07 bd
       -0.16203634 0.13102145 0.22942328 -0.033055972
000020 03 39 71 3d 45 9a 43 be 73 23 43 3d 51 29 74 3d
       0.05889226 -0.19101818 0.04764123 0.059609715
000030 bb 65 8a 3b 99 b1 41 3e 81 3d 1d 3e f4 3d 87 3c
       0.004223553 0.18915404 0.15355493 0.016509034
000040 8f 06 4b be 3e e0 b7 3c 2f 80 25 3e 55 1d a0 bd
       -0.1982672 0.022445794 0.1616218 -0.07818095
000050 de 28 b2 3c 12 89 4c be 8d 6f 01 3e 8a 59 28 be
       0.021748003 -0.19974163 0.1264021 -0.16440406
000060 fe e7 c5 3d 27 3c 01 be 35 85 42 bc ac d1 1f 3e
       0.096633896 -0.12620603 -0.011872579 0.15607327
000070 71 40 04 3d ac d6 23 be 48 5c 36 be b9 e7 42 bd
       0.03228802 -0.1599986 -0.1780864 -0.04758427
000080 8f 22 69 3d 33 a0 39 be 33 4e a1 3d d7 ec 5e 3e
       0.056917723 -0.18127517 0.078762434 0.21770035
000090 53 ab 5c be 54 af 5d bc 2e ff ec bd 2d 8b 9e ba
       -0.2154973 -0.013530571 -0.11572109 -0.0012095921
0000a0 0e 4a 08 be 19 c8 8c bd 2d bb 51 3e 79 48 cf b8
       -0.133095 -0.06874103 0.20481558 -9.884028e-05
0000b0 43 40 68 3d a6 10 34 be 8b 25 5e bd d8 19 cc 3d
       0.05670191 -0.17584476 -0.054235023 0.09965867
0000c0 d7 9c a4 3d 1c d1 9a 3d 06 30 75 3c 80 9b bb 3d
       0.08037727 0.07559416 0.014965063 0.09160519
0000d0 20 ee 4f be a4 4e 00 bd d5 5a f6 bd 6f f5 9a 3c
       -0.20305681 -0.031324998 -0.120290436 0.01891586
0000e0 5f fb b8 3d b9 c0 3f bc 64 f1 48 be af f9 43 3d
       0.0903232 -0.0117036635 -0.19623333 0.04784554
0000f0 96 0c 2a be e4 85 f9 3b 39 97 2a 3d 54 cf ed bb
       -0.16606364 0.007614838 0.041648123 -0.0072573815
000100 72 07 52 3e 4d df 54 bd ae c0 3f be d9 3e 13 be
       0.20510653 -0.05197077 -0.18725845 -0.14379443
000110 8a 27 1e be 3b e9 83 3b 7d ae 8c bd 9b db 54 3e
       -0.1544477 0.004025606 -0.068692185 0.20786898
000120 52 28 85 3d 2c b5 54 3c 8d d6 1c be 67 9a cf 3d
       0.06501831 0.012982648 -0.1531622 0.10136872
000130 8b 88 42 be fc 27 e6 bd cf 83 4c 3c ac 1f 41 3e
       -0.189974 -0.11238095 0.0124825975 0.18859738
000140 04 2b 34 3e ea 82 93 bd 37 01 32 be e0 78 89 3b
       0.17594534 -0.07202704 -0.17383276 0.0041953176
000150 b4 b9 d9 bc ae f4 3e bd 6f 39 8f bd 54 e9 eb bc
       -0.026577808 -0.046620063 -0.069933765 -0.028797783
000160 e5 5a e7 bc d9 8d 4c 3b ec 82 20 3e 4f c8 e9 bd
       -0.028241584 0.0031212477 0.15674943 -0.11415159
000170 28 1f 05 3d d2 e4 68 bd 8b 0f 24 3e 9a a1 4f be
       0.032500416 -0.056858845 0.16021554 -0.2027649
000180 fd be 58 3e 16 f1 ee bd c6 61 62 3e 3e 05 85 3d
       0.21166606 -0.11667077 0.2210761 0.064951405
000190 2f ed 5a 3e e1 aa 13 3d f3 ca 3e 3d 93 ca ad 3c
       0.21379541 0.036051635 0.046580266 0.021214759
0001a0 3d 40 21 be f2 24 fe bd df e5 d3 3d 82 e6 10 3e
       -0.15747161 -0.124093905 0.10346579 0.14150432
0001b0 c3 8f 58 3e f7 a4 76 3d d9 7b 02 3c 2d b8 3b 3e
       0.2114859 0.060215916 0.007964098 0.18331976
0001c0 b2 60 ed 3c 17 b5 26 3e 1c 41 ca bd 72 1b 5e bd
       0.028976772 0.16280018 -0.098757 -0.054225393
0001d0 a3 82 1a 3e 52 4a c3 bd 7c 93 fc bd f2 30 93 bd
       0.15088896 -0.0953566 -0.12332818 -0.0718707
0001e0 8c de 8a 3d 44 2f 8f bb 54 bd 0f 3e e0 b4 01 bd
       0.06780729 -0.004369648 0.14037067 -0.031666636
0001f0 b9 02 c7 3d 2c b4 34 be 7b 84 d1 bb b5 92 0e be
       0.09717316 -0.17646855 -0.0063939667 -0.13923152
000200 07 dd 48 3e c4 9a a7 bd a8 1f 92 bd 1c f0 50 3e
       0.19615565 -0.08183816 -0.07134944 0.20404094
000210 71 97 a7 3d 56 c7 16 be 80 14 dc bd f4 4c 47 3e
       0.08183182 -0.14724478 -0.107460976 0.19462949
000220 72 3c 91 3c 3b 3a 34 be 6a c1 81 3d 5d 59 04 3e
       0.017729018 -0.17600338 0.06335719 0.12924714
000230 63 7e c7 3d dd bf 22 3e 83 a4 78 bc 19 e9 b1 bd
       0.09740903 0.15893503 -0.015175941 -0.08687038
000240 ee 9d 4e be 30 15 1f bd 69 40 13 3e 6f a4 44 3e
       -0.20177433 -0.038838565 0.1438004 0.19203351
000250 ad cc 09 be 56 a7 18 3e 0b 55 c6 bc 86 5a 0b 3e
       -0.13456984 0.14907584 -0.024210474 0.1360875
000260 f7 2d ab bd 46 96 4f be 10 05 74 bd 1a 32 6c 3d
       -0.083583765 -0.20272169 -0.05957514 0.057664968
000270 25 5f 0b bd fa 70 66 3d 02 9a 87 3c 31 47 46 3e
       -0.034026284 0.056260087 0.016552929 0.19363095
000280 a0 98 93 3d c1 68 68 bd e4 38 b4 bc 58 fb 45 be
       0.07206845 -0.056740526 -0.021999784 -0.19334161
000290 71 bb 33 be 30 e9 42 be a9 10 25 be 3b 6e 13 3e
       -0.17551972 -0.19034266 -0.16119637 0.14397518
0002a0 5f 00 91 bd 09 43 bd bd eb bc f2 bd bd 0d 9f 3d
       -0.07080149 -0.092413016 -0.118524395 0.07766292
0002b0 89 4e 0f 3a b8 40 88 3d c7 52 c7 3d e3 ef 96 3c
       0.000546672 0.06652969 0.097325854 0.018424934
0002c0 ff e0 46 be 7a d4 45 3e f3 37 43 3e 85 41 0d 3c
       -0.19421767 0.19319335 0.19064312 0.008621578
0002d0 1b 05 80 3d 06 82 81 bd e7 0c dd bd 5b ad b3 3d
       0.06250974 -0.06323628 -0.107934766 0.08773299
0002e0 2d 2d 0a 3d 9c 9c f4 3c db 6f 35 3e a1 af f0 bd
       0.03373449 0.029859833 0.1771845 -0.117522486
0002f0 23 c1 56 3d e5 24 56 3d 47 f2 23 3e 33 8c 51 be
       0.052430283 0.05228128 0.1601039 -0.20463638
000300 d1 87 b2 bb e7 43 8b bb 78 c5 c6 be b9 9f 3f 3e
       -0.0054483195 -0.004250038 -0.38822532 0.18713273
000310 45 30 5a be d0 a2 4d 3e 9a ee 8d 3d 62 e2 cd bd
       -0.21307476 0.2008164 0.06930275 -0.10052945
000320 5e 07 8e 3d 0e 7c 22 3e 6b 9a c7 3e 27 1f 62 3e
       0.06934999 0.15867636 0.38985 0.22082196
000330 ed 4c 23 be c9 9f 4c be a0 3d f1 3c 37 1c 86 be
       -0.15947314 -0.19982828 0.02944833 -0.261934
000340 61 86 40 be 32 c4 3f bd 36 d7 ad 3e d4 8f a2 3e
       -0.18801261 -0.046817966 0.33953255 0.31750357
000350 a9 0c 4d 3e 28 3d 8c be 77 34 e8 3c 8e 29 f2 3d
       0.2002436 -0.2739041 0.02834533 0.11824332
000360 25 15 ea bc 06 a4 c2 3d 87 d7 b9 3d 91 95 35 3e
       -0.028574536 0.09503941 0.09074312 0.17732836
000370 db 30 2a be 93 08 11 3e 7d 7a 03 3e ec de 30 be
       -0.166202 0.14163427 0.12839694 -0.17272538
000380 b0 f1 5b 3e 65 cb 5b 3e 07 90 ad 3e ee a7 0c 3d
       0.21478915 0.21464308 0.33898947 0.034339838
000390 80 59 ca 3c 1c 01 d4 3d b3 4e 04 be f8 f1 98 3e
       0.02470088 0.10351774 -0.12920646 0.29872108
0003a0 6e b5 ef 3d 4e 1f 9b be b2 6c 71 be 34 b2 9e 3e
       0.11704527 -0.3029732 -0.2357662 0.30995333
0003b0 14 cd 8b 3e a5 db 51 3e 7a 56 3c be 01 d3 8a 3e
       0.273049 0.20493944 -0.18392363 0.27114108
0003c0 66 df 0d 3e 46 84 fc 3d ff bc 99 3c e9 a1 57 3e
       0.13854751 0.12329917 0.018766878 0.21057858
0003d0 50 42 f8 3c f7 f8 44 be a0 2d a0 bd fa 89 f2 bd
       0.030305058 -0.19235598 -0.07821202 -0.11842723
0003e0 f6 ff 80 3d b0 20 b0 3d 76 fe bc bd 68 b0 9b bd
       0.06298821 0.08599985 -0.09228222 -0.07602006
0003f0 12 a9 46 3e b5 cf dc bd 7e 5c a0 3e 11 0e d0 bd
       0.19400433 -0.107818045 0.31320566 -0.10158933

layers.8.bias f4 [64]
000000 5b af c1 bb 9a 42 96 3a 7a 7a 83 3b 0b a4 61 bc
       -0.0059107966 0.0011463941 0.004012403 -0.013772021
000010 c8 d9 e7 3a cf ee f6 3a 33 a8 d2 ba 55 18 59 3c
       0.0017688805 0.0018839481 -0.0016071856 0.01325043
000020 0b 77 1c bb 6f a9 d6 ba f0 f4 cd 3b 24 75 1c bb
       -0.0023874666 -0.00163774 0.0062853023 -0.0023873532
000030 4d 58 cd ba ed f5 0a bb 00 85 3f bb f0 63 1e bb
       -0.0015666574 -0.0021203712 -0.0029223561 -0.0024168454
000040 4d aa 0b 3a fc e6 10 bb 2d 71 91 3b 1c fe 0b bd
       0.0005327806 -0.0022110334 0.0044385404 -0.034177884
000050 17 72 08 bb 7c 73 75 3b 59 97 f2 b9 40 7a 6f 3b
       -0.0020819956 0.0037452867 -0.000462706 0.0036541373
000060 77 b6 02 bb de d6 85 3b 92 39 7d ba 7a e2 a8 3b
       -0.0019945183 0.004084452 -0.0009659763 0.0051539512
000070 6a 1e 18 bc b3 aa 9f 3a 2a b4 ab 3b 95 e8 ce 3b
       -0.009284595 0.001218161 0.005239983 0.006314347
000080 bb 19 fd 3a c8 28 bf 3b f7 45 5e bb 30 f3 bb bb
       0.0019310036 0.005833719 -0.0033916214 -0.0057357773
000090 09 c1 21 ba 0f e6 d6 3a 6b ce 03 3b d6 bc 32 3b
       -0.0006170427 0.0016395467 0.0020112048 0.00272732
0000a0 8c 6b 2d 3b ab 5e 0c 3b a4 0e 16 bb 24 02 bb 39
       0.0026461808 0.0021418731 -0.002289691 0.00035669014
0000b0 46 de ca 3b e8 84 6d 3b 20 79 9b 3a 54 4f 00 bc
       0.006191048 0.0036242548 0.001186166 -0.007831413
0000c0 ef b5 c7 38 7e a0 28 bb 88 ad 8c ba a0 14 2e 3b
       9.522947e-05 -0.0025730426 -0.0010732869 0.0026562586
0000d0 7d aa f7 b8 c8 d8 27 bb 53 d5 1c bb e6 8c c3 bc
       -0.00011809634 -0.002561139 -0.0023930862 -0.023870897
0000e0 df 4b 2b bc 80 a9 d2 3b eb 42 1a bb 8c d6 e2 3b
       -0.010455101 0.0064288974 -0.0023538421 0.0069225486
0000f0 17 24 07 bb f3 7b a2 bb f5 27 ae 3a b9 fe 02 bb
       -0.0020620876 -0.0049586236 0.0013287055 -0.0019988252
