data/results/state_net_32000.pth (torch, 90556 bytes, 14 tensors)

layers.0.weight f4 [64, 5]
00000000: 9cd7 753c 5367 44be 822b 9a3e adb2 95be
00000010: 4bb1 84be ba98 8fbe 4b30 89be 34e5 c8bd
00000020: 63db 693e e881 6a3e 8988 0fbd a964 6b3e
00000030: 696a 593e 5ea7 4d3e 78a5 8bbe 4ae0 3d3e
00000040: 269c 85bd 7ff4 603e 10cf 373e a29b 25be
00000050: f02c 7abe 482b 0b3e 81a9 04be 7400 3f3e
00000060: cf98 643b cea2 883e 903f 4f3c c2e8 603e
00000070: e6f7 0dbd a87a 0e3e 0206 1b3e 2e8f 8c3e
00000080: 8914 ff3d b3b3 51bd f80b 813c 9dd9 a93d
00000090: 4f6f 03bd 7aff 30be f731 d3bd 765e f73c
000000a0: 0cf5 aabe f456 7fbe 5867 643e 1b04 263e
000000b0: 950f ac3d 540d 3fbe cecf b0bc 47cf 823e
000000c0: 0757 113e 1a42 9dbe b808 163d 3c6d 943d
000000d0: 3b2b 873c 0ade c03d 3cb6 3abe df60 99be
000000e0: 0348 58be 2e7f afbd e8a1 40be d4ca 98be
000000f0: 432d 9c3e f7eb 79be f423 123e a280 bbbb
00000100: 5c6a ad3e 8902 64be 11be 92be dc23 013e
00000110: 2256 703d 0824 9cbb eb6d 13bd 7b4b f23d
00000120: 357a b4bd fc84 b6bd d200 473e af9f 7d3e
00000130: d0aa 81be c5a1 71be 6a5d 0ebe 513b 593e
00000140: d7f5 9d3c 7c00 943d 0b7f 863d f55a 1d3e
00000150: 3fd7 ac3d b0ce a1be c950 723e d077 8ebe
00000160: efd2 1ebd 948d d7bd 3f93 ed3d 98f6 8bbd
00000170: 2625 6a3e 4538 673e a658 a83e d6be 4e3e
00000180: 3b01 b73b 371e 8dbe 5ea0 5c3e fd80 813e
00000190: 9760 94be 4c05 843e 4517 0abb 1266 e3bd
000001a0: 3751 7d3d be79 8d3e 4d70 883e be25 6fbe
000001b0: dbce 013b a111 09bd b6e0 ffbd 4742 0cbd
000001c0: 43ae 1a3e 8990 90be aad7 313e b887 713e
000001d0: d5df 8cbe 1c86 553e 9fff 58bc 7b94 96be
000001e0: b3ef c93b dcae debd feb7 453e f162 853e
000001f0: 9589 83be 26c3 a43e 7826 3dbe 7875 803e
00000200: f858 25bc e5fb 11be cc1d 843e 37db 22be
00000210: 48e7 f5bd 00b2 d53d ec73 4d3d d0c4 3e3e
00000220: 6031 71be 734e fb3d 31eb 12be 976a bcbc
00000230: 87ca 3d3e 9752 f33d 8d36 9c3e 7c6a 50bd
00000240: fecd b1bd 1b3c 19be c149 71be efe7 8f3e
00000250: fdfd 72be e234 60be c8f8 df3c 2baf 10bd
00000260: 74eb 0a3c 3856 56bd 6bb9 e8bd 7ff6 8e3e
00000270: 0503 3dbe f718 63be 10fb 8cbe df9e 5e3e
00000280: 8203 85bc 5874 7e3e 8ae8 ea3c 7bd2 7a3a
00000290: cbdd 203e 6ccb 433e 4756 7c3e b379 bfbd
000002a0: 628f 95be 2e67 043e 1abb dbbe 0c5b 813e
000002b0: 472b babe 9a13 a23e f5b9 e83e fbc4 853e
000002c0: 905f 8fbe 3874 47be 04f5 49be 833f ed3d
000002d0: f263 8abe 6ec1 43bd cdc4 de3b 7e61 703e
000002e0: 1697 debe 78bb dbbd 54c5 0bbe 9152 a93e
000002f0: 4d93 37be ee4b ae3e 3b6f 893e dbef a4bd
00000300: 76f6 2c3d d6b7 80be 20f6 94bd 385f cdbe
00000310: 5972 b3be 1706 963e 57c1 8ebe a2f3 91be
00000320: 1e38 a43e c3d0 ad3d 31b9 17be 6fd4 9bbd
00000330: a70d 00be f255 58be 84c8 2cbe b348 26bd
00000340: 7f6d 793e ed4b 34be 1758 dcbd 303f 7bbd
00000350: 4f2b 933e 2775 59be c13d 563d 9a1a 2abe
00000360: 620f c2bd 351d 7c3b 2ddc 953d d81b b13d
00000370: 8bfa 343e 3a04 133c baaf 123d 55b7 8b3e
00000380: f703 b0be b341 76bd 97e5 0bbd f65d c4bd
00000390: f78c 5abe 9ac8 1a3e 77c0 4c3e 489e d9bc
000003a0: e80e 863e 8f2f 8e3e a374 823c 786e 94be
000003b0: 7a6b f3bd acf6 4b3d 82c8 97be 6e53 6a3e
000003c0: 79c3 363e bdc1 9dbe 6650 96be 99ba 3ebd
000003d0: b896 9bbe b80a 7ebe 4912 463e 4d49 9cbc
000003e0: 3100 51be 99ef 02be 1920 3fbe 6188 913e
000003f0: 3707 85be c8ca 87be 38cc 6e3e 7cd2 d73d
0.015005019 -0.1918004 0.3011132 -0.2923788 -0.25916514 -0.2804621 -0.26794657 -0.09809342
0.22837596 0.22901118 -0.03504232 0.22987618 0.21231999 0.20083377 -0.2727468 0.1854259
-0.065239236 0.21968268 0.17950082 -0.1617265 -0.24431205 0.13590729 -0.12955286 0.18652517
0.003488112 0.2668671 0.012649432 0.2196379 -0.034660242 0.13913977 0.1513901 0.27452987
0.12455089 -0.051196765 0.015752777 0.082934596 -0.032088574 -0.17284957 -0.103122644 0.03019641
-0.3339008 -0.24935514 0.22305048 0.16212504 0.084014095 -0.18657428 -0.021583464 0.25548765
0.14193355 -0.30714494 0.03662941 0.07247397 0.016500106 0.094173506 -0.1823358 -0.2995672
-0.2112122 -0.085691795 -0.18811762 -0.29842246 0.30503282 -0.2440642 0.14271528 -0.0057221213
0.33870208 -0.22266592 -0.28660634 0.12611336 0.058675893 -0.0047650374 -0.035993498 0.11830803
-0.08812372 -0.089120835 0.19433907 0.24767946 -0.25325632 -0.23596866 -0.13902822 0.21214034
0.019282265 0.07226655 0.065672 0.15366729 0.084394924 -0.31603003 0.2366363 -0.27825785
-0.03877538 -0.10525051 0.116003506 -0.068341434 0.22865734 0.22580059 0.32880133 0.20189986
0.0055848635 -0.27562115 0.2154555 0.25293723 -0.28979942 0.2578529 -0.0021070999 -0.11103453
0.06184503 0.27631944 0.2664818 -0.23354241 0.0019807133 -0.033464078 -0.12494032 -0.034242895
0.15105538 -0.28235272 0.17367426 0.23586929 -0.2751452 0.2085194 -0.013244539 -0.29410157
0.0061626076 -0.108731955 0.19308469 0.2605205 -0.25690904 0.32180136 -0.18471706 0.25089622
-0.010092013 -0.14256246 0.25803983 -0.15903936 -0.12007004 0.104343414 0.05015938 0.18629766
-0.23553991 0.122708224 -0.14347531 -0.023000045 0.1853429 0.11880987 0.3051037 -0.0508828
-0.08681868 -0.14964335 -0.23563291 0.2810664 -0.23729701 -0.21895173 0.027340308 -0.035323303
0.008478988 -0.05232832 -0.11363491 0.27922437 -0.18458183 -0.22177492 -0.27535295 0.21740292
-0.016237024 0.24849069 0.028675336 0.0009568107 0.15709607 0.19120568 0.24642287 -0.09349384
-0.29210955 0.12929985 -0.42916185 0.25264776 -0.36361143 0.3165558 0.45454374 0.26126847
-0.28002596 -0.19477928 -0.19722372 0.115843795 -0.27029377 -0.04779189 0.006798363 0.2347469
-0.43474644 -0.10729116 -0.13649493 0.33070806 -0.17927285 0.34042305 0.26842675 -0.08053561
0.04222723 -0.25140256 -0.07273507 -0.4011171 -0.35048178 0.2930152 -0.27881882 -0.2850619
0.32074064 0.08487084 -0.14816739 -0.07608878 -0.12505208 -0.21126536 -0.16873366 -0.040596675
0.24358176 -0.17607088 -0.10758989 -0.061339557 0.2874398 -0.21236096 0.052304987 -0.1661171
-0.0947559 0.0038469557 0.07317386 0.08647889 0.176737 0.008973176 0.035812117 0.2728831
-0.34378025 -0.06012125 -0.0341545 -0.09588234 -0.21342836 0.15115586 0.19995295 -0.026564732
0.26183248 0.2777066 0.015924757 -0.2899053 -0.11885734 0.04979579 -0.29645163 0.22883388
0.17848004 -0.30811873 -0.29358214 -0.046564672 -0.30388427 -0.24808776 0.19342913 -0.019077921
-0.2041023 -0.12786712 -0.18664588 0.2842436 -0.25982067 -0.26521897 0.23320091 0.105381936

layers.0.bias f4 [64]
00000000: 7f21 84bc 38ff 523c fcf7 57bc 68d1 19bb
00000010: e9db 13bb 5c47 923a 4b75 bb3b 4aac 0dbc
00000020: 416a d33a 445e 69bb 2dd0 aa3b 0d67 8f3b
00000030: fc48 90bc e2f3 bd3b 2e1a 9c3a 8f4f 70bc
00000040: 0e2a 3e3b f845 e1ba d341 8dbc 9766 53bc
00000050: f5a9 503b 19dd d7ba 5de1 df3b 2e7a 303c
00000060: 52e9 023d 5fd4 e8bb ca6b 753b 029c 9a3b
00000070: 342f 17bc 3f66 7e3b 1664 5a3c fe6c 113b
00000080: fef2 03bc b3ea 9e3a 4763 5a3d bd6c 703c
00000090: 068b 3ebc 3f88 1339 89b4 b4ba 02ea 77bc
000000a0: 5217 0ebc 636d d739 f9d2 d8ba f931 8c3b
000000b0: 5c26 203c c624 a0bc 4479 cfbb d0f9 02bc
000000c0: ecf9 673c 30f4 11bb 6b9f f0bc a442 b03b
000000d0: 5978 823a 6c30 153d d942 903b 2c5e 63bb
000000e0: 3e6f 11bc 8f42 ae3c b453 05bc e561 1bbc
000000f0: d11e babb ab11 223b 060c aabb a68d 023a
-0.016129253 0.012878232 -0.013181683 -0.0023470763 -0.0022561497 0.0011160183 0.0057207695 -0.008647034
0.0016129689 -0.0035609165 0.005212805 0.0043762983 -0.017612927 0.0057968954 0.0011909658 -0.014667406
0.0029016766 -0.001718699 -0.017243301 -0.012902877 0.0031839584 -0.001646909 0.0068322853 0.010771317
0.031960793 -0.0071053947 0.003744828 0.0047183046 -0.009227563 0.0038818268 0.013329526 0.0022190209
-0.008053539 0.0012124389 0.053317335 0.014674363 -0.011629825 0.00014069768 -0.0013786714 -0.015131475
-0.008672552 0.00041089495 -0.0016542367 0.004278418 0.009774771 -0.019548785 -0.0063315947 -0.00799413
0.014158707 -0.0022270791 -0.029372891 0.005379038 0.0009954079 0.03642313 0.0044025 -0.0034693582
-0.00887662 0.021271972 -0.008137632 -0.009483789 -0.005679943 0.002472977 -0.0051894216 0.00049802137

layers.2.weight f4 [64, 64]
00000000: 733f 57ba ac3d 37bc 2157 f6bd eadc 81bd
00000010: ba4a f83d b45b cb3d 9fb0 0b3e 6860 223e
00000020: 189f 693e b302 4ebe 6e8e 263d c873 3abe
00000030: 9a03 42be 5410 e93c a91d 163d cc69 d6bd
00000040: dd7e 153e 78e8 543e cbac a93d 6409 353c
00000050: 5697 b73d 4bb8 fe3b d8c1 f8bd 7c16 19bc
00000060: cf6b 933d aa86 0fbe 3f03 063e a946 d33b
00000070: 1905 6abe b4e3 21be c417 373e b014 4c3d
00000080: e7ee 82bd 2ebf 4d3e 43a9 563e 03e2 0cbe
00000090: f0ab 2ebe 9eb1 453e e4b9 70be 14ac 2f3c
000000a0: f3cc 72be 1d65 5cbd a49e 21be 5130 e9bc
000000b0: 5810 743d c891 c9bd 50a3 63be e3f5 ee3d
000000c0: a540 41be 4139 f23d 81df e2bd 5c7f 943b
000000d0: b7f9 6dbe 8686 11be 60ee 76bd 4003 183e
000000e0: c354 113e 79fa 613e 4b7e 4abe da4e c13d
000000f0: cd83 d1bd fb83 113e b83a f33d d216 d53c
00000100: 4ea6 213e 56fc d23c b429 3ebe 08bd 1e3e
00000110: f371 483e f9fa 85bd e744 a8bd 754c 993b
00000120: 7aaf 60bc 76cb 2bbd d244 3f3e 9f41 813d
00000130: 9e96 19be c0fb 35be 3a06 1bbe e773 3abd
00000140: dcfa 5a3e d019 d23d 9a42 333e d191 2e3e
00000150: a948 d3bd e384 4b3d 6fff d1bc dcaa d6bc
00000160: 679c ed3d 92bb 22bb 8262 25be d6a2 263e
00000170: 18e5 0ebe 5110 e13c 506c 7b3d aae7 1e3e
00000180: ee02 133e 7ab3 51be 06f1 3f3e 1e78 2f3d
00000190: 997b 27bd 52d0 3abe 0fa7 263d beb7 47bd
000001a0: 8612 f9bc 5917 edbd 9013 e43d 867b 583e
000001b0: e900 57be 9a4a 8fbb c85c 043e 4382 7abd
000001c0: 4c6a ffbd 5258 e53d ebaa 4cbe 1907 6bbd
000001d0: 1513 813d cd5b 33be 9957 48be 7442 493d
000001e0: 9f51 a23c fc85 953d cfc5 4d3e 3619 133e
000001f0: 5863 873a de0d 803c 45cf 9abd b0b9 de3c
00000200: 3b42 66be 1f4a 1abe ae04 733d d8b0 2e3e
00000210: 161b 9cbd 20a0 26be 88fc 0e3c fff3 59bd
00000220: 2c81 e6bd c18b 03be 18ea 8b3e ff2f 71be
00000230: 0f30 a83d 0c69 50be 9bbd 99bd f692 d5bd
00000240: 3544 c3bd 816f 3dbe 0a75 893d 118d 593c
00000250: b0fd 82be f0b3 d1bd c5fc 20be 0af1 a83d
00000260: 44cd 103d d5cb 813d 57d0 8dbd 149c 2b3d
00000270: 7640 48be 6bcc 353e bed3 b1bd e841 31be
00000280: 7c57 a43d 2aa7 27be 91b1 1ebe ed60 e03d
00000290: 7cfd 033e 6245 1f3e 2b4d 193e d7fb 96bd
000002a0: 969e 983e 3d55 5b3e f217 23be fbf0 a8bd
000002b0: 7bf0 993e a13f f9bd d166 493e 18c6 17be
000002c0: 971d 533e 32bc 53be 05f3 a6be c298 78bd
000002d0: ed6f 3bbe 9acf 2a3d 7881 b93d d9dd 4b3d
000002e0: 01aa 96bd 834e 31be b3cd 02be b863 8dbe
000002f0: ea18 57be 612c de3d 0c88 113d e89d 44be
00000300: 2349 8bbc bd49 26be c807 883c b150 7c3e
00000310: cc67 11bd bc7f debd 9dca d83c 439d a03c
00000320: 214e b3be d30c dcbd e648 583e 1835 20be
00000330: 7566 c1bd 96cd d9bc f6e5 dabd a709 d03d
00000340: 6e5a 1a3c 5da5 4f3d c45a 9a3d 4fc9 6bbc
00000350: b68b 8cbc 307b 0abe d92d 283d 0ade e83d
00000360: 444e 893d c9d1 563e cee6 94bc 5c4d 4fbe
00000370: ccb2 98bd d45f febb bb61 52be c0db 993d
00000380: d554 12be db0d 0c3e ecfc 193e bc70 323d
00000390: 5f37 143e eb3c 18be ff31 88bd d4c7 59be
000003a0: 1a99 c73c e4ca be3d 53ec 233e 75ef 27be
000003b0: 2d88 86bd b898 0dbe 1f37 603e f47d 40be
000003c0: 88fe 233e 8173 14be cfbb f4bc fdbe 42be
000003d0: a25a e13c 588c 9e3d fa59 5e3e 9c8c 37be
000003e0: fed7 92bd 8f26 303e 6c23 c73d 8e01 83be
000003f0: bc9f 4bbe 10f4 06bd 7427 0dbe 7487 43bd
-0.0008211054 -0.011184137 -0.12028337 -0.06340964 0.12123628 0.099296 0.13641594 0.15857089
0.22814596 -0.20118217 0.040663175 -0.1820823 -0.18946686 0.028450169 0.03664938 -0.10469398
0.14599176 0.20791805 0.08284911 0.011049602 0.08964412 0.0077734343 -0.12146348 -0.00934374
0.07198297 -0.14016214 0.13087176 0.0064476323 -0.22853507 -0.15809518 0.1788016 0.049824417
-0.06393223 0.2009246 0.20963006 -0.13758092 -0.17057776 0.19306037 -0.23508412 0.010722179
-0.23710994 -0.053807367 -0.15783173 -0.028465422 0.0595859 -0.09842259 -0.22230268 0.11667993
-0.18872316 0.118273266 -0.11077786 0.004531784 -0.2323979 -0.14211473 -0.060285926 0.1484499
0.1419249 0.22068204 -0.1977474 0.09438868 -0.10230217 0.14210503 0.11876434 0.026011858
0.15786096 0.025755089 -0.18570596 0.15501797 0.19574718 -0.0654201 -0.08216267 0.004678304
-0.013713712 -0.041942082 0.18678597 0.06311344 -0.14998862 -0.17771816 -0.15139094 -0.04552069
0.21384758 0.102588296 0.17505875 0.17047812 -0.10316593 0.049687278 -0.025634496 -0.026204519
0.11602097 -0.002483104 -0.16150859 0.16273054 -0.1395458 0.0274736 0.06138259 0.1551806
0.14356586 -0.20478621 0.18744287 0.042839162 -0.040889356 -0.1824353 0.040686663 -0.048759215
-0.03040434 -0.11576719 0.11136544 0.2114087 -0.20996441 -0.004372907 0.12926018 -0.061159384
-0.124714464 0.111984864 -0.19987075 -0.057379816 0.06302468 -0.17515488 -0.19564666 0.04913564
0.01981431 0.07300946 0.20094989 0.14365086 0.0010329289 0.015631612 -0.07559065 0.027188152
-0.22486202 -0.15067337 0.059330635 0.17059648 -0.07622354 -0.1627202 0.0087272 -0.05321121
-0.11255106 -0.1284628 0.27327037 -0.23553465 0.082122914 -0.20352572 -0.075068675 -0.10428421
-0.09534494 -0.18499567 0.067117766 0.013278262 -0.25584173 -0.102393985 -0.15721424 0.082490996
0.035352007 0.06337706 -0.06924503 0.041896895 -0.1955584 0.1775376 -0.08682965 -0.17310297
0.08024499 -0.16372362 -0.15497424 0.10955987 0.12889665 0.15553811 0.14970843 -0.073722534
0.2980849 0.21419235 -0.15927103 -0.082490884 0.30066285 -0.121703394 0.19668128 -0.1482166
0.20616756 -0.2067726 -0.32607284 -0.060692556 -0.18304415 0.04170189 0.09057897 0.049772117
-0.073566444 -0.17315106 -0.1277378 -0.27615142 -0.21005598 0.10848308 0.035530135 -0.19200861
-0.017002648 -0.16239066 0.016605273 0.24640156 -0.03549938 -0.10864207 0.026463801 0.019606238
-0.35020545 -0.107446335 0.21121559 -0.15645254 -0.0944337 -0.026587289 -0.10688393 0.10158091
0.009420974 0.050694812 0.075368434 -0.014391257 -0.017156463 -0.13523555 0.04105935 0.113704756
0.06704381 0.20978464 -0.018176463 -0.20244354 -0.07455978 -0.0077628884 -0.20545094 0.07512617
-0.14290173 0.1367716 0.15037888 0.043564543 0.14474247 -0.14866988 -0.06650161 -0.21267635
0.024364997 0.09316042 0.1600812 -0.1639994 -0.06568942 -0.13827789 0.21896027 -0.18798047
0.16015065 -0.14497186 -0.02987471 -0.19018169 0.027509037 0.07741612 0.21714011 -0.17924732
-0.071701035 0.17202209 0.09723553 -0.25587124 -0.19885153 -0.0329476 -0.13784581 -0.0477366

layers.2.bias f4 [64]
00000000: b667 033c 1d4f 9cba 85e4 053d adb8 cc3b
00000010: 8f08 603b de96 be3b 0999 b73a 25ba b1ba
00000020: c25c 1ebb 4f8c a2bb 24ee 57b9 14c4 273b
00000030: 12fa ceba 9c38 21bb 6021 e938 889a 7cbc
00000040: 8161 9a39 398b 08bb d957 dcbc e621 14bb
00000050: 9527 813c 9f54 973b 0db7 edbb c6b3 a93a
00000060: 17bd a1ba f77f 123b 7196 453c a18c b93b
00000070: c4a3 c23b 2b6f 72ba 0829 9a3b 645d 01bc
00000080: fc7f 8b3c 01e9 813b 4319 12bc 5618 9fbd
00000090: f875 e1bb 1022 8bbb 3928 c23b bf41 fd3b
000000a0: 9035 f8ba b0a2 163c 9584 b03b 6e26 fd3b
000000b0: 4053 35bb 7a02 38bd 988a 603c faff 07bc
000000c0: d152 89bc 22f7 f538 7603 aebb ca02 3fbb
000000d0: 7026 d8ba 0664 163b 6b0c e8b9 dce6 2dbb
000000e0: a947 8ebb f9b4 f83b c442 92bb baa6 d6bb
000000f0: 6fb3 0bba e1bb cb3b e1e1 1ebb fd96 aabd
0.008020332 -0.0011925433 0.032688636 0.006247601 0.0034184789 0.0058163246 0.00140074 -0.0013559504
-0.0024164175 -0.0049605737 -0.00020592712 0.002559905 -0.001579108 -0.0024600392 0.000111165224 -0.0154177025
0.00029445815 -0.0020834936 -0.026897358 -0.0022603213 0.015765944 0.004618242 -0.0072544874 0.0012947253
-0.0012339678 0.0022354105 0.012059794 0.005662516 0.0059399325 -0.00092481327 0.0047045983 -0.007895801
0.017028801 0.003964544 -0.008917156 -0.077683136 -0.006880518 -0.004246004 0.005925205 0.007728785
-0.0018936861 0.009194061 0.0053868988 0.0077255284 -0.002766803 -0.044924237 0.013704918 -0.008300776
-0.016763123 0.000117285424 -0.005310471 -0.002914595 -0.0016490947 0.0022947802 -0.0004425974 -0.0026535308
-0.0043420387 0.007589933 -0.0044635255 -0.006550637 -0.0005329167 0.0062174653 -0.002424352 -0.0832958

layers.4.weight f4 [64, 64]
00000000: 6692 dbbd e989 df3d b270 34be 112b 1dbe
00000010: 7660 223e c66d 25be 058d 1abe ed8c cfbd
00000020: c2e9 55bc aea1 3e3e b667 183e e1d5 3c3d
00000030: 8877 5bbe 6c48 483e 1d3a a4bd 2ecf 1f3e
00000040: 5680 02be 6b2d d2bd a54b fdbd 2397 93bc
00000050: f2ee 783b dab7 593e d235 85bd 196c 453e
00000060: 529e 26be af81 2fbe fffe 9dbc f6f2 1bbe
00000070: adab 323e 774c 1ebd 72d4 01be 00dc 9abd
00000080: 9c02 0e3e ac14 c23d c0b5 993d 3288 293e
00000090: b209 6bbd f8d1 133e fbdb b8bb d965 993d
000000a0: 4919 60bd 37ee 61bb 2ed7 55bd 7496 4dbe
000000b0: e793 1cbc 6835 26be 54cf 8cbd bcae 4ebd
000000c0: 3251 3fbe 8c1f 5cbe 34ca 523e 5e6f 82bd
000000d0: 94b8 35be 3786 aebd 63c4 c0bd 0779 4ebe
000000e0: f29e 823d 0436 04be c736 34be ba6e 513e
000000f0: 1275 48be 95b3 11bc fff5 0f3e cc33 16be
00000100: c89e 19be 23f2 153c 88c9 033e 219f a63d
00000110: 8cbc 593e 5b13 583c 00ea 54be ab0c 12be
00000120: 4732 e9bd 2b9c 54be afdc 583e c319 1fbe
00000130: e723 d7bd b706 693e 6506 193e 96a2 e3bc
00000140: f43e fcbd b3bd b63d b8b1 b03d 4a28 923d
00000150: f453 6abd f798 bb3c 250a 13bc 99b9 d3bd
00000160: 41ef 133e 8f51 64bb be51 493e ae24 553e
00000170: a0e5 f9bd 741b d93d 4ac2 573e 3a2e cd3c
00000180: cdcd 1ebe 07c3 513e 1941 3cbe ceda 9c3e
00000190: 4cef 38bd 0b2c 0abe 1d41 e73c 243f 20bd
000001a0: 3730 0fbe 0896 7b39 09e3 1abe ee35 7ebe
000001b0: 2f02 80be dd77 a23c 22d6 0cbe 17ce 69bd
000001c0: 726a 833e 0b9c f63c bd9c 043e d2e3 c23d
000001d0: 0a11 1dbd 943a ba3c f978 5fbe d161 65be
000001e0: de3d 82bd a16a 43be afe0 cebd aea1 5b3e
000001f0: 2c14 3ebe 6030 98bd b1ed 78bc 3402 553b
00000200: f06b f7bd f3c5 02bd 3b31 963d d638 0a3e
00000210: 3deb bfbd 916e 2dbe 7279 c53c 1778 a03d
00000220: 8185 3ebb 8ce2 fabc 7f77 e93c e877 8fbd
00000230: b7af 773d 831a 33be ee41 283c ce3a 113e
00000240: 0884 4f3c ebb3 dc3d 34f5 0b3d f397 343e
00000250: 0f75 f3bb edac 083e 551e ebbd c83c 3d3d
00000260: bb72 9b3d 31f7 243d 4fdb 50be 48be 293e
00000270: ae3c 243e 4346 9d3d a6a5 e8bd 6f23 a0bd
00000280: 9d91 2dbe a141 fcbc 18ac aa3d ab1c b33c
00000290: 035c 553e 23e5 01be e522 35be a7a9 06bd
000002a0: f61c 9d3d e24d 8fbd cdf4 b6bd 7078 6a3e
000002b0: caff ccbb 2b17 053e d254 35bd 017f f4bd
000002c0: 140f 5dbd 8d05 58bd c30a 6fbd a3b4 64bd
000002d0: 960f 233e 20d6 343e 83ee dabd f35e aabd
000002e0: f232 0dbe ed49 f6bd 1d94 e6bd 98c6 093c
000002f0: 34fd fcbd 176b 373e 0d42 3e3d 7cb9 5abe
00000300: 45e2 3dbd a342 42be d0b7 f1bc a60d 40bc
00000310: 467d e9bd 79d5 28bb 41b1 18be 13a1 3a3e
00000320: 1918 4a3d bdd5 a93d ca08 12be 4d54 6ebd
00000330: 1d6e 243e c8d0 583e 9adb 473e 76e6 0dbe
00000340: 21d4 273e 77ed 393d a71f 4c3e b6ce 82bc
00000350: 9a1d b6bd e445 e2bd d5af 1cbe 4784 30be
00000360: b66f 2bbe 993c 573e 3c3d 0a3e 9851 183e
00000370: 6813 ba3d 760c 543e 922a 433e b667 f03d
00000380: d875 f43d c175 25be 985c f23b 4aae 5d3d
00000390: 6b65 853d cd2f a13d ae1f ef3d 6c41 c7bd
000003a0: 84fb 803d efc4 963d ab46 cbbc 1098 b7bd
000003b0: 5f8a 07be f11a 393e 7a24 22be 8b05 453e
000003c0: cc57 d43d a584 10be 2d09 52be 4722 0fbe
000003d0: 2c71 963d fbbc 43bd 3db6 5dbc 4e03 073e
000003e0: 0711 353e 9694 40be 08af 2f3e f44f 0d3e
000003f0: 684f ddbd dbec 0c3e 143d 0abe 9990 9fbc
-0.10721283 0.10914976 -0.17621115 -0.1534846 0.1585711 -0.16155156 -0.15092857 -0.10134301
-0.0130562205 0.18616363 0.14883313 0.04610241 -0.21432316 0.19558877 -0.08018897 0.15606377
-0.12744269 -0.10262569 -0.12367944 -0.018016404 0.003798422 0.2126154 -0.06504406 0.19279517
-0.16271332 -0.17139314 -0.01928663 -0.15229401 0.17448302 -0.03864714 -0.12678698 -0.07561493
0.13868183 0.09476599 0.07505369 0.1655586 -0.057382293 0.14435565 -0.005641458 0.07490129
-0.054711614 -0.0034474263 -0.052207164 -0.20076925 -0.009556747 -0.1623131 -0.06875482 -0.05045961
-0.18683317 -0.21496409 0.20584947 -0.06368898 -0.17746192 -0.08521693 -0.09412458 -0.20163356
0.06377973 -0.1291123 -0.17599021 0.20452395 -0.19575909 -0.008892913 0.14058684 -0.14668196
-0.15001976 0.009151968 0.12869847 0.0813582 0.21263331 0.013188208 -0.20792389 -0.14262645
-0.11386543 -0.20762698 0.21177934 -0.15537171 -0.10504895 0.22756468 0.14943846 -0.027787488
-0.12316695 0.08922901 0.08627647 0.07136591 -0.05720897 0.022900088 -0.008974587 -0.10338134
0.14446737 -0.0034838652 0.19660088 0.20814773 -0.122020006 0.106009394 0.21070209 0.025046457
-0.15508194 0.20484553 -0.18384208 0.30635685 -0.045150086 -0.13493364 0.02822929 -0.039122716
-0.13983236 0.00023993116 -0.1512567 -0.2482526 -0.25001666 0.019832546 -0.1375356 -0.05708131
0.2566715 0.030103704 0.12950416 0.095161095 -0.038346328 0.02273301 -0.21823491 -0.22400595
-0.063594565 -0.19083644 -0.10101449 0.21448395 -0.18562382 -0.07431102 -0.015193389 0.0032502534
-0.12081134 -0.03192706 0.07333609 0.13498244 -0.0937104 -0.16936709 0.024105761 0.07835405
-0.0029071274 -0.030625604 0.028499363 -0.07005292 0.06047031 -0.17490582 0.010269625 0.14182588
0.012665756 0.10776504 0.03416939 0.17636089 -0.007429726 0.13347216 -0.11480395 0.046200544
0.075902425 0.040274803 -0.2039616 0.16576493 0.16038772 0.07679417 -0.1135972 -0.078192584
-0.16950078 -0.030793013 0.083336055 0.021864256 0.20835881 -0.12685065 -0.17689092 -0.032876637
0.076715395 -0.06997277 -0.08933411 0.22897506 -0.0062560784 0.12997119 -0.044270344 -0.119382866
-0.053969458 -0.05273967 -0.058359873 -0.05583633 0.15923914 0.17659807 -0.10690024 -0.083188914
-0.13788965 -0.12025819 -0.11258719 0.008409165 -0.12352982 0.17911945 0.04644971 -0.21359819
-0.046358366 -0.18970732 -0.029506594 -0.011722004 -0.11400847 -0.0025762005 -0.14911367 0.18225507
0.049339388 0.082927205 -0.14261165 -0.058185864 0.1605763 0.21173394 0.19517365 -0.13857445
0.16389515 0.04539248 0.1993395 -0.015967708 -0.08892365 -0.11048487 -0.1530145 -0.1723796
-0.16741833 0.2101921 0.13499922 0.14874876 0.09085733 0.20707878 0.19059208 0.11738531
0.119365394 -0.16158201 0.007396292 0.054121293 0.065134846 0.078704454 0.11675964 -0.09729275
0.06297973 0.07361781 -0.02481397 -0.089645505 -0.13236378 0.18076684 -0.15834227 0.19240396
0.103683084 -0.141131 -0.20511313 -0.1397792 0.073458046 -0.047787648 -0.0135322185 0.13184854
0.17682277 -0.18806681 0.17156613 0.13800031 -0.10806161 0.13762228 -0.13499862 -0.01947813

layers.4.bias f4 [64]
00000000: f094 e5ba 89df 84bc 17be 8dba b7c5 c9bb
00000010: c04e 2cbb 8638 66bd 55b3 373d d526 21bb
00000020: ff91 7d3b 06fa d73b 658e 0b3a 3f21 b5b8
00000030: bfe1 08bb 1e1b 603b c726 1b3c 7877 18ba
00000040: 1f65 04bb e6e0 0dbb 1cca 053d 5f86 ab3b
00000050: 52aa be3a 7af4 6d3b ef95 d9bb c017 0cbe
00000060: c472 363d 5841 893b a535 083b 535a 0cbc
00000070: 7349 c63b dae6 433b 2fd7 31bb 0886 943a
00000080: 3235 b1bb 097f cb3b 71c1 8f3a 6ac6 1d3b
00000090: d1af 57bc 59d6 f63a 85dd 13bb 2df2 fe3a
000000a0: 686b 963b 7133 833b a49d 1839 3398 a6bb
000000b0: 70dc 17bc 5bd1 843b adc9 74bb 162f cfbb
000000c0: 9f3e 7bba 3072 b2b9 f7af 0a3c e2e9 b6ba
000000d0: b6c7 a13a adc7 d23c 9c9e 013b f68c 1e3d
000000e0: 16f4 62b9 bf64 ce3a fcb9 47bb d394 2bbb
000000f0: 63eb 173b bd55 aaba cf6c e5bb 566b 74bb
-0.00175157 -0.016219871 -0.0010814097 -0.0061576026 -0.0026292056 -0.05620625 0.04484876 -0.0024589796
0.0038691757 0.0065910844 0.00053236476 -8.636945e-05 -0.0020886508 0.003419585 0.009469694 -0.0005816142
-0.0020201874 -0.0021648942 0.03266345 0.005234524 0.0014546609 0.003630905 -0.006640188 -0.13680935
0.044543043 0.004188698 0.0020783928 -0.008566457 0.0060512363 0.0029892237 -0.0027136316 0.0011331448
-0.0054079527 0.006210212 0.0010967684 0.0024074563 -0.0131644765 0.0018832191 -0.0022562456 0.0019450836
0.0045904405 0.004003935 0.00014554575 -0.0050840615 -0.009268865 0.0040532774 -0.0037351653 -0.0063227518
-0.00095842214 -0.00034035882 0.008464805 -0.00139552 0.0012342844 0.025729978 0.0019778376 0.03870865
-0.00021643969 0.0015746577 -0.0030475846 -0.0026181235 0.0023181073 -0.0012995523 -0.0070014964 -0.0037295423

layers.6.weight f4 [64, 64]
00000000: 3a08 ce3c 9220 45bd ae09 ea3d 9231 24be
00000010: d1b8 d3bd 1c48 76bc 6fbd 44be 7ed7 0ebd
00000020: d527 58be 62ee 00be 85ba 053e 6848 2cbe
00000030: 7c6c 743d 25b0 743c 74ad e5bd ada6 9b3d
00000040: c9f0 5c3e 8012 d63b a826 2abe 8ac9 ba3b
00000050: 5a3f 0b3e e946 503d 87ff 253e b6ac bdbd
00000060: 9c4b e4bc d56d 59be b48b 4fbe eba1 da3d
00000070: 30ab 203d fea9 a2bd 6e48 f0bd edf5 1f3d
00000080: 6b3c 5ebe db59 49be dc7f 4b3c 004f c23d
00000090: f259 f33d c59d bebd 1eb5 163e 9428 a13d
000000a0: 95fd 213e 22a4 bbbd c927 7b3a fc57 67bd
000000b0: 4006 bfbd b9f9 283e 1a7f cdbd 1d7d ce3c
000000c0: a2b3 edb7 e874 4ebe ec80 11be 835d 4cbe
000000d0: 0826 17be 45d9 02be 9a0e 213d bd37 89bc
000000e0: 301f 49bd ade1 e23d e10e 23be 0835 023e
000000f0: f696 c93d 98b6 a7bd bb0b 1c3e 4492 213d
00000100: 6e8b 2e3e 4447 45be 3077 04be f3c2 92bd
00000110: 83ad 8f3d 091e f73d db64 2e3e bd64 37be
00000120: 300c 6dbe e671 5dbe 9ccb 31bd b1f7 df3d
00000130: 1e63 4ebe fda8 f13d 2ef9 233e 0dd5 5bbd
00000140: a5b4 333e a36a 0f3e 334c 5b3d 3e9c 24be
00000150: f7ca 89bd 34fe 723e ca72 42be 7e32 29bd
00000160: 50da 013c 16ec 9b3d 0821 80bd 867d 203e
00000170: 5ee8 3dbd 89ef 11bd 2806 553d 6460 f6bd
00000180: c6b3 71bd 4230 86bd b7ad 313e 4355 c23c
00000190: 6a64 90bd 66eb 203c 943f b63d 2366 8fbd
000001a0: 5105 3fbe c471 0d3d d031 8dbd 734a d1bc
000001b0: 66f3 e4bd 012d e2bd 36c0 4cbe 3f90 eabd
000001c0: cf50 4b3e a1a8 263e d9b4 92bc 0299 c9bc
000001d0: e909 3dbe 784c 2bbe 7d63 63bd 9082 423e
000001e0: 9402 003e c5c9 e13d e768 2fbe 9d8c 633e
000001f0: aa35 9aba bded 0d3c 40a6 23be 03a8 233e
00000200: 99dc 25be 0b7c 5e3e 0e88 1fbd 8581 28be
00000210: 6217 1b3e ea3c c6bd b11c 083e 0d03 da3d
00000220: c075 113e bb8b 63bd e28e bf3d 687b 89bd
00000230: 7976 0a3e 9208 203d 935f c83d 3cd4 e63d
00000240: 527c 633d 915e 353e 9353 3abe 7dc7 573e
00000250: 06f0 42be ade4 403e eced 5abe 2057 3e3e
00000260: 8358 433d d321 edbd c3f6 f93c 03dd 12be
00000270: edbc 33be 1699 1b3e e380 2c3c 5952 9e3c
00000280: 109e 2c3e c7df f93c 2580 50be 1f23 54be
00000290: 01ed ba3d 1e99 ca3d fb7c 2ebe 2505 8e3d
000002a0: 4d92 e9bd 7d5b 483e 85b1 863d faf9 96bd
000002b0: 472a adbc cf71 20be d823 52bc b815 53be
000002c0: 1fd3 363d e029 533e aa7d cc3d e73b 103e
000002d0: 990c 1a3e 13c3 8abd af2e 223d e1b1 26be
000002e0: e590 3e3e 8923 523e ac62 2b3e 6c78 0d3d
000002f0: 9643 303e ff57 303e ffe7 96bc 04a0 56be
00000300: 4851 38be a156 7fbd 6254 1dbe 4d76 94bd
00000310: 25f5 1b3e 6177 c43c 21ed aa3d e4b5 cc3d
00000320: eccc dabd 7da6 ab3d 45ab 933c 02cc 2cbd
00000330: 729a 463c 4b78 adbd 22ce 1dbe d8a4 a3bc
00000340: 8329 48be 4971 ee3c 1b5d c3bd c097 f03b
00000350: 526f 1cbd a577 43be 420b c2bd e771 093d
00000360: 154c 953d baa5 2ebe 4a90 bd3d d010 6a3e
00000370: 8f22 843c 81ba 48bd ab2e 5fbd da4d 323e
00000380: 99c9 0dbe 464c 243e 12e2 10be c716 f23d
00000390: bb13 e63d d6d4 4b3d 09f5 01be e590 fbbd
000003a0: 3697 37be d41f e7bd 23c7 d23d b9b9 10bd
000003b0: 4eeb 3cbe 633b 0d3e 7106 60be c2c3 a73c
000003c0: a8dd 383e d19a 8abd 0362 aebd 7f09 5fbd
000003d0: 5f04 26be c1aa afbd 1026 6ebd bce8 aa3d
000003e0: 184e 953c 0c60 d6bd 3832 cb3d db17 61be
000003f0: 1790 c53d 6e70 e6b7 a82d d43d a253 6abd
0.025150407 -0.048126765 0.114276275 -0.16034535 -0.10337985 -0.015031841 -0.19212888 -0.034873478
-0.21108945 -0.12590936 0.13059433 -0.16824496 0.05967377 0.014934574 -0.11214724 0.0760015
0.21576227 0.006532967 -0.16616309 0.005700295 0.13598385 0.050848875 0.16210757 -0.092614576
-0.027868085 -0.21233304 -0.20268136 0.10675415 0.039225757 -0.0794258 -0.11732565 0.039052892
-0.21702735 -0.19663183 0.012420621 0.09487724 0.1188239 -0.09307436 0.14717528 0.07869068
0.1581939 -0.09162165 0.00095808186 -0.056480393 -0.09327364 0.16501512 -0.10034008 0.025206143
-2.833625e-05 -0.20161784 -0.14209336 -0.19957547 -0.14760602 -0.12778194 0.039320566 -0.01675021
-0.04910201 0.110782005 -0.15923645 0.12715542 0.09843247 -0.08189124 0.1523885 0.03944613
0.17045376 -0.19265467 -0.12936091 -0.0716609 0.070155166 0.120662756 0.17030661 -0.17909522
-0.2314918 -0.2162548 -0.043407068 0.10935915 -0.20154998 0.1179981 0.16013023 -0.053669978
0.17549379 0.14005522 0.053539466 -0.16075227 -0.067281656 0.23729783 -0.18989101 -0.04130792
0.007925585 0.07613389 -0.062563 0.15672883 -0.04636418 -0.03562883 0.052007824 -0.12030104
-0.059009336 -0.06552173 0.17351423 0.023722297 -0.070504025 0.009821748 0.08898845 -0.07001903
-0.18654372 0.034532323 -0.068942666 -0.025548195 -0.11179237 -0.1104374 -0.19995198 -0.11453294
0.19855045 0.16275264 -0.0179085 -0.024609093 -0.18460812 -0.1672839 -0.0555148 0.18995118
0.12500983 0.110248126 -0.17129861 0.22221608 -0.0011765261 0.008662638 -0.15981388 0.1598206
-0.16197433 0.21727006 -0.03894811 -0.16455658 0.15145639 -0.09679587 0.13292195 0.10645113
0.14205074 -0.05555318 0.093534246 -0.06712991 0.13521756 0.039070673 0.09783854 0.11270949
0.055538483 0.17711855 -0.18195944 0.21072192 -0.19036874 0.18837233 -0.21379822 0.18587923
0.047691833 -0.11578717 0.030513173 -0.14342122 -0.17552538 0.15195116 0.010528776 0.019326376
0.16857171 0.030502213 -0.20361383 -0.20716523 0.09127236 0.09892486 -0.17039864 0.06934575
-0.11404858 0.1956615 0.06576828 -0.07371898 -0.021138323 -0.15668415 -0.012825929 -0.20613754
0.044634935 0.20621443 0.09984906 0.14085351 0.15043868 -0.06775489 0.039595302 -0.16278793
0.1860996 0.20521368 0.16736859 0.03453867 0.17213282 0.17221068 -0.018421171 -0.20959479
-0.17999756 -0.062338475 -0.1536422 -0.072491266 0.15230234 0.023982706 0.0834601 0.099956304
-0.10683617 0.083813645 0.018026004 -0.042186745 0.012121784 -0.0847021 -0.15410665 -0.019976065
-0.19547085 0.029106753 -0.09539243 0.0073423088 -0.0381921 -0.1908861 -0.094748035 0.03355589
0.07289902 -0.17055407 0.092560366 0.22857976 0.01612976 -0.04900599 -0.054487865 0.1741251
-0.13846435 0.16044721 -0.14148739 0.11820751 0.11234232 0.049763523 -0.1269113 -0.12283496
-0.17928776 -0.112853676 0.102918886 -0.03533337 -0.18449137 0.13792185 -0.21877457 0.020479087
0.18053305 -0.0676781 -0.08514788 -0.054452416 -0.16212605 -0.085774906 -0.058141768 0.08345172
0.018225715 -0.10467538 0.09921688 -0.21981756 0.096466236 -2.747049e-05 0.10360271 -0.057208665

layers.6.bias f4 [64]
00000000: f5d9 50bb 9da3 653c 34ce 34b9 8b45 10bc
00000010: 8fc4 b83a feed 393b 68e5 1abc e88c 003c
00000020: b5b9 76bc 8942 8b38 70f4 353a 3bdf fbba
00000030: aca1 7b3a b05d 6c3a faae ba3a 7edc b3bd
00000040: 48bb 5eb9 138b 543b c252 743b 6461 f53b
00000050: 5bce 263b e401 9bba 317f 8abc 0761 06bb
00000060: a174 3e39 60e5 113b 47b7 2ebb dcf4 27bb
00000070: 95c5 37bd f5d5 b0bc bcd4 bfba 6feb 89bb
00000080: 7b2b 2aba 5d4c 7b3b 2dfc d33a 4639 4dbb
00000090: b333 6cbb 3725 63bc 1dfd 3cbb caa5 193b
000000a0: 7a2e f73b 888f e3ba 8675 2ebb 565c 063a
000000b0: 62ac 723b 85c6 413c b918 71bb ce09 c73a
000000c0: 4045 863b 66e1 1cbc 66bb 923c 6fab f0bc
000000d0: 2f31 7239 135c f53a 4971 913b aa55 98bc
000000e0: e4e7 713b d848 0fbc f1e7 c23b 4b33 87bb
000000f0: 38dd a33b a8ed 02bb fab2 b8bb 368f 1f3b
-0.0031868194 0.014016059 -0.00017242954 -0.008805643 0.0014096665 0.0028370614 -0.009454109 0.007846095
-0.015058924 6.64043e-05 0.0006941026 -0.0019216308 0.0009598981 0.0009016646 0.0014242821 -0.0878229
-0.00021241338 0.0032431528 0.0037280773 0.0074884165 0.0025452587 -0.0011826125 -0.016906353 -0.002050461
0.0001816326 0.0022261962 -0.0026659535 -0.0025628125 -0.044866163 -0.021586398 -0.0014635543 -0.004208974
-0.00064914644 0.0038345077 0.0016173177 -0.0031314655 -0.0036041557 -0.013863853 -0.002883739 0.0023444765
0.0075433822 -0.0017361501 -0.0026620342 0.00051254535 0.0037029018 0.011827116 -0.0036788417 0.0015185417
0.0040976107 -0.009575224 0.017911624 -0.02937862 0.00023097241 0.0018719457 0.0044385535 -0.018595535
0.00369119 -0.008745395 0.0059480597 -0.0041259876 0.0050007366 -0.001997808 -0.00563657 0.0024346835

layers.8.weight f4 [64, 64]
00000000: 3930 d1bc b6fd 383c f202 e83d 2844 2b3d
00000010: 90d0 16be 3d99 0d3e a574 6b3e 872d 01bd
00000020: 5969 833d 8a45 46be 68fc 9cbc 7043 663d
00000030: a008 723b 27f4 373e 86c3 1b3e cd0e 883c
00000040: 74c7 43be eb27 383d e63e 2f3e 50bf 95bd
00000050: 08c5 053c 90ef 4abe 6f40 023e b122 25be
00000060: 44d7 c33d 282a 17be e587 dbbc 4acb 263e
00000070: cceb 0f3d 4ff0 24be 7220 3abe a19e 44bd
00000080: 7ebb 523d 526e 40be 2047 753d ba1e 673e
00000090: 1c7e 54be 9405 87bc 4ba1 e6bd 6861 45bc
000000a0: b01d 02be 5140 68bd eed2 523e da49 be3a
000000b0: 49d7 b43c c5c8 55be 49e8 5abd 2be6 8a3d
000000c0: cdff af3d bde8 993d 2e59 4e3c fbdf b13d
000000d0: 8a47 4bbe 9a2a 5bbd 0b5c f8bd 9ce0 e23c
000000e0: 78ca bb3d 718d 92bc 050f 51be 264c 053d
000000f0: b5ca 35be 63cf 58bb d42c fd3c 8337 b2bc
00000100: 5ee3 513e 44b5 54bd 03f8 3ebe 03c9 13be
00000110: e246 1bbe 0326 683b 1371 8dbd 49fc 543e
00000120: c498 843d 6a50 613c bcbb 1fbe aa2a cf3d
00000130: 86c0 42be 8f86 e6bd af0d 503c c3a2 403e
00000140: de5b 333e bb98 91bd a616 32be 18f8 803b
00000150: 4dac e4bc 721a 3ebd 9b57 8ebd 11b3 eebc
00000160: 2b8b e4bc 88a7 2d3b a760 243e 1250 eabd
00000170: 4780 023d e910 6cbd 3ba7 233e f1f4 4ebe
00000180: e9e5 573e 014a efbd 1194 613e 6254 853d
00000190: cf06 5a3e 537b 133d 61cf 3e3d ec96 a83c
000001a0: eecb 20be d4df fbbd 8f83 d43d 32d6 103e
000001b0: 3d51 573e 9279 763d 0604 043c cbe2 3a3e
000001c0: 8930 ee3c 8fbe 263e 621d cabd 074b 5fbd
000001d0: 1248 1b3e 9418 c4bd f67c fbbd 25be 92bd
000001e0: 6e0f 8b3d ce09 93bb 014f 103e 610d 04bd
000001f0: 4ca4 c93d 7a98 35be 85c4 6fbb a289 0fbe
00000200: a888 493e b1d5 aabd da22 8ebd f355 523e
00000210: 31b9 a83d d703 17be f915 dbbd 5760 463e
00000220: 5fad 913c 50bb 31be b7df 823d d9a7 053e
00000230: 7da7 c73d a802 243e 4328 7bbc bdd2 afbd
00000240: 7a08 54be 781b 25bd 139b 113e 944d 433e
00000250: 3e17 09be f73a 183e c685 c6bc 6d8e 0b3e
00000260: 4fdc acbd c7ca 50be cd8a 55bd 5e28 683d
00000270: a051 0bbd 87c2 593d 8f57 643c 08cb 453e
00000280: 00f7 913d 9ac8 64bd 7bc4 9abc 2344 47be
00000290: 4a47 35be 9ac8 41be f6cd 25be 7c70 173e
000002a0: f8c6 92bd 56cc bdbd 38f5 f3bd 8b85 9f3d
000002b0: 8ee1 913b 1cdc 943d 10d3 c53d fbb5 993c
000002c0: 6105 48be 5abe 473e e8ba 443e 9db6 1d3c
000002d0: fee9 7b3d c861 80bd 04fe dbbd c661 b13d
000002e0: 3516 083d 8179 fd3c ed44 353e c5da edbd
000002f0: e583 5b3d 1981 573d cca2 273e 3245 52be
00000300: 1751 19bc 3dd8 54bc 0569 bdbe 204b 4a3e
00000310: 5c3c 7cbe c3f1 383e f33c 943d d88e b0bd
00000320: 7dbc 513d 379a 333e 5767 c23e 73e3 573e
00000330: 564e 45be 0cd5 5dbe da19 433d a0c7 8bbe
00000340: a923 6cbe 8a52 87bc e563 a83e 7e8a a43e
00000350: b904 783e 85da 82be f766 263d 7527 bf3d
00000360: d93d 82bb 1d76 5b3d 02a2 b53d 3827 333e
00000370: 13eb 3ebe 9960 103e 594a 0d3e c0bd 25be
00000380: 2b1d 5e3e af94 543e a3f7 d33e be73 3e3d
00000390: 2f18 64bc afb4 c63d b953 dbbd 8a7c 9e3e
000003a0: 5039 023e 1420 a5be 5821 67be 44ee 9a3e
000003b0: adf9 ab3e 85d6 8f3e 667e 27be c550 813e
000003c0: 5fec 243e b9c6 bd3d 17f3 953c 6b2c 513e
000003d0: cfdf f83c b3df f7bd e369 53bd ad5d f6bd
000003e0: 8aa6 ab3d 5aa1 aa3d 8a28 97bd aa57 88bd
000003f0: 1364 2e3e aed8 c3bd bf5e a83e b749 85bd
-0.02553569 0.011290958 0.11328687 0.041813046 -0.14727998 0.13827987 0.22993715 -0.03153756
0.06416578 -0.19362465 -0.019163325 0.056216657 0.003693141 0.1796423 0.15211305 0.01660862
-0.19119054 0.044959944 0.17113838 -0.073118806 0.008164652 -0.19817948 0.12719892 -0.16126515
0.09562543 -0.14762175 -0.026798198 0.16288486 0.035136983 -0.16107295 -0.1817644 -0.048002843
0.051448338 -0.18792084 0.059882283 0.22570315 -0.20751232 -0.016482152 -0.11261233 -0.012047149
-0.12706637 -0.056701962 0.20588276 0.0014517859 0.022075312 -0.20877369 -0.05344418 0.06782182
0.08593712 0.075150944 0.012594504 0.08685299 -0.19851509 -0.053507425 -0.12126931 0.027694993
0.09169477 -0.01788971 -0.20415886 0.032543324 -0.17753108 -0.0033082596 0.030905165 -0.021754986
0.2049689 -0.05193068 -0.18649296 -0.14432149 -0.15163758 0.0035423047 -0.06906333 0.20799364
0.0647445 0.013752082 -0.15598959 0.101155594 -0.19018754 -0.11256134 0.012698575 0.18812089
0.17515513 -0.07109209 -0.17391452 0.003935825 -0.02791419 -0.04641194 -0.06950303 -0.02913812
-0.027898392 0.0026497561 0.16052495 -0.114410535 0.031860616 -0.057633314 0.15981762 -0.20210625
0.21083798 -0.11684037 0.22029139 0.06510235 0.2129166 0.036006283 0.04658449 0.020579778
-0.15702793 -0.12298551 0.10376655 0.14144209 0.21027084 0.060174532 0.0080576 0.18250577
0.029075878 0.1628363 -0.098688856 -0.05451491 0.15164211 -0.095750004 -0.12279694 -0.071651734
0.06790052 -0.004487253 0.14092638 -0.03223932 0.0984579 -0.17733946 -0.003658564 -0.14017347
0.19681036 -0.0834154 -0.06940241 0.205406 0.082384475 -0.14747559 -0.1069755 0.19372688
0.017782865 -0.1735661 0.063903265 0.1305231 0.09748743 0.16016638 -0.015329423 -0.08585117
-0.20706359 -0.0403094 0.14219312 0.19072562 -0.13387772 0.14866243 -0.02423371 0.1362855
-0.08440458 -0.20389853 -0.052134324 0.056679122 -0.03401339 0.05316403 0.013936891 0.19315732
0.0712719 -0.05585537 -0.018892517 -0.19459586 -0.17702976 -0.1892418 -0.16191849 0.14789003
-0.071668565 -0.092674896 -0.11912006 0.07789143 0.004451937 0.07268545 0.096593976 0.018763533
-0.19533302 0.19506207 0.19211924 0.009626058 0.06150245 -0.0626865 -0.10741809 0.08661227
0.033224303 0.030941727 0.17702074 -0.116139926 0.05359258 0.05261335 0.16370696 -0.20534208
-0.009357712 -0.012991008 -0.36994186 0.1975522 -0.246324 0.18060975 0.07238188 -0.08620995
0.051205147 0.17539297 0.37969467 0.21082859 -0.19268164 -0.21663302 0.047632076 -0.2730074
-0.23060478 -0.01651885 0.32888713 0.3213691 0.24220552 -0.25557342 0.04062554 0.09333698
-0.003974658 0.05357944 0.08868791 0.1749543 -0.18644361 0.14099349 0.13797893 -0.16185665
0.21690814 0.20759843 0.4139987 0.0464971 -0.013921781 0.097024314 -0.10709328 0.3095439
0.12717175 -0.32251036 -0.22571313 0.30259907 0.33588925 0.28093353 -0.16356811 0.25256935
0.16105793 0.09266419 0.01830439 0.204271 0.030380158 -0.12103214 -0.051614653 -0.12029586
0.08381374 0.083315566 -0.07380779 -0.066573456 0.17030363 -0.09562813 0.32884786 -0.065082006

layers.8.bias f4 [64]
00000000: 90be 49bb d2bd 053a 0091 f43a 739c a5bc
00000010: 1cb5 103c 1fb1 6b3a 4151 85bb 0227 353c
00000020: f1dc 79bb 4ef7 16bb bc38 973b 8447 7abb
00000030: d16d 2ebb 9135 40bb 1a97 a0ba 3ce2 95ba
00000040: a2f6 c5b8 2ae1 4c39 2629 953a da39 f8bc
00000050: c8a6 f0ba f431 ab3b 41d6 d2b8 c8e8 413b
00000060: d6fa edba 6173 02ba 1f76 24bb 9be0 a53b
00000070: 57fa 87bc f546 273b 724d 793c 060a 053c
00000080: f31e 1e3b baf1 c63b 296a 81bb c7f2 c3bb
00000090: d508 e6ba aebd 1d3b de8c 583b f444 be3a
000000a0: 52be 4f3b 3d46 773b 99b2 64ba 987b 7f39
000000b0: 1ebf 843b 2cb7 8a3b bb90 1b3b 8f56 44bb
000000c0: a442 7dba 0130 44bb 01d9 c6ba 837d 4d3b
000000d0: 30ff cc3b f494 0a3a 8d5a 8bbb 20ba 15bd
000000e0: 74e0 24bc ddc9 2c3c 6fa3 ceba dd84 a63b
000000f0: 2b7d d3bb 7f76 b4bb ac96 413b 43c9 3cbb
-0.003078375 0.0005101833 0.0018658936 -0.020216202 0.008832242 0.00089909317 -0.004068524 0.0110566635
-0.0038126076 -0.0023035589 0.0046149176 -0.00381896 -0.0026615749 -0.0029328803 -0.0012252063 -0.0011435221
-9.439631e-05 0.00019538836 0.0011380061 -0.030301023 -0.0018360252 0.0052244607 -0.00010053488 0.0029588211
-0.001815642 -0.0004976299 -0.002509482 0.0050621754 -0.016598864 0.0025524471 0.015216218 0.008120066
0.0024127334 0.0060712965 -0.003949423 -0.005979869 -0.001755024 0.0024069357 0.0033042948 0.0014516399
0.0031699133 0.0037731074 -0.0008724123 0.00024364737 0.0040511033 0.0042332616 0.002373739 -0.002995882
-0.00096611143 -0.002993584 -0.0015170873 0.0031355328 0.0062560067 0.0005286478 -0.004252738 -0.036554456
-0.010063279 0.010546175 -0.001576526 0.0050817565 -0.00645413 -0.00550729 0.002953927 -0.0028806485

layers.10.weight f4 [64, 64]
00000000: d4f1 673d a14a 4b3e 9689 b93d 8dd7 ac3d
00000010: 5e7e 39be c2d8 cbbd 5231 03be 6f48 12bd
00000020: a1f0 4cbe d23e 4b3e d738 043d 0767 1abe
00000030: c208 643d a219 a8bd 9d52 ffbb 1037 7b3c
00000040: 329e 7e3d a359 07be 220f 923e 5852 833d
00000050: 53c6 10be 8690 f23d ed5d 9bbb 5278 d1bc
00000060: 3627 e83d eedb 423e d6ab 2f3e c38f 3f3e
00000070: 65d7 a7bd 0803 0c3e d840 0c3e afa8 c23c
00000080: e193 11be 684c 9b3d 78a8 1bbe 11e1 e3bd
00000090: bbbd 10be c325 383e b17d d13d 6be8 e9bd
000000a0: bd21 453e be76 5a3e 4433 1e3e d957 ae3d
000000b0: c49e 7a3e 063a 4c3d 4a73 07be d059 043e
000000c0: 3c40 2dbc 2eb1 b63c 0ce8 423c 0ac4 923d
000000d0: eb85 373e 8baa 62bd 5ca6 b5bd 9138 27be
000000e0: 1508 2f3e 53f2 40bd 674f 743d f7e5 85bc
000000f0: a843 1d3d 32f2 82be a5bd 1e3a eaa8 5cbd
00000100: ff15 133e 1ace 48bc dc31 07be 5cdc 4f3e
00000110: 9f2c dcbd 1108 16be 0d27 52be c430 a23c
00000120: 5d95 f9bd 610e 163e ae1a 593e a6c4 403e
00000130: 0932 cd3d 773d a1bd c17c 513e e566 f53d
00000140: c5af 41be 4777 393e fe79 f53d 6c53 173e
00000150: 5bf2 aa3b dde3 d03d e29f 003e 3b61 723e
00000160: 0e1b 9cbc becb 24be 301d 883d 0556 d73d
00000170: 6e3d a7bd fb26 583e 3921 55be d95a 10be
00000180: df25 75bd 910e adbc 06aa db3d 36da 1abe
00000190: 2284 e3bd db25 c8bd ab6b f23d 44da 2a3e
000001a0: e955 413e 77b3 15be c445 5e3d e640 93bd
000001b0: db10 fdbd 8a28 09be 2ca0 21be e397 96bc
000001c0: 9369 3fbe 1ca4 67be e329 24bd 6aa6 0cbe
000001d0: 42a0 d43d d891 d6bd 714d b33d 4c82 57be
000001e0: ed6d 563e 416c f3bd f18e 3bbe 5a52 14be
000001f0: 891c 57bd 22e6 27bd b9a5 a1bc 6478 febd
00000200: fcb6 a9bd f0dc 63bc 37dd 06bd 4c0f 2ebe
00000210: 8e54 4fbe 070c 2bbe 0e82 133b c21a 18be
00000220: 9a61 f53d cd63 2c3e 0a55 543e cc27 963d
00000230: 3e35 133e d49f 28be 8017 303e c487 01bd
00000240: 4b1d 5b3e 5739 f03d 5ed4 963d 0572 ee3d
00000250: 92a2 18be 1c7b 463e ad80 173c dd4c a6bd
00000260: c78e 44be 8656 77bc 2183 443e 3c0e 1d3d
00000270: 6502 633d dbec 663d 97a7 bd3d 13d0 2bbe
00000280: 1426 f53d efa1 c73d ee30 5dbc 1ffb 3bbe
00000290: a8da 523e 1822 083e ab93 54be 6780 03be
000002a0: f66b 00be 1a4b 2c3e dec6 4d3d 0ddc 43be
000002b0: 4b0b 4d3e 000e 183e de44 5b3e 41f2 ea3d
000002c0: dd33 babd b24d dbbd f54f 48be 3245 513e
000002d0: 09e1 333c a303 69be 603a 57be 1fa9 34be
000002e0: e1c6 e1bd 1594 df3c 6410 86bd 5534 57bd
000002f0: 755d f73d 7722 63be aca5 10be d4f0 313e
00000300: 7952 5ebd a8ca 6e3b 7878 6cbc 3f40 f33c
00000310: 4117 223e 3706 5d3e 0895 5e3e a41e 823d
00000320: 39cb 6a3c a559 4dbd a53e 6c3d e1c8 95bd
00000330: 6781 93bd acff 153e 238f 96bd b872 88bc
00000340: 374b bbbd f154 15be 44b1 1bbe e8d3 9fbc
00000350: bef3 54be bf1b 0b3e 1be7 cebc 423b bcbb
00000360: 66f5 d43d 35d6 bf3c 788c 0c3d b5a9 10be
00000370: 81dc 3dbe aff0 383e e376 753d c9c2 f3bd
00000380: 6f5e a6bd 4765 b5bc 700c e93b 5582 743d
00000390: 7dc3 ddbd 048d ba3d ce00 0c3c 880a 163d
000003a0: ad0a 373e 4844 17be 83e0 883d 8c33 eebd
000003b0: 09a0 d6bd 9c4e 273e cb19 9b3d 4ef6 40be
000003c0: 4c32 aebc a042 21be 45b8 39bd 3b7e e43c
000003d0: 225f 523d 6fbc 083e a1d5 403e ff31 0cbe
000003e0: 6671 07bc e1c4 5b3e a6a1 43be 42fb 26be
000003f0: f78a 063e 6aff 5d3d 2634 c03d 92b9 333e
0.05662711 0.19852687 0.090594456 0.084395505 -0.18114612 -0.09953453 -0.12811783 -0.03571361
-0.20013668 0.19848183 0.03228077 -0.15078364 0.055672415 -0.08208014 -0.0077918307 0.015332952
0.062162586 -0.13217787 0.2852717 0.0641219 -0.14138155 0.11843972 -0.0047414214 -0.025570069
0.11335604 0.19029209 0.17155394 0.18707184 -0.0819538 0.13673031 0.13696611 0.023762075
-0.14216568 0.07582933 -0.15200984 -0.111269124 -0.14134876 0.17983155 0.10229052 -0.11421283
0.19251151 0.21334359 0.15449244 0.08512849 0.24474627 0.049860023 -0.13227573 0.12924886
-0.010574397 0.022301283 0.011896145 0.07166298 0.1792218 -0.055338424 -0.08869621 -0.16330172
0.17092927 -0.0471061 0.059646036 -0.016345007 0.0383946 -0.25575405 0.0006055481 -0.053872027
0.1436386 -0.01225617 -0.13202614 0.20298904 -0.10750698 -0.14651515 -0.20522709 0.019798644
-0.12186692 0.14653923 0.21201584 0.18825015 0.10019309 -0.078730516 0.20457746 0.11982516
-0.18914707 0.18111907 0.11986159 0.14777917 0.0052168793 0.101997115 0.1256099 0.23669903
-0.01905587 -0.16093346 0.06646192 0.10514454 -0.08166014 0.2110862 -0.20813455 -0.14097156
-0.05985057 -0.02112511 0.10725789 -0.15122303 -0.11109187 -0.09772845 0.11836942 0.16684824
0.18880428 -0.14619242 0.054265752 -0.07190113 -0.123567306 -0.1339437 -0.15783757 -0.018382972
-0.18692617 -0.22621197 -0.04007901 -0.13735357 0.10382129 -0.10477036 0.08755005 -0.21045798
0.20940371 -0.11885882 -0.18316247 -0.1448454 -0.052517448 -0.040990956 -0.019732343 -0.124253064
-0.082868546 -0.013907656 -0.03292581 -0.16998023 -0.20247099 -0.16703807 0.0022507939 -0.14853957
0.11981507 0.16834946 0.20735565 0.073318094 0.14375779 -0.1646722 0.17196465 -0.031623617
0.21397893 0.11729687 0.073647246 0.11642841 -0.14905766 0.193829 0.009246987 -0.08120129
-0.1919509 -0.015096312 0.19190647 0.038343653 0.055422205 0.056378227 0.09260481 -0.16778593
0.119701535 0.09747683 -0.013500435 -0.18357514 0.20591223 0.13294256 -0.20759456 -0.1284195
-0.12541184 0.16825524 0.050238483 -0.19126911 0.20023839 0.1484909 0.2141299 0.114719875
-0.090919234 -0.107081786 -0.19561751 0.20436552 0.0109789455 -0.22755294 -0.21018362 -0.1764264
-0.11024261 0.02729229 -0.06546095 -0.052540142 0.120783724 -0.22181116 -0.14125699 0.17377025
-0.05427787 0.003643671 -0.014433019 0.02969372 0.15829183 0.21584402 0.21736538 0.063535005
0.014330679 -0.05013432 0.05767693 -0.07313705 -0.07202416 0.14648312 -0.0735152 -0.016656265
-0.091452055 -0.14583184 -0.1520434 -0.019510224 -0.20796105 0.13584803 -0.025256684 -0.005744369
0.103983685 0.023417572 0.03431365 -0.14127238 -0.18541147 0.18060564 0.059927832 -0.11902387
-0.081234805 -0.02214302 0.0071120784 0.059694607 -0.10828302 0.09108928 0.008545114 0.036631137
0.17875166 -0.14772141 0.06683447 -0.116309255 -0.10479743 0.16338581 0.07573279 -0.18843958
-0.021264218 -0.15748072 -0.04534175 0.027892223 0.051360257 0.13353132 0.18831493 -0.13690947
-0.008266782 0.21461822 -0.19104633 -0.16306785 0.13138948 0.05419866 0.093849465 0.17551258

layers.10.bias f4 [64]
00000000: 0f9e 503c e0e7 01bc c5b9 0a3b 69df 3d3b
00000010: 81de fc3a 723d 1f3a a2b6 0fb9 08dc 0cbb
00000020: f54c 463b f2ee ee3a 75e0 333b ad56 013b
00000030: e94d a1b9 20c7 11bb b1be 773a f429 f2b8
00000040: e900 81bb 6195 0abc 3a41 a93a 73c2 1eba
00000050: 418d 92bb 8bab a13a d4ab 9e39 ef90 83bb
00000060: 09d6 56bb 8412 2e3b 45ce 343b 80e4 51ba
00000070: 52e8 6bbb cd57 3bbb b8f6 2e3b 00ad 4bbb
00000080: f70c 253b 90e1 0d3b ee8f c4ba 310c 62ba
00000090: 7d0d 953a f273 24bb 9586 3fbb b663 83bc
000000a0: 320a 87ba 7c44 d1bb 215f 5f3b 3d95 93bb
000000b0: c3f9 283b 1cec 00b9 4549 4bbb a1aa fc3a
000000c0: 95f9 073b 536d 00bb c666 f2ba bb16 c2ba
000000d0: 4ebe 733b 488e bcba fee8 113b 8d06 2a3b
000000e0: 4415 783b 0b90 ce3a db89 2cbb d7eb 453b
000000f0: cd3a 1abc 036f 05bc 4f2a cd3a 53f1 e0ba
0.012732997 -0.007928818 0.0021167856 0.0028972274 0.0019292386 0.0006074525 -0.00013705579 -0.0021493454
0.0030258272 0.001822917 0.002744702 0.00197355 -0.0003076636 -0.0022243932 0.00094507175 -0.000115472736
-0.003936876 -0.008458466 0.0012913116 -0.0006056197 -0.004472405 0.0012334449 0.0003026413 -0.00401508
-0.0032781383 0.002656133 0.0027588767 -0.00080067664 -0.0035996628 -0.002858627 0.0026697349 -0.0031078458
0.002518473 0.0021649338 -0.0014996508 -0.00086230325 0.0011371818 -0.0025093523 -0.0029224504 -0.016038757
-0.0010302721 -0.006386338 0.00340838 -0.0045038746 0.0025783635 -0.00012294989 -0.0031019014 0.0019276926
0.0020748128 -0.0019596412 -0.0018493764 -0.00148078 0.0037192288 -0.0014385665 0.0022264118 0.0025943846
0.0037854472 0.0015759481 -0.0026327285 0.0030200386 -0.009413433 -0.008144143 0.0015652868 -0.0017161764
