data/results/state_net_24000.pth (torch, 90556 bytes, 14 tensors)

layers.0.weight f4 [64, 5]
0.013289416 -0.19696617 0.3053156 -0.2940889 -0.25696087 -0.28230157 -0.27136752 -0.09304524
0.22524771 0.22000812 -0.0372983 0.22961639 0.20835748 0.20154093 -0.27142665 0.17843176
-0.06498038 0.21717939 0.17958184 -0.16014177 -0.24024753 0.13878168 -0.1285572 0.18705022
0.009769291 0.26867047 0.012193293 0.21856527 -0.034584526 0.13630724 0.14845556 0.26335862
0.114336565 -0.0515744 -0.0005032916 0.08391625 -0.036248 -0.1715276 -0.104266 0.027811874
-0.32949752 -0.24713336 0.22033834 0.16338575 0.085160494 -0.18334232 -0.021226678 0.25462422
0.14307673 -0.30431107 0.034878913 0.06997615 0.01919209 0.093536824 -0.18031633 -0.2915048
-0.20857581 -0.10025057 -0.18559965 -0.28274176 0.29615113 -0.24812835 0.14865287 -0.00848708
0.33061743 -0.22020204 -0.2860277 0.12532872 0.059038535 -0.004457636 -0.036901154 0.116994485
-0.08838989 -0.08915692 0.19185449 0.24864537 -0.2600869 -0.23457222 -0.14492127 0.19203849
0.022360448 0.072548784 0.066383496 0.1537991 0.08427274 -0.3098188 0.23577888 -0.27815574
-0.03771601 -0.106652014 0.11337619 -0.06768975 0.22576424 0.22615375 0.32703546 0.19579035
0.005201591 -0.27273196 0.21504377 0.2500195 -0.28841656 0.25576618 -0.0033775917 -0.11030509
0.059528723 0.27431586 0.26444963 -0.23245738 -0.00015774583 -0.033825267 -0.12077442 -0.031631716
0.14842519 -0.2819394 0.18165742 0.23472136 -0.27344534 0.20795912 -0.01317579 -0.28971282
0.005101026 -0.10424526 0.19448115 0.2608534 -0.25013107 0.3128554 -0.18219195 0.2509724
-0.01125959 -0.13428488 0.25925723 -0.15643361 -0.11580861 0.10334451 0.052414134 0.186842
-0.23522514 0.122629374 -0.14364426 -0.022462245 0.18389884 0.11691183 0.30458564 -0.05081024
-0.08678445 -0.14796124 -0.23455258 0.28089952 -0.23720774 -0.21685117 0.0278355 -0.036782067
0.00844938 -0.052578088 -0.114367224 0.26583707 -0.18517604 -0.22247487 -0.27586815 0.22018409
-0.016997539 0.24960114 0.027899444 0.0008753994 0.15878434 0.18542486 0.23837993 -0.09562281
-0.29175743 0.12080622 -0.4243562 0.26154864 -0.36439618 0.31667313 0.45438623 0.26022083
-0.2791588 -0.19354014 -0.19819224 0.1179596 -0.27181247 -0.04172816 0.0066507724 0.23542145
-0.42384657 -0.1060834 -0.13753228 0.31284302 -0.17867151 0.32530922 0.2643065 -0.08049592
0.04078695 -0.25145516 -0.068089 -0.38850296 -0.3432078 0.28950682 -0.27895987 -0.27352503
0.3160584 0.08373122 -0.14889221 -0.07617844 -0.12549354 -0.21161388 -0.16814314 -0.041467063
0.24384633 -0.1743219 -0.11153427 -0.06377762 0.2844655 -0.21213996 0.05415153 -0.16623949
-0.09495782 0.004385152 0.07304062 0.08591548 0.1728583 0.012940344 0.031953838 0.2734133
-0.3390382 -0.06748576 -0.03276969 -0.11084017 -0.2135262 0.15735282 0.19796689 -0.026742559
0.26114234 0.2776892 0.016387347 -0.28833613 -0.12015513 0.050428987 -0.29637808 0.22526914
0.16841441 -0.30469248 -0.29196304 -0.04773193 -0.2949937 -0.24863563 0.18981959 -0.02250144
-0.20274243 -0.13508227 -0.1852279 0.2786035 -0.25834104 -0.26491207 0.2259776 0.10577185
00000000: dabb 593c 80b1 49be 5452 9c3e d292 96be
00000010: 6090 83be d589 90be aff0 8abe 818e bebd
00000020: 56a7 663e cf49 613e 1ac6 18bd 8f20 6b3e
00000030: aa5b 553e bf60 4e3e 6ff8 8abe d1b6 363e
00000040: 6f14 85bd 4664 5e3e 4de4 373e 34fc 23be
00000050: 7303 76be c91c 0e3e 80a4 03be 188a 3f3e
00000060: 600f 203c 2d8f 893e 61c6 473c 93cf 5f3e
00000070: 81a8 0dbd 2094 0b3e bc04 183e f1d6 863e
00000080: 4a29 ea3d ae3f 53bd 54ef 03ba 48dc ab3d
00000090: c878 14bd eea4 2fbe 6a89 d5bd bad5 e33c
000000a0: e6b3 a8be 8710 7dbe 60a0 613e 984e 273e
000000b0: a068 ae3d 17be 3bbe 92e3 adbc 1b5e 823e
000000c0: b582 123e a9ce 9bbe 31dd 0e3d a84f 8f3d
000000d0: bb38 9d3c 3c90 bf3d d8a4 38be 1e40 95be
000000e0: e694 55be 2c50 cdbd d60d 3ebe 87c3 90be
000000f0: 1fa1 973e 5c15 7ebe 7538 183e 650d 0bbc
00000100: b046 a93e a57c 61be 3972 92be 2c56 003e
00000110: 64d2 713d 5c11 92bb aa25 17bd ce9a ef3d
00000120: c205 b5bd e797 b6bd 8175 443e e49c 7e3e
00000130: 1c2a 85be b333 70be 3e66 14be bda5 443e
00000140: 422d b73c 7594 943d 12f4 873d 837d 1d3e
00000150: 3097 ac3d 92a0 9ebe 0570 713e 6e6a 8ebe
00000160: 1a7c 1abd 5f6c dabd c731 e83d eca0 8abd
00000170: be2e 673e d994 673e 3171 a73e 447d 483e
00000180: 1c72 aa3b 86a3 8bbe 6f34 5c3e 8e02 803e
00000190: 56ab 93be c9f3 823e 965a 5dbb a3e7 e1bd
000001a0: 64d4 733d 2173 8c3e f165 873e 4f09 6ebe
000001b0: 9368 25b9 5d8c 0abd 9458 f7bd 4290 01bd
000001c0: c6fc 173e 5c5a 90be 6704 3a3e cc5a 703e
000001d0: 0701 8cbe 3cf3 543e 45df 57bc 3d55 94be
000001e0: 8226 a73b 8a7e d5bd 1126 473e 948e 853e
000001f0: 2e11 80be 952e a03e 8790 3abe 747f 803e
00000200: 257a 38bc fa81 09be 5dbd 843e 2230 20be
00000210: 112d edbd 49a6 d33d 34b0 563d 8253 3f3e
00000220: dcde 70be 1c25 fb3d 7b17 13be be02 b8bc
00000230: fa4f 3c3e 786f ef3d a6f2 9b3e 661e 50bd
00000240: 0cbc b1bd 2783 17be 8d2e 70be 10d2 8f3e
00000250: 96e6 72be 3c0e 5ebe 4607 e43c cba8 16bd
00000260: 456f 0a3c 1f5c 57bd 5d39 eabd cc1b 883e
00000270: ca9e 3dbe 74d0 63be 973e 8dbe f077 613e
00000280: 6c3e 8bbc 7197 7f3e 608d e43c 0f7b 653a
00000290: 5d98 223e 04e0 3d3e de19 743e e4d5 c3bd
000002a0: 3b61 95be 4069 f73d 3745 d9be b4e9 853e
000002b0: 2392 babe fb22 a23e 50a5 e83e aa3b 853e
000002c0: e7ed 8ebe 632f 46be e8f2 4abe ce94 f13d
000002d0: 012b 8bbe 26eb 2abd b9ee d93b 5212 713e
000002e0: 6b02 d9be 4142 d9bd 43d5 0cbe f62c a03e
000002f0: aaf5 36be ee8e a63e 2e53 873e 0bdb a4bd
00000300: 3810 273d bbbe 80be 3f72 8bbd dce9 c6be
00000310: efb8 afbe 3d3a 943e d4d3 8ebe 790b 8cbe
00000320: 68d2 a13e 467b ab3d 3377 18be 7103 9cbd
00000330: 6181 00be 4fb1 58be b72d 2cbe 5ed9 29bd
00000340: dab2 793e 7181 32be 146c e4bd d79d 82bd
00000350: 76a5 913e 383b 59be ffcd 5d3d af3a 2abe
00000360: 3f79 c2bd 52b1 8f3b 5296 953d 75f4 af3d
00000370: c401 313e bd03 543c 07e2 023d d4fc 8b3e
00000380: 6a96 adbe f935 8abd 8339 06bd 2c00 e3bd
00000390: 9da6 5abe 1921 213e d5b7 4a3e 3613 dbbc
000003a0: 73b4 853e 472d 8e3e c23e 863c cba0 93be
000003b0: e513 f6bd a08e 4e3d debe 97be f4ac 663e
000003c0: d474 2c3e a700 9cbe 2e7c 95be 8e82 43bd
000003d0: 6a09 97be 579a 7ebe 1160 423e f154 b8bc
000003e0: b69b 4fbe 0253 0abe 62ac 3dbe 1ea5 8e3e
000003f0: 4745 84be 8ea2 87be ac66 673e e99e d83d

layers.0.bias f4 [64]
-0.0183206 0.020268163 -0.013164548 -0.0025431868 -0.0021667308 0.0017197182 -0.0023273542 -0.011232069
0.0027083491 -0.0020107827 0.00329076 0.0020596304 -0.01690296 0.0061148857 0.0013021943 -0.016476013
0.0032883743 -0.0019507468 -0.016132995 -0.011828305 0.0029939509 -0.003268525 0.0062096566 0.010228439
0.025621142 -0.0057908376 0.0033915355 0.0046473797 -0.008867826 0.0034225748 0.012193245 0.0007065611
-0.0071540913 -0.0017133942 0.051508926 0.013340101 -0.010725516 0.0016312777 -0.0029584058 -0.013898896
-0.009300395 0.00034635677 -0.0034662364 0.0043065464 0.011008121 -0.017268479 -0.006291161 -0.006192631
0.012752511 -0.0015471552 -0.029346997 0.0045893406 0.00044393277 0.024736 0.004042227 -0.0039913617
-0.008991601 0.019719753 -0.007698455 -0.0071055433 -0.0061238045 0.0029443908 -0.004641701 0.00062436564
00000000: 1515 96bc 6b09 a63c 1eb0 57bc 98ab 26bb
00000010: b6ff 0dbb 2b68 e13a 8686 18bb b606 38bc
00000020: 8f7e 313b 56c7 03bb cba9 573b ddfa 063b
00000030: 1478 8abc 615f c83b 64ae aa3a b4f8 86bc
00000040: c481 573b 33b0 ffba 5829 84bc 82cb 41bc
00000050: 2936 443b c034 56bb 607a cb3b 2f95 273c
00000060: 6ee3 d13c 11c1 bdbb 8644 5e3b 0c49 983b
00000070: 5c4a 11bc 474d 603b 2dc6 473c 8338 393a
00000080: de6c eabb f893 e0ba 06fb 523d 7090 5a3c
00000090: 13ba 2fbc 99d0 d53a d0e1 41bb 32b8 63bc
000000a0: af60 18bc 3897 b539 cc29 63bb ee1d 8d3b
000000b0: 685b 343c a076 8dbc 1526 cebb 8eeb cabb
000000c0: e8ef 503c eac9 caba 1d69 f0bc 2e62 963b
000000d0: a6bf e839 27a3 ca3c a874 843b f8c9 82bb
000000e0: 8251 13bc 528b a13c 5243 fcbb 9ed5 e8bb
000000f0: 32aa c8bb aef6 403b 6919 98bb 78ac 233a

layers.2.weight f4 [64, 64]
-0.0018747099 -0.013320581 -0.11744423 -0.061045226 0.12152275 0.099128105 0.1372342 0.15892646
0.22058699 -0.19890226 0.044071063 -0.18320636 -0.19179526 0.025730759 0.028136358 -0.10657077
0.14646024 0.20778753 0.08241888 0.012311285 0.08659753 0.011033324 -0.12338142 -0.0072377804
0.07429 -0.13838838 0.13267575 0.0058892374 -0.22793567 -0.15969652 0.180592 0.048152365
-0.06695354 0.19925286 0.2096015 -0.13881005 -0.16505212 0.18946655 -0.23500164 0.008431338
-0.23091927 -0.051618032 -0.1598706 -0.032959312 0.062080678 -0.1002153 -0.22112183 0.11483134
-0.16276708 0.117507845 -0.113145545 0.007175405 -0.232381 -0.12395754 -0.057693403 0.14485794
0.14493005 0.21916206 -0.19571294 0.09086437 -0.10643203 0.14229412 0.12147899 0.02812135
0.15776835 0.025740312 -0.18638934 0.15391433 0.19586027 -0.06562458 -0.08211094 0.0063996483
-0.014817246 -0.043475363 0.18646029 0.06330245 -0.15027927 -0.17822228 -0.15001298 -0.045143813
0.21366307 0.10286744 0.17440575 0.17058237 -0.102205575 0.04990406 -0.025610048 -0.026488498
0.11501011 -0.002687552 -0.1616913 0.1625658 -0.13968526 0.027376039 0.06122037 0.1554146
0.14400645 -0.20434323 0.18757072 0.04289313 -0.04106059 -0.18252216 0.04062074 -0.048848063
-0.030320784 -0.115905546 0.11129391 0.21141607 -0.21028994 -0.003946071 0.12853876 -0.06100816
-0.12389615 0.11237166 -0.19848944 -0.05726193 0.06299811 -0.17455198 -0.1955762 0.047624577
0.019482706 0.07303116 0.20102307 0.14325212 0.00084842276 0.016950477 -0.07553552 0.027173616
-0.22812375 -0.14689036 0.059203625 0.1606339 -0.07201781 -0.16746098 0.005128319 -0.053646646
-0.10763112 -0.13643083 0.27285498 -0.23560779 0.07692529 -0.2068235 -0.06580926 -0.10882038
-0.092879996 -0.17941648 0.06017169 0.016093927 -0.2443188 -0.09980284 -0.15909304 0.07710031
0.028014299 0.058120463 -0.07491534 0.037548102 -0.19955215 0.17439364 -0.09156415 -0.17661443
0.086978704 -0.16549347 -0.15121303 0.104840115 0.13194878 0.15322319 0.14561707 -0.07652047
0.2906308 0.21708198 -0.16188566 -0.07775289 0.2983294 -0.120844536 0.16176428 -0.14839655
0.18744531 -0.19911629 -0.3117551 -0.058412343 -0.18590234 0.03209559 0.09343012 0.041735984
-0.07129432 -0.17647585 -0.12450246 -0.26812512 -0.20856422 0.11685933 0.03791588 -0.18824983
-0.018838927 -0.1581024 0.019911814 0.2389474 -0.031486098 -0.113261275 0.021429714 -0.0018091751
-0.31306767 -0.10506057 0.21015477 -0.1502728 -0.09946501 -0.02043793 -0.10082009 0.09325692
0.010921991 0.05534012 0.058281373 -0.013575155 -0.0042922716 -0.13710567 0.039997086 0.109233275
0.05873902 0.2053517 -0.029394718 -0.2063195 -0.077882245 -0.008899935 -0.21006443 0.06944535
-0.13743271 0.13263085 0.15288931 0.036659054 0.14976013 -0.14971752 -0.07073596 -0.21207172
0.007964317 0.0970402 0.15884866 -0.15757722 -0.0688096 -0.1365011 0.20427747 -0.18637808
0.09370982 -0.1281114 -0.020344554 -0.18945464 0.026094954 0.068772376 0.21946065 -0.18516843
-0.06791755 0.1687397 0.09971617 -0.2285994 -0.194504 -0.027313218 -0.13593292 -0.043600876
00000000: d3b8 f5ba 913e 5abc 9a86 f0bd 8f0a 7abd
00000010: ebe0 f83d ad03 cb3d 1f87 0c3e 9ebd 223e
00000020: 8ee1 613e 09ad 4bbe dc83 343d 739a 3bbe
00000030: fa65 44be 50c9 d23c 387e e63c c741 dabd
00000040: acf9 153e 41c6 543e 3bcb a83d 46b5 493c
00000050: 0c5a b13d 1dc5 343c 66af fcbd e72a edbb
00000060: 5b25 983d afb5 0dbe 27dc 073e 81fa c03b
00000070: f867 69be 7c87 23be 1ced 383e 6a3b 453d
00000080: f01e 89bd f108 4c3e c7a1 563e 3924 0ebe
00000090: 6c03 29be 8503 423e 45a4 70be 9823 0a3c
000000a0: 1a76 6cbe 6e6d 53bd 1eb5 23be 5800 07bd
000000b0: 4f48 7e3d ae3d cdbd c36d 62be b22c eb3d
000000c0: 6aac 26be f4a7 f03d dab8 e7bd a91f eb3b
000000d0: 49f5 6dbe 73dd fdbd eb4f 6cbd a455 143e
000000e0: 8b68 143e 056c 603e f968 48be 1917 ba3d
000000f0: 09f9 d9bd 8db5 113e fac9 f83d bf5e e63c
00000100: 078e 213e 59dd d23c d9dc 3ebe b89b 1d3e
00000110: 988f 483e 2e66 86bd c829 a8bd 24b4 d13b
00000120: 09c4 72bc 3913 32bd 72ef 3e3e b7a4 813d
00000130: cfe2 19be e77f 36be 019d 19be b8e8 38bd
00000140: 7eca 5a3e 2aac d23d 6c97 323e 25ad 2e3e
00000150: 2851 d1bd 3368 4c3d 2acc d1bc 68fe d8bc
00000160: 6c8a eb3d a421 30bb 6792 25be a677 263e
00000170: a709 0fbe b743 e03c 36c2 7a3d 0125 1f3e
00000180: 6d76 133e 5a3f 51be 8a12 403e b5b0 2f3d
00000190: 262f 28bd 17e7 3abe ef61 263d e814 48bd
000001a0: 4b63 f8bc e35f edbd 10ee e33d 747d 583e
000001b0: 3f56 57be 0b4e 81bb aa9f 033e b1e3 79bd
000001c0: 44bd fdbd 1d23 e63d d140 4bbe 7c8b 6abd
000001d0: 2705 813d c1bd 32be 2145 48be fd11 433d
000001e0: 329a 9f3c 5c91 953d fed8 4d3e afb0 123e
000001f0: b068 5e3a badb 8a3c 5eb2 9abd 349b de3c
00000200: 4699 69be 6d6a 16be 807f 723d 377d 243e
00000210: 137e 93bd e47a 2bbe 750b a83b 96bc 5bbd
00000220: b46d dcbd 86b4 0bbe a6b3 8b3e 2b43 71be
00000230: 028b 9d3d 8ac9 53be 01c7 86bd 38dd debd
00000240: de37 bebd f4b8 37be 9776 763d 69d7 833c
00000250: b52e 7abe 6e65 ccbd 49e9 22be c4e6 9d3d
00000260: 3e7e e53c b90f 6e3d 376d 99bd 0acc 193d
00000270: 6657 4cbe 3f94 323e fc85 bbbd 6ada 34be
00000280: e421 b23d 1f77 29be 97d7 1abe 6ab6 d63d
00000290: 951d 073e 8ae6 1c3e a41c 153e c4b6 9cbd
000002a0: 8fcd 943e bd4a 5e3e 5bc5 25be e83c 9fbd
000002b0: a2be 983e 577d f7bd 89a5 253e 44f5 17be
000002c0: aaf1 3f3e 24e5 4bbe 5d9e 9fbe c841 6fbd
000002d0: 2f5d 3ebe aa76 033d 4a58 bf3d 5af3 2a3d
000002e0: c202 92bd 16b6 34be 25fb febd b247 89be
000002f0: dc91 55be f253 ef3d af4d 1b3d 90c4 40be
00000300: 1854 9abc 98e5 21be 1a1e a33c a1ae 743e
00000310: 91f7 00bd 87f5 e7bd 5e8d af3c d821 edba
00000320: 684a a0be ff29 d7bd d032 573e 1de1 19be
00000330: 50b4 cbbd 726d a7bc c37a cebd 7cfd be3d
00000340: 27f2 323c 52ac 623d 73b8 6e3d 546a 5ebc
00000350: 2fa6 8cbb 6e65 0cbe fcd3 233d b2b5 df3d
00000360: 5498 703d b747 523e 31cd f0bc 6b45 53be
00000370: ba80 9fbd 08d1 11bc 211b 57be 5d39 8e3d
00000380: 29bb 0cbe 62d0 073e 048f 1c3e ce27 163d
00000390: b85a 193e 8d4f 19be 04de 90bd 5429 59be
000003a0: c47c 023c 03bd c63d 39a9 223e ec5b 21be
000003b0: 0cec 8cbd f2c6 0bbe 1d2e 513e e5d9 3ebe
000003c0: efea bf3d a32f 03be 9fa9 a6bc 6600 42be
000003d0: 16c5 d53c 88d8 8c3d 4bba 603e cb9c 3dbe
000003e0: 5b18 8bbd 1aca 2c3e fe37 cc3d f615 6abe
000003f0: 0e2c 47be f8bf dfbc 0032 0bbe d596 32bd

layers.2.bias f4 [64]
0.008379921 -0.0012439399 0.034157194 0.0044425484 0.0018119261 0.0056965104 0.0010816407 -0.0014487482
-0.0014173429 -0.0049093836 -0.00022977598 0.0028259146 -0.0015193393 -0.00238094 -0.000698838 -0.0109631065
0.00054035557 -0.001618053 -0.03006513 -0.0023221683 0.009920075 0.004491156 -0.014333269 0.001259138
-0.0013941975 0.0026070722 0.010743244 0.0027201187 0.0063441433 -0.0006028834 0.0044302596 -0.007276247
0.013790897 0.0038616417 -0.009768679 -0.07441305 -0.0057916613 -0.0031260524 0.0036827351 0.0076359324
-0.00061075727 0.007106424 0.009484694 0.007445066 -0.00052816275 -0.04486412 0.0124148335 -0.008129013
-0.018529944 0.0013074022 -0.005938884 -0.0032539559 -0.0021718834 0.0011593582 -0.00045075692 -0.0022597027
-0.005582964 0.0069981343 -0.004570186 -0.005652428 0.00046649328 0.0077629383 -0.0017386199 -0.082268655
00000000: f04b 093c b20b a3ba 6ae8 0b3d cc92 913b
00000010: 277e ed3a cba9 ba3b d7c5 8d3a ece3 bdba
00000020: 23c6 b9ba e5de a0bb 05f0 70b9 fb32 393b
00000030: 9124 c7ba 8b09 1cbb 3932 37ba 9a9e 33bc
00000040: a6a6 0d3a d914 d4ba 264b f6bc 852f 18bb
00000050: cf87 223c 8c2a 933b 16d6 6abc a909 a53a
00000060: 81bd b6ba 6adb 2a3b 6e04 303c 0544 323b
00000070: 88e2 cf3b d20a 1eba b62b 913b 956d eebb
00000080: 37f3 613c 9913 7d3b cf0c 20bc df65 98bd
00000090: fac7 bdbb 75de 4cbb 0b5a 713b d836 fa3b
000000a0: 3a1b 20ba 01dd e83b b165 1b3c bdf5 f33b
000000b0: 6774 0aba 71c3 37bd 9667 4b3c 8d2f 05bc
000000c0: 1ccc 97bc 235d ab3a f89a c2bb 5240 55bb
000000d0: 2856 0ebb 9bf5 973a 9253 ecb9 8517 14bb
000000e0: 4cf1 b6bb 9b50 e53b 80c1 95bb 0138 b9bb
000000f0: ab93 f439 3f60 fe3b 67e2 e3ba 787c a8bd

layers.4.weight f4 [64, 64]
-0.107305266 0.109477066 -0.1746503 -0.15305185 0.15939727 -0.16163844 -0.15386847 -0.101173274
-0.012865283 0.18603595 0.1489505 0.045677632 -0.21369807 0.19534452 -0.08068906 0.15585102
-0.12705347 -0.10216542 -0.12419544 -0.018491428 0.0040578856 0.21249485 -0.06443013 0.19247973
-0.16236268 -0.17135023 -0.018790882 -0.15351631 0.17502719 -0.038264435 -0.12926884 -0.075371996
0.137753 0.09444626 0.07428806 0.1661758 -0.057888296 0.14478174 -0.0058311485 0.07528103
-0.05479475 -0.002767611 -0.051694818 -0.20161203 -0.009366854 -0.16235761 -0.067476325 -0.050050836
-0.18637857 -0.21473117 0.20531222 -0.0629523 -0.17708182 -0.08473261 -0.0937249 -0.20341909
0.063360296 -0.12903224 -0.17617778 0.20597006 -0.19571182 -0.008581671 0.14203371 -0.14593203
-0.14666368 0.010257958 0.12673126 0.08006649 0.21028607 0.014605758 -0.2004058 -0.14228077
-0.112471126 -0.20605125 0.21002708 -0.15393381 -0.105619095 0.22599383 0.1412197 -0.026134783
-0.12289684 0.08977259 0.08495264 0.07179047 -0.054721776 0.023814445 -0.012028421 -0.10366375
0.14439523 -0.005157854 0.19084856 0.21055616 -0.12381996 0.10616583 0.20995195 0.024914347
-0.15654431 0.20464063 -0.18081182 0.29203784 -0.04245492 -0.13589361 0.024568478 -0.0397838
-0.14052293 -0.007037374 -0.14913662 -0.24377386 -0.24241182 0.019551346 -0.13990986 -0.053572662
0.25399077 0.03169413 0.13070458 0.09321175 -0.039488893 0.021761226 -0.21821643 -0.20525086
-0.058450084 -0.19246827 -0.10181505 0.20952328 -0.1854148 -0.074489675 -0.019447371 0.003700725
-0.12039282 -0.031700954 0.0709197 0.13244691 -0.09863618 -0.1699688 0.025159694 0.07761723
-0.0024813164 -0.030710585 0.028583659 -0.069432676 0.058710627 -0.17495519 0.0038361354 0.14165153
0.012451617 0.10384301 0.034347504 0.17522512 -0.0026625674 0.12744172 -0.11547639 0.04645602
0.07511779 0.040379364 -0.20409252 0.16717353 0.15795404 0.075136855 -0.114676096 -0.078653105
-0.17288929 -0.031012904 0.08442834 0.023566607 0.20945565 -0.13013074 -0.17795484 -0.03627194
0.07641632 -0.07319239 -0.08824192 0.23057747 0.0017591473 0.12954758 -0.045965172 -0.117274255
-0.05601262 -0.052513264 -0.057225224 -0.056076434 0.15916225 0.17818126 -0.10749418 -0.08007487
-0.14027083 -0.11969221 -0.11194206 0.0067273513 -0.12735118 0.17790881 0.0440023 -0.21345854
-0.046090707 -0.19032589 -0.02882608 -0.011763023 -0.11385419 -0.0027425457 -0.14614221 0.18178438
0.049087573 0.085085586 -0.14272982 -0.057973713 0.16030394 0.21197939 0.19127487 -0.1383987
0.16290846 0.04531398 0.20017031 -0.014353903 -0.08865962 -0.10910247 -0.15207085 -0.1717596
-0.16790798 0.21014737 0.13382226 0.14819454 0.09021973 0.20660564 0.19197297 0.11668742
0.11774078 -0.16083346 0.008467903 0.051390138 0.066804275 0.07860263 0.116815485 -0.097189665
0.06308454 0.07041907 -0.02579859 -0.09003672 -0.13303582 0.18041308 -0.16016704 0.19217683
0.106631406 -0.14152746 -0.20325923 -0.13899279 0.07413618 -0.047131073 -0.013929145 0.13899463
0.17774226 -0.18805245 0.17184947 0.13766597 -0.10266076 0.13758689 -0.1355444 -0.018052857
00000000: ddc2 dbbd 8335 e03d 87d7 32be a0b9 1cbe
00000010: 0a39 233e 8c84 25be b28f 1dbe ef33 cfbd
00000020: e8c8 52bc 3580 3e3e 7b86 183e 7818 3b3d
00000030: abd3 5abe 6508 483e 4e40 a5bd 6997 1f3e
00000040: 4e1a 02be 1b3c d1bd 2e5a febd 567b 97bc
00000050: 03f8 843b 4098 593e f2f3 83bd 6819 453e
00000060: 6742 26be 6f76 2fbe 56ef 99bc 6133 1dbe
00000070: 543a 333e 2bbb 1cbd 0d5f 04be a25c 9abd
00000080: 1f0f 0d3e 0a6d c13d 5724 983d fd29 2a3e
00000090: 471c 6dbd aa41 143e 3813 bfbb f12c 9a3d
000000a0: 7670 60bd cf60 35bb f2bd 53bd 6273 4ebe
000000b0: 6f77 19bc 1341 26be 0731 8abd 1b02 4dbd
000000c0: 06da 3ebe 7de2 5bbe 5e3d 523e 23ed 80bd
000000d0: f054 35be 4a88 adbd d7f2 bfbd 184d 50be
000000e0: 0bc3 813d 0721 04be f367 34be d1e9 523e
000000f0: ae68 48be 239a 0cbc 4971 113e 356f 15be
00000100: 012f 16be ff10 283c d7c5 013e e6f9 a33d
00000110: 3b55 573e fd4c 6f3c 2e37 4dbe 0db2 11be
00000120: 4357 e6bd 19ff 52be 5711 573e d3a0 1dbe
00000130: d34e d8bd ed6a 673e e69b 103e 9d18 d6bc
00000140: 57b1 fbbd b1da b73d a6fb ad3d e206 933d
00000150: f123 60bd 8316 c33c db12 45bc a94d d4bd
00000160: 58dc 133e 3703 a9bb ce6d 433e 099c 573e
00000170: 5295 fdbd 786d d93d a5fd 563e 2c19 cc3c
00000180: 274d 20be 508d 513e bc26 39be fc85 953e
00000190: 36e5 2dbd b227 0bbe d543 c93c 56f4 22bd
000001a0: 3ee5 0fbe c699 e6bb 45b7 18be db9f 79be
000001b0: ce3a 78be 252a a03c 8844 0fbe 026f 5bbd
000001c0: 140b 823e b4d1 013d 6cd7 053e cde5 be3d
000001d0: 1bbf 21bd 9944 b23c 2174 5fbe 482d 52be
000001e0: 5b69 6fbd 6716 45be 6984 d0bd 458d 563e
000001f0: 61dd 3dbe 0b8e 98bd 1850 9fbc dd87 723b
00000200: 8390 f6bd dcd8 01bd 593e 913d 2aa0 073e
00000210: c401 cabd 4d0c 2ebe b41b ce3c c8f5 9e3d
00000220: 959d 22bb c494 fbbc 4728 ea3c b832 8ebd
00000230: 8e7a 703d 7427 33be ac67 7b3b 190d 113e
00000240: de01 4c3c a5ab d43d f8af 0c3d 376e 333e
00000250: 787e 2ebb 1580 023e e37e ecbd ab48 3e3d
00000260: 5bd7 993d d564 253d a1fd 50be 8a2f 2b3e
00000270: b4be 213e 5ae1 993d 4ddb eabd e114 a1bd
00000280: e409 31be c60e febc c4e8 ac3d c20e c13c
00000290: 8b7b 563e fe40 05be cb39 36be e391 14bd
000002a0: 2980 9c3d e4e5 95bd 2eb8 b4bd 801c 6c3e
000002b0: 3093 e63a 1fa8 043e fa45 3cbd 7c2d f0bd
000002c0: 7d6d 65bd 2618 57bd ff64 6abd 67b0 65bd
000002d0: 6efb 223e 2675 363e e925 dcbd 4bfe a3bd
000002e0: 28a3 0fbe 3021 f5bd e141 e5bd 1d71 dc3b
000002f0: 5968 02be ba2d 363e c13b 343d e094 5abe
00000300: 9cc9 3cbd cae4 42be ac24 ecbc b2b9 40bc
00000310: 632c e9bd 48bc 33bb 4ea6 15be af25 3a3e
00000320: 0d10 493d 5a41 ae3d c427 12be d875 6dbd
00000330: b726 243e 2011 593e 8fdd 433e 64b8 0dbe
00000340: 7ad1 263e 279b 393d 72f9 4c3e a22c 6bbc
00000350: 2d93 b5bd 1e71 dfbd 76b8 1bbe c0e1 2fbe
00000360: 12f0 2bbe df30 573e b408 093e 4fc0 173e
00000370: 1fc5 b83d 6e90 533e 9094 443e d0f9 ee3d
00000380: 1422 f13d 87b1 24be f6bc 0a3c 777e 523d
00000390: aed0 883d 6afa a03d f53c ef3d 600b c7bd
000003a0: 7832 813d e037 903d 9157 d3bc 2c65 b8bd
000003b0: 8b3a 08be 35be 383e d402 24be 01ca 443e
000003c0: 9161 da3d 93ec 10be 3023 50be 2054 0ebe
000003d0: b6d4 973d 830c 41bd 1237 64bc 9c54 0e3e
000003e0: 1102 363e d290 40be 4ff9 2f3e 4ff8 0c3e
000003f0: ce3f d2bd 94e3 0c3e 27cc 0abe 96e3 93bc

layers.4.bias f4 [64]
-0.0014910578 -0.014696265 -0.0016254253 -0.006865437 -0.0027978558 -0.06068122 0.016756132 -0.0016814338
0.0037662124 0.006410069 -0.0010783552 -0.00042341766 -0.00175434 0.0031934741 0.010039865 -0.000746646
0.00021619472 -0.0018699485 0.015008863 0.004309315 0.0013444072 0.0031209108 -0.0064313523 -0.12964587
0.039644342 0.0043220506 0.0039588176 -0.0073765996 0.00580799 0.0027217316 -0.0025672102 0.0028006707
-0.005441697 0.004316832 0.0011159098 0.00211475 -0.008572747 0.0009246582 -0.00095944875 0.0019567849
0.004023512 0.0039311955 -0.00016931494 -0.0038469303 -0.009096098 0.004024958 -0.0039440733 -0.00753755
-0.0011898756 -0.0014547916 0.008644595 -0.0015598035 0.00071725005 0.02433478 0.0016289455 0.037918724
-0.00025724617 0.0027916925 -0.0036266057 -0.002157044 0.0028845451 -0.0015987764 -0.0077978126 -0.005048036
00000000: 996f c3ba 9ac8 70bc 390c d5ba 76f7 e0bb
00000010: 3b5c 37bb df8c 78bd 2844 893c 8e63 dcba
00000020: 8fd2 763b 8e0b d23b 9957 8dba 28fe ddb9
00000030: e2f1 e5ba 9b49 513b 3f7e 243c 91ba 43ba
00000040: 54b2 6239 0f19 f5ba bce7 753c 2735 8d3b
00000050: d236 b03a 3288 4c3b 18be d2bb e3c1 04be
00000060: 1b62 223d fd9f 8d3b f8b8 813b 67b7 f1bb
00000070: f450 be3b 145f 323b a43e 28bb 758b 373b
00000080: 4350 b2bb 3674 8d3b b843 923a 9e97 0a3b
00000090: b574 0cbc c364 723a 8483 7bba 673d 003b
000000a0: aad7 833b 42d1 803b 228a 31b9 c81c 7cbb
000000b0: cd07 15bc cbe3 833b 493d 81bb 8dfd f6bb
000000c0: 9af5 9bba b5ae beba 0fa2 0d3c 5272 ccba
000000d0: d605 3c3a bc59 c73c 5782 d53a aa50 1b3d
000000e0: ffde 86b9 d4f4 363b 59ac 6dbb 315d 0dbb
000000f0: a30a 3d3b 098e d1ba cb84 ffbb ff69 a5bb

layers.6.weight f4 [64, 64]
0.0252012 -0.04795515 0.11410891 -0.16057076 -0.103208534 -0.014854755 -0.19136812 -0.034847718
-0.21075663 -0.12571986 0.13075566 -0.16849485 0.06046883 0.01458861 -0.112243 0.075765714
0.2153251 0.0065181484 -0.16525781 0.006521641 0.13687162 0.050852142 0.16226192 -0.09331136
-0.028186595 -0.21180613 -0.2018637 0.10857526 0.0391442 -0.07975991 -0.117946744 0.03961828
-0.21642019 -0.19666596 0.011842384 0.09458847 0.119125076 -0.093291104 0.14710404 0.07845649
0.15790536 -0.0908143 0.0011745759 -0.05409444 -0.09353349 0.16507329 -0.09946472 0.02514414
-0.0002389946 -0.20154043 -0.14113444 -0.20095691 -0.14767134 -0.12782611 0.039474476 -0.016739333
-0.049675904 0.110325046 -0.15907302 0.12732393 0.09859466 -0.081858546 0.15249524 0.039355945
0.15273736 -0.1816812 -0.12321757 -0.06799834 0.08976173 0.10046204 0.16459858 -0.18101308
-0.23384368 -0.208634 -0.046916876 0.11909913 -0.18198921 0.11858611 0.16815309 -0.04873289
0.17638543 0.13869613 0.044720896 -0.16629721 -0.06820253 0.23485702 -0.16662204 -0.053282924
0.013302344 0.07199539 -0.06441085 0.13604051 -0.05081302 -0.02429943 0.04006382 -0.13321678
-0.025460746 -0.055016458 0.17886026 0.023749381 -0.0712037 0.013361368 0.09241295 -0.056898363
-0.18120176 0.043058593 -0.05834948 -0.009291834 -0.11620529 -0.10527542 -0.19447382 -0.10943984
0.199821 0.16370343 -0.020463517 -0.0050672637 -0.18636188 -0.16476893 -0.055058643 0.18366414
0.1301255 0.103069395 -0.17296824 0.22157712 0.0011005942 0.0080727525 -0.16181697 0.16314751
-0.16184774 0.21703194 -0.039255485 -0.16439246 0.15130171 -0.09671854 0.13229054 0.10649381
0.14240775 -0.056216326 0.09345781 -0.06716577 0.13473135 0.039288733 0.09782248 0.11244726
0.055253517 0.17728294 -0.1822569 0.21120904 -0.18961203 0.18856037 -0.21381423 0.18579547
0.047879104 -0.115890816 0.030739415 -0.1435238 -0.17562994 0.15172592 0.010533544 0.019171087
0.16894633 0.030482544 -0.20490743 -0.20686993 0.09069651 0.098820515 -0.17037103 0.06923843
-0.11426983 0.19452241 0.065746315 -0.073064096 -0.020966405 -0.15700857 -0.012543319 -0.20605734
0.04515827 0.20624077 0.09997586 0.1406424 0.15141971 -0.06791019 0.03950102 -0.16260517
0.18623558 0.20631959 0.16712002 0.034537952 0.17203093 0.17213243 -0.018703477 -0.2096514
-0.18020537 -0.062398024 -0.15264921 -0.071842074 0.15051213 0.024585038 0.08302301 0.10135073
-0.10590743 0.08255485 0.017579358 -0.040434342 0.009480317 -0.0842507 -0.15369016 -0.018686207
-0.19280817 0.029669626 -0.096679635 0.008018507 -0.045338664 -0.19078219 -0.09496783 0.032788884
0.07290604 -0.16990685 0.09269617 0.22654584 0.015527131 -0.049244057 -0.052734356 0.17395476
-0.13976784 0.16060024 -0.14268078 0.1111628 0.113477156 0.04954096 -0.12616266 -0.122132525
-0.17873968 -0.110461764 0.10305685 -0.041843966 -0.18549745 0.13826299 -0.21919265 0.020014515
0.18167238 -0.06717704 -0.084573954 -0.052975282 -0.15932573 -0.08524264 -0.058761496 0.084405236
0.01884656 -0.10288686 0.09896298 -0.21896182 0.09643856 -0.0002985224 0.10239845 -0.059191234
00000000: bf72 ce3c 9f6c 44bd efb1 e93d a96c 24be
00000010: ff5e d3bd 5c61 73bc 01f6 43be 7bbc 0ebd
00000020: 96d0 57be b5bc 00be d0e4 053e ea89 2cbe
00000030: 2aae 773d 1105 6f3c a8df e5bd 0e2b 9b3d
00000040: 2f7e 5c3e 3196 d53b 5839 29be 7db3 d53b
00000050: 1328 0c3e 564a 503d fd27 263e 071a bfbd
00000060: 93e7 e6bc b5e3 58be 5cb5 4ebe b55c de3d
00000070: ab55 203d 2a59 a3bd 108e f1bd c746 223d
00000080: 419d 5dbe cd62 49be 8f06 423c 9ab7 c13d
00000090: d9f7 f33d 680f bfbd 71a2 163e ccad a03d
000000a0: f1b1 213e d9fc b9bd 3af4 993a 2292 5dbd
000000b0: 7d8e bfbd f908 293e 29b4 cbbd 15fb cd3c
000000c0: a09a 7ab9 9d60 4ebe 8c85 10be a6c7 4dbe
000000d0: 2837 17be d9e4 02be fdaf 213d ed20 89bc
000000e0: f678 4bbd 19f2 e13d 0ae4 22be 3461 023e
000000f0: ffeb c93d 74a5 a7bd b627 1c3e b333 213d
00000100: 2f67 1c3e a30a 3abe 7e59 fcbd b742 8bbd
00000110: ffd4 b73d 0bbf cd3d 888c 283e 7e5b 39be
00000120: b874 6fbe 27a4 55be e92b 40bd 3fea f33d
00000130: 615b 3abe 46dd f23d 5330 2c3e 249c 47bd
00000140: 629e 343e 5c06 0e3e 422d 373d d149 2abe
00000150: c5ad 8bbd 5c7e 703e f89e 2abe 323f 5abd
00000160: 13f2 593c 5272 933d d6e9 83bd 344e 0b3e
00000170: 5021 50bd 990f c7bc f619 243d fb69 08be
00000180: 0e93 d0bc f058 61bd 2527 373e 108e c23c
00000190: 3fd3 91bd a4e9 5a3c 0043 bd3d 420e 69bd
000001a0: f48c 39be 355e 303d ddff 6ebd c73c 18bc
000001b0: 0afd edbd a49a d7bd 2524 47be ff21 e0bd
000001c0: e09d 4c3e dfa1 273e 1ba3 a7bc 4a0b a6bb
000001d0: a6d5 3ebe 30b9 28be 2c85 61bd 7412 3c3e
000001e0: 9e3f 053e 0c16 d33d 961e 31be 1de5 623e
000001f0: d041 903a 9443 043c 59b3 25be 2410 273e
00000200: 6abb 25be 9f3d 5e3e 5cca 20bd 7f56 28be
00000210: d6ee 1a3e 5f14 c6bd 2c77 073e 6d19 da3d
00000220: 56d3 113e 1743 66bd cf66 bf3d 358e 89bd
00000230: 04f7 093e 39ed 203d 2757 c83d c04a e63d
00000240: 8351 623d a989 353e 8ea1 3abe 2f47 583e
00000250: a829 42be f815 413e 1ef2 5abe 2b41 3e3e
00000260: e11c 443d 2a58 edbd 3ad1 fb3c e7f7 12be
00000270: 56d8 33be 0a5e 1b3e e394 2c3c af0c 9d3c
00000280: 4400 2d3e 87b6 f93c 41d3 51be b6d5 53be
00000290: 18bf b93d 6962 ca3d be75 2ebe e1cc 8d3d
000002a0: 4d06 eabd e230 473e 01a6 863d a1a2 95bd
000002b0: bdc1 abbc dbc6 20be 7e82 4dbc b200 53be
000002c0: e1f7 383d c830 533e 25c0 cc3d 9004 103e
000002d0: c50d 1b3e 7f14 8bbd d2cb 213d f881 26be
000002e0: 8ab4 3e3e 7145 533e 8321 2b3e ab77 0d3d
000002f0: e028 303e 7c43 303e 0938 99bc dbae 56be
00000300: c287 38be 1295 7fbd 1350 1cbe f021 93bd
00000310: da1f 1a3e 9066 c93c f807 aa3d f990 cf3d
00000320: ffe5 d8bd 8412 a93d 9602 903c 7b9e 25bd
00000330: 5553 1b3c a28b acbd f460 1dbe d113 99bc
00000340: 816f 45be b70d f33c f9ff c5bd 0e60 033c
00000350: 09b5 39bd 685c 43be 7e7e c2bd a34d 063d
00000360: c34f 953d 10fc 2dbe 7dd7 bd3d a2fb 673e
00000370: 8265 7e3c 23b4 49bd fbff 57bd 3221 323e
00000380: 4d1f 0fbe 6474 243e e91a 12be 52a9 e33d
00000390: b666 e83d 76eb 4a3d c930 01be 9e20 fabd
000003a0: 8907 37be c739 e2bd 780f d33d 9464 2bbd
000003b0: 0bf3 3dbe d094 0d3e 0a74 60be 7bf5 a33c
000003c0: 5308 3a3e 1e94 89bd 1c35 adbd 9cfc 58bd
000003d0: 4926 23be b193 aebd e5af 70bd a7dc ac3d
000003e0: 1a64 9a3c 59b6 d2bd 1aad ca3d 8737 60be
000003f0: 9481 c53d 0083 9cb9 47b6 d13d 8272 72bd

layers.6.bias f4 [64]
-0.0024770256 0.019594211 -0.00034235575 -0.008863932 0.001424472 0.0027418977 -0.010743761 0.008306848
-0.015930308 -0.00047168334 0.0008573349 -0.0002572876 0.0003610353 0.001121297 0.00094320514 -0.071889445
-0.0005487017 0.003213839 0.0040261634 0.0074583767 0.0027790559 -0.0010091384 -0.01394575 -0.001701628
0.00044908546 0.0017791513 -0.0022788774 -0.0030777545 -0.044464976 -0.012238647 -0.0013592498 -0.0034933146
-0.0004805585 0.0041759433 0.0013218311 -0.002469529 -0.0033340969 -0.012538656 -0.002318434 0.0020588299
0.006316817 -0.0021820166 -0.002418737 0.0006119191 0.0034826463 0.010894445 -0.0030010059 0.0014629877
0.0034885653 -0.0023846289 0.009256255 -0.02815406 0.00059574837 0.001208839 0.0046751336 -0.017069893
0.0034442537 -0.017277757 0.0056776544 -0.0042237993 0.0056890794 -0.0018821151 -0.0033832216 0.0027280357
00000000: 9855 22bb 0a84 a03c 367e b3b9 073a 11bc
00000010: 59b5 ba3a 69b1 333b 9a06 30bc 7219 083c
00000020: 4780 82bc 444c f7b9 c5be 603a 8fe4 86b9
00000030: 5649 bd39 7cf8 923a 6d41 773a c63a 93bd
00000040: bfd6 0fba 459f 523b e8ed 833b 6665 f43b
00000050: d220 363b 1145 84ba b77c 64bc 2909 dfba
00000060: 3b73 eb39 6932 e93a 3859 15bb 27b4 49bb
00000070: e820 36bd 9b84 48bc db28 b2ba 18f0 64bb
00000080: 78f3 fbb9 5ad6 883b 4b41 ad3a d2d7 21bb
00000090: dd80 5abb ef6e 4dbc def0 17bb 6fed 063b
000000a0: 4dfd ce3b 2a00 0fbb ac83 1ebb 3269 203a
000000b0: 1c3d 643b 9d7e 323c 86ac 44bb b9c1 bf3a
000000c0: 6aa0 643b 6f47 1cbb 8ca7 173c 58a3 e6bc
000000d0: ff2b 1c3a e871 9e3a dd31 993b 29d6 8bbc
000000e0: fdb8 613b 158a 8dbc 9e0b ba3b cc67 8abb
000000f0: 756b ba3b 4eb1 f6ba 0ab9 5dbb d8c8 323b

layers.8.weight f4 [64, 64]
-0.022904579 0.007920523 0.11275583 0.04627097 -0.14857821 0.13845147 0.22904347 -0.03185071
0.06384355 -0.1924728 -0.005622722 0.05755862 0.0026539573 0.18334316 0.15196106 0.017306073
-0.19226566 0.039087366 0.16723393 -0.07421697 0.011785074 -0.19889943 0.12612294 -0.1606977
0.09643886 -0.14610197 -0.025271045 0.16100618 0.03568816 -0.1610604 -0.18239105 -0.049630057
0.05281135 -0.1862969 0.06705305 0.22255188 -0.20940621 -0.015478603 -0.11411784 -0.008480057
-0.12947968 -0.06286453 0.2055101 0.0012820049 0.029498529 -0.2001955 -0.054530066 0.075352564
0.08316574 0.07224866 0.015022456 0.08844706 -0.19977024 -0.05007071 -0.12127189 0.0244108
0.09205344 -0.016287994 -0.20197202 0.040096793 -0.17606136 0.00046663987 0.032209415 -0.020355271
0.20524703 -0.051746003 -0.18711491 -0.1441153 -0.15255804 0.0038660106 -0.06891843 0.20793758
0.06484746 0.013373231 -0.15492335 0.10124153 -0.18993534 -0.11254025 0.012461855 0.18841168
0.17529583 -0.07119619 -0.1736713 0.0041599083 -0.027647275 -0.04656518 -0.069696195 -0.02907354
-0.027940916 0.0029167195 0.15748805 -0.11411667 0.032014266 -0.057357207 0.16007322 -0.20241624
0.21140017 -0.11679028 0.22032991 0.06507913 0.21338953 0.03604913 0.04654037 0.02031674
-0.1571209 -0.12344435 0.103686124 0.14153834 0.21042065 0.059962068 0.00794851 0.18291377
0.029014042 0.16276944 -0.098780125 -0.054376435 0.15141568 -0.09604811 -0.12307416 -0.0715743
0.06802373 -0.0043134033 0.14063542 -0.032311644 0.098605506 -0.17718169 -0.0058583105 -0.14006002
0.19712697 -0.082533024 -0.07076041 0.20516086 0.08232951 -0.14694099 -0.10696583 0.1939475
0.017875798 -0.17462176 0.06367799 0.13009423 0.09794201 0.15969048 -0.015647342 -0.08626712
-0.20533751 -0.039721385 0.1431724 0.19143462 -0.13453093 0.14864947 -0.024308335 0.13623638
-0.084020294 -0.20308866 -0.05763197 0.057358243 -0.034045212 0.05431413 0.015154376 0.19325928
0.071666665 -0.056209363 -0.020415988 -0.19413304 -0.1760149 -0.18966193 -0.16179354 0.14662988
-0.07121402 -0.09250655 -0.119057044 0.0778673 0.0024603184 0.069538854 0.096686944 0.018831216
-0.19501774 0.1941741 0.19127761 0.009264414 0.061986897 -0.06337561 -0.107911736 0.087277636
0.03368507 0.030823791 0.17692253 -0.11707222 0.054008197 0.052242685 0.16050866 -0.20540023
-0.0073837917 -0.018340912 -0.3588488 0.19897366 -0.23888776 0.17664452 0.06348284 -0.093391165
0.05517358 0.17259729 0.40796387 0.21616976 -0.17951363 -0.20624004 0.042425275 -0.26546288
-0.22131374 -0.026939541 0.32625252 0.30945498 0.2323239 -0.2652163 0.034522172 0.1046497
-0.019063521 0.079289496 0.10376198 0.16959162 -0.1794851 0.13994801 0.13313575 -0.16536352
0.21716447 0.2139242 0.4022951 0.03953076 -0.006568964 0.10248023 -0.11769833 0.28595772
0.11865823 -0.31180206 -0.2291178 0.30745226 0.3253962 0.2614407 -0.17208774 0.26225922
0.15068503 0.11258611 0.023197778 0.21039273 0.027314557 -0.12555408 -0.062046345 -0.12409549
0.0681194 0.08478044 -0.08248091 -0.06656917 0.17818357 -0.09261408 0.33024514 -0.074188754
00000000: 62a2 bbbc 15c5 013c 87ec e63d a186 3d3d
00000010: e324 18be 39c6 0d3e 5f8a 6a3e e475 02bd
00000020: 68c0 823d 9717 45be d03e b8bb 96c2 6b3d
00000030: 04ee 2d3b 4fbe 3b3e ae9b 1b3e 77c5 8d3c
00000040: 4ae1 44be 131a 203d 5f3f 2b3e 11ff 97bd
00000050: 2f16 413c 4bac 4bbe 5f26 013e f08d 24be
00000060: bd81 c53d c19b 15be 3905 cfbc cede 243e
00000070: c02d 123d 04ed 24be b8c4 3abe e348 4bbd
00000080: b750 583d 9dc4 3ebe 1c53 893d a4e4 633e
00000090: 956e 56be f799 7dbc 9db6 e9bd f0ef 0abc
000000a0: 5296 04be 1ebf 80bd 3d71 523e f208 a83a
000000b0: e6a6 f13c 0d00 4dbe eb5a 5fbd 7252 9a3d
000000c0: cd52 aa3d 1bf7 933d bf20 763c bb23 b53d
000000d0: 9290 4cbe f216 4dbd 665d f8bd 28f9 c73c
000000e0: 8486 bc3d 666e 85bc c1d1 4ebe 893c 243d
000000f0: 6e49 34be 58a7 f439 05ee 033d 19c0 a6bc
00000100: 472c 523e 9ef3 53bd 0d9b 3fbe f692 13be
00000110: 2d38 1cbe e55c 7d3b 1b25 8dbd 97ed 543e
00000120: bfce 843d 651b 5b3c 3aa4 1ebe b857 cf3d
00000130: 697e 42be 817b e6bd cf2c 4c3c feee 403e
00000140: c080 333e 4fcf 91bd e4d6 31be d74f 883b
00000150: 8a7c e2bc 21bb 3ebd e1bc 8ebd a22b eebc
00000160: 59e4 e4bc 6f26 3f3b 8c44 213e 00b6 e9bd
00000170: 6421 033d 64ef 6abd 3cea 233e 3446 4fbe
00000180: 4979 583e be2f efbd 2a9e 613e 3548 853d
00000190: c982 5a3e 41a8 133d 1da1 3e3d 4b6f a63c
000001a0: 4de4 20be 64d0 fcbd 6459 d43d 6def 103e
000001b0: 8378 573e c99a 753d 783a 023c bf4d 3b3e
000001c0: dbae ed3c 08ad 263e 3c4d cabd d3b9 5ebd
000001d0: b60c 1b3e dfb4 c4bd 4e0e fcbd 8c95 92bd
000001e0: 0650 8b3d 7357 8dbb bb02 103e 3759 04bd
000001f0: aff1 c93d 1e6f 35be 12f7 bfbb e56b 0fbe
00000200: a7db 493e 1307 a9bd d5ea 90bd b015 523e
00000210: 609c a83d b377 16be e710 dbbd 2c9a 463e
00000220: 4470 923c 0cd0 32be 9b69 823d 6c37 053e
00000230: d295 c83d e785 233e db2e 80bc d1ac b0bd
00000240: ff43 52be e4b2 22bd c99b 123e 7007 443e
00000250: 7ac2 09be 9137 183e 4622 c7bc 8d81 0b3e
00000260: d512 acbd 79f6 4fbe 800f 6cbd 7af0 6a3d
00000270: fe72 0bbd 7e78 5e3d 0f4a 783c c3e5 453e
00000280: f9c5 923d ca3b 66bd 6e3f a7bc d0ca 46be
00000290: 403d 34be bd36 42be 35ad 25be 2526 163e
000002a0: a8d8 91bd 1374 bdbd 2ed4 f3bd e478 9f3d
000002b0: 4b3d 213b 636a 8e3d ce03 c63d ec43 9a3c
000002c0: bbb2 47be 93d5 463e 47de 433e c5c9 173c
000002d0: f9e5 7d3d 12cb 81bd d400 ddbd 9ebe b23d
000002e0: 5bf9 093d 2d82 fc3c 2e2b 353e 8fc3 efbd
000002f0: b337 5d3d 6dfc 553d 625c 243e 7054 52be
00000300: bcf3 f1bb ae3f 96bc 08bb b7be c0bf 4b3e
00000310: fe9e 74be 4de2 343e 4b03 823d de43 bfbd
00000320: b1fd 613d 58bd 303e a4e0 d03e 9b5b 5d3e
00000330: 6cd2 37be 9730 53be 20c6 2d3d c0ea 87be
00000340: 12a0 62be 50b0 dcbc 920a a73e e270 9e3e
00000350: 51e6 6d3e 6eca 87be 1f67 0d3d 9552 d63d
00000360: 1a2b 9cbc 8862 a23d 2981 d43d 6da9 2d3e
00000370: f1ca 37be 884e 0f3e bd54 083e 0e55 29be
00000380: 5d60 5e3e f20e 5b3e a0f9 cd3e 02eb 213d
00000390: 7740 d7bb 28e1 d13d d20b f1bd 0d69 923e
000003a0: 1603 f33d 85a4 9fbe db9d 6abe 626a 9d3e
000003b0: 559a a63e 8edb 853e c537 30be d746 863e
000003c0: 2d4d 1a3e 8c93 e63d 4409 be3c 3171 573e
000003d0: c7c2 df3c 4091 00be 4f24 7ebd c725 febd
000003e0: 2f82 8b3d 5ea1 ad3d c0eb a8bd 6b55 88bd
000003f0: c175 363e 73ac bdbd e415 a93e 46f0 97bd

layers.8.bias f4 [64]
-0.0029569266 0.00083550246 0.0027144651 -0.018295348 0.0049605356 0.0013236507 -0.0031304022 0.011881105
-0.003005677 -0.0019053475 0.005291053 -0.0032482008 -0.002249139 -0.0023905395 -0.001581617 -0.0014441097
0.00039873633 -0.00069787045 0.002409117 -0.032503262 -0.0017781528 0.0047716023 -0.0001782661 0.002947679
-0.0017886832 0.0016950528 -0.001916202 0.005119111 -0.0127768535 0.0020656034 0.011399529 0.0072001386
0.0020645251 0.0058344705 -0.0035945617 -0.0061434614 -0.0013220721 0.0022145794 0.0027704241 0.0018030904
0.0030340373 0.003148319 -0.001527984 0.0004334721 0.0049414504 0.0038255025 0.0017819757 -0.004219185
-0.00040539002 -0.002610832 -0.00085770624 0.002773648 0.003070853 -0.00077604473 -0.003417396 -0.03407038
-0.010124403 0.008992648 -0.0018219965 0.006039232 -0.0045883693 -0.0049910024 0.0021757963 -0.002415313
00000000: ffc8 41bb 9f05 5b3a 2be5 313b 20e0 95bc
00000010: fd8b a23b 597e ad3a 6f27 4dbb f7a8 423c
00000020: e4fa 44bb dabc f9ba 9260 ad3b c4df 54bb
00000030: 4a66 13bb 99aa 1cbb 434e cfba 4848 bdba
00000040: 7c0d d139 4bf1 36ba 47e2 1d3b 2422 05bd
00000050: e810 e9ba 1a5b 9c3b f1ec 3ab9 d92d 413b
00000060: 4072 eaba 892c de3a 1229 fbba 37be a73b
00000070: 0256 51bc 135f 073b 17c5 3a3c 24ef eb3b
00000080: fc4c 073b 162f bf3b bd92 6bbb 174f c9bb
00000090: 6149 adba 7a22 113b 0190 353b ad55 ec3a
000000a0: b3d6 463b 0754 4e3b a346 c8ba a443 e339
000000b0: e4eb a13b 48b5 7a3b 2f91 e93a 1741 8abb
000000c0: 878a d4b9 7e1a 2bbb b1d7 60ba 17c6 353b
000000d0: 5d40 493b 7b6f 4bba 64f6 5fbb 628d 0bbd
000000e0: d3e0 25bc e655 133c 0fd0 eeba c0e4 c53b
000000f0: 085a 96bb 908b a3bb ce97 0e3b 3a4a 1ebb

layers.10.weight f4 [64, 64]
0.05751862 0.19744422 0.0906518 0.083545744 -0.17003292 -0.09915407 -0.12795383 -0.03571897
-0.19797811 0.19839747 0.030715454 -0.15039623 0.053958524 -0.08257608 -0.009159804 0.013656373
0.06262707 -0.11705907 0.27239874 0.06329952 -0.13907647 0.11825486 -0.0043114815 -0.02689287
0.10868376 0.19122823 0.16983068 0.18743208 -0.08122459 0.13585645 0.13699527 0.026478112
-0.14475316 0.075771436 -0.15158378 -0.113369696 -0.14184606 0.18304126 0.09952611 -0.11608095
0.19167534 0.21248047 0.15210612 0.088199936 0.24580626 0.05120936 -0.13042991 0.12797222
-0.011694848 0.025099264 0.011610409 0.07162111 0.17887938 -0.05587428 -0.08898624 -0.16178672
0.17000532 -0.05001825 0.050458133 -0.014676049 0.039027125 -0.2548293 -5.838745e-05 -0.05304497
0.14113483 -0.01368521 -0.13406885 0.20018762 -0.10837721 -0.14528829 -0.20362483 0.020944249
-0.12368038 0.14835732 0.2096385 0.18880755 0.106167845 -0.078929074 0.2037566 0.12035585
-0.18794502 0.18493086 0.11875329 0.14936793 0.006874229 0.10325868 0.12713131 0.23817697
-0.017269542 -0.15822595 0.060736183 0.10749973 -0.08286278 0.21499366 -0.20638147 -0.13943519
-0.057250917 -0.019023318 0.10596706 -0.14768314 -0.11196449 -0.10027857 0.11974402 0.16761965
0.18938202 -0.14732254 0.0612541 -0.07431116 -0.1227952 -0.13534546 -0.16035324 -0.016149024
-0.18348037 -0.22589836 -0.039332014 -0.13811506 0.102583736 -0.10423879 0.086102806 -0.20669383
0.2081475 -0.114870414 -0.19423261 -0.14582191 -0.0534266 -0.039705127 -0.020562321 -0.12143784
-0.08359436 -0.014419716 -0.032986425 -0.17052875 -0.20355383 -0.16697836 0.0022493869 -0.14860131
0.11961359 0.16888909 0.20702183 0.07256465 0.14348738 -0.16492733 0.17175221 -0.032171343
0.21408848 0.11603668 0.06913914 0.116289735 -0.1495654 0.19395152 0.0093864715 -0.081078574
-0.19115964 -0.015376521 0.1916699 0.0381964 0.05540378 0.056285825 0.092668004 -0.16792966
0.120012805 0.09787384 -0.01307177 -0.18359819 0.20569775 0.13064715 -0.20734252 -0.12843944
-0.12549096 0.16818348 0.04958674 -0.18996972 0.20059507 0.14820552 0.21482126 0.1127351
-0.09005766 -0.108240485 -0.19533572 0.20462267 0.011007986 -0.22753909 -0.21021883 -0.17618209
-0.11014264 0.026752485 -0.06356475 -0.052859496 0.1196034 -0.22131488 -0.14126137 0.17368606
-0.054028284 0.0035065135 -0.014171215 0.029935509 0.15657932 0.21567807 0.21745944 0.06340894
0.014159956 -0.050152123 0.05737233 -0.073501684 -0.07291609 0.14626251 -0.07374774 -0.018307317
-0.09144062 -0.14754331 -0.15543836 -0.019375395 -0.20815416 0.13566528 -0.025227023 -0.00597741
0.10371348 0.023256484 0.03429813 -0.14151639 -0.1854058 0.17931306 0.059782952 -0.11983627
-0.0812595 -0.023282833 0.0073342053 0.059074603 -0.108432464 0.09059602 0.008407516 0.036230035
0.17848246 -0.14765693 0.064866565 -0.11652172 -0.104890466 0.1637487 0.076312214 -0.1895524
-0.021724267 -0.15926231 -0.045403793 0.02883485 0.051326506 0.13345516 0.18833344 -0.13629009
-0.008299127 0.21279398 -0.19034645 -0.16292357 0.13075179 0.054580208 0.09375932 0.17576635
00000000: a598 6b3d d12e 4a3e a7a7 b93d 081a ab3d
00000010: 1c1d 2ebe 4a11 cbbd 5406 03be 0e4e 12bd
00000020: c6ba 4abe b528 4b3e fa9e fb3c 7801 1abe
00000030: 9d03 5d3d a61d a9bd 0113 16bc fbbe 5f3c
00000040: 9f42 803d aabc efbd d977 8b3e 2ea3 813d
00000050: 106a 0ebe 9b2f f23d 5447 8dbb 704e dcbc
00000060: 9795 de3d 55d1 433e 18e8 2d3e 32ee 3f3e
00000070: 1459 a6bd f41d 0b3e 7d48 0c3e a0e8 d83c
00000080: 2c3a 14be 0e2e 9b3d c738 1bbe 5f2e e8bd
00000090: 1840 11be 2b6f 3b3e 58d4 cb3d d9bb edbd
000000a0: 8a46 443e 7b94 593e b5c1 1b3e 2ba2 b43d
000000b0: a3b4 7b3e e8c0 513d 6b8f 05be 260b 033e
000000c0: bf9b 3fbc f99c cd3c 9639 3e3c 17ae 923d
000000d0: 282c 373e 6edc 64bd 6b3e b6bd 6bab 25be
000000e0: e015 2e3e f0df 4cbd 30ad 4e3d d073 70bc
000000f0: e8da 1f3d fc78 82be 0ce5 74b8 af45 59bd
00000100: a685 103e ee37 60bc 5849 09be fcfd 4c3e
00000110: dff4 ddbd 74c6 14be 0783 50be 4693 ab3c
00000120: 244c fdbd fbea 173e 7aab 563e c456 413e
00000130: 876e d93d 91a5 a1bd 92a5 503e 217d f63d
00000140: a974 40be 845e 3d3e ed34 f33d e8f3 183e
00000150: 3641 e13b 4979 d33d b62e 023e aae4 733e
00000160: db78 8dbc fc05 22be 81c6 783d d228 dc3d
00000170: f6b3 a9bd 4c27 5c3e aa55 53be 19c8 0ebe
00000180: f07f 6abd cad6 9bbc 4205 d93d 403a 17be
00000190: a34d e5bd da5e cdbd 5a3c f53d 7ca4 2b3e
000001a0: 5ced 413e b8db 16be 94e5 7a3d 7330 98bd
000001b0: 0d7c fbbd 0098 0abe a433 24be f54a 84bc
000001c0: 47e2 3bbe e651 67be 9b1a 21bd 096e 0dbe
000001d0: 6c17 d23d 267b d5bd ab56 b03d 8ca7 53be
000001e0: 9e24 553e 2e41 ebbd eae4 46be 5752 15be
000001f0: dad5 5abd d8a1 22bd 5072 a8bc 67b4 f8bd
00000200: 8533 abbd ac40 6cbc c61c 07bd 179f 2ebe
00000210: 6a70 50be 60fc 2abe 736a 133b f12a 18be
00000220: f8f7 f43d 43f1 2c3e 88fd 533e c69c 943d
00000230: 5bee 123e b6e2 28be d0df 2f3e 19c6 03bd
00000240: 033a 5b3e a4a4 ed3d d298 8d3d 5029 ee3d
00000250: ac27 19be 3a9b 463e b7c9 193c 860c a6bd
00000260: 5abf 43be ceed 7bbc 1d45 443e d473 1c3d
00000270: 13ef 623d f78b 663d b9c8 bd3d c1f5 2bbe
00000280: 46c9 f53d 1472 c83d fa2a 56bc 2a01 3cbe
00000290: 6ea2 523e 5ec8 053e 9951 54be a185 03be
000002a0: b480 00be 4a38 2c3e 771b 4b3d 6c87 42be
000002b0: cb68 4d3e 30c3 173e 1bfa 5b3e a9e1 e63d
000002c0: 2770 b8bd 30ad ddbd 1606 48be 9b88 513e
000002d0: d75a 343c 0200 69be 9b43 57be 1469 34be
000002e0: 7792 e1bd 0728 db3c 3c2e 82bd 3383 58bd
000002f0: a1f2 f43d 5ea0 62be d2a6 10be c2da 313e
00000300: c34c 5dbd 89cd 653b 622e 68bc 503b f53c
00000310: 5456 203e b6da 5c3e b0ad 5e3e 8cdc 813d
00000320: 29ff 673c 506c 4dbd 40ff 6a3d 0d88 96bd
00000330: 0855 95bd d7c5 153e 0e09 97bd 3af9 95bc
00000340: 3845 bbbd 9815 17be 3c2b 1fbe 26b9 9ebc
00000350: 5d26 55be d7eb 0a3e e7a8 cebc 26de c3bb
00000360: bc67 d43d 6284 be3c 327c 0c3d ace9 10be
00000370: 05db 3dbe d89d 373e f8de 743d b86c f5bd
00000380: 616b a6bd a4bb bebc c653 f03b 36f8 713d
00000390: d711 debd 688a b93d aebf 093c f265 143d
000003a0: 1bc4 363e 6133 17be c3d8 843d f1a2 eebd
000003b0: d0d0 d6bd bdad 273e 9449 9c3d 061a 42be
000003c0: 17f7 b1bc a915 23be 54f9 39bd 1037 ec3c
000003d0: be3b 523d 78a8 083e 7bda 403e a18f 0bbe
000003e0: 10f9 07bc aae6 593e 2eea 42be 70d5 26be
000003f0: cce3 053e 7f8f 5f3d e304 c03d 18fc 333e

layers.10.bias f4 [64]
0.013316962 -0.00744043 0.0019358479 0.0022750916 0.0026226488 0.0011829513 0.0008499062 -0.0017211871
0.004017412 0.001483201 0.0022807636 0.0018285617 -0.00023176108 -0.0027579083 0.0010184341 0.0008303829
-0.0031843174 -0.008998821 0.00056995987 -0.0010667739 -0.0036970126 0.00053495175 0.0007782903 -0.0031628876
-0.002889615 0.0033074976 0.0022889038 -0.0018321872 -0.0028799607 -0.0022048005 0.0021282567 -0.0036124277
0.0024660365 0.0026246705 -0.0019843793 -0.00049818406 0.00076833536 -0.0030826384 -0.002419288 -0.01771167
-0.0014794382 -0.0056850933 0.0036356845 -0.0047513032 0.0020603184 0.0006547351 -0.0033185587 0.00026114704
0.0015166717 -0.0014737914 -0.0025691136 -0.0010546834 0.003062736 -0.0015927462 0.0027609526 0.001930219
0.004527823 0.0021682556 -0.0032722764 0.002796825 -0.0078729065 -0.0064942697 0.002063265 -0.001171064
00000000: 632f 5a3c dace f3bb 47bc fd3a b419 153b
00000010: bfe0 2b3b 420d 9b3a 3dcc 5e3a 7599 e1ba
00000020: 7fa4 833b f867 c23a dd78 153b 59ac ef3a
00000030: e404 73b9 06be 34bb fa7c 853a 0eae 593a
00000040: fbaf 50bb ca6f 13bc 5c69 153a fed2 8bba
00000050: 9449 72bb 013c 0c3a 2e06 4c3a 7348 4fbb
00000060: b25f 3dbb 9ac2 583b 6f01 163b 0026 f0ba
00000070: b9bd 3cbb 6a7e 10bb 397a 0b3b 7bbe 6cbb
00000080: 3a9d 213b aa02 2c3b 5c0c 02bb 9198 02ba
00000090: 1d6a 493a 1706 4abb eb8c 1ebb 1018 91bc
000000a0: b5e9 c1ba 054a babb aa44 6e3b d2b0 9bbb
000000b0: 6806 073b 87a2 2b3a 2d7c 59bb 90ea 8839
000000c0: 0fcb c63a 3c2c c1ba 935e 28bb 4d3d 8aba
000000d0: 2fb8 483b b2c3 d0ba 19f1 343b 67ff fc3a
000000e0: 225e 943b 4b19 0e3b b073 56bb f04a 373b
000000f0: 5dfd 00bc e2cd d4bb d837 073b 637e 99ba
