data/results/state_net_20000.pth (torch, 90556 bytes, 14 tensors)

layers.0.weight f4 [64, 5]
00000000: 8e5c 453c b561 4bbe 81cc 9c3e 3dd0 96be
00000010: 5cc1 82be 0457 90be cd89 8bbe 523f b8bd
00000020: 3aa4 633e 324c 5f3e 3ace 1bbd c604 6b3e
00000030: 4623 543e 34cb 4e3e 76c2 8abe ac26 333e
00000040: 991a 85bd 0d62 5d3e 0ee0 373e 23b0 23be
00000050: 31f2 73be 0187 0f3e 9f7a 03be 3bb9 3f3e
00000060: 2457 4f3c b587 8a3e 6145 463c 2e94 5f3e
00000070: 66c9 0dbd 2f07 0a3e 1de8 163e 4f35 853e
00000080: 7a17 ea3d 0a72 51bd a8a9 bbbb bc8b ae3d
00000090: 0338 1cbd dd04 2fbe 8858 d5bd f001 dc3c
000000a0: 686e a7be 9a4e 7cbe 2da4 603e 32bd 273e
000000b0: 9564 af3d 650e 3bbe d8ba acbc 7521 823e
000000c0: fef2 123e 6cf4 9abe 0e4d 093d 0ef7 8b3d
000000d0: 54c2 9c3c 6a21 be3d f274 37be 1388 93be
000000e0: dfdb 55be 0827 dabd 7b1c 3cbe bb24 8ebe
000000f0: 0d7b 953e e840 7fbe 0442 1a3e 7f47 13bc
00000100: 50cd a73e c9e3 5fbe f262 92be 1501 003e
00000110: e4b3 723d b25f 90bb 5f7f 19bd 40aa ee3d
00000120: ffe5 b4bd 3293 b6bd 504a 433e e54e 7f3e
00000130: 61bc 85be 305d 6fbe c81e 16be 54ba 403e
00000140: d637 c43c d517 953d 1a7e 883d ab83 1d3e
00000150: 18a3 ac3d 362f 9dbe 30c9 703e c150 8ebe
00000160: 8f25 18bd f328 dcbd 3228 e63d 1468 89bd
00000170: 6b25 663e efa0 673e 5c13 a73e 83a8 453e
00000180: 1da0 9b3b 78fc 8abe dbf9 5b3e fa01 7e3e
00000190: 4a5a 93be 855e 823e 9532 7abb 6d1b e1bd
000001a0: 6bdc 6f3d 0c32 8c3e d018 873e 57a6 6dbe
000001b0: 6766 38ba 67aa 0abd bb61 f3bd fbe1 fcbc
000001c0: e942 173e ce50 90be a90a 3d3e b66b 703e
000001d0: b1a8 8bbe cc52 543e e5ba 56bc 8a66 93be
000001e0: e33e 973b 6ee8 d1bd e1c3 473e ed3d 853e
000001f0: 6f15 7ebe 6123 9e3e 7ebd 38be 711c 803e
00000200: ffcb 3ebc f0d0 04be c1e7 843e d63b 1ebe
00000210: 5127 e9bd 62ca d23d 1cb2 5c3d 9dcc 3f3e
00000220: 69a2 70be cb01 fb3d cb2e 13be 07ad b5bc
00000230: a436 3b3e b043 ed3d 1ecc 9b3e 2be5 4fbd
00000240: df52 b1bd 5fe0 16be 060e 70be 23be 8f3e
00000250: 4ded 72be 945e 5dbe b422 e43c c81b 1abd
00000260: bd09 083c e8c0 57bd 723c ebbd 4f98 843e
00000270: f002 3ebe b37f 64be 3b3f 8dbe 993e 633e
00000280: b644 8ebc 1500 803e ce6f e13c c948 703a
00000290: 2863 233e 1457 3a3e 3424 703e 229e c4bd
000002a0: df2a 95be e024 f03d 1cfe d6be 6396 883e
000002b0: 8881 babe 0073 a23e 4a90 e73e a0e5 843e
000002c0: 50c9 8ebe d9e8 45be d258 4bbe 86a0 f23d
000002d0: 56f2 8bbe 295d 1dbd d99f c93b c854 713e
000002e0: a2ad d5be 637a d9bd 553f 0cbe 800a 9e3e
000002f0: b365 36be 7a6f a33e cdbd 853e adf2 a5bd
00000300: 4ece 223d 2fbb 80be 2715 87bd 2288 c2be
00000310: b222 aebe 8db9 933e 91a3 8ebe 5694 89be
00000320: 4ea7 a03e d546 aa3d deb9 18be 6d33 9cbd
00000330: 77e9 00be 05cc 58be 723f 2cbe 6aaf 2bbd
00000340: 51bd 793e 74fb 31be 2a3b e9bd e6f9 85bd
00000350: c0b6 903e 7318 59be fa66 5f3d c403 2abe
00000360: 4707 c3bd eb91 943b a69d 953d e987 af3d
00000370: 0697 2f3e 97f8 793c d9df f43c 6e0a 8c3e
00000380: 9738 acbe c6c4 90bd 6fea 01bd b6c7 e9bd
00000390: 06be 5abe 9f0d 243e fde4 493e b980 dbbc
000003a0: 4a92 853e 2733 8e3e 7794 893c a71f 93be
000003b0: 752e f7bd 7b0d 543d 0d86 97be 1975 653e
000003c0: 44f6 273e 2a88 9bbe 1c61 95be 00d3 45bd
000003d0: 17d0 95be 9cc2 7ebe 0859 403e 0617 bebc
000003e0: 5dfc 4ebe f75b 0ebe 5616 3ebe 6bc6 8d3e
000003f0: 9dd0 83be c189 87be e348 653e ad23 d93d
0.012045993 -0.19861491 0.30624774 -0.29455748 -0.25538146 -0.28191388 -0.2725357 -0.089964524
0.22230616 0.2180641 -0.03803847 0.2295104 0.20716581 0.20194703 -0.27101487 0.17495221
-0.06499214 0.21619435 0.17956564 -0.1598516 -0.23822857 0.14016344 -0.12839745 0.18723004
0.012655053 0.2705666 0.012101502 0.2183387 -0.034615897 0.13479303 0.14736982 0.26017234
0.11430259 -0.051134147 -0.0057270117 0.08522746 -0.038139354 -0.17091699 -0.104172766 0.026856393
-0.3270142 -0.24639359 0.21937628 0.16380766 0.085641064 -0.1826721 -0.021085188 0.2541615
0.14350507 -0.30264604 0.03352075 0.06834231 0.019135632 0.09283717 -0.17915705 -0.28814754
-0.20884655 -0.10651976 -0.1837024 -0.27762398 0.29195443 -0.24927104 0.15064245 -0.008989214
0.32773829 -0.21864237 -0.28591114 0.12500413 0.05925359 -0.004405939 -0.037474986 0.11653566
-0.08832931 -0.08914794 0.19071317 0.2493244 -0.26120284 -0.23375392 -0.1466018 0.18821079
0.023952406 0.07279936 0.06664677 0.15382259 0.08429545 -0.30700082 0.23514247 -0.27795985
-0.037145194 -0.10749998 0.112381354 -0.067093045 0.22475211 0.22619985 0.32631958 0.19302563
0.0047493116 -0.27145743 0.21482031 0.24805441 -0.28779823 0.25462738 -0.0038177122 -0.10991559
0.058559816 0.27381933 0.26386118 -0.23207985 -0.0007034302 -0.033853915 -0.11883875 -0.030869475
0.14771618 -0.2818665 0.18461098 0.23478588 -0.2727714 0.2073471 -0.013106083 -0.2878917
0.004615651 -0.102494106 0.19508316 0.26023808 -0.24812864 0.30886367 -0.18041036 0.250217
-0.011645316 -0.12970328 0.25958064 -0.15452513 -0.11384452 0.10292508 0.053880796 0.18730398
-0.23499455 0.12256201 -0.14373319 -0.022177232 0.18282562 0.11585176 0.30429167 -0.05075566
-0.086583845 -0.14734028 -0.2344285 0.2807475 -0.23723336 -0.2161811 0.027848579 -0.03762415
0.008303103 -0.052674204 -0.114861384 0.25897452 -0.18555808 -0.22314338 -0.27587304 0.22191848
-0.017366748 0.25000063 0.027519133 0.0009166119 0.15955794 0.1819728 0.2345131 -0.09600474
-0.2913427 0.11725783 -0.41990745 0.26677236 -0.3642695 0.31728363 0.4522727 0.2595644
-0.27887964 -0.19327106 -0.19858101 0.11847024 -0.27333325 -0.038418923 0.0061530885 0.23567498
-0.41734034 -0.106190465 -0.13696034 0.30867386 -0.17812233 0.31920987 0.2612137 -0.08102927
0.03974753 -0.2514281 -0.06595831 -0.37994486 -0.34010845 0.28852502 -0.27859166 -0.26870984
0.31377643 0.083142914 -0.14914653 -0.07626996 -0.1258906 -0.21171577 -0.16821077 -0.041915335
0.24388625 -0.17381078 -0.11388238 -0.06541805 0.28264427 -0.21200733 0.054541565 -0.16602999
-0.095228724 0.0045339963 0.0730546 0.08570845 0.17147455 0.015257022 0.029891895 0.27351707
-0.33636925 -0.070687816 -0.031717714 -0.11415045 -0.2136155 0.16020821 0.19716258 -0.026794778
0.26088172 0.277734 0.016794426 -0.28735086 -0.12069408 0.05177067 -0.2959446 0.2240795
0.16402537 -0.30377322 -0.2917565 -0.04829693 -0.29260322 -0.24878925 0.18783963 -0.023204338
-0.20213456 -0.1390227 -0.18563208 0.27690443 -0.25745097 -0.26472285 0.22391085 0.10602508

layers.0.bias f4 [64]
00000000: 634a 9abc 962b be3c b8ae 56bc ace5 26bb
00000010: f00a 0bbb 7d6f 0d3b 06f6 98bb ae48 49bc
00000020: 3909 4b3b 86a7 c1ba ee1a eb3a 7864 253a
00000030: 5570 83bc f9db cd3b cb82 cb3a 4382 85bc
00000040: 983e 653b 5124 1abb 54c7 7bbc 5725 39bc
00000050: 89eb 353b 06f1 6cbb 3c72 c63b 5f4d 223c
00000060: 1f3f b63c 5a81 99bb 6abc 6d3b 07f4 983b
00000070: 94ee 0fbc dd42 473b ae2d 3e3c a35c 76b8
00000080: 6a0b dbbb 5fd3 59bb 79df 503d f6f1 513c
00000090: ad39 2dbc 366c 473b 89ff 84bb 598e 55bc
000000a0: 255e 1dbc 612c dc38 5e74 91bb ea89 8b3b
000000b0: 69a3 423c f614 84bc 06df ccbb ad5f 99bb
000000c0: bc97 423c 161b eaba c80f efbc 5d29 853b
000000d0: 362a 2339 48fb 923c 7b67 7c3b 4e03 7dbb
000000e0: fbfe 0bbc b9e8 9a3c eb37 f7bb 692f cbbb
000000f0: 6962 d5bb 8552 4b3b 8d95 8fbb 19b4 353a
-0.018834298 0.023214143 -0.01310318 -0.0025466485 -0.0021216236 0.0021581345 -0.004668 -0.012285395
0.003098084 -0.0014774657 0.0017937103 0.00063092215 -0.016044775 0.0062823263 0.001552665 -0.016297465
0.0034979936 -0.0023520181 -0.015367348 -0.011300406 0.0027758798 -0.0036154403 0.0060560983 0.009906142
0.022246895 -0.0046846094 0.0036275634 0.004667762 -0.008784909 0.0030404844 0.011607571 -5.8737245e-05
-0.0066847103 -0.003323756 0.05099437 0.012814036 -0.010572833 0.003042949 -0.0040587825 -0.013034427
-0.009604965 0.00010498684 -0.004438921 0.004258384 0.01187978 -0.016123276 -0.0062521724 -0.004680595
0.011876997 -0.0017860855 -0.02918233 0.004063769 0.00015560616 0.017942086 0.0038513828 -0.0038606706
-0.008544679 0.018909799 -0.0075445077 -0.00620072 -0.0065119755 0.0031024527 -0.0043818415 0.00069314387

layers.2.weight f4 [64, 64]
00000000: 9504 16bb 1c62 74bc 2c42 ecbd b23c 72bd
00000010: 72d8 f83d 7792 cd3d 2dcc 0f3e 9354 213e
00000020: 1f99 5d3e f639 48be 31eb 3b3d e15f 3cbe
00000030: 5b75 45be 35df c53c 787c b93c 35f9 debd
00000040: c377 163e 32f4 533e 2507 a93d 3044 4e3c
00000050: 9542 af3d a5de 4b3c 57f6 fdbd 2af3 c6bb
00000060: c82a 9b3d 004a 0cbe ef33 083e 9f4e b93b
00000070: d3ba 67be 5336 24be 619e 393e 0b48 403d
00000080: fb8d 89bd c6b7 4b3e caa3 563e 0f7f 0fbe
00000090: c364 27be d7f3 403e aa94 70be 7fb1 f03b
000000a0: 6150 69be 4974 52bd 8143 24be c6f0 13bd
000000b0: de72 813d 0e84 cfbd 5582 61be 6d89 e93d
000000c0: 4479 23be 1a40 f03d ff38 ebbd 5604 fc3b
000000d0: e7c8 6dbe b0d8 ebbd 8735 6abd ed9e 123e
000000e0: 708b 153e 7297 5f3e 4e9e 47be cee0 b63d
000000f0: 9cc9 dabd ad4b 113e 765c f93d 9fd4 ef3c
00000100: 878c 213e 27e7 d23c 3e3e 3fbe 5cc8 1c3e
00000110: 259c 483e 3dc0 86bd 7a4f a8bd 1c63 ec3b
00000120: 47a8 79bc 8604 35bd 42b4 3e3e 7cf7 813d
00000130: 1f0e 1abe 06a6 36be d3dc 18be 0307 38bd
00000140: 42aa 5a3e 6c18 d33d 0844 323e 60b0 2e3e
00000150: dcf9 cfbd 7888 4c3d fc69 d1bc c3f7 d9bc
00000160: 8265 ea3d 7368 38bb 46b7 25be e167 263e
00000170: 9727 0fbe 154a e03c 3176 7a3d c54a 1f3e
00000180: 5ca0 133e 1806 51be 4d1a 403e ded7 2f3d
00000190: 388c 28bd ece9 3abe 994e 263d f2f3 47bd
000001a0: d13c f9bc 2880 edbd 0eeb e33d 3f87 583e
000001b0: f78b 57be 58a2 70bb 2230 033e 0552 79bd
000001c0: 7e36 fdbd 559d e63d 0c51 4abe e968 6abd
000001d0: a00b 813d 639f 32be ba39 48be b078 3f3d
000001e0: f991 9e3c 53a6 953d 40db 4d3e 519d 123e
000001f0: dd45 513a 5905 913c 8b9f 9abd c13d de3c
00000200: 6bbc 6abe d54f 15be abd9 643d eefa 1d3e
00000210: c26f 90bd aec9 2dbe b3a7 683b 1dd8 42bd
00000220: 69d9 e0bd c3db 12be 46f6 8a3e 78f9 6ebe
00000230: bba9 983d a119 57be 6f2a 78bd 5279 dfbd
00000240: 9f86 bebd 41ea 34be 788e 423d c874 8b3c
00000250: 693c 74be 334e c9bd bf3a 23be 544b 993d
00000260: d41c a23c db9b 643d c7ed 9fbd bb2c 133d
00000270: 7f46 4ebe 657e 313e 5f95 bebd 93ea 34be
00000280: f93a b73d 73c1 28be 9a96 19be 36fd d43d
00000290: 82a7 073e 5fee 1b3e 10de 133e a643 9ebd
000002a0: 46f8 933e f5dc 5e3e 93bc 26be d03f 9cbd
000002b0: f785 973e c6e7 f1bd 57fd 033e 9f18 17be
000002c0: 7502 3e3e 8247 45be 62ed 9abe 7910 6bbd
000002d0: 2616 3fbe f8bc 243d 357d c13d ce52 133d
000002e0: 8f49 91bd b18a 35be 48a0 fcbd d8c5 88be
000002f0: cbfc 55be e14c fa3d 82e3 1e3d 89aa 3fbe
00000300: 5ed4 a0bc cf50 20be 7640 aa3c 64fa 703e
00000310: dc11 f4bc 5215 ecbd b1a1 a23c 0a73 00bb
00000320: ea86 9abe 6b50 d7bd 4e36 563e 19ce 13be
00000330: 895c d0bd 92e5 9cbc 81e2 c7bd 0bfa b73d
00000340: 8e16 353c 70a0 6b3d 846f 4a3d 3da1 5abc
00000350: 19af c83a 86dd 0cbe 99c4 223d 686a db3d
00000360: debb 383d 4632 503e d971 15bd 5c09 55be
00000370: 116c a2bd 5c7e 19bc 850a 59be 30e5 893d
00000380: 62b9 09be 53e7 063e e7ad 1d3e 9432 0a3d
00000390: 5a36 1b3e d6d4 19be 4e57 94bd 71b8 58be
000003a0: 4ff0 fd3a f963 c93d 6731 223e c7ec 1ebe
000003b0: b88a 91bd d40a 09be d257 4a3e 588d 3dbe
000003c0: ffcc a63d 43a5 e2bd 1510 80bc 10b3 41be
000003d0: 54f0 d23c a95a 893d 1eac 613e 4f1c 41be
000003e0: d893 88bd b96b 2b3e b461 ce3d 401a 60be
000003f0: 2c66 45be 610e c6bc c77e 0abe 3861 2bbd
-0.0022890915 -0.014915969 -0.11536059 -0.059139915 0.12150659 0.100377016 0.1404273 0.15754919
0.21640442 -0.1955336 0.045878593 -0.1839595 -0.19283049 0.024154285 0.02264236 -0.10887376
0.14694123 0.20698622 0.08253316 0.012589499 0.085576214 0.012443219 -0.12400501 -0.006071468
0.07576519 -0.13700104 0.13301061 0.0056551243 -0.22629862 -0.16036348 0.18126823 0.046943706
-0.06716534 0.19894323 0.20960918 -0.14013313 -0.16347031 0.18843018 -0.23494211 0.007345378
-0.22784568 -0.05138043 -0.16041376 -0.03611829 0.06320737 -0.10132609 -0.22022374 0.11403165
-0.15964228 0.117309764 -0.114854805 0.0076909466 -0.2322117 -0.11515939 -0.057179954 0.14318438
0.14603972 0.21835116 -0.19493982 0.08929597 -0.10682985 0.14189024 0.12175839 0.02927619
0.15776263 0.025744988 -0.18676087 0.15310806 0.19590814 -0.06579635 -0.08218284 0.007213963
-0.015237874 -0.044193767 0.1862345 0.06346032 -0.1504445 -0.1783677 -0.14927988 -0.044928562
0.2135401 0.103073925 0.17408764 0.17059469 -0.10155079 0.049934834 -0.025563233 -0.0266074
0.11445142 -0.0028138428 -0.16183195 0.16250564 -0.13979946 0.027379075 0.061147872 0.15555866
0.14416641 -0.20412481 0.18760033 0.042930476 -0.041149348 -0.18253297 0.0406023 -0.04881663
-0.030424507 -0.115967095 0.111288175 0.21145342 -0.21049486 -0.0036717858 0.1281133 -0.060869236
-0.12363909 0.112604775 -0.1975748 -0.057228956 0.063010454 -0.17443614 -0.19553271 0.046745956
0.019356715 0.073071145 0.20103168 0.14317824 0.0007983128 0.017702745 -0.07549962 0.027129056
-0.22923438 -0.14581235 0.055871647 0.15427753 -0.07052566 -0.16971466 0.0035500347 -0.047569383
-0.10978968 -0.14341645 0.27141017 -0.23337352 0.074542485 -0.2100587 -0.060587343 -0.10911812
-0.09303021 -0.17667486 0.04749915 0.01702346 -0.2385117 -0.098293684 -0.15940379 0.07485071
0.019789137 0.055812698 -0.07809024 0.03593133 -0.2014408 0.17333372 -0.09305834 -0.17667608
0.08946795 -0.16480045 -0.14998856 0.10399859 0.13247493 0.1522765 0.14440179 -0.07727747
0.28900355 0.21763976 -0.16282873 -0.07629359 0.29594395 -0.118117854 0.1288961 -0.14755486
0.18555625 -0.1926556 -0.30259234 -0.057388756 -0.18660793 0.040219277 0.094477095 0.03596764
-0.07094108 -0.17728688 -0.12335259 -0.26713443 -0.20897214 0.12221695 0.038791187 -0.18717398
-0.019632515 -0.15655826 0.02078269 0.23533016 -0.029793672 -0.11527504 0.019852491 -0.0019599819
-0.30181056 -0.105133854 0.20919153 -0.14434089 -0.101739 -0.019152436 -0.09759999 0.08983239
0.011052741 0.057526052 0.049422756 -0.013344106 0.0015310972 -0.1375638 0.03973827 0.10713655
0.04510104 0.20331678 -0.036485527 -0.20804352 -0.07930768 -0.009368505 -0.21195419 0.06733167
-0.13449624 0.1317418 0.1539837 0.03373964 0.15157452 -0.15022597 -0.072432145 -0.21164109
0.0019373986 0.098335214 0.15839158 -0.15520011 -0.071065366 -0.13383037 0.19760063 -0.1851095
0.08144569 -0.110666774 -0.015632669 -0.18915963 0.025749363 0.06706745 0.22038314 -0.18858455
-0.06668824 0.16740312 0.10077229 -0.21885014 -0.19277257 -0.024176778 -0.13524924 -0.041840762

layers.2.bias f4 [64]
00000000: 3caa 103c 9a9b b2ba ef25 0d3d bd91 613b
00000010: f934 8f3a c550 b83b 7333 833a db69 c5ba
00000020: 04f3 50ba 8b1e 9fbb ff83 28b9 4978 493b
00000030: 9c2b a7ba e6c5 17bb 5e41 99ba e8e8 0fbc
00000040: 7c27 3e3a 4147 91ba 9b43 00bd 19d5 10bb
00000050: 42f8 0c3c 1143 913b 4cc5 79bc 51db 893a
00000060: c6a0 bfba bd21 303b 8625 243c 34a4 123b
00000070: 9123 da3b f362 51b9 526c 8c3b 914b e6bb
00000080: f83c 4e3c e856 7c3b d1e5 23bc 5e14 92bd
00000090: a094 abbb 3ac0 30bb 3159 9f3a 155e f83b
000000a0: bec7 9537 b9c9 bf3b ad71 3a3c 4d26 ee3b
000000b0: a5f3 f439 19a6 2fbd 73c6 433c a330 04bc
000000c0: edc6 9abc 05bb fe3a f5ef cabb feb6 63bb
000000d0: 4b20 13bb f468 043a 2c5c f6b9 ad0d 08bb
000000e0: 63a3 c5bb 2540 d83b e51e 98bb 8e50 a8bb
000000f0: b10d 903a 0109 133c bc35 c3ba 959f a5bd
0.00882965 -0.0013626695 0.034460004 0.0034419142 0.0010925821 0.005624863 0.001000984 -0.0015061455
-0.00079707825 -0.004855936 -0.00016070901 0.0030741862 -0.0012754085 -0.0023158728 -0.0011692455 -0.0087835565
0.00072538084 -0.0011083857 -0.031314474 -0.0022099672 0.008604111 0.0044330438 -0.015244793 0.0010517632
-0.0014620058 0.0026875578 0.010018712 0.0022375705 0.006657072 -0.00019968655 0.0042853737 -0.007028051
0.012587778 0.0038503949 -0.010003523 -0.07132791 -0.0052362233 -0.0026970045 0.0012157318 0.007579575
1.7855196e-05 0.0058529046 0.0113796415 0.0072677494 0.00046720836 -0.042883012 0.011949169 -0.0080682365
-0.018893683 0.0019434398 -0.006193156 -0.0034746523 -0.0022449668 0.00050510396 -0.0004698945 -0.0020760105
-0.00603144 0.0065994435 -0.004642355 -0.005136556 0.0010990408 0.008974315 -0.0014893333 -0.080870785

layers.4.weight f4 [64, 64]
00000000: f907 dcbd 9365 e03d 3a38 32be cdb2 1cbe
00000010: c68d 233e e6aa 25be b665 1fbe 023a cfbd
00000020: 6129 51bc 527d 3e3e 65b3 183e 95ae 3a3d
00000030: 8f98 5abe df05 483e a289 a6bd 0a62 1f3e
00000040: 59bd 01be 6596 d0bd 6c11 ffbd f4e4 9bbc
00000050: 6d9b 943b ca2b 593e 87ee 83bd 2304 453e
00000060: 4f16 26be 7458 2fbe 4a60 97bc 55db 1dbe
00000070: c95c 333e 9922 1cbd 1b5b 06be 9a02 9abd
00000080: 00ac 0c3e 5328 c13d 2d9e 973d 29f2 2a3e
00000090: 2469 6dbd 7064 143e 8d45 c9bb 5764 9a3d
000000a0: e5e9 5fbd 42ac 27bb b65f 52bd 24f8 4ebe
000000b0: b1cd 11bc a52b 26be 219e 88bd d23c 4bbd
000000c0: 52d4 3ebe efd3 5bbe e0f5 513e c827 80bd
000000d0: a712 35be 20c8 acbd 51aa bfbd 2386 51be
000000e0: fa0f 813d 7203 04be 9758 34be 4dc2 533e
000000f0: 5c56 48be e5c5 0bbc 779f 123e f819 15be
00000100: e7d2 14be 9354 2c3c 8bf5 003e 1941 a33d
00000110: 73b0 563e c1a6 7c3c 0054 49be 348e 11be
00000120: c0fb e5bd 9637 52be 493a 563e ecb9 1cbe
00000130: 62de d8bd a8e4 663e 810c 123e 1a20 d1bc
00000140: bc39 fbbd d345 b93d bfea ac3d 11d3 943d
00000150: ce55 65bd a899 cc3c bbed 47bc 4122 d4bd
00000160: e38e 133e 0eda c2bb d39b 403e 7e8a 593e
00000170: 1f39 ffbd f499 d93d 885d 573e 3338 ca3c
00000180: 1515 20be bacf 513e f15f 37be c468 913e
00000190: 7548 27bd 6785 0bbe 2bd2 b93c 70af 23bd
000001a0: 88e9 0fbe 9dcb 1cbc d158 18be f051 76be
000001b0: 8e3d 76be 8576 a03c 2834 10be 31cd 59bd
000001c0: 8036 813e 8079 033d d894 063e 383b bc3d
000001d0: 01ad 24bd 30da a83c 8fa8 5fbe ac9e 48be
000001e0: 2125 64bd 40f6 45be 9276 d1bd 39bb 523e
000001f0: 9e0f 39be 28f3 98bd 9347 b1bc d84d 6b3b
00000200: dc2a f6bd 0aec 00bd 78d8 8f3d a5d2 063e
00000210: ab26 cfbd a44b 2ebe c513 cd3c 6a8b 9e3d
00000220: 1d4b 03bb 93f6 fcbc 97e3 e93c ab3d 8ebd
00000230: 5f3b 6e3d e248 33be a2d1 773a d219 113e
00000240: 7617 4c3c b4b4 cf3d 5b4e 0c3d 32b7 323e
00000250: c12f a03a 09cb fd3d ec69 edbd 49e3 3d3d
00000260: a1aa 993d 2a6c 253d 4af5 50be 259f 2b3e
00000270: b2eb 203e e0c8 983d 6e4c ecbd 7715 a1bd
00000280: cba4 32be 0b19 00bd ff27 ad3d f7d9 ce3c
00000290: 1b98 563e 1057 06be 749d 36be 069e 19bd
000002a0: 30fc 9b3d a634 98bd 7271 b3bd 55a1 6c3e
000002b0: 3a80 ae3b 139c 043e b880 3dbd 23f8 edbd
000002c0: db25 68bd 9dfa 55bd 2c60 69bd 23ba 65bd
000002d0: c7f0 223e 5e2d 373e 9440 dcbd 891f a3bd
000002e0: 42e2 10be 07ba f4bd 4df6 e4bd 1f1a cf3b
000002f0: c3e0 04be b1db 353e a453 323d 0a92 5abe
00000300: b43d 3dbd 1b2f 43be 825c e6bc 91cf 3cbc
00000310: 7155 e7bd 9fda 41bb 41bb 14be 8fed 393e
00000320: 9bdc 493d 6c4d b13d 03e9 11be 5300 6ebd
00000330: 3f5e 243e 854b 593e 89f0 3e3e b6c8 0dbe
00000340: fd17 263e 5f15 3d3d 74b0 4d3e 761b 51bc
00000350: f590 b3bd 835c dcbd 09a9 1abe 32b3 2fbe
00000360: 8dd6 2bbe c26b 573e 2ae1 083e a2b6 153e
00000370: dcb6 b83d 596c 533e 3622 453e c029 ee3d
00000380: 0412 f03d 0d7d 24be a487 0a3c 42dd 4e3d
00000390: e8ae 893d 64b5 a13d 58ba eb3d af3b c6bd
000003a0: 5f07 823d 672a 8b3d 0659 d6bc a934 bbbd
000003b0: 1577 08be 053d 383e 1127 25be dda6 443e
000003c0: 9496 e03d 800c 11be 0b59 4fbe bb7c 0dbe
000003d0: 973f 993d 6ce7 3dbd 6f7f 66bc 7f77 113e
000003e0: b304 363e 1d4e 40be d952 303e a72d 0e3e
000003f0: ae69 cebd 8022 0d3e 9472 0abe 3511 91bc
-0.10743708 0.10956874 -0.17404261 -0.15302582 0.15972051 -0.16178474 -0.15566143 -0.10118486
-0.012766213 0.18602493 0.14912184 0.04557665 -0.21347259 0.1953349 -0.0813172 0.15564743
-0.12669887 -0.101849355 -0.12454495 -0.019030072 0.0045351298 0.2120811 -0.0644198 0.1923986
-0.16219448 -0.17123586 -0.018478531 -0.154157 0.17515863 -0.038118932 -0.13120691 -0.075200275
0.13737488 0.09431519 0.074032165 0.1669394 -0.057961598 0.14491439 -0.0061423243 0.075386696
-0.05466642 -0.0025584851 -0.05136081 -0.20211846 -0.008899138 -0.16227587 -0.06670786 -0.04961855
-0.18635681 -0.21467565 0.2050395 -0.06257588 -0.17682897 -0.08436608 -0.09358657 -0.20461325
0.063018754 -0.1289194 -0.1761192 0.20679589 -0.19564193 -0.008531068 0.14318644 -0.14560688
-0.14533578 0.010518211 0.12593667 0.07971401 0.20965748 0.015420617 -0.1966095 -0.14214402
-0.11229658 -0.20529017 0.20920672 -0.15305299 -0.10589291 0.22548163 0.14262582 -0.025528003
-0.12266871 0.09046521 0.08443212 0.0726682 -0.055990033 0.024975613 -0.012202675 -0.10358096
0.14409976 -0.0059464043 0.18809442 0.21244237 -0.12462067 0.10625067 0.21031773 0.024685001
-0.15633042 0.20489398 -0.17907692 0.28400242 -0.040840585 -0.13625108 0.022683224 -0.039962232
-0.14053929 -0.00957003 -0.14877631 -0.24054694 -0.24046919 0.019587765 -0.14082396 -0.0531742
0.25236893 0.032098293 0.13142717 0.091909826 -0.040204052 0.020611852 -0.21841644 -0.19591779
-0.05569947 -0.19332218 -0.102276936 0.20579232 -0.18072364 -0.074682534 -0.021640575 0.0035904553
-0.120198935 -0.031475104 0.0702371 0.13166292 -0.10114797 -0.17021042 0.02503384 0.07741435
-0.0020033785 -0.030879294 0.028550906 -0.06945356 0.05816209 -0.17508271 0.000945354 0.14170006
0.012456765 0.10141888 0.034254413 0.17452696 0.0012221263 0.123922415 -0.115924686 0.046359334
0.07503248 0.040386356 -0.2040607 0.16759928 0.1571491 0.07460189 -0.11538015 -0.07865422
-0.17445676 -0.031273883 0.08454894 0.025250418 0.20956461 -0.13119149 -0.17833501 -0.03750422
0.0761646 -0.07431917 -0.08761872 0.23108418 0.0053253444 0.12950163 -0.046265334 -0.11619594
-0.056676727 -0.052240957 -0.056976482 -0.056085717 0.15912162 0.178884 -0.10754505 -0.07964999
-0.1414881 -0.119495444 -0.11179791 0.0063202525 -0.12976365 0.17759587 0.043536797 -0.21344772
-0.046201423 -0.19060938 -0.028120283 -0.011524097 -0.112955935 -0.0029579771 -0.14524557 0.18157028
0.04928265 0.08657345 -0.14249043 -0.058105778 0.16051577 0.21220215 0.18646444 -0.13846096
0.16220088 0.04616296 0.20086843 -0.012762895 -0.08767883 -0.10759833 -0.15103544 -0.17158201
-0.16781063 0.210372 0.13367143 0.1462045 0.09019253 0.206468 0.19251332 0.11629057
0.11722186 -0.16063328 0.008455191 0.050503977 0.06722814 0.07895926 0.115101516 -0.096793525
0.06349062 0.06795197 -0.026165497 -0.091409035 -0.13326676 0.17992027 -0.16128184 0.19204278
0.109662205 -0.14164925 -0.20248811 -0.13817112 0.07482832 -0.04636328 -0.0140684685 0.1420574
0.1777523 -0.18779798 0.17219104 0.13884602 -0.100787506 0.13782692 -0.1352027 -0.0177084

layers.4.bias f4 [64]
00000000: e895 dbba 6b3f 67bc 021d d6ba d653 e8bb
00000010: 33d5 39bb 54f8 80bd 0e2e 453c 3e1e a1ba
00000020: 1ec7 5a3b df57 d13b d2e2 f1ba f086 28ba
00000030: b831 cfba 958c 473b 23dc 273c 8a3b 6bba
00000040: 15c1 a83a f85a e9ba 6146 acbb 4973 783b
00000050: 8fff a43a d0a6 3c3b e146 c8bb 0274 fdbd
00000060: d19a 133d ebd5 8f3b cea6 903b cc12 dfbb
00000070: d80f b83b 3e47 303b d17f 22bb ab7c 5d3b
00000080: 16dc adbb 4dc4 523b 6c06 ad3a b26b 163b
00000090: f64e dabb de1a f839 3786 75b9 d983 f63a
000000a0: 212a 7b3b 890d 763b c832 11ba 116b 6abb
000000b0: 730d 14bc afcf 843b 41b4 88bb 0c55 f7bb
000000c0: c9fe aaba 1852 f0ba 2def 0b3c 40f8 daba
000000d0: 2571 5f39 1a6e c13c ee64 b53a 2827 1b3d
000000e0: 0384 a3b9 135f 623b a6f1 77bb 8bc6 f0ba
000000f0: f00e 603b a980 e4ba 19d2 09bc 3141 bfbb
-0.001675305 -0.014114241 -0.0016335549 -0.007090072 -0.0028355836 -0.06297365 0.012034906 -0.0012292338
0.0033382843 0.006388649 -0.0018454439 -0.00064287987 -0.0015807664 0.0030448784 0.010245356 -0.00089734106
0.0012874926 -0.00178036 -0.0052574133 0.0037910512 0.001258837 0.0028785951 -0.006111965 -0.12375642
0.036036316 0.0043895147 0.004414416 -0.0068076607 0.005617123 0.0026897932 -0.0024795423 0.0033796232
-0.0053057773 0.0032160461 0.0013200766 0.0022952375 -0.006662245 0.00047322264 -0.0002341502 0.0018807604
0.0038324671 0.0037544689 -0.0005538878 -0.0035769383 -0.00903641 0.004053078 -0.0041718786 -0.00754798
-0.0013045903 -0.0018335013 0.008540911 -0.0016706064 0.00021309087 0.02361207 0.0013839283 0.03787914
-0.0003118814 0.0034541532 -0.0037833243 -0.0018369717 0.003418859 -0.0017433363 -0.008411908 -0.005836629

layers.6.weight f4 [64, 64]
00000000: a3a8 cd3c 932b 44bd 47ca e93d fd70 24be
00000010: fef2 d2bd df59 76bc 50d3 43be f30e 0ebd
00000020: f090 57be ff96 00be 7ff3 053e 5272 2cbe
00000030: 609e 793d 8bf2 6b3c 01bc e5bd 5809 9b3d
00000040: 035b 5c3e e214 d93b 2120 29be 26ad f03b
00000050: 0af6 0c3e f77b 503d 638a 263e c1cf bfbd
00000060: 1b71 e8bc 5a7a 58be fef0 4dbe 1f91 e03d
00000070: 7973 1f3d 2913 a4bd 3d05 f2bd 7b9a 233d
00000080: 3e08 5dbe 1e41 49be c74d 393c 3f3b c13d
00000090: c28e f43d 6243 bfbd feb6 163e a1cf a03d
000000a0: f683 213e 4ba0 b8bd ee58 b43a cfb8 52bd
000000b0: 4e16 c0bd a42b 293e 668b cabd 3c5c ce3c
000000c0: 2e20 bbb9 c03e 4ebe b1a8 0fbe 5c8d 4ebe
000000d0: fd20 17be 0ce1 02be dbae 213d 52b7 87bc
000000e0: afa2 4cbd 5fc7 e13d 7ed9 22be eda1 023e
000000f0: 3114 ca3d 67a3 a7bd 5e19 1c3e 001a 203d
00000100: c3fb 1a3e 7f43 36be b1a5 fcbd 0bbe 8abd
00000110: ef7c bb3d 91fa cb3d ee9e 273e 9d3b 3bbe
00000120: f18e 6ebe df9e 53be 8e2f 3fbd a72c f63d
00000130: e4bf 32be 7657 f03d c89b 2d3e 8b17 44bd
00000140: e7a1 333e 87c7 0c3e d10d 313d 1abb 2cbe
00000150: 6456 8bbd 4cbd 6e3e 7361 28be 4e2e 72bd
00000160: cac9 603c 1917 933d 73d7 85bd e150 013e
00000170: 673f 4ebd fce2 a1bc 8255 223d df53 0dbe
00000180: 3db6 69bc 9340 5bbd 0d4a 393e 4810 cc3c
00000190: 3b77 90bd a272 533c 1280 bc3d 41d5 60bd
000001a0: b183 39be fa6b 463d 8277 6bbd 54d4 e93b
000001b0: 843f ecbd d0e2 d7bd 8d89 47be 5a41 e1bd
000001c0: 862d 4c3e 6cd6 263e 3b1c a9bc 9b8d 5f3b
000001d0: 3734 3ebe 6dad 29be 6fa4 5cbd 2e39 3a3e
000001e0: d2dd 073e ed56 ce3d 6c81 30be d51c 613e
000001f0: 0ada 4a3b 097e 153c 2b7c 25be f9c5 283e
00000200: 24a6 25be 5b22 5e3e 56f5 20bd 5c3f 28be
00000210: 19e4 1a3e c831 c6bd 5c3e 073e 6936 da3d
00000220: 2602 123e 078b 67bd f046 bf3d f096 89bd
00000230: 4ab8 093e edac 213d bb51 c83d 9c14 e63d
00000240: 1080 613d f2a5 353e 7ca4 3abe 0bbc 583e
00000250: 86dd 41be da34 413e d9f9 5abe 7e08 3e3e
00000260: 1579 443d fb7f edbd 0e6a fd3c c6df 12be
00000270: 76ea 33be c92b 1b3e 93fa 2c3c 39bd 9c3c
00000280: c333 2d3e 5099 f93c 4796 52be 1dd2 53be
00000290: c142 b93d 944e ca3d 3067 2ebe ead5 8d3d
000002a0: e024 eabd f862 463e 6ba7 863d 076d 95bd
000002b0: c435 abbc c4ef 20be ef06 4bbc 22ef 52be
000002c0: ea35 3a3d 063a 533e 7e0d cd3d b8fd 0f3e
000002d0: ad98 1b3e 6b29 8bbd 5697 213d a66e 26be
000002e0: f8b2 3e3e 6ea0 533e a208 2b3e f17f 0d3d
000002f0: 1920 303e 123b 303e 0f54 9abc 0da4 56be
00000300: 2b43 38be 6e93 7fbd ef21 1cbe b75c 92bd
00000310: 41d6 183e 06d6 ce3c 5bd3 a83d 3007 d03d
00000320: d916 d9bd 8a66 a63d 8afe 8a3c 3aeb 22bd
00000330: 588e e43b 4063 abbd 3e15 1dbe 132b 94bc
00000340: eb23 44be f0e6 f53c 9a86 c7bd 7e25 fe3b
00000350: 4bf3 4fbd 791a 43be ac33 c4bd d24e 053d
00000360: 5bac 953d 2734 2ebe 1f27 bc3d e6e3 653e
00000370: 1d20 7e3c 9db5 48bd f22c 54bd 4679 313e
00000380: 246a 10be 0884 243e 2213 12be 1e6e df3d
00000390: 5b29 e83d 3987 4b3d ade7 00be 77dd f9bd
000003a0: adb1 36be dea1 e0bd 1fd7 d23d 6c62 47bd
000003b0: 76ed 3dbe 2b61 0d3e 1b21 61be 08c7 a13c
000003c0: d925 3b3e 3231 89bd 93a5 adbd e247 53bd
000003d0: 3346 22be 5717 aebd c1d3 71bd e200 ad3d
000003e0: 019c 9f3c b16f d0bd 7faa c93d c86f 60be
000003f0: 6ad9 c43d df02 16ba 496f d03d 3940 74bd
0.025104826 -0.047893118 0.114155345 -0.16058727 -0.10300253 -0.015036075 -0.19123578 -0.034682225
-0.21051383 -0.125576 0.13081168 -0.16840485 0.060942054 0.0144010885 -0.112174995 0.075701416
0.21519093 0.006624804 -0.16516162 0.0073448597 0.13765731 0.050899472 0.16263728 -0.09365798
-0.028374245 -0.21140423 -0.20111462 0.1096518 0.038928483 -0.08011467 -0.118174054 0.039942246
-0.21585175 -0.19653746 0.0113100475 0.094351284 0.119412914 -0.09339024 0.14718243 0.07852102
0.15772995 -0.090149485 0.0013759413 -0.05144578 -0.09379254 0.16520554 -0.098898694 0.025190465
-0.00035691395 -0.20141125 -0.14029194 -0.20171112 -0.14758678 -0.12781161 0.039473396 -0.016566906
-0.049959835 0.11024355 -0.15903279 0.12757082 0.098671325 -0.081854634 0.15244052 0.039087296
0.15135102 -0.17799185 -0.12336291 -0.06774529 0.091546886 0.09959901 0.1636922 -0.1828446
-0.23296715 -0.20666073 -0.04667621 0.120202355 -0.17456013 0.11735432 0.16953957 -0.047874015
0.1754223 0.13747989 0.043226067 -0.16868249 -0.06803587 0.23314399 -0.16443424 -0.05912619
0.013719985 0.0718214 -0.06535234 0.12628509 -0.050353434 -0.019761555 0.039632328 -0.13801526
-0.01426464 -0.05352838 0.18094654 0.024910107 -0.070539914 0.012905749 0.09204115 -0.054890875
-0.18116643 0.04844282 -0.05748702 0.007135907 -0.11535552 -0.10541308 -0.19486065 -0.10998793
0.19939241 0.16292733 -0.020643344 0.0034111503 -0.18574606 -0.16570063 -0.053867754 0.18185875
0.13268211 0.100751735 -0.1723687 0.21983655 0.0030952715 0.009124287 -0.16160648 0.1648177
-0.16176659 0.21692793 -0.03929647 -0.1643042 0.15126075 -0.09677464 0.13207382 0.10654909
0.14258632 -0.05652907 0.09339702 -0.06718242 0.13449207 0.039471556 0.09781214 0.112344
0.05505377 0.17739084 -0.18226808 0.21165483 -0.1893216 0.18867818 -0.21384372 0.18557927
0.047967035 -0.11596676 0.03093436 -0.14343175 -0.17569908 0.15153421 0.010557788 0.019133197
0.16914277 0.030468613 -0.20565139 -0.2068562 0.090459354 0.09878269 -0.1703155 0.069255665
-0.114328146 0.19373691 0.06574901 -0.07296186 -0.02089966 -0.15716463 -0.01239179 -0.20599034
0.045461573 0.20627603 0.10012339 0.1406163 0.1519496 -0.06795009 0.039450966 -0.16253147
0.18622959 0.20666668 0.16702512 0.034545843 0.17199744 0.17210034 -0.01883891 -0.20961018
-0.17994373 -0.06239646 -0.1524732 -0.0714659 0.14925481 0.025248539 0.08243438 0.10157621
-0.10600061 0.081250265 0.016967077 -0.03977511 0.0069749765 -0.0836854 -0.15340135 -0.018086946
-0.19154327 0.030017346 -0.0974247 0.0077559343 -0.05076913 -0.19053067 -0.09580168 0.032545872
0.07308265 -0.17012082 0.09187149 0.22450218 0.015510586 -0.049001325 -0.051800676 0.17331418
-0.1410299 0.16065991 -0.14265111 0.10909675 0.11336013 0.049689505 -0.12588377 -0.12200444
-0.17841215 -0.10968374 0.10294937 -0.048677847 -0.18547615 0.13806598 -0.21985285 0.019748226
0.18276156 -0.066988364 -0.084788464 -0.051582225 -0.15847091 -0.085005455 -0.059039835 0.08447434
0.019483568 -0.101775534 0.09846973 -0.21917641 0.09611781 -0.0005722474 0.10177476 -0.05963156

layers.6.bias f4 [64]
00000000: 52bd 06bb 41f3 a33c ad8a d7b9 8d16 15bc
00000010: ef6d be3a b6e4 2b3b ca83 30bc 462e 0c3c
00000020: 7d89 82bc 6eb4 14ba 25ee 6e3a 72a5 233a
00000030: 5437 cf38 adec 9c3a c48a 513a 28be 82bd
00000040: 9850 59ba 3b47 533b 51a5 8a3b 7805 f93b
00000050: 0a68 2c3b 464b 6dba c623 46bc be44 ceba
00000060: 36bd e139 0624 c83a ea63 0bbb 3cce 4ebb
00000070: 4d6b 37bd f438 1bbc 3b84 b1ba a4b4 53bb
00000080: aae4 ffb9 ee96 8b3b 7cbb 9a3a b242 17bb
00000090: bd1d 59bb 71fc 43bc f7d4 07bb 359f f83a
000000a0: 126f ba3b c485 21bb 66e6 0fbb d20d 453a
000000b0: 5f7a 633b ad61 2b3c 5b2b 32bb 7d9f bb3a
000000c0: fde8 4d3b 7608 a7ba 73a8 cb3b bfbc cbbc
000000d0: 5513 553a 1a62 633a 562b 9b3b 3c1f 88bc
000000e0: 3b6a 5f3b e3b9 8bbc 6fc8 b83b 2065 88bb
000000f0: 4df8 bc3b 2827 f5ba f0cf 0ebb 367a 453b
-0.002055962 0.020013453 -0.00041111317 -0.009099615 0.0014528612 0.0026228852 -0.010773608 0.008555954
-0.0159347 -0.0005672638 0.0009114466 0.000624261 9.880835e-05 0.001197239 0.0007993395 -0.06383926
-0.00082899025 0.0032238502 0.004231133 0.007599529 0.002630713 -0.0009052049 -0.01209349 -0.001573704
0.00043056317 0.0015269525 -0.002126927 -0.003155603 -0.044780064 -0.009474028 -0.0013543436 -0.0032303715
-0.00048807758 0.0042599356 0.0011805142 -0.0023080525 -0.0033129298 -0.011962042 -0.0020726302 0.0018968346
0.00568951 -0.002464638 -0.0021957397 0.0007517013 0.003471039 0.010460299 -0.0027186486 0.0014314499
0.003141939 -0.001274361 0.006215149 -0.024870275 0.0008128186 0.0008673981 0.0047353907 -0.016616456
0.0034090418 -0.017056411 0.005639128 -0.0041624457 0.0057669044 -0.0018703686 -0.002179142 0.0030132658

layers.8.weight f4 [64, 64]
00000000: 5a18 a2bc bb1f aa3b 1870 e83d 9d26 543d
00000010: 475f 1bbe 1d6f 0c3e 0060 6a3e aa72 03bd
00000020: 5ace 803d bfe8 43be 7fc3 c73c 966b 6e3d
00000030: e29f 473b 5b2d 3e3e 9fb4 1b3e dc16 903c
00000040: 1657 45be 702a 033d faa3 283e 9c39 9abd
00000050: 017d 703c c029 4cbe c6a8 003e e2f1 24be
00000060: 7636 c63d 18a5 0ebe 7882 bcbc 465e 233e
00000070: 836c 123d 5bc9 24be 554d 3abe dc7b 4abd
00000080: 9f9d 5b3d fc3f 3dbe 381b 903d 55e8 613e
00000090: 1737 58be da63 72bc 4a91 ebbd 0dcd 01bc
000000a0: e125 06be bcb1 85bd d225 523e c208 763a
000000b0: 4004 193d 0ca4 47be e166 60bd 81f6 a93d
000000c0: 203e a73d 57d4 943d 10b6 833c 7916 b73d
000000d0: a083 4dbe 398b 39bd fd49 f8bd 70e5 b83c
000000e0: ab29 bc3d e038 77bc e60d 4dbe a416 343d
000000f0: 80d5 31be 95a2 623b eec5 0a3d 2883 92bc
00000100: 264c 523e 63e6 53bd e7e2 3fbe 715f 13be
00000110: 92fb 1cbe 220c 823b 1af6 8cbd c0e1 543e
00000120: fde7 843d 5cac 563c 07fa 1dbe 2083 cf3d
00000130: dc6b 42be 1857 e6bd 574a 4c3c dd13 413e
00000140: dd88 333e eb34 92bd c8c8 31be 44f5 8a3b
00000150: ae49 e0bc bc17 3fbd d4ed 8ebd d85c edbc
00000160: 3891 e5bc c383 493b b9e7 203e 63a2 e9bd
00000170: 279c 033d 184b 6abd 1cff 233e 9774 4fbe
00000180: dfa6 583e 2e12 efbd 09e6 613e 802e 853d
00000190: 17bf 5a3e 48cf 133d d08b 3e3d 392b a83c
000001a0: 0101 21be a478 fdbd 3432 d43d 1ff1 103e
000001b0: 88c3 573e 213a 763d 2d91 013c a47a 3b3e
000001c0: 1d33 ed3c 41bb 263e 275a cabd a36c 5ebd
000001d0: 56db 1a3e 36c0 c4bd f84e fcbd 9ebb 92bd
000001e0: e852 8b3d 5c80 8bbb c3e3 0f3e f8bd 03bd
000001f0: 7a92 c93d ee3a 35be 71f4 cabb 502e 0fbe
00000200: bcef 493e 9e4e a8bd 782e 92bd c8ef 513e
00000210: d2a3 a83d 5167 16be 840f dbbd c6c8 463e
00000220: 1d33 923c 8ac6 33be 270f 823d f5f3 043e
00000230: 8096 c83d b63c 233e 6a81 7ebc 1b38 b1bd
00000240: d537 51be 52ab 21bd 7b16 133e 465d 443e
00000250: cd12 0abe b149 183e f182 c6bc 5070 0b3e
00000260: 7cca abbd 5db4 4fbe 459d 6fbd 671c 6c3d
00000270: d8a6 0bbd a7eb 613d 7163 813c 32f8 453e
00000280: 1626 933d f337 67bd f272 abbc ac7f 46be
00000290: 10db 33be 847e 42be 3b81 25be bbe5 153e
000002a0: 4265 91bd 7d39 bdbd 2799 f3bd fc5d 9f3d
000002b0: 115b a53a 792a 8c3d bc3f c63d e663 9a3c
000002c0: 0d77 47be c56e 463e a96b 433e 311c 143c
000002d0: b202 7f3d b264 82bd 0636 ddbd 0f4d b33d
000002e0: 4873 0a3d 68e3 fa3c 7639 353e 2d6b f0bd
000002f0: 70be 5c3d 487d 553d 4c13 243e 0b1f 52be
00000300: b5c8 7fbb 60ec 94bc 4429 babe 4064 4d3e
00000310: 2d74 6ebe 5b09 393e cdb6 803d 92db c5bd
00000320: 20ee 703d fcbe 2c3e 58a5 d43e 8c0d 603e
00000330: ce97 2fbe 2c5e 4fbe 2997 203d 4aa1 86be
00000340: 930b 5ebe 6050 15bd 41db a73e 9622 9e3e
00000350: 642f 653e bb12 8abe e9f3 023d 1ac3 e03d
00000360: b0dc c7bc 7d4a bf3d 4b47 d33d e003 2e3e
00000370: 8c43 34be 7b75 0f3e d089 063e 5a4d 2cbe
00000380: 7e88 5e3e 39d2 5c3e f39e c93e 935e 173d
00000390: cfd5 1d3b 4118 d53d e27f fabd 7ebd 913e
000003a0: 9ed6 ed3d 418a 9ebe 18eb 6cbe 2ba4 9e3e
000003b0: 61c3 a03e c643 7f3e b778 34be 239a 893e
000003c0: eb78 153e 8f8b f33d 8585 bc3c 36f5 583e
000003d0: 4dfd d93c f9f5 0fbe 7352 8bbd 660e ffbd
000003e0: 1818 823d 6886 b03d 9c3e b1bd aa20 89bd
000003f0: 0ee1 3a3e 7952 c2bd 95d8 a63e ca51 a5bd
-0.019787002 0.005191771 0.11349505 0.051794637 -0.15173064 0.13714261 0.22888184 -0.032091774
0.062893584 -0.19131754 0.024385212 0.05820807 0.0030460288 0.18571989 0.1520562 0.017589025
-0.19271502 0.032022893 0.16468802 -0.07530519 0.014678241 -0.19937801 0.12564382 -0.16107896
0.09678356 -0.13930166 -0.023011431 0.15953931 0.035748016 -0.16092436 -0.18193562 -0.049434528
0.053617116 -0.1848144 0.070364416 0.22061284 -0.21114765 -0.014794314 -0.11502321 -0.007922423
-0.13100387 -0.06528041 0.2052224 0.000938546 0.03735757 -0.19496173 -0.054785613 0.0829897
0.08166146 0.07267063 0.016078025 0.08939833 -0.20069742 -0.04529879 -0.12123487 0.022570342
0.09187635 -0.015089244 -0.20024833 0.043966904 -0.173666 0.003458177 0.033880167 -0.017884806
0.20536861 -0.051733386 -0.187389 -0.14391877 -0.15330341 0.0039687315 -0.06882878 0.20789242
0.06489561 0.013102617 -0.15427409 0.10132432 -0.18986458 -0.112470806 0.012468896 0.18855233
0.17532678 -0.071389996 -0.17361748 0.0042406637 -0.027378883 -0.046653494 -0.06978956 -0.028974935
-0.028023347 0.0030748702 0.15713395 -0.11407926 0.03213134 -0.05720052 0.16015285 -0.20259319
0.21157406 -0.116733894 0.22060408 0.0650301 0.21361957 0.03608635 0.046520054 0.020528423
-0.15723039 -0.12376526 0.10361138 0.1415448 0.21070683 0.06011403 0.007908148 0.18308502
0.028955037 0.16282369 -0.098804764 -0.054302823 0.15122733 -0.09606974 -0.123197496 -0.071646914
0.068029225 -0.004257245 0.14051728 -0.03216359 0.09842391 -0.17698261 -0.0061936905 -0.1398251
0.19720358 -0.0821812 -0.071377695 0.20501626 0.08234371 -0.1468785 -0.10696319 0.19412526
0.017846638 -0.17556205 0.06350546 0.12983687 0.097943306 0.15941128 -0.015533784 -0.086532794
-0.20431454 -0.039470024 0.14364044 0.19176206 -0.13483734 0.14871861 -0.02423236 0.13617063
-0.0838823 -0.20283647 -0.058499593 0.057644274 -0.03409466 0.055156376 0.015794488 0.1933296
0.07184999 -0.05644984 -0.020928834 -0.1938464 -0.17564034 -0.18993574 -0.16162579 0.14638416
-0.070993915 -0.09239481 -0.11894446 0.07781598 0.0012615641 0.068440385 0.09680125 0.018846463
-0.19479008 0.19378193 0.19084038 0.0090399245 0.06225843 -0.06366862 -0.1080132 0.08754932
0.033801347 0.030626014 0.17697701 -0.11739192 0.053892553 0.05212143 0.16022986 -0.20519654
-0.0039029543 -0.018179119 -0.36359608 0.20057774 -0.23286505 0.18069975 0.062848665 -0.0966102
0.058820844 0.1686973 0.41532397 0.21880168 -0.17147753 -0.20250767 0.039206658 -0.2629493
-0.21684103 -0.036453605 0.32784465 0.30885762 0.2238136 -0.26967415 0.031970892 0.10974713
-0.024397224 0.093403794 0.103163324 0.16993666 -0.17603892 0.14009659 0.13138509 -0.16826382
0.21731755 0.21564569 0.3937908 0.036955427 0.0024083739 0.10405017 -0.12231423 0.28464884
0.116132006 -0.30964854 -0.23136556 0.30984625 0.31399062 0.24928197 -0.17624174 0.2687541
0.14596908 0.11891853 0.023012886 0.2118729 0.026610041 -0.14058675 -0.06802835 -0.12453918
0.06352252 0.08619386 -0.0865452 -0.06695683 0.18249914 -0.09488387 0.32587114 -0.08072241

layers.8.bias f4 [64]
00000000: 5aae 58bb 5c0f 7d3a 166f 503b 2206 8dbc
00000010: e748 7c3b 4a94 c63a f53f 2dbb 91ba 483c
00000020: c6dc 31bb 65a9 e7ba 4a83 b93b 13e9 42bb
00000030: d366 05bb b41f 12bb 5c84 f2ba 1363 d8ba
00000040: 31f0 173a 2937 95ba 5721 503b 052d 07bd
00000050: 2a85 edba 461a 923b 2ead 7cb9 485d 493b
00000060: d8ad e8ba f037 313b bfa4 d4ba e341 a83b
00000070: 364f 3abc ada8 e73a 7585 183c 4ace e03b
00000080: 2f6e ff3a f291 bd3b 3879 64bb 31a4 c8bb
00000090: 4757 8dba 0ff1 013b 360c 243b efee 033b
000000a0: 19bb 3d3b ec03 393b b81a ecba e0b6 023a
000000b0: 463f ad3b c784 703b b5f7 c83a ffa5 a1bb
000000c0: 6e40 40b9 3d71 25bb ed55 43ba 4b61 2e3b
000000d0: ce6f b33a 8388 adba b923 48bb 7cbe 02bd
000000e0: 6302 28bc 87fb 043c 0f11 faba 7f12 d53b
000000f0: c488 76bb c096 9fbb 290b f13a 3f74 11bb
-0.0033062906 0.0009653473 0.0031804494 -0.017214838 0.0038495602 0.0015150395 -0.0026435826 0.012251512
-0.0027139648 -0.0017674385 0.005661403 -0.0029740974 -0.0020355477 -0.0022296729 -0.0018502581 -0.0016509019
0.0005795984 -0.0011384237 0.0031758153 -0.03300192 -0.0018121351 0.0044586984 -0.00024097107 0.0030725766
-0.0017752005 0.0027041398 -0.0016223415 0.0051348074 -0.011371424 0.0017674171 0.009309162 0.006860529
0.0019487793 0.0057852203 -0.003486229 -0.0061230888 -0.0010783457 0.001982752 0.0025031692 0.002013143
0.002895063 0.0028231097 -0.0018013334 0.0004986357 0.005287084 0.0036700235 0.0015332612 -0.0049331184
-0.00018334549 -0.0025244497 -0.00074514636 0.0026608284 0.0013689937 -0.0013239536 -0.003053887 -0.03191994
-0.010254475 0.008116609 -0.001907857 0.006502449 -0.003761814 -0.0048702657 0.0018390167 -0.0022194532

layers.10.weight f4 [64, 64]
00000000: 8c3a 703d 19d1 493e 2961 b93d f7c5 aa3d
00000010: 071a 2bbe 2632 cbbd f1a3 02be 7b18 12bd
00000020: 6d6a 4abe 6359 4b3e 941f f63c 9cb0 19be
00000030: 8b60 583d e9b4 a9bd 3f3f 1ebc 83dc 4d3c
00000040: e540 803d 3e07 cbbd 781f 893e 6954 833d
00000050: 941f 0dbe 6c09 f23d f560 86bb f1ba ddbc
00000060: 3328 db3d 711d 443e c938 2d3e b7cd 3f3e
00000070: fbba a5bd f28c 0a3e a4f7 0b3e 89ee e23c
00000080: 4f2b 16be 1f27 9a3d b62a 1bbe d9df e9bd
00000090: 2b41 11be 38c8 3d3e 7e65 c93d 1d0f f0bd
000000a0: 7e31 443e d63f 593e 63df 183e 309d b53d
000000b0: 84b0 7b3e 5699 573d 32fd 04be a356 023e
000000c0: 36ca 45bc e2d9 d23c 260f 3a3c 9d84 923d
000000d0: 41f1 363e fd82 64bd f492 b6bd e0c6 25be
000000e0: fed0 2d3e 5b8a 53bd 4cf1 423d 179c 63bc
000000f0: 9e8b 203d 901a 82be 28ad 32ba 021a 57bd
00000100: 605f 0f3e 1453 6abc 0a63 0abe 3ed9 4b3e
00000110: cd74 e0bd 0d5b 14be 46bf 4fbe 35e8 ae3c
00000120: c80a ffbd bbd1 183e 72c9 553e 49b3 413e
00000130: 8fbe e13d 86e3 a1bd 856e 503e 4dc9 f53d
00000140: 690e 40be 0c4b 3f3e d163 f63d 39cc 193e
00000150: 3ee7 f23b b689 d43d ead7 023e 1df7 753e
00000160: ab5f 83bc 0b1b 21be 808f 6c3d 91cf dd3d
00000170: 76c4 aabd 81e6 5d3e f8b7 52be 6c15 0ebe
00000180: 89bb 65bd c393 91bc 4849 d83d 2bba 14be
00000190: 4bfe e5bd 1d9d d0bd 8ca7 f63d e863 2c3e
000001a0: 134f 423e 033b 17be 016f 833d 656c 99bd
000001b0: 9db1 fabd 483a 0bbe 9bec 24be 43d7 80bc
000001c0: fa0d 3abe 7a50 67be ada4 1fbd b1b9 0dbe
000001d0: 0908 d13d 95fc d4bd 5640 af3d 3742 53be
000001e0: bff0 543e bb54 e5bd fb0c 4bbe a4ec 15be
000001f0: 3081 5dbd 5fb1 1fbd 117c abbc c00b f7bd
00000200: e5a1 abbd 1d4c 6fbc f798 06bd c0c5 2ebe
00000210: d817 51be cf05 2bbe 58b9 0e3b 7d31 18be
00000220: 0005 f53d 2118 2d3e f2a4 533e 42e6 933d
00000230: 5bb0 123e a902 29be 58b7 2f3e 6f45 06bd
00000240: bf43 5b3e 2517 f03d f5dd 8b3d 43ec ed3d
00000250: b648 19be 0399 463e ef04 1b3c 652e a6bd
00000260: e5da 43be 1e23 7fbc ea68 443e 98a5 1b3d
00000270: 6114 633d 330b 653d d9ab bd3d 3939 2cbe
00000280: 4da4 f53d efae c73d 3e15 51bc ae34 3cbe
00000290: 5481 523e db44 053e a155 54be 68a2 03be
000002a0: f6aa 00be 6f39 2c3e 4600 483d 09e1 41be
000002b0: 158a 4d3e c8ca 173e 3a67 5c3e 8e94 e53d
000002c0: df35 b8bd 7616 debd 55f7 47be 9ec0 513e
000002d0: 009b 333c 4001 69be 653f 57be 3350 34be
000002e0: 5272 e1bd e147 d73c f013 80bd 61cb 58bd
000002f0: e684 f43d 384e 62be cead 10be bfda 313e
00000300: e658 5cbd 3711 613b 5660 65bc 0a58 f53c
00000310: c294 1f3e 94b1 5c3e 70b0 5e3e 62bc 813d
00000320: 5696 653c eb71 4dbd 993c 6a3d 9c12 97bd
00000330: a910 96bd c4a7 153e 363b 97bd 0532 9bbc
00000340: 1b60 bbbd 4d00 18be e20e 20be d059 9ebc
00000350: 0641 55be 0dd4 0a3e c8a1 cebc 2d13 c1bb
00000360: 9c02 d43d 512b bd3c 41e2 0c3d c72b 11be
00000370: 58da 3dbe 17c7 363e 8925 743d 1c3a f6bd
00000380: 6fcf a6bd 3e6d c5bc 3eb7 f73b f217 713d
00000390: 9929 debd a626 ba3d bdfb 083c d390 133d
000003a0: 78b2 363e d528 17be 5f80 823d eb93 eebd
000003b0: 0f1f d7bd d3f2 273e 75d4 9c3d 5183 42be
000003c0: dc24 b4bc f974 23be d928 3abd 32c3 ee3c
000003d0: 4a14 523d ddaa 083e 4de2 403e 118a 0bbe
000003e0: 3fcd 06bc a0fc 583e e61b 42be 38d2 26be
000003f0: 3a89 053e 7a43 603d 72e0 bf3d b016 343e
0.058649585 0.1970867 0.09051735 0.0833854 -0.16709147 -0.099216744 -0.12757851 -0.035667878
-0.1976716 0.19858317 0.030044354 -0.15008777 0.052826446 -0.08286459 -0.009658634 0.012564781
0.06262378 -0.09913491 0.2678182 0.06412584 -0.13781577 0.11818203 -0.0041009136 -0.02706668
0.10701027 0.19151856 0.16916193 0.18730818 -0.08092304 0.13530329 0.13668686 0.027701633
-0.14664958 0.07526993 -0.15153012 -0.11419649 -0.14185016 0.18533409 0.09833811 -0.11721633
0.19159505 0.21215758 0.14928965 0.08867872 0.24579054 0.052636467 -0.12987211 0.12728362
-0.012072137 0.02573866 0.011356151 0.071542 0.17865469 -0.055788983 -0.08914748 -0.16189146
0.16974255 -0.051645618 0.0475934 -0.013892195 0.03919565 -0.2541089 -0.00068159634 -0.052515037
0.14001226 -0.014302034 -0.13514343 0.1990709 -0.10959778 -0.14487858 -0.20287809 0.02135096
-0.12453228 0.14923756 0.20877627 0.18916048 0.11022674 -0.07904725 0.2035466 0.12001286
-0.18755497 0.18680972 0.12030757 0.15019311 0.00741282 0.10377829 0.12777677 0.24020047
-0.016036829 -0.15732972 0.05775404 0.10830606 -0.08338253 0.21669962 -0.20577991 -0.1387536
-0.05608705 -0.017770654 0.10560852 -0.14524142 -0.11230143 -0.10186217 0.12043676 0.16834986
0.18975477 -0.14768605 0.06417657 -0.07491378 -0.12240908 -0.13596451 -0.16105883 -0.015727645
-0.18169394 -0.22589293 -0.038975406 -0.13840367 0.10206611 -0.10399739 0.08557193 -0.20630728
0.20794962 -0.11197802 -0.1982917 -0.14641052 -0.05407828 -0.038987514 -0.020933183 -0.12062788
-0.08380488 -0.014605549 -0.032860722 -0.17067623 -0.20419252 -0.16701435 0.0021777954 -0.14862628
0.11963844 0.16903736 0.2066839 0.072216526 0.14325087 -0.16504921 0.17159784 -0.03278106
0.21412562 0.117231645 0.06829444 0.11617329 -0.14969143 0.19394307 0.0094616255 -0.08114318
-0.1912647 -0.015572337 0.19180647 0.03799972 0.055439357 0.055918884 0.09261293 -0.16818704
0.119942285 0.09750163 -0.012761412 -0.1837947 0.20557147 0.13014548 -0.2073579 -0.12854922
-0.12565216 0.16818784 0.048828386 -0.189335 0.20072205 0.14823449 0.21523753 0.11209975
-0.0899465 -0.10844128 -0.19527943 0.20483634 0.010962248 -0.22754383 -0.21020277 -0.17608719
-0.11008133 0.026279392 -0.06253803 -0.052928332 0.11939411 -0.2210015 -0.14128801 0.17368601
-0.053795718 0.0034342536 -0.014000019 0.029949207 0.1558409 0.21552116 0.21746993 0.06334759
0.014012894 -0.05015747 0.057186697 -0.07376596 -0.073273964 0.14614779 -0.073843405 -0.01894475
-0.0914919 -0.14843865 -0.15630677 -0.019329935 -0.20825586 0.13557453 -0.025223628 -0.0058921785
0.1035206 0.023091944 0.03439546 -0.14176856 -0.18540323 0.17849384 0.05960611 -0.12022802
-0.081450336 -0.024099942 0.007559686 0.058860727 -0.10847778 0.09089403 0.0083608 0.036026787
0.17841518 -0.1476167 0.06372141 -0.11649307 -0.10503971 0.16401224 0.076577105 -0.18995406
-0.021990232 -0.1596259 -0.04544911 0.02914581 0.05128888 0.13346429 0.18836327 -0.13626887
-0.008227645 0.21190119 -0.18955955 -0.1629113 0.13040629 0.05475185 0.093689814 0.1758678

layers.10.bias f4 [64]
00000000: 5cc0 5e3c 0e51 ecbb 12bc f93a 5c6e 033b
00000010: f0da 413b bb37 bf3a 32a1 b73a 336d c6ba
00000020: 014e 913b e3ec ae3a 669d 053b be9a e93a
00000030: 3f87 7db9 fae6 47bb 2307 883a b307 ae3a
00000040: 227f 3bbb 84da 17bc 619d 8739 47b8 a6ba
00000050: 71f6 5bbb 42e0 fc38 4bd5 873a 0a07 37bb
00000060: ffd9 31bb b52b 6c3b 98d7 083b efc9 1bbb
00000070: 5093 23bb db37 fdba f63b fd3a 0c0a 7abb
00000080: 8c4d 223b 23c4 3a3b 137f 11bb fc68 cdb9
00000090: fc6e 193a 970a 5dbb 4d27 0dbb 2760 99bc
000000a0: b2c5 e2ba 3b85 b0bb ffdb 7b3b 3dfa a0bb
000000b0: 900b ec3a 3472 6e3a 33e7 64bb c1d9 2e38
000000c0: a1d4 a83a a564 9eba 1679 42bb 23f1 6aba
000000d0: 1362 303b 0ebd dcba 115b 463b c3cd df3a
000000e0: bc70 a03b 1d7c 1f3b 09dd 69bb 8069 2a3b
000000f0: 5c33 e6bb a3fe bebb 2707 193b 6f1c 68ba
0.013595667 -0.007211811 0.0019053242 0.0020054793 0.002957996 0.0014588753 0.0014009832 -0.0015138745
0.0044343476 0.0013345744 0.0020388006 0.0017822606 -0.00024178343 -0.0030502663 0.0010378103 0.0013277441
-0.0028609713 -0.009268407 0.00025866463 -0.0012719714 -0.0033563639 0.00012058068 0.0010363249 -0.002792778
-0.0027137992 0.0036036794 0.0020880457 -0.0023771485 -0.0024959631 -0.0019319014 0.0019320238 -0.003815296
0.002476546 0.0028498254 -0.0022200986 -0.00039178866 0.0005853025 -0.0033728236 -0.0021538318 -0.018722607
-0.001730135 -0.005386976 0.0038430688 -0.004912643 0.0018008817 0.0009095997 -0.0034927845 4.1687632e-05
0.0012880751 -0.0012084438 -0.0029674224 -0.0008962324 0.0026913926 -0.0016841011 0.0030266682 0.0017074872
0.0048962515 0.0024335452 -0.0035684726 0.0026002824 -0.0070251655 -0.005828695 0.002335021 -0.00088543346
