data/results/state_net_28000.pth (torch, 90556 bytes, 14 tensors)

layers.0.weight f4 [64, 5]
0.014114357 -0.19477262 0.3039265 -0.29342657 -0.25833574 -0.28151706 -0.26902702 -0.09577218
0.22736536 0.22484757 -0.036208507 0.22970909 0.21010359 0.20116776 -0.2721311 0.18186429
-0.065095186 0.21837246 0.17954504 -0.16080949 -0.24234901 0.13733907 -0.1289126 0.18679596
0.0066136313 0.26752886 0.012351237 0.21900493 -0.034635466 0.13775268 0.14977808 0.26808462
0.11888189 -0.051502615 0.0061925515 0.08330193 -0.0340941 -0.1722053 -0.10382714 0.029004566
-0.33172378 -0.24815772 0.22151628 0.16279438 0.0846052 -0.18479641 -0.021439489 0.25500947
0.14250804 -0.3059465 0.03581569 0.07128032 0.018239494 0.09403031 -0.18158795 -0.29531687
-0.20963158 -0.091737986 -0.18709594 -0.2900491 0.30021155 -0.24633554 0.14604186 -0.0073793144
0.33452803 -0.22148918 -0.28625998 0.12569928 0.058844052 -0.004547486 -0.036439788 0.11763156
-0.088312514 -0.08914123 0.19315071 0.24826066 -0.25755534 -0.23512298 -0.14257777 0.1989576
0.020746456 0.07237563 0.066039786 0.15374595 0.0843193 -0.31274158 0.23627622 -0.27828172
-0.038237177 -0.10596042 0.114723995 -0.068100035 0.22716838 0.22600798 0.32787392 0.19911607
0.005608436 -0.27408412 0.21535547 0.2518427 -0.28899303 0.2568813 -0.0028074244 -0.11066544
0.060663793 0.27517658 0.2652689 -0.23289953 0.0007394234 -0.03379346 -0.122639775 -0.032725114
0.14952184 -0.28215382 0.17806976 0.23521422 -0.2743176 0.20837818 -0.0132376775 -0.2919313
0.0055647204 -0.106422044 0.1938602 0.2608422 -0.25298843 0.31730142 -0.1836771 0.25108153
-0.010717547 -0.13874723 0.2585913 -0.15786739 -0.11801843 0.103833154 0.051408213 0.18650413
-0.23541036 0.122689225 -0.14356174 -0.022735419 0.18473725 0.11789483 0.30484343 -0.050831847
-0.08689464 -0.14872606 -0.23498878 0.28098696 -0.23724103 -0.21779586 0.027594132 -0.03604128
0.008499538 -0.05245773 -0.11400865 0.2726712 -0.18486056 -0.22194743 -0.27568364 0.21869072
-0.016632369 0.2490701 0.028279977 0.0008904507 0.15790372 0.18897855 0.24261671 -0.09468447
-0.2919034 0.12515359 -0.42696482 0.25661772 -0.36389032 0.31637368 0.45490652 0.26076496
-0.27957448 -0.19404812 -0.19772829 0.11707311 -0.2708212 -0.044934522 0.006849405 0.23505272
-0.42992917 -0.106441565 -0.13731377 0.32015273 -0.17891186 0.3328888 0.26683354 -0.080444716
0.041643042 -0.25142708 -0.07052949 -0.39534092 -0.346662 0.2908326 -0.27901292 -0.27887467
0.31843236 0.084305726 -0.14854462 -0.07611259 -0.12520704 -0.21136029 -0.16835195 -0.04102341
0.24374402 -0.1751081 -0.10940213 -0.062470015 0.28614527 -0.21229182 0.053154893 -0.16622688
-0.09483869 0.0041550123 0.07307793 0.08617068 0.1746787 0.010694952 0.034035917 0.27312344
-0.3416932 -0.06377795 -0.033508517 -0.10409826 -0.2134152 0.15413626 0.19895096 -0.026658807
0.26146573 0.27768376 0.016088085 -0.28907856 -0.119248845 0.04990649 -0.29647443 0.22719713
0.17272645 -0.30623624 -0.29253232 -0.04714995 -0.2987898 -0.24826989 0.19177821 -0.02095316
-0.2033871 -0.13136522 -0.1856722 0.2812129 -0.2591413 -0.26500264 0.22919767 0.10543864
00000000: e73f 673c 7972 47be 419c 9b3e 023c 96be
00000010: 9544 84be 0123 90be e9bd 89be 3424 c4bd
00000020: 77d2 683e 713e 663e 5f4f 14bd dc38 6b3e
00000030: 6525 573e ecfe 4d3e c454 8bbe a23a 3a3e
00000040: a050 85bd 089d 5f3e a8da 373e 3eab 24be
00000050: 572a 78be 9da2 0c3e aa01 04be 7147 3f3e
00000060: 29b7 d83b 8bf9 883e d85c 4a3c d442 603e
00000070: ebdd 0dbd 0a0f 0d3e 6d5f 193e 6342 893e
00000080: 5978 f33d 68f4 52bd e3ea ca3b 349a aa3d
00000090: 41a6 0bbd 9656 30be 53a3 d4bd fc9a ed3c
000000a0: b3d7 a9be 0f1d 7ebe 2ad5 623e 92b3 263e
000000b0: 7e45 ad3d 453b 3dbe dea1 afbc 9a90 823e
000000c0: a1ed 113e 05a5 9cbe 79b3 123d 6bfb 913d
000000d0: fe6a 953c f792 c03d 31f2 39be c633 97be
000000e0: a9a9 56be 20e1 bbbd 1496 3fbe 5181 94be
000000f0: 54b5 993e 623f 7cbe ff8b 153e 2dce f1bb
00000100: 4247 ab3e 0fce 62be ab90 92be 50b7 003e
00000110: 7606 713d 1403 95bb e341 15bd d1e8 f03d
00000120: 31dd b4bd ad8f b6bd 4dc9 453e 0b38 7e3e
00000130: 4bde 83be 14c4 70be e8ff 11be 8bbb 4b3e
00000140: 79f4 a93c ad39 943d de3f 873d 946f 1d3e
00000150: 99af ac3d aa1f a0be 65f2 713e f17a 8ebe
00000160: 969e 1cbd c701 d9bd 6af4 ea3d 0878 8bbd
00000170: d49e 683e a36e 673e 17df a73e 15e5 4b3e
00000180: f9c6 b73b c154 8cbe 2586 5c3e 87f1 803e
00000190: e5f6 93be f285 833e c4fc 37bb 90a4 e2bd
000001a0: 997a 783d f2e3 8c3e 53d1 873e 377d 6ebe
000001b0: ddd5 413a 036b 0abd 902a fbbd c50a 06bd
000001c0: 411c 193e 7776 90be eb57 363e ffdb 703e
000001d0: 5b73 8cbe 1761 553e d8e2 58bc 0578 95be
000001e0: 4258 b63b cdf3 d9bd 4a83 463e 1c8d 853e
000001f0: b387 81be 5575 a23e da15 3cbe c28d 803e
00000200: a698 2fbc c113 0ebe 1466 843e fda7 21be
00000210: a6b3 f1bd 7aa6 d43d 6b91 523d f0fa 3e3e
00000220: 6a0f 71be 7d44 fb3d d901 13be a13f babc
00000230: c32b 3d3e d872 f13d 7014 9c3e 0e35 50bd
00000240: d1f5 b1bd a54b 18be e6a0 70be 86dd 8f3e
00000250: 50ef 72be e105 5fbe 170d e23c 05a0 13bd
00000260: a541 0b3c ebdd 56bd 5e7d e9bd 8f9b 8b3e
00000270: 164c 3dbe 3046 63be 6826 8dbe 76f0 5f3e
00000280: 9b40 88bc 3b0c 7f3e 69ab e73c 236d 693a
00000290: 83b1 213e 9883 413e 8470 783e eee9 c1bd
000002a0: 5d74 95be 4328 003e 229b dabe 6663 833e
000002b0: d54f babe bbfb a13e 82e9 e83e fc82 853e
000002c0: 6324 8fbe 8db4 46be 4979 4abe 07c4 ef3d
000002d0: 14a9 8abe 430d 38bd f970 e03b a9b1 703e
000002e0: ad1f dcbe 09fe d9bd fb9b 0cbe 0feb a33e
000002f0: ac34 37be 6770 aa3e 689e 883e 33c0 a4bd
00000300: e591 2a3d 0dbb 80be c471 90bd 206a cabe
00000310: af7d b1be 03e8 943e c8da 8ebe a9c8 8ebe
00000320: 9109 a33e 7ba8 ac3d 151c 18be ebe0 9bbd
00000330: 4636 00be d56e 58be 7464 2cbe 2a08 28bd
00000340: 0898 793e 8a4f 33be 390e e0bd 8fe0 7fbd
00000350: a281 923e 0763 59be f2b8 593d 6137 2abe
00000360: c93a c2bd c526 883b e2a9 953d 417a b03d
00000370: f9de 323e e139 2f3c 3f69 0b3d d6d6 8b3e
00000380: 69f2 aebe 049e 82bd 3a40 09bd 7831 d5bd
00000390: 8489 5abe e5d5 1d3e cdb9 4b3e 9263 dabc
000003a0: d6de 853e 912c 8e3e 29cb 833c 1b02 94be
000003b0: bd38 f4bd bf6a 4c3d 7fcb 97be 5da6 683e
000003c0: 34df 303e ffca 9cbe ccc6 95be 4e20 41bd
000003d0: fafa 98be 763a 7ebe 8261 443e f6a5 abbc
000003e0: b544 50be 9b84 06be da20 3ebe 23fb 8f3e
000003f0: 2bae 84be 6dae 87be cbb2 6a3e 37f0 d73d

layers.0.bias f4 [64]
-0.01745769 0.016611284 -0.013229293 -0.0025309627 -0.0022238495 0.0013775525 0.00094492635 -0.009950685
0.00218554 -0.0027677938 0.0043648183 0.0033261417 -0.017365621 0.005962276 0.0012094012 -0.015969288
0.003101191 -0.0017471714 -0.016772565 -0.01224823 0.0031576746 -0.002596669 0.0064141005 0.0104967505
0.028718093 -0.0066334335 0.0034823644 0.0046727904 -0.00900355 0.0036743886 0.012774769 0.0014769664
-0.007624978 -0.00011816636 0.052303344 0.013985114 -0.011176352 0.00080567744 -0.0020940718 -0.014602114
-0.008979622 0.00044473071 -0.002582706 0.004315197 0.010218743 -0.018425874 -0.006330422 -0.007271921
0.013488872 -0.0016373103 -0.029361023 0.005023395 0.00070666714 0.031233946 0.004229071 -0.0038763282
-0.009238242 0.020529522 -0.007937234 -0.008206211 -0.005827207 0.0027449736 -0.0049187723 0.000568226
00000000: 6e03 8fbc 6314 883c adbf 58bc 82de 25bb
00000010: 01be 11bb fe8e b43a efb4 773a 3308 23bc
00000020: 473b 0f3b e063 35bb c006 8f3b 66fb 593b
00000030: 5942 8ebc 325f c33b c584 9e3a 06d2 82bc
00000040: 5a3d 4b3b 5801 e5ba 9e66 89bc cdac 48bc
00000050: fdf0 4e3b e02c 2abb 602d d23b 90fa 2b3c
00000060: 3542 eb3c 465d d9bb 6138 643b 351e 993b
00000070: a083 13bc 03ce 703b 444d 513c c596 c13a
00000080: f4da f9bb 15d0 f7b8 083c 563d d221 653c
00000090: 051d 37bc 1934 533a b23c 09bb b53d 6fbc
000000a0: 441f 13bc bf2a e939 9e42 29bb 7f66 8d3b
000000b0: 846c 273c dcf1 96bc 6e6f cfbb 4b49 eebb
000000c0: 6e00 5d3c 049b d6ba 8786 f0bc 4b9b a43b
000000d0: a13f 393a 55de ff3c 0594 8a3b ff09 7ebb
000000e0: ff5b 17bc 872d a83c 2c0b 02bc 5873 06bc
000000f0: 28f2 bebb 04e5 333b a72d a1bb 00f5 143a

layers.2.weight f4 [64, 64]
-0.0013353399 -0.012167074 -0.11919402 -0.062477242 0.12131728 0.09907509 0.13625854 0.15926313
0.2244415 -0.20091331 0.042228878 -0.18260357 -0.19037366 0.02715068 0.033045445 -0.10499453
0.14612404 0.20787172 0.0825687 0.011785023 0.08803904 0.009452583 -0.12247428 -0.008245548
0.07295153 -0.13930868 0.13193733 0.006260188 -0.22850336 -0.15891741 0.17978686 0.049248658
-0.06585158 0.20004626 0.20947203 -0.13782339 -0.16777852 0.19109528 -0.23495261 0.009540406
-0.2340725 -0.05260543 -0.15895574 -0.030475484 0.060795013 -0.09919886 -0.22182879 0.11574557
-0.1731889 0.11782597 -0.11173903 0.0060451683 -0.2324322 -0.13297775 -0.058855735 0.14687496
0.14340396 0.2200255 -0.19674045 0.09252488 -0.104835145 0.14223145 0.12036385 0.026906082
0.15780334 0.025743796 -0.18601549 0.154569 0.19580644 -0.06550346 -0.0821117 0.0055105616
-0.014291441 -0.042722095 0.18665141 0.06318953 -0.15012656 -0.17800297 -0.15073526 -0.045348432
0.21376699 0.10270543 0.17474458 0.17054065 -0.102759935 0.049818154 -0.025634985 -0.02635012
0.11555504 -0.0025757411 -0.16158539 0.16264175 -0.13960102 0.02741071 0.061299387 0.15528235
0.14380115 -0.20457083 0.18751642 0.042856853 -0.040965527 -0.18248874 0.040649064 -0.048823614
-0.030321721 -0.11583544 0.11132175 0.21140185 -0.21010663 -0.00418794 0.12894404 -0.061106134
-0.12431435 0.112161286 -0.19929418 -0.057314593 0.063004866 -0.17479613 -0.19561335 0.048430387
0.019624589 0.07300771 0.20099586 0.14342959 0.0009322041 0.016247874 -0.07556531 0.027194958
-0.22657827 -0.14856444 0.060017586 0.16595314 -0.0740039 -0.16511764 0.0067352196 -0.055271942
-0.1084608 -0.13133346 0.27328414 -0.23590942 0.07950388 -0.20412153 -0.07069399 -0.10705998
-0.093826436 -0.18223509 0.065917715 0.014754197 -0.25012937 -0.101370834 -0.15826264 0.07972652
0.032880247 0.06070461 -0.07215663 0.039630402 -0.19757724 0.17589462 -0.08938398 -0.17529882
0.083682165 -0.16510569 -0.15299986 0.10683305 0.13073282 0.1543907 0.1474821 -0.07520398
0.2936852 0.21589772 -0.16061723 -0.07983542 0.29972237 -0.121783435 0.18370949 -0.14842671
0.19581679 -0.20355345 -0.31946537 -0.059579484 -0.18461467 0.033078477 0.092072874 0.046339925
-0.0722439 -0.17498194 -0.12605675 -0.27110437 -0.20886327 0.11226682 0.036795355 -0.18996496
-0.017962309 -0.16005772 0.019293768 0.24281806 -0.033377394 -0.111002505 0.023711143 0.0034755894
-0.3283961 -0.105326265 0.21096797 -0.15397641 -0.097027525 -0.022753054 -0.10404739 0.096720904
0.010461392 0.053024 0.069904365 -0.013958043 -0.010529494 -0.13642569 0.040420264 0.11143297
0.065102614 0.2075344 -0.023550538 -0.20446932 -0.07624579 -0.008350572 -0.20793557 0.071813114
-0.14011171 0.13418704 0.15166529 0.03970435 0.14757006 -0.14918411 -0.068787314 -0.21237753
0.015242554 0.09534497 0.15942778 -0.16048767 -0.06691838 -0.13801801 0.21241589 -0.18736403
0.11769869 -0.13838275 -0.02529774 -0.18984435 0.026699513 0.07211325 0.21836668 -0.18194638
-0.069408245 0.17020446 0.09855186 -0.24050613 -0.19633178 -0.030353218 -0.1368264 -0.045482185
00000000: 9206 afba 6858 47bc ff1b f4bd 23e8 7fbd
00000010: 3275 f83d e1e7 ca3d 5c87 0b3e e015 233e
00000020: fed3 653e 38bc 4dbe 30f8 2c3d 6efc 3abe
00000030: 50f1 42be 1a6b de3c a95a 073d 5f07 d7bd
00000040: 8aa1 153e 53dc 543e c719 a93d f815 413c
00000050: d04d b43d 02df 1a3c ccd3 fabd 5618 07bc
00000060: 9d67 953d efa6 0ebe 941a 073e 4322 cd3b
00000070: c9fc 69be 3fbb 22be 0c1a 383e f6b8 493d
00000080: 31dd 86bd edd8 4c3e d67f 563e 9321 0dbe
00000090: 22ce 2bbe 7bae 433e 6b97 70be 5d4f 1c3c
000000a0: b4b0 6fbe cb78 57bd 4bc5 22be b9a7 f9bc
000000b0: 3104 793d c628 cbbd 1627 63be 030c ed3d
000000c0: 6e58 31be be4e f13d 6fd7 e4bd 8c16 c63b
000000d0: b502 6ebe 522b 08be b612 71bd 6466 163e
000000e0: 7dd8 123e 5d4e 613e 5476 49be af7d bd3d
000000f0: cfb3 d6bd 1fa5 113e 5281 f63d 256a dc3c
00000100: 3397 213e a7e4 d23c d87a 3ebe 5647 1e3e
00000110: 7c81 483e ae26 86bd 2e2a a8bd f191 b43b
00000120: a626 6abc 5dfd 2ebd 8c21 3f3e 8369 813d
00000130: c7ba 19be 6946 36be 585a 1abe 47bf 39bd
00000140: bce5 5a3e 3957 d23d 3ef0 323e 35a2 2e3e
00000150: cd73 d2bd 1f0e 4c3d 7600 d2bc 35dc d7bc
00000160: 1fa8 ec3d c4cd 28bb a476 25be 8f8b 263e
00000170: 92f3 0ebe 6d8c e03c 1115 7b3d 5602 1f3e
00000180: 9c40 133e 047b 51be 4e04 403e ab8a 2f3d
00000190: 78cb 27bd 54de 3abe a27f 263d 45fb 47bd
000001a0: 4265 f8bc 223b edbd a8fc e33d ba79 583e
000001b0: 3126 57be fd3a 89bb e809 043e 6d4a 7abd
000001c0: 8698 febd d1b4 e53d c613 4cbe b5c2 6abd
000001d0: b208 813d c2fd 32be de4e 48be f15e 463d
000001e0: bfc3 a03c 1185 953d dcd1 4d3e 35df 123e
000001f0: 285f 743a 431a 853c fcc1 9abd f6c7 de3c
00000200: 2204 68be 4721 18be 00d5 753d 9fef 293e
00000210: 5b8f 97bd 9914 29be 1eb3 dc3b d564 62bd
00000220: b220 debd 477c 06be e6eb 8b3e 3d92 71be
00000230: eed2 a23d 3c05 51be 03c8 90bd 4342 dbbd
00000240: 1328 c0bd d69b 3abe deff 863d 96bb 713c
00000250: f510 80be 839b cfbd 9a0f 22be a847 a33d
00000260: 70ad 063d 66a5 783d dbc6 93bd 7d53 223d
00000270: b051 4abe b81d 343e f30e b7bd 8981 33be
00000280: 8e61 ab3d 7711 29be ffab 1cbe 49cb da3d
00000290: d3de 053e 9818 1e3e 8c05 173e 8b04 9abd
000002a0: e85d 963e 4b14 5d3e d878 24be c180 a3bd
000002b0: 3675 993e 9869 f9bd 571e 3c3e 2cfd 17be
000002c0: 3284 483e 5170 50be f790 a3be 9e09 74bd
000002d0: a10b 3dbe 4c7d 073d b490 bc3d efce 3d3d
000002e0: 9cf4 93bd 772e 33be 0515 01be 31ce 8abe
000002f0: 41e0 55be 26ec e53d bab6 163d 2d86 42be
00000300: b125 93bc 2ce6 23be f70d 9e3c 4ca5 783e
00000310: bcb6 08bd 4855 e3bd df3d c23c b7c6 633b
00000320: 8923 a8be 4cb5 d7bd fd07 583e feab 1dbe
00000330: 5eb6 c6bd 9d64 babc cc16 d5bd 9c15 c63d
00000340: 4266 2b3c b22f 593d 052a 8f3d 47b0 64bc
00000350: e683 2cbc 2db3 0bbe b88f 253d f836 e43d
00000360: 8554 853d e683 543e 0fed c0bc 6860 51be
00000370: c126 9cbd d6d0 08bc 10ed 54be c112 933d
00000380: 7279 0fbe 5468 093e 254e 1b3e 07a1 223d
00000390: 9b1c 173e b8c3 18be 5de0 8cbd 7f79 59be
000003a0: e8bb 793c 3944 c33d 0941 233e e156 24be
000003b0: 810c 89bd 9854 0dbe 8d83 593e 5bdc 3fbe
000003c0: 030c f13d 35b4 0dbe 353d cfbc 8f66 42be
000003d0: f0b8 da3c 1db0 933d 849b 5f3e 2750 3abe
000003e0: e925 8ebd 144a 2e3e 8fd5 c93d 3d47 76be
000003f0: 330b 49be 50a7 f8bc 381c 0cbe 874b 3abd

layers.2.bias f4 [64]
0.008115264 -0.0012011462 0.033439975 0.0053453636 0.0025854444 0.0057522184 0.0012187827 -0.0014029616
-0.0019340073 -0.004946244 -0.00023588439 0.002690935 -0.0016256344 -0.0024209789 -0.00025309395 -0.013189691
0.0003970409 -0.0019292581 -0.028665302 -0.0023218472 0.012039853 0.004575563 -0.011164154 0.00135079
-0.0013158785 0.002421924 0.01143197 0.0040304167 0.0060919835 -0.00083243154 0.004589322 -0.0075733424
0.015398066 0.0039016388 -0.009386041 -0.076541156 -0.0063426485 -0.003651187 0.0051687127 0.007700573
-0.001200259 0.008154835 0.007425141 0.0075939307 -0.001589731 -0.04538052 0.012980291 -0.008220343
-0.017832715 0.0006997173 -0.0056620003 -0.0030719235 -0.0019800828 0.0017284125 -0.00045012523 -0.0024305647
-0.005023369 0.0072936383 -0.004521875 -0.0061349473 -2.0817553e-05 0.0067911767 -0.0020610562 -0.08302604
00000000: e2f5 043c c76f 9dba 5bf8 083d 2928 af3b
00000010: 8f70 293b 1b7d bc3b 90bf 9f3a 94e3 b7ba
00000020: 847e fdba 1a14 a2bb bc57 77b9 665a 303b
00000030: 3d13 d5ba 49a9 1ebb b2b1 84b9 9319 58bc
00000040: ed29 d039 29df fcba 7fd3 eabc 222a 18bb
00000050: ce42 453c 9bee 953b dbe9 36bc fe0c b13a
00000060: 8e79 acba 24b9 1e3b 284d 3b3c 9611 843b
00000070: 439f c73b 8937 5aba 0662 963b cd29 f8bb
00000080: 2b48 7c3c a3b2 7f3b e9c7 19bc 9cc1 9cbd
00000090: fed5 cfbb c148 6fbb 4e5e a93b 1755 fc3b
000000a0: 0252 9dba db9b 053c 994e f33b 82d6 f83b
000000b0: 855e d0ba ede0 39bd 49ab 543c 9eae 06bc
000000c0: ea15 92bc 3c6d 373a 4d88 b9bb 5352 49bb
000000d0: 47c4 01bb e68b e23a c9fe ebb9 1c4a 1fbb
000000e0: 139b a4bb 79ff ee3b 3d2c 94bb ab07 c9bb
000000f0: 5ba1 aeb7 8588 de3b c912 07bb 8e09 aabd

layers.4.weight f4 [64, 64]
-0.107178375 0.10936655 -0.1754161 -0.15322359 0.15891773 -0.16154279 -0.15219826 -0.10121381
-0.012969874 0.18598217 0.1488105 0.04581966 -0.21401392 0.19538952 -0.08038836 0.15600725
-0.12728149 -0.10253875 -0.12394689 -0.0183294 0.003822738 0.21259898 -0.064782776 0.1925952
-0.1625567 -0.17144634 -0.01905669 -0.15277849 0.17478485 -0.03846236 -0.12779889 -0.075478055
0.13817339 0.09456096 0.07462689 0.16574799 -0.05768374 0.14454894 -0.0055307182 0.07507803
-0.054905638 -0.0029891296 -0.05193347 -0.20106931 -0.009597479 -0.16231427 -0.06816736 -0.050263472
-0.18666416 -0.214801 0.20559135 -0.06336111 -0.17733647 -0.08502645 -0.09388738 -0.2024795
0.06359566 -0.1291156 -0.17616528 0.20514925 -0.1958075 -0.008714364 0.14113492 -0.14629662
-0.14819351 0.009785643 0.12762615 0.08058735 0.21132366 0.013868791 -0.20429654 -0.1424478
-0.11303414 -0.20681596 0.21086372 -0.15472859 -0.1053513 0.22669415 0.1435902 -0.026885238
-0.123070985 0.08934247 0.085585326 0.07137111 -0.055471305 0.023110835 -0.010883008 -0.10359412
0.14449437 -0.004347505 0.19364229 0.20916715 -0.1229481 0.10605421 0.21009342 0.025021726
-0.15618192 0.20462348 -0.18242447 0.29906604 -0.043905355 -0.13547608 0.026598519 -0.039513327
-0.1403083 -0.003602909 -0.14996819 -0.24635155 -0.245534 0.019639006 -0.13885961 -0.054938804
0.25555202 0.031009778 0.13008793 0.0942477 -0.03889415 0.022488706 -0.21816333 -0.21426913
-0.06107578 -0.19164014 -0.10138341 0.21245676 -0.18649843 -0.074374765 -0.017235862 0.0036193796
-0.1205821 -0.031844676 0.07197403 0.1335517 -0.096084386 -0.16968074 0.024908865 0.0779329
-0.0027866738 -0.030591937 0.028566161 -0.06961772 0.059504326 -0.17489721 0.0068318686 0.1416967
0.012520045 0.10609914 0.03433661 0.17586505 -0.0052694045 0.1307169 -0.11512663 0.046402235
0.07541647 0.040340368 -0.20408432 0.1665592 0.15904127 0.075866945 -0.11409497 -0.07851747
-0.1712547 -0.030852895 0.08404264 0.022294715 0.20908006 -0.1286485 -0.1775654 -0.03468759
0.076596044 -0.07186798 -0.08880917 0.22986323 -0.0021161835 0.12968461 -0.04535554 -0.118337296
-0.05506868 -0.052677594 -0.057665665 -0.056004945 0.15919143 0.17743899 -0.10728461 -0.08108774
-0.13904051 -0.119953305 -0.11219153 0.0074354787 -0.12527937 0.17842421 0.045001194 -0.21349193
-0.046115506 -0.1900074 -0.029293574 -0.0118156625 -0.11409508 -0.0025748634 -0.14744323 0.18202792
0.049137678 0.083892964 -0.14279076 -0.058021005 0.16035129 0.21181856 0.19413808 -0.13841616
0.16350013 0.045183305 0.19965713 -0.015394622 -0.08897389 -0.109950304 -0.15264139 -0.1720401
-0.16775653 0.21005607 0.13420945 0.14887512 0.09046688 0.2068129 0.19131003 0.1170527
0.11847466 -0.16116726 0.008093674 0.052446365 0.066092014 0.07854608 0.11714964 -0.09733096
0.0629099 0.072252735 -0.025304457 -0.08954777 -0.13275698 0.18071623 -0.15927297 0.19224449
0.104628734 -0.14134784 -0.20414123 -0.13957311 0.07365522 -0.047625408 -0.0137438625 0.13580558
0.1774534 -0.18816008 0.17163418 0.13755748 -0.105184205 0.13754223 -0.1354159 -0.018694628
00000000: 5680 dbbd 92fb df3d 47a0 33be a5e6 1cbe
00000010: 54bb 223e 796b 25be dcd9 1bbe 3049 cfbd
00000020: 987f 54bc 1c72 3e3e c861 183e 65ad 3b3d
00000030: 7726 5bbe 3114 483e a7a2 a4bd 5dc0 1f3e
00000040: 1456 02be d6ff d1bd ded7 fdbd 8a27 96bc
00000050: e786 7a3b 8cb3 593e d5ac 84bd ad37 453e
00000060: 4375 26be a18f 2fbe c71c 9cbc f771 1cbe
00000070: cdfa 323e b58a 1dbd b6dd 02be 3d94 9abd
00000080: 537d 0d3e 2da9 c13d fcd5 983d d7b9 293e
00000090: c945 6cbd a304 143e 073b b5bb 83c2 993d
000000a0: bce4 60bd 46e5 43bb 31b8 54bd 1de5 4dbe
000000b0: bf3e 1dbc b635 26be 549b 8bbd 12e1 4dbd
000000c0: e424 3fbe cbf4 5bbe 8a86 523e 78c3 81bd
000000d0: b197 35be 5922 aebd 0748 c0bd c956 4fbe
000000e0: 713e 823d e136 04be ac64 34be a512 523e
000000f0: c381 48be b1c6 0ebc ac85 103e c8ce 15be
00000100: 0ac0 17be f653 203c 6eb0 023e fb0a a53d
00000110: 3b65 583e ed39 633c 1d33 51be d6dd 11be
00000120: 717e e7bd 90c7 53be a9ec 573e 2c71 1ebe
00000130: 6cc2 d7bd 8322 683e 4f09 133e 6e3e dcbc
00000140: a40c fcbd 2ff9 b63d 5c47 af3d 042b 923d
00000150: e135 63bd ef52 bd3c a54e 32bc 2729 d4bd
00000160: 55f6 133e 8475 8ebb 2a4a 463e ea2f 563e
00000170: 37cc fbbd f332 d93d bb22 573e 5dfa cc3c
00000180: 27ee 1fbe d188 513e 7bcd 3abe 2f1f 993e
00000190: 1ad6 33bd 3eba 0abe 23e5 d93c bad8 21bd
000001a0: fbac 0fbe c81e 6cbb 4391 19be 9543 7cbe
000001b0: 446d 7bbe fbe1 a03c 3731 0ebe 8307 61bd
000001c0: b7d7 823e 3808 fe3c c535 053e f004 c13d
000001d0: 794f 1fbd 3c3a b83c 3566 5fbe 5e69 5bbe
000001e0: 992a 7abd 503d 44be 1ba2 cfbd 448e 593e
000001f0: 72f9 3ebe cc51 98bd 3932 8dbc 1d33 6d3b
00000200: bff3 f6bd 906f 02bd 1f67 933d c7c1 083e
00000210: e4c7 c4bd cac0 2dbe ad0d cc3c 499b 9f3d
00000220: a1a0 36bb f19b fabc 9503 ea3c bc93 8ebd
00000230: cfba 733d 4118 33be dedd df3b f118 113e
00000240: e020 4d3c 824a d93d 8ca4 0c3d f815 343e
00000250: f8aa acbb a7da 053e 83c7 ebbd 4510 3e3d
00000260: f373 9a3d f13b 253d 7bfb 50be 7f8e 2a3e
00000270: b7db 223e 2160 9b3d a0aa e9bd c4cd a0bd
00000280: 645d 2fbe 36bf fcbc 8c1e ac3d 68a3 b63c
00000290: 1519 563e 6fbc 03be b4d3 35be 9314 0ebd
000002a0: 63de 9c3d 852f 93bd 95e1 b5bd 4461 6b3e
000002b0: abaf 0abb 0bcc 043e bbc6 39bd d35a f2bd
000002c0: b28f 61bd 76c4 57bd d532 6cbd 7165 65bd
000002d0: 1403 233e 91b2 353e 09b8 dbbd 5411 a6bd
000002e0: a360 0ebe 14aa f5bd acc4 e5bd 51a5 f33b
000002f0: 3c49 00be d6b4 363e 2c53 383d a19d 5abe
00000300: 9de3 3cbd 4d91 42be 14f9 efbc 7b96 41bc
00000310: aeaa e9bd 0abf 28bb 5cfb 16be 8765 3a3e
00000320: 9744 493d 13d0 ab3d be37 12be 6fa7 6dbd
00000330: 2133 243e f7e6 583e 22cc 463e f7bc 0dbe
00000340: 946c 273e 2112 393d eb72 4c3e ba39 7cbc
00000350: f137 b6bd a02d e1bd 064e 1cbe 482b 30be
00000360: 5ec8 2bbe f018 573e 346e 093e b872 183e
00000370: b346 b93d c3c6 533e c7e6 433e 53b9 ef3d
00000380: d8a2 f23d 0809 25be 549b 043c 00d2 563d
00000390: 405b 873d c4dc a03d 27ec ef3d 7455 c7bd
000003a0: e8d6 803d 3ef9 933d 4b4b cfbc d264 b7bd
000003b0: 72f1 07be ad0d 393e 7418 23be bddb 443e
000003c0: 9747 d63d 7dbd 10be 660a 51be 41ec 0ebe
000003d0: 8cd8 963d dc12 43bd f02d 61bc 9e10 0b3e
000003e0: 58b6 353e 09ad 40be dfc0 2f3e dedb 0c3e
000003f0: d16a d7bd dfd7 0c3e 77aa 0abe 7a25 99bc

layers.4.bias f4 [64]
-0.0015214531 -0.015383356 -0.001445613 -0.0065554013 -0.0027463222 -0.058432855 0.024579085 -0.0020972064
0.0038555374 0.0064817537 -0.00027016236 -0.00022726209 -0.0019515477 0.0033183142 0.009768291 -0.0006572588
-0.00083861727 -0.002014597 0.028751744 0.0047773444 0.0014039172 0.0034006904 -0.0066189184 -0.13351102
0.042361893 0.0042594424 0.0030994967 -0.007969323 0.005965983 0.002824915 -0.0026404907 0.0020669226
-0.005498177 0.0053717555 0.0010627578 0.0022120809 -0.010898166 0.0013768123 -0.0016267123 0.001966131
0.0042770794 0.0040024496 4.2359643e-06 -0.0043158773 -0.009175561 0.0040310835 -0.00380766 -0.007096519
-0.0010765941 -0.00095779146 0.0086198645 -0.0014579797 0.0010493512 0.025047112 0.0018319441 0.03837015
-0.00023388065 0.002138116 -0.0033822064 -0.0024151658 0.002504422 -0.0014525098 -0.0072600897 -0.0043951753
00000000: 7f6b c7ba 790a 7cbc b97a bdba b1ce d6bb
00000010: a4fb 33bb 4a57 6fbd 145a c93c 4971 09bb
00000020: 2fad 7c3b e464 d43b 94a4 8db9 344d 6eb9
00000030: 13cb ffba 1378 593b 2f0b 203c e44b 2cba
00000040: a7d6 5bba 5407 04bb c788 eb3c 458b 9c3b
00000050: a503 b83a 1ede 5e3b 83e3 d8bb 1db7 08be
00000060: aa83 2d3d cb92 8b3b ed20 4b3b c391 02bc
00000070: 4b7e c33b 3622 393b 150c 2dbb 3575 073b
00000080: 0d2a b4bb 8d05 b03b 3c4c 8b3a 8ff8 103b
00000090: 398e 32bc 2876 b43a 6837 d5ba 34da 003b
000000a0: be26 8c3b fb26 833b a822 8e36 346c 8dbb
000000b0: 1855 16bc 2e17 843b ef89 79bb eb89 e8bb
000000c0: 811c 8dba 4c14 7bba 553a 0d3c ae19 bfba
000000d0: 628a 893a 9a2f cd3c d81d f03a 052a 1d3d
000000e0: dc3d 75b9 a21f 0c3b 02a8 5dbb c247 1ebb
000000f0: 3b21 243b 2462 beba 0ce6 edbb 6705 90bb

layers.6.weight f4 [64, 64]
0.0252025 -0.04805125 0.11416162 -0.16049385 -0.10333906 -0.014884539 -0.19167128 -0.034907233
-0.21095441 -0.12585302 0.13069187 -0.16841312 0.060047828 0.0147485165 -0.11223497 0.07586671
0.21550521 0.0064949207 -0.16563326 0.006039962 0.13635288 0.05083336 0.16210288 -0.09297899
-0.028022712 -0.21210364 -0.2023176 0.1075275 0.03922533 -0.07956645 -0.117673665 0.03929817
-0.21676694 -0.19668947 0.012173978 0.09473882 0.118968695 -0.093184456 0.14710906 0.0785382
0.15806162 -0.09130103 0.0010570087 -0.0556858 -0.0933675 0.16501 -0.09990615 0.025155585
-0.00014149178 -0.20159951 -0.14169258 -0.20017812 -0.14764301 -0.1278041 0.03942943 -0.016797857
-0.04937259 0.11054625 -0.15913475 0.12720156 0.098526664 -0.08187024 0.15246299 0.039481398
0.15939884 -0.19118682 -0.12465066 -0.06918222 0.08442894 0.111325346 0.16649185 -0.1795137
-0.23365177 -0.21514304 -0.046317585 0.11597952 -0.19327448 0.118890956 0.16534264 -0.050741963
0.17649725 0.14007443 0.048126012 -0.16331731 -0.067796685 0.23650464 -0.18190643 -0.043591242
0.011330643 0.07359987 -0.06347476 0.14694001 -0.049924262 -0.034883797 0.04823301 -0.12653689
-0.05273349 -0.05857815 0.17608213 0.023125483 -0.07139967 0.012511432 0.09185593 -0.0613531
-0.18290405 0.03783762 -0.06221379 -0.019523941 -0.11557461 -0.1066806 -0.19797494 -0.11037118
0.19973807 0.16396445 -0.019128343 -0.01912883 -0.1861258 -0.16451128 -0.055597097 0.18593334
0.12793237 0.106811695 -0.1728672 0.22295511 -0.00051791733 0.007543818 -0.16146606 0.16109802
-0.16191144 0.21715526 -0.039138537 -0.1644904 0.15134996 -0.09671276 0.13258694 0.106462374
0.14225249 -0.055885144 0.09351075 -0.067154266 0.13496251 0.039161015 0.09781757 0.11257586
0.055436507 0.17717907 -0.18214354 0.21086857 -0.19002181 0.18845004 -0.21381637 0.18589559
0.047779743 -0.11585307 0.030592116 -0.1434689 -0.17556077 0.15187323 0.01053762 0.019245327
0.16872251 0.030478928 -0.20418428 -0.20701554 0.09099936 0.09886488 -0.17040975 0.06925988
-0.11416226 0.19522046 0.06573811 -0.073438875 -0.021036888 -0.15684797 -0.012702911 -0.20611836
0.044872627 0.20621614 0.09985524 0.14070393 0.15094185 -0.0678474 0.03954943 -0.16269186
0.18619806 0.2057767 0.1672386 0.03453138 0.17208369 0.17217578 -0.018560115 -0.20964226
-0.18020399 -0.06231323 -0.15304697 -0.072169684 0.1515304 0.024238592 0.08339907 0.10078242
-0.106175244 0.08346346 0.017934578 -0.041278426 0.011128208 -0.08455042 -0.15391321 -0.019298455
-0.19406429 0.029357629 -0.095927246 0.007735352 -0.041414313 -0.19089717 -0.09464781 0.033059295
0.07286311 -0.17009027 0.09274873 0.22789538 0.015768789 -0.049130894 -0.053580265 0.17424102
-0.1390105 0.16051202 -0.14216623 0.11426256 0.11307288 0.049572628 -0.12651885 -0.12244788
-0.17903101 -0.111567765 0.10300487 -0.03769005 -0.18515807 0.13821867 -0.21893215 0.02022844
0.18097684 -0.06741309 -0.08481533 -0.05396368 -0.16062142 -0.08555027 -0.058477867 0.08406648
0.01841713 -0.10387807 0.09919808 -0.2192014 0.09652783 -0.00011535917 0.103021815 -0.058380384
00000000: 7975 ce3c 63d1 44bd 91cd e93d 8058 24be
00000010: 6ea3 d3bd 48de 73bc 7a45 44be e3fa 0ebd
00000020: 6f04 58be 9ddf 00be 17d4 053e 7d74 2cbe
00000030: b6f4 753d c3a3 713c 73db e5bd 0160 9b3d
00000040: 66ad 5c3e 58d3 d43b c49b 29be e0ea c53b
00000050: 17a0 0b3e a436 503d 4cfe 253e c56b bebd
00000060: e38f e5bc b231 59be 582c 4fbe 6137 dc3d
00000070: bdaa 203d bcf3 a2bd e4fe f0bd 1ef7 203d
00000080: 27f8 5dbe f768 49be 5d75 473c 6d06 c23d
00000090: dca5 f33d 7ed7 bebd c2a3 163e a3d8 a03d
000000a0: e8da 213e 09fc babd 548b 8a3a cb16 64bd
000000b0: 7637 bfbd 62f8 283e 989b ccbd 1613 ce3c
000000c0: 695d 14b9 1a70 4ebe dc17 11be 7efb 4cbe
000000d0: bb2f 17be 14df 02be c180 213d a99b 89bc
000000e0: ea3a 4abd 1366 e23d 38f4 22be 2041 023e
000000f0: 59c8 c93d 96ab a7bd 421f 1c3e 3fb7 213d
00000100: 7339 233e 7ac6 43be d848 ffbd 68af 8dbd
00000110: 15e9 ac3d 8bfe e33d d77c 2a3e 70d2 37be
00000120: 6942 6fbe 754e 5cbe 82b7 3dbd ac86 ed3d
00000130: bfe9 45be 1a7d f33d 954f 293e ced6 4fbd
00000140: b2bb 343e ac6f 0f3e c81f 453d a73c 27be
00000150: fdd8 8abd 462e 723e ae45 3abe bb8c 32bd
00000160: 29a4 393c 87bb 963d 0eff 81bd 7177 163e
00000170: 627d 4cbd 50e2 0ebd fa8f 453d e392 01be
00000180: 12ff 57bd a4ef 6fbd e04e 343e a771 bd3c
00000190: fd39 92bd c0fc 4c3c f61e bc3d 634d 7bbd
000001a0: 334b 3bbe 9ffb 1a3d e3d3 7ebd acf0 9fbc
000001b0: 62b2 ecbd 5c7b dabd f1b9 4abe 490a e2bd
000001c0: 2388 4c3e 4ce6 273e 0bb3 9cbc 10b4 9cbc
000001d0: c397 3ebe a575 28be c8b9 63bd 4f65 3e3e
000001e0: b400 033e 17c0 da3d 1904 31be 584e 643e
000001f0: d8c4 07ba 2232 f73b 5c57 25be e1f6 243e
00000200: 1dcc 25be f35d 5e3e bb4f 20bd 2c70 28be
00000210: 7cfb 1a3e 5711 c6bd dfc4 073e f208 da3d
00000220: a3aa 113e d2e7 64bd 9082 bf3d 2d88 89bd
00000230: 9d33 0a3e 4d67 203d 9454 c83d 2c8e e63d
00000240: 6411 633d 6e6e 353e d683 3abe eeed 573e
00000250: 1495 42be 0cf9 403e aef2 5abe 6a5b 3e3e
00000260: b1b4 433d 6044 edbd 519c fa3c 83e9 12be
00000270: 34c6 33be a884 1b3e fba5 2c3c 60a8 9d3c
00000280: 98c5 2c3e f2ae f93c af15 51be e2fb 53be
00000290: df5d ba3d ac79 ca3d e57f 2ebe 20d8 8d3d
000002a0: e7cd e9bd dfe7 473e b4a1 863d 1f67 96bd
000002b0: 8d55 acbc c19c 20be df1f 50bc b110 53be
000002c0: 5ccc 373d 532a 533e e780 cc3d b114 103e
000002d0: 8090 1a3e 94f3 8abd 95fe 213d b298 26be
000002e0: b4aa 3e3e 21b7 523e 9840 2b3e c770 0d3d
000002f0: b536 303e d94e 303e 620b 98bc 76ac 56be
00000300: 6587 38be 283c 7fbd 58b8 1cbe b3cd 93bd
00000310: c92a 1b3e 0390 c63c 22cd aa3d 0367 ce3d
00000320: 6872 d9bd e4ee aa3d 89eb 923c 9113 29bd
00000330: 1653 363c c528 adbd 6d9b 1dbe cb17 9ebc
00000340: cab8 46be 697f f03c 8175 c4bd d678 fd3b
00000350: 0ea2 29bd 8c7a 43be b6d6 c1bd 2f69 073d
00000360: 4139 953d 252c 2ebe 0cf3 bd3d 685d 693e
00000370: 8c2d 813c 7a3d 49bd fb76 5bbd 3d6c 323e
00000380: c558 0ebe 435d 243e 0694 11be 7d02 ea3d
00000390: c192 e73d ab0c 4b3d 288e 01be f4c5 fabd
000003a0: e853 37be a47d e4bd 38f4 d23d e260 1abd
000003b0: 149a 3dbe 3289 0d3e c02f 60be 1db6 a53c
000003c0: fe51 393e e00f 8abd a9b3 adbd 0509 5dbd
000003d0: f179 24be fb34 afbd 7d86 6fbd 0c2b ac3d
000003e0: 85df 963c 07be d4bd 5d28 cb3d 5576 60be
000003f0: 62b0 c53d fcec f1b8 1afd d23d 4520 6fbd

layers.6.bias f4 [64]
-0.0028586139 0.018072153 -0.00027983246 -0.008752488 0.0014232231 0.002801363 -0.010320907 0.008060067
-0.015691884 -0.00024325859 0.00078442035 -0.0011323438 0.0006528055 0.0010310585 0.0011310634 -0.08038494
-0.00036092845 0.003223644 0.003834819 0.0073937406 0.0027562869 -0.0011264125 -0.015567535 -0.001855194
0.0003669166 0.0020277114 -0.0024643985 -0.0028479428 -0.04465179 -0.016110087 -0.0014022756 -0.0038345524
-0.000538836 0.0040341746 0.0014757545 -0.0027483606 -0.0034358418 -0.01316512 -0.0025988105 0.0022254921
0.006919376 -0.0019515892 -0.002581194 0.0005630689 0.0035908066 0.011363639 -0.0033296198 0.0014870836
0.0038088115 -0.0053330823 0.013141889 -0.02950927 0.00043053788 0.0015503212 0.0045816186 -0.017650628
0.0035644593 -0.0144895455 0.0057863025 -0.004224463 0.0054154387 -0.0019377158 -0.00453847 0.0025518357
00000000: 9557 3bbb 0d0c 943c 7ab6 92b9 9866 0fbc
00000010: 718b ba3a 1297 373b 0619 29bc 5f0e 043c
00000020: 448c 80bc 3b13 7fb9 8fa1 4d3a 276b 94ba
00000030: 0921 2b3a 9524 873a 3140 943a dca0 a4bd
00000040: ff3a bdb9 c643 533b 9651 7b3b 3147 f23b
00000050: d2a2 343b 22a4 93ba f90e 7fbc fb29 f3ba
00000060: b65e c039 5ae3 043b bf81 21bb 8da4 3abb
00000070: cce4 36bd 4df9 83bc 90cc b7ba 1d4d 7bbb
00000080: ac40 0dba 1c31 843b 1b6e c13a d71d 34bb
00000090: dc2b 61bb 84b2 57bc ce50 2abb 90d9 113b
000000a0: efbb e23b 78cc ffba 4029 29bb ea9a 133a
000000b0: bd53 6b3b 8e2e 3a3c c035 5abb 3fea c23a
000000c0: 419d 793b 23c1 aebb 1451 573c 6dbd f1bc
000000d0: d1b9 e139 2634 cb3a 6721 963b 0d98 90bc
000000e0: b499 693b 8f65 6dbc 069b bd3b 5d6d 8abb
000000f0: fe73 b13b f4fa fdba 72b7 94bb b33c 273b

layers.8.weight f4 [64, 64]
-0.02480659 0.009814363 0.11277427 0.043234162 -0.14755003 0.13882822 0.22953217 -0.031674996
0.064188205 -0.19301449 -0.017127613 0.05698909 0.002658645 0.18105754 0.15224518 0.016958525
-0.1922372 0.043064166 0.16936947 -0.07355521 0.01009089 -0.19845112 0.12680937 -0.16071557
0.095912136 -0.1481894 -0.02640088 0.1621205 0.035293426 -0.16127469 -0.18240283 -0.049365636
0.05210086 -0.18737254 0.06426909 0.22436817 -0.2082253 -0.016058732 -0.113067776 -0.0093362015
-0.12812649 -0.060171504 0.20573351 0.0014816055 0.024950769 -0.20329298 -0.054085508 0.070257105
0.08473183 0.07314168 0.01385425 0.08766063 -0.19910786 -0.05297266 -0.12102355 0.02612555
0.09200148 -0.017249905 -0.2033916 0.036140103 -0.17767018 -0.0018178257 0.031287797 -0.021476237
0.20510557 -0.05180396 -0.18678418 -0.14427355 -0.15195857 0.0037367041 -0.06899773 0.20796888
0.06479779 0.013594308 -0.1555129 0.101181366 -0.19005208 -0.11257081 0.012531468 0.18825334
0.1752516 -0.071127735 -0.17377327 0.0040673884 -0.027805947 -0.046466265 -0.06959958 -0.029142065
-0.027901657 0.002742023 0.15843445 -0.11422877 0.03191804 -0.057492655 0.15996112 -0.2022417
0.21114637 -0.11682977 0.220209 0.06510512 0.21315838 0.03602044 0.04656199 0.020377588
-0.15704829 -0.12315777 0.10373753 0.14150317 0.21027072 0.059955213 0.0079981 0.1827141
0.029058944 0.16276354 -0.09874413 -0.05445386 0.15155452 -0.09589276 -0.12293192 -0.07156869
0.06797516 -0.0043918504 0.14077789 -0.032349546 0.09855119 -0.17730343 -0.0051931594 -0.14020126
0.19700077 -0.08295113 -0.06999057 0.2052594 0.082413584 -0.14715503 -0.106994346 0.19380715
0.017860692 -0.17398392 0.06382517 0.13031968 0.09780157 0.15997377 -0.015605787 -0.086045004
-0.20618083 -0.04005612 0.14267175 0.19108252 -0.13424277 0.14863698 -0.024327803 0.13626891
-0.08419758 -0.203392 -0.05566405 0.057011258 -0.034004997 0.05365875 0.014535886 0.1932278
0.07146283 -0.05599525 -0.019785263 -0.19440238 -0.17648923 -0.18941668 -0.16191764 0.14702418
-0.071451426 -0.092575856 -0.11911483 0.07788908 0.003533271 0.07077072 0.09661394 0.018847523
-0.1952172 0.194627 0.1917137 0.009457651 0.061726447 -0.062940836 -0.10772917 0.08695137
0.033452634 0.030932609 0.17696 -0.116656356 0.053902384 0.052413385 0.16140606 -0.20547293
-0.009413878 -0.015525663 -0.3625465 0.19695258 -0.24322122 0.1771051 0.06680781 -0.08969273
0.052594263 0.17503665 0.39221966 0.21330613 -0.18719618 -0.21121265 0.045027576 -0.26891595
-0.2257838 -0.01977836 0.3268925 0.31430542 0.23844555 -0.26011592 0.037387397 0.09890836
-0.0115383 0.06311555 0.09769816 0.17161956 -0.18293315 0.1400939 0.13538955 -0.16304922
0.21718284 0.2110749 0.40513518 0.042932533 -0.011961298 0.10003657 -0.112492025 0.29344565
0.12270276 -0.31591612 -0.2270119 0.30481178 0.3326032 0.27126718 -0.16759112 0.2563306
0.15591972 0.10322461 0.021542534 0.20762493 0.028688071 -0.120607734 -0.056088366 -0.12229869
0.07567637 0.0836473 -0.078032054 -0.06767823 0.17410249 -0.093359105 0.33131582 -0.069268465
00000000: 3137 cbbc 6ccc 203c 32f6 e63d 4e16 313d
00000010: 5b17 17be fc28 0e3e 7b0a 6b3e a4bd 01bd
00000020: 1b75 833d 97a5 45be 354f 8cbc 646d 693d
00000030: a93c 2e3b 2667 393e 29e6 1b3e 9bec 8a3c
00000040: d4d9 44be 0d64 303d 316f 2d3e 1da4 96bd
00000050: 4354 253c c536 4bbe 51da 013e 9f92 24be
00000060: 956d c43d f6be 17be a946 d8bc eb02 263e
00000070: d78f 103d 3125 25be cfc7 3abe 9f33 4abd
00000080: b667 553d 96de 3fbe 839f 833d c5c0 653e
00000090: 0339 55be 9a8d 83bc 1490 e7bd def6 18bc
000000a0: 9733 03be 6576 76bd ceab 523e 6e32 c23a
000000b0: 8e65 cc3c 092c 50be c488 5dbd f5e2 8f3d
000000c0: e287 ad3d 4ecb 953d f0fc 623c 6b87 b33d
000000d0: eee2 4bbe dcf9 58bd 32db f7bd 4005 d63c
000000e0: 466b bc3d ac4f 8dbc e345 50be a507 143d
000000f0: 2cef 35be 1c44 eeba a227 003d efee afbc
00000100: 3207 523e 6430 54bd 5a44 3fbe 72bc 13be
00000110: 079b 1bbe 7ee3 743b af4e 8dbd cbf5 543e
00000120: b4b4 843d a9ba 5e3c c63e 1fbe 2d38 cf3d
00000130: 039d 42be 868b e6bd c950 4d3c 7cc5 403e
00000140: 2875 333e 6bab 91bd 9ff1 31be ba47 853b
00000150: 4cc9 e3bc 6953 3ebd 398a 8ebd 57bb eebc
00000160: 0492 e4bc 83b3 333b a43c 223e c6f0 e9bd
00000170: 7ebc 023d 6b7d 6bbd d9cc 233e 7318 4fbe
00000180: c136 583e 7244 efbd 787e 613e d555 853d
00000190: 3146 5a3e 2b8a 133d c9b7 3e3d e6ee a63c
000001a0: 44d1 20be 243a fcbd 5874 d43d 35e6 103e
000001b0: 3551 573e 9993 753d 760a 033c 6819 3b3e
000001c0: 060d ee3c 7cab 263e 5d3a cabd 030b 5fbd
000001d0: 1c31 1b3e 6c63 c4bd bbc3 fbbd 9b92 92bd
000001e0: 9036 8b3d 83e9 8fbb 1428 103e f580 04bd
000001f0: 35d5 c93d 088f 35be 612b aabb eb90 0fbe
00000200: 92ba 493e 48e2 a9bd 3757 8fbd 852f 523e
00000210: 74c8 a83d cfaf 16be da1f dbbd 6275 463e
00000220: 9650 923c d728 32be c5b6 823d 8672 053e
00000230: 314c c83d 2ad0 233e 6aaf 7fbc 5d38 b0bd
00000240: 1121 53be e311 24bd 8b18 123e 23ab 433e
00000250: f076 09be 4b34 183e 1a4b c7bc 148a 0b3e
00000260: c86f acbd fe45 50be fdff 63bd a384 693d
00000270: d348 0bbd 47c9 5b3d ed27 6e3c 82dd 453e
00000280: 1b5b 923d 465b 65bd b414 a2bc 6b11 47be
00000290: 98b9 34be 72f6 41be bdcd 25be 828d 163e
000002a0: 2055 92bd 6998 bdbd 7af2 f3bd 4f84 9f3d
000002b0: 738e 673b 3df0 903d 88dd c53d 1f66 9a3c
000002c0: 05e7 47be 4d4c 473e 9950 443e 43f4 1a3c
000002d0: dfd4 7c3d 20e7 80bd 1ca1 dcbd 8f13 b23d
000002e0: a105 093d 6266 fd3c 0135 353e 87e9 eebd
000002f0: bfc8 5c3d 6baf 563d a147 253e 7f67 52be
00000300: ab3c 1abc 5a5f 7ebc b29f b9be f0ad 493e
00000310: fc0e 79be 0a5b 353e 88d2 883d d2b0 b7bd
00000320: 156d 573d cf3c 333e 04d1 c83e ec6c 5a3e
00000330: 5bb0 3fbe 2148 58be d66e 383d 5aaf 89be
00000340: de33 67be 3a06 a2bc 745e a73e a4ec a03e
00000350: 122b 743e ea2d 85be 8723 193d 7790 ca3d
00000360: 230b 3dbc ba42 813d f915 c83d 0abd 2f3e
00000370: d452 3bbe c674 0f3e 8fa3 0a3e 60f6 26be
00000380: 2e65 5e3e 0524 583e e16d cf3e 06da 2f3d
00000390: 52f9 43bc f9df cc3d 3862 e6bd 823e 963e
000003a0: 964b fb3d c2bf a1be cf75 68be 4a10 9c3e
000003b0: f74a aa3e 88e3 8a3e 029d 2bbe c43d 833e
000003c0: 6ba9 1f3e 6d67 d33d f879 b03c a19b 543e
000003d0: 3f03 eb3c 3001 f7bd eabc 65bd bc77 fabd
000003e0: 36fc 9a3d 474f ab3d 45cf 9fbd e29a 8abd
000003f0: ec47 323e 0f33 bfbd 3aa2 a93e a0dc 8dbd

layers.8.bias f4 [64]
-0.0029669874 0.0006777304 0.0022662277 -0.019164333 0.0064251903 0.0011097923 -0.0036134236 0.011479484
-0.0033880514 -0.0020926013 0.004918875 -0.0035369545 -0.0024621107 -0.0026494726 -0.0013857813 -0.0012781526
0.00015580264 -0.00024377879 0.0016967801 -0.03162466 -0.0017876878 0.0050358814 -0.00014863808 0.002932233
-0.0018168854 0.00059210847 -0.0022145286 0.005098736 -0.014529086 0.0023402222 0.0133636715 0.0076059126
0.0022276016 0.0059295935 -0.0037499804 -0.0060841553 -0.0015590898 0.0023752544 0.0030497028 0.0016221561
0.003132949 0.0034737452 -0.0012166065 0.00033798517 0.004537981 0.004021192 0.002067279 -0.003552401
-0.0006733298 -0.0027701315 -0.0011230131 0.0029388024 0.0049573225 -0.00016955845 -0.003827615 -0.035578348
-0.010071915 0.009847168 -0.0017234323 0.0055234786 -0.005455003 -0.0052006794 0.00255656 -0.00265079
00000000: ca71 42bb b8a9 313a fe84 143b 85fe 9cbc
00000010: 678a d23b 7376 913a 30cf 6cbb 7214 3c3c
00000020: 120a 5ebb 0624 09bb 842e a13b 40cc 67bb
00000030: 5d5b 21bb c6a2 2dbb 1ba3 b5ba af87 a7ba
00000040: f45e 2339 df9e 7fb9 7e66 de3a dc88 01bd
00000050: d950 eaba 0904 a53b bbdb 1bb9 b52a 403b
00000060: 8f24 eeba ba37 1b3a a021 11bb 4c13 a73b
00000070: 670b 6ebc 6a5e 193b 4df3 5a3c 053b f93b
00000080: f4fc 113b 094d c23b 3bc2 75bb 985d c7bb
00000090: 5f5a ccba 28aa 1b3b 86dd 473b 879e d43a
000000a0: 2952 4d3b c6a7 633b 8a76 9fba 9a33 b139
000000b0: 58b3 943b 34c4 833b 307b 073b 66cf 68bb
000000c0: 6682 30ba 188b 35bb 1132 93ba ec98 403b
000000d0: 0971 a23b 80cb 31b9 b9d8 7abb 9aba 11bd
000000e0: ac04 25bc 0456 213c cbe4 e1ba 4cfe b43b
000000f0: e2bf b2bb 766a aabb f68b 273b e0b8 2dbb

layers.10.weight f4 [64, 64]
0.0568232 0.1979173 0.09070463 0.083735 -0.17728586 -0.0992903 -0.12812124 -0.035746858
-0.19890484 0.19836949 0.031479776 -0.15063016 0.05490382 -0.082305096 -0.008533652 0.014689315
0.06246577 -0.12554641 0.27806357 0.06332085 -0.14028442 0.11835296 -0.0045363996 -0.026278371
0.11110716 0.19072704 0.17073229 0.18729821 -0.08155049 0.1363554 0.1370621 0.025134925
-0.14333004 0.07601187 -0.15172829 -0.11231346 -0.1416698 0.1813326 0.10085006 -0.11507345
0.19206034 0.21287791 0.1538149 0.087151 0.2453618 0.05033327 -0.13125025 0.12862891
-0.011075964 0.024039509 0.011805386 0.07156295 0.17907564 -0.05570124 -0.08882122 -0.16217643
0.17042442 -0.04838825 0.05488189 -0.015543411 0.03873189 -0.25539145 0.00038270725 -0.05346153
0.14238933 -0.012972567 -0.13301 0.20152617 -0.107328184 -0.14583728 -0.2044341 0.020425737
-0.12274384 0.14742473 0.21072087 0.18853343 0.102717884 -0.078800544 0.20408905 0.12014074
-0.18847501 0.18329051 0.118725 0.14856085 0.006189257 0.10265371 0.12639669 0.23694558
-0.01835595 -0.15939277 0.06354162 0.1064406 -0.08227558 0.21290347 -0.20716175 -0.14016302
-0.058517765 -0.020298576 0.10650981 -0.1497932 -0.11159975 -0.0988352 0.118985996 0.16714041
0.18905391 -0.14682885 0.057651024 -0.07338287 -0.12318534 -0.13465276 -0.15916973 -0.016974567
-0.18544918 -0.22593363 -0.039703302 -0.13771757 0.10317856 -0.10451014 0.086763136 -0.2078479
0.20858006 -0.11715526 -0.1892622 -0.14523421 -0.05281684 -0.04034735 -0.020150026 -0.12262276
-0.083265245 -0.014186052 -0.032995645 -0.17029108 -0.20266435 -0.16699721 0.0022650296 -0.14856432
0.11967157 0.16865669 0.20723306 0.07295294 0.14363818 -0.16479737 0.17187895 -0.03174037
0.21403357 0.1165623 0.07066058 0.116339564 -0.14935465 0.1939187 0.009307549 -0.08106825
-0.19142425 -0.01520275 0.19172943 0.03830443 0.05539313 0.05643445 0.09265824 -0.1677517
0.1198732 0.097834535 -0.013322215 -0.18350777 0.2058074 0.13153756 -0.20744017 -0.12839168
-0.12538598 0.16819651 0.05008661 -0.19064474 0.20042512 0.14831713 0.21447927 0.11360892
-0.09040166 -0.10777092 -0.1954447 0.20443472 0.01101393 -0.22753508 -0.21021394 -0.17626017
-0.110211745 0.02707386 -0.06458433 -0.052718822 0.12007687 -0.22158617 -0.14123668 0.17370987
-0.054184042 0.0035818582 -0.014315459 0.029862914 0.15779598 0.21577536 0.21741702 0.063479014
0.014269132 -0.05013497 0.057522938 -0.073262 -0.07249622 0.14637695 -0.07363799 -0.017500661
-0.09143244 -0.14650764 -0.15419368 -0.01946362 -0.20805235 0.13576333 -0.02524431 -0.0059019476
0.10387838 0.023380797 0.034268472 -0.14135349 -0.18541406 0.18003286 0.059883986 -0.11936757
-0.08123291 -0.022627631 0.007184422 0.059373572 -0.10837978 0.09066809 0.0084449025 0.036439016
0.17861468 -0.14770228 0.0659706 -0.1164766 -0.10480839 0.16355687 0.07607799 -0.18903625
-0.021452608 -0.15853547 -0.045363102 0.028385965 0.051351544 0.13347778 0.18831408 -0.13646856
-0.008329265 0.21374556 -0.19087481 -0.16296251 0.13105729 0.05439854 0.0938202 0.17564006
00000000: 72bf 683d d5aa 4a3e 59c3 b93d 417d ab3d
00000010: 6d8a 35be b658 cbbd 3732 03be 4c6b 12bd
00000020: b6ad 4bbe 5f21 4b3e f0f0 003d cb3e 1abe
00000030: d4e2 603d 938f a8bd bbd0 0bbc 74ab 703c
00000040: 1bdc 7f3d 3d8f 00be 595e 8e3e 5dae 813d
00000050: b8a6 0fbe 0963 f23d 14a6 94bb bd45 d7bc
00000060: 278c e33d f34d 433e 72d4 2e3e 1acb 3f3e
00000070: f103 a7bd c0a0 0b3e 025a 0c3e c2e7 cd3c
00000080: 1cc5 12be 1cac 9b3d a95e 1bbe 9904 e6bd
00000090: e311 11be 41af 393e 7a8a ce3d a1ab ebbd
000000a0: 77ab 443e abfc 593e a781 1d3e 397c b23d
000000b0: 2040 7b3e 422a 4e3d 7766 06be 4cb7 033e
000000c0: f677 35bc 81ee c43c 616b 413c 998f 923d
000000d0: 9b5f 373e fc26 64bd e6e7 b5bd 9411 26be
000000e0: bd83 2e3e c232 46bd d5cb 603d caa9 7ebc
000000f0: 55a5 1e3d abc2 82be 19a6 c839 7afa 5abd
00000100: 82ce 113e e48a 54bc c633 08be e05c 4e3e
00000110: e1ce dbbd 5e56 15be 2c57 51be e053 a73c
00000120: 1f61 fbbd 82f6 163e 36c7 573e e80e 413e
00000130: c15d d23d 2e62 a1bd b8fc 503e 590c f63d
00000140: 98ff 40be 82b0 3b3e 1826 f33d 5620 183e
00000150: 40cf ca3b 1c3c d23d 226e 013e dda1 723e
00000160: 385f 96bc dc37 23be 1c22 823d 87fd d93d
00000170: 1980 a8bd 5e03 5a3e 3622 54be e586 0fbe
00000180: 53b0 6fbd 3349 a6bc d121 da3d 6363 19be
00000190: 698e e4bd 1c6a cabd eeae f33d db26 2b3e
000001a0: 5997 413e 4d5a 16be 7b23 6c3d c249 96bd
000001b0: 9848 fcbd 6ae2 09be 64fd 22be 3f0e 8bbc
000001c0: 64e6 3dbe 255b 67be ee9f 22bd d605 0dbe
000001d0: 484f d33d 6a09 d6bd dfb0 b13d 14d6 54be
000001e0: 0396 553e 19ef efbd f3cd 41be 47b8 14be
000001f0: 7956 58bd 4343 25bd ab11 a5bc a421 fbbd
00000200: f886 aabd 9d6c 68bc 7126 07bd c960 2ebe
00000210: 3e87 4fbe 5101 2bbe e470 143b 3f21 18be
00000220: 5e16 f53d 57b4 2c3e e734 543e 5a68 953d
00000230: e315 133e a4c0 28be 0901 303e 3102 02bd
00000240: 9e2b 5b3e 37b8 ee3d 7fb6 903d 7043 ee3d
00000250: 6df0 18be a092 463e b17e 183c 1c07 a6bd
00000260: b804 44be f514 79bc b854 443e 1be5 1c3d
00000270: e8e3 623d cf27 673d 9ac3 bd3d 1ac7 2bbe
00000280: 1580 f53d 795d c83d 6b45 5abc 76e9 3bbe
00000290: 2dbf 523e c8b1 063e 326b 54be 1c79 03be
000002a0: 2f65 00be b53b 2c3e 9e27 4d3d 6038 43be
000002b0: 3e3c 4d3e 72e0 173e 74a0 5b3e cbab e83d
000002c0: 8124 b9bd 00b7 dcbd a822 48be 5657 513e
000002d0: c573 343c f5fe 68be 5342 57be 8c7d 34be
000002e0: b2b6 e1bd 00ca dd3c ca44 84bd b1ef 57bd
000002f0: ddea f53d 7ce7 62be 59a0 10be 00e1 313e
00000300: 16f0 5dbd 9cbd 6a3b 638b 6abc 12a3 f43c
00000310: 4595 213e 37f4 5c3e 91a2 5e3e 4901 823d
00000320: 14c9 693c 545a 4dbd 2c9d 6b3d 630a 96bd
00000330: e678 94bd d7e3 153e 84cf 96bd 8c5d 8fbc
00000340: ee40 bbbd 1906 16be f3e4 1dbe 2b72 9fbc
00000350: ad0b 55be 8b05 0b3e 28cd cebc 2065 c1bb
00000360: 30be d43d 1689 bf3c 195d 0c3d f8be 10be
00000370: 2fdd 3dbe 895a 383e e948 753d fc76 f4bd
00000380: 715d a6bd 955d b9bc 4d6b eb3b b431 733d
00000390: 38f6 ddbd 31b0 b93d 7d5c 0a3c 1441 153d
000003a0: c4e6 363e 443f 17be 981b 873d 498b eebd
000003b0: c8a5 d6bd 747b 273e c7ce 9b3d b892 41be
000003c0: 61bd afbc 1f57 22be a9ce 39bd af89 e83c
000003d0: ff55 523d 66ae 083e 68d5 403e 6abe 0bbe
000003e0: 7877 08bc 1ee0 5a3e b074 43be a5df 26be
000003f0: e233 063e 01d1 5e3d ce24 c03d fdda 333e

layers.10.bias f4 [64]
0.013021659 -0.0076640733 0.002019344 0.002587525 0.0022722261 0.00088808563 0.00034170452 -0.0019442685
0.0035450018 0.0016558403 0.0025248025 0.0018974149 -0.00024858676 -0.002471484 0.0009840822 0.00033755417
-0.0035594758 -0.008724047 0.00091863296 -0.000836265 -0.0040742727 0.0009240718 0.00053360296 -0.0035804324
-0.0030942678 0.002971528 0.0025252232 -0.0013169498 -0.003267887 -0.0025278789 0.002387624 -0.0033680561
0.0024939734 0.002386177 -0.0017359722 -0.0006602215 0.00096151966 -0.002784272 -0.002689326 -0.016860986
-0.0012377892 -0.00603442 0.0034666166 -0.0046059955 0.0023325018 0.00029852486 -0.0031845963 0.0009879253
0.0017881985 -0.0017410611 -0.0021813523 -0.0012542175 0.003407679 -0.0015132381 0.0024869833 0.0022347164
0.004162227 0.0018765748 -0.0029536274 0.0029468955 -0.008678492 -0.007262455 0.001795524 -0.0014574175
00000000: cc58 553c e822 fbbb f856 043b 7793 293b
00000010: a1e9 143b 6bce 683a ce26 b339 d3d6 feba
00000020: 4353 683b c808 d93a 2877 253b aeb2 f83a
00000030: c054 82b9 9ff8 21bb 52fc 803a c1f9 b039
00000040: 1846 69bb 4eef 0ebc 6ad0 703a cb38 5bba
00000050: 7a81 85bb 693d 723a 7de1 0b3a b0a5 6abb
00000060: 33c9 4abb f8bd 423b 377e 253b 819d acba
00000070: 0c2a 56bb c5aa 25bb af79 1c3b 9bba 5cbb
00000080: ee71 233b 6861 1c3b 9089 e3ba b712 2dba
00000090: 7e0e 7c3a 5578 36bb 673f 30bb 0d20 8abc
000000a0: 503d a2ba 62bc c5bb 2d30 633b e4ed 96bb
000000b0: e3dc 183b 5483 9c39 a9b4 50bb 467d 813a
000000c0: fc61 ea3a 5134 e4ba 05f5 0ebb 8e64 a4ba
000000d0: 5e53 5f3b d857 c6ba a8fc 223b 5274 123b
000000e0: 4a63 883b 67f7 f53a a591 41bb b420 413b
000000f0: 3c30 0ebc e3f9 edbb ca57 eb3a d106 bfba
